fault_model_nn_two_year_global/best_Y2023.pt (torch, 235573 bytes, 14 tensors)

lstm.weight_ih_l0 f4 [256, 3]
00000000: 146d 0d3e aa3e 7b3d 3eb0 1b3c c597 8f3c
00000010: 74e6 803c 5795 91bc 1f30 9bbc 4331 023d
00000020: 757a 1a3e cf5b 4cbd 4ccf 8a3d 9c34 6e3d
00000030: 03df 093e 2ba0 cbbc e1ef 9d3c a031 cb3a
00000040: de08 9b3d ccdd 093d 7639 c1bc 17f2 8b3b
00000050: a8d8 bfbd 1720 e53c e16b bebd c13e 273d
00000060: d0e8 b1bd 98b2 9bbd d486 47bc 3048 0ebd
00000070: 62c5 f1bc 26a5 23be 26c4 173e 8ec5 0fbe
00000080: 3351 f53d f4c4 5d3d ac70 0cbc 4420 ad3d
00000090: c4c3 633d adfb 883d c85a a0bc 9739 2a3b
000000a0: 80cf 04bc 15d0 73bd 2519 af3d ad82 cb3d
000000b0: 5a27 de3d f0f8 99bc d1f0 083d cf58 833c
000000c0: d003 d33d 1762 e0bd bb71 23be 2544 86bc
000000d0: d48b 89bd 4d92 873d e539 2dbe 515c 113d
000000e0: cb48 813c db81 cf3c 51a3 933d 3fcc 70bd
000000f0: 48d9 5f3c 5ac9 e1bd 6462 c53c ffae c2bd
00000100: e56d 1cbc 9cfe c03c 09b3 163e a586 ecbd
00000110: 62c5 12bd 3363 05bd cc31 8f3d e1dd b53d
00000120: 4f21 113e 3415 ecbd 8ac7 b1bd 13ce 54bd
00000130: ee86 03be 22f2 9c3d 7854 b33d a0fa 793d
00000140: def6 aabc 6a1f 42bd f8e7 f73c d90a 71bd
00000150: 286f f23d 8aad 91bd b6e0 103d 5c64 93bd
00000160: a06c bdbd 03cd 933d 076d 8e3d 8071 98bd
00000170: 9d2a d13d c223 fb3d db73 09be 1448 02bd
00000180: 0cea 0f3e a3a5 ebbc 24df 81bc fe09 a8bd
00000190: cd6b debd 2f94 873c e375 b53c e4b0 05be
000001a0: c54d eabc 0932 37bd 9bba 17be accf dfbd
000001b0: 292d 09bf 57ba 1abd 2d30 2d3e dd21 623d
000001c0: 51e0 b73b 890c 1abe 5989 70bd a393 a8bd
000001d0: 4b47 2bbb df49 a2bd 5c66 acbd a08a d9bd
000001e0: 5189 bf3c 3ba4 98bd ff17 eebc ebeb 32bd
000001f0: db14 f5bd fe6a 14bd 5545 9cbb 9e88 08be
00000200: d9b1 f93d cff8 653c 9ce6 b83d fe88 a43d
00000210: 25a3 89bd eecd b53d 58b3 85bd ad97 d2bb
00000220: f265 17be e9cd a4bd a946 9f3d d64f 8fbd
00000230: 2a9b b53d a69d e2be b30d 913d 970e 91bd
00000240: 8efe 4b3d 54f1 603d c519 3e3d 8da9 143e
00000250: df62 913d 1719 0bbe e5d1 5f3d b737 abbd
00000260: 90ad 7b3c 608f 75bd 7751 f13d e922 e9bd
00000270: 30f0 cd3d 0a8d 463c b806 c03b 96d3 debc
00000280: 3dc3 a03d 2447 533d f15e 6a3d 3e03 1bbe
00000290: 679e a03d 8319 503c 9473 b8bd 0e1f 0a3e
000002a0: 3715 8b3d a0a4 dfbd 1649 99bd da27 0d3d
000002b0: 2ee1 e73c 9800 fabb ac23 77bd 7f8a aebd
000002c0: f728 0cbe fd4e b03d 82c0 5a3d 71d6 1cbe
000002d0: 6178 593d 73bd a33c 6923 47bc 8b80 83bb
000002e0: f3b5 a23d d288 d43d 1d40 e73c 7da6 5ebd
000002f0: cd0b 77bd b118 153d a390 ddbc adaf 0cbd
00000300: b6c4 fc3d 0ccc 873d 8391 cd3c e132 35be
00000310: 681d 173d 1759 51bd 13f8 923d b69b 2bbc
00000320: 15b8 92bd 2018 73bb 34f9 813d a5c0 ab3d
00000330: 4889 1a3d 0f6c f2bd 380b f4bc 1f3c bebd
00000340: 9c94 80bd d97a 733d 03e8 e93d 7330 d43c
00000350: 9223 08be 1e70 fabc 133e 80bd 6cdd 273e
00000360: ac2b eb3c 844e 5ebd 7333 9d3d 7162 47bc
00000370: 26a7 fbbd 7e32 d73d 8297 13bd 682e 82bd
00000380: aca0 98bd 4e84 f83d 89da f63d f350 373c
00000390: 83de 54bd 7d63 22be 5209 a7bd 6962 0b3e
000003a0: 5f73 923c f37e 133e da30 b13d 897e b03c
000003b0: de7c 893c 6f4d 71bd efe3 14be 0d9f 0fbe
000003c0: 87c8 bf3d 79ea d1bd 35c3 6bbd 2a9a 3dbd
000003d0: 3d59 d7bc 58ae e0bd aeba f6be 1844 b53c
000003e0: 2660 68bd 8ab7 bd3d cb8e 4cbd 3237 76bd
000003f0: 9c23 48be 8d0c a7bd 1ea1 99bd 3ad0 93be
0.13811141 0.061339058 0.009502469 0.017528424 0.015734889 -0.017771406 -0.018943844 0.03178526
0.15085776 -0.049892243 0.0677782 0.05815564 0.13463978 -0.024856647 0.019279422 0.001550246
0.07570051 0.033658788 -0.02358697 0.0042708027 -0.09367496 0.027969403 -0.0929792 0.04083133
-0.086869836 -0.076024234 -0.012178142 -0.034736812 -0.029513065 -0.15980968 0.14820918 -0.14040205
0.11978378 0.054142907 -0.008571785 0.0845342 0.05560662 0.06688628 -0.019574538 0.0025974268
-0.0081061125 -0.059524614 0.08549718 0.09937034 0.108473495 -0.01879546 0.033432785 0.016033558
0.103034616 -0.10956209 -0.15961353 -0.016389916 -0.06716123 0.066197015 -0.16916616 0.03548843
0.01578178 0.025330475 0.072088845 -0.058788534 0.013662644 -0.11024733 0.024094768 -0.09506034
-0.009547685 0.023558907 0.14716734 -0.11549119 -0.03583277 -0.032565307 0.0699192 0.08880211
0.14172862 -0.11527482 -0.08680637 -0.05195434 -0.1284444 0.07663371 0.087563455 0.06103003
-0.020869669 -0.04739324 0.030261979 -0.058848236 0.118376076 -0.07113178 0.03537055 -0.071968764
-0.09249234 0.07216837 0.06954389 -0.074435234 0.10213206 0.1226268 -0.13423102 -0.03180702
0.14054126 -0.028765505 -0.015853472 -0.08205031 -0.10860405 0.016550152 0.02215094 -0.1305576
-0.028601537 -0.04472545 -0.14817278 -0.10928282 -0.53584534 -0.037775364 0.16912909 0.055208076
0.0056114574 -0.15043844 -0.058724735 -0.082312845 -0.0026135023 -0.07924246 -0.08417961 -0.10622144
0.023380907 -0.074531995 -0.029064177 -0.04368202 -0.119668685 -0.03623485 -0.004769007 -0.13333365
0.12192125 0.014036371 0.0902836 0.08033942 -0.067205705 0.088771686 -0.06528348 -0.0064267726
-0.14784983 -0.08047087 0.07777149 -0.06997649 0.08867486 -0.442609 0.07082691 -0.07082861
0.04980331 0.05491765 0.046411294 0.14517803 0.07098936 -0.1358379 0.05464353 -0.08360236
0.015361205 -0.059951186 0.11783116 -0.11383612 0.10055578 0.012118587 0.005860176 -0.027200501
0.07849739 0.051581517 0.05721945 -0.15137956 0.07842713 0.012701395 -0.0900642 0.13488409
0.06791156 -0.109200716 -0.07484643 0.034461834 0.028305616 -0.0076294653 -0.060336754 -0.0852251
-0.13687502 0.08608816 0.053406246 -0.15316178 0.053093318 0.019987797 -0.0121544385 -0.0040131263
0.0794486 0.10377659 0.028228814 -0.054357994 -0.06031399 0.0364005 -0.027046507 -0.034347225
0.12342207 0.06630716 0.0250938 -0.1769519 0.03689328 -0.051110353 0.07176223 -0.010474136
-0.07164017 -0.0037093237 0.0634636 0.083863534 0.037728578 -0.11837017 -0.029790506 -0.09288811
-0.06278345 0.05944333 0.11421206 0.025902009 -0.13294819 -0.03057104 -0.0626184 0.1639306
0.028707348 -0.054274097 0.07675829 -0.012169466 -0.122877404 0.105076775 -0.03603316 -0.063565075
-0.07452521 0.1213461 0.12053401 0.011188733 -0.051970016 -0.15858264 -0.081560746 0.13611759
0.017877279 0.14403896 0.08651896 0.021544712 0.016783174 -0.058911737 -0.14540075 -0.14025517
0.093644194 -0.102498 -0.05755921 -0.0462896 -0.02628767 -0.109707534 -0.481893 0.022127196
-0.05673232 0.09263523 -0.049940865 -0.060111232 -0.19544834 -0.08156691 -0.07501434 -0.28869802

lstm.weight_hh_l0 f4 [256, 64]
00000000: 1b0b 00be bc9a 2d3e 2b8f bd3d 00e8 a73b
00000010: d300 f5bd a2fe 12bc 3c08 dd3c e734 b83c
00000020: 7e8a 06be acc1 0fbd f6f2 6d3d 6dc5 7abd
00000030: d6be 803d 58d0 c1bd 590e d13c 0904 bc3d
00000040: 4058 afbc d007 23be 6dc4 ad3d f1b2 233d
00000050: fe15 89bc 9001 ad3d 291d 39bc 40dd 043e
00000060: 8cc2 ac3d 9f0f 73bd 62fa 003e c4dd 8dbd
00000070: 0299 eabd 8a8f c53c 2874 21bd 3997 2a3e
00000080: 8bc8 90bd e219 c23d e16f 20be 110d db3c
00000090: cae5 3cbc 7784 0fbe fc4d 7b3d 1dce 773c
000000a0: 902c 803d 5468 f8bd cbb5 d8bd 51dd 47bc
000000b0: 28d8 27bc 71bc b13d aa10 d63d 244f 363b
000000c0: f78d 333d 802b 423d 619c a0bd 26b9 333d
000000d0: 3315 da3d 9c90 1e3e 9d67 edbd a59b 86bc
000000e0: 4744 a6bd d2b3 20bd 2a2f f23c f5c1 dabc
000000f0: f58b da3d 144f 2fbd 671d f93d 63d6 143b
00000100: ef0a 01be b865 6bbd d478 97bd 5add 423d
00000110: bae1 ccbd f904 07bb 528d 293d 2637 69bd
00000120: b331 b83c 1d51 0abe 3eb5 acbd 8375 01be
00000130: faca b7bc 69ea 76bd 6a16 43bb 2dd1 e3bb
00000140: 670b 9e3d 5abd c73d 1478 b13d 6728 73bc
00000150: 7e0c 12be 2a1d 3b3d c7d9 50bd 8e97 a23d
00000160: c570 f53d 5d2d 813d dbb9 063e 773b 043e
00000170: af99 733c 2e4a 9ebd 98cf 023e 9a9a 2dbd
00000180: 34e6 9bbd b0ef f33d fd24 a33d a975 c53c
00000190: 3787 273c b3a1 ccbd be7c 663c d66d d53d
000001a0: e6df 933c aa18 86bb 92d4 2dbd 1b12 7dbd
000001b0: a2c9 6a3d 279a 213d 46d0 c93d e16e 9a3c
000001c0: 26f0 3f3d 51f2 143d 89ea 8b3b cd2d 7e3d
000001d0: 11c2 be3d a03a 063e 5c6a a63d 93dd 7bbc
000001e0: d13f f7bd ff8d 863c 0e28 de3c 4d6e 83bc
000001f0: b7fa 11bc 62c6 19bd 8768 4e3d 53c7 a43d
00000200: 8df9 b3bd bc24 f2bb 90bf 513c 9ded bbbd
00000210: 5241 8d3d 0c1c e13d bd8c 213e d954 353d
00000220: 0241 8cbc 4447 6ab9 504f 98bd 7fed 01bd
00000230: 0559 0e3d edb4 e8bd 94bd dabd 060a 1d3e
00000240: d14c 133e be2c ce3c d1a6 0e3e 0819 b2bc
00000250: b2f7 b33c 6000 553c c711 bc3c f27d 9d3c
00000260: a4c3 a6bd ab19 9f3d 04ff 00bd 7d31 453d
00000270: 8630 a03d 5581 8d3b 6046 873b 17c6 f33d
00000280: 7fb1 b4bd 22f3 053d 92c4 983d 9a44 c2bd
00000290: f42a 94bd 201d e6bd d684 f33b 06c2 d0bd
000002a0: 12d7 ddbd 8251 ea3b d29a aebc d3a6 a8bd
000002b0: a7cb 0dbe 0a45 843b 80ee 24bc a5f6 66bc
000002c0: cf3d 09be e2f7 88bc 5c1a 0abe 6a09 0ebe
000002d0: 8748 71bd 594b c33d 582b f3bd a622 0fbc
000002e0: 540a 5f3d 12a7 b53c 8429 e33c 8ca6 9abd
000002f0: 1905 60bd 603c 55bd 8c01 183e 1c0f ce3c
00000300: c142 0dbe 060f 373d ab49 56bd 4d3a 92bd
00000310: 7ad8 a0bd 34f3 1b3e 68f9 ab3d 8f49 b83c
00000320: e18c c9bc cc20 a4bd b5ca bf3d 8fca aa3b
00000330: 61a0 9f3d 992d bfbd 1cad c13d a29d d73c
00000340: 64aa 92bb 4022 0f3d 612f f93d 83f0 0b3e
00000350: 9442 aa3d a85d 77bd 80fa db3d 093a 1b3e
00000360: fd2d cdbd f7a1 ea3c 75d4 24bd 6491 8a3d
00000370: 18fe 013c 62f4 963c dd09 0a3d f2a1 cd3d
00000380: a951 87bd 5954 79bd 5c66 643d a7f2 dabd
00000390: cb4d 9e3c b09c 05bd f438 0e3d 30ef 25be
000003a0: 0de1 4f3c 7bdf cebd 6f1f dfbd 2072 67bc
000003b0: 9aa8 dfbd 7696 c7bc 0afd 8d3a 9824 98bc
000003c0: e2ae b2bd 573d 9fbd 09d0 4dbc e82a 15be
000003d0: 3095 00bd 7596 3b3d 0ca5 dbbc eba7 e83d
000003e0: 483b 07be d692 9ebb aceb d63c 74c3 e83d
000003f0: 8956 a3bd b12d 40bd b564 7ebd ef4e 86bd
-0.12504236 0.16953558 0.09255823 0.005124092 -0.11963048 -0.008971842 0.026981466 0.022486163
-0.13138768 -0.03509681 0.058093034 -0.061223436 0.06286399 -0.094635665 0.025519537 0.09180457
-0.021404386 -0.15920949 0.08484731 0.039965574 -0.01673412 0.08447564 -0.011298456 0.12975025
0.08435544 -0.05934107 0.12595513 -0.06927064 -0.11454965 0.024116296 -0.039417416 0.1665925
-0.070695005 0.09477593 -0.15667678 0.026739629 -0.011529395 -0.14015375 0.06135367 0.015124825
0.062584996 -0.12129274 -0.10581549 -0.012198762 -0.010244407 0.086785205 0.10452397 0.0027818168
0.04383656 0.047404766 -0.07842327 0.043877743 0.10648575 0.15484852 -0.11592028 -0.016431639
-0.081184916 -0.03923399 0.029563505 -0.026703814 0.10671226 -0.042800024 0.12163811 0.0022710792
-0.12601827 -0.057470053 -0.07396093 0.04757438 -0.100039914 -0.002060233 0.04139454 -0.05693736
0.022484636 -0.13507505 -0.08433007 -0.12642483 -0.022435654 -0.060282145 -0.0029767998 -0.006952426
0.077170186 0.09752913 0.08665481 -0.014841176 -0.14262578 0.04568211 -0.05098894 0.07939063
0.119844 0.063074805 0.13156836 0.12913309 0.014868184 -0.077289924 0.12774503 -0.042383768
-0.07612267 0.11910951 0.07966039 0.024103956 0.010225109 -0.09991779 0.014067827 0.1042134
0.018051099 -0.0040922957 -0.04243905 -0.061784845 0.0573212 0.03945365 0.09854178 0.0188517
0.046859883 0.036363903 0.004269902 0.062055398 0.09314359 0.13108301 0.08125755 -0.015372652
-0.12072719 0.01642513 0.027118709 -0.016043806 -0.008909873 -0.03754271 0.050392654 0.080458306
-0.087878324 -0.007389633 0.01280202 -0.091761805 0.068972245 0.10991678 0.15776344 0.04427037
-0.017120842 -0.00022342528 -0.07437003 -0.031720635 0.034752864 -0.11362634 -0.106806904 0.15335855
0.14384772 0.02516782 0.13930823 -0.021740451 0.021968696 0.013000578 0.022957696 0.019225094
-0.08142784 0.07768568 -0.0314932 0.0481429 0.07821755 0.004318396 0.0041282624 0.11903017
-0.08822917 0.032702573 0.07459368 -0.09485741 -0.07234755 -0.11236024 0.0074316068 -0.10193257
-0.10832037 0.00715083 -0.021314058 -0.08234944 -0.13847218 0.0040365504 -0.010066628 -0.014096891
-0.13402484 -0.016719762 -0.13486618 -0.13870779 -0.058907058 0.09535856 -0.118735015 -0.008736288
0.05445321 0.022174392 0.027729757 -0.075512975 -0.05469236 -0.05205953 0.1484434 0.02515369
-0.13794996 0.04469206 -0.05231635 -0.07140026 -0.0785379 0.15229493 0.0839718 0.022496013
-0.02460331 -0.08014068 0.09364835 0.005212135 0.07794262 -0.09334869 0.09456846 0.026320282
-0.0044758786 0.034944773 0.1216724 0.13665967 0.0831348 -0.060392052 0.107411385 0.15158857
-0.10018537 0.028641684 -0.040241677 0.06766012 0.007934116 0.018427078 0.033700813 0.10040654
-0.06607372 -0.060871456 0.05576168 -0.106908135 0.019324204 -0.032620132 0.034722283 -0.16204524
0.012687934 -0.10101219 -0.10894667 -0.014126331 -0.1092083 -0.024363738 0.0010832858 -0.018572137
-0.087247625 -0.077753715 -0.0125618065 -0.14567149 -0.031392276 0.045797784 -0.026812099 0.11360153
-0.13206208 -0.0048392816 0.026235424 0.11365405 -0.0797549 -0.046918575 -0.06210776 -0.06558024

lstm.bias_ih_l0 f4 [256]
00000000: e8c8 143d 9c90 90bd 2e5f b2bc 8564 ea3d
00000010: bb92 07bd f072 28bd df17 c93d da0c 9fbc
00000020: ba62 abbd 0779 8f3d c938 ba3d 7950 a6bd
00000030: c046 543d 530b 59bd 30ac ba3d e646 d93d
00000040: b485 b13d 99f0 153e fb36 04bc f98d cfbc
00000050: df27 823d 9c81 8c3d e4e1 2dbc 3dbe 25bd
00000060: c545 4dbc bce1 c83d a7e0 c63d 10e8 8ebc
00000070: 7574 183e 94bd 86bd 939e f33c c1a5 9a3d
00000080: f956 79bd 8009 1d3e 933b 99bc 1605 ed3d
00000090: bacd 98bc a43c 1bbd 91fc 1e3e fd14 8d3c
000000a0: 414c 413d 0d1f 243e ac74 a1bd 6d90 143e
000000b0: 9b98 d5bc 4e7b 70bd 67e6 e73d 83be eebc
000000c0: 12e2 90bd faf4 9dbc ad22 e43d c404 b43d
000000d0: 2530 e53c 6860 d83d 4b56 8a3d 587a 7cbd
000000e0: a080 843d 76d5 053e 24be b63c c6c1 f03c
000000f0: bea5 213e ba14 493b fed2 1c3e 2496 0d3e
00000100: ee40 153e da4d 253d 7938 9e3d 0afc 993d
00000110: de5f 8fbd 88ba d7bc 9b9a 10bd cc44 d93c
00000120: 7e0f 48bd ea37 3fb7 fd98 2ebd a7e0 56bd
00000130: 559d 9a3d 7078 293e 7755 84bc 0d5b 3bbd
00000140: e213 543a 9051 b2bc 056e d4bd 2238 fd3d
00000150: e243 d53d 6634 dc3d 454e 8ebc 2314 24bd
00000160: 31ac 143e e1bf e9bc 5202 72bd e99a 8bbd
00000170: 767b a73d 8d7f 283c c3db febc 244d 1b3e
00000180: f19f 25bd c2e7 453d 3d95 d23d 9ff4 ce3d
00000190: 3d39 ab3d 7f32 a53c b5f8 be3d 477c bb3c
000001a0: 53a2 2b3d 257a f7bc a294 f13d 2bd5 893d
000001b0: cd76 7b3d 6c7c ae3c a313 a23d 60f8 edbd
000001c0: 8bc5 d93d 5436 143e 9dba c93d ffd9 ee3c
000001d0: 3cb0 a8bd dadb 0a3c d680 69bd 03f5 e2bc
000001e0: 68cf 0d3e 3f59 e23c 265b 2e3e 4616 a0bc
000001f0: e1c6 38bd 5933 a3bd 50c8 893d a02c 863d
00000200: dc6d a63c c4be e93d 579b eb3d b545 1fbe
00000210: 4408 1cbd e55d 033e ca1b f23d 041c ba3d
00000220: 1996 8cbd 1673 12be bc90 213e efa9 8ebd
00000230: 84be 993d 5dca 9abd ae12 92bd a597 a53d
00000240: 1666 1d3e 3bf9 42bd 5ee8 b83d 379e 9f3d
00000250: 50dd 97bb c6a7 89bc b824 a73d 1964 1b3e
00000260: eac9 90bb 4dc7 103e 16fe 0e3d 7efc a83d
00000270: 5620 12be a6ab dc3d ddb0 173e d862 923d
00000280: 91d7 d0bc e084 903d 8338 09be a54c 17be
00000290: 432d a83d 8b9a 15be 59b6 d73b f939 dcbd
000002a0: 23ce 16be f423 c1bd efc6 1abd d895 0cbe
000002b0: 98ad 02be 23e8 83bd b39f 0b3d d064 98bc
000002c0: 5909 a13d b529 27be 626c 0dbe daff 84bd
000002d0: eba8 203e 5036 1d3e acc1 6bbd 16b4 50bc
000002e0: 13e6 b5bc 2dfc 09bd 82b3 ffbc 1f24 65bc
000002f0: 88ce 0c3d 4fad 0fbc 33b9 d73d 3266 4ebd
00000300: f928 b23c 5508 8b3d 04fc 013e b838 e63d
00000310: 161b 853c 4772 3d3d b260 36bc 45d4 1b3e
00000320: 8717 af3d 899d 8ebd 065b c83d ccd1 173e
00000330: 931a 8c3d fbfc 58bd dd9c f13d 535f 3f3d
00000340: 7e8c 673c 0fdf 9f3d a655 e23d a0ee ad3d
00000350: 014b b1bd 02f4 a73d 647a dfbc ba5b 97bd
00000360: 7659 11bd 8254 e53d 24f9 133e 86e8 9a3d
00000370: c665 fa3d ebd1 bcbd bf50 55bc d11d ccbc
00000380: a25e 99bd 5c65 11bd 26fa 42bd 6acc 71bd
00000390: 81bf bfbb 2a38 b9bc 1702 3e3d 7068 5c3c
000003a0: 287b 113d 601d 89bd ee50 79bd c667 89bd
000003b0: 9612 fd3d b354 563d 3342 6ebd 9413 30bd
000003c0: c335 db3c e845 0fbd 7b80 073e 726c fb3d
000003d0: f128 853d 2db6 c03c 00b4 f43d 8727 803d
000003e0: 7f0b 5c3d 704a 753d b7d1 91bd 257a ac3d
000003f0: b854 a63d 488a f73d 3af9 9a3d f83d 0d3e
0.03632441 -0.07058832 -0.0217739 0.11444954 -0.033098917 -0.041125238 0.09819006 -0.019415308
-0.0836844 0.07005506 0.09092862 -0.08120818 0.051825285 -0.052989315 0.091148734 0.10609226
0.0866808 0.14642562 -0.008069749 -0.025336253 0.06355261 0.068606585 -0.010612939 -0.04046463
-0.012528841 0.098086804 0.09710818 -0.01744464 0.14888175 -0.06579128 0.0297387 0.07551146
-0.06087396 0.15335655 -0.018705165 0.11573236 -0.018652786 -0.03789963 0.15526034 0.017221922
0.047191862 0.1602747 -0.078835815 0.14508219 -0.026073745 -0.058711343 0.11323243 -0.029143577
-0.070743695 -0.019281853 0.111394264 0.087899715 0.027977059 0.10565263 0.0675474 -0.061640114
0.06469846 0.1306971 0.022307463 0.029389273 0.15785882 0.003068252 0.15314862 0.13826805
0.1457555 0.04035745 0.07725615 0.07518776 -0.07000707 -0.026334062 -0.035303693 0.026522063
-0.0488429 -1.1397506e-05 -0.04262637 -0.05246034 0.0754954 0.1654985 -0.016154034 -0.04574113
0.0008090121 -0.021767408 -0.10372547 0.12364222 0.10413338 0.10752182 -0.017371306 -0.040058266
0.14518811 -0.028533878 -0.059084244 -0.06816656 0.08177845 0.010284317 -0.03111065 0.15166146
-0.040435735 0.048316725 0.10282371 0.101052515 0.08360527 0.02016568 0.09324781 0.022886408
0.04190285 -0.03020961 0.117959276 0.06730112 0.061392594 0.021299563 0.07913902 -0.116196394
0.106333815 0.1447385 0.09850047 0.029156683 -0.08236739 0.008475268 -0.057007633 -0.027704721
0.1384865 0.027630446 0.17026958 -0.01954187 -0.04511154 -0.07968778 0.0672766 0.0655148
0.020316057 0.11413339 0.11504238 -0.15553935 -0.03809382 0.12828787 0.118217066 0.09087375
-0.06864566 -0.14301714 0.15777868 -0.06966006 0.07507041 -0.07558129 -0.07132469 0.080855645
0.15370974 -0.047600966 0.090286955 0.07793849 -0.004634537 -0.016803633 0.081613004 0.15174903
-0.0044186013 0.14138527 0.034910284 0.08251284 -0.14270148 0.10774927 0.14813562 0.07147759
-0.025493415 0.07056594 -0.13400464 -0.14775331 0.08211758 -0.14609735 0.006583017 -0.10753245
-0.14727072 -0.09430686 -0.037787374 -0.13729036 -0.12761533 -0.06440761 0.034087848 -0.018602759
0.07863111 -0.16324504 -0.13810876 -0.06494112 0.15689437 0.1535275 -0.057557747 -0.012738248
-0.022204434 -0.03368776 -0.031213526 -0.013985663 0.03437665 -0.008769347 0.10533371 -0.05039043
0.021748053 0.067886986 0.12693793 0.11241287 0.016248267 0.04625156 -0.011131452 0.15217693
0.08549409 -0.06963641 0.09782986 0.14826125 0.06841006 -0.052975636 0.117974974 0.046721768
0.014132617 0.07806217 0.110514924 0.0849278 -0.08656884 0.08200838 -0.02728004 -0.07390542
-0.035485707 0.11197759 0.14450508 0.075638816 0.12226443 -0.09219726 -0.01301974 -0.024916561
-0.07488753 -0.035497054 -0.04760184 -0.059032835 -0.0058516865 -0.022609789 0.04638871 0.013452634
0.03551784 -0.06695056 -0.060868196 -0.06709246 0.123570606 0.05232687 -0.0581686 -0.04298742
0.026759034 -0.034978777 0.13232605 0.12276544 0.065019496 0.023524368 0.11948395 0.06257539
0.0537219 0.059885442 -0.07120078 0.08421735 0.081216276 0.12086922 0.075670674 0.1379317

lstm.bias_hh_l0 f4 [256]
00000000: b430 b6bc 15e9 ae3c 37fa 49bd a15b 193e
00000010: 9f5f 1a3d 118f b3bd d578 ec3d 6a10 713d
00000020: cfa4 bcbc b1cd 1d3e 1162 ecbc c512 f5bc
00000030: 3b97 e7bb c970 6c3d d38a 70bd ec96 843d
00000040: bb54 9cbd 5d33 30bd e92c 69bd 1310 88bd
00000050: 0717 6f3d 7f22 b03d 1694 703c 88be 8b3b
00000060: fcd3 e63c 279c 61bd be48 98bd aa58 30bd
00000070: d466 42bd 1944 373d 299e 143e a765 093e
00000080: c4bd 43bd e882 df3d 8605 1c3e 661e 7a3c
00000090: a9fc 83bd bdbd afbd d6e3 f03c 6eac 8dbc
000000a0: dd5c 673d 2c96 93bd a26d dc3c 3d2c 883d
000000b0: 5dfe 933b 03c5 c03c a940 263e a201 823d
000000c0: 1613 83bd cf15 6fbc e5c0 b43d a45d b33d
000000d0: 19c2 91bd 2e26 34bd 9711 13bc 7113 893c
000000e0: 7045 453d a87c 943d dfbd c6bc 5002 d6bc
000000f0: ee46 d73d 7e7f 70bd 15ed 6e3c 8894 aabd
00000100: dc6f 4ebd ba9a 5c3d 79d4 163d c677 173e
00000110: ea75 2c3e 3fdb a4bd 1c5c 03bd a836 963d
00000120: 02a2 06bb c80d 98bd 8bd5 02bd 745c eabc
00000130: b8f7 443d 5ad1 c53d 13cb e33d a4fd 113e
00000140: 1af0 bdbc 0adc f53d 6fcf 5bbd 268c bfbd
00000150: 76c7 0dbd 52c6 933d ff27 8b3d 7e61 87bd
00000160: 44b4 713d 100b 2d3d 9d07 0c3e dc0b 0ebd
00000170: f487 75bd 054d 9c3c f060 a2bb 8052 c43c
00000180: 5007 97bb 90fb 253e 82ce c53c e939 a3bd
00000190: c7aa c1bd aed8 013d d56d cb3d 5e1c 813d
000001a0: 4695 c8bd 51ad 7b3d b5f3 043e 73d1 a1ba
000001b0: b37d c13d 8402 0a3e ebd1 083e 86ec ce3c
000001c0: 5909 edbd 9f8d 76bd c71d fe3d a921 d6bb
000001d0: 51c9 103e 701e fb3d 50ae 8cbd a488 b53d
000001e0: 796f 82bd 0ced 46bd 31f0 083e f5c4 1f3e
000001f0: 6ec1 963d d9de a03d ed57 0c3d 98f8 cc3d
00000200: 19db 23be a5eb 893d f6df 5f3d d9ac a0bd
00000210: 4aa3 eabd 4c5e 873d 00f1 743b eda9 653d
00000220: 22ba 12bd 9fd6 28bd aeb4 f2bb a416 17be
00000230: 71f0 7e3d 5841 75bd d209 88bd c468 f13d
00000240: 3e06 a9bc 0fc9 0ebd 27b8 9fbd 1bf6 9bbc
00000250: e788 d53d 6750 0fbd 288d df3d 1f3b 143e
00000260: 568d 993d ff57 0c3e c246 953d a253 dc3d
00000270: ded6 18be de19 ee3d 8e1e ad3d 2a8c 7c3d
00000280: a694 1bbe 563c de3d 2796 033d 694b 09be
00000290: 0d8d c53d b901 a83d 4ad7 ba3c bdcf 90bd
000002a0: 1c24 1cbd f330 16be e6c5 17be d278 5ebd
000002b0: 843a 99bd 5fce 163e fd79 e53d 6867 a4bc
000002c0: f5b0 0bbe 76d1 a3bb 0bb6 21bd 5bad bebd
000002d0: fa5a 123e 9d70 f13d 0ada b6bd e4ca 023e
000002e0: 1530 18be 0602 12be 1cfd 7a3c 6f99 ed3d
000002f0: 6038 6b3c da0a 68bd 27a8 b9bd 40c5 8f3d
00000300: c367 323d c0b2 b5bd 71a1 52bd 3e2a ec3d
00000310: db0e 6ebd 07fb 373d 652c 153e 2f7a 183c
00000320: cf4f ae3d e3a1 c93d e193 123c e5e5 52bd
00000330: 8ce5 22bd 8c9f 9bbd 0f04 643d 590a 8d3d
00000340: b0fd 793c 3b4d b93d e9a0 9c3b ec1b 883d
00000350: 2bb6 083e 015b 163e 875f 193e 8dd2 11bc
00000360: 3d14 ef3c 07b6 0b3c bdea ac3d 39ce e53d
00000370: ff8d 873d cf0e 57bc 903c 8d3d 71b0 3cbd
00000380: 82c7 9fbd 7dff ab3c a2df f63c 319c 9d3c
00000390: ef65 043d 7ea6 993d 39de 913d 9115 843d
000003a0: e398 a23c cf1d 8f3d 80c5 33bd e280 0abd
000003b0: 77f1 513d c290 013e 2038 5b3d 1f3b f33d
000003c0: a11c 043e 24c0 9dbd 7929 d8bc 84bd 9c3d
000003d0: 956b ed3c 392d b23d 9005 b3bc 5df6 c53d
000003e0: 9a4d ecbc 2c3a 593d 0ea8 7ebd 463f 523c
000003f0: b953 ec3d e2f4 dd3d 9c1b 97bd 8e3d d33d
-0.02224002 0.021351377 -0.04931089 0.1497636 0.037688848 -0.08767522 0.115464844 0.058853544
-0.023027806 0.15410496 -0.028855355 -0.029916177 -0.0070675886 0.057724748 -0.058726143 0.064740986
-0.076333486 -0.043017734 -0.056927595 -0.06643691 0.05837157 0.086003296 0.014683744 0.0042646565
0.028177254 -0.05508056 -0.074357495 -0.043053307 -0.047461346 0.044742677 0.14513458 0.13417684
-0.047788396 0.1091364 0.15236482 0.015266037 -0.064446755 -0.085811116 0.029405516 -0.017294135
0.056485046 -0.072063774 0.026907746 0.06649063 0.0045164065 0.023531443 0.16235603 0.06347968
-0.06400125 -0.014592602 0.08825854 0.08758095 -0.07117099 -0.043981723 -0.008976362 0.016732903
0.048161924 0.07250339 -0.02426046 -0.02612415 0.10511576 -0.058715336 0.014582892 -0.08329111
-0.050399646 0.053858496 0.036823723 0.14791784 0.16841856 -0.080496304 -0.032070264 0.073346436
-0.0020543342 -0.074245036 -0.03194193 -0.028608538 0.048087806 0.09659071 0.11122718 0.14256912
-0.023185778 0.1200486 -0.05366462 -0.09352903 -0.03461405 0.07215561 0.06794738 -0.06610392
0.059009805 0.04224688 0.13674779 -0.03467928 -0.059944108 0.019079695 -0.0049554035 0.02396512
-0.004609026 0.16209245 0.024146322 -0.0797003 -0.09456401 0.031700782 0.09933058 0.06304239
-0.09794097 0.061444584 0.12983592 -0.0012345746 0.09447803 0.13477522 0.13361327 0.025259268
-0.115740485 -0.060193654 0.12408023 -0.0065347743 0.14139296 0.12261665 -0.06869185 0.08863953
-0.06368918 -0.04856591 0.13372876 0.15602477 0.073611125 0.07855005 0.03426354 0.10008353
-0.16001548 0.06734399 0.054656945 -0.07845468 -0.11456926 0.066097826 0.0037375093 0.056070257
-0.03582204 -0.041220304 -0.0074067926 -0.1475473 0.06224102 -0.05987677 -0.06642498 0.117875606
-0.02063286 -0.034859713 -0.07798796 -0.01903825 0.10426503 -0.034988787 0.10915595 0.14475678
0.07497661 0.13705443 0.072888866 0.10758139 -0.14925715 0.116260275 0.084530935 0.06165711
-0.15193424 0.10851352 0.03212562 -0.13407673 0.09646044 0.082034536 0.022807736 -0.07070873
-0.038120374 -0.1466711 -0.14821586 -0.054314442 -0.07481864 0.14727162 0.11204908 -0.02006884
-0.13641723 -0.004999335 -0.03948025 -0.09310409 0.14292517 0.117890574 -0.089283064 0.12772709
-0.14862092 -0.14258584 0.015319135 0.11601531 0.014356703 -0.056650974 -0.09065276 0.07020044
0.043555986 -0.088719845 -0.051423494 0.115314946 -0.058119636 0.044917133 0.14567716 0.009306475
0.08511316 0.098453306 0.00894639 -0.051488776 -0.039769694 -0.075987905 0.055667933 0.06886739
0.015258238 0.09047934 0.004779924 0.06645951 0.13350742 0.14683153 0.14977847 -0.008900297
0.029184455 0.008527285 0.0844321 0.112209745 0.066188805 -0.013126089 0.06896317 -0.046066705
-0.07801725 0.02099585 0.030135933 0.019239517 0.032323774 0.07502459 0.07122464 0.06449426
0.019848293 0.069881074 -0.043889523 -0.03381432 0.05125567 0.12652877 0.05352032 0.11876511
0.12901546 -0.077026635 -0.026386963 0.07653335 0.028981963 0.08700032 -0.021853238 0.09666131
-0.028845597 0.053033993 -0.06217199 0.012832468 0.11539406 0.10837723 -0.07378313 0.10314475

lstm.weight_ih_l1 f4 [256, 64]
00000000: 3955 66bd b0a2 96bd e5b9 1a3e e910 9e3b
00000010: b492 c8bc fb51 993d 989f be3d 409e 99bd
00000020: f7a1 0c3d a98f 5b3d e6f0 583d 0e09 92bd
00000030: 1377 613d 428e f0bc 9573 65bc 8fbe 23bd
00000040: fb76 c83d 63a4 a4bc 9b16 393c c2a7 0bbc
00000050: 34ea 023e 56da fabd ceda 96bb 1e66 3fbd
00000060: a7ba e03d 5268 4fbc 4aa9 233d b7e7 ed3c
00000070: a34a 683d f082 8cbd 2edc dabc d1bc abbd
00000080: ae85 81bd db37 8fbd ff40 afbc d321 2c3c
00000090: 46bb 303d acf2 19bc dd45 d03a 79b6 01be
000000a0: 77f0 67bd 5e39 833d 968e 66bc 9d9a 7abc
000000b0: 8dd6 91bd d27a f83d 7074 f73d 9d27 513d
000000c0: a095 d83d a4da debc 3e2c 0fbd 14f6 7b3b
000000d0: 291c a9bd a67c f03d 4296 d2bd 14af 89bc
000000e0: 1555 39bd 2ddc 06be 368b eabd 578b 0d3e
000000f0: 19f3 26bc 89d4 823c b450 803d e4f1 fd3d
00000100: 7abb c7bd 72b6 0bbd c379 223e 75ae f9bd
00000110: d339 25be 4b71 843c 4d9d e03d 610c c13d
00000120: d72b fdbd f557 0abe c74f a13d 0553 f5bd
00000130: 2b7a db3d 43aa 89bd 3caa b6bd 4431 833c
00000140: 1ba0 f23d 45b6 e0bd 7db6 b5bd f029 b93d
00000150: 1a5c 713d 30dd 6cbd 0ace e83d a3a8 0a3c
00000160: 487a ffbc 8c8b 67bd 117d bfbc ec63 ffbc
00000170: 2e89 a6bb 3b3f 803c f2a7 033e 5185 b4bc
00000180: 4bcb 0d3d 1f5d 0f3e 6613 39bd dbfc ddbd
00000190: 1394 c23d f466 08be 08de cc3d b68e 6f3d
000001a0: e14b 3dbd 9bb7 edbd 450c b9bc fa26 533d
000001b0: 0e5e 8abc 512b 7d3d cd37 bf3d 7ead c53d
000001c0: 745f 593d 834c d7bd 7cec 11bd 7547 abbd
000001d0: 1be5 cf3d 9bb8 d2bc 0920 913d cfb3 bb3d
000001e0: 1d97 27be 4ff9 babd 1621 15bd d32e 46bb
000001f0: b348 933b e4d2 d8bd e456 f93d d7ec 853d
00000200: f0a8 4ebd c462 b3bc 90d4 68bd 4608 e2bd
00000210: 042b dbbd f429 1f3e 3887 1d3d ccf0 07bd
00000220: ea1d 4abd 1949 30bd 40e5 8c3d 5a22 3f3b
00000230: fed8 ee3d 0098 cebd bfdd 83bd 8671 8dbd
00000240: 07f8 c7bc a06a 15be 592e 0fbb 257c 1abd
00000250: b646 bfbb c8fb a13d 43eb 1a3e 3080 5f3d
00000260: 50da ab3d 9ca8 f33d 209b 353d dd56 813d
00000270: 9079 3ebd ad17 7bbd 37e8 0c3e e58b 5ebd
00000280: f782 9abd 98ad 86bd 6408 babd ad8c b03d
00000290: 3417 b23c 6a5e af3c 2aeb 573d 51b4 733d
000002a0: d17f 4dbc 32da 0abd 4bcf c3bd 700b 80bc
000002b0: 1b48 24bc 98c5 43bd ae75 54bd bee3 e9bc
000002c0: 25ef 043e f82a 803c 6fd8 fe3c c1c9 3b3d
000002d0: 1636 183d c42b 39bd 774c a73d 291e 733d
000002e0: ffeb aabd 013e 3e3c 2e39 e6bd 3f49 293d
000002f0: caf4 043e fd81 403b 1681 a5bd fb7a ee3d
00000300: f95b b23b c461 c1bc 8b65 f53d 2947 f93c
00000310: f90f 263d 0c97 a63d 274f 13bd f111 7bbd
00000320: 8aa8 843d 767f 2cbd 43bd 073e 9fdd 243d
00000330: 9e5e a5bd f08b 2a3d 641e 203d 4606 b6bd
00000340: a684 5b3d 174a 0bbe 8f33 b83d 13bc 9f3d
00000350: aedc 983d e148 9c3d 670b 1fbd acfa be3c
00000360: b666 60bc e548 fb3d 32a9 df3d 2701 05bc
00000370: 13cc 0cbe 87d9 ce3c 8350 033e 6bad 84bb
00000380: a4a8 833c 5872 7ebd fc01 05be 23a9 0bbe
00000390: 522f dabd 891b c6bd b809 b4bc ba4d eb3b
000003a0: 7dcc 9e3d ed5b 4fbc 70b3 933c b9e0 cbbd
000003b0: 269e cabd 34ce d6bd d580 0c3e 9dc0 e53c
000003c0: 4e46 8abd ee20 21be 3997 a43a 4b0e 2cbe
000003d0: c5de e93d ee7f b3bd 8366 84ba 3b00 cf3d
000003e0: d1e4 01be 6267 833d 821a a63d 8842 053e
000003f0: 979c 173e afc8 77bd 1947 873c 07cf 113e
-0.05623362 -0.07355249 0.15109976 0.004823793 -0.024484016 0.0748634 0.09307784 -0.07500887
0.03433415 0.053603802 0.052964114 -0.07130633 0.0550452 -0.029364709 -0.014004608 -0.039976653
0.09788319 -0.020097917 0.0112968935 -0.008523883 0.12784654 -0.122486755 -0.0046037203 -0.046728246
0.10973101 -0.012659149 0.03995637 0.029041154 0.056711804 -0.06860912 -0.026716318 -0.08385623
-0.063243255 -0.069930755 -0.021393297 0.010506111 0.043147348 -0.009396236 0.0015889962 -0.12667264
-0.05662581 0.06407426 -0.014072081 -0.015295652 -0.071210004 0.12132801 0.120827556 0.05106317
0.10575414 -0.027203865 -0.034954302 0.0038446235 -0.08257324 0.11742525 -0.10282566 -0.016807117
-0.045247156 -0.13169928 -0.11452334 0.13822685 -0.010189795 0.015970485 0.06265393 0.123996526
-0.09752555 -0.03410954 0.15866761 -0.12191478 -0.1613534 0.016167304 0.10967503 0.09426189
-0.123618774 -0.13510115 0.078765444 -0.11978725 0.10716661 -0.06721928 -0.089191884 0.016014703
0.11846944 -0.10972265 -0.088726975 0.09041202 0.058925726 -0.05782813 0.11367424 0.008463058
-0.031186238 -0.056529567 -0.023375066 -0.031175576 -0.005082271 0.01565515 0.12857035 -0.022036226
0.034617703 0.14000367 -0.045184515 -0.10839244 0.09500899 -0.13320524 0.100032866 0.05848571
-0.046214942 -0.116072856 -0.022588858 0.051550843 -0.016890552 0.061808888 0.09336815 0.09652232
0.053069547 -0.1051264 -0.03562592 -0.08363239 0.1015112 -0.025722792 0.07086188 0.09165155
-0.16366239 -0.09129583 -0.036408506 -0.0030240312 0.0044947504 -0.10587099 0.12174776 0.06539314
-0.05045408 -0.021897681 -0.05684334 -0.11036734 -0.10701564 0.15543348 0.038459033 -0.033188626
-0.049344935 -0.04303846 0.068796635 0.0029164762 0.11662482 -0.100875854 -0.06438779 -0.069064185
-0.02441026 -0.14591455 -0.0021847694 -0.03771605 -0.005837287 0.079093516 0.15128808 0.05456561
0.08391249 0.11897394 0.04433739 0.06315396 -0.04650265 -0.061301876 0.13760458 -0.054332633
-0.07544511 -0.06576079 -0.09083632 0.08620582 0.02173958 0.021407325 0.052714504 0.059498135
-0.012542681 -0.033899494 -0.09561022 -0.015630454 -0.010026957 -0.047795862 -0.05187004 -0.028550979
0.12981851 0.01564549 0.031109063 0.045846704 0.037160955 -0.045207754 0.081688814 0.059354935
-0.08345794 0.011611463 -0.11241375 0.04132962 0.12984005 0.0029374354 -0.08081262 0.116445504
0.005443093 -0.023606189 0.119822584 0.03042944 0.040542576 0.08134279 -0.035964157 -0.061296407
0.06477459 -0.042113744 0.13255791 0.040250417 -0.080746874 0.04163736 0.039091483 -0.08887915
0.0535933 -0.13602482 0.08994209 0.07799544 0.07463966 0.07631088 -0.038829233 0.023312889
-0.013696363 0.12269763 0.10920943 -0.0081179505 -0.13749723 0.02525021 0.12823682 -0.0040489933
0.016071625 -0.062120765 -0.12989038 -0.1363874 -0.10653557 -0.09673221 -0.02197729 0.0071808966
0.07753847 -0.012656194 0.018029898 -0.09954972 -0.09893446 -0.10488549 0.1372102 0.028045947
-0.06751691 -0.15735218 0.0012557275 -0.16802327 0.11419443 -0.08764635 -0.0010101352 0.10107466
-0.12684943 0.06416203 0.08110525 0.13013661 0.14805828 -0.06049412 0.016513394 0.14239131

lstm.weight_hh_l1 f4 [256, 64]
00000000: 04c9 14be 7c51 4f3d 5538 f2bd e9aa 38bd
00000010: 85a9 593d 36de a1bd d7b1 2bbd 0f54 13bc
00000020: 4dff 00bd e519 1fbe 71dc f5bd eccc 043e
00000030: 5016 61bd 0838 a33d 2a26 063e 3000 163d
00000040: 4eba cd3d 4141 45bd d76d 98bd 7e66 5e3d
00000050: 1127 063d 200e 523d 14c4 31bd 1a50 b1bd
00000060: 0385 153e 8187 243e 7bdb 8cbd 141c b83d
00000070: 6891 25bd f16c 6dbd cff1 f73c 3f52 80bd
00000080: 7252 17bd b7fe 8cbd 68b6 8f3d 4373 c5bd
00000090: a5c2 09be 6d5f a3bc 5415 ad3d eccd 153e
000000a0: bf79 bf3c d270 a2bd 13f8 d63d 6072 e8bc
000000b0: 0d82 72bd 87b8 adbd 2f09 1dbe d8aa 9bbd
000000c0: e32f b43d a9d4 163e 32be 06be 9cc1 aa3d
000000d0: ad30 8b3d 991a 28bd 96e4 e33b 9f50 d6bd
000000e0: f4b2 3dbd 7abe 8a3d c1f0 a93d 8269 a73d
000000f0: 028d 7abd 3dde 8abc 8020 933d c760 17be
00000100: ea86 f8bd 92fa c03c 1f0a 3c3d e8a7 003d
00000110: de5c b7bc 62bf be3d 4e35 2d3d 7a55 c9bd
00000120: 506e 10bc 7a2e 1dbe 5f03 46bd d284 0b3e
00000130: e4f0 b2bd 2da5 84bd 497e 9d3c 5350 9c3d
00000140: e05b 233e df59 b63d 9c3b d23d 188e 923d
00000150: beb9 193d 7d13 0abd b333 17bd 03cc 353d
00000160: 7dac 433c 19e6 8ebd 1d98 853d 82d3 6dbd
00000170: 652d 8a3d c0d1 ab3d f1cc 133e 3868 053d
00000180: 5c98 dcbc 1ded 3bbc 4a32 a6bd bdbb e6bd
00000190: 242c ab3d f0e5 1ebe 3b8a 8fbc c8b7 31bc
000001a0: 8baa bb3c 6c10 cbbc 51a6 c63d b2e7 9abd
000001b0: 1df4 bfbc 5b7b 803d 3d69 d5bc c80c b53d
000001c0: 66ab 31bd 74c6 f83d 8e22 67bc f433 0c3e
000001d0: 3bdc d83b bd9d 153d 8fb8 553d b970 c9bd
000001e0: c420 553d b51e e2bd d54d 053d fb44 183e
000001f0: 79a7 8bbd df65 953c cedf 9d3d 28b8 17bd
00000200: 4f35 39bd bc58 96bd 30f9 6e3d 5c2b 753c
00000210: b0e2 183e 79ed d83d c032 583d b3c9 373d
00000220: 1afc c1bc ab2f debd 4a55 983d 7231 4ebd
00000230: 3507 0b3d b4ef 9abd 1489 abbd 1f4a 413d
00000240: f6dc c4bc 47a1 4fbd 9b76 46bd ebce a83d
00000250: 43c7 13bd 578f 833d 4c92 39bd 52dc 9fbd
00000260: f9a2 003e 637a 0c3e 1f71 053d d031 96bd
00000270: 75ac 1e3e 833a f3bd c923 bcbc 5a54 003e
00000280: 0ebd 543b bde9 23bd 80a9 083d c580 573c
00000290: 325b af3d 3238 8f3d 8138 e1bb 485a 143e
000002a0: 939c 18be bbe3 18bd a54e 50bd 39c1 cebc
000002b0: b589 1c3e 75a1 8cbc 5fcc 43bd 977d 04bd
000002c0: 9ac6 3bbc 319f a3bb 3bbd 9f3d e79c 20bd
000002d0: 097d 973d d01a 3c3d 6d72 253e e15c abbd
000002e0: 105c 463b 865e ddbd 69f1 62bd 9672 2cbd
000002f0: e60f e9bd 12d9 d63c 82e0 573d 9c99 a63c
00000300: f093 dd3b 69dd cabd 0a85 18be 06af b3bd
00000310: 7075 a93c 239e 163d 9c40 903d ef30 073e
00000320: 7810 163e a254 a33d 1cc2 9a3d e73c d03c
00000330: cd22 8d3d 2abb 0e3c 9427 9abd 91fd 933d
00000340: 982f 1a3e 7189 f6bc 1e65 f33d 7f22 c7bd
00000350: 6c0e e9bd 5eb2 fd3d 3af3 9abd 7c9a 563c
00000360: 329c b73d fba8 ed3d 1dc5 edbc 2962 b9bd
00000370: c78f 173e 304f 34bd 5543 bb3d 8db3 c53c
00000380: 3606 d3bd c8f3 15be 5baa 9e3d c935 1bbe
00000390: 1ffb dfbd 01a8 863d 2f31 1ebc 068c d23c
000003a0: 3ca9 d4bd 5604 bdbd e04d ff39 87b7 b63d
000003b0: fb4a 9b3d 3b75 d43c bb1b 953d 48a2 3bbb
000003c0: 6121 c13b 04f0 56bd 8015 2dbd 9e64 ab3d
000003d0: 143f 793d aad2 043e d558 083e 6b4c 173d
000003e0: 7914 bbbd 908b a5bd efc2 093d 8ac6 053e
000003f0: daa2 0dbd eb00 3fbd f39b 8c3d 4d70 dabc
-0.14529806 0.05061482 -0.11827151 -0.045084868 0.053140182 -0.079037115 -0.04191765 -0.008992209
-0.031493474 -0.15537222 -0.120049365 0.12968796 -0.05495292 0.079696715 0.13100496 0.036621273
0.100453004 -0.048157934 -0.07442825 0.054296963 0.0327521 0.051283002 -0.043399885 -0.08657856
0.14601521 0.16067316 -0.068778 0.089897305 -0.040421873 -0.057965223 0.03026667 -0.06265687
-0.03694386 -0.068845205 0.07017213 -0.09641125 -0.13453157 -0.019942963 0.08451334 0.14629334
0.023373483 -0.07931675 0.10496535 -0.02837485 -0.059206057 -0.084824614 -0.15335535 -0.07600945
0.08798196 0.14729561 -0.13158491 0.08337709 0.067963935 -0.04104099 0.00695474 -0.10464596
-0.04631324 0.06774612 0.08297873 0.08174421 -0.06116963 -0.016951675 0.07183933 -0.14783011
-0.12135108 0.023556981 0.04590809 0.031410128 -0.02238315 0.09313847 0.042287163 -0.098307565
-0.008815363 -0.1534976 -0.04834306 0.13624886 -0.087373525 -0.06476817 0.019225257 0.07632508
0.15953016 0.0890386 0.10265276 0.071560085 0.037530653 -0.03370999 -0.03691454 0.044384014
0.01194298 -0.069774814 0.06523154 -0.058063038 0.067469396 0.08389616 0.14433648 0.032570094
-0.02692812 -0.011470106 -0.081150606 -0.11266277 0.083580285 -0.15517402 -0.017521968 -0.0108470395
0.02290847 -0.024788104 0.09699691 -0.075637236 -0.023431832 0.06273528 -0.026051158 0.088403285
-0.04337635 0.12147227 -0.01410736 0.13691694 0.0066180504 0.036527384 0.052177962 -0.09835953
0.0520332 -0.11041013 0.03254493 0.14870064 -0.06819052 0.018237052 0.07708703 -0.03704086
-0.045216855 -0.073411435 0.058343112 0.014963951 0.14930224 0.10592169 0.052782774 0.04487009
-0.023679782 -0.10848936 0.074381426 -0.050340123 0.03394242 -0.07565251 -0.08375755 0.047189828
-0.024031144 -0.050690915 -0.048452955 0.082425915 -0.036078703 0.06423824 -0.045305535 -0.07805695
0.12562169 0.13718562 0.032578584 -0.0733372 0.15495475 -0.118763946 -0.022966282 0.12532178
0.0032461318 -0.040017832 0.033364773 0.01315326 0.08562316 0.0699314 -0.006873191 0.14487565
-0.14903478 -0.037326556 -0.05085625 -0.02523862 0.15286906 -0.017166832 -0.047802325 -0.032346334
-0.0114609245 -0.0049933423 0.07799765 -0.039212134 0.073968954 0.045924008 0.16156931 -0.083673246
0.0030267276 -0.108090445 -0.055406008 -0.042101465 -0.113799855 0.026226554 0.05270434 0.020336919
0.0067620203 -0.09905512 -0.148945 -0.087736174 0.020685881 0.036771905 0.07043573 0.1320226
0.1465472 0.07975127 0.07556555 0.025419666 0.06891403 0.008711616 -0.0752708 0.07226098
0.15057218 -0.030094834 0.11884521 -0.097233765 -0.11379704 0.123875365 -0.07565923 0.013098355
0.08965339 0.11604496 -0.029024655 -0.09051926 0.1480094 -0.04402083 0.09143702 0.024133468
-0.10303919 -0.14643776 0.077473365 -0.15157236 -0.109365694 0.06575013 -0.009655281 0.025701534
-0.103838414 -0.09229343 0.00048695412 0.08921724 0.07582661 0.025934806 0.0728068 -0.0028630663
0.0058938717 -0.05247499 -0.042256832 0.083688006 0.06085117 0.12970987 0.13315137 0.036938112
-0.09134764 -0.0808326 0.03363317 0.13064018 -0.034579135 -0.046631735 0.068656825 -0.026664877

lstm.bias_ih_l1 f4 [256]
00000000: 2398 933d 72ec 94bd e432 023d ae58 913d
00000010: 1eaa 86bc 951e 873d d2f0 5cbc 36a8 b4bd
00000020: 8bc4 9ebd 32e0 043d 807e 96bd 6d1a 003e
00000030: 54c1 923d bb5c 0e3e 2cc5 99ba afad e13d
00000040: bca5 97bd d19f a23d 7bbc 9d3d e955 3b3d
00000050: 4b4c c0bc cc93 06bd 6a4c a8bc 1eb9 113e
00000060: 8205 723d e851 49bc d7aa a6bc 1c5d e23c
00000070: ed71 a63d 6dcb 173e 1aed d43d cc8a 0d3e
00000080: 3b66 6dbc 14ad 883d 6fae f93d 5c44 f43d
00000090: b2b2 563d 087b f83d 2e18 51bd 0c22 d5bd
000000a0: 50d7 763d 7084 bd3d 913b de3d 964e 01be
000000b0: eea6 123e 670b 8ebd 9590 0f3e 6c0c ccbc
000000c0: 1d79 1e3e 7747 c43d 4dd1 d93d 183c 1b3d
000000d0: 254b b4bd 63b6 a5bd e66f 93bd b0e1 ccbc
000000e0: 553a 01bc b107 8e3d 15dc 9fbd 0a8f 6fbd
000000f0: 00e9 8a3c 96ea c2bb 1577 703c 8d6c a3bd
00000100: 72bb a5bd 284e 91bd 70d5 b8bc 0fa6 2f3c
00000110: be7e 82bd 4d45 a1bd 96c1 0b3c c116 1e3e
00000120: 642e e03d f8b3 ab3c c754 66bd 7d2a 3d3d
00000130: f323 b8bd d706 96bd b656 483d 9a7f 623d
00000140: 86c9 a3bc 79f8 113d efdf ad3c 5671 123b
00000150: a355 8a3d 65e7 a43d bbbe 3dbd 92cd e13c
00000160: 4b66 a9bd 8f2f 27bd 3009 d3bd 28a6 98bd
00000170: 6138 30bd 9187 fd3c b194 a23c 6c7c 583d
00000180: 4db9 023e 0d3a 763d 6bf5 0e3d 1f0d 723d
00000190: 6151 d4bc fd3a 993b 8d28 7e3d c266 003e
000001a0: ea86 093e 2527 b9bd 525b 2f3d 4303 973d
000001b0: 54fa 5f3d 2531 a5bd 3263 033e 8997 8bbd
000001c0: 19e0 45bd 1e99 56bd 7803 163e 963a 0c3e
000001d0: 465d 27bb 4cef 8e3d f134 933d 34a5 d2bd
000001e0: 6753 24bd e549 8ebc 7cb3 133d 7d7c a63b
000001f0: 0876 fa3d 9b7d 55bd 5cee ccbc 65a3 273d
00000200: 003d 2cbd 6b38 63bd 9e8a c6bd ffe5 c33d
00000210: 957f c63d 766e 453d b2b3 c9bc 0c33 1e3e
00000220: ec33 313d 0f7f 9fbd 5ff0 debd 1ade b63d
00000230: 2fd9 50bd 869e 5c3d e8a4 14bb 0ee7 9e3d
00000240: 4423 c23d 7784 fb3d a726 a93c 0e0e b3bd
00000250: 28d3 84bc b377 2abd 370b 893d 989f 2dbd
00000260: 5027 823c 9ae4 183e a23b 8cbd 2467 023e
00000270: d1de a03d 9c4b dfbd 1ac3 f93d b731 b5bb
00000280: 1833 09be f5ce 85bd fbb7 d9bc ef81 f4bd
00000290: 4bd6 bdbc 5a7c 563d 459b 05be 21d6 993d
000002a0: d128 393b e27e 0d3e 750b 1e3e 9cde 41bc
000002b0: 3614 14bc 0aa4 1fbe 0bbc c4bd a00a 1ebc
000002c0: a689 e13d a610 063e 0e11 cd3c 22aa 973c
000002d0: 7871 6d3d 0a18 c13d e3a0 043e 3f13 4a3d
000002e0: 2fcc 2bbd cc3e b7bd fa89 5bbd 34b8 d93c
000002f0: 78de 19be 8d6d f03d e65e ea3d ddb3 9e3d
00000300: 6114 c03d f41a 293e 3ff0 223d 9fef 643c
00000310: e285 5f3d 1e7f a33d 9c2f 823d f902 0d3d
00000320: 4022 d33c cda3 06bd de3f 393d 46e9 c73d
00000330: a458 b03c 4c5b d6bd 9a69 ee3c 6c90 a5bb
00000340: 9ff7 093e d047 003e a3f4 4dbd ec94 bd3d
00000350: c622 973d 1bdd 7dbd 5be1 e4bb 62a2 5e3d
00000360: 20a8 c73d 3f5a 73bb d7a2 813d d545 923d
00000370: 3c05 69bd d785 3e3c 74c7 813d 0e30 cc3d
00000380: b9b5 853d 9b70 17bb a52b e93b b8b8 a13d
00000390: 88c4 c53d 5e83 bbbc 1d16 233e 97c3 393d
000003a0: 34a8 82bd a5e3 d53c ee5d f23c 6728 64bd
000003b0: 8f4d 4b3d dced da3b 28c9 41bc 8d9c d93d
000003c0: 10f1 ff3d 2a74 febc 63e1 483d f383 a23d
000003d0: 89bf 153d 4eb5 083d a51b 7f3c d0af 9e3c
000003e0: 8447 69bd ef6d 283e 6eea 283e 4d28 f63d
000003f0: 714d 30bc ac00 c7bb 470a 9d3d ef97 d53d
0.07206752 -0.07271661 0.031786814 0.070969924 -0.01643854 0.0659763 -0.01348515 -0.08821146
-0.07752331 0.03244037 -0.07348347 0.1251008 0.07165781 0.13902561 -0.0011731735 0.11019456
-0.07404658 0.07940639 0.077019654 0.045736227 -0.02347388 -0.032855794 -0.02054425 0.14230773
0.059087284 -0.012287594 -0.020345135 0.027632289 0.08127198 0.14823695 0.10396786 0.13822478
-0.014489706 0.06673637 0.12191474 0.11927101 0.05241651 0.12132841 -0.05104845 -0.104068846
0.06026393 0.09253776 0.10851205 -0.12627634 0.14321491 -0.069357686 0.14019997 -0.024908267
0.15475889 0.09583943 0.10635624 0.037899107 -0.08803395 -0.08091428 -0.07199077 -0.02500996
-0.007887443 0.06935061 -0.07805649 -0.058486022 0.016956806 -0.005948375 0.014676829 -0.07979689
-0.08092393 -0.07094985 -0.022562712 0.010720744 -0.063718304 -0.07874546 0.008530041 0.15438367
0.10946348 0.02095984 -0.056233194 0.046183098 -0.08991232 -0.07325523 0.04891082 0.05529747
-0.019993555 0.035637353 0.021224944 0.0022345386 0.06754615 0.080519475 -0.046324473 0.027563844
-0.08271464 -0.04081684 -0.10304487 -0.07453567 -0.043022517 0.030948432 0.019846292 0.052853033
0.12765999 0.060113955 0.034902018 0.059094545 -0.02591771 0.0046762214 0.06205039 0.12539199
0.13430372 -0.09040669 0.0428117 0.07373669 0.05468209 -0.08066014 0.12830809 -0.068160124
-0.04830942 -0.052392118 0.1464976 0.13694224 -0.0025537773 0.06979236 0.07187832 -0.10285416
-0.0401186 -0.01736922 0.03605984 0.005080758 0.12229544 -0.05212174 -0.025016002 0.04092731
-0.04205036 -0.055473726 -0.09694408 0.09565353 0.09692303 0.048201047 -0.024621818 0.1544916
0.043262407 -0.077879064 -0.10885691 0.08929081 -0.050988372 0.053862117 -0.00226813 0.07758914
0.09479383 0.12281125 0.020648314 -0.08742915 -0.016213968 -0.04161806 0.06691592 -0.04238853
0.015887886 0.14930955 -0.068473116 0.12734658 0.07854999 -0.10903093 0.12195416 -0.005529608
-0.13398397 -0.065336145 -0.026576987 -0.11938845 -0.023173472 0.052364685 -0.13047512 0.07511545
0.0028253088 0.13817933 0.15434058 -0.011832859 -0.009038022 -0.1558992 -0.09606179 -0.009646088
0.110125825 0.13092288 0.025032546 0.018513743 0.05796954 0.09428413 0.12951998 0.04933476
-0.04194277 -0.089475244 -0.05359838 0.026577093 -0.15026271 0.11739645 0.11443882 0.0774915
0.09378887 0.16514188 0.039779898 0.013973146 0.05457104 0.0798323 0.06356737 0.034426663
0.025773168 -0.032871056 0.045226924 0.0976129 0.021526642 -0.10466632 0.02910309 -0.005052617
0.13473366 0.12527394 -0.050282132 0.0925692 0.073796794 -0.06197844 -0.0069848723 0.05435408
0.09748864 -0.0037132648 0.06329887 0.07142226 -0.056889758 0.01162859 0.06336871 0.09970103
0.065288015 -0.002310789 0.0071157985 0.078965604 0.09656626 -0.02288979 0.15926404 0.045352545
-0.063797385 0.026109526 0.029585805 -0.055702593 0.049634513 0.006681187 -0.011827745 0.10625563
0.12497151 -0.03106125 0.04904307 0.079353236 0.036559615 0.03337603 0.015570556 0.019370943
-0.05695297 0.16448186 0.16495678 0.120194055 -0.010760651 -0.006073078 0.07667976 0.1042937

lstm.bias_hh_l1 f4 [256]
00000000: 291d 953c 22e0 653c 3408 98bd 5f3a 8cbd
00000010: cdc5 1b3d b6e7 f13c e7b0 353c 239c 143e
00000020: 63a6 803d 74e3 68bd d5d8 52bd 5ed5 523d
00000030: b04d be3d 183e cebd 1bbe a43d 249a f9bc
00000040: 22d9 af3d 9aae edbc 9c26 013e b632 173e
00000050: 8188 58bd 4ef7 b4bd 9de7 723d d68e 0f3e
00000060: 430c a03d 0be3 d9bc ed09 003e d836 cdbd
00000070: 4e92 0f3e c4c6 36bc 9f2a 613c 292a 033d
00000080: 97a3 e63a 4ddd da3b 25ae 893d c487 213d
00000090: eae9 4a3d e3a9 053e ac65 653c d0b6 80bd
000000a0: ca8b a5bd 7263 eb3d 5e73 5abd e76b fe3c
000000b0: 3c02 21bd fa69 40bd 960a 653d a814 e83d
000000c0: a57c 9dbd 5383 f23d 7d9c cdbd 2da1 fa3b
000000d0: f37b d2ba be38 7dbd e37d 7ebd 29f0 02bd
000000e0: 0a36 8dbd 0627 113d 987d 47bd a3ff 9dbc
000000f0: ca22 07bd bfed 723d a4ba 2c3b 3527 ce3d
00000100: 1e6d e93d 30e4 58bd b4f6 8c3c 0914 c3bd
00000110: 4d50 b83d d21c 023c 7e1a 683d f4fb 943d
00000120: 6e45 093e 7ebc d03c 22a0 9d39 59fa 0f3e
00000130: c8b4 043c 9039 173d 9ad1 413d e3ec 20bd
00000140: 3bfe e33d ca00 87bd c904 b33d 6173 b63d
00000150: 2291 ec3d aad9 83bd 0280 e53d be47 233e
00000160: c18d bc3c 3ea5 aebd 7a58 693c 0674 af3c
00000170: ce48 95bd 317c d73c 30c2 93bc fe94 9bbd
00000180: 4041 f33d 8203 8c3d e475 86bc 5d0d 043e
00000190: 39ef 2a3d 5db0 6f3c c940 303d 9c4e b3bd
000001a0: e379 dabc 1c5e 253d 59f3 03bc 060d f53c
000001b0: 0bd7 183d 81ca 853d d9c3 213e 72c1 fdbc
000001c0: a441 a33c e25a 14bd 4cbb a6bd 2243 7f3d
000001d0: 086a fd3d f8ee 8e3d 7274 80bd 6a64 cf3d
000001e0: 7371 a7bd 5db8 58bd b422 163e a496 8abc
000001f0: 1a3b 0ebd ab38 cebc 5972 a5bc 7d74 843d
00000200: 067a c7bd b7df 22be 5afc 94bd a507 0d3d
00000210: e581 133d cc82 123d 15b6 17be adbe 5d3b
00000220: 855f 14bd 62b7 81bd 4908 d8bd dcf3 773c
00000230: 3c45 36bb f57a d6bd 83e8 b13d fcba 7c3d
00000240: ce3c 8e3d ac7a a53d 786d ca3c b090 16bc
00000250: d56a 1ebe 0183 b13d 0eb2 f23d d4c4 afbd
00000260: 6817 003e 47f8 e5bb 3846 973d 81fb b8bc
00000270: 7136 12bd b47a c9bd 9863 d83d 3890 9dbb
00000280: 7f89 07be 600c 9cbc 526e e2bd 919f b8bd
00000290: aef7 d4bd b203 b3bd 3026 d6bd 3868 6a3d
000002a0: 7531 9fbd 6ee4 4b3d c178 0f3e fddc 083d
000002b0: e02d 1f3e 2c0b 913d 6eb1 b4bc 51b6 c03c
000002c0: 42d7 1d3e 4ac2 62bd db96 debd 90c4 f73d
000002d0: a000 b73d 244e 823d 7f9d 603d 107d d4bd
000002e0: 6d3e 983d 206e 2cbd 8046 e8bc 498b 143e
000002f0: 15e7 0a3d 40ba a83c 1fab ad3b 23b7 dabd
00000300: bdb9 c93d f1ad 253e 59f4 99bc f65a 47bd
00000310: 5ed1 fb3d b84c 83bd 053d 103e 6691 693d
00000320: 29bb 0a3e 9bbf 743d 1bfa ab3d 00e0 aebd
00000330: 507e 2b3b 6a49 d93d 4af5 2bbb 8d2b 0c3e
00000340: 5bb1 f63c 85ca a4bc 3ff3 0ebd 8188 61bd
00000350: 0c37 a73d cbeb 4abd c4c5 b63d 6389 fd3b
00000360: 4d77 d23d 05fa 063e 4126 81bd 2b1b 33bd
00000370: 34ee 043e e1c3 e33b 327d 9abd 5e51 03bd
00000380: c030 98bd 9a0e 0abd 58dc 4e3d 16f3 ea3d
00000390: 4406 883d 68e7 233c 1ba6 013d 8914 57bd
000003a0: 36a0 c83d 2fb2 e33d ef19 b03d f0eb 953d
000003b0: 83d7 2a3e e47b 6f3d 8039 a5bc 817a f03d
000003c0: 986b 6e3d 466f a63c d33e 8f3c 19e7 653d
000003d0: 95c4 7fbc eae0 df3d 6950 5cbd ba30 233d
000003e0: 581b a3bd 0cca bd3d caaa 73bc 75b9 293d
000003f0: 0a1d 0a3e 862a 5b3d cacf 603d 355e b73d
0.018202381 0.014030488 -0.074234396 -0.06847071 0.038030434 0.029529434 0.01108954 0.14512686
0.06281736 -0.05685754 -0.05147632 0.051473014 0.092921615 -0.10070437 0.08044072 -0.030469008
0.08586337 -0.02901392 0.12612385 0.14765438 -0.052864555 -0.08836232 0.059302915 0.14019331
0.07814839 -0.02659752 0.12503786 -0.10020226 0.14020655 -0.011155788 0.013743072 0.03202263
0.0017596361 0.006679213 0.067226686 0.039436117 0.049539484 0.13053088 0.014001291 -0.06284869
-0.08083303 0.11493577 -0.05333268 0.031057311 -0.03930877 -0.046976067 0.0559183 0.11332065
-0.0768979 0.11841454 -0.100396134 0.007648608 -0.0016058668 -0.06182169 -0.062131774 -0.031967316
-0.06895073 0.035437606 -0.04870376 -0.019286936 -0.03299216 0.059308764 0.0026356364 0.10066072
0.113977656 -0.05295199 0.017207481 -0.09525306 0.08999691 0.007941442 0.05666589 0.07274619
0.13405392 0.025480505 0.00030064682 0.14060344 0.008099742 0.03692013 0.047319032 -0.039288413
0.11132475 -0.065919474 0.08741147 0.089087255 0.115511194 -0.064380005 0.11206056 0.15945336
0.023016812 -0.08527611 0.014242286 0.021417629 -0.07289277 0.026304336 -0.018036932 -0.075967774
0.1187768 0.068366066 -0.016413637 0.12895723 0.041732047 0.014629451 0.043030534 -0.08755228
-0.026669448 0.040372953 -0.008053624 0.029913437 0.037314456 0.06532765 0.15797366 -0.030976031
0.01992876 -0.036219485 -0.08141193 0.062319882 0.123737395 0.069791734 -0.0627221 0.10126574
-0.081759356 -0.052910198 0.14661676 -0.016917534 -0.034724332 -0.025173506 -0.020196127 0.06467531
-0.09740071 -0.15905653 -0.07274695 0.03443112 0.03601255 0.03576927 -0.14815553 0.0033835575
-0.036223907 -0.063338056 -0.10548455 0.015133824 -0.0027812263 -0.10472671 0.08686926 0.06170176
0.06945191 0.080800384 0.024710402 -0.00918977 -0.1547044 0.08667565 0.118503675 -0.08582464
0.12508929 -0.0070181224 0.0738644 -0.022580864 -0.03569645 -0.09837857 0.10565871 -0.004808452
-0.13236044 -0.01904887 -0.11056198 -0.0901481 -0.10398804 -0.08740939 -0.104565024 0.057228297
-0.07773105 0.049778394 0.14010908 0.033413876 0.15544844 0.07082209 -0.022057261 0.023524435
0.15414146 -0.05536107 -0.10868617 0.12098038 0.08935666 0.063625604 0.0548377 -0.10375416
0.07433782 -0.04209721 -0.02835393 0.14506258 0.033911783 0.020596623 0.0052999402 -0.10679462
0.0984988 0.16179635 -0.018793272 -0.04867073 0.12295793 -0.06411117 0.14085777 0.05702343
0.13547958 0.05975304 0.08397313 -0.08538818 0.0026167817 0.10609706 -0.0026238733 0.13688488
0.030113867 -0.0201161 -0.034899946 -0.05506182 0.08164796 -0.049541276 0.089244395 0.007737325
0.10276661 0.13181312 -0.063061245 -0.04372708 0.12981492 0.006950841 -0.0754341 -0.03206002
-0.07431173 -0.03370533 0.050503105 0.11472146 0.0664182 0.010003902 0.03165255 -0.05250982
0.09796183 0.1111797 0.085986964 0.07320392 0.16683774 0.05846776 -0.02016902 0.11742116
0.05820808 0.020316731 0.017486012 0.056128595 -0.015610834 0.10931571 -0.053787623 0.03984139
-0.079642 0.09267053 -0.014872262 0.04143663 0.1348764 0.05350735 0.054885663 0.089535154
