fault_model_nn_two_year_global/best_Y2025.pt (torch, 235573 bytes, 14 tensors)

lstm.weight_ih_l0 f4 [256, 3]
000000 3b 46 4e bd 87 21 ba 3d 1a 90 e1 3c 90 c0 a6 bf
       -0.050359946 0.09088426 0.027534533 -1.3027515
000010 44 96 3f 3e ce f4 29 be 27 7f 55 be cc 6e 14 3d
       0.18709666 -0.16597292 -0.20849286 0.036238477
000020 98 8c 14 3e 35 aa a0 be eb dc 00 3e cb ab 87 3d
       0.14506757 -0.31379858 0.12584274 0.06624564
000030 b3 b2 2c be ea 05 aa bc 6a d9 43 3e ae 2d 5a bf
       -0.16865043 -0.020754773 0.19125906 -0.8522595
000040 da 8e c8 3d ff 26 4f 3d 8c 77 4d bf 55 a6 f3 bc
       0.09792872 0.0505743 -0.8026054 -0.0297424
000050 ea 34 ac bd 72 58 45 be 0a f9 78 bd e5 cf 07 3e
       -0.0840853 -0.1927202 -0.060784377 0.13262899
000060 a2 de 54 bf 8f 42 e0 bd 60 15 04 3a 22 90 1b bf
       -0.8315221 -0.10950195 0.00050385855 -0.60766804
000070 b3 f7 37 bd 4b 28 c6 bc 3c 6a 4e bd 5f 3e 5a bd
       -0.04491396 -0.024189135 -0.05039428 -0.053282138
000080 b3 ec 87 3e 41 8b 3d bf 1e 68 0e 3d e5 2d 05 3e
       0.26547775 -0.7404061 0.034767263 0.13005789
000090 5b 61 d8 be 19 89 72 3d 78 d3 27 bc 42 6e 36 be
       -0.42261776 0.059212778 -0.010243289 -0.17815498
0000a0 14 2d 0d bd 4c ef 3b 3b 00 f4 9a be c4 13 d0 3d
       -0.034466818 0.0028676568 -0.30264282 0.1016002
0000b0 25 d7 53 3e c5 8d 0a bf 8d a2 8c 3c 0d 29 05 3e
       0.2068754 -0.54122573 0.017167354 0.13003941
0000c0 91 0a a3 be 2e 52 4f be 3a 85 9f bd 9e 40 e1 be
       -0.31844 -0.20246193 -0.07789083 -0.43994612
0000d0 ad 35 73 bc ad 14 10 3e 41 8d a2 bf a4 37 8b 3d
       -0.01484434 0.14070387 -1.2699357 0.06797722
0000e0 8a 37 9a bd 8e a2 fc be dc dd ab 3d 47 14 26 b9
       -0.075301245 -0.4934277 0.08391926 -0.00015838548
0000f0 54 0d 58 bf f1 8a 27 be ec 5f 7f bc 38 68 9e be
       -0.8439534 -0.16361596 -0.015586834 -0.30938888
000100 54 fe 46 3a 84 d7 77 3d cb 07 86 3e fe 34 44 bd
       0.00075909984 0.060508266 0.2617782 -0.0479021
000110 29 85 d6 3e 68 3f 05 bf e9 16 2d 3d b3 62 e4 3d
       0.41898468 -0.52049875 0.042258177 0.11151638
000120 1c 86 a5 be 0e 38 7e be 99 91 19 bd 56 21 90 be
       -0.3232888 -0.2482607 -0.03749237 -0.28150433
000130 75 13 e5 bd 68 3c 12 3d 06 ae 95 be fe c0 06 3d
       -0.11185352 0.03570214 -0.29234332 0.032898895
000140 5b 61 ff bc 2e c9 2d be 05 c8 c6 3d 79 bd f5 3d
       -0.031174352 -0.16971275 0.097061194 0.1199903
000150 8e 00 7e be d2 20 a7 bd e9 fc bd 3e 42 ff 62 bf
       -0.24804899 -0.08160557 0.37107018 -0.8867074
000160 73 86 97 bd d0 48 54 3d 7a 76 0e bd 0b 8c 5f bd
       -0.07398691 0.051827252 -0.034780957 -0.054576915
000170 4d 27 72 3e 54 f4 4b be 84 d2 fa bd b4 98 52 3d
       0.23647805 -0.19917423 -0.12247184 0.05141516
000180 cd 46 ba be 1b 42 7c bd e0 63 88 3b 7f 3f 0a bf
       -0.36382142 -0.06158648 0.0041622967 -0.5400314
000190 cb 40 ff bd 22 79 2b 3e 46 83 f7 be c5 18 51 be
       -0.1246353 0.16745427 -0.4834234 -0.20419605
0001a0 6e a4 b8 3c 01 b2 83 be ac 1f a4 bd 0e ab 07 3d
       0.022539344 -0.25721744 -0.080138534 0.033122115
0001b0 bf e5 d9 bf db db 3a bb 01 2f 11 3e 44 13 03 bf
       -1.7023238 -0.0028512392 0.14178087 -0.5120127
0001c0 f9 d9 af bc 3b 17 c6 bd fb c6 2c bf a5 e8 2c be
       -0.021466242 -0.096723996 -0.6749112 -0.16885622
0001d0 f5 8b a5 3d 9c 9a 61 be a4 af 10 be ac 57 0f bc
       0.08083335 -0.22031635 -0.14129502 -0.00874893
0001e0 a9 8c 04 bf f2 ec c7 bd d5 9e 9b bc 95 87 00 bf
       -0.5177713 -0.097619906 -0.018996635 -0.5020688
0001f0 f5 eb 2d be ae 85 33 3c 8e d4 cd be 49 f8 12 be
       -0.16984542 0.010957165 -0.4020123 -0.14352526
000200 29 3a 6c 3e b8 d7 07 bf 3f d2 c9 3c 42 78 c0 3d
       0.23069061 -0.53063536 0.024636386 0.09397937
000210 d7 53 33 bf 0a 8f 9c 3d 4f c2 0a 3d d0 c9 f7 be
       -0.70049804 0.0764447 0.033876713 -0.48396158
000220 7a 69 07 be 88 49 da 3b 3d a0 78 be 20 ae b0 bd
       -0.1322383 0.0066615976 -0.24279876 -0.08626962
000230 15 cc ba 3d 0d 17 e4 bf 4b f5 40 3e 7d 49 4f be
       0.09120957 -1.7819535 0.18843572 -0.20242877
000240 f2 b2 94 3f 0b 4b 02 3e e3 ea 7e 3e e1 e6 34 be
       1.161711 0.12723939 0.2489429 -0.17666198
000250 5c 42 c0 3c d8 3f 12 3d 55 9c 46 bf 00 53 b1 bd
       0.023469143 0.035705417 -0.77582294 -0.08658409
000260 d9 91 c5 3c 11 00 3c bf 0a 78 0a 3e 52 7b 3e 3c
       0.024117397 -0.734376 0.13522354 0.011626082
000270 a0 15 34 be 91 3b 5b 3d 7a 1a ac 3d 0d fb 8c 3d
       -0.17586374 0.053523604 0.084034875 0.06883822
000280 80 bc 33 3b 22 77 5e 3e 06 8a 2f be 6d 04 11 be
       0.0027425587 0.21725133 -0.17142496 -0.14161845
000290 ee bf 59 3e 12 b3 7d be d2 dc 53 bd 24 fa 90 3e
       0.21264622 -0.24775341 -0.051724263 0.28315842
0002a0 18 e4 ba bd 9f a0 90 bd b2 4e 76 3c 5c f7 ef be
       -0.09125537 -0.07061886 0.015033411 -0.46868408
0002b0 ee e9 99 3b 6d e1 fb 3c 9c 6d bf be ea 0b 87 bd
       0.004697076 0.03074714 -0.37388313 -0.06594069
0002c0 66 bb f8 bc 84 61 ae be 33 80 ae bc e2 6e c7 bc
       -0.030362796 -0.34058774 -0.021301365 -0.024344865
0002d0 8a 1d a4 be 49 cb 0d 3d 91 89 a3 3d ae f9 12 bf
       -0.32053787 0.034617696 0.07985223 -0.5741223
0002e0 d3 c7 92 3d 95 08 1b 3e 63 0d 92 be 2b 3b 3d be
       0.0716702 0.15139993 -0.28525838 -0.18479602
0002f0 e1 76 c5 bc 92 f2 3a bf 0e 3d 3c bd bb 82 9f 3c
       -0.024104537 -0.7302638 -0.045956664 0.019471517
000300 6f e8 2b be cd 32 c5 3d 15 6e d0 3d e5 bf 09 c0
       -0.16787885 0.0962883 0.101772465 -2.1523373
000310 38 f8 a5 bd 4f db 5d be 5c 25 52 be d2 ce 20 bd
       -0.081039846 -0.21665691 -0.20522064 -0.03925974
000320 e4 8f 82 bc f4 20 d3 be e8 00 9f 3d da ef 98 3d
       -0.015937753 -0.4123608 0.07763845 0.07467623
000330 9e 02 03 bf 51 37 11 be 5b f4 a7 bb fe 98 95 bf
       -0.5117587 -0.14181258 -0.005125565 -1.1687315
000340 b6 a5 cb bd 8f d8 08 3c 74 be 44 bf a4 9a 09 bd
       -0.09943716 0.008352413 -0.7685311 -0.033594742
000350 c7 45 15 be 14 bc 02 bf 10 b1 34 bd 70 55 26 3e
       -0.14577399 -0.51068234 -0.044114172 0.1624353
000360 3b fe 6d bf d8 82 cc bd de ad a5 3d c9 5b 56 bf
       -0.9296605 -0.09985894 0.08089803 -0.83733803
000370 58 fd 20 be 1b c7 00 3e fc 8f 41 bf 1b bd 77 3d
       -0.15721643 0.12575953 -0.7561033 0.06048308
000380 08 e8 47 bd 6c 9f 39 bf c6 f6 bd 3d 56 3b c6 3d
       -0.048805267 -0.72508883 0.09275584 0.09679286
000390 c5 dd 4b bf 58 af 54 be 14 e1 d1 bd 03 99 88 bd
       -0.7963527 -0.20770013 -0.10248008 -0.0666981
0003a0 d0 1b 1c bd 74 59 aa 3e ec 51 5f bf 08 2f 7a bc
       -0.03811246 0.33271372 -0.8723438 -0.015270002
0003b0 a8 67 b3 3d 48 1e 35 bf b5 53 52 be 4b a8 a1 bd
       0.08760005 -0.7074933 -0.20539744 -0.078934275
0003c0 27 04 0b bf c7 8a 10 be 0c ff 9c 3c 56 50 4d bf
       -0.5430321 -0.1411544 0.019164585 -0.8020071
0003d0 5c c2 c0 bc 1c 4f 01 be 3f f2 fd bf 41 fa 63 bd
       -0.023530178 -0.12627834 -1.9839553 -0.055658583
0003e0 12 40 ca bd 21 d8 2a bf eb 7e 4d bd 75 ec de 3a
       -0.09875502 -0.66736037 -0.050169867 0.0017007726
0003f0 71 fb a0 bf 6b b4 07 be 27 44 e9 bd 23 5c af bf
       -1.2576734 -0.13252418 -0.11389952 -1.3699993

lstm.weight_hh_l0 f4 [256, 64]
000000 72 07 f7 bd ab 71 3a 3d 07 e5 ab 3d 72 c7 cf 3c
       -0.12061967 0.04551856 0.08393293 0.025363658
000010 b2 1c af bd b8 84 f0 bd 6e a3 99 bd 68 6d 6b bc
       -0.08550395 -0.11744064 -0.07501875 -0.014369346
000020 9a 4c 82 bd 88 18 9a 3c 28 f3 b7 3c 63 7d 5f 3d
       -0.06362267 0.018810526 0.022454813 0.054562937
000030 9a 96 18 bc 0e 81 94 bd 4e 79 ad 3d 1e b1 11 3d
       -0.00931325 -0.07251178 0.08470403 0.035569303
000040 0c 25 69 bd 0a 75 12 be ec 8f e5 bb 72 46 b7 3c
       -0.056920096 -0.1430246 -0.007005682 0.022372458
000050 8b 91 04 be 3e d6 0f 3e 2c 7c 79 bb de 07 c1 3d
       -0.12946145 0.1404657 -0.0038068397 0.09425329
000060 b0 6b 3b 3d a9 f2 c9 bd 5c f1 a4 3d a3 7b ae bd
       0.045756996 -0.09860737 0.08053848 -0.085196756
000070 99 ff 8a bd 96 61 5e bd ca 7b a3 bd b3 c6 0f 3e
       -0.06787033 -0.054292284 -0.07982595 0.14040641
000080 bf f1 07 3d 4a a8 7f 3d 82 3f dc bd 52 60 89 3d
       0.03318953 0.062416352 -0.10754301 0.06707825
000090 2f 19 af 3d b0 d0 aa bd 65 ee 23 3d 3a 43 42 3d
       0.08549725 -0.08340585 0.040022273 0.047427393
0000a0 08 46 e3 3d 81 7a 8f bd a3 64 9a bd 19 34 5a 3d
       0.11097342 -0.07005788 -0.07538726 0.05327234
0000b0 46 fd 85 3d 10 37 a2 3d 70 cb cf 3d f5 10 8c bd
       0.06542449 0.079206586 0.101462245 -0.06839172
0000c0 5f 05 41 3e 33 53 8e 3d c2 00 97 bc 69 54 8c 3d
       0.18849705 0.06949463 -0.018432979 0.068520375
0000d0 ae 8c 95 3d e8 1a e4 3d 58 3d ab bd 30 70 4e bd
       0.07302223 0.111379445 -0.0836131 -0.05039996
0000e0 9b 76 a0 bd f9 2f 24 3c 90 92 43 3d 7e a1 97 bd
       -0.07835122 0.010021203 0.047747195 -0.07403849
0000f0 99 14 c6 3d 35 38 50 3c 9b 8c 0a 3d af 01 e6 bc
       0.096718974 0.012708713 0.033825498 -0.028076975
000100 de b7 43 bd 8b 2b a4 3d 2d 78 01 be cc b7 b9 3d
       -0.04778277 0.08016118 -0.126435 0.090682596
000110 1f 4b ac bd e2 8e 1b 3d 53 35 ad 3d fa 9d b1 bd
       -0.08412766 0.03797806 0.084574364 -0.0867271
000120 52 7f d6 bc 94 e0 07 be 6a f8 f5 bd 3d 88 2f be
       -0.026183758 -0.13269264 -0.12010272 -0.17141815
000130 e1 ce 33 3c af eb d1 bc b0 82 13 bd 21 9d c7 bc
       0.010974617 -0.025625078 -0.036013305 -0.024366917
000140 ad 93 82 3d 9d 7c d8 3d 34 61 51 3e 77 18 92 bc
       0.06375823 0.10570643 0.20447236 -0.017833931
000150 0a 2c 5a bd f8 28 8a bc 82 9a 1f be cf bd 88 3d
       -0.053264655 -0.016865239 -0.15586284 0.06676828
000160 fe 04 09 3e c2 6e 6c 3c ac e6 bf 3d c0 43 b9 3d
       0.1338081 0.014430704 0.09370169 0.090461254
000170 44 28 a4 3c df 67 23 bd 25 ce c6 3d 23 7f 2f bd
       0.020038731 -0.03989398 0.09707288 -0.042845856
000180 30 54 e6 bd 8a 7c be 3d 29 b3 a5 3d ea e1 ed 3c
       -0.11246526 0.09301098 0.08090813 0.029038388
000190 83 00 1e be 28 10 fd bd 3f fe 5b 3c 24 05 07 3e
       -0.15429883 -0.12356597 0.013427316 0.13185555
0001a0 49 eb 50 3c f6 33 f2 3b 88 d2 fd bc e8 ce 9e bd
       0.012751409 0.007391448 -0.030984178 -0.07754308
0001b0 d0 2d 6b 3c 31 26 0f 3d 49 02 8a 3d 5c 9a 5d 3e
       0.014354184 0.03494853 0.06738717 0.21640915
0001c0 84 2f ec 3d 8d 61 76 3d a3 ef 27 bc 35 d6 2f 3d
       0.115325004 0.060151625 -0.010250005 0.042928893
0001d0 17 e2 64 3d 2e 96 e7 3d 61 22 e8 3d f6 b1 2c bc
       0.05587968 0.113079414 0.11334682 -0.010540476
0001e0 7e 0a e5 bd 87 0f 11 3d 90 76 46 3d 51 b0 ca bc
       -0.11183642 0.0354152 0.048452914 -0.024742277
0001f0 a1 41 04 bd 48 ab 74 bd 81 60 02 3e fc 38 c6 3d
       -0.03228915 -0.05973366 0.12732126 0.09678838
000200 a8 20 5c bd cd e0 0a be f8 e4 e3 bc fa bd 50 bd
       -0.05374208 -0.13562317 -0.027819142 -0.050962426
000210 30 a2 ce 3d 22 37 e9 3b b7 dc 9e 3d 25 3d 43 3a
       0.100895286 0.007117168 0.07756942 0.0007447771
000220 35 6c 22 3d af d3 4f 3d 78 a3 04 be 09 9b a6 3d
       0.039653976 0.050738987 -0.12952983 0.08135039
000230 4c a8 64 bc 05 04 ae bd 1a fe 44 bd c3 d4 ca 3d
       -0.013956141 -0.084968604 -0.048093893 0.09903862
000240 a2 b3 ec 3d 7f a9 83 3d 9e 10 9d 3d 6c 6a 7e bd
       0.115577 0.06428813 0.07669185 -0.06211321
000250 1c 1e 9e bd bb 3f 6c 3d d6 d8 3b bb 4b 9f 03 bd
       -0.07720587 0.057677966 -0.002866318 -0.032134335
000260 e1 f7 e4 bd d2 12 c0 3c ca b9 aa bd ff 31 34 3c
       -0.11180092 0.023446474 -0.08336218 0.010998248
000270 1d 46 04 3e 50 d8 4f bd df 2c 47 bd 0b 14 b0 3d
       0.12917371 -0.0507434 -0.048626777 0.08597573
000280 c0 d8 2b 3c 42 4a b6 ba d0 49 dd 3d 70 0b 47 bd
       0.010488689 -0.0013907629 0.10805094 -0.048594892
000290 b9 03 e6 b9 e3 1b 93 bd 59 ec 5e bc 4f ab 83 bd
       -0.00043871792 -0.07183053 -0.013606154 -0.06429159
0002a0 bc 98 61 bd 5a b2 7e 3d 32 df 2d 3c b3 43 c2 bc
       -0.0550773 0.062181808 0.010612296 -0.023713922
0002b0 bb 56 b0 bd dc fd b4 bc 41 82 1c bd 11 25 4d bd
       -0.086102925 -0.022093706 -0.038210157 -0.050084177
0002c0 e2 f9 08 bd 6c 6c 64 3c 3d 96 aa bd fa 78 ed bd
       -0.03344143 0.013941865 -0.08329437 -0.1159534
0002d0 2f 01 d7 bd 9e 8a 4c 3d ca 80 9e bd d7 5f 3c bd
       -0.10498273 0.049936883 -0.07739408 -0.045989837
0002e0 83 c2 86 3d 62 62 9c 3d 77 cd 3a 3d e5 90 e6 bd
       0.06580069 0.076359525 0.045606103 -0.11258105
0002f0 76 d2 90 bd 2e 68 6c ba 7f 30 84 3d 5c cc 8c 3c
       -0.07071392 -0.00090182095 0.064545624 0.01718729
000300 b1 ea d5 bd b5 a2 79 bc 22 72 c1 bd fa 94 04 bd
       -0.104451545 -0.015236546 -0.09445597 -0.032368638
000310 71 08 ee bc aa 7b 8f 3d f3 1d 39 bb b3 d1 fd bc
       -0.02905676 0.07006009 -0.002824661 -0.030983781
000320 01 de 30 3d 14 3a d1 bc 3c f5 0e 3d 58 a4 bf 3d
       0.04318047 -0.02554039 0.034901842 0.09357518
000330 11 32 4e 3c be c3 36 bd dc d0 34 3e 4a 0f 1b bd
       0.012585179 -0.044620268 0.17657799 -0.037856378
000340 91 15 96 bd 4b c9 df 3d 9a 00 4e 3d 47 f7 b8 3d
       -0.07328332 0.109270655 0.050293542 0.090315394
000350 b1 91 0b bc 23 61 d8 3b c4 ad b9 3d e6 9e e5 3d
       -0.008518622 0.0066033765 0.09066346 0.11211948
000360 8d fb 1c be b5 75 05 bd 82 3d d9 bd 2e c4 fb 3c
       -0.15330334 -0.032582957 -0.10607435 0.030733194
000370 6e d8 59 3d 89 44 43 bd a1 6d cf bc b3 88 62 3d
       0.05318492 -0.047672782 -0.02532083 0.055306148
000380 72 5b ca 3c c3 e1 df bd a5 35 02 3e 94 4a 64 bd
       0.024701808 -0.109317325 0.12715776 -0.055735186
000390 2c e5 78 3d be fa 14 3d 84 d8 d5 bc c2 7b e0 bd
       0.06076543 0.03637194 -0.02610422 -0.10961105
0003a0 1c ce 91 3d db e5 42 bd 5e f4 72 bd fc 2e 49 3d
       0.0711939 -0.04758249 -0.059315078 0.049117073
0003b0 36 2c 26 bd 60 e0 31 bd e9 4c 11 bd 81 15 51 bd
       -0.040569507 -0.04342687 -0.035473738 -0.0510459
0003c0 73 6d 9b 3c 0f 2e f0 bc f0 3e 50 3d ea 5a c8 bd
       0.018973088 -0.029318837 0.050841272 -0.097829655
0003d0 25 84 9d bd ef c2 e9 bc fe 2d dd 3c 34 9c 6c 3d
       -0.0769122 -0.028535334 0.02699947 0.057766154
0003e0 09 a8 d2 bd 9b d3 58 3d 41 ea 8f 3d 7d 08 60 3d
       -0.102859564 0.052936178 0.07027102 0.054695595
0003f0 84 67 12 be 4a cd c7 3c fd 9c 0e be 95 ea 02 be
       -0.142973 0.024389882 -0.13927074 -0.12784798

lstm.bias_ih_l0 f4 [256]
000000 e3 a7 46 bd c1 5e a4 bd f9 87 99 bd e3 3f a6 3d
       -0.048499953 -0.080258854 -0.07496638 0.08117654
000010 58 c8 a8 bd 3a e5 6e bd d2 f9 a3 3d 3e 78 8a bd
       -0.082413375 -0.058324076 0.08006634 -0.067612156
000020 71 2b fb bd 1e e8 00 3d 00 45 e7 3d f5 36 ac bd
       -0.12264145 0.031471364 0.112924576 -0.0840892
000030 32 59 d5 3c db fc bf bd dd 14 d6 3d 8b 29 5c 3d
       0.026043508 -0.093744 0.10453198 0.053750556
000040 13 4a 4f 3d 4e 53 f1 3d de 06 c0 bc 14 7d 27 bd
       0.050607752 0.11783467 -0.023440775 -0.04089077
000050 22 a3 3a 3d 28 19 1a 3e 32 89 1b 3c 22 c7 b7 bd
       0.04556573 0.15048659 0.009493159 -0.089735284
000060 f9 83 c9 bc 32 5f f2 3c 95 99 80 3d 04 3e 18 bd
       -0.024599062 0.029586408 0.062792934 -0.037168518
000070 af 9a f2 3d 73 23 c6 bd 52 93 a1 bb 89 1f d0 3c
       0.1184591 -0.0967473 -0.004930892 0.025405662
000080 07 b2 c9 bd c4 b2 d2 3d 11 ea 3d bd 33 02 59 3d
       -0.09848409 0.10288003 -0.0463658 0.052980613
000090 30 f0 b3 39 e2 24 67 bd c6 38 0f 3e d2 8f 43 bd
       0.00034320494 -0.05643166 0.13986501 -0.04774458
0000a0 d0 c8 87 3c 97 86 d5 3d 68 f1 fa bd eb de ee 3d
       0.016575247 0.104260616 -0.12253076 0.11663612
0000b0 fd 66 89 bd 24 5f 03 bd b6 2c 8f 3d 9a 6f 03 bd
       -0.067090966 -0.032073155 0.0699095 -0.032088853
0000c0 6f e8 50 bd 44 fd a6 bd 43 92 b2 3d 53 c6 2c 3d
       -0.051002916 -0.08153775 0.087193035 0.042181324
0000d0 3e 35 21 bd 27 81 d0 3d a0 2b 00 3d 66 1b 23 bd
       -0.039357416 0.10180884 0.031291604 -0.03982105
0000e0 8d 51 59 bc 9a 9d bd 3d c4 cb ab bc 9d e0 5c ba
       -0.013264072 0.09258576 -0.020971186 -0.0008425804
0000f0 de 1d ee 3d ce 12 96 bc 21 13 4d 3e 7b 9e f2 3d
       0.116267905 -0.018319514 0.20026828 0.11846634
000100 fa cf 88 3d 75 41 9b 3d 84 09 e5 3c 09 74 9a 3c
       0.066802934 0.07580844 0.027958639 0.018854158
000110 64 3a 0b be 3b 20 92 bd 49 f0 a3 bd 61 1e 98 bc
       -0.13596493 -0.07135054 -0.08004815 -0.018569173
000120 0e 4b b5 bd 9b 4b 22 bd 33 49 a9 bd 04 02 b5 bd
       -0.08852206 -0.039622884 -0.08265915 -0.08838275
000130 2b 37 08 3d 2a b3 18 3e e6 b7 8a bd 2d 04 e5 bd
       0.033255737 0.14912096 -0.06773357 -0.11182437
000140 67 21 60 bd e9 a9 a4 bd 92 f5 7a bd 9f 10 71 3d
       -0.054719355 -0.0804022 -0.06126935 0.05885374
000150 08 3b b1 3d d6 2a d8 3d 00 ce ca bd 48 9b d3 bd
       0.086538374 0.10555045 -0.09902573 -0.10332352
000160 97 3f 01 3e 72 b2 c6 bd ce a4 cf bd 56 f9 fb bd
       0.12621914 -0.097020045 -0.10138856 -0.123034164
000170 89 e9 24 3d 2f 6e 77 bc 33 bb b8 bd 2f eb c1 3d
       0.04026178 -0.015101953 -0.090200804 0.09468686
000180 a0 25 d7 bd 3d 3c b2 bb 6f 43 92 3d eb da dd 3c
       -0.10505223 -0.00543931 0.07141768 0.027081927
000190 18 90 f0 3d ac 89 50 bc cd a2 84 3d a1 e0 22 bd
       0.11746234 -0.012728136 0.06476364 -0.039765004
0001a0 78 cb 13 b9 2d 5f c2 bd ac 72 8e 3d 70 87 07 3d
       -0.0001409481 -0.094908096 0.06955466 0.033088148
0001b0 65 32 7c 3c f9 fe 2c bd 0a bd db 3c 9e 78 4f bd
       0.015392874 -0.04223535 0.02682354 -0.05065214
0001c0 80 02 96 3d 70 98 85 3d 53 e7 95 3d d2 9e d8 bc
       0.073246956 0.06523216 0.07319512 -0.026442919
0001d0 1d 5b 1e be a9 27 01 be 6c 0e df bd b7 9d be bd
       -0.15464444 -0.12612785 -0.10891423 -0.093074255
0001e0 c6 7e 5e 3d 3c a6 a9 bc 06 43 04 3e 85 c1 61 bd
       0.05432012 -0.02070915 0.12916192 -0.055116195
0001f0 5f 71 e5 bd 81 41 06 be d4 06 0c 3e 48 72 1f 3d
       -0.112032644 -0.13110925 0.1367448 0.038927346
000200 71 9d 65 3d 22 b7 dd 3d 0e bd 85 3d a6 cf b6 bd
       0.05605835 0.108259454 0.065302 -0.089263245
000210 86 48 a7 3c 21 58 e8 3d c2 2b e3 3d f9 93 52 3d
       0.020420324 0.11344934 0.110923305 0.05141065
000220 58 8d 56 bd e6 74 fa bd 6e 5a e4 3d a6 95 91 bd
       -0.05238089 -0.12229328 0.111500606 -0.07108621
000230 92 cd 3e 3d e1 77 0a bd 07 72 59 bc c8 bf 40 3d
       0.046582766 -0.03380573 -0.013271815 0.047057897
000240 35 0f f5 3d 63 a7 e7 bc 17 99 8c 3d b9 4f 50 3d
       0.11965791 -0.028278058 0.06865137 0.05085728
000250 bd 2c 6e 3b 8f 62 a4 3c 9e 57 33 3d 1d c7 ba 3d
       0.0036342584 0.020066528 0.04378473 0.09120009
000260 bc 88 89 bc a3 9c 95 3d 21 ab ae 3c b8 6e 2c 3d
       -0.016788833 0.07305267 0.021321835 0.042097777
000270 31 91 da bd 5d 85 c0 3d c0 f5 ca 3d d2 5b dd 3c
       -0.10672224 0.09400437 0.09910154 0.027021322
000280 01 1f 8c 3c ee 1c f2 3c 81 37 db bd 52 c9 b5 bd
       0.017104628 0.02955481 -0.10703946 -0.088762894
000290 8e 6c 99 3d f0 e9 0f be c7 6a 2e bc 79 98 48 bd
       0.07491408 -0.14054084 -0.010645575 -0.048973534
0002a0 0d ac fa bd 51 55 49 bd be d1 a6 bb 78 bb fe bd
       -0.12239847 -0.04915363 -0.005090921 -0.124381006
0002b0 69 30 d7 bd d2 cd ba bd d6 c6 fc ba 47 6b 1c bd
       -0.105072804 -0.09121288 -0.0019285332 -0.038188245
0002c0 8e 1a 90 3d 8b fe f8 bd 47 89 e0 bd 50 f6 f4 bc
       0.07036315 -0.12157925 -0.109636836 -0.029902607
0002d0 47 73 c1 3d 11 ac 83 3d 33 af d6 bc 1c 02 8e bd
       0.094458155 0.064293034 -0.026206588 -0.06933996
0002e0 1c 5c 20 3d 62 cc 35 bc ba 81 cd 3a 73 39 e1 bc
       0.039150342 -0.011096092 0.001567892 -0.027493214
0002f0 38 3e 1d 3c 47 ab cc 3b 1c a0 16 3e b9 4d 95 bd
       0.009597354 0.006246004 0.14709514 -0.07290215
000300 a2 db 08 be 67 22 0b 3e 6e 82 d0 3b 27 20 f6 3c
       -0.13365033 0.13587342 0.0063632047 0.030044628
000310 b7 35 ae bd f2 9a b6 b9 44 d4 92 bd ab 16 46 3d
       -0.08506339 -0.00034829188 -0.07169393 0.04836146
000320 91 c7 46 3c 7d 5e 19 be 4c 6e 5c 3d 7e 0f 8e 3d
       0.012132541 -0.1497745 0.053816125 0.06936549
000330 a3 0b bc 3b 92 9d 25 be f8 c6 d9 3d fc b0 7e bd
       0.005738692 -0.1617339 0.106336534 -0.062180504
000340 ad 6f cb bd 4a cf 8e bc ce 91 0f 3e 6a ab 3a bc
       -0.0993341 -0.017432828 0.14020464 -0.011393407
000350 bb 53 ee bd 61 3b c8 3d 78 ae f7 bc 7d 6f 2f be
       -0.11637064 0.09776951 -0.03023456 -0.17132373
000360 25 29 db bd 60 ef e3 bc c4 97 dc 3c b8 bb 84 bc
       -0.10701207 -0.027824104 0.026927836 -0.016202793
000370 f4 56 2e 3d ed 7a 0c be 09 52 f5 bd 80 e8 02 be
       0.042563394 -0.13718767 -0.119785376 -0.12784004
000380 ea 8f 10 be 50 da 05 be 43 d4 04 be 99 93 3e be
       -0.14117399 -0.13071561 -0.12971596 -0.18610992
000390 2b 1c 23 3d 2b d1 d6 bd 8f ac bb bc 2d d1 e1 bd
       0.039821785 -0.104891144 -0.02290943 -0.11026225
0003a0 83 83 54 bd 0b ce 41 be 83 2e 2d be 66 e7 1d be
       -0.05188323 -0.18926255 -0.16912274 -0.15420303
0003b0 d7 9f 81 3d 7f 7c 13 3c 06 8c 46 be 65 3f ad 3c
       0.06329315 0.00900185 -0.19389352 0.021148393
0003c0 d0 c4 69 3d 57 89 27 be 0d ee a8 3d 5d e1 79 3c
       0.05707246 -0.16360985 0.082485296 0.015251485
0003d0 56 e6 3b bd 2d 63 e4 3b ac 28 c8 3c de a9 b0 3c
       -0.045873962 0.0069698305 0.024433456 0.021565374
0003e0 59 a7 b7 bd 8c ca 6b bd 4f ab 37 be 5e fb 22 bd
       -0.08967466 -0.05756621 -0.17936443 -0.039790504
0003f0 9c e6 a2 bb 03 b0 d6 3c 9e c6 40 3d eb cd 81 3d
       -0.0049713384 0.026206976 0.047064416 0.06338104

lstm.bias_hh_l0 f4 [256]
000000 9e 44 db bd 7a 5f 3f 3c 37 ed d1 bd bb 92 ee 3d
       -0.10706447 0.011680478 -0.10250323 0.1164908
000010 60 79 3e bc 44 c8 d6 bd ca 5a c7 3d f3 98 2e 3c
       -0.011625618 -0.104874164 0.097341135 0.010656583
000020 ec e3 7d bd 51 96 ec 3d f6 c3 e0 bb 68 56 06 bd
       -0.06198494 0.11552108 -0.006859298 -0.032797247
000030 20 8d 06 bd 16 05 8b 3c 66 b9 39 bd be 26 4b 3c
       -0.03284943 0.016970199 -0.045342825 0.012399374
000040 56 35 e6 bd 92 a7 92 bd 4d 11 94 bd 0e eb a7 bd
       -0.11240642 -0.07160868 -0.07229862 -0.0819913
000050 76 6a 25 3d 91 e9 2b 3e d6 7f 0e 3d 46 58 38 bd
       0.040384732 0.16788317 0.034789883 -0.04500606
000060 d5 f2 83 3c 16 18 fd bd ce 8f de bd 4f 91 80 bd
       0.016107002 -0.1235811 -0.10867272 -0.062777154
000070 d1 81 9f bd 44 e1 61 3c b6 3b e2 3d 84 2d ac 3d
       -0.077884324 0.013786618 0.11046545 0.08407119
000080 6f e5 ae bd 26 45 70 3d bb 64 ff 3d 69 80 42 bd
       -0.08539855 0.058659695 0.12470385 -0.047485743
000090 9e 2a 3a bd bb b1 d5 bd 90 8a 65 3c 43 78 a8 bd
       -0.0454508 -0.1043429 0.014010087 -0.08226063
0000a0 11 ea d3 3c cf 26 03 be 4e 85 89 bc 73 d4 1b 3d
       0.025868447 -0.12807773 -0.016787197 0.038044404
0000b0 e0 81 15 bd c6 7e 4d 3d da c7 f3 3d e4 f2 77 3d
       -0.03650081 0.05016973 0.11903353 0.060534373
0000c0 95 4a 35 bd be 62 9d bd 7c 30 83 3d 13 78 2b 3d
       -0.04426058 -0.07684849 0.06405732 0.04186256
0000d0 4e d4 0d be ba e4 43 bd 78 45 39 bd 7c e8 1d 3d
       -0.13850519 -0.047825553 -0.045232266 0.038551793
0000e0 11 21 f4 bc e1 de 0c 3d f5 51 8a bd 7e d5 66 bd
       -0.029800924 0.03439224 -0.06753913 -0.056355946
0000f0 43 19 82 3d 1e 0d a4 bd 02 bc 7c 3d 49 22 d3 bd
       0.063524745 -0.080103144 0.061702736 -0.10309274
000100 08 75 04 be df e7 b6 3d 13 60 4c bc a6 90 bb 3d
       -0.12935269 0.08930945 -0.012474078 0.09158449
000110 f9 d6 d1 3d 62 86 00 be 07 51 9d bd c5 77 e7 3c
       0.10246081 -0.12551263 -0.0768147 0.028255353
000120 d4 f0 2a bd 94 2d e9 bd 83 67 93 bd d3 28 84 bd
       -0.041733578 -0.113856465 -0.07197478 -0.06453099
000130 80 a0 bf 3b c4 46 a4 3d d6 50 74 3d b5 a4 9c 3d
       0.0058479905 0.0802131 0.059647404 0.07648603
000140 ea 34 a1 bd 07 8d 7b 3d fe a3 37 bc 12 1e 22 be
       -0.07871421 0.06141379 -0.011208532 -0.15831783
000150 76 d9 55 bd c2 bc 8f 3d 74 93 60 bc 69 79 04 be
       -0.05220934 0.070184246 -0.013707031 -0.1293694
000160 5d 02 24 3d c3 f3 d6 bc 80 6b c1 3d 50 64 b7 bd
       0.040041316 -0.026239282 0.09444332 -0.0895468
000170 d0 ca cf bd 11 a7 ce bb 4b 2a 83 bd e3 34 07 bd
       -0.10146105 -0.006306537 -0.06404551 -0.03300942
000180 0f c6 8d bd 90 df dd 3d 4e e3 ed bb dc 5b 1d be
       -0.06922542 0.10833657 -0.007259763 -0.15367073
000190 d5 a7 78 bd 56 5e 9c ba ed 17 91 3d ae 13 cd 39
       -0.060706932 -0.001192997 0.070846416 0.0003911531
0001a0 2a 58 0f be 7c 40 55 bb 98 c5 a6 3d 7d 31 11 bd
       -0.13998476 -0.0032539656 0.08143157 -0.035447586
0001b0 44 91 46 3d 78 e6 91 3d a1 7f a6 3d 40 f7 b9 3d
       0.04847838 0.071240366 0.08129812 0.09080362
0001c0 24 66 18 be a1 0d 0f be 85 4a ca 3d 9b 80 7e bd
       -0.14882714 -0.13970043 0.09877495 -0.062134366
0001d0 e1 8c 8d 3d e4 61 44 bc 36 fc f6 bd 5e a0 be 3c
       0.06911636 -0.01198623 -0.12059824 0.023269828
0001e0 7c 67 17 be 6b 76 c6 bd 26 b0 bd 3d fd ae f6 3d
       -0.1478557 -0.09690555 0.09262113 0.12045095
0001f0 18 37 db 3b f3 3c de 3c 3a 71 d4 3d 14 85 96 3d
       0.0066899173 0.027128672 0.10373159 0.073496014
000200 ed 82 fe bd fc c7 7b 3d 85 1a a1 3b 53 88 47 bc
       -0.12427316 0.061470017 0.0049164915 -0.012178498
000210 3d 9a 65 bd 3a f5 51 3d b4 11 69 bb 6a 0b 88 3c
       -0.056055296 0.051259257 -0.003556353 0.016607005
000220 a1 36 a0 bc dd e7 a7 bc f7 e4 5b bd a3 8c 18 be
       -0.0195573 -0.020496303 -0.053685155 -0.14897399
000230 f6 40 0a 3d dd 48 94 bc 02 2b 09 bc f2 30 ac 3d
       0.033753358 -0.01810115 -0.00837207 0.08407773
000240 64 fd 5f bd 1f 8e 7e bc 73 07 cc bd cd e7 3c bd
       -0.05468501 -0.015536814 -0.09962358 -0.0461195
000250 07 78 e6 3d 42 95 f6 3a 2b 14 92 3d 25 75 ac 3d
       0.11253362 0.0018812793 0.07132753 0.08420781
000260 cf 37 80 3d 07 be 8c 3d 01 e5 72 3d 86 8e 89 3d
       0.06260645 0.06872182 0.059300426 0.06716637
000270 35 fe e7 bd 95 f3 d1 3d c7 64 11 3d d6 e8 8c 3c
       -0.11327783 0.10251538 0.0354965 0.017200869
000280 d1 eb df bd aa 3e 8a 3d 4b 09 72 3d de c6 99 bd
       -0.1093365 0.067502335 0.059090894 -0.07508634
000290 5a cc b6 3d 11 63 b3 3d 14 d1 b6 3b 75 10 47 bc
       0.08925696 0.0875913 0.0055791233 -0.01214992
0002a0 b1 0c 59 bc af e8 cf bd 8f 95 ec bd 9a 98 29 bd
       -0.013247655 -0.10151803 -0.115519635 -0.041405298
0002b0 17 1f 56 bd 26 b7 f6 3d 01 b7 9b 3d 91 6c 22 bd
       -0.052275743 0.120466515 0.076032646 -0.03965432
0002c0 49 28 14 be ff 2f 16 3d c8 5c 34 bc 29 d6 6d bd
       -0.14468493 0.036666866 -0.011008449 -0.058065567
0002d0 59 d7 a4 3d df bf ea 3c 23 4a 6d bd 42 aa 91 3d
       0.08048887 0.028655944 -0.05793203 0.07112552
0002e0 ca b8 b2 bd 80 bf f5 bd 20 05 45 3d aa ef d1 3d
       -0.08726652 -0.11999416 0.04810059 0.102507904
0002f0 ba c3 2a bc 20 8a 2a bd fe 41 48 bd 0e 55 43 3d
       -0.010422641 -0.041635633 -0.04889106 0.047688536
000300 aa 0d e5 bd eb d8 a9 bc 6e 20 30 be 10 f3 06 3d
       -0.11184247 -0.020733317 -0.17199871 0.032946646
000310 08 42 23 be ae 8e dc ba b0 50 ae 3d f5 8d c1 bd
       -0.15943158 -0.001682719 0.08511484 -0.09450904
000320 cd 89 40 3c 94 09 96 3c ca a2 0f bd 7e 83 05 be
       0.011751604 0.018315114 -0.035067357 -0.13038442
000330 b0 cc d1 bd 14 2e 3d be 4f 58 34 3d 76 fb 23 bd
       -0.10244119 -0.18474609 0.04402953 -0.040034734
000340 87 21 c9 bd 62 5a a4 bb be 2f 0d 3d 8f a0 f4 bc
       -0.09820848 -0.0050156573 0.03446936 -0.029861717
000350 8f 63 d4 3d a5 7e 26 3e 0e 59 16 3e 80 bd d9 bd
       0.10370552 0.16259249 0.14682409 -0.106318474
000360 96 6e 2d bd d2 6c 06 be 66 c3 07 bd 28 db a6 3c
       -0.04234179 -0.13127449 -0.03314533 0.020368174
000370 39 62 5d bc aa 0b 6e bd 62 d6 1a bd fa 90 18 be
       -0.013512188 -0.058116592 -0.037802108 -0.14899054
000380 5b c4 13 be 16 02 98 bd 25 e7 54 bd 0c da dc bd
       -0.14430372 -0.07422273 -0.05197825 -0.10783777
000390 19 bd 9f 3d e1 ca ed bb 54 80 fc 3a 47 91 72 bd
       0.077997394 -0.007256851 0.0019264319 -0.05922058
0003a0 11 59 8a bd 7a c1 56 bd ab cb 1b be 6f a7 f7 bd
       -0.06755269 -0.052430607 -0.15214412 -0.12092482
0003b0 5c d0 13 bc ae 66 aa 3d e3 5a a8 bd 61 4a 3b 3e
       -0.009021845 0.08320366 -0.0822046 0.18290092
0003c0 26 27 23 3e f7 97 52 be 53 1d 9c bd 76 ca fd bc
       0.15932903 -0.20565782 -0.07622781 -0.03098033
0003d0 55 c1 a7 bd cd 45 90 3d 3d 6b ef bd b6 f2 63 3d
       -0.08191172 0.070445634 -0.11690376 0.05565139
0003e0 54 60 30 be 5a ed 83 bd 76 6c 2e be f6 af e3 bd
       -0.17224246 -0.064417556 -0.17033562 -0.11117546
0003f0 7a 42 ef 3c 84 b4 60 3c 83 b1 d1 bd eb 3d ea 3c
       0.029206503 0.013714913 -0.10238936 0.028593978

lstm.weight_ih_l1 f4 [256, 64]
000000 8b 94 81 bd f5 57 c2 bd 74 4b 18 3e fa 64 1f 39
       -0.063271604 -0.09489433 0.14872533 0.00015201038
000010 81 bd b4 bc 05 be d2 3d 7f dd a3 3d 0b 49 79 bd
       -0.022063019 0.102901496 0.080012314 -0.060860675
000020 49 db 7b 3d ae 07 13 3d ef 7c 7d 3d 29 0c f7 bd
       0.061488423 0.035895996 0.061886724 -0.12062866
000030 0b 05 5b 3d ac 46 64 bc c4 16 5b 3c 3e c2 24 bd
       0.053471606 -0.013932865 0.013372127 -0.040224306
000040 e5 3e 6a 3d bd 22 ba 3c a0 33 30 bd 70 22 01 bd
       0.057188887 0.022721643 -0.043017983 -0.031526983
000050 b2 05 ea 3d 55 dd bd bd 4e ea 80 3c 26 32 cd bc
       0.114268675 -0.09270731 0.015736725 -0.025048327
000060 09 6a 95 3d c0 80 d0 3b 6c f6 3b 3d b2 ea 01 3d
       0.07295615 0.0063630044 0.045889303 0.031717964
000070 58 56 23 3d 07 0c a8 bd 8f 90 9e bc 6c 7a c5 bd
       0.039877266 -0.08205419 -0.01935604 -0.09642491
000080 55 ae a2 bd a3 a7 a2 bd 80 85 a5 3c d0 6a 5d 3b
       -0.079434074 -0.079421304 0.02020526 0.003378559
000090 be ce d4 3d da 72 04 3d 44 54 6a bd f8 a1 07 be
       0.103909954 0.032336093 -0.05720927 -0.1324538
0000a0 01 2c 74 bd c4 52 38 3d 51 26 dc b9 18 2c b4 bc
       -0.059612278 0.045000806 -0.00041990218 -0.021993682
0000b0 f0 2c 6a bd 64 d8 f8 3d ba 81 d2 3d 12 4c c9 3b
       -0.057171762 0.12150648 0.1027865 0.0061431015
0000c0 f3 60 01 3e 62 7d 4a bb e4 be 21 bd 98 3f 5b 3d
       0.1263464 -0.0030897488 -0.039488688 0.053527445
0000d0 6d 51 8e bd 55 a2 ef 3d b0 56 c4 bd 3a 23 1a bd
       -0.069491245 0.11700884 -0.09586847 -0.03763125
0000e0 80 43 f0 bc 24 ae 0b be 7a db a8 bd 7e 4c f2 3d
       -0.029329062 -0.13640648 -0.08244987 0.11830996
0000f0 b5 3c 8a bd 08 9a e5 3c dc 5a 88 3d d2 a1 3c 3d
       -0.0674986 0.02802755 0.06657955 0.04605276
000100 ee 03 dd bd 42 48 79 3d c3 29 55 3e 68 17 1b be
       -0.10791765 0.060859926 0.20816712 -0.15145648
000110 65 cd 44 be b7 13 09 3e 79 cd 81 3e 91 d0 05 3e
       -0.19218977 0.13386427 0.25352076 0.13067843
000120 28 61 87 be 91 86 54 be b2 62 0a 3e 8b c7 84 be
       -0.26441312 -0.20754458 0.13514212 -0.2593349
000130 e6 b0 35 3e e8 80 f1 bd 5e 27 7a be 28 e0 ce 3d
       0.17743263 -0.11792165 -0.2442908 0.10101348
000140 58 b6 32 3e 4c 66 99 be dd 78 b4 3c 34 de 79 3e
       0.17452371 -0.2996086 0.022030288 0.2440117
000150 6f e9 45 3e 75 bc 3e be 4a a8 0e 3e f1 f3 83 3d
       0.19327329 -0.18626578 0.13931385 0.064430125
000160 5f 5c c3 3d b1 c2 05 bd 8c 11 64 3d 82 e2 e4 3c
       0.09539103 -0.032656375 0.055680797 0.027940039
000170 a5 37 80 bd b7 20 f5 3d 2a bb 21 3e 67 2a 2f 3d
       -0.06260613 0.119691305 0.15794054 0.042765047
000180 60 59 a4 bd 9b e6 4c 3e 15 44 f2 bd ff aa 0d be
       -0.080248594 0.20009844 -0.11829392 -0.13834761
000190 c3 6c e0 3c 50 b0 73 be 37 7c 66 3e 63 6e 4f 3d
       0.027395612 -0.23797727 0.22508322 0.050642382
0001a0 28 ee f6 bd e4 9d 2d be 72 1d c0 bd e4 c8 52 bd
       -0.120571434 -0.16954762 -0.09380616 -0.051461115
0001b0 c9 db b6 bd c0 4c 01 3e c9 40 1d 3e 09 ad 4e 3e
       -0.089286394 0.12626934 0.15356745 0.20183195
0001c0 72 2d 98 3e cc 0f 27 be 2a 92 1d be 68 9c 43 be
       0.29722172 -0.1631462 -0.15387788 -0.19102633
0001d0 3d 40 f8 3d 6a 98 13 bc 50 cc 6e 3c 9b 5f 4e 3e
       0.121216275 -0.009008506 0.014575079 0.20153658
0001e0 66 52 3b be 94 fb 35 be 54 f5 d0 bd 42 9a 8f 3d
       -0.18293151 -0.1777175 -0.102030426 0.07011844
0001f0 0c d8 be 3d ab 23 9a be 7e 58 88 3e 5f 41 26 3e
       0.093185514 -0.30105338 0.26630014 0.16235875
000200 1b 64 71 bd 4f fc 10 3d 9d cc 1f bd 51 f5 fb bd
       -0.05893336 0.03539687 -0.039013494 -0.1230265
000210 0e 2b eb bd 10 5f 60 3e 21 55 c3 3d 1e 14 78 bc
       -0.114828214 0.21911263 0.095377214 -0.015141515
000220 fd 2b a5 bd 14 ed 99 bd 11 ab ba 3d 71 0d c3 bd
       -0.08065031 -0.07515922 0.091146596 -0.09524048
000230 a9 f5 0b 3e e5 bd d7 bd cd 2d c0 bd a7 27 33 bd
       0.1366793 -0.105342664 -0.09383736 -0.043738987
000240 73 9b fc bc 81 60 34 be 71 b5 b2 3c 93 35 81 3c
       -0.030835843 -0.17614938 0.021815034 0.015772616
000250 a6 aa 83 3d 7f e5 5e 3d 8f 9c 2f 3e 09 3d aa 3d
       0.06429033 0.054418083 0.17149566 0.08312423
000260 2a 54 c5 3d bb da 0c 3e a4 a8 95 3d 17 ac a2 3d
       0.09635194 0.13755314 0.07307556 0.0794298
000270 88 78 8e bd d3 9f 22 bd e1 1a 19 3e c2 fb 3a bd
       -0.06956583 -0.0397032 0.1495166 -0.04565025
000280 65 ae 0b be 42 7b 65 bd 7d 77 af bd 7d c7 9b 3d
       -0.13640745 -0.05602575 -0.085677125 0.07606409
000290 c3 c4 05 3d db 33 7d 3c f8 35 53 3d 05 f7 4e 3d
       0.03265835 0.015454258 0.05156514 0.050528545
0002a0 4f 8d 09 bd 2f ff 71 bd ba 31 db bd df 10 6e bd
       -0.033582028 -0.059081253 -0.10702844 -0.05812156
0002b0 ae 8b c7 bc 00 a1 b7 bc a0 e3 32 bd 2c 7a 31 bc
       -0.024358597 -0.022415638 -0.04367411 -0.010832351
0002c0 c2 37 6f 3e a7 3a 7d 3c a0 e2 62 bc e4 80 36 3d
       0.23361114 0.015455878 -0.013847977 0.044556513
0002d0 57 1f 4d 3d 9a b0 1c bd 44 e0 95 3d 2e 57 a7 3d
       0.050078716 -0.038254358 0.07318166 0.08170925
0002e0 ba ec a7 bd 26 d7 a8 bc 19 7c e3 bd 75 ee 4f 3d
       -0.08199449 -0.020610403 -0.11107654 0.05076452
0002f0 da 33 ed 3d 62 b3 8a bd cd 1f 5d 3b 06 05 c9 3d
       0.115821555 -0.06772496 0.0033740879 0.09815411
000300 6b 85 03 bd 5c dd 05 3c 70 fd 4b 3e 6c 44 ef bc
       -0.03210966 0.008170452 0.19920897 -0.02920743
000310 06 b7 05 ba 19 cf 39 3e 71 e1 87 3d 96 33 98 bc
       -0.000510082 0.18145408 0.066347964 -0.018579286
000320 cc ee 25 bd 92 f4 f2 bd e4 e4 51 3e 9e 97 9e bd
       -0.040510938 -0.11863054 0.20497471 -0.077437624
000330 f6 03 e5 bc e2 7d 78 bc fe 49 9a bd eb 1a fd 3b
       -0.02795599 -0.015166732 -0.07533644 0.007724156
000340 ab 21 c4 3d 53 02 90 be 99 05 07 3e a1 8b 5f 3e
       0.09576734 -0.28126773 0.13185729 0.21830608
000350 3a 1e 22 3e 7a e8 24 bc 0a cc 96 3c 49 8d df 3d
       0.15831843 -0.010065192 0.01840784 0.1091562
000360 c4 1c c1 3d df 41 2a 3e 97 1b 44 3e 3c fa 85 3d
       0.09429315 0.1662669 0.1915115 0.06541869
000370 87 79 5a be a8 eb f1 3d ae 00 2c 3e ed c8 83 3d
       -0.21335422 0.11812526 0.16797134 0.06434808
000380 f7 d6 97 bd ee 6a ba 3b 82 b7 30 be 17 8b 34 be
       -0.07414048 0.0056890165 -0.17257503 -0.17631184
000390 65 6b 0e be 13 f7 2b be 78 02 93 3d 25 92 50 bb
       -0.13908155 -0.1679347 0.07178205 -0.003182539
0003a0 b5 56 43 bc 8d 34 ac bd c7 ef 72 bd 0f cc 55 be
       -0.011922528 -0.08408461 -0.0593107 -0.20878623
0003b0 9b 5a 1b be 75 80 3f bc 3e 06 5d 3e 94 4a c0 3d
       -0.15171282 -0.011688341 0.21584412 0.09389225
0003c0 24 42 f0 3d 8d ab 63 be 0b f1 dc bd 4c a0 84 be
       0.11731365 -0.2223341 -0.10788163 -0.25903547
0003d0 4b c8 18 3e 24 08 8a bd f5 d5 6e bd 29 a5 4c 3e
       0.14920156 -0.06739834 -0.058309514 0.19984879
0003e0 5d 45 22 be f7 e5 06 bd 22 06 02 3d c4 d2 45 3e
       -0.15846772 -0.032934155 0.03174413 0.19318682
0003f0 5e 1a 57 3e 32 f6 42 be 80 98 f3 3d c8 9a 5d 3e
       0.21006152 -0.19039229 0.118943214 0.21641076

lstm.weight_hh_l1 f4 [256, 64]
000000 00 e9 2e be f3 fa 38 3d e2 f5 0d be 07 e6 73 bd
       -0.1708107 0.0451612 -0.13863328 -0.059545543
000010 56 98 5c 3d 54 a3 40 bd 9d 91 8a bd 9e 4a ab 3a
       0.053856216 -0.04703076 -0.06766055 0.0013068502
000020 81 1a ab 3a db f8 35 be 45 dd 01 be 7a 0b 22 3e
       0.0013054163 -0.17770712 -0.12682064 0.1582469
000030 c4 ed e4 bc 21 9e 88 3d e6 9a 25 3e 2b d5 45 3d
       -0.027945407 0.06670786 0.1617237 0.048298996
000040 c6 c5 fd 3d ee 03 01 bd 50 d5 39 bd a1 38 b0 3c
       0.12391238 -0.03149789 -0.045369446 0.021511378
000050 aa 27 b6 ba 29 70 a5 bc 90 7f 3e bd cc a8 e9 bd
       -0.0013897319 -0.020195084 -0.04650837 -0.114091486
000060 b0 f2 18 3e 12 66 14 3e 75 92 70 bd 38 1c da 3d
       0.14936328 0.14492062 -0.058733422 0.106499135
000070 2e 67 fa bc 80 47 b6 bd 83 81 45 3d cc 66 23 bd
       -0.030566778 -0.08900356 0.048219215 -0.039892957
000080 e4 66 90 bd 14 f4 be bd 34 7e 2f 3d b1 5d 03 be
       -0.07050875 -0.09323898 0.042844966 -0.12828709
000090 11 45 2a be f1 ef 98 bd 46 49 46 3d 18 55 2c 3e
       -0.16627909 -0.0746764 0.048409723 0.16829336
0000a0 af 8a 2d 3c de 7b ba bd 4e 29 0a 3e 8d 88 fe bc
       0.010592147 -0.09105657 0.13492319 -0.031070972
0000b0 87 74 0f bd 7c ce bd bd 50 cc 3a be 2c a8 b5 bd
       -0.03502324 -0.092678994 -0.18242002 -0.08869967
0000c0 2f f0 e7 3d c3 32 29 3e 09 13 a2 bd 17 26 dc 3d
       0.11325108 0.1652327 -0.07913787 0.107494526
0000d0 81 76 c4 3d 6b 76 b0 bc a4 98 b0 3c fc 7d de bd
       0.09592915 -0.021540841 0.02155716 -0.10863873
0000e0 3a b3 f5 bc 4b 7d 2a 3d cc 42 6a 3d 22 41 ce 3d
       -0.029992688 0.041623395 0.05719261 0.10071017
0000f0 ed c6 90 bd 90 f4 aa 3b c2 89 d1 3d 52 3e 32 be
       -0.07069192 0.0052171424 0.10231353 -0.17406586
000100 a7 64 e1 bd c0 3a 0e 3d b8 b2 74 3d 0a d5 83 ba
       -0.11005526 0.034723997 0.059740752 -0.0010057997
000110 7c af 26 bd 79 fc a4 3d 5e 44 93 3d 3a de f3 bd
       -0.0406947 0.08055968 0.071907744 -0.11907621
000120 f3 4a cb bc b0 82 08 be ee 80 05 bd 81 68 f6 3d
       -0.024816012 -0.13331103 -0.03259366 0.12031651
000130 2b 75 d7 bd 25 5d db bd eb 46 6f 3b bc 8b 5e 3d
       -0.10520395 -0.10711125 0.0036510776 0.05433248
000140 08 36 18 3e a0 6d 96 3d 67 8f a6 3d 83 f8 b4 3d
       0.14864361 0.07345128 0.081328206 0.08836462
000150 57 a8 33 3d 57 9e 86 bd d9 24 63 bd 05 50 67 3d
       0.043861713 -0.0657317 -0.055455063 0.056472797
000160 95 b8 38 bc 60 77 c6 bd b1 6e 26 3c bd 77 c7 bd
       -0.011274477 -0.09690738 0.010158227 -0.09739635
000170 56 41 49 3d 43 26 c5 3d 90 4b ec 3d 02 db ba 3c
       0.049134575 0.096264385 0.1153785 0.02280951
000180 d0 b0 8a bc 39 bd d3 3b c0 d8 84 bd 95 47 b2 bd
       -0.016930014 0.006461766 -0.06486654 -0.087050594
000190 ae 6f bc 3d 35 21 f3 bd 38 31 8a bb 88 ad 13 bd
       0.09200989 -0.11871568 -0.004217293 -0.036054164
0001a0 ef 7c 14 3d 75 9d 57 bd b4 07 b6 3d ba 74 a9 bd
       0.03625196 -0.052640397 0.08888188 -0.08274217
0001b0 0a 82 2e bd 8b c8 98 3d 0c f6 68 bc 50 63 e0 3d
       -0.042604484 0.074601255 -0.014218818 0.10956442
0001c0 a2 e7 6b bd 1b 99 da 3d fc 11 dd bc 50 53 f8 3d
       -0.05759395 0.10673734 -0.026986115 0.121252656
0001d0 20 ca 87 ba 3b 16 63 3c 2b 8c 6d 3c e2 5d 83 bd
       -0.001035992 0.013860281 0.014498751 -0.06414391
0001e0 be b1 10 3d eb c4 ce bd 9b 89 4f 3d d7 92 05 3e
       0.03532576 -0.10096153 0.05066834 0.13044296
0001f0 80 1a 67 bd d0 e6 13 b9 ca 02 87 3d 72 17 a9 bc
       -0.056421757 -0.00014104997 0.06592329 -0.020641062
000200 31 d6 60 bd 3e bb 95 bd 0a 1d 5a 3d af 30 06 bb
       -0.05489177 -0.07311104 0.05325035 -0.0020475795
000210 31 c0 11 3e 90 0a f2 3d 29 b2 54 3d ec a8 26 3d
       0.14233471 0.11818421 0.05192772 0.04068844
000220 46 6a 52 bc a1 a0 e6 bd e2 1b 9d 3d ca bc 2b bd
       -0.01284272 -0.11261106 0.07671334 -0.04192809
000230 a8 83 2c 3d c9 b3 bd bd 34 44 95 bd e1 ad 33 3d
       0.042117745 -0.09262807 -0.07288399 0.043866996
000240 27 05 8c bc 84 cc 42 bd d6 ed 28 bd bc a2 91 3d
       -0.0170923 -0.047558323 -0.041242443 0.07111117
000250 3f 55 54 bd 6a e8 e2 3c 5c 6e 60 bd 24 8b b4 bd
       -0.05183911 0.027698714 -0.054792747 -0.088156015
000260 99 73 f2 3d 02 cf ee 3d 45 1b 8a 3c 3c ff a4 bd
       0.11838455 0.11660577 0.016858706 -0.080564946
000270 68 7c 1c 3e ae c4 06 be a7 7d cc bc 71 60 09 3e
       0.15281832 -0.13160965 -0.02496226 0.13415696
000280 11 0d 33 bc 43 fb 3c bd 3f a5 d2 3c ff c6 f2 3b
       -0.010928408 -0.04613806 0.025713561 0.007408976
000290 24 e7 93 3d ea fe 5e 3d 58 98 ac bc 09 2c 15 3e
       0.07221821 0.054442324 -0.021068737 0.1456758
0002a0 26 60 19 be 7d 21 5a bd a0 ab 1e bd 73 39 df bc
       -0.14978084 -0.053254593 -0.038737893 -0.027249074
0002b0 d0 3e 22 3e ab 18 88 bc 8c 41 71 bd c5 8e f6 bc
       0.15844274 -0.016613325 -0.0589004 -0.030097375
0002c0 26 2a 7e bb 91 47 e6 ba a4 11 ad 3d 51 62 09 bd
       -0.0038782447 -0.0017568936 0.0845063 -0.033541027
0002d0 c5 2f b1 3d 47 26 3d 3d 47 25 1f 3e b4 88 92 bd
       0.086516894 0.046179082 0.15541564 -0.0715498
0002e0 6f 2a a5 3b 36 b0 f3 bd 33 f2 7f bd ec 55 21 bd
       0.005040459 -0.11898844 -0.06248684 -0.039388582
0002f0 68 62 e8 bd b3 67 f8 3c 21 48 83 3d 0a 59 4d 3c
       -0.113468945 0.030322885 0.06410242 0.012533436
000300 8c 7d 42 bb ba f7 db bd bb 3c 20 be 31 5a b1 bd
       -0.0029676883 -0.107406095 -0.15648167 -0.08659781
000310 44 b5 d7 3c 8b d7 3e 3d fb 71 8b 3d 7d 81 0e 3e
       0.026331551 0.046592277 0.068088494 0.13916583
000320 a5 80 21 3e b5 4e 9a 3d 31 27 8f 3d af 77 0e 3d
       0.1577173 0.075345434 0.06989897 0.034782108
000330 59 47 a4 3d 62 db e2 3a 93 93 8a bd 26 c1 99 3d
       0.08021421 0.0017307813 -0.06766429 0.07507543
000340 0d a5 27 3e e2 36 c2 bc 71 2e ff 3d 80 34 d7 bd
       0.16371556 -0.02370781 0.1246003 -0.105080605
000350 9a b9 03 be ff 95 ee 3d 9b a0 94 bd 86 8e 19 3b
       -0.1286377 0.11649703 -0.072571956 0.0023430898
000360 6b 97 b7 3d f7 67 ee 3d 0d 66 25 bd c1 31 b4 bd
       0.089644276 0.116409235 -0.040380526 -0.08798552
000370 a6 6e 1c 3e ed 4c 57 bd 70 04 c3 3d d1 d0 10 3d
       0.15276584 -0.052563597 0.09522331 0.035355393
000380 63 28 e9 bd 27 ad 1b be 9a c8 90 3d e8 ae 1b be
       -0.11384656 -0.15202771 0.07069512 -0.1520344
000390 75 72 fd bd de 6f 9d 3d 2e db aa bc 0e 9f d6 3c
       -0.123753466 0.076873526 -0.020856466 0.02619889
0003a0 a0 bf e7 bd be b3 b9 bd 0a f2 45 3c 0e 3f 72 3d
       -0.113158464 -0.09067486 0.012081632 0.059142165
0003b0 c3 7c a0 3d 63 cb 71 3c 22 95 7e 3d 07 a8 f2 bb
       0.078362964 0.014757964 0.062153943 -0.0074052843
0003c0 c3 6b 48 3c 4f 66 39 bd 3f c6 8e bd 0e 58 b9 3d
       0.012232724 -0.045263585 -0.06971406 0.09049998
0003d0 08 a0 96 3d 75 20 0a 3e 74 bd 12 3e fe db 10 3d
       0.07354742 0.13488944 0.14330083 0.03536605
0003e0 1c 30 a5 bd cf 85 bd bd 6f b8 f1 3c 38 12 0b 3e
       -0.08065817 -0.092540376 0.02950689 0.13581169
0003f0 51 91 3a bd 24 db 1e bd 67 45 a5 3d 02 2d 0b bd
       -0.04554874 -0.038783208 0.08069878 -0.03397847

lstm.bias_ih_l1 f4 [256]
000000 8d 0a ef 3d 41 a3 b4 bd 21 a4 4d 3d bd 51 8e 3d
       0.11671934 -0.08820201 0.050205354 0.06949184
000010 94 ef e2 bc e7 53 c2 3d 69 75 f3 3b 19 f6 b6 bd
       -0.02770213 0.09488659 0.007429768 -0.08933658
000020 bc 80 49 bd 12 8f 83 3d 1b 7c a7 bd ea 46 21 3e
       -0.049195036 0.06423773 -0.08177968 0.15749708
000030 ec d3 d1 3d 57 23 c2 3d 1e 4b 00 3d 82 d4 e6 3d
       0.10245499 0.09479397 0.031321637 0.112710014
000040 71 2b 65 bd dc 1f b3 3d e1 91 d7 3d 89 e1 b2 3d
       -0.055949632 0.08746311 0.10525871 0.08734424
000050 5a b0 1b 3c 79 52 69 bc d0 f5 49 bd 27 58 25 3e
       0.009502495 -0.014240854 -0.04930669 0.16146909
000060 46 71 61 3d 67 9a 06 bd 43 fa 09 3b eb f2 70 3d
       0.055039667 -0.032862093 0.0021053709 0.058825415
000070 c6 d0 a0 3d e4 2e 35 3e cb 23 ea 3d 5e 1e 2b 3e
       0.078523204 0.17693669 0.11432608 0.16710803
000080 2c 95 71 3c 7b aa de 3d da 5c 29 3e ba 1b 14 3e
       0.014745038 0.1087236 0.16539326 0.14463702
000090 07 c0 96 3d 40 3c 23 3e fd 6a f4 bb c1 30 b1 bd
       0.07360845 0.15940952 -0.007459043 -0.08651877
0000a0 4c b2 75 3d ac f2 cb 3d c1 1a 09 3e 11 c5 1f be
       0.05998449 0.09958395 0.13389112 -0.15602519
0000b0 8e 9c 2e 3e 0b 73 91 bd 86 0e 34 3e 42 77 07 bd
       0.17051908 -0.07102021 0.17583665 -0.033072717
0000c0 62 61 3c 3e d6 f8 dd 3d bd fb 2f 3e 3d 66 85 3d
       0.18396524 0.10838477 0.17185874 0.06513641
0000d0 7c e4 56 bd f4 e7 83 bd dd e7 0a bd 5a 7e bb bc
       -0.052463993 -0.06440726 -0.03391253 -0.022887398
0000e0 c8 d3 c1 3b e9 cf cc 3d 86 6a 45 bd a6 cc 3d bd
       0.005915139 0.10000593 -0.04819729 -0.046337746
0000f0 88 6b c0 3c d7 de a9 3c 6c 20 39 3d 6c b2 39 bd
       0.023488775 0.020736141 0.045196936 -0.045336172
000100 aa f1 69 bd 32 40 a5 bd 1c 57 93 bc c0 d1 dd b7
       -0.057115234 -0.08068885 -0.017985873 -2.6442925e-05
000110 1b 65 a5 bd 9c 45 3a bd 49 c4 94 3c 17 87 11 3e
       -0.08075925 -0.04547654 0.018160002 0.14211689
000120 9a bf 0e 3e c1 32 1b 3d 78 23 8d bd 60 df 52 3d
       0.13940278 0.0378902 -0.06891531 0.05148256
000130 2f d9 90 bd 45 27 12 be ae 85 a7 3d 9f e3 57 3d
       -0.070726745 -0.14272793 0.08179794 0.05270731
000140 b4 a1 8b bc 7a eb 0d 3d 62 fc 1a 3d 8c 83 42 3d
       -0.01704488 0.034648396 0.037838347 0.047488734
000150 93 cd da 3d c9 63 17 3d ae f6 a7 bd 50 8d 46 3d
       0.106837414 0.036960397 -0.08201347 0.04847461
000160 d3 7a cc bd ad d6 62 bd 05 6f b2 bd 20 8d 8e bd
       -0.09984364 -0.055380512 -0.087125815 -0.06960511
000170 52 2a 75 bd 93 0a 88 3d 5a 2e a9 3c a1 b1 98 3d
       -0.059854813 0.06642642 0.020651985 0.07455755
000180 4d 04 22 3e 63 2b ad 3d 7d dc 51 3d c6 f8 9a 3d
       0.15821953 0.08455541 0.051235665 0.07566981
000190 50 e3 db 3a 99 b7 89 3d 86 31 de 3d dd 3e fc 3d
       0.0016776118 0.067244716 0.108492896 0.12316678
0001a0 af 92 f6 3d bf f4 d3 bd 0c 98 72 3d 3e bc 30 3d
       0.120396964 -0.10349416 0.059227034 0.04314827
0001b0 4b e3 86 3d 02 01 ae bd 22 c8 20 3e a7 8d a0 bd
       0.065863214 -0.08496286 0.15701345 -0.07839518
0001c0 ec 23 25 bd d8 8c 50 bd 92 79 9c 3d 74 a2 10 3e
       -0.04031746 -0.05091557 0.07640375 0.14124471
0001d0 70 91 1a 3d 69 f1 93 3d 03 01 b7 3d 44 db cc bd
       0.037736356 0.0722378 0.0893574 -0.10002759
0001e0 ff 7f 25 bd 90 31 82 3c 72 b6 57 3d 6e 0b 5e bb
       -0.04040527 0.015892774 0.052664228 -0.0033881324
0001f0 da c0 ed 3d f0 1c 1e bd e4 1f db ba bc a1 63 3d
       0.11609049 -0.038601816 -0.0016717878 0.055574164
000200 6b 87 a1 bd ca ed 8b bd ab ec f9 bd e9 df e6 3d
       -0.07887157 -0.06832464 -0.12203344 0.11273176
000210 65 92 e7 3d be 38 9d 3d 57 ad 6e bd 82 f1 2b 3e
       0.113072194 0.07676838 -0.05827078 0.16791347
000220 1f 88 ab 3d f5 d9 df bd 5d bc 05 be f9 a4 fa 3d
       0.083755724 -0.10930244 -0.13060136 0.12238497
000230 d0 26 35 bc eb ad 62 3d e1 68 12 3d 4e a0 cb 3d
       -0.011056617 0.055341642 0.03574455 0.09942685
000240 6b d6 01 3e e5 87 17 3e 74 56 82 3d 14 3b fd bd
       0.1267945 0.14797933 0.06364146 -0.12364784
000250 6c b3 36 bd 5b 46 b2 bd 5f b9 89 3d 68 7e 86 bd
       -0.044604704 -0.087048255 0.0672481 -0.06567079
000260 f1 26 d2 3c 3a ec 24 3e bd 0a 01 bd 2b eb 26 3e
       0.025653334 0.16105738 -0.03150438 0.16300647
000270 0a 11 d8 3d da 73 12 be 45 8a 1a 3e 12 44 bb 3c
       0.10550125 -0.14302006 0.15091808 0.022859607
000280 0b 71 25 be 38 01 d4 bd 14 51 83 bd bb 5e 20 be
       -0.16156404 -0.10351795 -0.06411949 -0.15661137
000290 43 1f 47 bd 49 bd 5f 3c de 81 2a be 07 98 e6 3d
       -0.048613798 0.013655969 -0.16651103 0.11259466
0002a0 aa ed ca bc 33 91 16 3e bb c0 33 3e 78 08 01 bc
       -0.02477153 0.14703827 0.1755399 -0.007875554
0002b0 6e cf 8d 3c e2 75 40 be eb 61 fe bd e1 0c 09 bd
       0.017310824 -0.18794969 -0.1242102 -0.033459548
0002c0 8f 8c 1c 3e 77 aa 25 3e b3 01 1f 3d 2c 5c 65 3d
       0.15287994 0.16178308 0.03881998 0.055996105
0002d0 2d 21 b8 3d aa 68 00 3e e3 04 1e 3e 43 16 e6 3c
       0.08990703 0.12539926 0.15431552 0.028086787
0002e0 d0 46 6a bb 64 09 f9 bd c4 9f a6 bd 81 3a 82 3d
       -0.0035747774 -0.12159994 -0.081359416 0.06358815
0002f0 eb 63 2e be f4 2a 23 3e 98 ff 17 3e 55 11 4b 3d
       -0.17030303 0.15934354 0.14843595 0.049577076
000300 eb 92 1f 3d a9 78 bb 3d de 55 10 bc 1f 02 de bc
       0.03895847 0.091538735 -0.008809535 -0.02710062
000310 6a 7f 6e 3c 2a 8b 60 3d 08 93 47 3c d5 32 c8 bc
       0.014556745 0.054820217 0.012181051 -0.024438301
000320 61 e8 1e bc b9 e6 98 bd c6 be 35 3c 26 88 72 3d
       -0.009698958 -0.07465882 0.011092847 0.059211873
000330 8a 01 56 bd e0 5a 41 be af b3 23 bc d3 ce 62 bd
       -0.05224756 -0.18882322 -0.00999157 -0.055373024
000340 9f de c2 3d 3f 59 c7 3d 6c 66 c8 bd 35 77 5d 3d
       0.09515118 0.09733819 -0.097851604 0.054068763
000350 aa c6 0b 3d 55 85 f3 bd 31 7b 4e bd 08 10 94 3c
       0.034125008 -0.118906654 -0.050410453 0.01807405
000360 fd a2 a4 3d e9 de 5d bd ad d1 c4 3c a0 41 58 3d
       0.080389 -0.05416766 0.024025762 0.05279696
000370 e1 b8 bc bd 7d 4e 41 bd 8d 5d 8a 3b bb c2 44 3d
       -0.0921495 -0.047193993 0.004222578 0.048037272
000380 a2 e0 0b 3d 89 89 dd bc a6 b3 e2 bc 07 61 6b 3d
       0.034149773 -0.027043121 -0.027673554 0.05746558
000390 ef f3 9d 3d 24 a8 42 bd bf b4 e0 3d 3d c9 25 bd
       0.07712542 -0.047523633 0.109719746 -0.04047512
0003a0 5e 55 e1 bd 45 ec 09 bd a3 36 b4 bb c0 3f c1 bd
       -0.110026106 -0.03367259 -0.0054996773 -0.094359875
0003b0 40 14 9b 3c 8b 70 14 bd 0b 76 7a bd 3c f5 71 3d
       0.018930554 -0.03624014 -0.06114773 0.059071764
0003c0 fa 89 b8 3d 74 5e 78 bd 56 a3 38 3d 36 00 36 3d
       0.09010692 -0.060636953 0.045077644 0.044433795
0003d0 ff 2c 08 bc 7b ac 7e bc 72 a3 68 bd b6 56 0a bc
       -0.008311509 -0.015544052 -0.0567965 -0.008443525
0003e0 d5 7e ea bd 53 22 08 3e 43 88 fd 3d e6 93 6d 3d
       -0.114499725 0.13294344 0.123795055 0.058002375
0003f0 74 12 61 bd 53 21 12 bd c1 a5 3b 3d 58 17 7d 3d
       -0.05494924 -0.03567631 0.045812372 0.06178984
