fault_model_nn_two_year_global/best_Y2021.pt (torch, 235573 bytes, 14 tensors)

lstm.weight_ih_l0 f4 [256, 3]
0.13811825 0.061339445 0.009502431 0.115072355 0.0155264465 -0.017630508 -0.018938286 0.031785533
0.15085776 -0.04988795 0.06777835 0.058155775 0.13464242 -0.02485624 0.01927964 0.0031094542
0.07566933 0.03367436 -0.023361435 0.0042701075 -0.09367404 0.027973482 -0.092979245 0.040831164
-0.08634773 -0.07601823 -0.012187216 -0.034274857 -0.029518701 -0.15979867 0.14961176 -0.1403835
0.11971989 0.054924056 -0.008549218 0.084515296 0.05561391 0.066886306 -0.019574568 0.002600084
-0.008106092 -0.059524745 0.088257685 0.09948548 0.108435564 -0.018784469 0.03343452 0.01603333
0.103040285 -0.10956173 -0.15961352 -0.015974918 -0.06717104 0.066198565 0.036174893 0.033853948
0.027528904 0.025394773 0.07208984 -0.058788773 0.028771417 -0.11051417 0.024225928 -0.0354469
-0.010612465 0.024944797 0.14718214 -0.11549083 -0.035832755 -0.03254987 0.06991876 0.088802315
0.14174868 -0.115273744 -0.08680721 -0.05194508 -0.12844436 0.07663392 0.087567754 0.06103024
-0.020869585 -0.04737918 0.030262105 -0.05884902 0.118381396 -0.07113179 0.035370395 -0.07094772
-0.092694156 0.07232891 0.06954903 -0.07443484 0.10213214 0.122636676 -0.134231 -0.031807415
0.14056517 -0.028764632 -0.015853383 -0.08203965 -0.10860382 0.016549923 0.02387288 -0.13052922
-0.028620306 -0.04471859 -0.14817294 -0.10928296 -0.15484159 -0.039074488 0.15219349 0.055212762
0.0056116125 -0.15043843 -0.057343 -0.08235395 -0.0025463263 -0.079235226 -0.08417873 -0.106221214
0.0234509 -0.07453445 -0.029055476 -0.04367653 -0.11966804 -0.036234796 -0.0047640405 -0.13333309
0.12192142 0.014048163 0.090287015 0.08033948 -0.06716371 0.08876803 -0.06528331 -0.006383302
-0.14784996 -0.08047077 0.07777828 -0.06997615 0.08867487 -0.09468084 0.06559198 -0.050435282
-0.0034850445 0.054554794 0.04548884 0.14518471 0.070990086 -0.1358379 0.059682224 -0.083682604
0.015424767 -0.05981004 0.11782266 -0.11383109 0.100564 0.012118594 0.0058601256 -0.027196482
0.078497775 0.051581837 0.057221867 -0.15137956 0.078427024 0.012855663 -0.09006552 0.13488439
0.0679154 -0.10920063 -0.074846365 0.034469187 0.028305935 -0.0076290215 -0.06033662 -0.0852251
-0.1368753 0.08609315 0.053407 -0.15316154 0.05326977 0.01998312 -0.012154086 -0.0039901254
0.07945075 0.10377659 0.029274445 -0.054352354 -0.060320016 0.039498325 -0.027240302 -0.033886537
0.123424776 0.06630784 0.02509348 -0.041176554 0.033304222 -0.050325405 0.07176597 -0.010473752
-0.071640305 -0.0037020738 0.06346351 0.08386367 0.037732355 -0.118370146 -0.029790962 -0.088162616
-0.06297368 0.059551112 0.11490251 0.02590271 -0.1329507 -0.030561954 -0.0626184 0.1639306
0.031215744 -0.05423111 0.076693684 -0.008443026 -0.12290794 0.105169214 -0.016772266 -0.06343872
-0.07466592 0.12237049 0.120597586 0.011157841 -0.051953044 -0.15858264 -0.08156007 0.13611759
0.017877286 0.14403896 0.101589926 0.022045337 0.016506838 -0.05887628 -0.1454022 -0.1402544
0.093646795 -0.102498 -0.05755934 -0.045555837 -0.026318612 -0.10969595 -0.11366959 0.022139499
-0.05708772 0.092962526 -0.04993488 -0.06011586 -0.02802997 -0.082086556 -0.07304298 -0.10977317
00000000: df6e 0d3e 123f 7b3d 16b0 1b3c 0eab eb3d
00000010: a362 7e3c db6d 90bc 7724 9bbc 8c31 023d
00000020: 757a 1a3e 4f57 4cbd 60cf 8a3d c034 6e3d
00000030: b4df 093e 509f cbbc 56f0 9d3c fcc7 4b3b
00000040: 86f8 9a3d 20ee 093d 7b60 bfbc 42ec 8b3b
00000050: 2dd8 bfbd a528 e53c e76b bebd 943e 273d
00000060: 14d7 b0bd 72af 9bbd e4ac 47bc cb63 0cbd
00000070: 34d1 f1bc 43a2 23be d333 193e b1c0 0fbe
00000080: b42f f53d 0cf8 603d 0512 0cbc 5b16 ad3d
00000090: 69cb 633d b0fb 883d d85a a0bc 2c66 2a3b
000000a0: 6acf 04bc 38d0 73bd 72c0 b43d 0bbf cb3d
000000b0: 7713 de3d e3e1 99bc a3f2 083d 5458 833c
000000c0: c906 d33d e661 e0bd ba71 23be d5dd 82bc
000000d0: f890 89bd 1d93 873d 202c 143d 70aa 0a3d
000000e0: 4c84 e13c b308 d03c d7a3 933d 7fcc 70bd
000000f0: 09b2 eb3c 4155 e2bd 7475 c63c c530 11bd
00000100: e8df 2dbc 0859 cc3c eab6 163e 7586 ecbd
00000110: 5ec5 12bd 0353 05bd 9131 8f3d fddd b53d
00000120: 9126 113e a414 ecbd fbc7 b1bd 5dc4 54bd
00000130: eb86 03be 3ff2 9c3d b956 b33d d8fa 793d
00000140: b1f6 aabc ac10 42bd 3ce8 f73c ac0b 71bd
00000150: f271 f23d 8bad 91bd 8ce0 103d 0a4d 91bd
00000160: 6fd6 bdbd 2e21 943d b96f 8e3d 4b71 98bd
00000170: a82a d13d f028 fb3d da73 09be 7e48 02bd
00000180: 51f0 0f3e cea3 ebbc f4de 81bc 6704 a8bd
00000190: ae6b debd b493 873c 0f91 c33c 74a9 05be
000001a0: 2275 eabc d72a 37bd a6ba 17be bfcf dfbd
000001b0: cb8e 1ebe 920c 20bd 9cd8 1b3e c726 623d
000001c0: 9ee1 b73b 880c 1abe 7ee0 6abd 30a9 a8bd
000001d0: 44e0 26bb 1446 a2bd e665 acbd 828a d9bd
000001e0: 1a1c c03c 85a5 98bd c005 eebc 29e6 32bd
000001f0: 8414 f5bd f06a 14bd ab1b 9cbb 7888 08be
00000200: f0b1 f93d 442a 663c 66e8 b83d 0689 a43d
00000210: 218d 89bd 03cc b53d 42b3 85bd 052b d1bb
00000220: fb65 17be dccd a4bd 384a 9f3d a84f 8fbd
00000230: 2c9b b53d 07e8 c1bd 1755 863d 3a95 4ebd
00000240: 5865 64bb d974 5f3d 8252 3a3d 4dab 143e
00000250: 4063 913d 1719 0bbe 5975 743d c961 abbd
00000260: 29b8 7c3c 5ffb 74bd 024d f13d 4620 e9bd
00000270: 80f4 cd3d 118d 463c 4c06 c03b 28cb debc
00000280: 71c3 a03d 7a47 533d 7a61 6a3d 3e03 1bbe
00000290: 599e a03d 8fa0 523c 4574 b8bd 221f 0a3e
000002a0: 3b17 8b3d 94a4 dfbd 0d49 99bd 902f 0d3d
000002b0: d9e1 e73c dffc f9bb 8823 77bd 7f8a aebd
000002c0: 0a29 0cbe 9b51 b03d 4cc1 5a3d 61d6 1cbe
000002d0: 6731 5a3d a4b3 a33c ee21 47bc 99bf 82bb
000002e0: 13b7 a23d d288 d43d f6d0 ef3c 93a0 5ebd
000002f0: 1f12 77bd ffc8 213d 0e27 dfbc 9ccc 0abd
00000300: 21c6 fc3d 68cc 873d d790 cd3c bfa8 28bd
00000310: 026a 083d 0322 4ebd 09fa 923d 1a9a 2bbc
00000320: 27b8 92bd 7e9e 72bb 28f9 813d b7c0 ab3d
00000330: 3e8d 1a3d 0c6c f2bd 2d0c f4bc 9a8e b4bd
00000340: 58f8 80bd deeb 733d 0252 eb3d ec31 d43c
00000350: 3a24 08be 105d fabc 133e 80bd 6cdd 273e
00000360: 29b8 ff3c 7121 5ebd 9411 9d3d 9e54 0abc
00000370: 28b7 fbbd f562 d73d fe65 89bc 29ec 81bd
00000380: 72ea 98bd 619d fa3d defb f63d 61cf 363c
00000390: b7cc 54bd 7d63 22be f708 a7bd 6962 0b3e
000003a0: 6373 923c f37e 133e 610e d03d 6c98 b43c
000003b0: 5939 873c 4128 71bd 50e4 14be d99e 0fbe
000003c0: e4c9 bf3d 79ea d1bd 58c3 6bbd c298 3abd
000003d0: 219a d7bc 45a8 e0bd 9acb e8bd e55d b53c
000003e0: d0d4 69bd 2363 be3d 8488 4cbd 0c3c 76bd
000003f0: 1c9f e5bc ff1c a8bd 8f97 95bd c1d0 e0bd

lstm.weight_hh_l0 f4 [256, 64]
-0.1250424 0.1695361 0.092558496 0.0051239743 -0.11963067 -0.008971468 0.026981842 0.022486161
-0.13138777 -0.035096902 0.058093213 -0.061224174 0.0628642 -0.09463565 0.025519013 0.09180475
-0.021404266 -0.15920986 0.08484746 0.039966036 -0.016733348 0.08447555 -0.01129835 0.12975033
0.084355675 -0.059340958 0.1259552 -0.06927052 -0.11454971 0.024116537 -0.039417353 0.1665925
-0.07069548 0.09477597 -0.1566768 0.026739553 -0.011528989 -0.14015375 0.06135374 0.015124556
0.06258481 -0.12129309 -0.10581567 -0.012199204 -0.010244506 0.08678523 0.104524195 0.0027817579
0.043836705 0.04740458 -0.078423314 0.04387749 0.10648593 0.15484853 -0.11592029 -0.016431497
-0.08118496 -0.039234187 0.02956346 -0.02670357 0.10671223 -0.04280051 0.121638104 0.0022713596
-0.12817761 -0.05701748 -0.07167073 0.04596901 -0.1025786 0.001413679 0.044168934 -0.053536434
0.020726299 -0.13851078 -0.08002918 -0.12906429 -0.020245558 -0.06345893 -0.0047308 -0.004485151
0.08030645 0.09473626 0.08842567 -0.011284322 -0.1407938 0.042255294 -0.047463283 0.08138003
0.12138467 0.06579369 0.13551672 0.13269 0.012551797 -0.07533874 0.12978503 -0.039546505
-0.078342475 0.12189449 0.0760485 0.021610526 0.011403108 -0.10371889 0.018046899 0.101586394
0.015212361 -0.0059010326 -0.044104695 -0.06329923 0.056405496 0.042504713 0.09994657 0.01609634
0.044340163 0.0329439 0.0011043918 0.060304653 0.094787255 0.13230066 0.07865839 -0.012084649
-0.123264134 0.012336151 0.024072569 -0.013896386 -0.004672998 -0.039490998 0.0502461 0.08235279
-0.08787835 -0.0073895836 0.012802076 -0.09176181 0.06897222 0.10991674 0.1577636 0.044270404
-0.017120918 -0.0002234997 -0.07436986 -0.031720966 0.03475292 -0.11362635 -0.10680694 0.15335856
0.14384772 0.02516779 0.13930818 -0.021740293 0.021968963 0.013000643 0.02295772 0.019225197
-0.08142782 0.07768578 -0.03149308 0.04814296 0.07821754 0.004318501 0.0041283234 0.11903016
-0.08822918 0.032702643 0.07459363 -0.09485742 -0.07234683 -0.11236025 0.00743164 -0.101932734
-0.10832048 0.00715072 -0.021314083 -0.082349665 -0.13847218 0.004036589 -0.010066567 -0.014097075
-0.13402484 -0.01671988 -0.13486616 -0.1387078 -0.058906984 0.09535859 -0.11873502 -0.008736244
0.05445314 0.02217425 0.027729744 -0.07551295 -0.054692317 -0.052059665 0.1484433 0.025153812
-0.13794997 0.04469218 -0.0523161 -0.0714003 -0.07853798 0.1522955 0.083972216 0.022496149
-0.024603639 -0.08014079 0.09364869 0.0052114185 0.07794273 -0.09334875 0.09456803 0.026320592
-0.0044756676 0.03494439 0.12167275 0.13666034 0.08313545 -0.060392287 0.10741142 0.15158863
-0.1001852 0.028641889 -0.04024132 0.06766022 0.007934021 0.01842731 0.03370098 0.10040663
-0.06607412 -0.060871307 0.05576145 -0.10690817 0.019324273 -0.032620326 0.034722608 -0.16204526
0.0126877045 -0.10101238 -0.10894674 -0.01412677 -0.10920844 -0.024363564 0.001083477 -0.018572116
-0.087247446 -0.07775394 -0.012562168 -0.14567158 -0.03139213 0.045797955 -0.026812242 0.11360185
-0.13206208 -0.0048396476 0.026235165 0.11365415 -0.07975478 -0.04691916 -0.062107377 -0.06557988
00000000: 1d0b 00be df9a 2d3e 4f8f bd3d 03e7 a73b
00000010: ed00 f5bd 10fd 12bc 0609 dd3c e634 b83c
00000020: 848a 06be c5c1 0fbd 26f3 6d3d 33c6 7abd
00000030: f2be 803d 56d0 c1bd 400d d13c 2104 bc3d
00000040: 0058 afbc e907 23be 81c4 ad3d 6db3 233d
00000050: 6014 89bc 8401 ad3d b71c 39bc 45dd 043e
00000060: abc2 ac3d 810f 73bd 66fa 003e b4dd 8dbd
00000070: 0a99 eabd 0b90 c53c 1774 21bd 3997 2a3e
00000080: cbc8 90bd e719 c23d e26f 20be e80c db3c
00000090: 16e4 3cbc 7784 0fbe 0f4e 7b3d fccc 773c
000000a0: 772c 803d 8368 f8bd e3b5 d8bd 2cdf 47bc
000000b0: 93d8 27bc 74bc b13d c810 d63d 274e 363b
000000c0: 1e8e 333d 4e2b 423d 679c a0bd e2b8 333d
000000d0: 4c15 da3d 9d90 1e3e 9e67 edbd 599b 86bc
000000e0: 4d44 a6bd 07b4 20bd 122f f23c 72c1 dabc
000000f0: f18b da3d 964f 2fbd 661d f93d 17db 143b
00000100: fe40 03be 298b 69bd 1bc8 92bd 004a 3c3d
00000110: bb14 d2bd 324b b93a 7cea 343d 0549 5bbd
00000120: 33ca a93c c5d5 0dbe 57e6 a3bd 6e29 04be
00000130: 03da a5bc c1f6 81bd d404 9bbb 2cf8 92bb
00000140: b577 a43d 1605 c23d 8518 b53d e0e1 38bc
00000150: 402c 10be e313 2d3d dc68 42bd 93aa a63d
00000160: 8798 f83d d8be 863d e5c4 0a3e e3df 073e
00000170: 0da6 4d3c 334b 9abd 5ee6 043e 84fb 21bd
00000180: 0572 a0bd d2a3 f93d 51bf 9b3d 8f08 b13c
00000190: 1ad4 3a3c 926a d4bd 17d7 933c 870c d03d
000001a0: 443d 793c 735d c1bb 20a7 34bd 07a3 81bd
000001b0: 7309 673d 6c19 2e3d cab0 cc3d 79dc 833c
000001c0: 089e 353d 2ff0 063d 3dc1 903a 0302 773d
000001d0: d21f c23d d379 073e a617 a13d b1fe 45bc
000001e0: e871 fcbd 911d 4a3c d633 c53c abad 63bc
000001f0: f31f 99bb 50c1 21bd dbce 4d3d 94a8 a83d
00000200: 90f9 b3bd 5224 f2bb ccbf 513c 9eed bbbd
00000210: 4f41 8d3d 071c e13d c88c 213e e254 353d
00000220: 2b41 8cbc 3e5b 6ab9 3a4f 98bd d8ed 01bd
00000230: 1459 0e3d efb4 e8bd 99bd dabd 070a 1d3e
00000240: d14c 133e ae2c ce3c cea6 0e3e b318 b2bc
00000250: 41f8 b33c a600 553c d411 bc3c 297e 9d3c
00000260: a1c3 a6bd b919 9f3d e3fe 00bd 8d31 453d
00000270: 8530 a03d 3682 8d3b e346 873b 16c6 f33d
00000280: 80b1 b4bd 35f3 053d 8cc4 983d 9b44 c2bd
00000290: 932a 94bd 211d e6bd 1d85 f33b 1cc2 d0bd
000002a0: 21d7 ddbd 9650 ea3b df9a aebc f1a6 a8bd
000002b0: a7cb 0dbe 5d45 843b 3eee 24bc 6bf7 66bc
000002c0: cf3d 09be 21f8 88bc 5b1a 0abe 6b09 0ebe
000002d0: 7348 71bd 5d4b c33d 592b f3bd 7722 0fbc
000002e0: 410a 5f3d c6a6 b53c 7d29 e33c 89a6 9abd
000002f0: 0d05 60bd 843c 55bd 8501 183e 5e0f ce3c
00000300: c242 0dbe 260f 373d 6849 56bd 523a 92bd
00000310: 85d8 a0bd 5af3 1b3e a0f9 ab3d d849 b83c
00000320: 928d c9bc db20 a4bd e2ca bf3d 8cc4 aa3b
00000330: 70a0 9f3d a12d bfbd e2ac c13d 489e d73c
00000340: 9fa8 92bb d921 0f3d 902f f93d b0f0 0b3e
00000350: eb42 aa3d e75d 77bd 85fa db3d 0d3a 1b3e
00000360: e62d cdbd 65a2 ea3c 15d4 24bd 7191 8a3d
00000370: b2fd 013c dff4 963c 0a0a 0a3d fea1 cd3d
00000380: de51 87bd 3154 79bd 1e66 643d acf2 dabd
00000390: f04d 9e3c e49c 05bd 4b39 0e3d 31ef 25be
000003a0: 17e0 4f3c 94df cebd 781f dfbd f873 67bc
000003b0: ada8 dfbd 1996 c7bc 7503 8e3a 8d24 98bc
000003c0: caae b2bd 753d 9fbd 8dd1 4dbc ee2a 15be
000003d0: 0995 00bd a396 3b3d 59a5 dbbc 16a8 e83d
000003e0: 483b 07be e895 9ebb 21eb d63c 82c3 e83d
000003f0: 7956 a3bd 4e2e 40bd 4e64 7ebd be4e 86bd

lstm.bias_ih_l0 f4 [256]
0.03632466 -0.070242204 -0.021773819 0.11444954 -0.033098776 -0.041093424 0.09819066 -0.019415326
-0.083686695 0.070061155 0.09090313 -0.081236176 0.051825363 -0.052989285 0.0910678 0.1060926
0.08668085 0.14643437 -0.0061963755 -0.025337454 0.06379905 0.070208035 -0.01061294 -0.04046394
-0.012529474 0.09808683 0.09710819 -0.017444693 0.14888176 -0.065734334 0.029738778 0.075511605
-0.060873833 0.15335666 -0.018721737 0.11573247 -0.024721442 -0.037899446 0.15529045 0.017222177
0.047194116 0.16027474 -0.07883569 0.14508258 -0.026072545 -0.058708828 0.11323259 -0.020662883
-0.07104018 -0.01928171 0.11144215 0.08790491 0.027977236 0.10565274 0.06754742 -0.061637223
0.06469852 0.13069715 0.022307463 0.029389482 0.15786293 0.0030691095 0.15310942 0.13833766
0.1457555 0.041728437 0.07725616 0.07518784 -0.070007056 -0.026169695 -0.035304673 0.026522223
-0.04886814 2.5010602e-05 -0.042756267 -0.05250938 0.07549595 0.1654985 -0.016543735 -0.04573944
0.00080898934 -0.021748068 -0.104132116 0.12363496 0.1052159 0.11367333 -0.01737152 -0.040055785
0.14518572 -0.028533824 -0.059084628 -0.06816762 0.08177877 0.010438292 -0.031110633 0.1516615
-0.04043568 0.048317336 0.102768905 0.10105252 0.078029096 0.020165825 0.093432 0.022886846
0.04190948 -0.030209579 0.117959276 0.067301124 0.061397914 0.021319658 0.079139024 -0.10816714
0.10799735 0.1447388 0.09882812 0.029169483 -0.08236651 0.008475306 -0.057007633 -0.027698504
0.1384865 0.02763056 0.17026958 -0.019541778 -0.045069747 -0.07968666 0.06714454 0.06581463
0.020315936 0.11428689 0.11504256 -0.15553935 -0.0380939 0.12829089 0.118217275 0.09087385
-0.068645135 -0.14301689 0.15777199 -0.06965864 0.07507056 -0.0755813 -0.07131809 0.08085583
0.15370974 -0.04760148 0.09033543 0.07793853 -0.0046486733 -0.016876362 0.08161323 0.15174904
-0.004418543 0.14138529 0.034910258 0.08251294 -0.1427015 0.107752584 0.14813565 0.071477704
-0.02549351 0.07056609 -0.13400455 -0.14775328 0.08543442 -0.14609736 0.0065841647 -0.10753255
-0.14727078 -0.094306946 -0.037787445 -0.13729036 -0.12761535 -0.06440727 0.034087863 -0.018404413
0.07742485 -0.16324507 -0.13811342 -0.0649414 0.1568944 0.1535275 -0.05755777 -0.012737887
-0.022204487 -0.033687774 -0.031213576 -0.013985607 0.034377027 -0.008769453 0.10533201 -0.05038789
0.022533828 0.07196732 0.12710741 0.112428546 0.016736696 0.05058352 -0.006787289 0.15241247
0.088498145 -0.068540335 0.09817663 0.15262477 0.07432433 -0.05281757 0.11976655 0.047481246
0.014837232 0.08046292 0.11454363 0.08623096 -0.06937884 0.08913115 -0.026217684 -0.07339509
-0.03333374 0.11234249 0.14454718 0.07771918 0.123660736 -0.09049396 -0.012961828 -0.023573607
-0.070507266 -0.035563536 -0.04680858 -0.05905769 -0.011424862 -0.022182167 0.047647893 0.014024489
0.035435397 -0.06654905 -0.060694247 -0.06608688 0.12743787 0.054435056 -0.058401883 -0.032793958
0.026212001 -0.03421617 0.1327115 0.1242981 0.06527636 0.023522612 0.11942066 0.06795975
0.054148585 0.06041141 -0.07017708 0.08434856 0.08216933 0.12448692 0.09428032 0.13797855
00000000: 2bc9 143d 25db 8fbd 025f b2bc 8564 ea3d
00000010: 9592 07bd 9451 28bd 2f18 c93d e40c 9fbc
00000020: ee63 abbd 397c 8f3d 6c2b ba3d 275f a6bd
00000030: d546 543d 4b0b 59bd c181 ba3d 1447 d93d
00000040: bb85 b13d e4f2 153e f70a cbbb 7e90 cfbc
00000050: 14a9 823d 3bc9 8f3d e6e1 2dbc 84bd 25bd
00000060: 6c48 4dbc bfe1 c83d a9e0 c63d 2ce8 8ebc
00000070: 7674 183e b99f 86bd bd9e f33c d4a5 9a3d
00000080: d756 79bd 8709 1d3e 545e 99bc 2505 ed3d
00000090: 9f84 cabc 733c 1bbd 7604 1f3e 8615 8d3c
000000a0: 9e4e 413d 101f 243e 9b74 a1bd 8790 143e
000000b0: 1796 d5bc ab78 70bd 7de6 e73d 3545 a9bc
000000c0: 847d 91bd adf4 9dbc c83b e43d 7d07 b43d
000000d0: 8430 e53c 7760 d83d 4d56 8a3d 5077 7cbd
000000e0: a880 843d 79d5 053e 24be b63c 36c2 f03c
000000f0: d2a6 213e 1d23 493b b7c8 1c3e 63a8 0d3e
00000100: ee40 153e 70eb 2a3d 7a38 9e3d 15fc 993d
00000110: dc5f 8fbd d461 d6bc a29b 10bd 2245 d93c
00000120: f529 48bd dccd d137 3221 2fbd 1314 57bd
00000130: 9f9d 9a3d 7078 293e ba86 87bc 4759 3bbd
00000140: 5b12 543a 0129 b2bc 3843 d5bd 5334 fd3d
00000150: 6f7b d73d 90cd e83d b84e 8ebc 8911 24bd
00000160: 91ab 143e c4bf e9bc b902 72bd 779b 8bbd
00000170: a17b a73d 5f05 2b3c badb febc 274d 1b3e
00000180: e29f 25bd 66e8 453d 8178 d23d a0f4 ce3d
00000190: b8cd 9f3d cd32 a53c 4759 bf3d 327d bb3c
000001a0: 46a9 2b3d 147a f7bc a294 f13d 2cd5 893d
000001b0: 617c 7b3d 90a6 ae3c a413 a23d bc86 ddbd
000001c0: b72d dd3d 6836 143e 6666 ca3d d7f4 ee3c
000001d0: c6af a8bd 03dc 0a3c d680 69bd f9e7 e2bc
000001e0: 68cf 0d3e 7c59 e23c 265b 2e3e 1416 a0bc
000001f0: 0e9b 38bd c232 a3bd 1483 893d d2c9 863d
00000200: 9b6d a63c 3f0f ea3d 6f9b eb3d b545 1fbe
00000210: 5908 1cbd b05e 033e e61b f23d 121c ba3d
00000220: d295 8cbd 0573 12be fb8e 213e 30a9 8ebd
00000230: 98be 993d 5eca 9abd 380f 92bd be97 a53d
00000240: 1666 1d3e c5f9 42bd c801 b93d 3c9e 9f3d
00000250: e653 98bb 4c40 8abc d624 a73d 1a64 1b3e
00000260: 6dc9 90bb 4ec7 103e 0ffe 0e3d 8bfc a83d
00000270: 5820 12be 63ad dc3d dfb0 173e e762 923d
00000280: c4d7 d0bc f484 903d 7d38 09be a34c 17be
00000290: 3ef8 ae3d 8c9a 15be fabf d73b 073a dcbd
000002a0: 27ce 16be 0024 c1bd 02c7 1abd d895 0cbe
000002b0: 99ad 02be f5e7 83bd b79f 0b3d dac4 96bc
000002c0: eb90 9e3d b729 27be 9b6d 0dbe ffff 84bd
000002d0: eda8 203e 5036 1d3e b2c1 6bbd 92b2 50bc
000002e0: 2fe6 b5bc 31fc 09bd 9db3 ffbc e323 65bc
000002f0: edce 0c3d c0ad 0fbc 4fb8 d73d 8863 4ebd
00000300: dd98 b83c 9a63 933d 7228 023e f040 e63d
00000310: 651b 893c aa30 4f3d e867 debb 0412 1c3e
00000320: 843e b53d e05e 8cbd d410 c93d ab49 1c3e
00000330: 5b37 983d 3c57 58bd 2a48 f53d b27b 423d
00000340: dd17 733c bec9 a43d da95 ea3d dc99 b03d
00000350: 7e16 8ebd 648a b63d 78c6 d6bc 2a50 96bd
00000360: f688 08bd d213 e63d 2d04 143e 3c2b 9f3d
00000370: d741 fd3d e654 b9bd d95d 54bc 701d c1bc
00000380: 1d66 90bd 12ab 11bd 5bba 3fbd 7ae6 71bd
00000390: 582f 3bbc 60b7 b5bc 702a 433d f8c6 653c
000003a0: b524 113d de4a 88bd 889a 78bd 8f58 87bd
000003b0: 137f 023e 4bf7 5e3d d036 6fbd f552 06bd
000003c0: 8dba d63c 4126 0cbd 86e5 073e 0190 fe3d
000003d0: 9daf 853d 7eb2 c03c d292 f43d 7b2e 8b3d
000003e0: e8ca 5d3d f471 773d 00b9 8fbd f0be ac3d
000003f0: 6548 a83d 00f3 fe3d 0a16 c13d 404a 0d3e

lstm.bias_hh_l0 f4 [256]
-0.02223983 0.021697504 -0.049310863 0.1497636 0.03768899 -0.08764346 0.11546544 0.058853596
-0.023030126 0.15411058 -0.028880918 -0.029944228 -0.0070674345 0.057724778 -0.058807068 0.06474133
-0.07633343 -0.04300882 -0.055054203 -0.06643816 0.058617994 0.087604746 0.014683742 0.004265303
0.028176626 -0.055080455 -0.07435748 -0.04305339 -0.04746129 0.044799704 0.1451346 0.13417685
-0.04778827 0.10913679 0.15234815 0.015266117 -0.070515476 -0.08581111 0.02943559 -0.01729388
0.0564873 -0.07206348 0.0269078 0.06649078 0.0045175897 0.02353392 0.16235605 0.071960516
-0.064297736 -0.014592417 0.08830643 0.08758614 -0.07117073 -0.04398164 -0.008976338 0.01673575
0.04816208 0.07250367 -0.02426046 -0.026123941 0.105119795 -0.05871449 0.0145438695 -0.08322164
-0.05039951 0.055229485 0.03682379 0.14791785 0.16841856 -0.08033187 -0.032071244 0.07334657
-0.0020795197 -0.07420856 -0.03207183 -0.028657576 0.04808828 0.09659071 0.11083753 0.14257057
-0.023185825 0.12006791 -0.05407128 -0.093536295 -0.033531703 0.07830713 0.0679472 -0.06610139
0.059007224 0.0422469 0.13674754 -0.03468035 -0.05994377 0.019233692 -0.00495536 0.02396529
-0.0046089827 0.1620928 0.024091462 -0.07970029 -0.100140184 0.031700928 0.099514775 0.063042864
-0.097934395 0.06144469 0.12983592 -0.0012345334 0.09448346 0.1347953 0.13361327 0.03328867
-0.11407695 -0.060193535 0.12440789 -0.006522009 0.14139368 0.12261665 -0.06869185 0.08864571
-0.06368918 -0.04856581 0.13372876 0.15602477 0.07365296 0.07855117 0.03413167 0.100383356
-0.16001543 0.06749749 0.05465695 -0.07845466 -0.11456926 0.06610103 0.00373772 0.0560703
-0.035821624 -0.041220255 -0.0074133156 -0.14754598 0.062241048 -0.059876863 -0.06641838 0.11787579
-0.020632824 -0.034860227 -0.07793949 -0.019038282 0.10425093 -0.035061494 0.10915618 0.1447568
0.074976675 0.13705444 0.072889015 0.10758149 -0.14925718 0.11626359 0.08453106 0.061657153
-0.15193424 0.10851367 0.032125715 -0.1340767 0.09977728 0.08203443 0.022808867 -0.07070883
-0.038120564 -0.14667112 -0.14821586 -0.054314427 -0.074818775 0.14727165 0.11204927 -0.019870494
-0.13762344 -0.0049994206 -0.03948497 -0.09310436 0.1429252 0.117890574 -0.08928318 0.12772733
-0.14862095 -0.14258586 0.015319076 0.116015434 0.014357084 -0.056651045 -0.090654455 0.070202984
0.04434176 -0.08463951 -0.05125394 0.11533062 -0.05763119 0.04924909 0.15002117 0.009541917
0.08811721 0.09954938 0.00929314 -0.047125302 -0.033855338 -0.075829834 0.057459682 0.06962686
0.01596286 0.09288008 0.008808597 0.06776267 0.1506973 0.15395457 0.15084046 -0.008390071
0.031336404 0.008892187 0.08447413 0.11429011 0.06758511 -0.011422728 0.0690211 -0.044723738
-0.07363699 0.0209294 0.030929226 0.01921474 0.02675058 0.075452246 0.07248385 0.06506622
0.019765843 0.070282586 -0.043715574 -0.032808695 0.055123072 0.12863673 0.05328704 0.12895864
0.1284684 -0.07626413 -0.026001431 0.078066014 0.02923869 0.08699847 -0.021916606 0.10204566
-0.028418949 0.05355996 -0.06114829 0.012963627 0.11634712 0.11199494 -0.05517347 0.1031919
00000000: 4e30 b6bc f7be b13c 30fa 49bd a15b 193e
00000010: c55f 1a3d 6a7e b3bd 2579 ec3d 7810 713d
00000020: ada9 bcbc 2acf 1d3e ad97 ecbc 994d f5bc
00000030: f095 e7bb d170 6c3d aedf 70bd 1a97 843d
00000040: b454 9cbd 042a 30bd 8480 61bd bb10 88bd
00000050: 6c19 703d 1e6a b33d 1494 703c f4c3 8b3b
00000060: abd2 e63c 0b9c 61bd bc48 98bd c058 30bd
00000070: c566 42bd e57f 373d 2a9e 143e a865 093e
00000080: a2bd 43bd 1c83 df3d 2701 1c3e bc1e 7a3c
00000090: 6b6a 90bd bcbd afbd e822 f13c e5ab 8dbc
000000a0: 3a5f 673d 0596 93bd bf6d dc3c 512c 883d
000000b0: 4a08 943b 35ca c03c aa40 263e 0960 933d
000000c0: 88ae 83bd 0815 6fbc 00da b43d 5d60 b33d
000000d0: f6c1 91bd 1826 34bd 7e11 13bc 6919 893c
000000e0: 9a45 453d ce7c 943d dfbd c6bc e001 d6bc
000000f0: 0c49 d73d 9b7e 70bd 6949 6e3c 1b70 aabd
00000100: b76f 4ebd 5038 623d 8bd4 163d c777 173e
00000110: ea75 2c3e 0985 a4bd 235d 03bd ba36 963d
00000120: 8d48 08bb a8fa 97bd c05d 03bd 4bc3 eabc
00000130: 37f8 443d 5ad1 c53d c9fe e23d 05fe 113e
00000140: 33f0 bdbc 2ae6 f53d d979 5dbd f58f bfbd
00000150: 8a58 09bd 7d5f a03d e727 8b3d 2a60 87bd
00000160: 8fb1 713d 160b 2d3d 8c07 0c3e fc0c 0ebd
00000170: 9987 75bd fa8f 9d3c 9360 a2bb db52 c43c
00000180: f306 97bb a8fb 253e 755b c53c e839 a3bd
00000190: 4c16 cdbd d5d8 013d 67ce cb3d 9e1c 813d
000001a0: d491 c8bd 6dad 7b3d b5f3 043e 11d0 a1ba
000001b0: 8b80 c13d c707 0a3e ebd1 083e b359 083d
000001c0: 2da1 e9bd 7f8d 76bd 90c9 fe3d 94b6 d5bb
000001d0: 81c9 103e 701e fb3d 50ae 8cbd e28b b53d
000001e0: 796f 82bd f1ec 46bd 31f0 083e f5c4 1f3e
000001f0: 5dd7 963d 70df a03d a6cd 0b3d ca95 cd3d
00000200: 16db 23be 203c 8a3d f7df 5f3d d6ac a0bd
00000210: 4aa3 eabd fa5f 873d 89f4 743b f9a9 653d
00000220: b2b9 12bd 92d6 28bd 66eb f2bb 4b16 17be
00000230: 78f0 7e3d 7141 75bd 5c06 88bd dd68 f13d
00000240: 2b06 a9bc 99c9 0ebd bd9e 9fbd 2cf6 9bbc
00000250: 8381 d53d a49c 0fbd 468d df3d 203b 143e
00000260: 5f8d 993d 0058 0c3e d646 953d af53 dc3d
00000270: e0d6 18be 9b1b ee3d 9f1e ad3d 368c 7c3d
00000280: a694 1bbe 6a3c de3d 4196 033d 674b 09be
00000290: 0858 cc3d ab01 a83d a9d9 ba3c cbcf 90bd
000002a0: 4f24 1cbd f430 16be e6c5 17be ce78 5ebd
000002b0: 963a 99bd 61ce 163e 167a e53d 72c7 a2bc
000002c0: 29ed 0cbe 2ed2 a3bb feba 21bd 80ad bebd
000002d0: fc5a 123e 9d70 f13d 1ada b6bd f4ca 023e
000002e0: 1730 18be 0702 12be ddfc 7a3c 8099 ed3d
000002f0: fa39 6b3c ed0a 68bd 0ba9 b9bd 95c6 8f3d
00000300: b59f 353d 7b57 adbd a7ef 51bd 7632 ec3d
00000310: af0e 6cbd 6ab9 493d 269f 193e b355 1c3c
00000320: cc76 b43d 8ce0 cb3d 4142 183c 7606 41bd
00000330: e5ab 0abd ac4c 9bbd d85a 6b3d 8798 8e3d
00000340: 8bc4 823c e937 be3d ef51 103c 28c7 8a3d
00000350: 6550 1a3e 44a6 1d3e ec75 1a3e 8276 09bc
00000360: 9a5a 003d 89b0 113c c600 ad3d ef10 ea3d
00000370: 106a 8a3d 6526 3bbc ef5a 8d3d 3d30 37bd
00000380: fdce 96bd 2274 ab3c 4a5f fd3c 3b68 9d3c
00000390: 0824 db3c b586 9a3d 6a72 943d 7041 853d
000003a0: faeb a13c 51f0 8f3d 1a0f 33bd 6962 06bd
000003b0: bbc8 613d 59b9 033e 8343 5a3d bc0d 043e
000003c0: 388d 033e 5e30 9cbd f400 d5bc 13e1 9f3d
000003d0: fa85 ef3c 412c b23d 748a b3bc 51fd d03d
000003e0: dbce e8bc b061 5b3d a176 7abd 6565 543c
000003f0: 6647 ee3d 9a5d e53d 94fd 61bd 4656 d33d

lstm.weight_ih_l1 f4 [256, 64]
-0.05623362 -0.07355249 0.15109976 0.004823793 -0.024484016 0.0748634 0.09307784 -0.07500887
0.03433415 0.053603802 0.052964114 -0.07130633 0.0550452 -0.029364709 -0.014004608 -0.039976653
0.09788319 -0.020097917 0.0112968935 -0.008523883 0.12784654 -0.122486755 -0.0046037203 -0.046728246
0.10973101 -0.012659149 0.03995637 0.029041154 0.056711804 -0.06860912 -0.026716318 -0.08385623
-0.063243255 -0.069930755 -0.021393297 0.010506111 0.043147348 -0.009396236 0.0015889962 -0.12667264
-0.05662581 0.06407426 -0.014072081 -0.015295652 -0.071210004 0.12132801 0.120827556 0.05106317
0.10575414 -0.027203865 -0.034954302 0.0038446235 -0.08257324 0.11742525 -0.10282566 -0.016807117
-0.045247156 -0.13169928 -0.11452334 0.13822685 -0.010189795 0.015970485 0.06265393 0.123996526
-0.09752555 -0.03410954 0.15866761 -0.12191478 -0.1613534 0.016167304 0.10967503 0.09426189
-0.123618774 -0.13510115 0.078765444 -0.11978725 0.10716661 -0.06721928 -0.089191884 0.016014703
0.11846944 -0.10972265 -0.088726975 0.09041202 0.058925726 -0.05782813 0.11367424 0.008463058
-0.031186238 -0.056529567 -0.023375066 -0.031175576 -0.005082271 0.01565515 0.12857035 -0.022036226
0.034617703 0.14000367 -0.045184515 -0.10839244 0.09500899 -0.13320524 0.100032866 0.05848571
-0.046214942 -0.116072856 -0.022588858 0.051550843 -0.016890552 0.061808888 0.09336815 0.09652232
0.053069547 -0.1051264 -0.03562592 -0.08363239 0.1015112 -0.025722792 0.07086188 0.09165155
-0.16366239 -0.09129583 -0.036408506 -0.0030240312 0.0044947504 -0.10587099 0.12174776 0.06539314
-0.05045408 -0.021897681 -0.05684334 -0.11036734 -0.10701564 0.15543348 0.038459033 -0.033188626
-0.049344935 -0.04303846 0.068796635 0.0029164762 0.11662482 -0.100875854 -0.06438779 -0.069064185
-0.02441026 -0.14591455 -0.0021847694 -0.03771605 -0.005837287 0.079093516 0.15128808 0.05456561
0.08391249 0.11897394 0.04433739 0.06315396 -0.04650265 -0.061301876 0.13760458 -0.054332633
-0.07544511 -0.06576079 -0.09083632 0.08620582 0.02173958 0.021407325 0.052714504 0.059498135
-0.012542681 -0.033899494 -0.09561022 -0.015630454 -0.010026957 -0.047795862 -0.05187004 -0.028550979
0.12981851 0.01564549 0.031109063 0.045846704 0.037160955 -0.045207754 0.081688814 0.059354935
-0.08345794 0.011611463 -0.11241375 0.04132962 0.12984005 0.0029374354 -0.08081262 0.116445504
0.005443093 -0.023606202 0.119822584 0.03042944 0.040542576 0.08134279 -0.035964157 -0.061296407
0.06477459 -0.042113744 0.13255791 0.040250402 -0.080746874 0.04163736 0.039091483 -0.08887915
0.0535933 -0.13602482 0.08994209 0.07799544 0.07463966 0.07631088 -0.038829233 0.023312889
-0.013696363 0.12269763 0.10920943 -0.0081179505 -0.13749723 0.02525021 0.12823682 -0.0040489933
0.016071621 -0.062120765 -0.12989038 -0.1363874 -0.10653557 -0.09673221 -0.02197729 0.0071808947
0.07753847 -0.012656194 0.018029898 -0.09954972 -0.09893446 -0.10488549 0.1372102 0.028045947
-0.06751691 -0.15735218 0.0012557256 -0.16802327 0.11419443 -0.08764635 -0.0010101353 0.10107466
-0.12684943 0.06416203 0.08110525 0.13013661 0.14805828 -0.06049412 0.016513394 0.14239131
00000000: 3955 66bd b0a2 96bd e5b9 1a3e e910 9e3b
00000010: b492 c8bc fb51 993d 989f be3d 409e 99bd
00000020: f7a1 0c3d a98f 5b3d e6f0 583d 0e09 92bd
00000030: 1377 613d 428e f0bc 9573 65bc 8fbe 23bd
00000040: fb76 c83d 63a4 a4bc 9b16 393c c2a7 0bbc
00000050: 34ea 023e 56da fabd ceda 96bb 1e66 3fbd
00000060: a7ba e03d 5268 4fbc 4aa9 233d b7e7 ed3c
00000070: a34a 683d f082 8cbd 2edc dabc d1bc abbd
00000080: ae85 81bd db37 8fbd ff40 afbc d321 2c3c
00000090: 46bb 303d acf2 19bc dd45 d03a 79b6 01be
000000a0: 77f0 67bd 5e39 833d 968e 66bc 9d9a 7abc
000000b0: 8dd6 91bd d27a f83d 7074 f73d 9d27 513d
000000c0: a095 d83d a4da debc 3e2c 0fbd 14f6 7b3b
000000d0: 291c a9bd a67c f03d 4296 d2bd 14af 89bc
000000e0: 1555 39bd 2ddc 06be 368b eabd 578b 0d3e
000000f0: 19f3 26bc 89d4 823c b450 803d e4f1 fd3d
00000100: 7abb c7bd 72b6 0bbd c379 223e 75ae f9bd
00000110: d339 25be 4b71 843c 4d9d e03d 610c c13d
00000120: d72b fdbd f557 0abe c74f a13d 0553 f5bd
00000130: 2b7a db3d 43aa 89bd 3caa b6bd 4431 833c
00000140: 1ba0 f23d 45b6 e0bd 7db6 b5bd f029 b93d
00000150: 1a5c 713d 30dd 6cbd 0ace e83d a3a8 0a3c
00000160: 487a ffbc 8c8b 67bd 117d bfbc ec63 ffbc
00000170: 2e89 a6bb 3b3f 803c f2a7 033e 5185 b4bc
00000180: 4bcb 0d3d 1f5d 0f3e 6613 39bd dbfc ddbd
00000190: 1394 c23d f466 08be 08de cc3d b68e 6f3d
000001a0: e14b 3dbd 9bb7 edbd 450c b9bc fa26 533d
000001b0: 0e5e 8abc 512b 7d3d cd37 bf3d 7ead c53d
000001c0: 745f 593d 834c d7bd 7cec 11bd 7547 abbd
000001d0: 1be5 cf3d 9bb8 d2bc 0920 913d cfb3 bb3d
000001e0: 1d97 27be 4ff9 babd 1621 15bd d32e 46bb
000001f0: b348 933b e4d2 d8bd e456 f93d d7ec 853d
00000200: f0a8 4ebd c462 b3bc 90d4 68bd 4608 e2bd
00000210: 042b dbbd f429 1f3e 3887 1d3d ccf0 07bd
00000220: ea1d 4abd 1949 30bd 40e5 8c3d 5a22 3f3b
00000230: fed8 ee3d 0098 cebd bfdd 83bd 8671 8dbd
00000240: 07f8 c7bc a06a 15be 592e 0fbb 257c 1abd
00000250: b646 bfbb c8fb a13d 43eb 1a3e 3080 5f3d
00000260: 50da ab3d 9ca8 f33d 209b 353d dd56 813d
00000270: 9079 3ebd ad17 7bbd 37e8 0c3e e58b 5ebd
00000280: f782 9abd 98ad 86bd 6408 babd ad8c b03d
00000290: 3417 b23c 6a5e af3c 2aeb 573d 51b4 733d
000002a0: d17f 4dbc 32da 0abd 4bcf c3bd 700b 80bc
000002b0: 1b48 24bc 98c5 43bd ae75 54bd bee3 e9bc
000002c0: 25ef 043e f82a 803c 6fd8 fe3c c1c9 3b3d
000002d0: 1636 183d c42b 39bd 774c a73d 291e 733d
000002e0: ffeb aabd 013e 3e3c 2e39 e6bd 3f49 293d
000002f0: caf4 043e fd81 403b 1681 a5bd fb7a ee3d
00000300: f95b b23b cb61 c1bc 8b65 f53d 2947 f93c
00000310: f90f 263d 0c97 a63d 274f 13bd f111 7bbd
00000320: 8aa8 843d 767f 2cbd 43bd 073e 9bdd 243d
00000330: 9e5e a5bd f08b 2a3d 641e 203d 4606 b6bd
00000340: a684 5b3d 174a 0bbe 8f33 b83d 13bc 9f3d
00000350: aedc 983d e148 9c3d 670b 1fbd acfa be3c
00000360: b666 60bc e548 fb3d 32a9 df3d 2701 05bc
00000370: 13cc 0cbe 87d9 ce3c 8350 033e 6bad 84bb
00000380: a2a8 833c 5872 7ebd fc01 05be 23a9 0bbe
00000390: 522f dabd 891b c6bd b809 b4bc b64d eb3b
000003a0: 7dcc 9e3d ed5b 4fbc 70b3 933c b9e0 cbbd
000003b0: 269e cabd 34ce d6bd d580 0c3e 9dc0 e53c
000003c0: 4e46 8abd ee20 21be 2997 a43a 4b0e 2cbe
000003d0: c5de e93d ee7f b3bd 8466 84ba 3b00 cf3d
000003e0: d1e4 01be 6267 833d 821a a63d 8842 053e
000003f0: 979c 173e afc8 77bd 1947 873c 07cf 113e

lstm.weight_hh_l1 f4 [256, 64]
-0.14529806 0.05061482 -0.11827151 -0.045084868 0.053140182 -0.079037115 -0.04191765 -0.008992209
-0.031493474 -0.15537222 -0.120049365 0.12968796 -0.05495292 0.079696715 0.13100496 0.036621273
0.100453004 -0.048157934 -0.07442825 0.054296963 0.0327521 0.051283002 -0.043399885 -0.08657856
0.14601521 0.16067316 -0.068778 0.089897305 -0.040421873 -0.057965223 0.03026667 -0.06265687
-0.03694386 -0.068845205 0.07017213 -0.09641125 -0.13453157 -0.019942963 0.08451334 0.14629334
0.023373483 -0.07931675 0.10496535 -0.02837485 -0.059206057 -0.084824614 -0.15335535 -0.07600945
0.08798196 0.14729561 -0.13158491 0.08337709 0.067963935 -0.04104099 0.00695474 -0.10464596
-0.04631324 0.06774612 0.08297873 0.08174421 -0.06116963 -0.016951675 0.07183933 -0.14783011
-0.12135108 0.023556981 0.04590809 0.031410128 -0.02238315 0.09313847 0.042287163 -0.098307565
-0.008815363 -0.1534976 -0.04834306 0.13624886 -0.087373525 -0.06476817 0.019225257 0.07632508
0.15953016 0.0890386 0.10265276 0.071560085 0.037530653 -0.03370999 -0.03691454 0.044384014
0.01194298 -0.069774814 0.06523154 -0.058063038 0.067469396 0.08389616 0.14433648 0.032570094
-0.02692812 -0.011470106 -0.081150606 -0.11266277 0.083580285 -0.15517402 -0.017521968 -0.0108470395
0.02290847 -0.024788104 0.09699691 -0.075637236 -0.023431832 0.06273528 -0.026051158 0.088403285
-0.04337635 0.12147227 -0.01410736 0.13691694 0.0066180504 0.036527384 0.052177962 -0.09835953
0.0520332 -0.11041013 0.03254493 0.14870064 -0.06819052 0.018237052 0.07708703 -0.03704086
-0.045216855 -0.073411435 0.058343112 0.014963951 0.14930224 0.10592169 0.052782774 0.04487009
-0.023679782 -0.10848936 0.074381426 -0.050340123 0.03394242 -0.07565251 -0.08375755 0.047189828
-0.024031144 -0.050690915 -0.048452955 0.082425915 -0.036078703 0.06423824 -0.045305535 -0.07805695
0.12562169 0.13718562 0.032578584 -0.0733372 0.15495475 -0.118763946 -0.022966282 0.12532178
0.0032461318 -0.040017832 0.033364773 0.01315326 0.08562316 0.0699314 -0.006873191 0.14487565
-0.14903478 -0.037326556 -0.05085625 -0.02523862 0.15286906 -0.017166832 -0.047802325 -0.032346334
-0.0114609245 -0.0049933423 0.07799765 -0.039212134 0.073968954 0.045924008 0.16156931 -0.083673246
0.0030267276 -0.108090445 -0.055406008 -0.042101465 -0.113799855 0.026226554 0.05270434 0.020336919
0.0067620203 -0.09905512 -0.148945 -0.087736174 0.020685881 0.036771905 0.07043573 0.1320226
0.1465472 0.07975127 0.07556555 0.025419666 0.06891403 0.008711616 -0.0752708 0.07226098
0.15057218 -0.030094834 0.11884521 -0.097233765 -0.11379704 0.123875365 -0.07565923 0.013098355
0.08965339 0.11604496 -0.029024655 -0.09051926 0.1480094 -0.04402083 0.09143702 0.024133468
-0.10303919 -0.14643776 0.077473365 -0.15157236 -0.109365694 0.06575013 -0.009655281 0.025701534
-0.103838414 -0.09229343 0.00048695406 0.08921724 0.07582661 0.025934806 0.0728068 -0.0028630665
0.0058938717 -0.05247499 -0.042256832 0.083688006 0.06085117 0.12970987 0.13315137 0.036938112
-0.09134764 -0.0808326 0.03363317 0.13064018 -0.034579135 -0.046631735 0.068656825 -0.026664877
00000000: 04c9 14be 7c51 4f3d 5538 f2bd e9aa 38bd
00000010: 85a9 593d 36de a1bd d7b1 2bbd 0f54 13bc
00000020: 4dff 00bd e519 1fbe 71dc f5bd eccc 043e
00000030: 5016 61bd 0838 a33d 2a26 063e 3000 163d
00000040: 4eba cd3d 4141 45bd d76d 98bd 7e66 5e3d
00000050: 1127 063d 200e 523d 14c4 31bd 1a50 b1bd
00000060: 0385 153e 8187 243e 7bdb 8cbd 141c b83d
00000070: 6891 25bd f16c 6dbd cff1 f73c 3f52 80bd
00000080: 7252 17bd b7fe 8cbd 68b6 8f3d 4373 c5bd
00000090: a5c2 09be 6d5f a3bc 5415 ad3d eccd 153e
000000a0: bf79 bf3c d270 a2bd 13f8 d63d 6072 e8bc
000000b0: 0d82 72bd 87b8 adbd 2f09 1dbe d8aa 9bbd
000000c0: e32f b43d a9d4 163e 32be 06be 9cc1 aa3d
000000d0: ad30 8b3d 991a 28bd 96e4 e33b 9f50 d6bd
000000e0: f4b2 3dbd 7abe 8a3d c1f0 a93d 8269 a73d
000000f0: 028d 7abd 3dde 8abc 8020 933d c760 17be
00000100: ea86 f8bd 92fa c03c 1f0a 3c3d e8a7 003d
00000110: de5c b7bc 62bf be3d 4e35 2d3d 7a55 c9bd
00000120: 506e 10bc 7a2e 1dbe 5f03 46bd d284 0b3e
00000130: e4f0 b2bd 2da5 84bd 497e 9d3c 5350 9c3d
00000140: e05b 233e df59 b63d 9c3b d23d 188e 923d
00000150: beb9 193d 7d13 0abd b333 17bd 03cc 353d
00000160: 7dac 433c 19e6 8ebd 1d98 853d 82d3 6dbd
00000170: 652d 8a3d c0d1 ab3d f1cc 133e 3868 053d
00000180: 5c98 dcbc 1ded 3bbc 4a32 a6bd bdbb e6bd
00000190: 242c ab3d f0e5 1ebe 3b8a 8fbc c8b7 31bc
000001a0: 8baa bb3c 6c10 cbbc 51a6 c63d b2e7 9abd
000001b0: 1df4 bfbc 5b7b 803d 3d69 d5bc c80c b53d
000001c0: 66ab 31bd 74c6 f83d 8e22 67bc f433 0c3e
000001d0: 3bdc d83b bd9d 153d 8fb8 553d b970 c9bd
000001e0: c420 553d b51e e2bd d54d 053d fb44 183e
000001f0: 79a7 8bbd df65 953c cedf 9d3d 28b8 17bd
00000200: 4f35 39bd bc58 96bd 30f9 6e3d 5c2b 753c
00000210: b0e2 183e 79ed d83d c032 583d b3c9 373d
00000220: 1afc c1bc ab2f debd 4a55 983d 7231 4ebd
00000230: 3507 0b3d b4ef 9abd 1489 abbd 1f4a 413d
00000240: f6dc c4bc 47a1 4fbd 9b76 46bd ebce a83d
00000250: 43c7 13bd 578f 833d 4c92 39bd 52dc 9fbd
00000260: f9a2 003e 637a 0c3e 1f71 053d d031 96bd
00000270: 75ac 1e3e 833a f3bd c923 bcbc 5a54 003e
00000280: 0ebd 543b bde9 23bd 80a9 083d c580 573c
00000290: 325b af3d 3238 8f3d 8138 e1bb 485a 143e
000002a0: 939c 18be bbe3 18bd a54e 50bd 39c1 cebc
000002b0: b589 1c3e 75a1 8cbc 5fcc 43bd 977d 04bd
000002c0: 9ac6 3bbc 319f a3bb 3bbd 9f3d e79c 20bd
000002d0: 097d 973d d01a 3c3d 6d72 253e e15c abbd
000002e0: 105c 463b 865e ddbd 69f1 62bd 9672 2cbd
000002f0: e60f e9bd 12d9 d63c 82e0 573d 9c99 a63c
00000300: f093 dd3b 69dd cabd 0a85 18be 06af b3bd
00000310: 7075 a93c 239e 163d 9c40 903d ef30 073e
00000320: 7810 163e a254 a33d 1cc2 9a3d e73c d03c
00000330: cd22 8d3d 2abb 0e3c 9427 9abd 91fd 933d
00000340: 982f 1a3e 7189 f6bc 1e65 f33d 7f22 c7bd
00000350: 6c0e e9bd 5eb2 fd3d 3af3 9abd 7c9a 563c
00000360: 329c b73d fba8 ed3d 1dc5 edbc 2962 b9bd
00000370: c78f 173e 304f 34bd 5543 bb3d 8db3 c53c
00000380: 3606 d3bd c8f3 15be 5baa 9e3d c935 1bbe
00000390: 1ffb dfbd 01a8 863d 2f31 1ebc 068c d23c
000003a0: 3ca9 d4bd 5604 bdbd de4d ff39 87b7 b63d
000003b0: fb4a 9b3d 3b75 d43c bb1b 953d 49a2 3bbb
000003c0: 6121 c13b 04f0 56bd 8015 2dbd 9e64 ab3d
000003d0: 143f 793d aad2 043e d558 083e 6b4c 173d
000003e0: 7914 bbbd 908b a5bd efc2 093d 8ac6 053e
000003f0: daa2 0dbd eb00 3fbd f39b 8c3d 4d70 dabc

lstm.bias_ih_l1 f4 [256]
0.07206752 -0.07271661 0.031786814 0.070969924 -0.01643854 0.0659763 -0.01348515 -0.08821146
-0.07752331 0.03244037 -0.07348347 0.1251008 0.07165781 0.13902453 -0.0011731735 0.11019456
-0.07404658 0.07940639 0.077019654 0.045736227 -0.02347388 -0.032854956 -0.02054425 0.14230773
0.059087284 -0.012287594 -0.020345135 0.027632289 0.08127198 0.14823695 0.10396786 0.13822478
-0.014489706 0.06673637 0.12191474 0.11927101 0.05241651 0.121328436 -0.05104845 -0.104068846
0.06026393 0.09253776 0.10851205 -0.12500235 0.14321491 -0.069357686 0.14019997 -0.024908267
0.15475889 0.09583943 0.10635624 0.037899107 -0.08803395 -0.08091428 -0.07199077 -0.02500996
-0.007887443 0.06935061 -0.07805649 -0.058486022 0.016956806 -0.005948375 0.014676829 -0.07979689
-0.08092393 -0.07094985 -0.022562712 0.010720744 -0.063718304 -0.07874546 0.008530041 0.15438367
0.10946348 0.02095984 -0.056233194 0.046183098 -0.08991232 -0.07328623 0.04891082 0.05529747
-0.019993555 0.035637353 0.02122496 0.0022345386 0.06754615 0.08052892 -0.046324473 0.02756383
-0.08271464 -0.04081684 -0.10304487 -0.07453567 -0.043022517 0.030948432 0.019846292 0.052853033
0.12765999 0.060113955 0.034902018 0.059094545 -0.02591771 0.0046763164 0.06205039 0.12539199
0.13430372 -0.09040669 0.0428117 0.07395851 0.05468209 -0.08066014 0.12830809 -0.068160124
-0.04830942 -0.052392118 0.1464976 0.13694224 -0.0025537773 0.06979236 0.07187832 -0.10285416
-0.0401186 -0.01736922 0.03605984 0.005080758 0.12229544 -0.05212174 -0.025016002 0.04092731
-0.04205036 -0.055473726 -0.09694408 0.09565353 0.09692303 0.048201047 -0.024621818 0.1544916
0.043262407 -0.077879064 -0.10885691 0.08929081 -0.050988372 0.053862114 -0.00226813 0.07758914
0.09479383 0.12281125 0.020648314 -0.08742915 -0.016213968 -0.041618057 0.06691592 -0.04238853
0.015887886 0.14930955 -0.068473116 0.12734658 0.07854999 -0.10903093 0.12195416 -0.005529608
-0.13398397 -0.065336145 -0.026576987 -0.11938845 -0.023173472 0.052364685 -0.13047512 0.07511545
0.0028253088 0.13817933 0.15434058 -0.011898201 -0.009038022 -0.1558992 -0.09606179 -0.009646088
0.110125825 0.13092288 0.025032546 0.018513743 0.05796954 0.09428413 0.12951998 0.04933476
-0.04194277 -0.089475244 -0.05359838 0.026577093 -0.15026271 0.11739645 0.11443882 0.0774915
0.09397072 0.16524386 0.03979544 0.015430162 0.05381985 0.08011309 0.06444006 0.03443476
0.025803722 -0.0332954 0.0448234 0.09842663 0.022253426 -0.10544519 0.028574588 -0.0042704404
0.1350522 0.12522916 -0.05069232 0.092277825 0.0742228 -0.06352939 -0.0068598683 0.054465216
0.09779504 -0.0034809376 0.05984287 0.07316669 -0.05670943 0.011575159 0.06368006 0.099850796
0.06573814 -0.0022684813 0.007339592 0.07902187 0.0965681 -0.008867106 0.15982758 0.04673788
-0.06342439 0.026652364 0.02969397 -0.053724986 0.049602024 0.0076001915 -0.011763132 0.106395334
0.1252911 -0.030559612 0.04980389 0.07932728 0.036786515 0.033152267 0.016620468 0.018553881
-0.056827262 0.16472386 0.16481814 0.12023899 -0.01079189 -0.0061952253 0.076662764 0.10442222
00000000: 2398 933d 72ec 94bd e432 023d ae58 913d
00000010: 1eaa 86bc 951e 873d d2f0 5cbc 36a8 b4bd
00000020: 8bc4 9ebd 32e0 043d 807e 96bd 6d1a 003e
00000030: 54c1 923d 725c 0e3e 2cc5 99ba afad e13d
00000040: bca5 97bd d19f a23d 7bbc 9d3d e955 3b3d
00000050: 4b4c c0bc eb92 06bd 6a4c a8bc 1eb9 113e
00000060: 8205 723d e851 49bc d7aa a6bc 1c5d e23c
00000070: ed71 a63d 6dcb 173e 1aed d43d cc8a 0d3e
00000080: 3b66 6dbc 14ad 883d 6fae f93d 5c44 f43d
00000090: b2b2 563d 0b7b f83d 2e18 51bd 0c22 d5bd
000000a0: 50d7 763d 7084 bd3d 913b de3d 9e00 00be
000000b0: eea6 123e 670b 8ebd 9590 0f3e 6c0c ccbc
000000c0: 1d79 1e3e 7747 c43d 4dd1 d93d 183c 1b3d
000000d0: 254b b4bd 63b6 a5bd e66f 93bd b0e1 ccbc
000000e0: 553a 01bc b107 8e3d 15dc 9fbd 0a8f 6fbd
000000f0: 00e9 8a3c 96ea c2bb 1577 703c 8d6c a3bd
00000100: 72bb a5bd 284e 91bd 70d5 b8bc 0fa6 2f3c
00000110: be7e 82bd 4d45 a1bd 96c1 0b3c c116 1e3e
00000120: 642e e03d f8b3 ab3c c754 66bd 7d2a 3d3d
00000130: f323 b8bd 1717 96bd b656 483d 9a7f 623d
00000140: 86c9 a3bc 79f8 113d f8df ad3c 5671 123b
00000150: a355 8a3d 59ec a43d bbbe 3dbd 8bcd e13c
00000160: 4b66 a9bd 8f2f 27bd 3009 d3bd 28a6 98bd
00000170: 6138 30bd 9187 fd3c b194 a23c 6c7c 583d
00000180: 4db9 023e 0d3a 763d 6bf5 0e3d 1f0d 723d
00000190: 6151 d4bc c93b 993b 8d28 7e3d c266 003e
000001a0: ea86 093e 2527 b9bd 525b 2f3d 8f77 973d
000001b0: 54fa 5f3d 2531 a5bd 3263 033e 8997 8bbd
000001c0: 19e0 45bd 1e99 56bd 7803 163e 963a 0c3e
000001d0: 465d 27bb 4cef 8e3d f134 933d 34a5 d2bd
000001e0: 6753 24bd e549 8ebc 7cb3 133d 7d7c a63b
000001f0: 0876 fa3d 9b7d 55bd 5cee ccbc 65a3 273d
00000200: 003d 2cbd 6b38 63bd 9e8a c6bd ffe5 c33d
00000210: 957f c63d 766e 453d b2b3 c9bc 0c33 1e3e
00000220: ec33 313d 0f7f 9fbd 5ff0 debd 1ade b63d
00000230: 2fd9 50bd 859e 5c3d e8a4 14bb 0ee7 9e3d
00000240: 4423 c23d 7784 fb3d a726 a93c 0e0e b3bd
00000250: 28d3 84bc b277 2abd 370b 893d 989f 2dbd
00000260: 5027 823c 9ae4 183e a23b 8cbd 2467 023e
00000270: d1de a03d 9c4b dfbd 1ac3 f93d b731 b5bb
00000280: 1833 09be f5ce 85bd fbb7 d9bc ef81 f4bd
00000290: 4bd6 bdbc 5a7c 563d 459b 05be 21d6 993d
000002a0: d128 393b e27e 0d3e 750b 1e3e acf0 42bc
000002b0: 3614 14bc 0aa4 1fbe 0bbc c4bd a00a 1ebc
000002c0: a689 e13d a610 063e 0e11 cd3c 22aa 973c
000002d0: 7871 6d3d 0a18 c13d e3a0 043e 3f13 4a3d
000002e0: 2fcc 2bbd cc3e b7bd fa89 5bbd 34b8 d93c
000002f0: 78de 19be 8d6d f03d e65e ea3d ddb3 9e3d
00000300: b973 c03d b035 293e 8b00 233d cace 7c3c
00000310: 3472 5c3d 5512 a43d 26f9 833d 770b 0d3d
00000320: 5462 d33c c260 08bd be98 373d e793 c93d
00000330: d14c b63c a6f3 d7bd 4115 ea3c 0def 8bbb
00000340: 204b 0a3e 133c 003e c0a2 4fbd 28fc bc3d
00000350: 2002 983d b21b 82bd bfc8 e0bb eb16 5f3d
00000360: c448 c83d 7120 64bb cc1d 753d 6bd8 953d
00000370: 2648 68bd bca5 3d3c b16a 823d 937e cc3d
00000380: b8a1 863d cdaa 14bb f680 f03b 38d6 a13d
00000390: 7fc5 c53d 5747 11bc d7a9 233e 3870 3f3d
000003a0: a6e4 81bd 0f56 da3c c540 f33c bb0e 5cbd
000003b0: 7e2b 4b3d 070b f93b 27ba 40bc cce5 d93d
000003c0: 4f4c 003e 2758 fabc 2aff 4b3d 5776 a23d
000003d0: 75ad 163d acca 073d a627 883c 4ffe 973c
000003e0: b4c3 68bd 5fad 283e 16c6 283e dc3f f63d
000003f0: 78d0 30bc 5101 cbbb 5e01 9d3d 51db d53d

lstm.bias_hh_l1 f4 [256]
0.018202381 0.014030488 -0.074234396 -0.06847071 0.038030434 0.029529434 0.01108954 0.14512686
0.06281736 -0.05685754 -0.05147632 0.051473014 0.092921615 -0.1007058 0.08044072 -0.030469008
0.08586337 -0.02901392 0.12612385 0.14765438 -0.052864555 -0.08836147 0.059302915 0.14019331
0.07814839 -0.02659752 0.12503786 -0.10020226 0.14020655 -0.011155788 0.013743072 0.03202263
0.0017596361 0.006679213 0.067226686 0.039436117 0.049539484 0.13053088 0.014001291 -0.06284869
-0.08083303 0.11493577 -0.05333268 0.03233112 -0.03930877 -0.046976067 0.0559183 0.11332065
-0.0768979 0.11841454 -0.100396134 0.007648608 -0.001605866 -0.06182169 -0.062131774 -0.031967316
-0.06895073 0.035437606 -0.04870376 -0.019286936 -0.03299216 0.059308764 0.0026356364 0.10066072
0.113977656 -0.05295199 0.017207481 -0.09525306 0.08999691 0.007941442 0.05666589 0.07274619
0.13405392 0.025480505 0.0003006469 0.14060344 0.008099742 0.03688912 0.047319032 -0.039288413
0.11132475 -0.065919474 0.08741147 0.089087255 0.115511194 -0.06437056 0.11206056 0.15945336
0.023016812 -0.08527611 0.014242291 0.021417629 -0.07289277 0.026304336 -0.018036932 -0.075967774
0.1187768 0.068366066 -0.016413637 0.12895723 0.041732047 0.014629546 0.043030534 -0.08755228
-0.026669448 0.040372953 -0.008053624 0.030135173 0.037314456 0.06532765 0.15797366 -0.030976031
0.01992876 -0.036219485 -0.08141193 0.062319882 0.123737395 0.069791734 -0.0627221 0.10126574
-0.081759356 -0.052910198 0.14661676 -0.016917534 -0.034724332 -0.025173506 -0.020196127 0.06467531
-0.09740071 -0.15905653 -0.07274695 0.03443112 0.03601255 0.03576927 -0.14815553 0.0033835575
-0.036223907 -0.063338056 -0.10548455 0.015133824 -0.0027812263 -0.10472668 0.08686926 0.06170176
0.06945191 0.080800384 0.024710402 -0.00918977 -0.1547044 0.08667565 0.118503675 -0.08582464
0.12508929 -0.0070181224 0.0738644 -0.022580864 -0.03569645 -0.09837857 0.10565871 -0.004808452
-0.13236044 -0.01904887 -0.11056198 -0.0901481 -0.10398804 -0.08740939 -0.104565024 0.057228297
-0.07773105 0.049778394 0.14010908 0.033348504 0.15544844 0.07082209 -0.022057261 0.023524435
0.15414146 -0.05536107 -0.10868617 0.12098038 0.08935666 0.063625604 0.0548377 -0.10375416
0.07433782 -0.04209721 -0.02835393 0.14506258 0.033911783 0.020596623 0.0052999402 -0.10679462
0.09868065 0.16189833 -0.018777728 -0.047213733 0.12220664 -0.06383038 0.14173038 0.057031527
0.13551019 0.059328698 0.083569735 -0.08457445 0.0033435712 0.10531819 -0.0031523558 0.13766707
0.030432384 -0.020160729 -0.035310134 -0.055353176 0.08207397 -0.051092133 0.08936949 0.007848486
0.10307301 0.13204552 -0.066517085 -0.04198264 0.12999524 0.006897412 -0.075122744 -0.031910088
-0.07386161 -0.033663057 0.05072691 0.11477774 0.06642004 0.024026576 0.03221628 -0.05112448
0.09833482 0.1117225 0.086095035 0.075181484 0.16680549 0.05938673 -0.02010441 0.11756086
0.05852768 0.02081837 0.01824683 0.056102727 -0.015383916 0.10909194 -0.052737765 0.039024346
-0.07951631 0.09291238 -0.015011033 0.041481644 0.13484515 0.053385254 0.054868698 0.08966368
00000000: 291d 953c 22e0 653c 3408 98bd 5f3a 8cbd
00000010: cdc5 1b3d b6e7 f13c e7b0 353c 239c 143e
00000020: 63a6 803d 74e3 68bd d5d8 52bd 5ed5 523d
00000030: b04d be3d d83e cebd 1bbe a43d 249a f9bc
00000040: 22d9 af3d 9aae edbc 9c26 013e b632 173e
00000050: 8188 58bd dcf6 b4bd 9de7 723d d68e 0f3e
00000060: 430c a03d 0be3 d9bc ed09 003e d836 cdbd
00000070: 4e92 0f3e c4c6 36bc 9f2a 613c 292a 033d
00000080: 97a3 e63a 4ddd da3b 25ae 893d c487 213d
00000090: eae9 4a3d e3a9 053e ac65 653c d0b6 80bd
000000a0: ca8b a5bd 7263 eb3d 5e73 5abd a36d 043d
000000b0: 3c02 21bd fa69 40bd 960a 653d a814 e83d
000000c0: a57c 9dbd 5383 f23d 7d9c cdbd 2da1 fa3b
000000d0: ec7b d2ba be38 7dbd e37d 7ebd 29f0 02bd
000000e0: 0a36 8dbd 0627 113d 987d 47bd a3ff 9dbc
000000f0: ca22 07bd bfed 723d a4ba 2c3b 3527 ce3d
00000100: 1e6d e93d 30e4 58bd b4f6 8c3c 0914 c3bd
00000110: 4d50 b83d d21c 023c 7e1a 683d f4fb 943d
00000120: 6e45 093e 7ebc d03c 25a0 9d39 59fa 0f3e
00000130: c8b4 043c 0c19 173d 9ad1 413d e3ec 20bd
00000140: 3bfe e33d ca00 87bd c904 b33d 6173 b63d
00000150: 2291 ec3d b6d4 83bd 0280 e53d be47 233e
00000160: c18d bc3c 3ea5 aebd 8058 693c 0674 af3c
00000170: ce48 95bd 317c d73c 30c2 93bc fe94 9bbd
00000180: 4041 f33d 8203 8c3d e475 86bc 5d0d 043e
00000190: 39ef 2a3d c3b0 6f3c c940 303d 9c4e b3bd
000001a0: e379 dabc 1c5e 253d 59f3 03bc 0ade f63c
000001b0: 0bd7 183d 81ca 853d d9c3 213e 72c1 fdbc
000001c0: a441 a33c e25a 14bd 4cbb a6bd 2243 7f3d
000001d0: 086a fd3d f8ee 8e3d 7274 80bd 6a64 cf3d
000001e0: 7371 a7bd 5db8 58bd b422 163e a496 8abc
000001f0: 1a3b 0ebd ab38 cebc 5972 a5bc 7d74 843d
00000200: 067a c7bd b7df 22be 5afc 94bd a507 0d3d
00000210: e581 133d cc82 123d 15b6 17be adbe 5d3b
00000220: 855f 14bd 62b7 81bd 4908 d8bd dcf3 773c
00000230: 3c45 36bb f17a d6bd 83e8 b13d fcba 7c3d
00000240: ce3c 8e3d ac7a a53d 786d ca3c b090 16bc
00000250: d56a 1ebe 0183 b13d 0eb2 f23d d4c4 afbd
00000260: 6817 003e 47f8 e5bb 3846 973d 81fb b8bc
00000270: 7136 12bd b47a c9bd 9863 d83d 3890 9dbb
00000280: 7f89 07be 600c 9cbc 526e e2bd 919f b8bd
00000290: aef7 d4bd b203 b3bd 3026 d6bd 3868 6a3d
000002a0: 7531 9fbd 6ee4 4b3d c178 0f3e 7198 083d
000002b0: e02d 1f3e 2c0b 913d 6eb1 b4bc 51b6 c03c
000002c0: 42d7 1d3e 4ac2 62bd db96 debd 90c4 f73d
000002d0: a000 b73d 244e 823d 7f9d 603d 107d d4bd
000002e0: 6d3e 983d 206e 2cbd 8046 e8bc 498b 143e
000002f0: 15e7 0a3d 40ba a83c 1fab ad3b 23b7 dabd
00000300: 1519 ca3d adc8 253e c0d3 99bc 3063 41bd
00000310: 7a47 fa3d 81b9 82bd c521 113e e499 693d
00000320: 2fc3 0a3e a602 733d 9c26 ab3d 5f35 adbd
00000330: d11f 5b3b 10b1 d73d c197 4ebb 99f8 0c3e
00000340: 564d f93c 1d28 a5bc 5ca1 10bd 03ba 62bd
00000350: 6616 a83d fc45 51bd 5a07 b73d f096 003c
00000360: f117 d33d f136 073e 1c3a 88bd fdf5 2bbd
00000370: 791d 053e af03 e23b f4d9 99bd 27b4 02bd
00000380: c144 97bd 46e2 09bd 05c7 4f3d 9710 eb3d
00000390: 3b07 883d 62d3 c43c 38f5 033d e767 51bd
000003a0: c463 c93d c4ce e43d 9852 b03d c0f8 993d
000003b0: 0fcf 2a3e 803f 733d 01b2 a4bc c0c3 f03d
000003c0: b8ba 6f3d 498b aa3c 607a 953c f9cb 653d
000003d0: d20c 7cbc 986b df3d 8e03 58bd fed7 1f3d
000003e0: 72d9 a2bd d948 be3d d6f0 75bc a8e8 293d
000003f0: d914 0a3e 7faa 5a3d 00be 603d 97a1 b73d
