fault_model_nn_two_year_global/best_Y2024.pt (torch, 235573 bytes, 14 tensors)

lstm.weight_ih_l0 f4 [256, 3]
000000 88 44 81 bd ce 6f bd 3d 5a 1e f5 3c 31 3e a6 bf
       -0.063118994 0.09249841 0.0299217 -1.2987729
000010 94 a2 42 3e b7 86 21 be 00 6b 65 be 28 ac 1f 3d
       0.19007331 -0.15774046 -0.22404099 0.03898254
000020 9d 19 17 3e f4 cc a9 be 5f b1 fa 3d 72 40 8e 3d
       0.14755864 -0.3316418 0.12240862 0.06945886
000030 1d 3b 38 be 26 c1 c3 bc 6b 1e 47 3e 47 a4 5a bf
       -0.179913 -0.023895811 0.19445197 -0.8540692
000040 81 fc cf 3d 3c b3 5c 3d d0 a6 4c bf 6b c2 a8 bc
       0.10155583 0.05388187 -0.79942036 -0.020600518
000050 e9 1d 97 bd 43 5d 4b be 4f f8 7c bd 69 ac 0f 3e
       -0.07378752 -0.19859795 -0.061760243 0.14030613
000060 b7 73 55 bf 90 ad cc bd 61 f4 0b 3b 29 aa 1e bf
       -0.8337969 -0.09994042 0.0021355378 -0.61978394
000070 8a 83 32 bd 64 13 c0 bc c3 72 7c bd 66 88 65 bd
       -0.043582477 -0.023446746 -0.061632883 -0.056038283
000080 6f dd 87 3e 0a a3 3d bf 13 5b 09 3d 09 46 09 3e
       0.26536128 -0.740769 0.03353412 0.13405623
000090 58 77 d7 be b8 ce 7a 3d d1 b2 d6 3a 87 fd 3e be
       -0.4208324 0.0612323 0.0016380196 -0.186514
0000a0 90 2d f5 bc 29 08 37 3b 50 83 9e be 64 e0 e0 3d
       -0.029928952 0.0027928448 -0.30959558 0.10980299
0000b0 dd b6 53 3e 2c 9a 0c bf 15 01 94 3c 41 27 09 3e
       0.20675226 -0.5492275 0.018066922 0.1339388
0000c0 b0 0d a6 be 75 b8 46 be 65 1f 96 bd fb 59 e4 be
       -0.32432318 -0.19406302 -0.07330207 -0.445999
0000d0 cc 25 24 bc 53 6f 15 3e e7 0c a2 bf 7f 39 b0 3d
       -0.010018777 0.14593248 -1.2660187 0.086047165
0000e0 7d 5b 8c bd c9 03 02 bf 70 ca ad 3d 7f ba 27 ba
       -0.068533875 -0.50787026 0.084858775 -0.00063983345
0000f0 2f c1 55 bf 77 e3 21 be e5 de 10 bc 13 35 9f be
       -0.834979 -0.15809427 -0.008842205 -0.3109518
000100 2f b2 69 3b ab d6 93 3d 4b 8a 7d 3e e6 da 3e bd
       0.0035659184 0.07218679 0.24759786 -0.046595477
000110 3e 81 d0 3e 56 3a 09 bf 6b 47 38 3d 61 12 e4 3d
       0.40723604 -0.5360464 0.044989984 0.11136318
000120 7f 43 a9 be 3f f2 76 be f2 af 12 bd 58 28 94 be
       -0.33059308 -0.24115847 -0.035812326 -0.2893703
000130 35 b7 cb bd 54 e0 2c 3d 45 49 9b be 6e fc 19 3d
       -0.09947053 0.042206123 -0.30329338 0.03759425
000140 64 14 f6 bc d0 42 37 be 19 f7 bc 3d c1 e0 f8 3d
       -0.03003902 -0.1789658 0.09226818 0.121522434
000150 50 2a 86 be 61 71 ab bd b3 01 c0 3e 28 2f 61 bf
       -0.26204157 -0.08371235 0.37501296 -0.8796258
000160 36 06 98 bd 6f 49 91 3d da 39 41 bd 01 07 47 bd
       -0.0742306 0.070940845 -0.047174312 -0.048590664
000170 1d c7 7f 3e 8b 2c 53 be f7 b9 f9 bd 43 34 60 3d
       0.249783 -0.2062246 -0.12193673 0.05473734
000180 03 90 bf be 1b 96 5d bd 40 4a 0a 3c 9b 82 0b bf
       -0.3741456 -0.05409823 0.008440554 -0.54496163
000190 e0 12 f4 bd 10 b3 2a 3e d4 6b f6 be 1f 99 46 be
       -0.119176626 0.1666987 -0.4812914 -0.19394349
0001a0 c7 18 dd 3c 7e 01 86 be 32 d9 ab bd 0a a1 34 3d
       0.026989354 -0.26173013 -0.08391036 0.04409889
0001b0 e7 0f da bf 44 8c 2e 3c 10 ff 19 3e 17 7c 01 bf
       -1.7036103 0.010653559 0.15038705 -0.5057997
0001c0 12 ec 7f bc 95 6c bd bd 5a ab 2d bf ab 63 20 be
       -0.015620248 -0.09249226 -0.67839587 -0.1566302
0001d0 7b 3a af 3d 00 db 64 be 93 8d 0b be 31 73 8f bb
       0.08556076 -0.22349167 -0.13628225 -0.0043777456
0001e0 a4 d6 05 bf 59 c5 c5 bd cc f6 3c bc 02 cd 03 bf
       -0.5228064 -0.09656782 -0.01153345 -0.5148469
0001f0 bb b2 2b be e7 a0 16 3c ad c3 d1 be 0e 7b 11 be
       -0.16767399 0.009193636 -0.409696 -0.14207098
000200 cd 16 6e 3e f6 40 09 bf 08 ed f3 3c 47 f6 c0 3d
       0.23250885 -0.5361475 0.029776111 0.09421974
000210 6b 11 33 bf 80 68 b5 3d 37 f3 22 3d c5 bf fe be
       -0.6994845 0.088578224 0.03978273 -0.49755684
000220 ed 6e 02 be ae 42 33 bb a4 74 84 be 97 08 a9 bd
       -0.12737627 -0.0027352977 -0.2587024 -0.082535915
000230 fe cc be 3d f0 7e e3 bf 70 97 4a 3e 26 77 42 be
       0.09316443 -1.7773113 0.19784331 -0.18990764
000240 dd 0f 94 3f 19 a1 fe 3d 21 7e 7f 3e 29 6f 3e be
       1.1567341 0.12433071 0.24950458 -0.18597092
000250 99 4e cc 3c 09 07 07 3d f5 d5 47 bf ed 4b a6 bd
       0.024939822 0.032965694 -0.7806085 -0.081199504
000260 9e 46 dc 3c 50 93 3c bf 90 58 0c 3e 92 e4 99 3c
       0.026889142 -0.7366228 0.13705659 0.018785749
000270 62 fb 3b be 0b 6d 53 3d d9 b1 b4 3d 5f ed 62 3d
       -0.18357614 0.051617663 0.08822984 0.055402156
000280 a7 14 28 3c 46 5e 55 3e 86 12 35 be d7 99 11 be
       0.01025883 0.20836744 -0.17682847 -0.14218841
000290 19 6e 5c 3e 14 94 84 be 7a e6 51 bd d4 3c 8e 3e
       0.21526374 -0.25894225 -0.05124519 0.27780783
0002a0 69 b4 d0 bd 9b 9d 8e bd d8 be a0 3c ab 09 f5 be
       -0.101906605 -0.069636546 0.019622251 -0.4785894
0002b0 f0 c8 a0 3b c7 52 fd 3c 45 4b c2 be 45 1b 85 bd
       0.004906766 0.03092326 -0.3794805 -0.06499342
0002c0 03 c0 e7 bc e2 bd ae be 85 85 a4 bc 51 01 c0 bc
       -0.0282898 -0.34129244 -0.020083198 -0.023438128
0002d0 e0 bc a6 be 10 12 26 3d 8a a0 b3 3d dc 63 15 bf
       -0.32565975 0.04054457 0.08770855 -0.583555
0002e0 fd aa 94 3d 55 ba 1a 3e be 4e 94 be 9e e3 3b be
       0.07259176 0.15110143 -0.28966326 -0.18348548
0002f0 d5 2e 8b bc c9 e3 3a bf 28 b2 1d bd 1a e2 cd 3c
       -0.016990105 -0.7300382 -0.03849998 0.025132228
000300 58 4f 37 be 15 8b d9 3d a4 f2 d4 3d fa d0 08 c0
       -0.17901361 0.10622231 0.103978425 -2.137755
000310 97 e0 93 bd b1 46 60 be 89 da 67 be c6 d1 0d bd
       -0.072205715 -0.21901967 -0.22641958 -0.034623884
000320 5f 45 77 bc e8 c7 d7 be c8 7a a7 3d 4a bc 9e 3d
       -0.015092223 -0.42144704 0.081777155 0.07750757
000330 de a1 04 bf 09 99 07 be 9c 87 7c bb 31 6f 95 bf
       -0.5180949 -0.13241972 -0.0038532978 -1.1674558
000340 21 98 b4 bd d3 a3 a9 3b f1 00 44 bf 6e e0 d3 bc
       -0.08818079 0.005177 -0.76563936 -0.025863852
000350 cf 05 19 be 9e fa 04 bf 0b a2 2a bd c4 c6 26 3e
       -0.14943622 -0.5194491 -0.041658442 0.1628676
000360 c0 87 6d bf d7 f2 c1 bd 77 a7 98 3d 90 8a 57 bf
       -0.92785263 -0.09470146 0.074538164 -0.84195805
000370 f5 b5 19 be 5e 2b ff 3d af 50 42 bf 62 3f 65 3d
       -0.15010817 0.124594435 -0.75904363 0.05596865
000380 66 58 3b bd 7e ff 38 bf 47 fb bb 3d 82 ec bf 3d
       -0.0457386 -0.7226485 0.09178787 0.09371282
000390 c6 8c 49 bf ac 22 52 be 96 c7 cf bd 43 42 9f bd
       -0.7873043 -0.20521039 -0.1014549 -0.0777631
0003a0 90 2f 0e bd e6 64 a6 3e 8f 22 61 bf 3c 92 8a ba
       -0.034713328 0.32498854 -0.8794336 -0.0010572146
0003b0 4f 60 a2 3d e2 76 34 bf 19 3d 4a be 75 d0 9e bd
       0.07928526 -0.704939 -0.1974987 -0.07754604
0003c0 73 85 09 bf ab f6 03 be 9a 54 87 3c 1b c6 4d bf
       -0.5371925 -0.12887065 0.016519833 -0.8038041
0003d0 63 b7 91 bc a5 df f5 bd d3 9f fc bf 32 3f 43 bd
       -0.01778764 -0.120055474 -1.9736274 -0.04766769
0003e0 09 0c ec bd e3 73 2c bf b7 b7 4e bd 08 f7 2f 3a
       -0.11525733 -0.6736433 -0.050468173 0.0006712531
0003f0 d6 46 a0 bf dd 33 04 be 73 51 f5 bd db aa af bf
       -1.2521617 -0.1291041 -0.11978426 -1.3724016

lstm.weight_hh_l0 f4 [256, 64]
000000 3a f2 f9 bd 2b 05 41 3d 71 a3 aa 3d 92 0b b6 3c
       -0.12204404 0.04712407 0.08331955 0.022222314
000010 72 7b ae bd 5b 88 e8 bd 74 70 9c bd ca 90 52 bc
       -0.08519639 -0.11354133 -0.07638636 -0.012851903
000020 d6 a6 6d bd ee 1c 8c 3c 7a ab c9 3c 58 17 5c 3d
       -0.058020435 0.017103638 0.0246179 0.0537332
000030 ee fd 0a bc a1 2b 87 bd a3 29 a7 3d b4 9e 15 3d
       -0.008483393 -0.066001184 0.081622384 0.036528304
000040 51 e5 81 bd a3 95 08 be 9c 2a 31 bc 88 80 98 3c
       -0.06342567 -0.13338332 -0.0108133815 0.018615976
000050 c4 d6 07 be 05 9d 0e 3e e8 f4 5f ba dd 26 cb 3d
       -0.1326552 0.13927086 -0.0008543269 0.09919522
000060 2a 78 11 3d 0b 5e c1 bd ab e6 9f 3d e6 ad a9 bd
       0.035514988 -0.094417654 0.07807668 -0.082851216
000070 d8 1a 90 bd 4a d5 62 bd 06 3b 96 bd ca 49 0d 3e
       -0.0703637 -0.05537919 -0.073354766 0.1379768
000080 00 d5 f5 3c e9 bb 72 3d 23 fa ce bd 97 34 7a 3d
       0.030008793 0.059261236 -0.101063035 0.06108531
000090 95 fb c0 3d d4 d5 9b bd 56 f8 d4 3c 1f 37 36 3d
       0.094229855 -0.07609144 0.025997322 0.04448616
0000a0 c7 fc de 3d 0b b0 9a bd e5 03 8d bd db ab 66 3d
       0.10888057 -0.07553109 -0.068855084 0.056316238
0000b0 4d 83 85 3d 93 71 a4 3d fc c3 bf 3d 18 30 9c bd
       0.06519184 0.08029475 0.09363553 -0.07626361
0000c0 ec 11 40 3e 10 26 99 3d b9 e4 9a bc 7d c5 9d 3d
       0.18756837 0.07477963 -0.018907892 0.077036835
0000d0 9c 86 a0 3d e7 78 f4 3d ec 92 a7 bd 96 46 4d bd
       0.07838175 0.11937123 -0.0818232 -0.050116144
0000e0 53 31 9c bd 18 e8 39 3c 3f ad 52 3d 76 d4 a6 bd
       -0.07626595 0.011346839 0.05143475 -0.081459925
0000f0 5e 1d b9 3d 5a 3b a5 3c 15 31 ce 3c 89 88 23 bd
       0.090388045 0.020169903 0.025169889 -0.039925132
000100 14 9a 7d bd 3c 08 a1 3d e8 43 f4 bd 8f 2f a6 3d
       -0.06191452 0.07862899 -0.119270146 0.0811454
000110 37 62 b4 bd bd e6 20 3d cc d0 ad 3d 4f f6 ac bd
       -0.088077955 0.03928255 0.084870905 -0.08445417
000120 23 63 de bc f1 a6 09 be e7 b2 e7 bd cf 76 2f be
       -0.027146881 -0.1344259 -0.1131342 -0.17135166
000130 79 a2 40 3c b9 88 db bc 98 f2 24 bd 5b 9d c5 bc
       0.0117574865 -0.026798593 -0.040270418 -0.024122884
000140 93 8f 80 3d fa de d6 3d 26 79 50 3e a5 6c 34 bc
       0.062773846 0.10491748 0.20358714 -0.011012231
000150 67 11 5d bd 64 fc 9b bc f3 23 16 be 5c 52 90 3d
       -0.053971674 -0.019041248 -0.14662151 0.07046959
000160 90 79 09 3e 09 68 85 3c fa 3a c4 3d a6 53 c8 3d
       0.13425279 0.01628496 0.095815614 0.0978158
000170 d0 9f 9c 3c a7 3c 25 bd fb 5d c8 3d ab b8 26 bd
       0.019119173 -0.040341046 0.0978355 -0.040703457
000180 1b 94 e9 bd 1d 9f c1 3d 9e a2 a7 3d a6 0c f5 3c
       -0.11405202 0.094541766 0.08185314 0.029913258
000190 7d a1 1e be 8f ad fc bd f1 2e 64 3c 3d ef 06 3e
       -0.1549129 -0.12337791 0.013927207 0.131772
0001a0 f8 c5 4c 3c 6e 77 c7 3b b0 7e fc bc a9 cb 9f bd
       0.012498371 0.006087235 -0.030822128 -0.07802517
0001b0 5b c3 60 3c c6 d7 34 3d c0 d8 90 3d 76 39 5c 3e
       0.013718451 0.04415109 0.07072592 0.21506295
0001c0 e7 a1 f6 3d 4f 6a 76 3d 66 eb 2b bc 10 fa 33 3d
       0.12042599 0.060159978 -0.010493135 0.04393965
0001d0 bd ef 6b 3d 96 fc ef 3d fd 23 e6 3d b9 7f 9f bb
       0.05760168 0.11718099 0.11237333 -0.0048675206
0001e0 19 39 f2 bd a6 1c 0a 3d ce af 35 3d a3 c1 ca bc
       -0.11827297 0.033718728 0.044357114 -0.024750536
0001f0 b9 91 01 bd fb e5 78 bd fd 4f 01 3e 7d 95 c5 3d
       -0.031633113 -0.0607662 0.1262817 0.09647653
000200 9e 0e 68 bd 61 5c 09 be 05 0f d1 bc dc 4c 66 bd
       -0.056654565 -0.13414146 -0.025519857 -0.056225643
000210 8b 16 ca 3d af a7 5d 3c ae 84 a0 3d 3e 28 9f 3b
       0.09867581 0.013528748 0.07837807 0.004857092
000220 a9 05 2b 3d 41 b0 41 3d 68 f1 fc bd 97 69 a3 3d
       0.041753445 0.04728723 -0.12350732 0.07979124
000230 c0 4c 34 bc de 08 a7 bd 1e e2 5e bd 50 c8 d3 3d
       -0.011004627 -0.08155988 -0.05441486 0.10340941
000240 08 97 ed 3d a4 7f 80 3d c9 6c 9a 3d 22 71 7c bd
       0.116010725 0.062743455 0.0754028 -0.06163133
000250 e5 2d a0 bd 72 98 51 3d 7a 4f 87 3a 45 04 d7 bc
       -0.07821254 0.051170774 0.0010323368 -0.026247153
000260 8d db ef bd 7e ab fa 3c 8a 40 a9 bd b5 4f 83 3c
       -0.11711798 0.030599352 -0.08264263 0.016029218
000270 57 9a fd 3d 76 c3 4c bd 2e 29 15 bd f5 66 b3 3d
       0.123829536 -0.049991094 -0.036416225 0.08759872
000280 2c 95 8e 3b 58 8c 7d ba 27 f2 dd 3d 6c e2 6d bd
       0.0043512788 -0.0009672097 0.108372025 -0.05807726
000290 4f 55 d9 3b e3 65 8c bd c1 8b 94 bc 98 ba 91 bd
       0.006632484 -0.06855371 -0.018133046 -0.07115668
0002a0 ac af 77 bd a5 93 68 3d 2b db 53 3c e9 b7 bc bc
       -0.060470268 0.05678143 0.012930672 -0.023036914
0002b0 00 db b4 bd 88 ce 8e bc f5 96 1e bd eb 60 68 bd
       -0.088308334 -0.017432466 -0.038718183 -0.056733053
0002c0 a8 76 d6 bc 99 0c 59 3c 49 a5 b4 bd bb ba e3 bd
       -0.026179627 0.013247632 -0.08820588 -0.111196004
0002d0 a7 9b c8 bd 45 33 74 3d fc 3f a3 bd 6f fe 28 bd
       -0.09795313 0.059619207 -0.079711884 -0.04125827
0002e0 9c 5e 85 3d a3 d6 9a 3d 6e 46 40 3d 37 6f f3 bd
       0.06512186 0.0756047 0.046942167 -0.11886447
0002f0 57 09 8e bd 04 1e 63 3b 3d e3 73 3d c1 7a f2 3b
       -0.06935375 0.0034655342 0.059542883 0.0073998873
000300 ad 72 da bd 4f fb a7 bb 55 b0 b9 bd f2 38 14 bd
       -0.10666404 -0.005126394 -0.09066836 -0.03618712
000310 a5 02 16 bd e0 aa a9 3d f6 ab 31 3c b2 c8 cb bc
       -0.036623616 0.08284545 0.010844221 -0.024875972
000320 5e bd 02 3d f1 9a 07 bd 38 62 26 3d c2 ea ab 3d
       0.031918876 -0.033106748 0.040621012 0.08394386
000330 71 e6 ca 3c fb 6a 48 bd 92 fc 24 3e 06 cd ec bc
       0.024768086 -0.04893015 0.16111973 -0.028906357
000340 26 72 86 bd fb 58 ce 3d 49 9b 7f 3d 86 d5 c3 3d
       -0.06564741 0.100755654 0.06240395 0.09562211
000350 cf 75 8b 3b 78 9b 17 bc aa 0d ba 3d de 97 ed 3d
       0.0042559872 -0.009253375 0.090846375 0.11601232
000360 90 95 13 be b1 23 e2 bc 09 78 cb bd 5d eb 0c 3d
       -0.14412522 -0.02760491 -0.09935004 0.034404147
000370 dd 9f 3b 3d 82 4b 0d bd 22 77 9b bc 10 84 7d 3d
       0.045806754 -0.034495838 -0.018977705 0.061893523
000380 3d 5a 53 3c 2b 19 d0 bd 29 50 eb 3d 75 1e 81 bd
       0.012899932 -0.101610504 0.11489899 -0.06304637
000390 ec eb 58 3d e5 23 cd 3c fa 25 7e bc 70 1c e4 bd
       0.052959368 0.02504153 -0.015511984 -0.111382365
0003a0 87 f9 79 3d 48 62 5b bd 82 1d 87 bd c8 0e 23 3d
       0.061028983 -0.053560525 -0.06597425 0.03980902
0003b0 ab 41 58 bd 07 af 13 bd ee c1 fc bc 04 29 34 bd
       -0.052797 -0.03605559 -0.030854192 -0.043984428
0003c0 bd 50 e2 3c 9d b9 0e bd 04 1f 1c 3d a1 ae d2 bd
       0.02762639 -0.034844983 0.038115516 -0.10287214
0003d0 72 8d 94 bd f0 31 93 bc 98 ac 9b 3c 60 70 8f 3d
       -0.07253541 -0.017968148 0.019003198 0.07003856
0003e0 51 06 d8 bd 31 03 3e 3d d6 c4 85 3d f2 af 76 3d
       -0.1054808 0.046389762 0.06531684 0.06022639
0003f0 1f a7 06 be d8 1f 8d 3c 54 f1 06 be e4 5d fa bd
       -0.13149689 0.017227098 -0.13177997 -0.122249395

lstm.bias_ih_l0 f4 [256]
000000 df 46 28 bd fd 09 a7 bd be c2 96 bd f4 2b aa 3d
       -0.041083213 -0.08156202 -0.07361363 0.08309165
000010 eb df a0 bd 09 e2 6b bd 93 32 a5 3d e4 05 80 bd
       -0.07855209 -0.05758861 0.08066287 -0.062511235
000020 0e 89 f8 bd 35 d3 06 3d b0 c8 e6 3d e2 f3 ab bd
       -0.12135516 0.032916266 0.11268747 -0.08396126
000030 dc 90 e3 3c 78 f2 ba bd 08 7b cc 3d 00 4f 62 3d
       0.027779035 -0.091282785 0.09984404 0.05525112
000040 d7 1d 4f 3d d5 4a f4 3d 8e 6c cb bc ab 37 31 bd
       0.050565567 0.119283356 -0.024832036 -0.04326598
000050 f9 6d 3c 3d 95 1f 1a 3e 24 24 38 bb 54 b0 b8 bd
       0.046003316 0.1505111 -0.0028097713 -0.09018007
000060 e8 92 c1 bc 3a 9e e4 3c 9d c2 83 3d fc 33 16 bd
       -0.02362962 0.02790748 0.06433604 -0.03667067
000070 d0 c8 f7 3d a5 b2 c3 bd 9b fc 07 bc c8 04 f9 3c
       0.12098849 -0.09555558 -0.008299972 0.030397788
000080 e9 ba c6 bd f9 49 d6 3d f5 6d 3b bd d7 f5 60 3d
       -0.09703619 0.10463328 -0.04575916 0.05492195
000090 62 b6 6f ba cd 68 64 bd 3a b8 10 3e f9 66 5a bd
       -0.00091443036 -0.05576401 0.14132777 -0.05332086
0000a0 c4 38 97 3c b2 f9 d5 3d b0 72 f8 bd 51 7b ee 3d
       0.018459685 0.10448016 -0.1213125 0.116446145
0000b0 db b7 87 bd 10 ff 42 bd e6 a9 90 3d f4 5f 09 bd
       -0.066268645 -0.047606528 0.070636556 -0.033538774
0000c0 e2 5d 55 bd f7 bd a5 bd e4 ee b2 3d 19 cc 2f 3d
       -0.052091487 -0.080928735 0.08736971 0.042919252
0000d0 a8 92 18 bd a9 5a c9 3d 1d 4b 0d 3d 54 fd 3e bd
       -0.037249237 0.09831745 0.03449546 -0.04662831
0000e0 f3 76 f2 bb da 55 c1 3d a2 98 8d bc 7e 05 87 b7
       -0.0073994338 0.09440203 -0.017284695 -1.6095812e-05
0000f0 f3 0d f0 3d 42 c3 93 bc db 95 4c 3e 1c b8 f2 3d
       0.117214106 -0.018037442 0.1997904 0.11851522
000100 eb 45 91 3d 3b d0 9a 3d da 56 da 3c c8 df a6 3c
       0.07093414 0.07559248 0.026652742 0.02037038
000110 26 f4 08 be 20 c7 91 bd 8b d9 a3 bd 2c 77 88 bc
       -0.13374385 -0.07118058 -0.080004774 -0.016658388
000120 33 4c b5 bd 8d c2 1f bd a1 b7 9d bd 7c a8 b4 bd
       -0.088524245 -0.039003897 -0.0770104 -0.08821198
000130 08 7f 11 3d 16 f1 16 3e 7e 0a 9c bd ed 05 e2 bd
       0.035521537 0.14740404 -0.07619189 -0.110362865
000140 38 d5 5b bd 1b 53 9e bd 53 18 81 bd 44 0e 73 3d
       -0.053670138 -0.07730695 -0.063034676 0.059339777
000150 06 93 b1 3d 14 cd d1 3d ce 97 d4 bd 08 dd d1 bd
       0.086706206 0.10244194 -0.10380517 -0.102472365
000160 b8 63 00 3e 1c 9a c9 bd 9a 66 cf bd 82 5c fb bd
       0.1253804 -0.09843847 -0.101269916 -0.12273504
000170 30 e4 2c 3d e0 b1 63 bc 25 5a bc bd 60 63 c8 3d
       0.042209804 -0.013897389 -0.09196881 0.09784579
000180 84 e3 d2 bd 19 5a 86 bb 08 49 92 3d 3d 3e f0 3c
       -0.102973014 -0.004100096 0.07142836 0.029326553
000190 77 ac ef 3d 64 d9 4e bc 11 90 86 3d 41 48 2e bd
       0.11702817 -0.012625072 0.06570447 -0.042549375
0001a0 80 e3 b8 3a de ab c1 bd 9e d4 8f 3d d5 02 03 3d
       0.0014105886 -0.09456609 0.070229754 0.031985123
0001b0 4f 59 7f 3c 37 94 5d bd 54 37 c2 3c de 48 54 bd
       0.015585258 -0.054096427 0.023708023 -0.051827304
0001c0 8c e1 97 3d f5 66 88 3d 08 13 96 3d 9c 79 d1 bc
       0.074160665 0.066602625 0.07327849 -0.025570683
0001d0 c6 89 1d be 9a aa eb bd 7a 1a d9 bd df 65 bc bd
       -0.15384588 -0.11507149 -0.10600753 -0.09199118
0001e0 b7 51 6a 3d cf 6f a4 bc 68 6a 02 3e 35 9b 62 bd
       0.057206836 -0.020072846 0.12735903 -0.0553238
0001f0 e3 c8 e0 bd 6b 27 05 be cf cb 07 3e 18 9a 1e 3d
       -0.10975816 -0.13003318 0.1326134 0.038721174
000200 f2 df 63 3d 37 bf dc 3d de e4 84 3d 60 99 bb bd
       0.055633493 0.10778659 0.064889655 -0.09160113
000210 4c c2 74 3c ac eb e7 3d 54 8b e3 3d 5d 8a 56 3d
       0.014938902 0.11324248 0.11110559 0.052378047
000220 63 9f 59 bd c1 bd fa bd 07 fe e3 3d a9 34 90 bd
       -0.05313052 -0.12243224 0.11132436 -0.07041294
000230 c7 79 45 3d 27 62 08 bd 3e 2f 4a bc 5c ac 44 3d
       0.04821184 -0.03329673 -0.012340365 0.048015937
000240 5a ec f4 3d a4 0b de bc 3c 13 8d 3d a2 52 46 3d
       0.11959143 -0.02710516 0.06888434 0.04841865
000250 34 e2 52 3b 3a dd a4 3c ff 32 22 3d 47 94 bc 3d
       0.0032178285 0.02012502 0.039599415 0.09207969
000260 e3 7c 88 bc d4 13 96 3d f1 0b ac 3c f9 bf 2e 3d
       -0.016661113 0.07328001 0.021001788 0.04266355
000270 be ea db bd a5 ab c1 3d d4 1c cc 3d 62 90 e0 3c
       -0.10738133 0.09456567 0.09966436 0.027412597
000280 00 db 77 3c 90 9a ef 3c 94 3f db bd 42 c7 b7 bd
       0.015127897 0.029248506 -0.10705486 -0.08973552
000290 be 18 9a 3d 4c 70 0f be 6a a0 39 bc 74 96 38 bd
       0.075242504 -0.14007682 -0.01132975 -0.04506536
0002a0 7a dd fb bd 9a 09 48 bd d4 a3 ae bb 18 69 fd bd
       -0.12298103 -0.04883728 -0.0053295884 -0.12373561
0002b0 82 37 d7 bd 72 b0 c7 bd 93 4c 8f ba 47 fe 1c bd
       -0.10508634 -0.09750451 -0.0010932855 -0.038328435
0002c0 d6 e6 8d 3d eb 7e f7 bd 15 70 e0 bd 3c 63 f4 bc
       0.06928794 -0.120847546 -0.10958878 -0.029832475
0002d0 ec a1 c3 3d 1e 46 8f 3d 5b 1d dc bc ab 4a 91 bd
       0.095523685 0.06995796 -0.026869467 -0.0709432
0002e0 44 85 1d 3d 5c 38 3f bc 27 f8 d8 3a 8d 40 dd bc
       0.03845717 -0.011671152 0.0016553447 -0.02700832
0002f0 f6 64 18 3c 97 2f e9 3b 1a b7 16 3e 8e 04 95 bd
       0.009301415 0.007116269 0.14718285 -0.07276259
000300 72 2d 03 be e3 e4 09 3e 40 0a 19 3c ca eb 06 3d
       -0.12810305 0.1346622 0.009340823 0.03293971
000310 58 59 ab bd 60 4e 9e b9 a8 de 91 bd ac 73 55 3d
       -0.0836665 -0.00030194502 -0.071225464 0.052112266
000320 e8 66 54 3c f6 04 18 be f6 7f 59 3d 01 c6 8f 3d
       0.012963988 -0.14845642 0.05310055 0.07020188
000330 5e 50 e6 3b c3 71 23 be db f5 c3 3d 27 d5 77 bd
       0.0070286235 -0.15961365 0.095683776 -0.060506012
000340 3d f9 ca bd 9d ec 7c bc fd 39 0e 3e ab f5 4b bc
       -0.0991082 -0.015437272 0.13889308 -0.0124487085
000350 55 1a ee bd d4 8f c5 3d c9 ab 33 bd 54 24 2f be
       -0.11626116 0.09646574 -0.043865 -0.17103702
000360 ba 82 d8 bd c3 84 ee bc a8 28 e9 3c 1a 29 7d bc
       -0.10571809 -0.02911604 0.02846177 -0.015451694
000370 73 a3 39 3d e3 77 0b be 6e 91 f9 bd 1a 3b fd bd
       0.045321893 -0.13619952 -0.12185942 -0.12364788
000380 cc e8 0f be f0 89 04 be f1 6c 04 be 34 9d 3c be
       -0.14053649 -0.12943244 -0.12932183 -0.18419343
000390 6c 8c 20 3d 61 79 d5 bd 9d 2b b2 bc 83 e9 ec bd
       0.039196417 -0.10423542 -0.021749312 -0.11567976
0003a0 d7 c2 4b bd 2a 09 41 be 87 4c 2b be 60 ae 1d be
       -0.04974636 -0.18851152 -0.16728412 -0.1539855
0003b0 39 13 82 3d ba ca d0 bb 14 27 45 be 6f 4d a2 3c
       0.06351323 -0.006371823 -0.19253188 0.019812314
0003c0 bb 49 60 3d 9f a1 26 be b3 ab a8 3d 28 f5 84 3c
       0.054757815 -0.16272591 0.08235874 0.01623018
0003d0 10 3f 32 bd e2 da c9 b9 a1 00 dc 3c 75 d5 5a 3c
       -0.043517172 -0.00038500788 0.026855769 0.013356556
0003e0 23 49 aa bd ff 51 64 bd 4f 95 34 be 89 4c 1d bd
       -0.08314731 -0.05574226 -0.17635082 -0.038403068
0003f0 b8 f5 8b bb 41 cd e2 3c d0 aa 40 3d 7c 1d 82 3d
       -0.0042712353 0.027685763 0.0470379 0.0635328

lstm.bias_hh_l0 f4 [256]
000000 1b 14 cc bd 9f 05 2a 3c fc 27 cf bd cc 7e f2 3d
       -0.09964772 0.010377317 -0.10115048 0.11840591
000010 a1 6b fe bb b1 46 d5 bd 8b 93 c8 3d f1 15 81 3c
       -0.007764295 -0.10413874 0.097937666 0.015757533
000020 33 9f 78 bd df 8b ef 3d c1 88 e8 bb 32 d0 05 bd
       -0.0606987 0.116966 -0.0070963805 -0.032669254
000030 8c e2 fe bc af 2e 9f 3c 15 ed 4c bd a3 bc 63 3c
       -0.031113885 0.01943144 -0.050030787 0.013899955
000040 6f 4b e6 bd 0b b0 8f bd b9 ea 96 bd 63 c8 ac bd
       -0.112448566 -0.070159994 -0.073689885 -0.08436658
000050 4d 35 27 3d fe ef 2b 3e 8b 36 b8 3c a6 2a 3a bd
       0.040822316 0.16790769 0.022486946 -0.04545083
000060 ea e3 8b 3c 27 44 00 be c7 66 db bd 91 18 7f bd
       0.017076451 -0.12525998 -0.107129626 -0.062279288
000070 b0 53 9a bd 95 67 75 3c 54 55 db 3d d8 66 b6 3d
       -0.075354934 0.014978309 0.107096344 0.08906335
000080 51 ee ab bd 87 73 77 3d 68 51 00 3e c5 8c 3a bd
       -0.083950646 0.06041291 0.12531054 -0.045544405
000090 5d 51 3f bd b7 53 d4 bd ba 81 7d 3c d6 e3 b3 bd
       -0.046708453 -0.1036753 0.015472824 -0.08783691
0000a0 04 5a e3 3c 46 ed 02 be de 14 7f bc 29 0d 1b 3d
       0.027752884 -0.12785825 -0.01556894 0.037854347
0000b0 92 23 12 bd da de 0d 3d 0a 45 f5 3d 8a 02 72 3d
       -0.035678454 0.034636356 0.11976059 0.059084453
0000c0 08 c0 39 bd 71 23 9c bd 1d 8d 83 3d d9 7d 2e 3d
       -0.04534915 -0.076239474 0.064233996 0.042600486
0000d0 ac ab 0b be b5 31 52 bd fb 25 2c bd 8d 06 02 3d
       -0.13639706 -0.051316936 -0.04202841 0.03174453
0000e0 0e 16 c4 bc 55 4f 14 3d 2a c5 82 bd da 72 63 bd
       -0.023936298 0.03620847 -0.06385262 -0.055529453
0000f0 58 09 84 3d 3f 79 a3 bd f6 c6 7a 3d a8 08 d3 bd
       0.06447095 -0.0798211 0.0612249 -0.103043854
000100 12 3a 00 be a5 76 b6 3d 67 c5 61 bc 94 ab be 3d
       -0.12522152 0.089093484 -0.013779975 0.0931007
000110 6d 63 d6 3d d1 59 00 be 49 3a 9d bd fa 1e f7 3c
       0.10468183 -0.12534262 -0.07677133 0.030166138
000120 19 f3 2a bd 10 e9 e7 bd f1 d5 87 bd 4b cf 83 bd
       -0.041735742 -0.1132375 -0.06632603 -0.06436022
000130 b1 ef 04 3c a8 c2 a0 3d c0 ab 51 3d f5 a2 9f 3d
       0.0081137875 0.07849628 0.051189184 0.077947535
000140 d1 0e 9f bd 57 1d 84 3d 62 90 54 bc ae 9e 21 be
       -0.07766498 0.06450909 -0.012973877 -0.15783188
000150 73 29 55 bd 00 5f 89 3d e8 70 97 bc 4a 9a 03 be
       -0.052041482 0.06707573 -0.018486455 -0.12851825
000160 e0 92 20 3d 57 92 e2 bc b4 a9 c1 3d 80 c7 b6 bd
       0.03920257 -0.02765767 0.094561964 -0.0892477
000170 77 cd cb bd 69 2e a7 bb 3d c9 86 bd 10 89 f4 bc
       -0.09951299 -0.005101968 -0.06581352 -0.029850513
000180 f3 83 89 bd b6 9d e0 3d 93 89 ed bb 77 0f 1b be
       -0.067146204 0.10967581 -0.007249066 -0.15142618
000190 1c 6f 7a bd 4d dc 8e ba 31 05 93 3d 89 d7 1c bb
       -0.06114112 -0.0010899395 0.071787246 -0.002393218
0001a0 76 c1 0d be 44 d6 3e bb 8a 27 a8 3d 17 b6 15 bd
       -0.1384333 -0.0029119411 0.082106665 -0.036550608
0001b0 ff 5a 47 3d a6 37 73 3d 2d 1e a0 3d 22 8f b7 3d
       0.048670765 0.059379242 0.078182556 0.08962847
0001c0 96 76 17 be 5b a6 0d be 3a 76 ca 3d fe ed 7a bd
       -0.1479133 -0.13832991 0.09885831 -0.061262123
0001d0 97 2f 8f 3d f5 c2 73 ba 44 08 f1 bd c9 7f c7 3c
       0.06991499 -0.0009298765 -0.11769155 0.024352925
0001e0 c1 72 14 be d1 28 c5 bd eb fe b9 3d 27 42 f6 3d
       -0.144969 -0.09626926 0.09081825 0.12024336
0001f0 36 df 12 3c 5d 0d e7 3c 3c fb cb 3d ff 18 96 3d
       0.00896435 0.028204614 0.099600285 0.073289864
000200 ad 61 ff bd 2e d8 79 3d 9b 97 93 3b 26 d6 6d bc
       -0.12469802 0.06099718 0.0045041568 -0.014516389
000210 ea 0d 7c bd 5a 1c 51 3d 2f 1f 5d bb 38 f8 8f 3c
       -0.061536707 0.05105243 -0.003374051 0.017574415
000220 be 5a a6 bc 60 0b a9 bc c1 9d 5c bd 23 dc 17 be
       -0.020306941 -0.020635307 -0.053861383 -0.14830069
000230 2b ed 10 3d 65 1d 90 bc 6a d0 f3 bb 41 27 ae 3d
       0.03538243 -0.017592141 -0.0074406164 0.08503581
000240 25 43 60 bd ae 56 6b bc 4e 8d cb bd e4 e4 46 bd
       -0.054751534 -0.014363928 -0.09939061 -0.04855813
000250 b4 9d e5 3d 2c 40 fe 3a dc 81 89 3d 4f 42 ae 3d
       0.1121172 0.0019397787 0.06714222 0.08508741
000260 c7 7a 80 3d 38 35 8d 3d 68 95 71 3d 29 b7 8a 3d
       0.06273418 0.06894916 0.058980376 0.06773216
000270 c2 57 e9 bd dd 19 d3 3d eb b2 13 3d 68 1d 90 3c
       -0.113936916 0.103076674 0.0360593 0.017592147
000280 34 f8 e3 bd 13 9e 89 3d 1f f9 71 3d ce c4 9b bd
       -0.11131325 0.067196034 0.05907547 -0.07605897
000290 8a 78 b7 3d 66 56 b4 3d d3 65 a0 3b 69 08 07 bc
       0.08958538 0.08805542 0.004894951 -0.008241751
0002a0 31 98 62 bc cd 42 cf bd ad 12 ed bd d4 f3 26 bd
       -0.013830231 -0.10120163 -0.11575828 -0.040759876
0002b0 40 2d 56 bd 86 d4 e9 3d ec 6c 9d 3d 91 ff 22 bd
       -0.052289248 0.11417489 0.07686791 -0.03979451
0002c0 20 42 15 be 4b 2f 19 3d 4f 93 33 bc a5 8c 6d bd
       -0.14576006 0.037398618 -0.010960414 -0.057995457
0002d0 fe 05 a7 3d 17 94 0c 3d 37 01 70 bd b3 61 8e 3d
       0.0815544 0.034320917 -0.05859491 0.069522284
0002e0 36 24 b4 bd fe ec f6 bd d1 60 45 3d e5 ed d2 3d
       -0.08795969 -0.120569214 0.048188034 0.10299281
0002f0 fc 9c 2f bc 90 f9 26 bd 09 e6 47 bd 5a e7 43 3d
       -0.01071858 -0.040765345 -0.048803363 0.047828056
000300 41 b1 d9 bd 0c c5 b3 bc da 13 2d be cf ce 12 3d
       -0.106295116 -0.021944545 -0.16902104 0.03584176
000310 d3 d3 21 be 90 7b d6 ba 4c 46 af 3d 73 df b9 bd
       -0.15803461 -0.0016363729 0.0855833 -0.09075823
000320 24 29 4e 3c ea d5 a0 3c 20 91 12 bd 43 a8 04 be
       0.012583051 0.019633252 -0.035782933 -0.12954812
000330 63 28 cf bd 45 02 3b be 13 b6 08 3d a5 1f 1d bd
       -0.10115125 -0.18262585 0.033376765 -0.038360257
000340 17 ab c8 bd d9 ec 45 bb 86 d0 07 3d ab 45 fd bc
       -0.09798258 -0.0030200987 0.033157848 -0.03091701
000350 f5 9c d4 3d dc 28 25 3e ea 63 08 3e 30 27 d9 bd
       0.103815 0.16128868 0.13319364 -0.106031775
000360 b5 21 28 bd 7f bf 07 be e8 7a 01 bd 53 02 ad 3c
       -0.04104777 -0.13256644 -0.031611353 0.021119272
000370 29 30 30 bc 9e ff 69 bd 3e 55 23 bd 05 46 14 be
       -0.01075367 -0.05712854 -0.039876215 -0.14479835
000380 3d 1d 13 be 5b 61 95 bd c3 49 53 bd 43 ed d8 bd
       -0.14366622 -0.0729396 -0.051584017 -0.10592129
000390 3e 75 9e 3d a6 4d d8 bb ce 47 4a 3b fc 60 84 bd
       0.07737206 -0.0066010533 0.0030865553 -0.06463811
0003a0 bf f8 85 bd ed ad 53 bd af e9 19 be 5c 35 f7 bd
       -0.06541585 -0.05167954 -0.1503055 -0.12070724
0003b0 44 35 10 bc 6d ea 8a 3d fa 90 a5 bd 21 ec 39 3e
       -0.008801762 0.067829944 -0.08084293 0.18156482
0003c0 62 c8 20 3e 3f b0 51 be ad 5f 9c bd fa c5 f5 bc
       0.1570144 -0.20477389 -0.07635436 -0.03000163
0003d0 ac ed a2 bd c6 35 81 3d 3c 75 ea bd 18 53 42 3d
       -0.079554886 0.063090846 -0.11448142 0.047442526
0003e0 38 b1 29 be 19 31 80 bd 76 56 2b be 90 d8 e0 bd
       -0.1657151 -0.06259365 -0.16732201 -0.10978806
0003f0 b9 fe f4 3c 0c ef 78 3c 68 bf d1 bd 25 7c eb 3c
       0.029906617 0.015193712 -0.10241586 0.02874572

lstm.weight_ih_l1 f4 [256, 64]
000000 ab 1b 83 bd 4a 39 b9 bd 7f ef 1a 3e 68 2f 26 b8
       -0.064017616 -0.0904413 0.15130423 -3.9621635e-05
000010 38 ec be bc b4 94 d5 3d 64 f6 b3 3d 46 c5 81 bd
       -0.023305997 0.104287535 0.0878723 -0.06336455
000020 09 3a 53 3d ce 4d 18 3d 4d 4e 77 3d 25 83 f7 bd
       0.05156902 0.037183575 0.060377408 -0.12085561
000030 de b4 5a 3d 3f 33 9a bc eb 6a e1 3b c1 ad 0d bd
       0.053395145 -0.018823264 0.0068792007 -0.034589533
000040 4a 3e 82 3d 5e ca 86 3c d9 3d 14 bd a6 2b f2 bc
       0.06359537 0.016453918 -0.036191795 -0.029561829
000050 8e c7 02 3e d9 68 c9 bd a4 d8 db 3b 7a ad da bc
       0.12771437 -0.09834451 0.006709175 -0.026694048
000060 8d 0e aa 3d 5e 74 33 3b 58 27 49 3d dc 45 00 3d
       0.083035566 0.0027382593 0.049109787 0.031316623
000070 2e 48 26 3d c9 eb 9a bd 0b 9d b1 bc 00 51 b9 bd
       0.04059618 -0.07564504 -0.02168133 -0.09048653
000080 04 a6 a7 bd 0f dd 9a bd e8 06 7d 3c 48 be 8e 3b
       -0.08185962 -0.07561695 0.015443541 0.0043561794
000090 6f e0 c0 3d d2 0b ba 3c ef f3 42 bd c3 7b 01 be
       0.09417807 0.022710714 -0.047595914 -0.12644868
0000a0 05 cc 7c bd 6d ac 38 3d d4 a8 a9 bb 63 25 e9 bc
       -0.061718006 0.045086313 -0.0051775966 -0.02846021
0000b0 7d 6d 7a bd c7 c5 f4 3d 6d 47 df 3d 90 8c 81 3c
       -0.061139572 0.119517855 0.10902295 0.015814096
0000c0 a6 02 02 3e cb ce f2 bb 01 f9 2d bd c1 00 39 3d
       0.12696323 -0.0074099055 -0.042473797 0.045166735
0000d0 10 d8 91 bd 7a 16 ec 3d 29 3b cb bd b3 67 15 bd
       -0.07121289 0.115277246 -0.09923393 -0.03647585
0000e0 0c 7a 03 bd c0 fb 13 be de d2 b1 bd 96 71 ff 3d
       -0.032098815 -0.14451504 -0.08682798 0.12472837
0000f0 51 6e 7f bd 36 64 a2 3c 3a e3 95 3d 01 10 6a 3d
       -0.062361065 0.019823175 0.07318731 0.05714417
000100 c1 69 e7 bd ed fd 71 3d af 9d 54 3e 17 9a 19 be
       -0.11299468 0.059080053 0.20763277 -0.15000187
000110 14 12 45 be e8 1b 08 3e a3 be 7e 3e 5f cf 02 3e
       -0.19245178 0.13291895 0.2487741 0.12774418
000120 c9 c2 84 be 7c f5 52 be c9 a2 0a 3e 92 26 81 be
       -0.2592986 -0.20601457 0.1353866 -0.2522474
000130 af 6d 32 3e a8 9b e8 bd 0b 0a 7a be a2 4c cf 3d
       0.17424653 -0.11357814 -0.24417894 0.101220384
000140 64 8d 34 3e 64 03 95 be c8 7e 9c 3c ac 10 70 3e
       0.17632061 -0.2910415 0.019103423 0.2344386
000150 77 b7 40 3e f1 07 42 be c6 d3 09 3e db 23 73 3d
       0.18819986 -0.18948342 0.13459691 0.059360366
000160 8d e8 b2 3d 8c f3 0a bd 2a ea 57 3d af 63 ec 3c
       0.08735762 -0.03392367 0.05271355 0.028856127
000170 28 68 82 bd ff 96 e8 3d ad 8c 24 3e b2 0c 26 3d
       -0.063675225 0.11356925 0.16069289 0.04053945
000180 84 35 a6 bd 51 4d 48 3e 44 ae f0 bd 86 d5 0e be
       -0.08115676 0.19560744 -0.117519885 -0.1394864
000190 6b 0c c4 3c 90 c5 6e be 07 b5 64 3e 6a c3 58 3d
       0.023931703 -0.23317552 0.22334681 0.052920736
0001a0 43 26 f6 bd f1 6c 27 be 62 b7 b2 bd 24 58 3b bd
       -0.120190166 -0.16350152 -0.08726384 -0.045738354
0001b0 68 35 b6 bd 3a 3f f3 3d ba b8 19 3e 82 83 4d 3e
       -0.08896905 0.11877294 0.15011874 0.20069697
0001c0 bb 8c 91 3e a4 ff 1d be 89 0c 1b be fc a0 3a be
       0.2842768 -0.1542955 -0.151415 -0.18225473
0001d0 ed 2d fb 3d 7d b6 3a bc f6 ba 99 3c 3f 33 44 3e
       0.12264619 -0.011396048 0.018765908 0.19160174
0001e0 fa f8 3a be cd e3 35 be 5d 66 c3 bd 68 4e 83 3d
       -0.1825904 -0.1776268 -0.095410086 0.06411439
0001f0 e2 43 b8 3d 8d 7c 91 be 3f 39 80 3e bb 94 23 3e
       0.089973226 -0.28415337 0.25043675 0.15974705
000200 68 63 6e bd e2 98 22 3d 60 ea 34 bd 42 8c f3 bd
       -0.05820027 0.03969658 -0.04416883 -0.118919864
000210 9d 27 e8 bd 0c 07 5d 3e ff 5c c6 3d d6 23 aa bc
       -0.11335681 0.2158472 0.09685706 -0.020769041
000220 af f1 ae bd ba d6 8e bd 4b 7b af 3d 2c ee b0 bd
       -0.08542191 -0.069745496 0.08568438 -0.08639178
000230 01 6f 09 3e b1 9b d9 bd e0 41 c5 bd e8 48 2f bd
       0.13421251 -0.10625399 -0.09631705 -0.04279414
000240 d4 fc d4 bc e7 69 32 be 3a 0c ca 3c 71 35 1e 39
       -0.025999464 -0.17423211 0.024664033 0.00015087963
000250 2a d6 93 3d b1 3a 4e 3d 43 a9 25 3e 6e 17 9b 3d
       0.07218583 0.05034894 0.1617785 0.07572828
000260 04 25 cf 3d cc 7b 06 3e 03 f3 8f 3d cc 11 9c 3d
       0.10114482 0.13133162 0.07028773 0.07620582
000270 7d 99 89 bd ce 61 16 bd dd d1 14 3e 7f 80 32 bd
       -0.06718729 -0.036714368 0.14533181 -0.043579575
000280 fe a0 09 be 37 d3 68 bd 6e 8c b5 bd 18 54 9f 3d
       -0.1344032 -0.056842055 -0.088646755 0.077797115
000290 55 77 c6 3c 08 a4 1b 3c ed 38 68 3d a8 e4 6e 3d
       0.024226824 0.009499557 0.056694914 0.058323532
0002a0 1a 0b 06 bd 78 32 5b bd 3e f3 dc bd 05 82 65 bd
       -0.03272543 -0.053514928 -0.10788582 -0.0560322
0002b0 96 5d ca bc 36 a8 0d bd dd b5 30 bd 87 93 a3 bb
       -0.024702828 -0.034584247 -0.04314219 -0.004991952
0002c0 61 aa 66 3e d4 f7 82 3c 08 9e 22 bc b4 2a 29 3d
       0.22525932 0.015987314 -0.009925373 0.04130049
0002d0 68 70 40 3d 36 14 2f bd 50 66 95 3d 0f 8f 93 3d
       0.0469822 -0.042743884 0.07294905 0.07205021
0002e0 4d 4d a5 bd db 36 b8 bc 38 74 df bd b2 62 58 3d
       -0.080713846 -0.022487095 -0.10910839 0.0528285
0002f0 e2 7a f1 3d 96 b6 87 bd 34 97 20 ba e2 5e d4 3d
       0.11791016 -0.066266224 -0.00061260466 0.1036966
000300 e2 09 0e bd 4a 10 46 3c 50 eb 47 3e 74 5d bc bc
       -0.034677394 0.012088845 0.19523358 -0.02299378
000310 68 e7 c4 b9 b9 19 37 3e 58 ea 78 3d 37 23 af bc
       -0.00037556444 0.17880906 0.060770363 -0.021379096
000320 0d 1a 14 bd 00 15 ed bd f0 6e 51 3e f8 dd 88 bd
       -0.036157656 -0.11576271 0.20452476 -0.06682962
000330 aa 6a de bc c1 25 2c bc a1 3a 9d bd ae 58 2b 3b
       -0.02715047 -0.010507048 -0.07677198 0.0026145387
000340 79 68 ca 3d b2 64 8d be bd 7b 09 3e c8 2c 50 3e
       0.09883208 -0.27615887 0.13426109 0.20329583
000350 90 6f 1d 3e 4f 21 97 bc 97 1a 06 3c 6a a1 cc 3d
       0.15374589 -0.0184485 0.00818505 0.09991725
000360 78 5f af 3d ba c2 26 3e f7 24 3e 3e 1a 72 84 3d
       0.08563131 0.1628522 0.18568788 0.06467076
000370 d6 83 58 be 65 c9 e3 3d 43 a3 2c 3e 29 33 7a 3d
       -0.21144041 0.11122397 0.16859154 0.061083946
000380 d8 a3 94 bd 58 aa f5 3a 84 ed 34 be 4f 0f 35 be
       -0.07257813 0.0018742783 -0.1766873 -0.17681621
000390 2a 5f 15 be 86 de 28 be de 81 94 3d 02 2c a0 bb
       -0.14587083 -0.16491136 0.07251333 -0.0048880586
0003a0 2c c8 04 bc 62 8e 99 bd 8d 16 59 bd 19 9f 4c be
       -0.008104365 -0.074978605 -0.05300002 -0.19982566
0003b0 84 ee 1d be 28 39 b0 bc 77 86 56 3e b3 18 c4 3d
       -0.15423018 -0.02151163 0.20949732 0.095750235
0003c0 72 ca dc 3d ff 6a 5b be 48 59 d2 bd 14 17 81 be
       0.10780801 -0.21427535 -0.10270935 -0.2521292
0003d0 d3 d9 17 3e 55 01 8b bd 41 b9 5d bd 03 71 43 3e
       0.14829187 -0.067873634 -0.05413175 0.1908608
0003e0 c8 29 22 be f0 8a ea bc 74 63 14 3d 18 54 41 3e
       -0.15836251 -0.028630704 0.03622766 0.18879735
0003f0 5e 2a 54 3e f9 48 35 be c9 b0 d8 3d 49 81 5c 3e
       0.20719287 -0.17703618 0.10580594 0.21533693

lstm.weight_hh_l1 f4 [256, 64]
000000 ea 04 2a be c9 05 3b 3d 8b 88 0a be 50 76 6d bd
       -0.16603437 0.045659814 -0.1352865 -0.05797416
000010 1a 25 5c 3d c0 c2 58 bd c3 f7 81 bd 27 6a a6 3a
       0.05374632 -0.052920103 -0.06346085 0.0012696431
000020 0f 65 9b bb 2a 2c 31 be 12 2d 01 be dd 1b 1d 3e
       -0.0047422717 -0.17302004 -0.12614849 0.1534266
000030 d2 6f 09 bd 73 b1 87 3d 32 61 1f 3e 09 dc 3f 3d
       -0.033553906 0.06625643 0.15564421 0.0468407
000040 a6 95 f6 3d 0f e4 0b bd 60 a5 50 bd 67 94 e5 3c
       0.12040262 -0.03415304 -0.050938964 0.028024865
000050 b5 2d 90 3b 63 ac 3d bc ef 35 3a bd 7f a6 df bd
       0.00439998 -0.011576745 -0.04546159 -0.109204285
000060 fd 51 19 3e 7d e3 16 3e 33 e2 82 bd 3d 2f d2 3d
       0.14972682 0.14735217 -0.063908 0.10262916
000070 e7 c1 02 bd b1 fa a9 bd c3 cd 3b 3d 18 48 35 bd
       -0.0319232 -0.08299769 0.045850527 -0.044258207
000080 79 00 85 bd da 6d b4 bd 84 db 42 3d 40 ed fb bd
       -0.06494231 -0.08810015 0.047572628 -0.12301111
000090 f5 42 24 be 41 0a 84 bd 72 72 60 3d 48 dd 28 3e
       -0.16041167 -0.06447268 0.054796644 0.16490662
0000a0 1c 59 4b 3c b9 1f b3 bd 59 94 05 3e 4b df 09 bd
       0.012411382 -0.08746285 0.13044871 -0.033660214
0000b0 d0 2c 21 bd 30 91 bb bd cf ff 34 be 36 4b b2 bd
       -0.039349377 -0.09158552 -0.17675708 -0.087057516
0000c0 29 37 df 3d 70 81 26 3e b6 4d b0 bd e1 e1 d4 3d
       0.10899193 0.16260314 -0.08608572 0.103946455
0000d0 29 7c b9 3d 90 39 c7 bc 41 c7 90 3c bc 53 de bd
       0.09056885 -0.02431944 0.017673137 -0.10855815
0000e0 8e b3 06 bd bc 5b 40 3d b3 56 7e 3d ce 66 c8 3d
       -0.03288608 0.046962485 0.0620944 0.097852334
0000f0 6d 7a 8e bd bf dd 8b 3a 83 bd c6 3d 1a 0c 2d be
       -0.069569446 0.0010670944 0.09704115 -0.16899148
000100 19 4f e0 bd ee 8b 10 3d 86 01 76 3d 0d f2 c2 ba
       -0.10952587 0.035289697 0.060060047 -0.0014873162
000110 f9 b7 27 bd 0a ce a3 3d 40 f7 92 3d 35 93 f2 bd
       -0.040946934 0.07998283 0.071760654 -0.11844484
000120 43 d7 cd bc a4 63 08 be 3e 59 04 bd 5a 8b f5 3d
       -0.025127059 -0.1331926 -0.03231167 0.1198947
000130 14 1e d8 bd d1 77 da bd 75 1b 57 3b 41 af 60 3d
       -0.10552612 -0.106673844 0.0032822762 0.054854635
000140 79 2c 18 3e 84 2b 95 3d f0 bc a6 3d f6 d8 b5 3d
       0.14860715 0.072836906 0.08141506 0.08879273
000150 e8 9d 36 3d 0e 55 81 bd 14 5a 5f bd 9a 77 6a 3d
       0.044584185 -0.06315051 -0.054529265 0.057242967
000160 02 62 4f bc a5 93 c1 bd f9 e5 2b 3c 01 21 c8 bd
       -0.012657644 -0.09451989 0.0104918415 -0.0977192
000170 78 54 48 3d 63 7a c5 3d fe fa ec 3d 45 90 b6 3c
       0.04890868 0.09642484 0.115713105 0.02228559
000180 a6 fc 85 bc 6c 31 e6 3b c9 4b 84 bd 83 6a b2 bd
       -0.016355824 0.0070249345 -0.06459767 -0.08711722
000190 12 ca bd 3d d5 d9 f1 bd bf 00 85 bb f1 37 0e bd
       0.092670575 -0.11809126 -0.004058927 -0.03472132
0001a0 41 3e 15 3d e0 fc 53 bd 11 58 b5 3d 45 61 a8 bd
       0.036436323 -0.051754832 0.08854688 -0.08221678
0001b0 00 6c 2f bd 24 70 9a 3d 17 82 60 bc 45 de df 3d
       -0.042827606 0.075409204 -0.013702891 0.109310664
0001c0 19 64 6d bd e6 df d9 3d 60 b4 b3 bc fc 64 f8 3d
       -0.05795679 0.10638408 -0.021936595 0.12128636
0001d0 3e 96 ad ba ba 98 65 3c 2f ab 6f 3c 76 04 84 bd
       -0.0013243628 0.014013464 0.014628216 -0.06446163
0001e0 7d 81 10 3d 59 1e cd bd b4 7d 51 3d 57 0a 06 3e
       0.03527974 -0.10015554 0.05114527 0.13089882
0001f0 87 95 65 bd a3 14 1c ba da 1e 86 3d 30 2c a6 bc
       -0.056050804 -0.0005954003 0.06548853 -0.020284742
000200 b5 9d 53 bd 7f 6e 94 bd 1a bd 61 3d 87 53 36 ba
       -0.051664073 -0.07247638 0.055111982 -0.00069551956
000210 b4 e7 11 3e 70 ed ea 3d cd 62 5a 3d af 05 2a 3d
       0.14248544 0.11471069 0.05331688 0.041509327
000220 7a 69 82 bc a1 aa e1 bd f0 c1 9d 3d 4a 03 36 bd
       -0.015919436 -0.11018873 0.07703006 -0.04443673
000230 fc 07 1f 3d ed ab be bd 0f ac 9c bd 1f 28 34 3d
       0.038825974 -0.09310136 -0.07650005 0.043983575
000240 3a 0c 9a bc 66 15 4a bd cf cd 33 bd e7 5c 99 3d
       -0.018804658 -0.049336813 -0.043897446 0.07488423
000250 02 66 44 bd 71 e6 03 3d 66 40 58 bd 15 3d ae bd
       -0.047948845 0.032202188 -0.05279579 -0.08507744
000260 eb ce f1 3d 2e 27 f8 3d d1 78 74 3c 08 e1 a7 bd
       0.118070446 0.12116848 0.014921383 -0.08197218
000270 dd fc 1b 3e 7b c2 02 be a4 3d d0 bc fa 49 06 3e
       0.15233178 -0.12769501 -0.025420018 0.13114157
000280 fb df f0 bb 51 21 31 bd de 89 e6 3c a5 ad 1b 3c
       -0.0073509193 -0.043244664 0.028141912 0.009501849
000290 16 45 9b 3d 32 2a 73 3d 14 c5 8e bc 95 7f 14 3e
       0.075815365 0.059366412 -0.017427959 0.14501794
0002a0 83 ad 18 be 5e 24 4c bd b5 94 29 bd 55 b4 03 bd
       -0.1490994 -0.04983937 -0.041401584 -0.0321544
0002b0 6e c7 1f 3e 3d b8 82 bc 90 04 63 bd be 90 f4 bc
       0.1560342 -0.015956992 -0.055424273 -0.029854175
0002c0 d7 15 ce bb 85 38 48 bb c8 55 ad 3d 07 b1 0f bd
       -0.0062892246 -0.0030551266 0.08463627 -0.035080936
0002d0 be c6 a9 3d 92 51 39 3d 27 63 1d 3e 41 5b 94 bd
       0.0828986 0.045243807 0.15369855 -0.07243968
0002e0 47 07 6d 3b b8 2f ec bd 1a e1 73 bd a3 39 26 bd
       0.0036167668 -0.11532539 -0.059540845 -0.04058231
0002f0 0f 4a e7 bd 72 60 e7 3c 8e 15 7a 3d a1 cd 7d 3c
       -0.112934224 0.02824423 0.061055712 0.01549092
000300 da e3 82 b9 44 15 d5 bd 93 7b 1d be 06 6d b7 bd
       -0.00024965295 -0.10404447 -0.15379171 -0.089563414
000310 32 8c ba 3c fe 5c 34 3d 95 80 90 3d 50 3f 0c 3e
       0.022771928 0.044033997 0.07055775 0.13696027
000320 f7 de 1e 3e 7a 61 9f 3d 86 be 95 3d 4d 84 03 3d
       0.15514742 0.07782264 0.0731173 0.032108594
000330 4d 36 9f 3d a6 ca 71 3a 21 96 8f bd 61 db 94 3d
       0.07774029 0.00092236174 -0.07011057 0.07268406
000340 13 e9 24 3e 94 f1 da bc 9b 95 fa 3d f0 0f d2 bd
       0.16104536 -0.026726522 0.12235566 -0.10256946
000350 1a c6 00 be 71 38 f4 3d 9a 93 9a bd 7a 4d ac 3b
       -0.1257557 0.11924828 -0.07547684 0.0052582594
000360 a8 3e b0 3d 8a 4b e9 3d 62 15 2e bd 74 b4 b9 bd
       0.08605701 0.11391361 -0.04250086 -0.09067622
000370 35 4f 19 3e 2e 8c 4e bd 97 30 be 3d b8 5c 05 3d
       0.14971621 -0.050426655 0.092866115 0.032559127
000380 5d d0 e3 bd 33 cd 18 be dc 22 96 3d 56 7c 19 be
       -0.111237265 -0.14922027 0.07330868 -0.14988837
000390 34 d7 f7 bd 24 46 a1 3d 05 e3 97 bc 2e f6 cc 3c
       -0.121015936 0.078747064 -0.018540869 0.025019731
0003a0 97 89 e1 bd 5d da be bd e1 63 1c 3c 6c 07 77 3d
       -0.11012571 -0.09318993 0.009545297 0.060309812
0003b0 fa 73 9b 3d f3 69 96 3c 89 9c 84 3d f0 fb 9e bb
       0.0759048 0.018361067 0.06475169 -0.0048518106
0003c0 bc d8 1e 3c a5 65 44 bd 66 1c 88 bd 3e 5f b4 3d
       0.009695228 -0.0479485 -0.066460416 0.088072285
0003d0 8a e1 91 3d b6 a9 07 3e 4c 63 10 3e a0 05 1c 3d
       0.07123096 0.13248333 0.14100379 0.038091302
0003e0 e7 55 aa bd 97 75 b7 bd a4 52 03 3d 9d bd 08 3e
       -0.08317166 -0.08957975 0.032061234 0.13353582
0003f0 e0 6e 2d bd 2e e6 2a bd 92 de 9f 3d 96 c3 00 bd
       -0.042342067 -0.041723423 0.07806124 -0.031436525

lstm.bias_ih_l1 f4 [256]
000000 0a 38 e3 3d 85 79 b4 bd b5 bf 3f 3d 1a 4f 8a 3d
       0.11094673 -0.088122405 0.046813685 0.06753369
000010 38 b8 e9 bc d3 6a bd 3d cb 54 09 3b 82 57 b9 bd
       -0.028530225 0.09248891 0.0020955082 -0.09049894
000020 09 6a 61 bd e5 ce 72 3d c2 61 a9 bd cd 86 1b 3e
       -0.055032764 0.05927934 -0.08270599 0.15188141
000030 d0 fa c7 3d 84 13 c3 3d 35 30 eb 3c 4b 89 e3 3d
       0.097646356 0.09525207 0.02870951 0.11110171
000040 a0 96 73 bd cc 6e af 3d 12 4f c8 3d 3b 51 ae 3d
       -0.05946982 0.08566055 0.097807065 0.08511587
000050 25 53 ef 3b 36 02 98 bc 01 d7 30 bd de ac 21 3e
       0.007303613 -0.018555742 -0.043173794 0.157886
000060 c0 c2 5b 3d 4e 0a e5 bc 4c ce 3b bb 37 5a 57 3d
       0.053652525 -0.027959015 -0.0028656898 0.05257627
000070 55 99 9f 3d 84 b7 33 3e d2 be e2 3d e7 f0 25 3e
       0.07792918 0.17550474 0.11071552 0.16205178
000080 72 0c 51 3c f0 39 d1 3d 34 3a 23 3e e6 99 0e 3e
       0.012759315 0.10216129 0.15940171 0.13925895
000090 a2 72 91 3d 58 c3 20 3e 1d 19 23 bc 53 50 b2 bd
       0.071019426 0.15699518 -0.009954718 -0.08706727
0000a0 09 de 71 3d d2 f3 c3 3d 42 15 04 3e 18 8f 20 be
       0.05904964 0.095679894 0.12898734 -0.15679586
0000b0 ef 43 29 3e 0c e9 93 bd 3a 36 31 3e 9b f8 08 bd
       0.16529821 -0.072221845 0.17305842 -0.033440214
0000c0 22 80 37 3e bd 8e d7 3d 78 54 2b 3e a5 e4 7e 3d
       0.17919973 0.10525272 0.16731441 0.06222977
0000d0 eb 45 5e bd 92 65 8b bd 13 5c 24 bd 5d 19 d1 bc
       -0.054265898 -0.068064824 -0.04012687 -0.02552479
0000e0 a6 41 35 3b 7b cf c7 3d 18 6c 56 bd 63 94 3e bd
       0.0027657538 0.09756371 -0.05234918 -0.04652823
0000f0 9c 04 aa 3c 5d 37 8d 3c b3 6d 27 3d 91 ec 53 bd
       0.020754151 0.017238313 0.0408761 -0.05173928
000100 11 95 77 bd 24 43 a9 bd 4a 8c 9c bc da 0f 3b bb
       -0.060444895 -0.08264759 -0.019109864 -0.0028543384
000110 b1 b7 a5 bd 0d 62 4a bd b9 30 84 3c 78 15 12 3e
       -0.08091677 -0.049409915 0.016136514 0.14266002
000120 a4 7c 09 3e 70 05 0f 3d 23 62 8f bd e4 ea 4d 3d
       0.13426453 0.034917295 -0.0700114 0.050272837
000130 35 6a 96 bd c7 2c 11 be 82 b4 9f 3d 0a d9 53 3d
       -0.07344476 -0.14177237 0.07798101 0.051720656
000140 84 3f 96 bc 10 a8 09 3d a8 bc 0a 3d e8 d4 30 3d
       -0.018340833 0.033607543 0.033871323 0.043171793
000150 fd a9 d3 3d 39 58 13 3d 73 10 a7 bd c7 5a 3b 3d
       0.10335157 0.035972808 -0.08157434 0.04574087
000160 99 5c d0 bd c9 49 65 bd 76 df b8 bd 36 24 94 bd
       -0.101739116 -0.05597857 -0.09026997 -0.07233469
000170 39 1d 74 bd 63 c1 82 3d c9 ae a3 3c 9d e8 8f 3d
       -0.05959818 0.06384542 0.019980805 0.07026789
000180 34 9c 1e 3e d2 46 a3 3d 37 a5 43 3d 35 40 95 3d
       0.15489274 0.07972492 0.047764983 0.07287637
000190 1a 13 31 bb 10 4a 82 3d 0e 7b d5 3d d5 c5 00 3e
       -0.0027019442 0.063617826 0.104238614 0.12575467
0001a0 a0 7b f5 3d 41 78 d1 bd 2e 5d 67 3d 1a 46 24 3d
       0.1198647 -0.10228015 0.056485347 0.040105917
0001b0 6d 8c 80 3d 74 e5 b2 bd 12 5d 1d 3e a8 3a a2 bd
       0.06276784 -0.08735171 0.15367535 -0.07921344
0001c0 cf 35 2c bd ab 9d 57 bd 39 d7 a7 3d 1c ed 10 3e
       -0.042043503 -0.0526406 0.08195347 0.1415295
0001d0 7e 40 0c 3d 9e da 93 3d e6 cf b2 3d fd 83 cf bd
       0.034241192 0.07219432 0.0873106 -0.10132597
0001e0 f1 9d 2a bd 06 53 3f 3c 63 bd 4b 3d 43 71 33 bb
       -0.04165453 0.011677509 0.04974116 -0.0027380742
0001f0 af ca e9 3d 66 a8 26 bd 77 3a 92 bb 92 e9 55 3d
       0.11415612 -0.04068794 -0.004462536 0.052224703
000200 d9 3f 9d bd e6 5c 8b bd 2c 81 f5 bd e8 9f e4 3d
       -0.076781936 -0.06804828 -0.11987528 0.11163312
000210 c2 fd e2 3d eb 71 9b 3d c5 88 5b bd 04 82 29 3e
       0.11083557 0.075900875 -0.05359723 0.16553503
000220 47 87 a7 3d 2b b2 db bd 41 12 03 be d8 37 f4 3d
       0.08180099 -0.10727342 -0.12799932 0.11924714
000230 4a 7f 66 bc cb a8 6a 3d 32 9d 0f 3d 98 d5 c5 3d
       -0.014068434 0.05728988 0.035062023 0.096598804
000240 1c 15 fb 3d ae 7a 15 3e ed 7f 76 3d 6b c4 fb bd
       0.12259886 0.1459758 0.060180593 -0.12293323
000250 86 2d 33 bd 81 c3 ad bd d7 75 81 3d 98 ce 82 bd
       -0.043744586 -0.08484555 0.06321304 -0.06387061
000260 37 e5 ca 3c 71 b0 1e 3e 5e d7 10 bd f6 80 22 3e
       0.024767501 0.15496995 -0.03536164 0.15869507
000270 ae b7 d4 3d c7 d4 11 be 1d 4d 15 3e 6f 79 ad 3c
       0.103865966 -0.14241324 0.14580198 0.021176068
000280 f7 c6 24 be e3 e1 cf bd 90 1f 7e bd ab 93 1c be
       -0.16091524 -0.10150506 -0.06204182 -0.15290706
000290 08 af 42 bd ec 6d 69 3c 9e 73 29 be e3 ff e1 3d
       -0.047530204 0.014247399 -0.1654801 0.11035135
0002a0 71 f5 b6 bc 41 30 13 3e 1f 46 32 3e 8a a1 3f bc
       -0.022333832 0.14373876 0.17409562 -0.011696229
0002b0 67 63 7b 3c 99 f8 3e be 6b 84 fc bd 4a 16 ff bc
       0.015343524 -0.1864952 -0.12329944 -0.031138558
0002c0 b3 db 19 3e 5d a6 21 3e cc 42 1e 3d 3f 37 5b 3d
       0.15025215 0.15786119 0.03863792 0.053519484
0002d0 36 d5 b6 3d 97 32 f8 3d 17 f0 19 3e f5 41 03 3d
       0.089273855 0.12119024 0.15032993 0.032045323
0002e0 4c 69 f4 bb be 0f f7 bd b3 c2 a3 bd de 72 7e 3d
       -0.0074588414 -0.120635495 -0.0799612 0.062121265
0002f0 72 62 2a be d7 70 21 3e 8b be 16 3e dc 54 54 3d
       -0.16639116 0.15765701 0.14721124 0.05183874
000300 2f a0 1e 3d c9 83 bc 3d 9a ec 0a bc 28 96 e8 bc
       0.03872698 0.092048235 -0.008479262 -0.028391913
000310 44 a1 6d 3c 78 be 5b 3d 7f a0 32 3c 57 f6 c4 bc
       0.014503781 0.053648442 0.010902523 -0.024043245
000320 07 02 2d bc db 76 99 bd fe b9 1e 3c 94 e5 6f 3d
       -0.010559565 -0.07493373 0.009687899 0.058568552
000330 c3 af 51 bd 36 16 3f be ec fc 2d bc 43 53 67 bd
       -0.05119301 -0.18660817 -0.010619383 -0.05647589
000340 ae 97 c3 3d 93 5d c4 3d d7 1a c9 bd df c3 54 3d
       0.09550415 0.0958816 -0.098195724 0.05194461
000350 55 ab 08 3d 9b 92 f3 bd c8 3d 51 bd 10 c8 8f 3c
       0.03336652 -0.11893197 -0.05108431 0.017551452
000360 9e ff a0 3d b1 43 5c bd b4 97 c7 3c 6a db 4d 3d
       0.07861255 -0.053775493 0.02436433 0.050258078
000370 c9 9d bd bd 7e d0 3a bd 0e 88 ad 3b ed 9a 43 3d
       -0.09258611 -0.04560899 0.00529576 0.04775517
000380 e2 39 06 3d 2e bc f1 bc 2a 94 eb bc 57 be 66 3d
       0.032770045 -0.029508676 -0.028757174 0.056333866
000390 75 aa 9c 3d 22 39 65 bd 03 4b de 3d 6e cb 16 bd
       0.076496996 -0.05596269 0.10854151 -0.0368151
0003a0 3b 25 e2 bd b6 92 07 bd a2 3f c4 bb 42 1f c3 bd
       -0.110422574 -0.0330989 -0.005989031 -0.09527446
0003b0 c2 2f 98 3c d1 27 1c bd a0 6a 79 bd 9f 24 72 3d
       0.01857746 -0.03812391 -0.0608927 0.059116956
0003c0 35 54 b8 3d 29 12 7b bd 15 b8 23 3d 2f 51 32 3d
       0.09000436 -0.061296616 0.039970476 0.043534454
0003d0 26 cd 11 bc c6 d4 86 bc 40 45 65 bd 27 69 13 bc
       -0.008899009 -0.01645888 -0.055974245 -0.008997238
0003e0 c3 1d e9 bd 03 3a 06 3e 91 0e fd 3d 8e d6 72 3d
       -0.1138263 0.13108067 0.12356294 0.059286647
0003f0 3e be 61 bd 07 fc 17 bd 36 1a 37 3d 66 94 77 3d
       -0.05511307 -0.037105586 0.04470273 0.06044426
