fault_model_nn_two_year_global/best_Y2019.pt (torch, 235573 bytes, 14 tensors)

lstm.weight_ih_l0 f4 [256, 3]
0	0x3e0d6edf	0.13811825
1	0x3d7b3f13	0.06133945
2	0x3c1bb01e	0.009502439
3	0x3dfbf77b	0.123030625
4	0x3c7e42fd	0.015518901
5	0xbc903c38	-0.01760684
6	0xbc9b23e5	-0.018938014
7	0x3d02318d	0.031785537
8	0x3e1a7a75	0.15085776
9	0xbd4c5738	-0.049887866
10	0x3d8acf60	0.06777835
11	0x3d6e34c0	0.058155775
12	0x3e09dfb4	0.13464242
13	0xbccb9f51	-0.024856241
14	0x3c9df05d	0.019279653
15	0x3b504a4f	0.0031782573
16	0x3d9af7e5	0.075668134
17	0x3d09eec8	0.033674985
18	0xbcbf4dc5	-0.023352513
19	0x3b8bf211	0.0042708
20	0xbdbfd847	-0.093674235
21	0x3ce528f9	0.027973639
22	0xbdbe6be7	-0.092979245
23	0x3d273e98	0.04083118
24	0xbdb0c36e	-0.08631025
25	0xbd9baf07	-0.07601743
26	0xbc47af26	-0.012187755
27	0xbd0c44a8	-0.034245163
28	0xbcf1d12c	-0.029518686
29	0xbe23a23d	-0.15979858
30	0x3e194c2d	0.14970465
31	0xbe0fc05f	-0.14038227
32	0x3df52df6	0.11971657
33	0x3d611a6c	0.05495684
34	0xbc0c0d45	-0.008548086
35	0x3dad15de	0.084514365
36	0x3d63cbc6	0.055614255
37	0x3d88fbb0	0.066886306
38	0xbca05ac6	-0.019574534
39	0x3b2a68c3	0.0026002384
40	0xbc04cf70	-0.008106098
41	0xbd73d034	-0.05952473
42	0x3db50b9b	0.08840104
43	0x3dcbc479	0.099495836
44	0x3dde1242	0.10843326
45	0xbc99e0e7	-0.018784
46	0x3d08f28a	0.03343443
47	0x3c835854	0.01603333
48	0x3dd306e0	0.10304046
49	0xbde061eb	-0.10956176
50	0xbe2371ba	-0.15961352
51	0xbc82a16e	-0.015946116
52	0xbd899149	-0.06717164
53	0x3d879352	0.06619896
54	0x3d4e0340	0.05029607
55	0x3d0b3604	0.03398706
56	0x3cdc7f0e	0.026916053
57	0x3cd00f5d	0.02539795
58	0x3d93a3d7	0.07208984
59	0xbd70cc7f	-0.058788773
60	0x3cf49d03	0.029860025
61	0xbde248ed	-0.11049066
62	0x3cc66dc1	0.024222257
63	0xbd0a9828	-0.033836514
64	0xbc2e21aa	-0.010628143
65	0x3ccc7aea	0.024960954
66	0x3e16b6ff	0.14718245
67	0xbdec8675	-0.11549083
68	0xbd12c556	-0.035832725
69	0xbd0551f9	-0.03254888
70	0x3d8f3190	0.06991875
71	0x3db5ddfd	0.088802315
72	0x3e1126b1	0.14174916
73	0xbdec14a5	-0.11527375
74	0xbdb1c7fb	-0.08680721
75	0xbd54c3d3	-0.051944565
76	0xbe0386eb	-0.12844436
77	0x3d9cf23f	0.07663392
78	0x3db356bc	0.08756778
79	0x3d79fad8	0.06103024
80	0xbcaaf6b1	-0.020869585
81	0xbd421001	-0.047378544
82	0x3cf7e83b	0.030262103
83	0xbd710bac	-0.05884902
84	0x3df271f6	0.118381426
85	0xbd91ad8b	-0.07113179
86	0x3d10e08c	0.035370395
87	0xbd9130ed	-0.0708941
88	0xbdbdd971	-0.09269989
89	0x3d942398	0.072333515
90	0x3d8e6fc3	0.069549106
91	0xbd987151	-0.074434884
92	0x3dd12aa8	0.10213214
93	0x3dfb291e	0.12263702
94	0xbe0973da	-0.134231
95	0xbd02487d	-0.03180741
96	0x3e0ff0af	0.14056657
97	0xbceba43f	-0.028764842
98	0xbc81deee	-0.015853371
99	0xbda80438	-0.0820393
100	0xbdde6bae	-0.10860382
101	0x3c8793ff	0.016550062
102	0x3cc48059	0.023986982
103	0xbe05a7f1	-0.13052346
104	0xbcea7b54	-0.02862326
105	0xbd372a6c	-0.04471819
106	0xbe17baa8	-0.14817297
107	0xbddfcfbf	-0.10928296
108	0xbe11dd2a	-0.14244524
109	0xbd1ff98c	-0.039056346
110	0x3e1a856c	0.15089959
111	0x3d6226f9	0.05521295
112	0x3bb7e19e	0.0056116125
113	0xbe1a0c88	-0.15043843
114	0xbd6a855e	-0.057256095
115	0xbda8a90f	-0.0823537
116	0xbb26e0a5	-0.0025463488
117	0xbda24600	-0.07923508
118	0xbdac65e4	-0.084178716
119	0xbdd98a82	-0.106221214
120	0x3cc02406	0.023454677
121	0xbd98a585	-0.07453445
122	0xbcee05a6	-0.029055428
123	0xbd32e5dc	-0.043676242
124	0xbdf51487	-0.11966806
125	0xbd146af0	-0.036234796
126	0xbb9c192f	-0.0047637443
127	0xbe088879	-0.1333331
128	0x3df9b1f0	0.12192142
129	0x3c662d14	0.014048833
130	0x3db8e858	0.09028691
131	0x3da48906	0.08033948
132	0xbd898be4	-0.06716135
133	0x3db5cbe7	0.08876782
134	0xbd85b342	-0.06528331
135	0xbbd119ce	-0.00638125
136	0xbe1765fb	-0.14784996
137	0xbda4cddc	-0.08047077
138	0x3d9f4a4c	0.07777843
139	0xbd8f4fa7	-0.06997614
140	0x3db59b2c	0.08867487
141	0xbda7cb4b	-0.08193072
142	0x3d85db95	0.065360226
143	0xbd4cfa6e	-0.050043516
144	0x3b5b8ac8	0.0033499468
145	0x3d5f273a	0.05448077
146	0x3d3a7835	0.045524795
147	0x3e14ab4d	0.14518471
148	0x3d91633e	0.07099007
149	0xbe0b1917	-0.1358379
150	0x3d75e064	0.06002845
151	0xbdab6145	-0.08368162
152	0x3c7cb1be	0.015423236
153	0xbd74f3b6	-0.059802733
154	0x3df14cf1	0.117822535
155	0xbde92045	-0.11383108
156	0x3dcdf490	0.10056412
157	0x3c468cf0	0.012118563
158	0x3bc00629	0.0058601093
159	0xbcdecaaa	-0.027196247
160	0x3da0c36e	0.07849775
161	0x3d534776	0.051581822
162	0x3d6a618d	0.057221938
163	0xbe1b033e	-0.15137956
164	0x3da09e59	0.078427024
165	0x3c52ca52	0.01286562
166	0xbdb87445	-0.09006552
167	0x3e0a1f22	0.13488439
168	0x3d8b173b	0.0679154
169	0xbddfa494	-0.10920063
170	0xbd99490d	-0.074846365
171	0x3d0d2fd3	0.034469437
172	0x3ce7e1e4	0.028305955
173	0xbbf9fd08	-0.0076290406
174	0xbd772382	-0.060336597
175	0xbdae8a7f	-0.0852251
176	0xbe0c290a	-0.1368753
177	0x3db051a7	0.08609324
178	0x3d5ac152	0.05340702
179	0xbe1cd661	-0.15316154
180	0x3d5a308a	0.053268947
181	0x3ca3b331	0.019982906
182	0xbc472175	-0.012153973
183	0xbb82b2da	-0.003988606
184	0x3da2b710	0.07945073
185	0x3dd488d2	0.10377659
186	0x3cf03c4b	0.029325625
187	0xbd5ea029	-0.05435196
188	0xbd771251	-0.060320202
189	0x3d226a61	0.039652232
190	0xbcdf3105	-0.027245054
191	0xbd0abc2e	-0.03387087
192	0x3dfcc621	0.123424776
193	0x3d87cc66	0.06630783
194	0x3ccd90dc	0.025093488
195	0xbcde9651	-0.027171286
196	0x3d0756c8	0.033041745
197	0xbd4dbb05	-0.050227184
198	0x3d92fa09	0.07176597
199	0xbc2b9a2a	-0.010473767
200	0xbd92b827	-0.071640305
201	0xbb7299b8	-0.0037017893
202	0x3d81f928	0.06346351
203	0x3dabc0b7	0.08386367
204	0x3d1a8d4c	0.037732407
205	0xbdf26c0c	-0.118370146
206	0xbcf40c26	-0.02979095
207	0xbdb41e97	-0.08794897
208	0xbd80fc1b	-0.06298085
209	0x3d73f06d	0.05955546
210	0x3deb6095	0.11493031
211	0x3cd434fc	0.025904171
212	0xbe0824be	-0.13295266
213	0xbcfa5c5e	-0.030561622
214	0xbd803e13	-0.0626184
215	0x3e27dd6c	0.1639306
216	0x3d00a7de	0.03141009
217	0xbd5e1c28	-0.05422607
218	0x3d9d0f25	0.07668904
219	0xbc061562	-0.008183809
220	0xbdfbb6ff	-0.12290763
221	0x3dd762c7	0.10516887
222	0xbc7cd609	-0.015431889
223	0xbd81e804	-0.063430816
224	0xbd98ed73	-0.07467165
225	0x3dfab2e1	0.1224115
226	0x3df6fd79	0.12060065
227	0x3c36c9d9	0.011156523
228	0xbd54cbf2	-0.05195231
229	0xbe22637d	-0.15858264
230	0xbda708f7	-0.08156007
231	0x3e0b6269	0.13611759
232	0x3c927363	0.017877286
233	0x3e137ef3	0.14403896
234	0x3dd1cae1	0.10243774
235	0x3cb4fa4f	0.022092013
236	0x3c871288	0.016488329
237	0xbd7127df	-0.058875915
238	0xbe14e450	-0.1454022
239	0xbe0f9ed9	-0.1402544
240	0x3dbfc9e4	0.093646795
241	0xbdd1ea79	-0.102498
242	0xbd6bc352	-0.05755932
243	0xbd3a63ee	-0.045505457
244	0xbcd79dbb	-0.026320329
245	0xbde0a7c9	-0.109695025
246	0xbd978f85	-0.07400421
247	0x3cb85550	0.022501618
248	0xbd705b62	-0.0586809
249	0x3dbe6c5a	0.0929801
250	0xbd4c8789	-0.049933944
251	0xbd763ca3	-0.06011642
252	0xbc61cd40	-0.013781846
253	0xbda80127	-0.08203345
254	0xbd95c517	-0.073129825
255	0xbdd1c450	-0.10242522

lstm.weight_hh_l0 f4 [256, 64]
0	0xbe000b1d	-0.1250424
1	0x3e2d9adf	0.1695361
2	0x3dbd8f4f	0.092558496
3	0x3ba7e718	0.005123984
4	0xbdf500ed	-0.11963067
5	0xbc12fd34	-0.008971501
6	0x3cdd08fb	0.026981821
7	0x3cb834e6	0.022486161
8	0xbe068a84	-0.13138777
9	0xbd0fc1c5	-0.035096902
10	0x3d6df326	0.058093213
11	0xbd7ac629	-0.061224137
12	0x3d80bef2	0.0628642
13	0xbdc1d056	-0.09463565
14	0x3cd10d47	0.025519026
15	0x3dbc0421	0.09180475
16	0xbcaf5803	-0.021404272
17	0xbe2307e9	-0.15920986
18	0x3dadc481	0.08484746
19	0x3d23b36c	0.039966032
20	0xbc891461	-0.01673335
21	0x3dad0184	0.08447555
22	0xbc391cb7	-0.01129835
23	0x3e04dd45	0.12975033
24	0x3dacc2ab	0.084355675
25	0xbd730f83	-0.059340965
26	0x3e00fa66	0.1259552
27	0xbd8dddb4	-0.06927052
28	0xbdea990a	-0.11454971
29	0x3cc59006	0.024116527
30	0xbd217417	-0.039417353
31	0x3e2a9739	0.1665925
32	0xbd90c8cd	-0.0706955
33	0x3dc219e7	0.09477597
34	0xbe206fe2	-0.1566768
35	0x3cdb0cef	0.026739566
36	0xbc3ce42c	-0.01152901
37	0xbe0f8477	-0.14015375
38	0x3d7b4e0f	0.06135374
39	0x3c77cd07	0.015124566
40	0x3d802c77	0.06258481
41	0xbdf86883	-0.12129309
42	0xbdd8b5e3	-0.10581567
43	0xbc47df1d	-0.01219919
44	0xbc27d880	-0.010244489
45	0x3db1bc74	0.08678523
46	0x3dd610c8	0.104524195
47	0x3b364dba	0.0027817325
48	0x3d338e25	0.04383673
49	0x3d422b4e	0.04740458
50	0xbda09c67	-0.078423314
51	0x3d33b8e8	0.043877512
52	0x3dda154c	0.10648593
53	0x3e1e909d	0.15484853
54	0xbded679e	-0.11592029
55	0xbc869b58	-0.016431496
56	0xbda6444d	-0.08118496
57	0xbd20b407	-0.039234187
58	0x3cf22f12	0.02956346
59	0xbcdac176	-0.026703577
60	0x3dda8bf1	0.10671223
61	0xbd2f4f99	-0.04280052
62	0x3df91d66	0.121638104
63	0x3b14dae7	0.0022713484
64	0xbe036fe7	-0.12835656
65	0xbd690170	-0.056886137
66	0xbd92662d	-0.07148395
67	0x3d3bc5ca	0.045842923
68	0xbdd28503	-0.10279276
69	0x3afa1c72	0.0019081964
70	0x3d36573e	0.044516794
71	0xbd5a0d9a	-0.053235628
72	0x3ca7c249	0.020478385
73	0xbe0e28c1	-0.13882734
74	0xbda31135	-0.07962266
75	0xbe0477b9	-0.12936296
76	0xbca38ff7	-0.019966109
77	0xbd8285cc	-0.06373176
78	0xbba0177e	-0.004885613
79	0xbb8c7074	-0.0042858664
80	0x3da506e2	0.080579534
81	0x3dc177f5	0.09446708
82	0x3db5d008	0.088775694
83	0xbc3328cc	-0.01093502
84	0xbe0fb5d5	-0.14034207
85	0x3d2b7e6b	0.04186861
86	0xbd411d23	-0.047146928
87	0x3da6fef4	0.08154097
88	0x3df8e620	0.12153268
89	0x3d873651	0.06602157
90	0x3e0b22a5	0.13587435
91	0x3e08391a	0.13303033
92	0x3c4a51e1	0.012348623
93	0xbd99e66b	-0.07514652
94	0x3e051146	0.1299487
95	0xbd20ebef	-0.039287504
96	0xbda123a7	-0.07868128
97	0x3dfa1d94	0.12212673
98	0x3d9b125d	0.07571862
99	0x3caf4554	0.021395363
100	0x3c3af421	0.011410744
101	0xbdd5449e	-0.10413478
102	0x3c96ee99	0.01842432
103	0x3dcf97db	0.10136386
104	0x3c751f26	0.01496104
105	0xbbc638ad	-0.0060492367
106	0xbd353169	-0.044236574
107	0xbd81e646	-0.06342749
108	0x3d668d79	0.056287263
109	0x3d2f41d4	0.042787388
110	0x3dccea50	0.10005629
111	0x3c86007d	0.016357655
112	0x3d34f421	0.044178132
113	0x3d05b567	0.032643702
114	0x3a599496	0.0008300034
115	0x3d766a6e	0.060160093
116	0x3dc2640a	0.09491737
117	0x3e079244	0.1323939
118	0x3da0a48d	0.078438856
119	0xbc4119a1	-0.011785896
120	0xbdfce262	-0.123478666
121	0x3c43b17c	0.011944171
122	0x3cc3023f	0.023804782
123	0xbc60c7e3	-0.013719532
124	0xbb8c652f	-0.004284523
125	0xbd22855f	-0.039677974
126	0x3d4e9319	0.050433252
127	0x3da8fb21	0.08251024
128	0xbdb3f990	-0.08787835
129	0xbbf22579	-0.007389721
130	0x3c51bfc9	0.012802073
131	0xbdbbed9e	-0.09176181
132	0x3d8d414f	0.06897222
133	0x3de11c04	0.10991672
134	0x3e218cc8	0.1577636
135	0x3d3554e2	0.044270404
136	0xbc8c412a	-0.017120916
137	0xb96a5982	-0.00022349323
138	0xbd984f3a	-0.07436986
139	0xbd01edcb	-0.031720918
140	0x3d0e5914	0.03475292
141	0xbde8b4ef	-0.11362635
142	0xbddabd99	-0.10680694
143	0x3e1d0a07	0.15335856
144	0x3e134cd1	0.14384772
145	0x3cce2cb1	0.025167795
146	0x3e0ea6ce	0.13930818
147	0xbcb218ad	-0.021740282
148	0x3cb3f833	0.021968937
149	0x3c5500b0	0.013000652
150	0x3cbc11d4	0.02295772
151	0x3c9d7e24	0.019225188
152	0xbda6c3a1	-0.08142782
153	0x3d9f19b9	0.07768578
154	0xbd00fee3	-0.03149308
155	0x3d45318d	0.04814296
156	0x3da03085	0.07821754
157	0x3b8d821c	0.0043184888
158	0x3b8746d1	0.004128315
159	0x3df3c616	0.11903016
160	0xbdb4b17e	-0.088229164
161	0x3d05f335	0.032702643
162	0x3d98c48c	0.07459363
163	0xbdc2449b	-0.09485742
164	0xbd942a94	-0.07234684
165	0xbde61d21	-0.11236025
166	0x3bf38505	0.0074316286
167	0xbdd0c21c	-0.101932734
168	0xbdddd721	-0.10832048
169	0x3bea50a2	0.0071507255
170	0xbcae9add	-0.021314079
171	0xbda8a6f1	-0.082349665
172	0xbe0dcba7	-0.13847218
173	0x3b844551	0.0040365835
174	0xbc24ee40	-0.010066569
175	0xbc66f77b	-0.01409709
176	0xbe093dcf	-0.13402484
177	0xbc88f81d	-0.016719872
178	0xbe0a1a5b	-0.13486616
179	0xbe0e096b	-0.1387078
180	0xbd714873	-0.058906984
181	0x3dc34b5d	0.09535859
182	0xbdf32b59	-0.11873502
183	0xbc0f227e	-0.008736251
184	0x3d5f0a41	0.05445314
185	0x3cb5a6ca	0.022174258
186	0x3ce3297d	0.027729744
187	0xbd9aa689	-0.07551295
188	0xbd60050d	-0.054692317
189	0xbd553c82	-0.052059658
190	0x3e180185	0.1484433
191	0x3cce0f58	0.0251538
192	0xbe0d42c2	-0.13794997
193	0x3d370f1e	0.04469215
194	0xbd564968	-0.0523161
195	0xbd923a52	-0.0714003
196	0xbda0d885	-0.07853798
197	0x3e1bf35a	0.1522955
198	0x3dabf9a0	0.083972216
199	0x3cb849d8	0.022496149
200	0xbcc98d93	-0.02460364
201	0xbda420db	-0.08014079
202	0x3dbfcae2	0.09364869
203	0x3baac4b7	0.0052114385
204	0x3d9fa070	0.07794273
205	0xbdbf2da1	-0.09334875
206	0x3dc1ace2	0.09456803
207	0x3cd79e46	0.026320588
208	0xbb92a8ac	-0.0044756737
209	0x3d0f21da	0.034944393
210	0x3df92f90	0.12167275
211	0x3e0bf0b0	0.13666034
212	0x3daa42eb	0.08313545
213	0xbd775de7	-0.060392287
214	0x3ddbfa85	0.10741142
215	0x3e1b3a0d	0.15158863
216	0xbdcd2de6	-0.1001852
217	0x3ceaa261	0.028641881
218	0xbd24d415	-0.04024132
219	0x3d8a9171	0.06766022
220	0x3c01fdb6	0.007934025
221	0x3c96f4dd	0.018427307
222	0x3d0a0a0a	0.03370098
223	0x3dcda1fe	0.10040663
224	0xbd8751dc	-0.0660741
225	0xbd795431	-0.060871307
226	0x3d64661e	0.05576145
227	0xbddaf2ac	-0.10690817
228	0x3c9e4def	0.019324271
229	0xbd059ce4	-0.032620326
230	0x3d0e394b	0.034722608
231	0xbe25ef31	-0.16204526
232	0x3c4fe01d	0.01268771
233	0xbdcedf94	-0.10101238
234	0xbddf1f78	-0.10894674
235	0xbc6773eb	-0.014126758
236	0xbddfa8ad	-0.10920844
237	0xbcc79619	-0.024363564
238	0x3a8e0358	0.0010834737
239	0xbc982491	-0.018572124
240	0xbdb2aeca	-0.087247446
241	0xbd9f3d75	-0.07775394
242	0xbc4dd181	-0.012562157
243	0xbe152aee	-0.14567158
244	0xbd009509	-0.03139213
245	0x3d3b96a3	0.045797955
246	0xbcdba559	-0.026812242
247	0x3de8a816	0.11360185
248	0xbe073b48	-0.13206208
249	0xbb9e95dd	-0.0048396424
250	0x3cd6eb21	0.026235165
251	0x3de8c382	0.11365415
252	0xbda35679	-0.07975478
253	0xbd402e4d	-0.046919156
254	0xbd7e644e	-0.062107377
255	0xbd864ebe	-0.06557988

lstm.bias_ih_l0 f4 [256]
0	0x3d14c928	0.03632465
1	0xbd8fcdb0	-0.07021654
2	0xbcb25f01	-0.021773817
3	0x3dea6485	0.11444954
4	0xbd079295	-0.033098776
5	0xbd28504f	-0.041092213
6	0x3dc917e8	0.09819013
7	0xbc9f0ce4	-0.019415326
8	0xbdab6435	-0.08368722
9	0x3d8f7c35	0.070061125
10	0x3dba2a8a	0.09090145
11	0xbda66007	-0.081237845
12	0x3d5446d4	0.05182536
13	0xbd590b4b	-0.052989285
14	0x3dba7def	0.09106051
15	0x3dd94714	0.1060926
16	0x3db185bb	0.08668085
17	0x3e15f304	0.14643484
18	0xbbcdcc0a	-0.006280427
19	0xbccf9116	-0.025337737
20	0x3d829e5b	0.0637786
21	0x3d8fd4de	0.07023023
22	0xbc2de20c	-0.010612976
23	0xbd25bd85	-0.040463943
24	0xbc4d489f	-0.012529521
25	0x3dc8e1bf	0.09808683
26	0x3dc6e0a9	0.09710819
27	0xbc8ee835	-0.01744471
28	0x3e187476	0.14888176
29	0xbd869ed3	-0.06573262
30	0x3cf39ebc	0.029738776
31	0x3d9aa5d4	0.075511605
32	0xbd7956e5	-0.060873885
33	0x3e1d0987	0.15335666
34	0xbc9966bf	-0.018725751
35	0x3ded0525	0.11573247
36	0xbcce201f	-0.0251618
37	0xbd1b3c73	-0.037899446
38	0x3e1f0467	0.15529023
39	0x3c8d1587	0.01722218
40	0x3d414e9c	0.04719411
41	0x3e241f10	0.16027474
42	0xbda1749b	-0.07883569
43	0x3e149087	0.14508258
44	0xbcd5960b	-0.026072523
45	0xbd707898	-0.058708757
46	0x3de7e67d	0.11323259
47	0xbca7454d	-0.020418787
48	0xbd916cc0	-0.071008205
49	0xbc9df4af	-0.019281713
50	0x3de43b43	0.11144116
51	0x3db4078d	0.08790503
52	0x3ce53085	0.027977237
53	0x3dd86077	0.10565274
54	0x3d8a564d	0.06754742
55	0xbd7c7769	-0.061637316
56	0x3d8480a8	0.06469852
57	0x3e05d579	0.13069715
58	0x3cb6be24	0.022307463
59	0x3cf0c236	0.029389482
60	0x3e21a6d5	0.15786298
61	0x3b49228a	0.0030690753
62	0x3e1cc80d	0.15310688
63	0x3e0da8cf	0.13833927
64	0x3e1540ee	0.1457555
65	0x3d2b7c2d	0.04186647
66	0x3d9e387a	0.07725616
67	0x3d99fc15	0.07518784
68	0xbd8f5fdc	-0.070007056
69	0xbcd65405	-0.02616311
70	0xbd109d45	-0.035306234
71	0x3cd94522	0.026522223
72	0xbd482d36	-0.04887124
73	0x37cf1896	2.4687772e-05
74	0xbd2f28d7	-0.042763557
75	0xbd5716dd	-0.05251204
76	0x3d9a9d9f	0.07549595
77	0x3e297870	0.1654985
78	0xbc87d1ed	-0.016579593
79	0xbd3b5949	-0.045739446
80	0x3a5411d6	0.0008089816
81	0xbcb226dc	-0.021747045
82	0xbdd5c47f	-0.10437869
83	0x3dfd33b6	0.12363379
84	0x3dd74868	0.10511857
85	0x3de90b06	0.11379056
86	0xbc8e4ecb	-0.017371556
87	0xbd241187	-0.040055778
88	0x3e14ab91	0.14518572
89	0xbce9bfc8	-0.028533831
90	0xbd7202b9	-0.059084628
91	0xbd8b9b77	-0.06816762
92	0x3da77ba1	0.08177877
93	0x3c2b19ee	0.010443194
94	0xbcfedbba	-0.031110633
95	0x3e1b4d27	0.1516615
96	0xbd259fea	-0.04043571
97	0x3d45e866	0.048317336
98	0x3dd271af	0.1027559
99	0x3dcef4a0	0.10105252
100	0x3d9fb63d	0.07798431
101	0x3ca532cd	0.020165825
102	0x3dbf57df	0.09342932
103	0x3cbb7d30	0.022886842
104	0x3d2ba964	0.04190959
105	0xbcf77a14	-0.030209579
106	0x3df194a2	0.117959276
107	0x3d89d523	0.06730106
108	0x3d7b7c83	0.06139804
109	0x3caea845	0.021320472
110	0x3da213a4	0.079139024
111	0xbddc21d9	-0.107486434
112	0x3ddd5ec6	0.10809092
113	0x3e143668	0.1447388
114	0x3dca6552	0.098826066
115	0x3ceef554	0.029169716
116	0xbda8afc6	-0.08236651
117	0x3c0adc02	0.0084753055
118	0xbd6980d6	-0.057007633
119	0xbce2e86f	-0.027698724
120	0x3e0dcf68	0.1384865
121	0x3ce2596b	0.027630528
122	0x3e2e5b26	0.17026958
123	0xbca01614	-0.019541778
124	0xbd38991c	-0.04506789
125	0xbda332c2	-0.07968666
126	0x3d897e83	0.06713583
127	0x3d86cf06	0.06582455
128	0x3ca66da0	0.020315945
129	0x3dea142e	0.1142963
130	0x3deb9b6f	0.11504256
131	0xbe1f45b5	-0.15553935
132	0xbd1c0859	-0.0380939
133	0x3e035eb0	0.12829089
134	0x3df21be6	0.118217275
135	0x3dba1c12	0.09087385
136	0xbd8c95ce	-0.068645105
137	0xbe127305	-0.14301689
138	0x3e218ee1	0.1577716
139	0xbd8ea92a	-0.06965859
140	0x3d99be98	0.07507056
141	0xbd9aca5e	-0.0755813
142	0xbd920ef0	-0.07131755
143	0x3da597be	0.08085583
144	0x3e1d6616	0.15370974
145	0xbd42f9c9	-0.047601495
146	0x3db90075	0.0903329
147	0x3d9f9e3c	0.07793853
148	0xbb9874ca	-0.004652594
149	0xbc8a4257	-0.016877336
150	0x3da724d7	0.081613235
151	0x3e1b641a	0.15174904
152	0xbb90c982	-0.004418553
153	0x3e10c74e	0.14138529
154	0x3d0efe0f	0.034910258
155	0x3da8fc8b	0.08251294
156	0xbe122058	-0.1427015
157	0x3ddcad69	0.10775263
158	0x3e17b0df	0.14813565
159	0x3d9262e7	0.071477704
160	0xbcd0d7be	-0.025493499
161	0x3d9084f4	0.07056609
162	0xbe09387d	-0.13400455
163	0xbe174ca3	-0.14775328
164	0x3daf3ca1	0.08556486
165	0xbe159a8c	-0.14609736
166	0x3bd7bfb3	0.0065841316
167	0xbddc3a07	-0.10753255
168	0xbe16ce27	-0.14727078
169	0xbdc12400	-0.094306946
170	0xbd1ac702	-0.037787445
171	0xbe0c95d8	-0.13729036
172	0xbe02ad99	-0.12761535
173	0xbd83e7f5	-0.06440727
174	0x3d0b9fb7	0.034087863
175	0xbc96b9d5	-0.018399158
176	0x3d9e8939	0.07741017
177	0xbe2729b7	-0.16324507
178	0xbe0d6d9f	-0.13811348
179	0xbd84ffff	-0.0649414
180	0x3e20a8ed	0.1568944
181	0x3e1d3650	0.1535275
182	0xbd6bc1b2	-0.05755777
183	0xbc50b2b8	-0.012737922
184	0xbcb5e630	-0.022204489
185	0xbd09fc31	-0.033687774
186	0xbcffb39a	-0.03121357
187	0xbc6523f3	-0.013985622
188	0x3d0ccee8	0.03437701
189	0xbc0fad9b	-0.008769418
190	0x3dd7b846	0.10533194
191	0xbd4e6384	-0.050387874
192	0x3cb8ca0f	0.022557287
193	0x3d942b52	0.07234825
194	0x3e022969	0.12711109
195	0x3de63107	0.1123982
196	0x3c89022c	0.016724668
197	0x3d4f052b	0.050542038
198	0xbbe0af78	-0.006856855
199	0x3e1c1125	0.15240915
200	0x3db5385b	0.088486396
201	0xbd8c63f6	-0.068550035
202	0x3dc91822	0.09819056
203	0x3e1b909f	0.15191887
204	0x3d984ff6	0.07437126
205	0xbd585858	-0.052818626
206	0x3df53216	0.11972444
207	0x3d428ca2	0.0474974
208	0x3c72aa96	0.014811179
209	0x3da4cb0e	0.08046542
210	0x3dea8853	0.11451783
211	0x3daf96fe	0.08573721
212	0xbd8d3a22	-0.068958536
213	0x3db68bbf	0.08913373
214	0xbcd794e9	-0.026316123
215	0xbd965f32	-0.07342376
216	0xbd080ebd	-0.03321718
217	0x3de61343	0.11234143
218	0x3e13f667	0.14449464
219	0x3d9f3eae	0.07775627
220	0x3dfd5281	0.12369252
221	0xbdb9cf7c	-0.09072778
222	0xbc54baf5	-0.012984027
223	0xbcc06583	-0.023485905
224	0xbd91114b	-0.070833765
225	0xbd11d0c2	-0.035599478
226	0xbd3fca05	-0.04682352
227	0xbd7235bc	-0.059133276
228	0xbc40fdc1	-0.01177925
229	0xbcb53fed	-0.022125209
230	0x3d428b87	0.047496345
231	0x3c63ebbe	0.013911186
232	0x3d100e1a	0.0351697
233	0xbd8878fe	-0.066637024
234	0xbd78816e	-0.06067031
235	0xbd873fc7	-0.066039614
236	0x3e027987	0.12741672
237	0x3d5ea49b	0.0543562
238	0xbd6fa090	-0.058502734
239	0xbd033ea6	-0.032042168
240	0x3cd724db	0.026262691
241	0xbd0cb464	-0.03435172
242	0x3e07d0d5	0.13263257
243	0x3dfe8ead	0.12429557
244	0x3d85aca6	0.06527071
245	0x3cc06f2e	0.023490515
246	0x3df48c0c	0.11940774
247	0x3d8b508f	0.06802475
248	0x3d5dbb04	0.05413343
249	0x3d77534c	0.060382172
250	0xbd8fcc30	-0.070213675
251	0x3dacb028	0.08432037
252	0x3da872eb	0.08225044
253	0x3dfd3905	0.12364391
254	0x3dc18fc3	0.094512485
255	0x3e0d345d	0.13789506

lstm.bias_hh_l0 f4 [256]
0	0xbcb63053	-0.02223984
1	0x3cb1f4d9	0.021723198
2	0xbd49fa30	-0.049310863
3	0x3e195ba1	0.1497636
4	0x3d1a5fc5	0.03768899
5	0xbdb37dbc	-0.08764216
6	0x3dec78de	0.11546491
7	0x3d711078	0.058853596
8	0xbcbcaaa9	-0.023030596
9	0x3e1dcf30	0.15411067
10	0xbcec9b3f	-0.02888262
11	0xbcf5511c	-0.029945903
12	0xbbe7960b	-0.007067447
13	0x3d6c70d1	0.057724778
14	0xbd70e73f	-0.058814283
15	0x3d84971a	0.06474133
16	0xbd9c54b4	-0.07633343
17	0xbd302997	-0.043008413
18	0xbd61d8a3	-0.05513824
19	0xbd8810e8	-0.066438496
20	0x3d7003f7	0.05859753
21	0x3db375c1	0.08762694
22	0x3c7093ee	0.014683707
23	0x3b8bc3e8	0.004265297
24	0x3ce6d28e	0.028176572
25	0xbd619c0d	-0.055080462
26	0xbd9848bc	-0.07435748
27	0xbd3058c0	-0.04305339
28	0xbd4266c5	-0.04746129
29	0x3d3781b7	0.04480144
30	0x3e149e2a	0.1451346
31	0x3e0965a8	0.13417685
32	0xbd43bdb0	-0.047788322
33	0x3ddf831c	0.10913679
34	0x3e1c001d	0.15234418
35	0x3c7a1ea9	0.015266099
36	0xbd915147	-0.070955805
37	0xbdafbdbc	-0.08581111
38	0x3cf12274	0.029435374
39	0xbc8dabe4	-0.017293878
40	0x3d675f38	0.056487292
41	0xbd939605	-0.07206348
42	0x3cdc6dbe	0.026907798
43	0x3d882c4f	0.06649076
44	0x3b94085e	0.004517599
45	0x3cc0ca5a	0.023533989
46	0x3e2640aa	0.16235605
47	0x3d93e002	0.072204605
48	0xbd839dc4	-0.06426576
49	0xbc6f1515	-0.014592429
50	0x3db4d97b	0.088305436
51	0x3db3606d	0.08758626
52	0xbd91c1f6	-0.07117073
53	0xbd342618	-0.04398164
54	0xbc131180	-0.00897634
55	0x3c89192d	0.016735638
56	0x3d45459a	0.04816208
57	0x3d947cce	0.07250367
58	0xbcc6bddf	-0.02426046
59	0xbcd601e0	-0.026123941
60	0x3dd74920	0.10511994
61	0xbd707ea2	-0.058714516
62	0x3c6e3eb3	0.014541316
63	0xbdaa6f3e	-0.08321999
64	0xbd4e6fb7	-0.05039951
65	0x3d62c90d	0.05536752
66	0x3d16d48b	0.03682379
67	0x3e1777c7	0.14791785
68	0x3e2c75ea	0.16841856
69	0xbda48192	-0.08032526
70	0xbd035ec6	-0.032072805
71	0x3d9636ba	0.07334657
72	0xbb087c8c	-0.002082619
73	0xbd97fad1	-0.07420886
74	0xbd036565	-0.03207912
75	0xbceac8f3	-0.028660273
76	0x3d44f837	0.04808828
77	0x3dc5d15a	0.09659071
78	0x3de2ebfc	0.11080167
79	0x3e11fe05	0.14257057
80	0xbcbdf033	-0.023185825
81	0x3df5e6ab	0.12006887
82	0xbd5e7c64	-0.054317847
83	0xbdbf9092	-0.093537465
84	0xbd09be8f	-0.033628996
85	0x3da09cf3	0.07842436
86	0x3d8b27e7	0.0679472
87	0xbd87602f	-0.066101424
88	0x3d71b163	0.05900706
89	0x3d2d0b16	0.0422469
90	0x3e0c078c	0.13674754
91	0xbd0e0d17	-0.034680452
92	0xbd758799	-0.05994377
93	0x3c9d9a3f	0.01923859
94	0xbba2609d	-0.004955365
95	0x3cc452da	0.023965288
96	0xbb970731	-0.0046090116
97	0x3e25fba8	0.1620928
98	0x3cc54023	0.024078434
99	0xbda339e8	-0.07970029
100	0xbdcd2dc7	-0.10018497
101	0x3d01d8d5	0.031700928
102	0x3dcbccff	0.09951209
103	0x3d811c9e	0.063042864
104	0xbdc891ca	-0.09793432
105	0x3d7bad6d	0.06144469
106	0x3e04f3b5	0.12983592
107	0xbaa1d1e9	-0.0012345883
108	0x3dc1809b	0.09448358
109	0x3e0a07f8	0.13479602
110	0x3e08d1eb	0.13361327
111	0x3d0b2377	0.03396937
112	0xbde9701e	-0.11398338
113	0xbd768d84	-0.060193554
114	0x3dfec87c	0.12440583
115	0xbbd5b494	-0.0065217707
116	0x3e10c981	0.14139368
117	0x3dfb1e70	0.12261665
118	0xbd8cae50	-0.06869185
119	0x3db58bc8	0.08864552
120	0xbd826f79	-0.06368918
121	0xbd46ecf2	-0.048565812
122	0x3e08f031	0.13372876
123	0x3e1fc4f5	0.15602477
124	0x3d96d856	0.073654816
125	0x3da0df70	0.07855117
126	0x3d0bc482	0.03412295
127	0x3dcd9afe	0.10039328
128	0xbe23db16	-0.16001543
129	0x3d8a410f	0.0675069
130	0x3d5fdff7	0.05465695
131	0xbda0acd6	-0.07845466
132	0xbdeaa34a	-0.11456926
133	0x3d876006	0.06610112
134	0x3b74f3da	0.0037376792
135	0x3d65a9f9	0.0560703
136	0xbd12b9a2	-0.035821564
137	0xbd28d688	-0.041220218
138	0xbbf2eee1	-0.0074137305
139	0xbe17164b	-0.14754598
140	0x3d7ef076	0.06224104
141	0xbd754171	-0.059876863
142	0xbd880614	-0.06641784
143	0x3df168dd	0.11787579
144	0xbca9062e	-0.02063283
145	0xbd0ec99d	-0.034860242
146	0xbd9fa010	-0.077942014
147	0xbc9bf637	-0.019038303
148	0x3dd57f72	0.10424699
149	0xbd0f9dac	-0.035062477
150	0x3ddf8d47	0.109156184
151	0x3e143b20	0.1447568
152	0x3d998d5f	0.074976675
153	0x3e0c5800	0.13705444
154	0x3d9546d6	0.072889015
155	0x3ddc53af	0.10758149
156	0xbe18d6e0	-0.14925718
157	0x3dee1ba1	0.116263635
158	0x3dad1e9f	0.08453106
159	0x3d7c8c36	0.061657153
160	0xbe1b94a6	-0.15193424
161	0x3dde3c6a	0.10851367
162	0x3d039652	0.03212578
163	0xbe094b67	-0.1340767
164	0x3dcc9c6b	0.09990772
165	0x3da801ab	0.08203443
166	0x3cbad9a0	0.02280885
167	0xbd90cfcb	-0.07070883
168	0xbd1c244f	-0.038120564
169	0xbe1630f4	-0.14667112
170	0xbe17c5e6	-0.14821586
171	0xbd5e78cc	-0.05431442
172	0xbd993a96	-0.074818775
173	0x3e16ce61	0.14727165
174	0x3de57a16	0.11204927
175	0xbca2bc6d	-0.019865239
176	0xbe0cf107	-0.1376382
177	0xbba3d216	-0.0049994094
178	0xbd21bb04	-0.039484993
179	0xbdbead80	-0.09310436
180	0x3e125afc	0.1429252
181	0x3df1709d	0.117890574
182	0xbdb6da1a	-0.08928318
183	0x3e02caf4	0.12772733
184	0xbe183017	-0.14862095
185	0xbe120207	-0.14258586
186	0x3c7afce4	0.015319083
187	0x3ded9980	0.116015434
188	0x3c6b39f7	0.014357082
189	0xbd680ae7	-0.056651022
190	0xbdb9a914	-0.09065452
191	0x3d8fc69a	0.07020302
192	0x3d35b84b	0.04436521
193	0xbdac8fc3	-0.08425858
194	0xbd51ebce	-0.05125027
195	0x3dec228d	0.115300275
196	0xbd6c1b47	-0.0576432
197	0x3d498deb	0.04920761
198	0x3e198ce9	0.14995159
199	0x3c1c477a	0.009538526
200	0x3db470a3	0.08810546
201	0x3dcbdb76	0.09953968
202	0x3c187ce3	0.009307119
203	0xbd43ea9d	-0.047831167
204	0xbd0a7aae	-0.033808403
205	0xbd9b4d37	-0.07583087
206	0x3d6b2eab	0.057417553
207	0x3d8ea0fd	0.069643
208	0x3c828ded	0.015936816
209	0x3dbe3939	0.09288258
210	0x3c0fe590	0.008782759
211	0x3d89c44a	0.06726892
212	0x3e1abe98	0.15111768
213	0x3e1da6ef	0.15395711
214	0x3e1a5c21	0.15074207
215	0xbc09ee81	-0.00841868
216	0x3d00d4d3	0.031452965
217	0x3c11abfd	0.008891103
218	0x3dace535	0.08442155
219	0x3dea2461	0.1143272
220	0x3d8a7aba	0.067616895
221	0xbc3efb2d	-0.011656565
222	0x3d8d4f50	0.06899893
223	0xbd36d452	-0.04463608
224	0xbd977a2b	-0.073963486
225	0x3cab28c6	0.020893466
226	0x3cfd3ff6	0.030914288
227	0x3c9cc9b6	0.019139152
228	0x3cd83ccd	0.02639618
229	0x3d9aa48e	0.075509176
230	0x3d9422f6	0.07233231
231	0x3d850606	0.064952895
232	0x3c9fbebb	0.019500127
233	0x3d8fc231	0.07019461
234	0xbd32f600	-0.043691635
235	0xbd0630da	-0.032761432
236	0x3d61b2a5	0.05510201
237	0x3e03a4af	0.1285579
238	0x3d59d9c3	0.05318619
239	0x3e04d2d2	0.12971047
240	0x3e039a86	0.12851915
241	0xbd9c776d	-0.07639966
242	0xbcd5a668	-0.026080325
243	0x3d9fdfbf	0.07806348
244	0x3cef7a38	0.029233083
245	0x3db21b6e	0.08696638
246	0xbcb3a58a	-0.021929521
247	0x3dd11f65	0.10211066
248	0xbce8eea7	-0.02843411
249	0x3d5b4308	0.053530723
250	0xbd7a9cfc	-0.06118487
251	0x3c53ef5f	0.0129354885
252	0x3dee71ec	0.116428226
253	0x3de3a39f	0.111151926
254	0xbd610a2d	-0.054941345
255	0x3dd32a76	0.10310833

lstm.weight_ih_l1 f4 [256, 64]
0	0xbd665539	-0.05623362
1	0xbd96a2b0	-0.07355249
2	0x3e1ab9e5	0.15109976
3	0x3b9e10e9	0.004823793
4	0xbcc892b4	-0.024484016
5	0x3d9951fb	0.0748634
6	0x3dbe9f98	0.09307784
7	0xbd999e40	-0.07500887
8	0x3d0ca1f7	0.03433415
9	0x3d5b8fa9	0.053603802
10	0x3d58f0e6	0.052964114
11	0xbd92090e	-0.07130633
12	0x3d617713	0.0550452
13	0xbcf08e42	-0.029364709
14	0xbc657395	-0.014004608
15	0xbd23be8f	-0.039976653
16	0x3dc876fb	0.09788319
17	0xbca4a463	-0.020097917
18	0x3c39169b	0.0112968935
19	0xbc0ba7c2	-0.008523883
20	0x3e02ea34	0.12784654
21	0xbdfada56	-0.122486755
22	0xbb96dace	-0.0046037203
23	0xbd3f661e	-0.046728246
24	0x3de0baa7	0.10973101
25	0xbc4f6852	-0.012659149
26	0x3d23a94a	0.03995637
27	0x3cede7b7	0.029041154
28	0x3d684aa3	0.056711804
29	0xbd8c82f0	-0.06860912
30	0xbcdadc2e	-0.026716318
31	0xbdabbcd1	-0.08385623
32	0xbd8185ae	-0.063243255
33	0xbd8f37db	-0.069930755
34	0xbcaf40ff	-0.021393297
35	0x3c2c21d3	0.010506111
36	0x3d30bb46	0.043147348
37	0xbc19f2ac	-0.009396236
38	0x3ad045dd	0.0015889962
39	0xbe01b679	-0.12667264
40	0xbd67f077	-0.05662581
41	0x3d83395e	0.06407426
42	0xbc668e96	-0.014072081
43	0xbc7a9a9d	-0.015295652
44	0xbd91d68d	-0.071210004
45	0x3df87ad2	0.12132801
46	0x3df77470	0.120827556
47	0x3d51279d	0.05106317
48	0x3dd895a0	0.10575414
49	0xbcdedaa4	-0.027203865
50	0xbd0f2c3e	-0.034954302
51	0x3b7bf614	0.0038446235
52	0xbda91c29	-0.08257324
53	0x3df07ca6	0.11742525
54	0xbdd29642	-0.10282566
55	0xbc89af14	-0.016807117
56	0xbd395515	-0.045247156
57	0xbe06dc2d	-0.13169928
58	0xbdea8b36	-0.11452334
59	0x3e0d8b57	0.13822685
60	0xbc26f319	-0.010189795
61	0x3c82d489	0.015970485
62	0x3d8050b4	0.06265393
63	0x3dfdf1e4	0.123996526
64	0xbdc7bb7a	-0.09752555
65	0xbd0bb672	-0.03410954
66	0x3e2279c3	0.15866761
67	0xbdf9ae75	-0.12191478
68	0xbe2539d3	-0.1613534
69	0x3c84714b	0.016167304
70	0x3de09d4d	0.10967503
71	0x3dc10c61	0.09426189
72	0xbdfd2bd7	-0.123618774
73	0xbe0a57f5	-0.13510115
74	0x3da14fc7	0.078765444
75	0xbdf55305	-0.11978725
76	0x3ddb7a2b	0.10716661
77	0xbd89aa43	-0.06721928
78	0xbdb6aa3c	-0.089191884
79	0x3c833144	0.016014703
80	0x3df2a01b	0.11846944
81	0xbde0b645	-0.10972265
82	0xbdb5b67d	-0.088726975
83	0x3db929f0	0.09041202
84	0x3d715c1a	0.058925726
85	0xbd6cdd30	-0.05782813
86	0x3de8ce0a	0.11367424
87	0x3c0aa8a3	0.008463058
88	0xbcff7a48	-0.031186238
89	0xbd678b8c	-0.056529567
90	0xbcbf7d11	-0.023375066
91	0xbcff63ec	-0.031175576
92	0xbba6892e	-0.005082271
93	0x3c803f3b	0.01565515
94	0x3e03a7f2	0.12857035
95	0xbcb48551	-0.022036226
96	0x3d0dcb4b	0.034617703
97	0x3e0f5d1f	0.14000367
98	0xbd391366	-0.045184515
99	0xbdddfcdb	-0.10839244
100	0x3dc29413	0.09500899
101	0xbe0866f4	-0.13320524
102	0x3dccde08	0.100032866
103	0x3d6f8eb6	0.05848571
104	0xbd3d4be1	-0.046214942
105	0xbdedb79b	-0.116072856
106	0xbcb90c45	-0.022588858
107	0x3d5326fa	0.051550843
108	0xbc8a5e0e	-0.016890552
109	0x3d7d2b51	0.061808888
110	0x3dbf37cd	0.09336815
111	0x3dc5ad7e	0.09652232
112	0x3d595f74	0.053069547
113	0xbdd74c83	-0.1051264
114	0xbd11ec7c	-0.03562592
115	0xbdab4775	-0.08363239
116	0x3dcfe51b	0.1015112
117	0xbcd2b89b	-0.025722792
118	0x3d912009	0.07086188
119	0x3dbbb3cf	0.09165155
120	0xbe27971d	-0.16366239
121	0xbdbaf94f	-0.09129583
122	0xbd152116	-0.036408506
123	0xbb462ed3	-0.0030240312
124	0x3b9348b3	0.0044947504
125	0xbdd8d2e4	-0.10587099
126	0x3df956e4	0.12174776
127	0x3d85ecd7	0.06539314
128	0xbd4ea8f0	-0.05045408
129	0xbcb362c4	-0.021897681
130	0xbd68d490	-0.05684334
131	0xbde20846	-0.11036734
132	0xbddb2b04	-0.10701564
133	0x3e1f29f4	0.15543348
134	0x3d1d8738	0.038459033
135	0xbd07f0cc	-0.033188626
136	0xbd4a1dea	-0.049344935
137	0xbd304919	-0.04303846
138	0x3d8ce540	0.068796635
139	0x3b3f225a	0.0029164762
140	0x3deed8fe	0.11662482
141	0xbdce9800	-0.100875854
142	0xbd83ddbf	-0.06438779
143	0xbd8d7186	-0.069064185
144	0xbcc7f807	-0.02441026
145	0xbe156aa0	-0.14591455
146	0xbb0f2e59	-0.0021847694
147	0xbd1a7c25	-0.03771605
148	0xbbbf46b6	-0.005837287
149	0x3da1fbc8	0.079093516
150	0x3e1aeb43	0.15128808
151	0x3d5f8030	0.05456561
152	0x3dabda50	0.08391249
153	0x3df3a89c	0.11897394
154	0x3d359b20	0.04433739
155	0x3d8156dd	0.06315396
156	0xbd3e7990	-0.04650265
157	0xbd7b17ad	-0.061301876
158	0x3e0ce837	0.13760458
159	0xbd5e8be5	-0.054332633
160	0xbd9a82f7	-0.07544511
161	0xbd86ad98	-0.06576079
162	0xbdba0864	-0.09083632
163	0x3db08cad	0.08620582
164	0x3cb21734	0.02173958
165	0x3caf5e6a	0.021407325
166	0x3d57eb2a	0.052714504
167	0x3d73b451	0.059498135
168	0xbc4d7fd1	-0.012542681
169	0xbd0ada32	-0.033899494
170	0xbdc3cf4b	-0.09561022
171	0xbc800b70	-0.015630454
172	0xbc24481b	-0.010026957
173	0xbd43c598	-0.047795862
174	0xbd5475ae	-0.05187004
175	0xbce9e3be	-0.028550979
176	0x3e04ef25	0.12981851
177	0x3c802af8	0.01564549
178	0x3cfed86f	0.031109063
179	0x3d3bc9c1	0.045846704
180	0x3d183616	0.037160955
181	0xbd392bc4	-0.045207754
182	0x3da74c77	0.081688814
183	0x3d731e29	0.059354935
184	0xbdaaebff	-0.08345794
185	0x3c3e3e01	0.011611463
186	0xbde6392e	-0.11241375
187	0x3d29493f	0.04132962
188	0x3e04f4ca	0.12984005
189	0x3b4081fd	0.0029374354
190	0xbda58116	-0.08081262
191	0x3dee7afb	0.116445504
192	0x3bb25bf9	0.005443093
193	0xbcc161cb	-0.023606202
194	0x3df5658b	0.119822584
195	0x3cf94729	0.03042944
196	0x3d260ff9	0.040542576
197	0x3da6970c	0.08134279
198	0xbd134f27	-0.035964157
199	0xbd7b11f1	-0.061296407
200	0x3d84a88a	0.06477459
201	0xbd2c7f76	-0.042113744
202	0x3e07bd43	0.13255791
203	0x3d24dd9b	0.040250402
204	0xbda55e9e	-0.080746874
205	0x3d2a8bf0	0.04163736
206	0x3d201e64	0.039091483
207	0xbdb60646	-0.08887915
208	0x3d5b84a6	0.0535933
209	0xbe0b4a17	-0.13602482
210	0x3db8338f	0.08994209
211	0x3d9fbc13	0.07799544
212	0x3d98dcae	0.07463966
213	0x3d9c48e1	0.07631088
214	0xbd1f0b67	-0.038829233
215	0x3cbefaac	0.023312889
216	0xbc6066b6	-0.013696363
217	0x3dfb48e5	0.12269763
218	0x3ddfa932	0.10920943
219	0xbc050127	-0.0081179505
220	0xbe0ccc13	-0.13749723
221	0x3cced987	0.02525021
222	0x3e035083	0.12823682
223	0xbb84ad6b	-0.0040489933
224	0x3c83a8a2	0.016071621
225	0xbd7e7258	-0.062120765
226	0xbe0501fc	-0.12989038
227	0xbe0ba923	-0.1363874
228	0xbdda2f52	-0.10653557
229	0xbdc61b89	-0.09673221
230	0xbcb409b8	-0.02197729
231	0x3beb4db6	0.0071808947
232	0x3d9ecc7d	0.07753847
233	0xbc4f5bed	-0.012656194
234	0x3c93b370	0.018029898
235	0xbdcbe0b9	-0.09954972
236	0xbdca9e26	-0.09893446
237	0xbdd6ce34	-0.10488549
238	0x3e0c80d5	0.1372102
239	0x3ce5c09d	0.028045947
240	0xbd8a464e	-0.06751691
241	0xbe2120ee	-0.15735218
242	0x3aa49721	0.0012557247
243	0xbe2c0e4b	-0.16802327
244	0x3de9dec5	0.11419443
245	0xbdb37fee	-0.08764635
246	0xba846684	-0.0010101353
247	0x3dcf003b	0.10107466
248	0xbe01e4d1	-0.12684943
249	0x3d836762	0.06416203
250	0x3da61a82	0.08110525
251	0x3e054288	0.13013661
252	0x3e179c97	0.14805828
253	0xbd77c8af	-0.06049412
254	0x3c874719	0.016513394
255	0x3e11cf07	0.14239131

lstm.weight_hh_l1 f4 [256, 64]
0	0xbe14c904	-0.14529806
1	0x3d4f517c	0.05061482
2	0xbdf23855	-0.11827151
3	0xbd38aae9	-0.045084868
4	0x3d59a985	0.053140182
5	0xbda1de36	-0.079037115
6	0xbd2bb1d7	-0.04191765
7	0xbc13540f	-0.008992209
8	0xbd00ff4d	-0.031493474
9	0xbe1f19e5	-0.15537222
10	0xbdf5dc71	-0.120049365
11	0x3e04ccec	0.12968796
12	0xbd611650	-0.05495292
13	0x3da33808	0.079696715
14	0x3e06262a	0.13100496
15	0x3d160030	0.036621273
16	0x3dcdba4e	0.100453004
17	0xbd454141	-0.048157934
18	0xbd986dd7	-0.07442825
19	0x3d5e667e	0.054296963
20	0x3d062711	0.0327521
21	0x3d520e20	0.051283002
22	0xbd31c414	-0.043399885
23	0xbdb1501a	-0.08657856
24	0x3e158503	0.14601521
25	0x3e248781	0.16067316
26	0xbd8cdb7b	-0.068778
27	0x3db81c14	0.089897305
28	0xbd259168	-0.040421873
29	0xbd6d6cf1	-0.057965223
30	0x3cf7f1cf	0.03026667
31	0xbd80523f	-0.06265687
32	0xbd175272	-0.03694386
33	0xbd8cfeb7	-0.068845205
34	0x3d8fb668	0.07017213
35	0xbdc57343	-0.09641125
36	0xbe09c2a5	-0.13453157
37	0xbca35f6d	-0.019942963
38	0x3dad1554	0.08451334
39	0x3e15cdec	0.14629334
40	0x3cbf79bf	0.023373483
41	0xbda270d2	-0.07931675
42	0x3dd6f813	0.10496535
43	0xbce87260	-0.02837485
44	0xbd72820d	-0.059206057
45	0xbdadb887	-0.084824614
46	0xbe1d092f	-0.15335535
47	0xbd9baad8	-0.07600945
48	0x3db42fe3	0.08798196
49	0x3e16d4a9	0.14729561
50	0xbe06be32	-0.13158491
51	0x3daac19c	0.08337709
52	0x3d8b30ad	0.067963935
53	0xbd281a99	-0.04104099
54	0x3be3e496	0.00695474
55	0xbdd6509f	-0.10464596
56	0xbd3db2f4	-0.04631324
57	0x3d8abe7a	0.06774612
58	0x3da9f0c1	0.08297873
59	0x3da76982	0.08174421
60	0xbd7a8d02	-0.06116963
61	0xbc8ade3d	-0.016951675
62	0x3d932080	0.07183933
63	0xbe1760c7	-0.14783011
64	0xbdf886ea	-0.12135108
65	0x3cc0fa92	0.023556981
66	0x3d3c0a1f	0.04590809
67	0x3d00a7e8	0.031410128
68	0xbcb75cde	-0.02238315
69	0x3dbebf62	0.09313847
70	0x3d2d354e	0.042287163
71	0xbdc9557a	-0.098307565
72	0xbc106e50	-0.008815363
73	0xbe1d2e7a	-0.1534976
74	0xbd46035f	-0.04834306
75	0x3e0b84d2	0.13624886
76	0xbdb2f0e4	-0.087373525
77	0xbd84a52d	-0.06476817
78	0x3c9d7e49	0.019225257
79	0x3d9c5053	0.07632508
80	0x3e235be0	0.15953016
81	0x3db659df	0.0890386
82	0x3dd23b9c	0.10265276
83	0x3d928e18	0.071560085
84	0x3d19b9be	0.037530653
85	0xbd0a137d	-0.03370999
86	0xbd1733b3	-0.03691454
87	0x3d35cc03	0.044384014
88	0x3c43ac7d	0.01194298
89	0xbd8ee619	-0.069774814
90	0x3d85981d	0.06523154
91	0xbd6dd382	-0.058063038
92	0x3d8a2d65	0.067469396
93	0x3dabd1c0	0.08389616
94	0x3e13ccf1	0.14433648
95	0x3d056838	0.032570094
96	0xbcdc985c	-0.02692812
97	0xbc3bed1d	-0.011470106
98	0xbda6324a	-0.081150606
99	0xbde6bbbd	-0.11266277
100	0x3dab2c24	0.083580285
101	0xbe1ee5f0	-0.15517402
102	0xbc8f8a3b	-0.017521968
103	0xbc31b7c8	-0.0108470395
104	0x3cbbaa8b	0.02290847
105	0xbccb106c	-0.024788104
106	0x3dc6a651	0.09699691
107	0xbd9ae7b2	-0.075637236
108	0xbcbff41d	-0.023431832
109	0x3d807b5b	0.06273528
110	0xbcd5693d	-0.026051158
111	0x3db50cc8	0.088403285
112	0xbd31ab66	-0.04337635
113	0x3df8c674	0.12147227
114	0xbc67228e	-0.01410736
115	0x3e0c33f4	0.13691694
116	0x3bd8dc3b	0.0066180504
117	0x3d159dbd	0.036527384
118	0x3d55b88f	0.052177962
119	0xbdc970b9	-0.09835953
120	0x3d5520c4	0.0520332
121	0xbde21eb5	-0.11041013
122	0x3d054dd5	0.03254493
123	0x3e1844fb	0.14870064
124	0xbd8ba779	-0.06819052
125	0x3c9565df	0.018237052
126	0x3d9ddfce	0.07708703
127	0xbd17b828	-0.03704086
128	0xbd39354f	-0.045216855
129	0xbd9658bc	-0.073411435
130	0x3d6ef930	0.058343112
131	0x3c752b5c	0.014963951
132	0x3e18e2b0	0.14930224
133	0x3dd8ed79	0.10592169
134	0x3d5832c0	0.052782774
135	0x3d37c9b3	0.04487009
136	0xbcc1fc1a	-0.023679782
137	0xbdde2fab	-0.10848936
138	0x3d98554a	0.074381426
139	0xbd4e3172	-0.050340123
140	0x3d0b0735	0.03394242
141	0xbd9aefb4	-0.07565251
142	0xbdab8914	-0.08375755
143	0x3d414a1f	0.047189828
144	0xbcc4dcf6	-0.024031144
145	0xbd4fa147	-0.050690915
146	0xbd46769b	-0.048452955
147	0x3da8ceeb	0.082425915
148	0xbd13c743	-0.036078703
149	0x3d838f57	0.06423824
150	0xbd39924c	-0.045305535
151	0xbd9fdc52	-0.07805695
152	0x3e00a2f9	0.12562169
153	0x3e0c7a63	0.13718562
154	0x3d05711f	0.032578584
155	0xbd9631d0	-0.0733372
156	0x3e1eac75	0.15495475
157	0xbdf33a83	-0.118763946
158	0xbcbc23c9	-0.022966282
159	0x3e00545a	0.12532178
160	0x3b54bd0e	0.0032461318
161	0xbd23e9bd	-0.040017832
162	0x3d08a980	0.033364773
163	0x3c5780c5	0.01315326
164	0x3daf5b32	0.08562316
165	0x3d8f3832	0.0699314
166	0xbbe13881	-0.006873191
167	0x3e145a48	0.14487565
168	0xbe189c93	-0.14903478
169	0xbd18e3bb	-0.037326556
170	0xbd504ea5	-0.05085625
171	0xbccec139	-0.02523862
172	0x3e1c89b5	0.15286906
173	0xbc8ca175	-0.017166832
174	0xbd43cc5f	-0.047802325
175	0xbd047d97	-0.032346334
176	0xbc3bc69a	-0.0114609245
177	0xbba39f31	-0.0049933423
178	0x3d9fbd3b	0.07799765
179	0xbd209ce7	-0.039212134
180	0x3d977d09	0.073968954
181	0x3d3c1ad0	0.045924008
182	0x3e25726d	0.16156931
183	0xbdab5ce1	-0.083673246
184	0x3b465c10	0.0030267276
185	0xbddd5e86	-0.108090445
186	0xbd62f169	-0.055406008
187	0xbd2c7296	-0.042101465
188	0xbde90fe6	-0.113799855
189	0x3cd6d912	0.026226554
190	0x3d57e082	0.05270434
191	0x3ca6999c	0.020336919
192	0x3bdd93f0	0.0067620203
193	0xbdcadd69	-0.09905512
194	0xbe18850a	-0.148945
195	0xbdb3af06	-0.087736174
196	0x3ca97570	0.020685881
197	0x3d169e23	0.036771905
198	0x3d90409c	0.07043573
199	0x3e0730ef	0.1320226
200	0x3e161078	0.1465472
201	0x3da354a2	0.07975127
202	0x3d9ac21c	0.07556555
203	0x3cd03ce7	0.025419666
204	0x3d8d22cd	0.06891403
205	0x3c0ebb2a	0.008711616
206	0xbd9a2794	-0.0752708
207	0x3d93fd91	0.07226098
208	0x3e1a2f98	0.15057218
209	0xbcf68971	-0.030094834
210	0x3df3651e	0.11884521
211	0xbdc7227f	-0.097233765
212	0xbde90e6c	-0.11379704
213	0x3dfdb25e	0.123875365
214	0xbd9af33a	-0.07565923
215	0x3c569a7c	0.013098355
216	0x3db79c32	0.08965339
217	0x3deda8fb	0.11604496
218	0xbcedc51d	-0.029024655
219	0xbdb96229	-0.09051926
220	0x3e178fc7	0.1480094
221	0xbd344f30	-0.04402083
222	0x3dbb4355	0.09143702
223	0x3cc5b38d	0.024133468
224	0xbdd30636	-0.10303919
225	0xbe15f3c8	-0.14643776
226	0x3d9eaa5b	0.077473365
227	0xbe1b35c9	-0.15157236
228	0xbddffb1f	-0.109365694
229	0x3d86a801	0.06575013
230	0xbc1e312f	-0.009655281
231	0x3cd28c06	0.025701534
232	0xbdd4a93c	-0.103838414
233	0xbdbd0456	-0.09229343
234	0x39ff4de1	0.00048695414
235	0x3db6b787	0.08921724
236	0x3d9b4afb	0.07582661
237	0x3cd4753b	0.025934806
238	0x3d951bbb	0.0728068
239	0xbb3ba249	-0.0028630665
240	0x3bc12161	0.0058938717
241	0xbd56f004	-0.05247499
242	0xbd2d1580	-0.042256832
243	0x3dab649e	0.083688006
244	0x3d793f14	0.06085117
245	0x3e04d2aa	0.12970987
246	0x3e0858d5	0.13315137
247	0x3d174c6b	0.036938112
248	0xbdbb1479	-0.09134764
249	0xbda58b90	-0.0808326
250	0x3d09c2ef	0.03363317
251	0x3e05c68a	0.13064018
252	0xbd0da2da	-0.034579135
253	0xbd3f00eb	-0.046631735
254	0x3d8c9bf3	0.068656825
255	0xbcda704d	-0.026664877

lstm.bias_ih_l1 f4 [256]
0	0x3d939823	0.07206752
1	0xbd94ec72	-0.07271661
2	0x3d0232e4	0.031786814
3	0x3d9158ae	0.070969924
4	0xbc86aa1e	-0.01643854
5	0x3d871e95	0.0659763
6	0xbc5cf0d2	-0.01348515
7	0xbdb4a836	-0.08821146
8	0xbd9ec48b	-0.07752331
9	0x3d04e032	0.03244037
10	0xbd967e80	-0.07348347
11	0x3e001a6d	0.1251008
12	0x3d92c154	0.07165781
13	0x3e0e5c72	0.13902453
14	0xba99c52c	-0.0011731735
15	0x3de1adaf	0.11019456
16	0xbd97a5bc	-0.07404658
17	0x3da29fd1	0.07940639
18	0x3d9dbc7b	0.077019654
19	0x3d3b55e9	0.045736227
20	0xbcc04c4b	-0.02347388
21	0xbd0692eb	-0.032854956
22	0xbca84c6a	-0.02054425
23	0x3e11b91e	0.14230773
24	0x3d720582	0.059087284
25	0xbc4951e8	-0.012287594
26	0xbca6aad7	-0.020345135
27	0x3ce25d1c	0.027632289
28	0x3da671ed	0.08127198
29	0x3e17cb6d	0.14823695
30	0x3dd4ed1a	0.10396786
31	0x3e0d8acc	0.13822478
32	0xbc6d663b	-0.014489706
33	0x3d88ad14	0.06673637
34	0x3df9ae6f	0.12191474
35	0x3df4445c	0.11927101
36	0x3d56b2b2	0.05241651
37	0x3df87b0b	0.121328436
38	0xbd51182e	-0.05104845
39	0xbdd5220c	-0.104068846
40	0x3d76d750	0.06026393
41	0x3dbd8470	0.09253776
42	0x3dde3b91	0.10851205
43	0xbe000725	-0.12502725
44	0x3e12a6ee	0.14321491
45	0xbd8e0b67	-0.069357686
46	0x3e0f9095	0.14019997
47	0xbccc0c6c	-0.024908267
48	0x3e1e791d	0.15475889
49	0x3dc44777	0.09583943
50	0x3dd9d14d	0.10635624
51	0x3d1b3c18	0.037899107
52	0xbdb44b25	-0.08803395
53	0xbda5b663	-0.08091428
54	0xbd936fe6	-0.07199077
55	0xbccce1b0	-0.02500996
56	0xbc013a55	-0.007887443
57	0x3d8e07b1	0.06935061
58	0xbd9fdc15	-0.07805649
59	0xbd6f8f0a	-0.058486022
60	0x3c8ae900	0.016956806
61	0xbbc2ea96	-0.005948375
62	0x3c707715	0.014676829
63	0xbda36c8d	-0.07979689
64	0xbda5bb72	-0.08092393
65	0xbd914e28	-0.07094985
66	0xbcb8d570	-0.022562712
67	0x3c2fa60f	0.010720744
68	0xbd827ebe	-0.063718304
69	0xbda1454d	-0.07874546
70	0x3c0bc196	0.008530041
71	0x3e1e16c1	0.15438367
72	0x3de02e64	0.10946348
73	0x3cabb3f8	0.02095984
74	0xbd6654c7	-0.056233194
75	0x3d3d2a7d	0.046183098
76	0xbdb823f3	-0.08991232
77	0xbd9615a4	-0.07328346
78	0x3d4856b6	0.04891082
79	0x3d627f9a	0.05529747
80	0xbca3c986	-0.019993555
81	0x3d11f879	0.035637353
82	0x3caddff8	0.02122496
83	0x3b127156	0.0022345386
84	0x3d8a55a3	0.06754615
85	0x3da4ec36	0.08052866
86	0xbd3dbebb	-0.046324473
87	0x3ce1cd8b	0.02756383
88	0xbda9664b	-0.08271464
89	0xbd272f8f	-0.04081684
90	0xbdd30930	-0.10304487
91	0xbd98a628	-0.07453567
92	0xbd303861	-0.043022517
93	0x3cfd8791	0.030948432
94	0x3ca294b1	0.019846292
95	0x3d587c6c	0.052853033
96	0x3e02b94d	0.12765999
97	0x3d763a0d	0.060113955
98	0x3d0ef56b	0.034902018
99	0x3d720d1f	0.059094545
100	0xbcd45161	-0.02591771
101	0x3b993bf1	0.004676335
102	0x3d7e288d	0.06205039
103	0x3e0066c2	0.12539199
104	0x3e0986ea	0.13430372
105	0xbdb92725	-0.09040669
106	0x3d2f5b52	0.0428117
107	0x3d977122	0.07394625
108	0x3d5ffa54	0.05468209
109	0xbda53125	-0.08066014
110	0x3e036332	0.12830809
111	0xbd8b9789	-0.068160124
112	0xbd45e019	-0.04830942
113	0xbd56991e	-0.052392118
114	0x3e160378	0.1464976
115	0x3e0c3a96	0.13694224
116	0xbb275d46	-0.0025537773
117	0x3d8eef4c	0.06979236
118	0x3d9334f1	0.07187832
119	0xbdd2a534	-0.10285416
120	0xbd245367	-0.0401186
121	0xbc8e49e5	-0.01736922
122	0x3d13b37c	0.03605984
123	0x3ba67c7d	0.005080758
124	0x3dfa7608	0.12229544
125	0xbd557d9b	-0.05212174
126	0xbcccee5c	-0.025016002
127	0x3d27a365	0.04092731
128	0xbd2c3d00	-0.04205036
129	0xbd63386b	-0.055473726
130	0xbdc68a9e	-0.09694408
131	0x3dc3e5ff	0.09565353
132	0x3dc67f95	0.09692303
133	0x3d456e76	0.048201047
134	0xbcc9b3b2	-0.024621818
135	0x3e1e330c	0.1544916
136	0x3d3133ec	0.043262407
137	0xbd9f7f0f	-0.077879064
138	0xbddef05f	-0.10885691
139	0x3db6de1a	0.08929081
140	0xbd50d92f	-0.050988372
141	0x3d5c9e85	0.053862114
142	0xbb14a4e8	-0.00226813
143	0x3d9ee70e	0.07758914
144	0x3dc22344	0.09479383
145	0x3dfb8477	0.12281125
146	0x3ca926a7	0.020648314
147	0xbdb30e0e	-0.08742915
148	0xbc84d328	-0.016213968
149	0xbd2a77b2	-0.041618057
150	0x3d890b37	0.06691592
151	0xbd2d9f98	-0.04238853
152	0x3c822750	0.015887886
153	0x3e18e49a	0.14930955
154	0xbd8c3ba2	-0.068473116
155	0x3e026724	0.12734658
156	0x3da0ded1	0.07854999
157	0xbddf4b9c	-0.10903093
158	0x3df9c31a	0.12195416
159	0xbbb531b7	-0.005529608
160	0xbe093318	-0.13398397
161	0xbd85cef5	-0.065336145
162	0xbcd9b7fb	-0.026576987
163	0xbdf481ef	-0.11938845
164	0xbcbdd64b	-0.023173472
165	0x3d567c5a	0.052364685
166	0xbe059b45	-0.13047512
167	0x3d99d621	0.07511545
168	0x3b3928d1	0.0028253088
169	0x3e0d7ee2	0.13817933
170	0x3e1e0b75	0.15434058
171	0xbc42e9ee	-0.0118965935
172	0xbc141436	-0.009038022
173	0xbe1fa40a	-0.1558992
174	0xbdc4bc0b	-0.09606179
175	0xbc1e0aa0	-0.009646088
176	0x3de189a6	0.110125825
177	0x3e0610a6	0.13092288
178	0x3ccd110e	0.025032546
179	0x3c97aa22	0.018513743
180	0x3d6d7178	0.05796954
181	0x3dc1180a	0.09428413
182	0x3e04a0e3	0.12951998
183	0x3d4a133f	0.04933476
184	0xbd2bcc2f	-0.04194277
185	0xbdb73ecc	-0.089475244
186	0xbd5b89fa	-0.05359838
187	0x3cd9b834	0.026577093
188	0xbe19de78	-0.15026271
189	0x3df06d8d	0.11739645
190	0x3dea5ee6	0.11443882
191	0x3d9eb3dd	0.0774915
192	0x3dc0613d	0.09393547
193	0x3e293320	0.16523409
194	0x3d230606	0.039800666
195	0x3c7dcca6	0.0154906865
196	0x3d5c78bf	0.05382609
197	0x3da3e3c9	0.08002431
198	0x3d83d9cc	0.06438026
199	0x3d0ce07b	0.03439377
200	0x3cd22204	0.025650986
201	0xbd08bc17	-0.0333825
202	0x3d379fab	0.044830006
203	0x3dc9d0d4	0.09854284
204	0x3cb62ed7	0.022239132
205	0xbdd7c9fb	-0.105365716
206	0x3cea4ecb	0.028602025
207	0xbb8c4b4c	-0.004281437
208	0x3e0a3c96	0.13499674
209	0x3e003dd9	0.12523593
210	0xbd506578	-0.05087802
211	0x3dbce348	0.09223038
212	0x3d980124	0.074220926
213	0xbd865b2e	-0.0656036
214	0xbbe45324	-0.006967919
215	0x3d5f20e2	0.05447472
216	0x3dc80715	0.09766976
217	0xbb6604d9	-0.0035098104
218	0x3d7079c6	0.058709882
219	0x3d95aa52	0.07307877
220	0xbd6838a2	-0.056694634
221	0x3c3c7444	0.011502329
222	0x3d82073f	0.06349038
223	0x3dcc789d	0.09983943
224	0x3d86a2c6	0.06574015
225	0xbb165af3	-0.0022942394
226	0x3bea0992	0.007142254
227	0x3da18e59	0.07888479
228	0x3dc5bff3	0.09655752
229	0xbc33945f	-0.010960667
230	0x3e23ac32	0.15983656
231	0x3d3dc941	0.04633451
232	0xbd81eacd	-0.06343613
233	0x3cd93081	0.026512386
234	0x3cf2fb95	0.02966098
235	0xbd5bfec8	-0.053709775
236	0x3d4aecf4	0.049542382
237	0x3bf57ed3	0.0074919253
238	0xbc4051a0	-0.011738211
239	0x3dd9bcbb	0.106317006
240	0x3e002e47	0.12517653
241	0xbcfa9111	-0.030586751
242	0x3d4a5b19	0.049403284
243	0x3da2529f	0.07925915
244	0x3d1690f5	0.036759336
245	0x3d07ad37	0.033124175
246	0x3c884903	0.016636377
247	0x3c960541	0.018313052
248	0xbd688a23	-0.056772362
249	0x3e28a449	0.1646892
250	0x3e28c6b4	0.16482049
251	0x3df5de5a	0.12005301
252	0xbc30a045	-0.010780399
253	0xbbcf4352	-0.006325164
254	0x3d9ced2b	0.07662424
255	0x3dd5afa2	0.1043389
