fault_model_nn_two_year_global/best_Y2020.pt (torch, 235573 bytes, 14 tensors)

lstm.weight_ih_l0 f4 [256, 3]
000000 df 6e 0d 3e 16 3f 7b 3d 1e b0 1b 3c d0 5a f5 3d
       0.13811825 0.06133946 0.009502439 0.11980212
000010 18 27 7e 3c b7 2c 90 bc 1f 24 9b bc 8d 31 02 3d
       0.01551225 -0.017599447 -0.018938122 0.031785537
000020 75 7a 1a 3e 3a 57 4c bd 60 cf 8a 3d c0 34 6e 3d
       0.15085776 -0.049887873 0.06777835 0.058155775
000030 b4 df 09 3e 51 9f cb bc 58 f0 9d 3c 41 5b 4e 3b
       0.13464242 -0.024856241 0.019279644 0.0031487497
000040 3c f8 9a 3d 5e ee 09 3d 99 55 bf bc 57 f0 8b 3b
       0.07566878 0.03367459 -0.023356246 0.004270594
000050 47 d8 bf bd ef 28 e5 3c e7 6b be bd 98 3e 27 3d
       -0.093674235 0.02797362 -0.092979245 0.04083118
000060 e0 cb b0 bd 2d af 9b bd bd ae 47 bc 74 51 0c bd
       -0.08632636 -0.076017715 -0.012187657 -0.034257367
000070 7d d1 f1 bc 31 a2 23 be 21 41 19 3e 6c c0 0f be
       -0.029518837 -0.1597984 0.14966251 -0.14038247
000080 56 2e f5 3d 15 0c 61 3d 2a 0f 0c bc 0e 16 ad 3d
       0.119717285 0.054943163 -0.008548537 0.08451472
000090 af cb 63 3d b0 fb 88 3d d0 5a a0 bc 17 68 2a 3b
       0.05561417 0.066886306 -0.019574553 0.0026001984
0000a0 6c cf 04 bc 34 d0 73 bd 5d ec b4 3d 8f c1 cb 3d
       -0.008106094 -0.05952473 0.08834145 0.09949028
0000b0 ea 12 de 3d 45 e1 99 bc 98 f2 08 3d 54 58 83 3c
       0.10843451 -0.018784175 0.03343448 0.01603333
0000c0 e0 06 d3 3d eb 61 e0 bd ba 71 23 be 0c bb 82 bc
       0.10304046 -0.10956176 -0.15961352 -0.015958332
0000d0 35 91 89 bd 44 93 87 3d 7b aa 34 3d 45 ff 0a 3d
       -0.06717149 0.066198856 0.044107895 0.03393485
0000e0 46 d0 dd 3c 90 0c d0 3c d7 a3 93 3d 7f cc 70 bd
       0.027076852 0.025396615 0.07208984 -0.058788773
0000f0 ff 69 f0 3c 3e 49 e2 bd 2f 69 c6 3c be 4a 0d bd
       0.029347418 -0.11049126 0.024220077 -0.034495108
000100 f0 09 2e bc a7 6d cc 3c ff b6 16 3e 75 86 ec bd
       -0.0106224865 0.02495463 0.14718245 -0.11549083
000110 59 c5 12 bd 67 52 05 bd 90 31 8f 3d fd dd b5 3d
       -0.035832737 -0.032549288 0.06991875 0.088802315
000120 b1 26 11 3e a5 14 ec bd fb c7 b1 bd 07 c4 54 bd
       0.14174916 -0.11527375 -0.08680721 -0.05194476
000130 eb 86 03 be 3f f2 9c 3d bc 56 b3 3d d8 fa 79 3d
       -0.12844436 0.07663392 0.08756778 0.06103024
000140 b1 f6 aa bc 49 10 42 bd 3b e8 f7 3c ac 0b 71 bd
       -0.020869585 -0.047378812 0.030262103 -0.05884902
000150 f6 71 f2 3d 8b ad 91 bd 8c e0 10 3d a1 3c 91 bd
       0.118381426 -0.07113179 0.035370395 -0.07091642
000160 4a d8 bd bd 9e 22 94 3d c3 6f 8e 3d 51 71 98 bd
       -0.092697695 0.07233165 0.069549106 -0.074434884
000170 a8 2a d1 3d 1e 29 fb 3d da 73 09 be 7f 48 02 bd
       0.10213214 0.12263702 -0.134231 -0.03180742
000180 8d f0 0f 3e 0b a4 eb bc ee de 81 bc 38 04 a8 bd
       0.14056607 -0.028764745 -0.015853371 -0.0820393
000190 ae 6b de bd de 93 87 3c 13 1b c4 3c ac a8 05 be
       -0.10860382 0.01655 0.023938691 -0.13052624
0001a0 43 78 ea bc 8e 2a 37 bd a8 ba 17 be bf cf df bd
       -0.028621798 -0.044718318 -0.14817297 -0.10928296
0001b0 6e ff 16 be 83 f9 1f bd d3 ea 1a 3e f9 26 62 3d
       -0.14745876 -0.039056312 0.15128641 0.05521295
0001c0 9d e1 b7 3b 88 0c 1a be a5 aa 6a bd 2a a9 a8 bd
       0.005611612 -0.15043843 -0.057291646 -0.082353905
0001d0 02 dd 26 bb 00 46 a2 bd e1 65 ac bd 82 8a d9 bd
       -0.002546132 -0.07923508 -0.08417869 -0.106221214
0001e0 c9 20 c0 3c 85 a5 98 bd ac 05 ee bc f9 e5 32 bd
       0.023453133 -0.07453445 -0.029055439 -0.04367635
0001f0 87 14 f5 bd f0 6a 14 bd 21 1a 9c bb 79 88 08 be
       -0.11966806 -0.036234796 -0.004763857 -0.1333331
000200 f0 b1 f9 3d dd 2b 66 3c 5c e8 b8 3d 06 89 a4 3d
       0.12192142 0.014048544 0.09028694 0.08033948
000210 64 8c 89 bd f1 cb b5 3d 42 b3 85 bd 2d 21 d1 bb
       -0.067162305 0.08876789 -0.06528331 -0.0063821287
000220 fb 65 17 be dc cd a4 bd 4c 4a 9f 3d a7 4f 8f bd
       -0.14784996 -0.08047077 0.07777843 -0.06997614
000230 2c 9b b5 3d e3 55 b2 bd ee 12 86 3d 36 b3 4d bd
       0.08867487 -0.08707788 0.06546579 -0.050219737
000240 08 bb 4e b9 f3 59 5f 3d d6 57 3a 3d 4d ab 14 3e
       -0.00019715365 0.05452914 0.045493923 0.14518471
000250 3e 63 91 3d 17 19 0b be a4 4d 75 3d 69 62 ab bd
       0.07099007 -0.1358379 0.059888497 -0.083683796
000260 dd bb 7c 3c c7 f6 74 bd f1 4c f1 3d 45 20 e9 bd
       0.0154256495 -0.059805658 0.117822535 -0.11383108
000270 90 f4 cd 3d 00 8d 46 3c 38 06 c0 3b dd ca de bc
       0.10056412 0.012118578 0.0058601163 -0.027196342
000280 6e c3 a0 3d 76 47 53 3d 8d 61 6a 3d 3e 03 1b be
       0.07849775 0.051581822 0.057221938 -0.15137956
000290 59 9e a0 3d db b8 52 3c 45 74 b8 bd 22 1f 0a 3e
       0.078427024 0.012861456 -0.09006552 0.13488439
0002a0 3b 17 8b 3d 94 a4 df bd 0d 49 99 bd be 2f 0d 3d
       0.0679154 -0.10920063 -0.074846365 0.03446936
0002b0 e3 e1 e7 3c 06 fd f9 bb 7c 23 77 bd 7f 8a ae bd
       0.028305953 -0.0076290397 -0.060336575 -0.0852251
0002c0 0a 29 0c be a7 51 b0 3d 52 c1 5a 3d 61 d6 1c be
       -0.1368753 0.08609324 0.05340702 -0.15316154
0002d0 eb 31 5a 3d 52 b3 a3 3c 9c 21 47 bc 14 b8 82 bb
       0.05327026 0.019982968 -0.012154009 -0.003989229
0002e0 12 b7 a2 3d d2 88 d4 3d 77 11 f0 3c 52 a0 5e bd
       0.07945074 0.10377659 0.029305203 -0.054352112
0002f0 46 12 77 bd 8a 27 22 3d ae 2f df bc 98 bd 0a bd
       -0.06032016 0.03958849 -0.027244415 -0.033872217
000300 21 c6 fc 3d 66 cc 87 3d d8 90 cd 3c e0 fd 06 bd
       0.123424776 0.06630783 0.025093481 -0.032956958
000310 7b 44 07 3d a1 c4 4d bd 09 fa 92 3d 23 9a 2b bc
       0.033024292 -0.050236348 0.07176597 -0.010473761
000320 27 b8 92 bd 84 9b 72 bb 28 f9 81 3d b7 c0 ab 3d
       -0.071640305 -0.0037018964 0.06346351 0.08386367
000330 4c 8d 1a 3d 0c 6c f2 bd 29 0c f4 bc ab 4e b4 bd
       0.037732407 -0.118370146 -0.029790955 -0.08804067
000340 ff f9 80 bd be ed 73 3d 5c 5a eb 3d 0d 34 d4 3c
       -0.06297683 0.0595529 0.11491844 0.025903726
000350 96 24 08 be ae 5c fa bc 13 3e 80 bd 6c dd 27 3e
       -0.13295206 -0.030561771 -0.0626184 0.1639306
000360 e0 4f 00 3d 15 1e 5e bd ed 0f 9d 3d e2 d4 07 bc
       0.031326175 -0.054227907 0.07669053 -0.008290501
000370 81 b7 fb bd 27 64 d7 3d be 77 83 bc a9 e7 81 bd
       -0.1229086 0.105171494 -0.016048308 -0.06343014
000380 bf ee 98 bd c0 a9 fa 3d d2 fc f6 3d 12 cc 36 3c
       -0.07467412 0.122394085 0.120599404 0.011157053
000390 50 cc 54 bd 7d 63 22 be f7 08 a7 bd 69 62 0b 3e
       -0.05195266 -0.15858264 -0.08156007 0.13611759
0003a0 63 73 92 3c f3 7e 13 3e 72 11 d1 3d ad c4 b4 3c
       0.017877286 0.14403896 0.102084056 0.022066439
0003b0 df 27 87 3c 00 28 71 bd 50 e4 14 be d9 9e 0f be
       0.016498504 -0.058876038 -0.1454022 -0.1402544
0003c0 e4 c9 bf 3d 79 ea d1 bd 57 c3 6b bd d2 7a 3a bd
       0.093646795 -0.102498 -0.057559337 -0.045527287
0003d0 d1 9c d7 bc e5 a7 e0 bd d6 b0 bb bd b9 24 b7 3c
       -0.026319893 -0.10969523 -0.09164588 0.022356378
0003e0 da 98 6e bd 6c 68 be 3d dd 87 4c bd 72 3c 76 bd
       -0.05825124 0.09297261 -0.049934257 -0.06011624
0003f0 0e 4d a8 bc 77 00 a8 bd 7e d7 95 bd ee f0 d7 bd
       -0.020544555 -0.08203214 -0.073164925 -0.105440006

lstm.weight_hh_l0 f4 [256, 64]
000000 1d 0b 00 be e1 9a 2d 3e 4f 8f bd 3d 0e e7 a7 3b
       -0.1250424 0.16953613 0.092558496 0.0051239794
000010 ed 00 f5 bd 23 fd 12 bc 01 09 dd 3c e6 34 b8 3c
       -0.11963067 -0.008971485 0.026981832 0.022486161
000020 84 8a 06 be c5 c1 0f bd 26 f3 6d 3d 2d c6 7a bd
       -0.13138777 -0.035096902 0.058093213 -0.06122415
000030 f2 be 80 3d 56 d0 c1 bd 45 0d d1 3c 21 04 bc 3d
       0.0628642 -0.09463565 0.025519023 0.09180475
000040 03 58 af bc e9 07 23 be 81 c4 ad 3d 6c b3 23 3d
       -0.021404272 -0.15920986 0.08484746 0.039966032
000050 62 14 89 bc 84 01 ad 3d b4 1c 39 bc 45 dd 04 3e
       -0.016733352 0.08447555 -0.011298347 0.12975033
000060 ab c2 ac 3d 83 0f 73 bd 66 fa 00 3e b4 dd 8d bd
       0.084355675 -0.059340965 0.1259552 -0.06927052
000070 0a 99 ea bd 0a 90 c5 3c 17 74 21 bd 39 97 2a 3e
       -0.11454971 0.024116535 -0.039417353 0.1665925
000080 cc c8 90 bd e7 19 c2 3d e2 6f 20 be ef 0c db 3c
       -0.07069549 0.09477597 -0.1566768 0.026739566
000090 22 e4 3c bc 77 84 0f be 0f 4e 7b 3d 03 cd 77 3c
       -0.0115290005 -0.14015375 0.06135374 0.015124562
0000a0 77 2c 80 3d 83 68 f8 bd e3 b5 d8 bd 24 df 47 bc
       0.06258481 -0.12129309 -0.10581567 -0.012199197
0000b0 88 d8 27 bc 74 bc b1 3d c8 10 d6 3d e4 4d 36 3b
       -0.010244496 0.08678523 0.104524195 0.0027817423
0000c0 25 8e 33 3d 4e 2b 42 3d 67 9c a0 bd e8 b8 33 3d
       0.04383673 0.04740458 -0.078423314 0.043877512
0000d0 4c 15 da 3d 9d 90 1e 3e 9e 67 ed bd 56 9b 86 bc
       0.10648593 0.15484853 -0.11592029 -0.016431492
0000e0 4d 44 a6 bd 07 b4 20 bd 12 2f f2 3c 76 c1 da bc
       -0.08118496 -0.039234187 0.02956346 -0.026703577
0000f0 f1 8b da 3d 98 4f 2f bd 66 1d f9 3d fe da 14 3b
       0.10671223 -0.042800516 0.121638104 0.0022713537
000100 92 86 03 be fa ba 68 bd 87 38 92 bd d9 89 3b 3d
       -0.12844303 -0.05681894 -0.07139688 0.04578576
000110 b4 b8 d2 bd 25 f7 06 3b d3 1e 37 3d 0c 68 59 bd
       -0.102891356 0.0020594087 0.04470713 -0.053077742
000120 19 7e a6 3c 41 52 0e be 94 a3 a2 bd 50 92 04 be
       0.0203238 -0.13898565 -0.07941356 -0.12946439
000130 8b 47 a2 bc b6 c7 82 bd cd 8a a2 bb 1a 81 89 bb
       -0.019809505 -0.06385748 -0.004960394 -0.0041962983
000140 66 4a a5 3d bc 3f c1 3d b6 46 b6 3d b0 d2 30 bc
       0.08070831 0.094359845 0.08900206 -0.010792419
000150 fe 6d 0f be 5e a0 2a 3d b3 b8 40 bd 59 28 a7 3d
       -0.14006802 0.041656844 -0.047051143 0.081619926
000160 99 0a f9 3d ac 71 87 3d 4f 4e 0b 3e 09 67 08 3e
       0.121602245 0.06613478 0.13604091 0.13320555
000170 70 76 48 3c 90 c5 99 bd d2 24 05 3e 41 5d 20 bd
       0.012235269 -0.07508385 0.13002327 -0.039151434
000180 f5 53 a1 bd 50 50 fa 3d 85 b7 9a 3d 5f 7c ae 3c
       -0.07877342 0.1222235 0.07554535 0.02129954
000190 84 d4 3a 3c 4d b1 d5 bd fa 55 98 3c ea 6a cf 3d
       0.011403207 -0.10434208 0.018595684 0.10127814
0001a0 9a a2 73 3c d2 ec c7 bb 7a 75 35 bd 3a 0a 82 bd
       0.01487031 -0.006101229 -0.044301488 -0.06349607
0001b0 63 45 66 3d e9 c4 2f 3d 74 03 cd 3d eb 18 88 3c
       0.056218516 0.042912398 0.10010424 0.016613444
0001c0 3b bc 34 3d db 51 05 3d 3e f2 37 3a 79 1e 76 3d
       0.044124823 0.032548767 0.0007016993 0.060087655
0001d0 bf 86 c2 3d 49 9d 07 3e 3b 77 a0 3d aa bd 3e bc
       0.09498357 0.13243593 0.078352414 -0.011641899
0001e0 fa 1b fd bd 5a 4a 40 3c 2a 18 c2 3c 68 71 5f bc
       -0.12358852 0.011736477 0.023693163 -0.013637878
0001f0 ee 60 86 bb 0c c8 22 bd 20 0e 4f 3d 34 1e a9 3d
       -0.0041009104 -0.03974156 0.05055058 0.08257714
000200 90 f9 b3 bd 03 25 f2 bb cc bf 51 3c 9e ed bb bd
       -0.08787835 -0.007389666 0.012802076 -0.09176181
000210 4f 41 8d 3d 04 1c e1 3d c8 8c 21 3e e2 54 35 3d
       0.06897222 0.10991672 0.1577636 0.044270404
000220 2a 41 8c bc 21 5a 6a b9 3a 4f 98 bd d1 ed 01 bd
       -0.017120916 -0.00022349555 -0.07436986 -0.03172094
000230 14 59 0e 3d ef b4 e8 bd 99 bd da bd 07 0a 1d 3e
       0.03475292 -0.11362635 -0.10680694 0.15335856
000240 d1 4c 13 3e ae 2c ce 3c ce a6 0e 3e af 18 b2 bc
       0.14384772 0.02516779 0.13930818 -0.021740286
000250 38 f8 b3 3c ad 00 55 3c d4 11 bc 3c 24 7e 9d 3c
       0.021968946 0.013000649 0.02295772 0.019225188
000260 a1 c3 a6 bd b9 19 9f 3d e3 fe 00 bd 8d 31 45 3d
       -0.08142782 0.07768578 -0.03149308 0.04814296
000270 85 30 a0 3d 25 82 8d 3b d9 46 87 3b 16 c6 f3 3d
       0.07821754 0.004318493 0.0041283187 0.11903016
000280 7e b1 b4 bd 35 f3 05 3d 8c c4 98 3d 9b 44 c2 bd
       -0.088229164 0.032702643 0.07459363 -0.09485742
000290 94 2a 94 bd 21 1d e6 bd 0f 85 f3 3b 1c c2 d0 bd
       -0.07234684 -0.11236025 0.0074316333 -0.101932734
0002a0 21 d7 dd bd a1 50 ea 3b dd 9a ae bc f1 a6 a8 bd
       -0.10832048 0.007150725 -0.021314079 -0.082349665
0002b0 a7 cb 0d be 56 45 84 3b 3d ee 24 bc 76 f7 66 bc
       -0.13847218 0.004036586 -0.010066566 -0.014097085
0002c0 cf 3d 09 be 1d f8 88 bc 5b 1a 0a be 6b 09 0e be
       -0.13402484 -0.016719872 -0.13486616 -0.1387078
0002d0 73 48 71 bd 5d 4b c3 3d 59 2b f3 bd 7a 22 0f bc
       -0.058906984 0.09535859 -0.11873502 -0.008736247
0002e0 41 0a 5f 3d ca a6 b5 3c 7d 29 e3 3c 89 a6 9a bd
       0.05445314 0.022174258 0.027729744 -0.07551295
0002f0 0d 05 60 bd 82 3c 55 bd 85 01 18 3e 58 0f ce 3c
       -0.054692317 -0.052059658 0.1484433 0.0251538
000300 c2 42 0d be 23 0f 37 3d 68 49 56 bd 52 3a 92 bd
       -0.13794997 0.04469217 -0.0523161 -0.0714003
000310 85 d8 a0 bd 5a f3 1b 3e a0 f9 ab 3d d8 49 b8 3c
       -0.07853798 0.1522955 0.083972216 0.022496149
000320 93 8d c9 bc db 20 a4 bd e2 ca bf 3d a7 c4 aa 3b
       -0.02460364 -0.08014079 0.09364869 0.005211431
000330 70 a0 9f 3d a1 2d bf bd e2 ac c1 3d 46 9e d7 3c
       0.07794273 -0.09334875 0.09456803 0.026320588
000340 a8 a8 92 bb da 21 0f 3d 90 2f f9 3d b0 f0 0b 3e
       -0.004475672 0.034944393 0.12167275 0.13666034
000350 eb 42 aa 3d e7 5d 77 bd 85 fa db 3d 0d 3a 1b 3e
       0.08313545 -0.060392287 0.10741142 0.15158863
000360 e6 2d cd bd 61 a2 ea 3c 15 d4 24 bd 71 91 8a 3d
       -0.1001852 0.028641881 -0.04024132 0.06766022
000370 b6 fd 01 3c dd f4 96 3c 0a 0a 0a 3d fe a1 cd 3d
       0.007934025 0.018427307 0.03370098 0.10040663
000380 dc 51 87 bd 31 54 79 bd 1e 66 64 3d ac f2 da bd
       -0.0660741 -0.060871307 0.05576145 -0.10690817
000390 ef 4d 9e 3c e4 9c 05 bd 4b 39 0e 3d 31 ef 25 be
       0.019324271 -0.032620326 0.034722608 -0.16204526
0003a0 19 e0 4f 3c 94 df ce bd 78 1f df bd ef 73 67 bc
       0.012687706 -0.10101238 -0.10894674 -0.014126762
0003b0 ad a8 df bd 19 96 c7 bc 65 03 8e 3a 91 24 98 bc
       -0.10920844 -0.024363564 0.0010834752 -0.018572124
0003c0 ca ae b2 bd 75 3d 9f bd 83 d1 4d bc ee 2a 15 be
       -0.087247446 -0.07775394 -0.0125621585 -0.14567158
0003d0 09 95 00 bd a3 96 3b 3d 59 a5 db bc 16 a8 e8 3d
       -0.03139213 0.045797955 -0.026812242 0.11360185
0003e0 48 3b 07 be df 95 9e bb 21 eb d6 3c 82 c3 e8 3d
       -0.13206208 -0.0048396434 0.026235165 0.11365415
0003f0 79 56 a3 bd 4d 2e 40 bd 4e 64 7e bd be 4e 86 bd
       -0.07975478 -0.046919156 -0.062107377 -0.06557988

lstm.bias_ih_l0 f4 [256]
000000 28 c9 14 3d 19 c7 8f bd 02 5f b2 bc 85 64 ea 3d
       0.03632465 -0.07020397 -0.021773819 0.11444954
000010 95 92 07 bd 02 51 28 bd ff 17 c9 3d e4 0c 9f bc
       -0.033098776 -0.04109288 0.0981903 -0.019415326
000020 1b 64 ab bd 47 7c 8f 3d b3 2a ba 3d ac 5f a6 bd
       -0.08368703 0.07006126 0.090901755 -0.08123717
000030 d4 46 54 3d 4b 0b 59 bd fe 7f ba 3d 14 47 d9 3d
       0.05182536 -0.052989285 0.09106444 0.1060926
000040 bb 85 b1 3d f9 f2 15 3e e6 f4 cc bb eb 90 cf bc
       0.08668085 0.14643468 -0.00625478 -0.025337657
000050 a9 9d 82 3d 97 d0 8f 3d fc e1 2d bc 85 bd 25 bd
       0.063777275 0.07022207 -0.010612961 -0.040463943
000060 8b 48 4d bc bf e1 c8 3d a9 e0 c6 3d 33 e8 8e bc
       -0.012529503 0.09808683 0.09710819 -0.017444706
000070 76 74 18 3e 2b 9f 86 bd bc 9e f3 3c d4 a5 9a 3d
       0.14888176 -0.06573328 0.029738776 0.075511605
000080 df 56 79 bd 87 09 1d 3e ad 62 99 bc 25 05 ed 3d
       -0.060873862 0.15335666 -0.01872381 0.11573247
000090 0f 0f cd bc 73 3c 1b bd 71 04 1f 3e 8a 15 8d 3c
       -0.025031595 -0.037899446 0.15529038 0.017222185
0000a0 9d 4e 41 3d 10 1f 24 3e 9b 74 a1 bd 87 90 14 3e
       0.047194112 0.16027474 -0.07883569 0.14508258
0000b0 0f 96 d5 bc 9a 78 70 bd 7d e6 e7 3d a5 2f a8 bc
       -0.02607253 -0.058708765 0.11323259 -0.020530531
0000c0 ef 7b 91 bd ad f4 9d bc 1c 3c e4 3d 8a 07 b4 3d
       -0.071037166 -0.01928171 0.111442775 0.087905005
0000d0 85 30 e5 3c 77 60 d8 3d 4d 56 8a 3d 53 77 7c bd
       0.027977237 0.10565274 0.06754742 -0.061637234
0000e0 a8 80 84 3d 79 d5 05 3e 24 be b6 3c 36 c2 f0 3c
       0.06469852 0.13069715 0.022307463 0.029389482
0000f0 d5 a6 21 3e ad 22 49 3b 55 c8 1c 3e cc a8 0d 3e
       0.15786298 0.0030690834 0.15310796 0.13833922
000100 ee 40 15 3e 3a 76 2b 3d 7a 38 9e 3d 15 fc 99 3d
       0.1457555 0.041860797 0.07725616 0.07518784
000110 dc 5f 8f bd ab 5b d6 bc c5 9c 10 bd 22 45 d9 3c
       -0.070007056 -0.026166758 -0.035305757 0.026522223
000120 0a 2c 48 bd 3a d4 d8 37 35 2a 2f bd c2 15 57 bd
       -0.048870124 2.5848032e-05 -0.04276486 -0.052510984
000130 9f 9d 9a 3d 70 78 29 3e a4 a8 87 bc 49 59 3b bd
       0.07549595 0.1654985 -0.016559906 -0.045739446
000140 0d 12 54 3a 6a 27 b2 bc 4b 9d d5 bd e8 33 fd 3d
       0.0008089848 -0.02174731 -0.10430392 0.12363416
000150 00 42 d7 3d 6f f4 e8 3d c6 4e 8e bc 8a 11 24 bd
       0.105106354 0.11374747 -0.017371546 -0.04005579
000160 91 ab 14 3e c8 bf e9 bc b9 02 72 bd 77 9b 8b bd
       0.14518572 -0.028533831 -0.059084628 -0.06816762
000170 a1 7b a7 3d 16 12 2b 3c ba db fe bc 27 4d 1b 3e
       0.08177877 0.010441324 -0.031110633 0.1516615
000180 ea 9f 25 bd 66 e8 45 3d ff 74 d2 3d a0 f4 ce 3d
       -0.04043571 0.048317336 0.102762215 0.10105252
000190 be bc 9f 3d cd 32 a5 3c c5 58 bf 3d 30 7d bb 3c
       0.077996716 0.020165825 0.09343103 0.022886842
0001a0 57 a9 2b 3d 14 7a f7 bc a2 94 f1 3d 23 d5 89 3d
       0.041909542 -0.030209579 0.117959276 0.06730106
0001b0 7c 7c 7b 3d 85 a7 ae 3c a4 13 a2 3d db cb dc bd
       0.061398014 0.021320114 0.079139024 -0.1078107
0001c0 43 32 dd 3d 68 36 14 3e 18 6a ca 3d 33 f5 ee 3c
       0.10800602 0.1447388 0.09883517 0.029169654
0001d0 c6 af a8 bd 02 dc 0a 3c d6 80 69 bd 10 e8 e2 bc
       -0.08236651 0.0084753055 -0.057007633 -0.027698547
0001e0 68 cf 0d 3e 6f 59 e2 3c 26 5b 2e 3e 14 16 a0 bc
       0.1384865 0.027630536 0.17026958 -0.019541778
0001f0 9b 99 38 bd c0 32 a3 bd 7d 80 89 3d 49 ce 86 3d
       -0.045068365 -0.07968664 0.0671396 0.065823145
000200 9d 6d a6 3c 7b 13 ea 3d 6f 9b eb 3d b5 45 1f be
       0.02031594 0.11429497 0.11504256 -0.15553935
000210 59 08 1c bd b0 5e 03 3e e6 1b f2 3d 12 1c ba 3d
       -0.0380939 0.12829089 0.118217275 0.09087385
000220 ce 95 8c bd 05 73 12 be e9 8e 21 3e 2a a9 8e bd
       -0.068645105 -0.14301689 0.15777172 -0.06965859
000230 98 be 99 3d 5e ca 9a bd 15 0f 92 bd be 97 a5 3d
       0.07507056 -0.0755813 -0.07131783 0.08085583
000240 16 66 1d 3e c9 f9 42 bd d7 00 b9 3d 3c 9e 9f 3d
       0.15370974 -0.047601495 0.09033363 0.07793853
000250 e8 6c 98 bb 95 41 8a bc d7 24 a7 3d 1a 64 1b 3e
       -0.0046516545 -0.016876975 0.081613235 0.15174904
000260 7a c9 90 bb 4e c7 10 3e 0f fe 0e 3d 8b fc a8 3d
       -0.004418549 0.14138529 0.034910258 0.08251294
000270 58 20 12 be 67 ad dc 3d df b0 17 3e e7 62 92 3d
       -0.1427015 0.10775261 0.14813565 0.071477704
000280 c2 d7 d0 bc f4 84 90 3d 7d 38 09 be a3 4c 17 be
       -0.025493506 0.07056609 -0.13400455 -0.14775328
000290 0b 2b af 3d 8c 9a 15 be d6 bf d7 3b 07 3a dc bd
       0.08553132 -0.14609736 0.006584148 -0.10753255
0002a0 27 ce 16 be 00 24 c1 bd 02 c7 1a bd d8 95 0c be
       -0.14727078 -0.094306946 -0.037787445 -0.13729036
0002b0 99 ad 02 be f5 e7 83 bd b7 9f 0b 3d be be 96 bc
       -0.12761535 -0.06440727 0.034087863 -0.0184015
0002c0 35 a0 9e 3d b7 29 27 be 9f 6d 0d be ff ff 84 bd
       0.07745401 -0.16324507 -0.13811348 -0.0649414
0002d0 ed a8 20 3e 50 36 1d 3e b2 c1 6b bd a1 b2 50 bc
       0.1568944 0.1535275 -0.05755777 -0.012737901
0002e0 30 e6 b5 bc 31 fc 09 bd 9a b3 ff bc eb 23 65 bc
       -0.022204489 -0.033687774 -0.03121357 -0.013985614
0002f0 e8 ce 0c 3d a8 ad 0f bc 4a b8 d7 3d 7f 63 4e bd
       0.03437701 -0.00876943 0.10533197 -0.050387856
000300 d1 ab b8 3c 9c 17 94 3d f6 28 02 3e 3d 34 e6 3d
       0.022542866 0.07231066 0.12710938 0.112404324
000310 b6 f9 88 3c bc 9a 4e 3d 62 64 e3 bb 30 12 1c 3e
       0.016720634 0.050440535 -0.006939457 0.15241313
000320 28 33 b5 3d 42 52 8c bd ed 0e c9 3d b9 db 1b 3e
       0.08847648 -0.06851627 0.098173 0.15220536
000330 0e 34 98 3d e9 59 58 bd 6c 5b f5 3d 72 73 42 3d
       0.07431804 -0.05282012 0.11980328 0.04747338
000340 27 0b 73 3c 04 eb a4 3d b3 84 ea 3d 38 cf af 3d
       0.014834202 0.08052638 0.114510916 0.08584446
000350 18 0e 8e bd 95 92 b6 3d 90 22 d7 bc 42 5d 96 bd
       -0.06936282 0.08914677 -0.026261598 -0.07342006
000360 b6 48 08 bd e4 1d e6 3d 9c ff 13 3e 75 47 9f 3d
       -0.033272468 0.1123617 0.14452976 0.07777301
000370 d5 47 fd 3d c4 8c b9 bd ae 9f 54 bc b1 6a c0 bc
       0.123672165 -0.09060052 -0.012977524 -0.023488374
000380 95 79 90 bd 98 ac 11 bd 31 bc 3f bd a1 f8 71 bd
       -0.0705444 -0.03556499 -0.046810333 -0.059075
000390 ca 42 3f bc 59 0e b5 bc e0 d6 42 3d ee e8 64 3c
       -0.011673639 -0.022101568 0.047568202 0.01397155
0003a0 fa 72 10 3d 9d 6e 88 bd df 87 78 bd 6a 4c 87 bd
       0.0352659 -0.06661723 -0.06067645 -0.06606372
0003b0 0e 8f 02 3e bb c5 5e 3d e3 70 6f bd 21 be 04 bd
       0.12749884 0.05438779 -0.058457267 -0.032407884
0003c0 2e ce d6 3c c8 67 0c bd b7 e1 07 3e 7d 96 fe 3d
       0.026221361 -0.03427866 0.13269697 0.12431047
0003d0 c8 a9 85 3d 26 9b c0 3c 39 92 f4 3d 73 6a 8b 3d
       0.06526524 0.02351148 0.11941952 0.06807413
0003e0 62 ba 5d 3d d6 77 77 3d db c4 8f bd 24 ba ac 3d
       0.054132827 0.06041702 -0.07019969 0.08433941
0003f0 e0 64 a8 3d 3b e2 fd 3d 47 9e c1 3d 97 45 0d 3e
       0.082223654 0.12396666 0.09454017 0.13796078

lstm.bias_hh_l0 f4 [256]
000000 50 30 b6 bc 23 0f b2 3c 30 fa 49 bd a1 5b 19 3e
       -0.022239834 0.021735733 -0.049310863 0.1497636
000010 c5 5f 1a 3d 1e 7e b3 bd f5 78 ec 3d 78 10 71 3d
       0.03768899 -0.08764289 0.11546508 0.058853596
000020 55 aa bc bc 3b cf 1d 3e a0 9a ec bc b4 4f f5 bc
       -0.02303044 0.15411083 -0.028882325 -0.029945232
000030 ff 95 e7 bb d1 70 6c 3d 28 e3 70 bd 1a 97 84 3d
       -0.0070674415 0.057724778 -0.058810383 0.06474133
000040 b4 54 9c bd b1 29 30 bd c2 bd 61 bd df 10 88 bd
       -0.07633343 -0.04300851 -0.055112608 -0.06643843
000050 98 02 70 3d 7a 71 b3 3d fe 93 70 3c e8 c3 8b 3b
       0.058596224 0.08761878 0.014683722 0.004265297
000060 9b d2 e6 3c 0d 9c 61 bd bc 48 98 bd c0 58 30 bd
       0.028176596 -0.055080462 -0.07435748 -0.04305339
000070 c5 66 42 bd 04 81 37 3d 2a 9e 14 3e a8 65 09 3e
       -0.04746129 0.044800773 0.1451346 0.13417685
000080 aa bd 43 bd 1c 83 df 3d 9e 00 1c 3e b2 1e 7a 3c
       -0.0477883 0.10913679 0.1523461 0.015266107
000090 09 0d 91 bd bc bd af bd cf 22 f1 3c e1 ab 8d bc
       -0.070825644 -0.08581111 0.029435543 -0.017293872
0000a0 39 5f 67 3d 05 96 93 bd be 6d dc 3c 4f 2c 88 3d
       0.056487296 -0.07206348 0.026907798 0.06649076
0000b0 6b 08 94 3b 4c ca c0 3c aa 40 26 3e 70 a5 93 3d
       0.004517605 0.023533963 0.16235605 0.07209289
0000c0 f3 ac 83 bd 11 15 6f bc 54 da b4 3d 6a 60 b3 3d
       -0.06429472 -0.014592425 0.08830705 0.08758624
0000d0 f6 c1 91 bd 18 26 34 bd 7f 11 13 bc 5b 19 89 3c
       -0.07117073 -0.04398164 -0.008976339 0.016735723
0000e0 9a 45 45 3d ce 7c 94 3d df bd c6 bc e0 01 d6 bc
       0.04816208 0.07250367 -0.02426046 -0.026123941
0000f0 1b 49 d7 3d a3 7e 70 bd 58 43 6e 3c 4f 6f aa bd
       0.10511991 -0.05871452 0.014542423 -0.08322012
000100 b7 6f 4e bd 1a c3 62 3d 8b d4 16 3d c7 77 17 3e
       -0.05039951 0.055361845 0.03682379 0.14791785
000110 ea 75 2c 3e 7b 83 a4 bd 46 5e 03 bd ba 36 96 3d
       0.16841856 -0.080328904 -0.032072328 0.07334657
000120 cd 69 08 bb 37 fa 97 bd c3 66 03 bd ac c6 ea bc
       -0.0020815015 -0.074207716 -0.032080423 -0.028659187
000130 37 f8 44 3d 5a d1 c5 3d 4e f6 e2 3d 05 fe 11 3e
       0.04808828 0.09659071 0.11082135 0.14257057
000140 33 f0 bd bc 8d e6 f5 3d 05 2e 5e bd 60 90 bf bd
       -0.023185825 0.12006865 -0.054243106 -0.09353709
000150 64 cb 09 bd 5c 86 a0 3d e7 27 8b 3d 2f 60 87 bd
       -0.033641234 0.07838127 0.0679472 -0.066101424
000160 76 b1 71 3d 16 0b 2d 3d 8c 07 0c 3e 11 0d 0e bd
       0.05900713 0.0422469 0.13674754 -0.03468043
000170 99 87 75 bd 57 96 9d 3c 97 60 a2 bb dc 52 c4 3c
       -0.05994377 0.019236727 -0.004955362 0.023965292
000180 16 07 97 bb a8 fb 25 3e 66 4d c5 3c e8 39 a3 bd
       -0.004608999 0.1620928 0.024084758 -0.07970029
000190 46 27 cd bd d5 d8 01 3d e5 cd cb 3d 9e 1c 81 3d
       -0.100172564 0.031700928 0.09951381 0.063042864
0001a0 ce 91 c8 bd 6d ad 7b 3d b5 f3 04 3e 3f d1 a1 ba
       -0.09793435 0.06144469 0.12983592 -0.0012345685
0001b0 9a 80 c1 3d e6 07 0a 3e eb d1 08 3e 7c cf 09 3d
       0.09448357 0.13479576 0.13361327 0.03364514
0001c0 a1 9c e9 bd 84 8d 76 bd 42 cd fe 3d 1d b5 d5 bb
       -0.11406828 -0.060193554 0.124414936 -0.0065218345
0001d0 81 c9 10 3e 70 1e fb 3d 50 ae 8c bd df 8b b5 3d
       0.14139368 0.12261665 -0.06869185 0.08864569
0001e0 79 6f 82 bd f2 ec 46 bd 31 f0 08 3e f5 c4 1f 3e
       -0.06368918 -0.048565812 0.13372876 0.15602477
0001f0 17 d8 96 3d 72 df a0 3d 73 c8 0b 3d 41 9a cd 3d
       0.073654346 0.07855119 0.03412671 0.10039187
000200 16 db 23 be 5c 40 8a 3d f7 df 5f 3d d6 ac a0 bd
       -0.16001543 0.06750557 0.05465695 -0.07845466
000210 4a a3 ea bd 06 60 87 3d 1b f4 74 3b f9 a9 65 3d
       -0.11456926 0.06610112 0.0037376944 0.0560703
000220 a8 b9 12 bd 8f d6 28 bd fd ed f2 bb 4b 16 17 be
       -0.035821587 -0.041220244 -0.0074136243 -0.14754598
000230 76 f0 7e 3d 71 41 75 bd 39 06 88 bd dd 68 f1 3d
       0.06224104 -0.059876863 -0.06641812 0.11787579
000240 2e 06 a9 bc 9d c9 0e bd ae 9f 9f bd 34 f6 9b bc
       -0.02063283 -0.034860242 -0.07794128 -0.019038297
000250 f0 7f d5 3d 49 9d 0f bd 47 8d df 3d 20 3b 14 3e
       0.10424793 -0.03506211 0.109156184 0.1447568
000260 5f 8d 99 3d 00 58 0c 3e d6 46 95 3d af 53 dc 3d
       0.074976675 0.13705444 0.072889015 0.10758149
000270 e0 d6 18 be 9f 1b ee 3d 9f 1e ad 3d 36 8c 7c 3d
       -0.14925718 0.11626362 0.08453106 0.061657153
000280 a6 94 1b be 6a 3c de 3d 4b 96 03 3d 67 4b 09 be
       -0.15193424 0.10851367 0.032125752 -0.1340767
000290 d5 8a cc 3d ab 01 a8 3d a5 d9 ba 3c cb cf 90 bd
       0.099874176 0.08203443 0.02280886 -0.07070883
0002a0 4f 24 1c bd f4 30 16 be e6 c5 17 be cc 78 5e bd
       -0.038120564 -0.14667112 -0.14821586 -0.05431442
0002b0 96 3a 99 bd 61 ce 16 3e 16 7a e5 3d 56 c1 a2 bc
       -0.074818775 0.14727165 0.11204927 -0.01986758
0002c0 85 e5 0c be 1f d2 a3 bb 0f bb 21 bd 80 ad be bd
       -0.1375943 -0.0049994136 -0.039485034 -0.09310436
0002d0 fc 5a 12 3e 9d 70 f1 3d 1a da b6 bd f4 ca 02 3e
       0.1429252 0.117890574 -0.08928318 0.12772733
0002e0 17 30 18 be 07 02 12 be e0 fc 7a 3c 80 99 ed 3d
       -0.14862095 -0.14258586 0.015319079 0.116015434
0002f0 fc 39 6b 3c eb 0a 68 bd 10 a9 b9 bd 9c c6 8f 3d
       0.014357086 -0.056651037 -0.09065449 0.070203036
000300 32 a9 35 3d 79 a3 ac bd a5 ed 51 bd c3 25 ec 3d
       0.04435081 -0.084296174 -0.051252026 0.1153064
000310 83 1f 6c bd 7c 23 49 3d 44 77 19 3e 41 58 1c 3c
       -0.05764724 0.049106106 0.14986902 0.009542526
000320 70 6b b4 3d 2a ed cb 3d 1b 33 18 3c 3b be 42 bd
       0.088095546 0.09957345 0.009289528 -0.0475447
000330 84 b2 0a bd 01 4e 9b bd 5b 81 6b 3d 66 94 8e 3d
       -0.033861652 -0.075832374 0.05749641 0.069618985
000340 35 be 82 3c 2f 59 be 3d ba c8 0f 3c 84 fc 89 3d
       0.015959838 0.09294354 0.008775884 0.06737617
000350 9e 54 1a 3e 5b aa 1d 3e 6b 6a 1a 3e 06 df 09 bc
       0.15071341 0.15397017 0.15079658 -0.008414989
000360 da 9a 00 3d 11 01 12 3c a9 f7 ac 3d 28 2d ea 3d
       0.031397678 0.008911387 0.08445675 0.11434394
000370 0e 70 8a 3d 5d e5 3c bc b5 52 8d 3d e2 d6 36 bd
       0.06759654 -0.011529294 0.06900541 -0.044638522
000380 75 e2 96 bd 1e 71 ab 3c a2 5b fd 3c f0 43 9d 3c
       -0.07367412 0.020927962 0.030927483 0.019197434
000390 4d 1a d9 3c f6 b0 9a 3d a0 48 94 3d ae 25 85 3d
       0.026501799 0.07553284 0.072404146 0.065013275
0003a0 7d 88 a0 3c 92 cc 8f 3d 71 fc 32 bd 2d 4a 06 bd
       0.019596333 0.070214406 -0.043697778 -0.032785583
0003b0 be 08 62 3d f6 ac 03 3e 70 09 5a 3d f2 72 04 3e
       0.05518412 0.12858948 0.053231657 0.12934473
0003c0 ae 8f 03 3e 1f 51 9c bd 70 1f d5 bc 8f e7 9f 3d
       0.12847778 -0.0763266 -0.026015967 0.07807838
0003d0 b2 6e ef 3c 6c 26 b2 3d d1 8c b3 bc 49 39 d1 3d
       0.029227588 0.08698735 -0.021917732 0.102160044
0003e0 db ef e8 bc 92 67 5b 3d 50 8e 7a bd 31 3f 54 3c
       -0.028434685 0.05356557 -0.061170876 0.012954519
0003f0 e1 63 ee 3d d5 4c e4 3d 22 ed 60 bd f2 4c d3 3d
       0.11640144 0.11147467 -0.054913647 0.103174105

lstm.weight_ih_l1 f4 [256, 64]
000000 39 55 66 bd b0 a2 96 bd e5 b9 1a 3e e9 10 9e 3b
       -0.05623362 -0.07355249 0.15109976 0.004823793
000010 b4 92 c8 bc fb 51 99 3d 98 9f be 3d 40 9e 99 bd
       -0.024484016 0.0748634 0.09307784 -0.07500887
000020 f7 a1 0c 3d a9 8f 5b 3d e6 f0 58 3d 0e 09 92 bd
       0.03433415 0.053603802 0.052964114 -0.07130633
000030 13 77 61 3d 42 8e f0 bc 95 73 65 bc 8f be 23 bd
       0.0550452 -0.029364709 -0.014004608 -0.039976653
000040 fb 76 c8 3d 63 a4 a4 bc 9b 16 39 3c c2 a7 0b bc
       0.09788319 -0.020097917 0.0112968935 -0.008523883
000050 34 ea 02 3e 56 da fa bd ce da 96 bb 1e 66 3f bd
       0.12784654 -0.122486755 -0.0046037203 -0.046728246
000060 a7 ba e0 3d 52 68 4f bc 4a a9 23 3d b7 e7 ed 3c
       0.10973101 -0.012659149 0.03995637 0.029041154
000070 a3 4a 68 3d f0 82 8c bd 2e dc da bc d1 bc ab bd
       0.056711804 -0.06860912 -0.026716318 -0.08385623
000080 ae 85 81 bd db 37 8f bd ff 40 af bc d3 21 2c 3c
       -0.063243255 -0.069930755 -0.021393297 0.010506111
000090 46 bb 30 3d ac f2 19 bc dd 45 d0 3a 79 b6 01 be
       0.043147348 -0.009396236 0.0015889962 -0.12667264
0000a0 77 f0 67 bd 5e 39 83 3d 96 8e 66 bc 9d 9a 7a bc
       -0.05662581 0.06407426 -0.014072081 -0.015295652
0000b0 8d d6 91 bd d2 7a f8 3d 70 74 f7 3d 9d 27 51 3d
       -0.071210004 0.12132801 0.120827556 0.05106317
0000c0 a0 95 d8 3d a4 da de bc 3e 2c 0f bd 14 f6 7b 3b
       0.10575414 -0.027203865 -0.034954302 0.0038446235
0000d0 29 1c a9 bd a6 7c f0 3d 42 96 d2 bd 14 af 89 bc
       -0.08257324 0.11742525 -0.10282566 -0.016807117
0000e0 15 55 39 bd 2d dc 06 be 36 8b ea bd 57 8b 0d 3e
       -0.045247156 -0.13169928 -0.11452334 0.13822685
0000f0 19 f3 26 bc 89 d4 82 3c b4 50 80 3d e4 f1 fd 3d
       -0.010189795 0.015970485 0.06265393 0.123996526
000100 7a bb c7 bd 72 b6 0b bd c3 79 22 3e 75 ae f9 bd
       -0.09752555 -0.03410954 0.15866761 -0.12191478
000110 d3 39 25 be 4b 71 84 3c 4d 9d e0 3d 61 0c c1 3d
       -0.1613534 0.016167304 0.10967503 0.09426189
000120 d7 2b fd bd f5 57 0a be c7 4f a1 3d 05 53 f5 bd
       -0.123618774 -0.13510115 0.078765444 -0.11978725
000130 2b 7a db 3d 43 aa 89 bd 3c aa b6 bd 44 31 83 3c
       0.10716661 -0.06721928 -0.089191884 0.016014703
000140 1b a0 f2 3d 45 b6 e0 bd 7d b6 b5 bd f0 29 b9 3d
       0.11846944 -0.10972265 -0.088726975 0.09041202
000150 1a 5c 71 3d 30 dd 6c bd 0a ce e8 3d a3 a8 0a 3c
       0.058925726 -0.05782813 0.11367424 0.008463058
000160 48 7a ff bc 8c 8b 67 bd 11 7d bf bc ec 63 ff bc
       -0.031186238 -0.056529567 -0.023375066 -0.031175576
000170 2e 89 a6 bb 3b 3f 80 3c f2 a7 03 3e 51 85 b4 bc
       -0.005082271 0.01565515 0.12857035 -0.022036226
000180 4b cb 0d 3d 1f 5d 0f 3e 66 13 39 bd db fc dd bd
       0.034617703 0.14000367 -0.045184515 -0.10839244
000190 13 94 c2 3d f4 66 08 be 08 de cc 3d b6 8e 6f 3d
       0.09500899 -0.13320524 0.100032866 0.05848571
0001a0 e1 4b 3d bd 9b b7 ed bd 45 0c b9 bc fa 26 53 3d
       -0.046214942 -0.116072856 -0.022588858 0.051550843
0001b0 0e 5e 8a bc 51 2b 7d 3d cd 37 bf 3d 7e ad c5 3d
       -0.016890552 0.061808888 0.09336815 0.09652232
0001c0 74 5f 59 3d 83 4c d7 bd 7c ec 11 bd 75 47 ab bd
       0.053069547 -0.1051264 -0.03562592 -0.08363239
0001d0 1b e5 cf 3d 9b b8 d2 bc 09 20 91 3d cf b3 bb 3d
       0.1015112 -0.025722792 0.07086188 0.09165155
0001e0 1d 97 27 be 4f f9 ba bd 16 21 15 bd d3 2e 46 bb
       -0.16366239 -0.09129583 -0.036408506 -0.0030240312
0001f0 b3 48 93 3b e4 d2 d8 bd e4 56 f9 3d d7 ec 85 3d
       0.0044947504 -0.10587099 0.12174776 0.06539314
000200 f0 a8 4e bd c4 62 b3 bc 90 d4 68 bd 46 08 e2 bd
       -0.05045408 -0.021897681 -0.05684334 -0.11036734
000210 04 2b db bd f4 29 1f 3e 38 87 1d 3d cc f0 07 bd
       -0.10701564 0.15543348 0.038459033 -0.033188626
000220 ea 1d 4a bd 19 49 30 bd 40 e5 8c 3d 5a 22 3f 3b
       -0.049344935 -0.04303846 0.068796635 0.0029164762
000230 fe d8 ee 3d 00 98 ce bd bf dd 83 bd 86 71 8d bd
       0.11662482 -0.100875854 -0.06438779 -0.069064185
000240 07 f8 c7 bc a0 6a 15 be 59 2e 0f bb 25 7c 1a bd
       -0.02441026 -0.14591455 -0.0021847694 -0.03771605
000250 b6 46 bf bb c8 fb a1 3d 43 eb 1a 3e 30 80 5f 3d
       -0.005837287 0.079093516 0.15128808 0.05456561
000260 50 da ab 3d 9c a8 f3 3d 20 9b 35 3d dd 56 81 3d
       0.08391249 0.11897394 0.04433739 0.06315396
000270 90 79 3e bd ad 17 7b bd 37 e8 0c 3e e5 8b 5e bd
       -0.04650265 -0.061301876 0.13760458 -0.054332633
000280 f7 82 9a bd 98 ad 86 bd 64 08 ba bd ad 8c b0 3d
       -0.07544511 -0.06576079 -0.09083632 0.08620582
000290 34 17 b2 3c 6a 5e af 3c 2a eb 57 3d 51 b4 73 3d
       0.02173958 0.021407325 0.052714504 0.059498135
0002a0 d1 7f 4d bc 32 da 0a bd 4b cf c3 bd 70 0b 80 bc
       -0.012542681 -0.033899494 -0.09561022 -0.015630454
0002b0 1b 48 24 bc 98 c5 43 bd ae 75 54 bd be e3 e9 bc
       -0.010026957 -0.047795862 -0.05187004 -0.028550979
0002c0 25 ef 04 3e f8 2a 80 3c 6f d8 fe 3c c1 c9 3b 3d
       0.12981851 0.01564549 0.031109063 0.045846704
0002d0 16 36 18 3d c4 2b 39 bd 77 4c a7 3d 29 1e 73 3d
       0.037160955 -0.045207754 0.081688814 0.059354935
0002e0 ff eb aa bd 01 3e 3e 3c 2e 39 e6 bd 3f 49 29 3d
       -0.08345794 0.011611463 -0.11241375 0.04132962
0002f0 ca f4 04 3e fd 81 40 3b 16 81 a5 bd fb 7a ee 3d
       0.12984005 0.0029374354 -0.08081262 0.116445504
000300 f9 5b b2 3b cb 61 c1 bc 8b 65 f5 3d 29 47 f9 3c
       0.005443093 -0.023606202 0.119822584 0.03042944
000310 f9 0f 26 3d 0c 97 a6 3d 27 4f 13 bd f1 11 7b bd
       0.040542576 0.08134279 -0.035964157 -0.061296407
000320 8a a8 84 3d 76 7f 2c bd 43 bd 07 3e 9b dd 24 3d
       0.06477459 -0.042113744 0.13255791 0.040250402
000330 9e 5e a5 bd f0 8b 2a 3d 64 1e 20 3d 46 06 b6 bd
       -0.080746874 0.04163736 0.039091483 -0.08887915
000340 a6 84 5b 3d 17 4a 0b be 8f 33 b8 3d 13 bc 9f 3d
       0.0535933 -0.13602482 0.08994209 0.07799544
000350 ae dc 98 3d e1 48 9c 3d 67 0b 1f bd ac fa be 3c
       0.07463966 0.07631088 -0.038829233 0.023312889
000360 b6 66 60 bc e5 48 fb 3d 32 a9 df 3d 27 01 05 bc
       -0.013696363 0.12269763 0.10920943 -0.0081179505
000370 13 cc 0c be 87 d9 ce 3c 83 50 03 3e 6b ad 84 bb
       -0.13749723 0.02525021 0.12823682 -0.0040489933
000380 a2 a8 83 3c 58 72 7e bd fc 01 05 be 23 a9 0b be
       0.016071621 -0.062120765 -0.12989038 -0.1363874
000390 52 2f da bd 89 1b c6 bd b8 09 b4 bc b6 4d eb 3b
       -0.10653557 -0.09673221 -0.02197729 0.0071808947
0003a0 7d cc 9e 3d ed 5b 4f bc 70 b3 93 3c b9 e0 cb bd
       0.07753847 -0.012656194 0.018029898 -0.09954972
0003b0 26 9e ca bd 34 ce d6 bd d5 80 0c 3e 9d c0 e5 3c
       -0.09893446 -0.10488549 0.1372102 0.028045947
0003c0 4e 46 8a bd ee 20 21 be 21 97 a4 3a 4b 0e 2c be
       -0.06751691 -0.15735218 0.0012557247 -0.16802327
0003d0 c5 de e9 3d ee 7f b3 bd 84 66 84 ba 3b 00 cf 3d
       0.11419443 -0.08764635 -0.0010101353 0.10107466
0003e0 d1 e4 01 be 62 67 83 3d 82 1a a6 3d 88 42 05 3e
       -0.12684943 0.06416203 0.08110525 0.13013661
0003f0 97 9c 17 3e af c8 77 bd 19 47 87 3c 07 cf 11 3e
       0.14805828 -0.06049412 0.016513394 0.14239131

lstm.weight_hh_l1 f4 [256, 64]
000000 04 c9 14 be 7c 51 4f 3d 55 38 f2 bd e9 aa 38 bd
       -0.14529806 0.05061482 -0.11827151 -0.045084868
000010 85 a9 59 3d 36 de a1 bd d7 b1 2b bd 0f 54 13 bc
       0.053140182 -0.079037115 -0.04191765 -0.008992209
000020 4d ff 00 bd e5 19 1f be 71 dc f5 bd ec cc 04 3e
       -0.031493474 -0.15537222 -0.120049365 0.12968796
000030 50 16 61 bd 08 38 a3 3d 2a 26 06 3e 30 00 16 3d
       -0.05495292 0.079696715 0.13100496 0.036621273
000040 4e ba cd 3d 41 41 45 bd d7 6d 98 bd 7e 66 5e 3d
       0.100453004 -0.048157934 -0.07442825 0.054296963
000050 11 27 06 3d 20 0e 52 3d 14 c4 31 bd 1a 50 b1 bd
       0.0327521 0.051283002 -0.043399885 -0.08657856
000060 03 85 15 3e 81 87 24 3e 7b db 8c bd 14 1c b8 3d
       0.14601521 0.16067316 -0.068778 0.089897305
000070 68 91 25 bd f1 6c 6d bd cf f1 f7 3c 3f 52 80 bd
       -0.040421873 -0.057965223 0.03026667 -0.06265687
000080 72 52 17 bd b7 fe 8c bd 68 b6 8f 3d 43 73 c5 bd
       -0.03694386 -0.068845205 0.07017213 -0.09641125
000090 a5 c2 09 be 6d 5f a3 bc 54 15 ad 3d ec cd 15 3e
       -0.13453157 -0.019942963 0.08451334 0.14629334
0000a0 bf 79 bf 3c d2 70 a2 bd 13 f8 d6 3d 60 72 e8 bc
       0.023373483 -0.07931675 0.10496535 -0.02837485
0000b0 0d 82 72 bd 87 b8 ad bd 2f 09 1d be d8 aa 9b bd
       -0.059206057 -0.084824614 -0.15335535 -0.07600945
0000c0 e3 2f b4 3d a9 d4 16 3e 32 be 06 be 9c c1 aa 3d
       0.08798196 0.14729561 -0.13158491 0.08337709
0000d0 ad 30 8b 3d 99 1a 28 bd 96 e4 e3 3b 9f 50 d6 bd
       0.067963935 -0.04104099 0.00695474 -0.10464596
0000e0 f4 b2 3d bd 7a be 8a 3d c1 f0 a9 3d 82 69 a7 3d
       -0.04631324 0.06774612 0.08297873 0.08174421
0000f0 02 8d 7a bd 3d de 8a bc 80 20 93 3d c7 60 17 be
       -0.06116963 -0.016951675 0.07183933 -0.14783011
000100 ea 86 f8 bd 92 fa c0 3c 1f 0a 3c 3d e8 a7 00 3d
       -0.12135108 0.023556981 0.04590809 0.031410128
000110 de 5c b7 bc 62 bf be 3d 4e 35 2d 3d 7a 55 c9 bd
       -0.02238315 0.09313847 0.042287163 -0.098307565
000120 50 6e 10 bc 7a 2e 1d be 5f 03 46 bd d2 84 0b 3e
       -0.008815363 -0.1534976 -0.04834306 0.13624886
000130 e4 f0 b2 bd 2d a5 84 bd 49 7e 9d 3c 53 50 9c 3d
       -0.087373525 -0.06476817 0.019225257 0.07632508
000140 e0 5b 23 3e df 59 b6 3d 9c 3b d2 3d 18 8e 92 3d
       0.15953016 0.0890386 0.10265276 0.071560085
000150 be b9 19 3d 7d 13 0a bd b3 33 17 bd 03 cc 35 3d
       0.037530653 -0.03370999 -0.03691454 0.044384014
000160 7d ac 43 3c 19 e6 8e bd 1d 98 85 3d 82 d3 6d bd
       0.01194298 -0.069774814 0.06523154 -0.058063038
000170 65 2d 8a 3d c0 d1 ab 3d f1 cc 13 3e 38 68 05 3d
       0.067469396 0.08389616 0.14433648 0.032570094
000180 5c 98 dc bc 1d ed 3b bc 4a 32 a6 bd bd bb e6 bd
       -0.02692812 -0.011470106 -0.081150606 -0.11266277
000190 24 2c ab 3d f0 e5 1e be 3b 8a 8f bc c8 b7 31 bc
       0.083580285 -0.15517402 -0.017521968 -0.0108470395
0001a0 8b aa bb 3c 6c 10 cb bc 51 a6 c6 3d b2 e7 9a bd
       0.02290847 -0.024788104 0.09699691 -0.075637236
0001b0 1d f4 bf bc 5b 7b 80 3d 3d 69 d5 bc c8 0c b5 3d
       -0.023431832 0.06273528 -0.026051158 0.088403285
0001c0 66 ab 31 bd 74 c6 f8 3d 8e 22 67 bc f4 33 0c 3e
       -0.04337635 0.12147227 -0.01410736 0.13691694
0001d0 3b dc d8 3b bd 9d 15 3d 8f b8 55 3d b9 70 c9 bd
       0.0066180504 0.036527384 0.052177962 -0.09835953
0001e0 c4 20 55 3d b5 1e e2 bd d5 4d 05 3d fb 44 18 3e
       0.0520332 -0.11041013 0.03254493 0.14870064
0001f0 79 a7 8b bd df 65 95 3c ce df 9d 3d 28 b8 17 bd
       -0.06819052 0.018237052 0.07708703 -0.03704086
000200 4f 35 39 bd bc 58 96 bd 30 f9 6e 3d 5c 2b 75 3c
       -0.045216855 -0.073411435 0.058343112 0.014963951
000210 b0 e2 18 3e 79 ed d8 3d c0 32 58 3d b3 c9 37 3d
       0.14930224 0.10592169 0.052782774 0.04487009
000220 1a fc c1 bc ab 2f de bd 4a 55 98 3d 72 31 4e bd
       -0.023679782 -0.10848936 0.074381426 -0.050340123
000230 35 07 0b 3d b4 ef 9a bd 14 89 ab bd 1f 4a 41 3d
       0.03394242 -0.07565251 -0.08375755 0.047189828
000240 f6 dc c4 bc 47 a1 4f bd 9b 76 46 bd eb ce a8 3d
       -0.024031144 -0.050690915 -0.048452955 0.082425915
000250 43 c7 13 bd 57 8f 83 3d 4c 92 39 bd 52 dc 9f bd
       -0.036078703 0.06423824 -0.045305535 -0.07805695
000260 f9 a2 00 3e 63 7a 0c 3e 1f 71 05 3d d0 31 96 bd
       0.12562169 0.13718562 0.032578584 -0.0733372
000270 75 ac 1e 3e 83 3a f3 bd c9 23 bc bc 5a 54 00 3e
       0.15495475 -0.118763946 -0.022966282 0.12532178
000280 0e bd 54 3b bd e9 23 bd 80 a9 08 3d c5 80 57 3c
       0.0032461318 -0.040017832 0.033364773 0.01315326
000290 32 5b af 3d 32 38 8f 3d 81 38 e1 bb 48 5a 14 3e
       0.08562316 0.0699314 -0.006873191 0.14487565
0002a0 93 9c 18 be bb e3 18 bd a5 4e 50 bd 39 c1 ce bc
       -0.14903478 -0.037326556 -0.05085625 -0.02523862
0002b0 b5 89 1c 3e 75 a1 8c bc 5f cc 43 bd 97 7d 04 bd
       0.15286906 -0.017166832 -0.047802325 -0.032346334
0002c0 9a c6 3b bc 31 9f a3 bb 3b bd 9f 3d e7 9c 20 bd
       -0.0114609245 -0.0049933423 0.07799765 -0.039212134
0002d0 09 7d 97 3d d0 1a 3c 3d 6d 72 25 3e e1 5c ab bd
       0.073968954 0.045924008 0.16156931 -0.083673246
0002e0 10 5c 46 3b 86 5e dd bd 69 f1 62 bd 96 72 2c bd
       0.0030267276 -0.108090445 -0.055406008 -0.042101465
0002f0 e6 0f e9 bd 12 d9 d6 3c 82 e0 57 3d 9c 99 a6 3c
       -0.113799855 0.026226554 0.05270434 0.020336919
000300 f0 93 dd 3b 69 dd ca bd 0a 85 18 be 06 af b3 bd
       0.0067620203 -0.09905512 -0.148945 -0.087736174
000310 70 75 a9 3c 23 9e 16 3d 9c 40 90 3d ef 30 07 3e
       0.020685881 0.036771905 0.07043573 0.1320226
000320 78 10 16 3e a2 54 a3 3d 1c c2 9a 3d e7 3c d0 3c
       0.1465472 0.07975127 0.07556555 0.025419666
000330 cd 22 8d 3d 2a bb 0e 3c 94 27 9a bd 91 fd 93 3d
       0.06891403 0.008711616 -0.0752708 0.07226098
000340 98 2f 1a 3e 71 89 f6 bc 1e 65 f3 3d 7f 22 c7 bd
       0.15057218 -0.030094834 0.11884521 -0.097233765
000350 6c 0e e9 bd 5e b2 fd 3d 3a f3 9a bd 7c 9a 56 3c
       -0.11379704 0.123875365 -0.07565923 0.013098355
000360 32 9c b7 3d fb a8 ed 3d 1d c5 ed bc 29 62 b9 bd
       0.08965339 0.11604496 -0.029024655 -0.09051926
000370 c7 8f 17 3e 30 4f 34 bd 55 43 bb 3d 8d b3 c5 3c
       0.1480094 -0.04402083 0.09143702 0.024133468
000380 36 06 d3 bd c8 f3 15 be 5b aa 9e 3d c9 35 1b be
       -0.10303919 -0.14643776 0.077473365 -0.15157236
000390 1f fb df bd 01 a8 86 3d 2f 31 1e bc 06 8c d2 3c
       -0.109365694 0.06575013 -0.009655281 0.025701534
0003a0 3c a9 d4 bd 56 04 bd bd e5 4d ff 39 87 b7 b6 3d
       -0.103838414 -0.09229343 0.00048695426 0.08921724
0003b0 fb 4a 9b 3d 3b 75 d4 3c bb 1b 95 3d 49 a2 3b bb
       0.07582661 0.025934806 0.0728068 -0.0028630665
0003c0 61 21 c1 3b 04 f0 56 bd 80 15 2d bd 9e 64 ab 3d
       0.0058938717 -0.05247499 -0.042256832 0.083688006
0003d0 14 3f 79 3d aa d2 04 3e d5 58 08 3e 6b 4c 17 3d
       0.06085117 0.12970987 0.13315137 0.036938112
0003e0 79 14 bb bd 90 8b a5 bd ef c2 09 3d 8a c6 05 3e
       -0.09134764 -0.0808326 0.03363317 0.13064018
0003f0 da a2 0d bd eb 00 3f bd f3 9b 8c 3d 4d 70 da bc
       -0.034579135 -0.046631735 0.068656825 -0.026664877

lstm.bias_ih_l1 f4 [256]
000000 23 98 93 3d 72 ec 94 bd e4 32 02 3d ae 58 91 3d
       0.07206752 -0.07271661 0.031786814 0.070969924
000010 1e aa 86 bc 95 1e 87 3d d2 f0 5c bc 36 a8 b4 bd
       -0.01643854 0.0659763 -0.01348515 -0.08821146
000020 8b c4 9e bd 32 e0 04 3d 80 7e 96 bd 6d 1a 00 3e
       -0.07752331 0.03244037 -0.07348347 0.1251008
000030 54 c1 92 3d 76 5c 0e 3e 2c c5 99 ba af ad e1 3d
       0.07165781 0.13902459 -0.0011731735 0.11019456
000040 bc a5 97 bd d1 9f a2 3d 7b bc 9d 3d e9 55 3b 3d
       -0.07404658 0.07940639 0.077019654 0.045736227
000050 4b 4c c0 bc eb 92 06 bd 6a 4c a8 bc 1e b9 11 3e
       -0.02347388 -0.032854956 -0.02054425 0.14230773
000060 82 05 72 3d e8 51 49 bc d7 aa a6 bc 1c 5d e2 3c
       0.059087284 -0.012287594 -0.020345135 0.027632289
000070 ed 71 a6 3d 6d cb 17 3e 1a ed d4 3d cc 8a 0d 3e
       0.08127198 0.14823695 0.10396786 0.13822478
000080 3b 66 6d bc 14 ad 88 3d 6f ae f9 3d 5c 44 f4 3d
       -0.014489706 0.06673637 0.12191474 0.11927101
000090 b2 b2 56 3d 0b 7b f8 3d 2e 18 51 bd 0c 22 d5 bd
       0.05241651 0.121328436 -0.05104845 -0.104068846
0000a0 50 d7 76 3d 70 84 bd 3d 91 3b de 3d 63 dc ff bd
       0.06026393 0.09253776 0.10851205 -0.12493207
0000b0 ee a6 12 3e 67 0b 8e bd 95 90 0f 3e 6c 0c cc bc
       0.14321491 -0.069357686 0.14019997 -0.024908267
0000c0 1d 79 1e 3e 77 47 c4 3d 4d d1 d9 3d 18 3c 1b 3d
       0.15475889 0.09583943 0.10635624 0.037899107
0000d0 25 4b b4 bd 63 b6 a5 bd e6 6f 93 bd b0 e1 cc bc
       -0.08803395 -0.08091428 -0.07199077 -0.02500996
0000e0 55 3a 01 bc b1 07 8e 3d 15 dc 9f bd 0a 8f 6f bd
       -0.007887443 0.06935061 -0.07805649 -0.058486022
0000f0 00 e9 8a 3c 96 ea c2 bb 15 77 70 3c 8d 6c a3 bd
       0.016956806 -0.005948375 0.014676829 -0.07979689
000100 72 bb a5 bd 28 4e 91 bd 70 d5 b8 bc 0f a6 2f 3c
       -0.08092393 -0.07094985 -0.022562712 0.010720744
000110 be 7e 82 bd 4d 45 a1 bd 96 c1 0b 3c c1 16 1e 3e
       -0.063718304 -0.07874546 0.008530041 0.15438367
000120 64 2e e0 3d f8 b3 ab 3c c7 54 66 bd 7d 2a 3d 3d
       0.10946348 0.02095984 -0.056233194 0.046183098
000130 f3 23 b8 bd 5e 15 96 bd b6 56 48 3d 9a 7f 62 3d
       -0.08991232 -0.07328294 0.04891082 0.05529747
000140 86 c9 a3 bc 79 f8 11 3d f8 df ad 3c 56 71 12 3b
       -0.019993555 0.035637353 0.02122496 0.0022345386
000150 a3 55 8a 3d 48 ec a4 3d bb be 3d bd 8b cd e1 3c
       0.06754615 0.080528796 -0.046324473 0.02756383
000160 4b 66 a9 bd 8f 2f 27 bd 30 09 d3 bd 28 a6 98 bd
       -0.08271464 -0.04081684 -0.10304487 -0.07453567
000170 61 38 30 bd 91 87 fd 3c b1 94 a2 3c 6c 7c 58 3d
       -0.043022517 0.030948432 0.019846292 0.052853033
000180 4d b9 02 3e 0d 3a 76 3d 6b f5 0e 3d 1f 0d 72 3d
       0.12765999 0.060113955 0.034902018 0.059094545
000190 61 51 d4 bc d3 3b 99 3b 8d 28 7e 3d c2 66 00 3e
       -0.02591771 0.004676321 0.06205039 0.12539199
0001a0 ea 86 09 3e 25 27 b9 bd 52 5b 2f 3d 55 79 97 3d
       0.13430372 -0.09040669 0.0428117 0.07396189
0001b0 54 fa 5f 3d 25 31 a5 bd 32 63 03 3e 89 97 8b bd
       0.05468209 -0.08066014 0.12830809 -0.068160124
0001c0 19 e0 45 bd 1e 99 56 bd 78 03 16 3e 96 3a 0c 3e
       -0.04830942 -0.052392118 0.1464976 0.13694224
0001d0 46 5d 27 bb 4c ef 8e 3d f1 34 93 3d 34 a5 d2 bd
       -0.0025537773 0.06979236 0.07187832 -0.10285416
0001e0 67 53 24 bd e5 49 8e bc 7c b3 13 3d 7d 7c a6 3b
       -0.0401186 -0.01736922 0.03605984 0.005080758
0001f0 08 76 fa 3d 9b 7d 55 bd 5c ee cc bc 65 a3 27 3d
       0.12229544 -0.05212174 -0.025016002 0.04092731
000200 00 3d 2c bd 6b 38 63 bd 9e 8a c6 bd ff e5 c3 3d
       -0.04205036 -0.055473726 -0.09694408 0.09565353
000210 95 7f c6 3d 76 6e 45 3d b2 b3 c9 bc 0c 33 1e 3e
       0.09692303 0.048201047 -0.024621818 0.1544916
000220 ec 33 31 3d 0f 7f 9f bd 5f f0 de bd 1a de b6 3d
       0.043262407 -0.077879064 -0.10885691 0.08929081
000230 2f d9 50 bd 85 9e 5c 3d e8 a4 14 bb 0e e7 9e 3d
       -0.050988372 0.053862114 -0.00226813 0.07758914
000240 44 23 c2 3d 77 84 fb 3d a7 26 a9 3c 0e 0e b3 bd
       0.09479383 0.12281125 0.020648314 -0.08742915
000250 28 d3 84 bc b2 77 2a bd 37 0b 89 3d 98 9f 2d bd
       -0.016213968 -0.041618057 0.06691592 -0.04238853
000260 50 27 82 3c 9a e4 18 3e a2 3b 8c bd 24 67 02 3e
       0.015887886 0.14930955 -0.068473116 0.12734658
000270 d1 de a0 3d 9c 4b df bd 1a c3 f9 3d b7 31 b5 bb
       0.07854999 -0.10903093 0.12195416 -0.005529608
000280 18 33 09 be f5 ce 85 bd fb b7 d9 bc ef 81 f4 bd
       -0.13398397 -0.065336145 -0.026576987 -0.11938845
000290 4b d6 bd bc 5a 7c 56 3d 45 9b 05 be 21 d6 99 3d
       -0.023173472 0.052364685 -0.13047512 0.07511545
0002a0 d1 28 39 3b e2 7e 0d 3e 75 0b 1e 3e f6 f3 42 bc
       0.0028253088 0.13817933 0.15434058 -0.011898985
0002b0 36 14 14 bc 0a a4 1f be 0b bc c4 bd a0 0a 1e bc
       -0.009038022 -0.1558992 -0.09606179 -0.009646088
0002c0 a6 89 e1 3d a6 10 06 3e 0e 11 cd 3c 22 aa 97 3c
       0.110125825 0.13092288 0.025032546 0.018513743
0002d0 78 71 6d 3d 0a 18 c1 3d e3 a0 04 3e 3f 13 4a 3d
       0.05796954 0.09428413 0.12951998 0.04933476
0002e0 2f cc 2b bd cc 3e b7 bd fa 89 5b bd 34 b8 d9 3c
       -0.04194277 -0.089475244 -0.05359838 0.026577093
0002f0 78 de 19 be 8d 6d f0 3d e6 5e ea 3d dd b3 9e 3d
       -0.15026271 0.11739645 0.11443882 0.0774915
000300 60 63 c0 3d ce 36 29 3e 74 fe 22 3d 52 53 7d 3c
       0.09393954 0.16524813 0.039793447 0.01546176
000310 b6 8c 5c 3d 0b f0 a3 3d df d7 83 3d 99 e3 0c 3d
       0.05384513 0.08004769 0.064376585 0.03439674
000320 17 b8 d2 3c 97 85 08 bd 99 90 37 3d 95 cc c9 3d
       0.025722547 -0.033330526 0.044815633 0.09853474
000330 d6 97 b6 3c cb b2 d7 bd 10 30 ea 3c a7 18 8c bb
       0.022289198 -0.10532149 0.028587371 -0.0042753997
000340 f7 4b 0a 3e 0c 3b 00 3e c6 c1 50 bd 2a da bc 3d
       0.13505541 0.12522525 -0.050966047 0.09221299
000350 a4 0a 98 3d c5 3d 85 bd ae 06 e2 bb 0f 27 5f 3d
       0.074239045 -0.06505922 -0.006897769 0.05448061
000360 a5 41 c8 3d 42 3c 66 bb 21 f9 73 3d 71 ec 95 3d
       0.09778146 -0.0035131131 0.05956376 0.07320488
000370 30 3c 68 bd d8 be 3c 3c 3f 26 82 3d e6 7d cc 3d
       -0.056698024 0.01152011 0.06354951 0.09984951
000380 65 aa 86 3d e0 13 15 bb 44 60 e9 3b 2d 63 a1 3d
       0.06575469 -0.0022747442 0.0071220715 0.078802444
000390 c4 c3 c5 3d d6 07 23 bc d4 ba 23 3e ce 49 3e 3d
       0.0965648 -0.009950599 0.15989238 0.046457104
0003a0 33 eb 81 bd 0c 36 d9 3c 0d 30 f3 3c 0c 86 5b bd
       -0.06343689 0.02651503 0.029685998 -0.053594634
0003b0 3f 14 4b 3d 3d 40 f7 3b 61 10 40 bc 64 dc d9 3d
       0.049579855 0.0075454996 -0.011722655 0.10637739
0003c0 c5 36 00 3e 38 9b fa bc ea 6e 4b 3d 76 75 a2 3d
       0.12520893 -0.030591592 0.049666323 0.0793256
0003d0 bd 98 16 3d 12 bb 07 3d 80 67 88 3c b2 b3 95 3c
       0.036766756 0.03313739 0.016650915 0.018274162
0003e0 96 75 68 bd 9a a6 28 3e 59 c8 28 3e 02 fa f5 3d
       -0.056752764 0.16469803 0.16482677 0.12010576
0003f0 d1 66 30 bc 3b 21 cc bb 37 fc 9c 3d 5a b8 d5 3d
       -0.010766701 -0.0062295473 0.07665294 0.10435553
