fault_model_nn_two_year_global/best_Y2022.pt (torch, 235573 bytes, 14 tensors)

lstm.weight_ih_l0 f4 [256, 3]
00000000: 476e 0d3e f13e 7b3d 25b0 1b3c 05b4 563d
00000010: c73c 803c c692 91bc c528 9bbc 7931 023d
00000020: 757a 1a3e 0159 4cbd 5ccf 8a3d be34 6e3d
00000030: a8df 093e 9f9f cbbc 32f0 9d3c 6a1c 223b
00000040: 97fe 9a3d 47e8 093d a015 c0bc bcba 8b3b
00000050: aed6 bfbd 1b25 e53c e76b bebd 903e 273d
00000060: 245f b1bd 4faf 9bbd 60b3 47bc e355 0dbd
00000070: 8cca f1bc 06a4 23be 916a 183e d0c2 0fbe
00000080: fe3f f53d 08c6 5f3d 0d31 0cbc 111a ad3d
00000090: 4cc8 633d b6fb 883d e75a a0bc 6e51 2a3b
000000a0: 69cf 04bc 36d0 73bd 8708 b23d e599 cb3d
000000b0: 2d1e de3d 22ea 99bc e4f1 083d cb58 833c
000000c0: 7c05 d33d f561 e0bd ba71 23be 6494 84bc
000000d0: 4f8e 89bd 8692 873d c6bd bbbd 7951 0d3d
000000e0: cb81 af3c 10d3 cf3c 64a3 933d 48cc 70bd
000000f0: 159f aa3c 9466 e2bd 2072 c63c 622b 75bd
00000100: ab54 29bc dbd5 c93c 55b5 163e 8586 ecbd
00000110: 6ac5 12bd 5f5a 05bd a431 8f3d fddd b53d
00000120: 4a24 113e c814 ecbd fbc7 b1bd 39c8 54bd
00000130: e686 03be 26f2 9c3d fe55 b33d c7fa 793d
00000140: b2f6 aabc 4116 42bd 15e8 f73c 5b0b 71bd
00000150: 0971 f23d 89ad 91bd 84e0 103d ca40 92bd
00000160: 21b0 bdbd d303 943d a96e 8e3d 5971 98bd
00000170: a82a d13d 6526 fb3d da73 09be 6f48 02bd
00000180: bded 0f3e 53a4 ebbc 62df 81bc dd06 a8bd
00000190: b96b debd 7b93 873c 7a66 bc3c 63ae 05be
000001a0: 2c5e eabc f12d 37bd 96ba 17be c0cf dfbd
000001b0: 1462 b8be 15ba 20bd 0f41 2b3e 8924 623d
000001c0: 24e1 b73b 880c 1abe 9fd6 6dbd f49f a8bd
000001d0: 3364 29bb 8d47 a2bd 1866 acbd 848a d9bd
000001e0: 4bda bf3c 3fa5 98bd a50b eebc 7be8 32bd
000001f0: a214 f5bd e76a 14bd e32c 9cbb 7c88 08be
00000200: efb1 f93d 4c16 663c b7e7 b83d 0789 a43d
00000210: 8096 89bd aacc b53d 42b3 85bd 54c4 d1bb
00000220: fb65 17be dccd a4bd cc48 9f3d ae4f 8fbd
00000230: 2c9b b53d a4ea b0be 7430 8b3d cd81 72bd
00000240: 51a2 29bc 65cf 653d 447d 393d bcaa 143e
00000250: 1963 913d 1719 0bbe afbc 683d b349 abbd
00000260: 4a2e 7c3c 863b 75bd e04d f13d b720 e9bd
00000270: c3f2 cd3d 048d 463c 9906 c03b 86ce debc
00000280: 67c3 a03d 6447 533d 4f60 6a3d 3e03 1bbe
00000290: 4e9e a03d 0f5b 513c 3d74 b8bd 221f 0a3e
000002a0: 8216 8b3d 8da4 dfbd 1349 99bd b62c 0d3d
000002b0: 92e1 e73c 60fc f9bb 0424 77bd 7f8a aebd
000002c0: 0d29 0cbe 8150 b03d 08c1 5a3d 62d6 1cbe
000002d0: e7fa 593d 76b8 a33c 2223 47bc b60f 83bb
000002e0: a8b6 a23d d288 d43d b518 ec3c 99a2 5ebd
000002f0: ab0f 77bd 0ad9 1b3d 3eb1 debc 5d40 0bbd
00000300: a7c5 fc3d 48cc 873d 0f91 cd3c 884e 08be
00000310: 5cf3 123d 2cee 50bd b4f9 923d 979a 2bbc
00000320: 29b8 92bd 8eca 72bb 29f9 813d b6c0 ab3d
00000330: ac8b 1a3d 0c6c f2bd cc0b f4bc 19ac b8bd
00000340: 65d2 80bd 9fc1 733d 93c2 ea3d f118 d43c
00000350: 8c1f 08be 7763 fabc 133e 80bd 6cdd 273e
00000360: c409 f53c b422 5ebd 1316 9d3d c95a 2abc
00000370: e3ad fbbd 2145 d73d 51c4 e2bc 1006 82bd
00000380: 4ecf 98bd c7d8 f93d ccf1 f63d 1efc 363c
00000390: 23d3 54bd 7d63 22be 1809 a7bd 6962 0b3e
000003a0: 6573 923c f37e 133e 7aad c03d ab15 b23c
000003b0: 537b 883c 3332 71bd 4fe4 14be d89e 0fbe
000003c0: b3c9 bf3d 79ea d1bd 57c3 6bbd 8818 3cbd
000003d0: 2378 d7bc 72ab e0bd 2a65 c1be 40c8 bb3c
000003e0: 4b8c 70bd a419 be3d 378e 4cbd 5d38 76bd
000003f0: efcb 01be de3f a8bd 0e9c 95bd 69e4 57be
0.13811599 0.061339322 0.009502445 0.052417774 0.01565398 -0.017770182 -0.018940339 0.031785462
0.15085776 -0.04988957 0.06777832 0.058155768 0.13464224 -0.024856387 0.019279573 0.0024736174
0.075680904 0.033668783 -0.023447812 0.004264204 -0.09367119 0.027971795 -0.092979245 0.04083115
-0.08660725 -0.07601797 -0.012188762 -0.034505736 -0.029515527 -0.15980539 0.14884402 -0.14039159
0.11975096 0.054632217 -0.0085566165 0.084522374 0.05561094 0.06688635 -0.019574596 0.0025988477
-0.008106091 -0.059524737 0.08693033 0.099414624 0.10845599 -0.018788401 0.03343381 0.01603355
0.103037804 -0.10956184 -0.15961352 -0.01618404 -0.06716596 0.06619744 -0.09167056 0.034501527
0.021424195 0.025369197 0.07208899 -0.058788568 0.02082781 -0.110547215 0.02422434 -0.059855826
-0.010335128 0.024638107 0.1471761 -0.11549095 -0.0358328 -0.032556888 0.0699189 0.088802315
0.14174 -0.11527401 -0.08680721 -0.05194876 -0.12844428 0.07663374 0.08756636 0.061030176
-0.020869587 -0.047384504 0.030262033 -0.05884872 0.11837966 -0.07113177 0.035370365 -0.07141264
-0.092621095 0.07227292 0.069547005 -0.07443494 0.10213214 0.122631826 -0.134231 -0.03180736
0.14055534 -0.02876488 -0.015853588 -0.08204434 -0.1086039 0.016549816 0.022998083 -0.13054805
-0.028609358 -0.044721548 -0.1481727 -0.10928297 -0.36012328 -0.03923996 0.16724037 0.055210624
0.0056115557 -0.15043843 -0.058066007 -0.08233634 -0.0025847077 -0.079238035 -0.0841791 -0.10622123
0.02341952 -0.07453393 -0.029058287 -0.043678742 -0.11966826 -0.036234763 -0.004766093 -0.13333315
0.12192141 0.014043402 0.09028571 0.080339484 -0.06718159 0.08876927 -0.06528331 -0.006401578
-0.14784996 -0.08047077 0.07777557 -0.069976196 0.08867487 -0.34554017 0.06796351 -0.05920582
-0.010353641 0.05610599 0.04528548 0.14518255 0.070989795 -0.1358379 0.056820568 -0.083636664
0.015391896 -0.05987122 0.117824316 -0.11383193 0.10056069 0.012118582 0.0058601615 -0.027198087
0.0784977 0.051581755 0.057220753 -0.15137956 0.07842694 0.012778058 -0.09006546 0.13488439
0.067914024 -0.109200574 -0.07484641 0.034466468 0.028305802 -0.0076289624 -0.06033708 -0.0852251
-0.13687535 0.08609105 0.053406745 -0.15316156 0.053217795 0.019985419 -0.012154372 -0.0039996756
0.07944995 0.10377659 0.028820375 -0.054354284 -0.060317677 0.03804878 -0.027184125 -0.03399693
0.12342387 0.066307604 0.025093583 -0.13311207 0.035876617 -0.05100839 0.07176533 -0.010473869
-0.07164032 -0.0037047002 0.06346352 0.08386366 0.037730858 -0.118370146 -0.029790781 -0.090172
-0.062901296 0.059510823 0.11462893 0.0258908 -0.13293284 -0.030565007 -0.0626184 0.1639306
0.029911883 -0.054232314 0.07670226 -0.010397621 -0.12289026 0.10511232 -0.027681502 -0.063488126
-0.07461415 0.1219955 0.12057838 0.011168508 -0.05195917 -0.15858264 -0.08156031 0.13611759
0.01787729 0.14403896 0.09408088 0.021738848 0.016660368 -0.058885764 -0.14540218 -0.14025438
0.09364643 -0.102498 -0.057559337 -0.045921832 -0.026302403 -0.109702006 -0.37772495 0.022922635
-0.058727544 0.09282234 -0.049940314 -0.060112346 -0.1267545 -0.08215307 -0.07305156 -0.21083225

lstm.weight_hh_l0 f4 [256, 64]
00000000: 1d0b 00be d69a 2d3e 458f bd3d 4be7 a73b
00000010: ee00 f5bd 8bfd 12bc c208 dd3c f534 b83c
00000020: 878a 06be c6c1 0fbd 26f3 6d3d eec5 7abd
00000030: efbe 803d 58d0 c1bd 960d d13c 1e04 bc3d
00000040: 0a58 afbc e707 23be 7ec4 ad3d 3eb3 233d
00000050: f914 89bc 8401 ad3d d11c 39bc 47dd 043e
00000060: a2c2 ac3d 790f 73bd 66fa 003e b2dd 8dbd
00000070: 0c99 eabd e48f c53c 1674 21bd 3997 2a3e
00000080: bbc8 90bd e919 c23d e36f 20be f10c db3c
00000090: 9fe4 3cbc 7784 0fbe 0f4e 7b3d 5ccd 773c
000000a0: 7f2c 803d 7568 f8bd e2b5 d8bd 91de 47bc
000000b0: 79d8 27bc 77bc b13d c410 d63d c54e 363b
000000c0: 138e 333d 4d2b 423d 6f9c a0bd f7b8 333d
000000d0: 4a15 da3d 9e90 1e3e 9f67 edbd 6b9b 86bc
000000e0: 5044 a6bd 08b4 20bd 172f f23c a3c1 dabc
000000f0: f38b da3d 6c4f 2fbd 661d f93d 96d9 143b
00000100: 887e 01be 18f4 6cbd 1777 96bd dd52 413d
00000110: e5ee cdbd 9d63 05bb 2f75 293d 41d3 66bd
00000120: 1152 b93c 46e1 0abe 945c abbd 19ab 01be
00000130: dfa5 b8bc 4f6c 79bd 46b2 58bb 4282 d1bb
00000140: 513a 9f3d cad5 c63d 46c8 af3d 9555 6abc
00000150: 465a 13be 4c52 3a3d 9aad 4dbd 4777 a33d
00000160: bfe7 f53d 8447 823d 4e6e 073e 35c1 043e
00000170: a14f 6d3c ff91 9dbd 7b47 033e 3ace 2bbd
00000180: b3a8 9bbd 1228 f53d f4f3 a13d a88b c13c
00000190: c4a9 413c 6964 cdbd ecd1 703c 2a4b d43d
000001a0: f438 8f3c 1a38 94bb 865b 2fbd 1342 7ebd
000001b0: 7d0b 6b3d 1597 233d ab81 ca3d ebf6 7f3c
000001c0: 79f4 3c3d d2f1 113d 33ae 703b 84b6 7c3d
000001d0: be7f bf3d 9889 063e 0d48 a53d c60f 72bc
000001e0: ec3d f8bd a7cc 813c f74c d93c 0078 7fbc
000001f0: 5422 06bc 842e 1bbd be01 493d 289a a53d
00000200: 91f9 b3bd ed23 f2bb d8bf 513c 9fed bbbd
00000210: 4e41 8d3d 201c e13d cc8c 213e e754 353d
00000220: 2d41 8cbc 4d5a 6ab9 374f 98bd cbed 01bd
00000230: 1259 0e3d efb4 e8bd a1bd dabd 080a 1d3e
00000240: d14c 133e 962c ce3c cfa6 0e3e bf18 b2bc
00000250: 1ef8 b33c 6500 553c db11 bc3c 247e 9d3c
00000260: a0c3 a6bd bc19 9f3d e5fe 00bd 8f31 453d
00000270: 8430 a03d 1f82 8d3b d746 873b 17c6 f33d
00000280: 96b1 b4bd 38f3 053d 8ac4 983d 9c44 c2bd
00000290: 872a 94bd 221d e6bd 4685 f33b 1fc2 d0bd
000002a0: 24d7 ddbd b650 ea3b f69a aebc eea6 a8bd
000002b0: a7cb 0dbe 6145 843b 40ee 24bc 21f7 66bc
000002c0: cf3d 09be 19f8 88bc 5c1a 0abe 6c09 0ebe
000002d0: 7448 71bd 5e4b c33d 592b f3bd 6322 0fbc
000002e0: 3e0a 5f3d d3a6 b53c 7229 e33c 88a6 9abd
000002f0: 0905 60bd 933c 55bd 8501 183e 520f ce3c
00000300: c242 0dbe 1c0f 373d 7a49 56bd 523a 92bd
00000310: 85d8 a0bd 4ef3 1b3e 8bf9 ab3d cc49 b83c
00000320: 638d c9bc dc20 a4bd e4ca bf3d 17c6 aa3b
00000330: 71a0 9f3d a12d bfbd ddac c13d 269e d73c
00000340: fda8 92bb e521 0f3d 7e2f f93d aef0 0b3e
00000350: db42 aa3d f05d 77bd 85fa db3d 0d3a 1b3e
00000360: e52d cdbd 57a2 ea3c 2ad4 24bd 7291 8a3d
00000370: bffd 013c c3f4 963c fd09 0a3d ffa1 cd3d
00000380: e551 87bd 3254 79bd 2c66 643d acf2 dabd
00000390: fe4d 9e3c d89c 05bd 3339 0e3d 31ef 25be
000003a0: 48e0 4f3c 95df cebd 791f dfbd 8a73 67bc
000003b0: afa8 dfbd 1796 c7bc 0a02 8e3a 8c24 98bc
000003c0: cbae b2bd 763d 9fbd 3fd1 4dbc ee2a 15be
000003d0: 1195 00bd 9396 3b3d 46a5 dbbc 10a8 e83d
000003e0: 483b 07be 2c95 9ebb 3deb d63c 83c3 e83d
000003f0: 7956 a3bd 232e 40bd 6464 7ebd c74e 86bd
-0.1250424 0.16953596 0.09255842 0.005124008 -0.11963068 -0.008971582 0.026981715 0.02248619
-0.13138781 -0.035096906 0.058093213 -0.061223917 0.06286418 -0.094635665 0.025519174 0.09180473
-0.021404285 -0.15920983 0.084847435 0.03996586 -0.016733633 0.08447555 -0.011298374 0.12975036
0.08435561 -0.059340928 0.1259552 -0.06927051 -0.114549726 0.024116464 -0.03941735 0.1665925
-0.07069536 0.09477598 -0.15667681 0.02673957 -0.011529117 -0.14015375 0.06135374 0.015124645
0.06258487 -0.121292986 -0.105815664 -0.01219906 -0.010244482 0.08678525 0.104524165 0.0027817946
0.043836664 0.047404576 -0.07842337 0.043877568 0.10648592 0.15484855 -0.1159203 -0.016431531
-0.08118498 -0.03923419 0.02956347 -0.026703661 0.106712244 -0.042800352 0.121638104 0.00227127
-0.12645924 -0.057849973 -0.07346933 0.047198165 -0.10055331 -0.0020353564 0.04137152 -0.05635381
0.02262214 -0.13562497 -0.08367267 -0.12662925 -0.022540031 -0.060894307 -0.0033065244 -0.006393702
0.07774795 0.09708746 0.08583121 -0.014302631 -0.14389905 0.04548864 -0.050214387 0.07981735
0.12007093 0.06361297 0.13225672 0.12964328 0.014484317 -0.07693862 0.12820236 -0.04194472
-0.07600536 0.119705334 0.079078585 0.023626164 0.01182026 -0.10028917 0.014698487 0.10365899
0.017483212 -0.0045232894 -0.042811893 -0.062074732 0.057384003 0.039939005 0.098880135 0.015622835
0.046131585 0.03563101 0.0036724925 0.061697498 0.09350537 0.13138425 0.08070383 -0.0147742685
-0.12121186 0.015844656 0.026525958 -0.015592575 -0.008186895 -0.037886158 0.049073927 0.080860436
-0.087878354 -0.0073895366 0.012802087 -0.09176182 0.068972215 0.109916925 0.15776366 0.044270422
-0.017120922 -0.00022349619 -0.07436984 -0.031720918 0.034752913 -0.11362635 -0.106807 0.15335858
0.14384772 0.025167745 0.1393082 -0.021740315 0.021968897 0.013000582 0.022957733 0.019225188
-0.08142781 0.0776858 -0.031493086 0.048142966 0.078217536 0.00431849 0.004128318 0.11903017
-0.08822934 0.032702655 0.07459362 -0.094857424 -0.07234674 -0.112360254 0.007431659 -0.10193276
-0.108320504 0.007150735 -0.021314126 -0.08234964 -0.13847218 0.004036591 -0.010066569 -0.014097006
-0.13402484 -0.016719865 -0.13486618 -0.13870782 -0.058906987 0.095358595 -0.11873502 -0.008736226
0.054453127 0.022174275 0.027729724 -0.075512946 -0.054692302 -0.05205972 0.1484433 0.02515379
-0.13794997 0.044692144 -0.052316166 -0.0714003 -0.07853798 0.15229532 0.08397206 0.022496127
-0.024603551 -0.0801408 0.0936487 0.0052116024 0.07794274 -0.09334875 0.09456799 0.026320528
-0.0044757114 0.034944434 0.121672615 0.13666031 0.08313533 -0.06039232 0.10741142 0.15158863
-0.10018519 0.028641863 -0.040241398 0.06766023 0.007934033 0.018427258 0.03370093 0.10040664
-0.06607417 -0.06087131 0.0557615 -0.10690817 0.019324299 -0.03262028 0.03472252 -0.16204526
0.01268775 -0.10101239 -0.10894675 -0.014126668 -0.10920846 -0.02436356 0.0010834348 -0.018572114
-0.08724745 -0.077753946 -0.012562095 -0.14567158 -0.03139216 0.045797896 -0.026812207 0.113601804
-0.13206208 -0.00483956 0.026235217 0.11365416 -0.07975478 -0.046919 -0.06210746 -0.06557994

lstm.bias_ih_l0 f4 [256]
00000000: 1dc9 143d 8362 90bd 015f b2bc 8664 ea3d
00000010: a092 07bd cb5e 28bd 4b1a c93d ce0c 9fbc
00000020: 9b64 abbd 567a 8f3d c831 ba3d 435a a6bd
00000030: e046 543d 490b 59bd 229c ba3d 1047 d93d
00000040: bc85 b13d bff1 153e 3e0c e3bb 448d cfbc
00000050: 4db8 823d 49f5 8e3d bfe1 2dbc c0bd 25bd
00000060: 8d47 4dbc c2e1 c83d abe0 c63d ede7 8ebc
00000070: 7674 183e 33ab 86bd b89e f33c d6a5 9a3d
00000080: d456 79bd 8709 1d3e 2445 99bc 2405 ed3d
00000090: 8948 9dbc 7f3c 1bbd c800 1f3e 6615 8d3c
000000a0: d24d 413d 111f 243e 9a74 a1bd 8290 143e
000000b0: f696 d5bc 8779 70bd 77e6 e73d 0642 c6bc
000000c0: 297e 92bd abf4 9dbc 8e2d e43d cd06 b43d
000000d0: 7730 e53c 7960 d83d 4d56 8a3d 1d77 7cbd
000000e0: aa80 843d 7ad5 053e 24be b63c 10c2 f03c
000000f0: 54a6 213e 051e 493b 41cc 1c3e 3ca3 0d3e
00000100: ee40 153e 5a6b 263d 7b38 9e3d 16fc 993d
00000110: dc5f 8fbd 56eb d6bc 738e 10bd 1c45 d93c
00000120: d829 48bd 0f85 5b36 dcec 2ebd 0803 57bd
00000130: 959d 9a3d 7078 293e 548b 85bc b159 3bbd
00000140: c812 543a 2d3d b2bc 6e16 d6bd ee37 fd3d
00000150: 7cb2 d73d 61d4 e43d 684e 8ebc 3112 24bd
00000160: bfab 143e c2bf e9bc 9b02 72bd 129b 8bbd
00000170: a07b a73d 1c06 2a3c b4db febc 284d 1b3e
00000180: da9f 25bd 42e8 453d 108d d23d a1f4 ce3d
00000190: b02e a03d be32 a53c 7229 bf3d 3f7d bb3c
000001a0: cda6 2b3d 0d7a f7bc a294 f13d 43d5 893d
000001b0: 447a 7b3d df96 ae3c a513 a23d 0bd5 e8bd
000001c0: d8f4 d93d 6c36 143e b3f8 c93d 7bee ee3c
000001d0: e6af a8bd 09dc 0a3c d680 69bd c4e6 e2bc
000001e0: 68cf 0d3e 125a e23c 265b 2e3e 2116 a0bc
000001f0: 49af 38bd f332 a3bd 239b 893d aa94 863d
00000200: a36d a63c cbdd e93d 6c9b eb3d b545 1fbe
00000210: 5408 1cbd 6e5e 033e 021c f23d 131c ba3d
00000220: ef95 8cbd 0673 12be d88f 213e 6fa9 8ebd
00000230: 93be 993d 5eca 9abd 4e11 92bd bc97 a53d
00000240: 1666 1d3e 8ff9 42bd a0f7 b83d 459e 9f3d
00000250: 37ad 97bb e718 8abc d724 a73d 1a64 1b3e
00000260: 8fc9 90bb 4fc7 103e 1cfe 0e3d 8dfc a83d
00000270: 5820 12be c6ac dc3d dfb0 173e e862 923d
00000280: bad7 d0bc f084 903d 8a38 09be a44c 17be
00000290: fc6c ad3d 8c9a 15be 01bc d73b 0a3a dcbd
000002a0: 27ce 16be 0124 c1bd fdc6 1abd d995 0cbe
000002b0: 99ad 02be 01e8 83bd c29f 0b3d d36a 97bc
000002c0: d561 9f3d b729 27be 166d 0dbe f7ff 84bd
000002d0: eda8 203e 5036 1d3e bac1 6bbd b9b2 50bc
000002e0: 33e6 b5bc 37fc 09bd a5b3 ffbc f323 65bc
000002f0: c9ce 0c3d 9dad 0fbc 93b8 d73d 0464 4ebd
00000300: 4dcc b53c 49d8 8c3d cd20 023e b146 e63d
00000310: a182 873c 5e00 4b3d e02e 02bc 55f8 1b3e
00000320: d9b9 af3d c6b3 8dbd 55a3 c83d 9cdc 193e
00000330: c4a3 933d 919e 58bd f07d f33d 51af 403d
00000340: eb73 703c 1802 a33d 33eb e53d 8f3f b13d
00000350: cc3a 9ebd 97fa b13d 20d2 ddbc d69f 96bd
00000360: 809f 0dbd d597 e53d 6f1c 143e 656e 9d3d
00000370: 3cef fb3d 70aa babd 9589 54bc cf35 c6bc
00000380: c621 96bd ecc4 10bd ea4c 41bd 1fc5 6fbd
00000390: b6d3 edbb bbde b5bc cb08 413d 2142 633c
000003a0: a628 123d a093 88bd 13b5 78bd 61a5 88bd
000003b0: 8f76 003e 0540 5e3d fb91 6dbd 15f2 1fbd
000003c0: 335f d13c e81e 0cbd 979c 073e a3bb fd3d
000003d0: ac7e 853d 9133 c13c f796 f43d 0c94 863d
000003e0: 7a1d 5d3d c2dd 763d b176 90bd 536e ac3d
000003f0: 9f48 a73d fc39 fa3d a1c9 9b3d 75aa 0d3e
0.03632461 -0.070500396 -0.021773817 0.114449546 -0.033098817 -0.041106027 0.09819468 -0.019415285
-0.08368798 0.070057556 0.09091526 -0.08122685 0.051825404 -0.052989278 0.09111811 0.10609257
0.08668086 0.14643 -0.0069289496 -0.025335915 0.06382809 0.06980378 -0.010612904 -0.040464163
-0.012529266 0.09808685 0.09710821 -0.017444575 0.14888176 -0.065756224 0.029738769 0.07551162
-0.06087382 0.15335666 -0.018709727 0.11573246 -0.019199627 -0.03789949 0.15527642 0.017222118
0.047193356 0.16027476 -0.07883568 0.1450825 -0.02607296 -0.058709648 0.113232546 -0.024201404
-0.071529694 -0.019281706 0.11141501 0.0879036 0.027977211 0.10565276 0.06754742 -0.061637033
0.06469853 0.13069716 0.022307463 0.029389411 0.15786105 0.003068806 0.15312292 0.138318
0.1457555 0.040629722 0.077256165 0.07518785 -0.070007056 -0.026235264 -0.0352921 0.026522212
-0.04886803 3.2710993e-06 -0.042706355 -0.052493125 0.07549588 0.1654985 -0.016301788 -0.045739833
0.0008089957 -0.021757687 -0.10453497 0.12364183 0.1053209 0.111733206 -0.017371371 -0.04005641
0.14518641 -0.02853382 -0.059084516 -0.06816687 0.081778765 0.010377433 -0.031110622 0.15166152
-0.04043565 0.0483172 0.10280812 0.10105253 0.07821405 0.020165797 0.09334077 0.02288687
0.04190712 -0.030209566 0.117959276 0.067301296 0.0613959 0.021312175 0.07913903 -0.1136876
0.10642403 0.14473885 0.09861889 0.02916645 -0.08236675 0.008475312 -0.057007633 -0.027697928
0.1384865 0.02763084 0.17026958 -0.019541802 -0.04508904 -0.07968702 0.06719043 0.06571324
0.02031595 0.11419257 0.11504254 -0.15553935 -0.03809388 0.12828991 0.11821748 0.09087386
-0.06864535 -0.1430169 0.15777528 -0.06965911 0.07507052 -0.0755813 -0.07132207 0.08085582
0.15370974 -0.04760128 0.09031606 0.077938594 -0.004628803 -0.016857577 0.081613235 0.15174904
-0.004418559 0.1413853 0.034910306 0.08251295 -0.1427015 0.107751414 0.14813565 0.07147771
-0.025493491 0.07056606 -0.13400474 -0.1477533 0.08468053 -0.14609736 0.006583691 -0.107532576
-0.14727078 -0.09430695 -0.037787426 -0.13729037 -0.12761535 -0.064407356 0.034087904 -0.018483555
0.07782332 -0.16324507 -0.13811144 -0.06494134 0.1568944 0.1535275 -0.0575578 -0.012737923
-0.022204494 -0.033687796 -0.03121359 -0.013985622 0.034376893 -0.00876942 0.105332516 -0.05038835
0.022192145 0.068771906 0.12707825 0.11243952 0.01654178 0.049560897 -0.007945746 0.1523145
0.085803695 -0.06919055 0.09796778 0.15025562 0.0720897 -0.052885596 0.11889255 0.047042195
0.0146760745 0.07959384 0.11226501 0.08654701 -0.07726058 0.08690374 -0.027077734 -0.07354705
-0.03457594 0.112106 0.14463972 0.07687072 0.1230149 -0.091145396 -0.012972255 -0.02419558
-0.073306605 -0.03534405 -0.04719249 -0.0585376 -0.007257904 -0.022200933 0.047127526 0.013870747
0.035683297 -0.06668782 -0.06071956 -0.066721685 0.12545227 0.054260273 -0.058000546 -0.039049227
0.02555809 -0.034209162 0.13243328 0.123893045 0.06518301 0.02358416 0.11942857 0.065712065
0.05398319 0.06027008 -0.070538886 0.0841948 0.08168148 0.12218091 0.07606817 0.13834555

lstm.bias_hh_l0 f4 [256]
00000000: 6330 b6bc 8aa1 af3c 26fa 49bd a15b 193e
00000010: ba5f 1a3d 0285 b3bd 417b ec3d 7610 713d
00000020: 59ac bcbc 4dce 1d3e 0a7e ecbc e739 f5bc
00000030: 2996 e7bb d370 6c3d f3aa 70bd 1697 843d
00000040: b354 9cbd a12e 30bd af80 64bd e80f 88bd
00000050: e537 703d 2c96 b23d 3b94 703c 97c2 8b3b
00000060: 1bd3 e63c 119c 61bd ba48 98bd 9b58 30bd
00000070: c766 42bd f468 373d 2b9e 143e a965 093e
00000080: 9fbd 43bd 0d83 df3d 4c04 1c3e a61e 7a3c
00000090: 5e1b 85bd bbbd afbd 9905 f13c 05ac 8dbc
000000a0: 6e5e 673d 0e96 93bd be6d dc3c 5e2c 883d
000000b0: f804 943b 8dc8 c03c ab40 263e ca20 8c3d
000000c0: 2daf 84bd 2315 6fbc c6cb b43d ad5f b33d
000000d0: fbc1 91bd 1e26 34bd 7811 13bc dd19 893c
000000e0: 8d45 453d cb7c 943d dfbd c6bc 0602 d6bc
000000f0: 1c48 d73d e87e 70bd d981 6e3c 5a7a aabd
00000100: c26f 4ebd 3ab8 5d3d 8cd4 163d c777 173e
00000110: ea75 2c3e 75a7 a4bd f44f 03bd ba36 963d
00000120: 7347 08bb 1606 98bd 6a29 03bd 40a1 eabc
00000130: 24f8 443d 5ad1 c53d 9e7d e33d f9fd 113e
00000140: 26f0 bdbc 2ae1 f53d 3f20 5fbd 5a8c bfbd
00000150: 53ea 08bd 4d66 9c3d f327 8b3d 8660 87bd
00000160: 80b2 713d 1a0b 2d3d 8c07 0c3e 300c 0ebd
00000170: a987 75bd 4e10 9d3c 9d60 a2bb fb52 c43c
00000180: b306 97bb a9fb 253e c1ad c53c e739 a3bd
00000190: 54b5 ccbd d6d8 013d 929e cb3d 9e1c 813d
000001a0: 0e93 c8bd 6aad 7b3d b5f3 043e c4cc a1ba
000001b0: 707f c13d d205 0a3e ebd1 083e f379 e33c
000001c0: 0cda ecbd 4f8d 76bd dd5b fe3d bccf d5bb
000001d0: 81c9 103e 701e fb3d 50ae 8cbd 318c b53d
000001e0: 796f 82bd 9bec 46bd 31f0 083e f5c4 1f3e
000001f0: 40cd 963d 3fdf a03d aafd 0b3d a260 cd3d
00000200: 18db 23be ac0a 8a3d 03e0 5f3d d8ac a0bd
00000210: 4ca3 eabd 4f5f 873d fbf7 743b f8a9 653d
00000220: c6b9 12bd 79d6 28bd 87d1 f2bb 6916 17be
00000230: 84f0 7e3d 6941 75bd 7208 88bd db68 f13d
00000240: 2106 a9bc 63c9 0ebd e5a8 9fbd 06f6 9bbc
00000250: e58b d53d fd88 0fbd 478d df3d 203b 143e
00000260: 628d 993d 0158 0c3e d346 953d b153 dc3d
00000270: e0d6 18be fe1a ee3d a01e ad3d 3a8c 7c3d
00000280: a794 1bbe 663c de3d 0a96 033d 684b 09be
00000290: c6cc ca3d a901 a83d aed8 ba3c cecf 90bd
000002a0: 4d24 1cbd f430 16be e6c5 17be df78 5ebd
000002b0: 973a 99bd 62ce 163e 137a e53d 6b6d a3bc
000002c0: b784 0cbe 01d2 a3bb c4b8 21bd 78ad bebd
000002d0: fc5a 123e 9d70 f13d 1cda b6bd f8ca 023e
000002e0: 1730 18be 0702 12be edfc 7a3c 7e99 ed3d
000002f0: 6239 6b3c ea0a 68bd c7a8 b9bd 54c6 8f3d
00000300: 6f39 343d cce2 b3bd 4e0e 52bd 3738 ec3d
00000310: 11db 6cbd 1e89 453d 836f 183e 36bb 1a3c
00000320: 21f2 ae3d a68b ca3d 54d6 143c c3ba 4abd
00000330: 1fd3 13bd 5970 9bbd 51c6 673d 50b2 8d3d
00000340: 9572 813c 4470 bc3d 0ffa d53b db6c 8b3d
00000350: 4a3e 123e 4f5e 1b3e 8c94 193e b7f3 0bbc
00000360: 2d88 f63c 9ad0 0d3c 5431 ad3d 1854 e83d
00000370: 7517 893d 06d3 45bc 7355 8d3d 68bc 39bd
00000380: a68a 9cbd 6540 ad3c 1d3a fa3c d7aa a13c
00000390: c946 fd3c de7c 9a3d 9061 933d cef0 843d
000003a0: eaf3 a33c 8fa7 8f3d a529 33bd 0efc 08bd
000003b0: 98a6 593d 948b 033e 58e8 5b3d dd4b fb3d
000003c0: d3e1 023e a72c 9cbd b848 d7bc b50c 9f3d
000003d0: 57c2 ee3c 944c b23d b379 b3bc e262 cc3d
000003e0: b029 eabc 7ecd 5a3d fff1 7bbd 63e0 513c
000003f0: a047 ed3d 96a4 e03d 354b 96bd 9216 d43d
-0.02223987 0.021439333 -0.049310826 0.1497636 0.03768895 -0.087656036 0.11546946 0.05885359
-0.0230314 0.15410729 -0.028868694 -0.029934837 -0.007067461 0.057724785 -0.05875678 0.0647413
-0.076333426 -0.04301322 -0.055786785 -0.06643659 0.058647055 0.08720049 0.014683778 0.0042651403
0.028176835 -0.055080477 -0.074357465 -0.04305325 -0.047461297 0.044777825 0.14513461 0.13417687
-0.04778826 0.10913668 0.15236014 0.015266096 -0.064993605 -0.0858111 0.029421614 -0.01729394
0.05648654 -0.07206355 0.026907798 0.06649087 0.004517194 0.02353313 0.16235606 0.068421915
-0.06478725 -0.014592442 0.08827929 0.08758483 -0.07117077 -0.043981664 -0.008976333 0.016735965
0.048162032 0.07250365 -0.02426046 -0.026124012 0.10511801 -0.058714777 0.014557325 -0.08324118
-0.05039955 0.05413077 0.036823794 0.14791785 0.16841856 -0.080397524 -0.03205867 0.07334657
-0.002079454 -0.07423036 -0.032021917 -0.028641343 0.048088208 0.09659071 0.11107944 0.14257039
-0.0231858 0.12005837 -0.05447411 -0.09352942 -0.033426594 0.076367 0.06794729 -0.06610207
0.05900812 0.042246915 0.13674754 -0.03467959 -0.05994383 0.019172814 -0.004955365 0.02396535
-0.004608953 0.16209282 0.024130704 -0.07970028 -0.09995523 0.03170093 0.09942354 0.063042864
-0.097936735 0.061444677 0.12983592 -0.001234435 0.09448135 0.13478783 0.13361327 0.02776811
-0.11565027 -0.060193356 0.12419865 -0.006525008 0.14139368 0.12261665 -0.06869185 0.0886463
-0.06368918 -0.04856549 0.13372876 0.15602477 0.07363367 0.07855081 0.03417746 0.10028197
-0.16001546 0.06740317 0.054656994 -0.07845467 -0.11456928 0.066099755 0.0037379253 0.056070298
-0.0358217 -0.041220162 -0.0074102315 -0.14754643 0.062241092 -0.059876833 -0.06642236 0.11787578
-0.020632805 -0.034860026 -0.07795886 -0.019038212 0.104270734 -0.03504275 0.109156184 0.1447568
0.0749767 0.13705446 0.07288899 0.1075815 -0.14925718 0.11626242 0.08453107 0.061657168
-0.15193425 0.10851364 0.03212551 -0.13407671 0.09902339 0.08203442 0.022808399 -0.070708856
-0.038120557 -0.14667112 -0.14821586 -0.05431449 -0.07481878 0.14727166 0.112049244 -0.019949635
-0.13722502 -0.0049993997 -0.039482847 -0.0931043 0.1429252 0.117890574 -0.0892832 0.12772739
-0.14862095 -0.14258586 0.015319091 0.11601542 0.014356943 -0.056651033 -0.09065395 0.0702025
0.044000085 -0.087834924 -0.051283173 0.1153416 -0.057826106 0.04822647 0.14886288 0.009444049
0.08542276 0.09889917 0.009084303 -0.049494516 -0.036090013 -0.07589788 0.056585614 0.06918776
0.015801707 0.092011005 0.0065300534 0.06807872 0.14281574 0.15172695 0.14998072 -0.008541993
0.03009423 0.0086556915 0.08456674 0.113441646 0.06693927 -0.012074238 0.06901064 -0.045345694
-0.076436326 0.02114887 0.030545289 0.019734783 0.030917542 0.07543348 0.07196343 0.06491242
0.020013768 0.07014381 -0.043740887 -0.033443503 0.05313739 0.12846214 0.053688377 0.12270329
0.12781458 -0.07625704 -0.026279792 0.077660955 0.029145403 0.08706012 -0.021908617 0.09979798
-0.028584331 0.05341863 -0.061510082 0.012809846 0.11585927 0.10968892 -0.07338563 0.103558674

lstm.weight_ih_l1 f4 [256, 64]
00000000: 3955 66bd b0a2 96bd e5b9 1a3e e910 9e3b
00000010: b492 c8bc fb51 993d 989f be3d 409e 99bd
00000020: f7a1 0c3d a98f 5b3d e6f0 583d 0e09 92bd
00000030: 1377 613d 428e f0bc 9573 65bc 8fbe 23bd
00000040: fb76 c83d 63a4 a4bc 9b16 393c c2a7 0bbc
00000050: 34ea 023e 56da fabd ceda 96bb 1e66 3fbd
00000060: a7ba e03d 5268 4fbc 4aa9 233d b7e7 ed3c
00000070: a34a 683d f082 8cbd 2edc dabc d1bc abbd
00000080: ae85 81bd db37 8fbd ff40 afbc d321 2c3c
00000090: 46bb 303d acf2 19bc dd45 d03a 79b6 01be
000000a0: 77f0 67bd 5e39 833d 968e 66bc 9d9a 7abc
000000b0: 8dd6 91bd d27a f83d 7074 f73d 9d27 513d
000000c0: a095 d83d a4da debc 3e2c 0fbd 14f6 7b3b
000000d0: 291c a9bd a67c f03d 4296 d2bd 14af 89bc
000000e0: 1555 39bd 2ddc 06be 368b eabd 578b 0d3e
000000f0: 19f3 26bc 89d4 823c b450 803d e4f1 fd3d
00000100: 7abb c7bd 72b6 0bbd c379 223e 75ae f9bd
00000110: d339 25be 4b71 843c 4d9d e03d 610c c13d
00000120: d72b fdbd f557 0abe c74f a13d 0553 f5bd
00000130: 2b7a db3d 43aa 89bd 3caa b6bd 4431 833c
00000140: 1ba0 f23d 45b6 e0bd 7db6 b5bd f029 b93d
00000150: 1a5c 713d 30dd 6cbd 0ace e83d a3a8 0a3c
00000160: 487a ffbc 8c8b 67bd 117d bfbc ec63 ffbc
00000170: 2e89 a6bb 3b3f 803c f2a7 033e 5185 b4bc
00000180: 4bcb 0d3d 1f5d 0f3e 6613 39bd dbfc ddbd
00000190: 1394 c23d f466 08be 08de cc3d b68e 6f3d
000001a0: e14b 3dbd 9bb7 edbd 450c b9bc fa26 533d
000001b0: 0e5e 8abc 512b 7d3d cd37 bf3d 7ead c53d
000001c0: 745f 593d 834c d7bd 7cec 11bd 7547 abbd
000001d0: 1be5 cf3d 9bb8 d2bc 0920 913d cfb3 bb3d
000001e0: 1d97 27be 4ff9 babd 1621 15bd d32e 46bb
000001f0: b348 933b e4d2 d8bd e456 f93d d7ec 853d
00000200: f0a8 4ebd c462 b3bc 90d4 68bd 4608 e2bd
00000210: 042b dbbd f429 1f3e 3887 1d3d ccf0 07bd
00000220: ea1d 4abd 1949 30bd 40e5 8c3d 5a22 3f3b
00000230: fed8 ee3d 0098 cebd bfdd 83bd 8671 8dbd
00000240: 07f8 c7bc a06a 15be 592e 0fbb 257c 1abd
00000250: b646 bfbb c8fb a13d 43eb 1a3e 3080 5f3d
00000260: 50da ab3d 9ca8 f33d 209b 353d dd56 813d
00000270: 9079 3ebd ad17 7bbd 37e8 0c3e e58b 5ebd
00000280: f782 9abd 98ad 86bd 6408 babd ad8c b03d
00000290: 3417 b23c 6a5e af3c 2aeb 573d 51b4 733d
000002a0: d17f 4dbc 32da 0abd 4bcf c3bd 700b 80bc
000002b0: 1b48 24bc 98c5 43bd ae75 54bd bee3 e9bc
000002c0: 25ef 043e f82a 803c 6fd8 fe3c c1c9 3b3d
000002d0: 1636 183d c42b 39bd 774c a73d 291e 733d
000002e0: ffeb aabd 013e 3e3c 2e39 e6bd 3f49 293d
000002f0: caf4 043e fd81 403b 1681 a5bd fb7a ee3d
00000300: f95b b23b c861 c1bc 8b65 f53d 2947 f93c
00000310: f90f 263d 0c97 a63d 274f 13bd f111 7bbd
00000320: 8aa8 843d 767f 2cbd 43bd 073e 9bdd 243d
00000330: 9e5e a5bd f08b 2a3d 641e 203d 4606 b6bd
00000340: a684 5b3d 174a 0bbe 8f33 b83d 13bc 9f3d
00000350: aedc 983d e148 9c3d 670b 1fbd acfa be3c
00000360: b666 60bc e548 fb3d 32a9 df3d 2701 05bc
00000370: 13cc 0cbe 87d9 ce3c 8350 033e 6bad 84bb
00000380: 9fa8 833c 5872 7ebd fc01 05be 23a9 0bbe
00000390: 522f dabd 891b c6bd b809 b4bc b14d eb3b
000003a0: 7dcc 9e3d ed5b 4fbc 70b3 933c b9e0 cbbd
000003b0: 269e cabd 34ce d6bd d580 0c3e 9dc0 e53c
000003c0: 4e46 8abd ee20 21be 0d97 a43a 4b0e 2cbe
000003d0: c5de e93d ee7f b3bd 8866 84ba 3b00 cf3d
000003e0: d1e4 01be 6267 833d 821a a63d 8842 053e
000003f0: 979c 173e afc8 77bd 1947 873c 07cf 113e
-0.05623362 -0.07355249 0.15109976 0.004823793 -0.024484016 0.0748634 0.09307784 -0.07500887
0.03433415 0.053603802 0.052964114 -0.07130633 0.0550452 -0.029364709 -0.014004608 -0.039976653
0.09788319 -0.020097917 0.0112968935 -0.008523883 0.12784654 -0.122486755 -0.0046037203 -0.046728246
0.10973101 -0.012659149 0.03995637 0.029041154 0.056711804 -0.06860912 -0.026716318 -0.08385623
-0.063243255 -0.069930755 -0.021393297 0.010506111 0.043147348 -0.009396236 0.0015889962 -0.12667264
-0.05662581 0.06407426 -0.014072081 -0.015295652 -0.071210004 0.12132801 0.120827556 0.05106317
0.10575414 -0.027203865 -0.034954302 0.0038446235 -0.08257324 0.11742525 -0.10282566 -0.016807117
-0.045247156 -0.13169928 -0.11452334 0.13822685 -0.010189795 0.015970485 0.06265393 0.123996526
-0.09752555 -0.03410954 0.15866761 -0.12191478 -0.1613534 0.016167304 0.10967503 0.09426189
-0.123618774 -0.13510115 0.078765444 -0.11978725 0.10716661 -0.06721928 -0.089191884 0.016014703
0.11846944 -0.10972265 -0.088726975 0.09041202 0.058925726 -0.05782813 0.11367424 0.008463058
-0.031186238 -0.056529567 -0.023375066 -0.031175576 -0.005082271 0.01565515 0.12857035 -0.022036226
0.034617703 0.14000367 -0.045184515 -0.10839244 0.09500899 -0.13320524 0.100032866 0.05848571
-0.046214942 -0.116072856 -0.022588858 0.051550843 -0.016890552 0.061808888 0.09336815 0.09652232
0.053069547 -0.1051264 -0.03562592 -0.08363239 0.1015112 -0.025722792 0.07086188 0.09165155
-0.16366239 -0.09129583 -0.036408506 -0.0030240312 0.0044947504 -0.10587099 0.12174776 0.06539314
-0.05045408 -0.021897681 -0.05684334 -0.11036734 -0.10701564 0.15543348 0.038459033 -0.033188626
-0.049344935 -0.04303846 0.068796635 0.0029164762 0.11662482 -0.100875854 -0.06438779 -0.069064185
-0.02441026 -0.14591455 -0.0021847694 -0.03771605 -0.005837287 0.079093516 0.15128808 0.05456561
0.08391249 0.11897394 0.04433739 0.06315396 -0.04650265 -0.061301876 0.13760458 -0.054332633
-0.07544511 -0.06576079 -0.09083632 0.08620582 0.02173958 0.021407325 0.052714504 0.059498135
-0.012542681 -0.033899494 -0.09561022 -0.015630454 -0.010026957 -0.047795862 -0.05187004 -0.028550979
0.12981851 0.01564549 0.031109063 0.045846704 0.037160955 -0.045207754 0.081688814 0.059354935
-0.08345794 0.011611463 -0.11241375 0.04132962 0.12984005 0.0029374354 -0.08081262 0.116445504
0.005443093 -0.023606196 0.119822584 0.03042944 0.040542576 0.08134279 -0.035964157 -0.061296407
0.06477459 -0.042113744 0.13255791 0.040250402 -0.080746874 0.04163736 0.039091483 -0.08887915
0.0535933 -0.13602482 0.08994209 0.07799544 0.07463966 0.07631088 -0.038829233 0.023312889
-0.013696363 0.12269763 0.10920943 -0.0081179505 -0.13749723 0.02525021 0.12823682 -0.0040489933
0.016071616 -0.062120765 -0.12989038 -0.1363874 -0.10653557 -0.09673221 -0.02197729 0.0071808924
0.07753847 -0.012656194 0.018029898 -0.09954972 -0.09893446 -0.10488549 0.1372102 0.028045947
-0.06751691 -0.15735218 0.0012557224 -0.16802327 0.11419443 -0.08764635 -0.0010101357 0.10107466
-0.12684943 0.06416203 0.08110525 0.13013661 0.14805828 -0.06049412 0.016513394 0.14239131

lstm.weight_hh_l1 f4 [256, 64]
00000000: 04c9 14be 7c51 4f3d 5538 f2bd e9aa 38bd
00000010: 85a9 593d 36de a1bd d7b1 2bbd 0f54 13bc
00000020: 4dff 00bd e519 1fbe 71dc f5bd eccc 043e
00000030: 5016 61bd 0838 a33d 2a26 063e 3000 163d
00000040: 4eba cd3d 4141 45bd d76d 98bd 7e66 5e3d
00000050: 1127 063d 200e 523d 14c4 31bd 1a50 b1bd
00000060: 0385 153e 8187 243e 7bdb 8cbd 141c b83d
00000070: 6891 25bd f16c 6dbd cff1 f73c 3f52 80bd
00000080: 7252 17bd b7fe 8cbd 68b6 8f3d 4373 c5bd
00000090: a5c2 09be 6d5f a3bc 5415 ad3d eccd 153e
000000a0: bf79 bf3c d270 a2bd 13f8 d63d 6072 e8bc
000000b0: 0d82 72bd 87b8 adbd 2f09 1dbe d8aa 9bbd
000000c0: e32f b43d a9d4 163e 32be 06be 9cc1 aa3d
000000d0: ad30 8b3d 991a 28bd 96e4 e33b 9f50 d6bd
000000e0: f4b2 3dbd 7abe 8a3d c1f0 a93d 8269 a73d
000000f0: 028d 7abd 3dde 8abc 8020 933d c760 17be
00000100: ea86 f8bd 92fa c03c 1f0a 3c3d e8a7 003d
00000110: de5c b7bc 62bf be3d 4e35 2d3d 7a55 c9bd
00000120: 506e 10bc 7a2e 1dbe 5f03 46bd d284 0b3e
00000130: e4f0 b2bd 2da5 84bd 497e 9d3c 5350 9c3d
00000140: e05b 233e df59 b63d 9c3b d23d 188e 923d
00000150: beb9 193d 7d13 0abd b333 17bd 03cc 353d
00000160: 7dac 433c 19e6 8ebd 1d98 853d 82d3 6dbd
00000170: 652d 8a3d c0d1 ab3d f1cc 133e 3868 053d
00000180: 5c98 dcbc 1ded 3bbc 4a32 a6bd bdbb e6bd
00000190: 242c ab3d f0e5 1ebe 3b8a 8fbc c8b7 31bc
000001a0: 8baa bb3c 6c10 cbbc 51a6 c63d b2e7 9abd
000001b0: 1df4 bfbc 5b7b 803d 3d69 d5bc c80c b53d
000001c0: 66ab 31bd 74c6 f83d 8e22 67bc f433 0c3e
000001d0: 3bdc d83b bd9d 153d 8fb8 553d b970 c9bd
000001e0: c420 553d b51e e2bd d54d 053d fb44 183e
000001f0: 79a7 8bbd df65 953c cedf 9d3d 28b8 17bd
00000200: 4f35 39bd bc58 96bd 30f9 6e3d 5c2b 753c
00000210: b0e2 183e 79ed d83d c032 583d b3c9 373d
00000220: 1afc c1bc ab2f debd 4a55 983d 7231 4ebd
00000230: 3507 0b3d b4ef 9abd 1489 abbd 1f4a 413d
00000240: f6dc c4bc 47a1 4fbd 9b76 46bd ebce a83d
00000250: 43c7 13bd 578f 833d 4c92 39bd 52dc 9fbd
00000260: f9a2 003e 637a 0c3e 1f71 053d d031 96bd
00000270: 75ac 1e3e 833a f3bd c923 bcbc 5a54 003e
00000280: 0ebd 543b bde9 23bd 80a9 083d c580 573c
00000290: 325b af3d 3238 8f3d 8138 e1bb 485a 143e
000002a0: 939c 18be bbe3 18bd a54e 50bd 39c1 cebc
000002b0: b589 1c3e 75a1 8cbc 5fcc 43bd 977d 04bd
000002c0: 9ac6 3bbc 319f a3bb 3bbd 9f3d e79c 20bd
000002d0: 097d 973d d01a 3c3d 6d72 253e e15c abbd
000002e0: 105c 463b 865e ddbd 69f1 62bd 9672 2cbd
000002f0: e60f e9bd 12d9 d63c 82e0 573d 9c99 a63c
00000300: f093 dd3b 69dd cabd 0a85 18be 06af b3bd
00000310: 7075 a93c 239e 163d 9c40 903d ef30 073e
00000320: 7810 163e a254 a33d 1cc2 9a3d e73c d03c
00000330: cd22 8d3d 2bbb 0e3c 9427 9abd 91fd 933d
00000340: 982f 1a3e 7189 f6bc 1e65 f33d 7f22 c7bd
00000350: 6c0e e9bd 5eb2 fd3d 3af3 9abd 7c9a 563c
00000360: 329c b73d fba8 ed3d 1dc5 edbc 2962 b9bd
00000370: c78f 173e 304f 34bd 5543 bb3d 8db3 c53c
00000380: 3606 d3bd c8f3 15be 5baa 9e3d c935 1bbe
00000390: 1ffb dfbd 01a8 863d 2f31 1ebc 068c d23c
000003a0: 3ca9 d4bd 5604 bdbd e94d ff39 87b7 b63d
000003b0: fb4a 9b3d 3b75 d43c bb1b 953d 49a2 3bbb
000003c0: 6121 c13b 04f0 56bd 8015 2dbd 9e64 ab3d
000003d0: 143f 793d aad2 043e d558 083e 6b4c 173d
000003e0: 7914 bbbd 908b a5bd efc2 093d 8ac6 053e
000003f0: daa2 0dbd eb00 3fbd f39b 8c3d 4d70 dabc
-0.14529806 0.05061482 -0.11827151 -0.045084868 0.053140182 -0.079037115 -0.04191765 -0.008992209
-0.031493474 -0.15537222 -0.120049365 0.12968796 -0.05495292 0.079696715 0.13100496 0.036621273
0.100453004 -0.048157934 -0.07442825 0.054296963 0.0327521 0.051283002 -0.043399885 -0.08657856
0.14601521 0.16067316 -0.068778 0.089897305 -0.040421873 -0.057965223 0.03026667 -0.06265687
-0.03694386 -0.068845205 0.07017213 -0.09641125 -0.13453157 -0.019942963 0.08451334 0.14629334
0.023373483 -0.07931675 0.10496535 -0.02837485 -0.059206057 -0.084824614 -0.15335535 -0.07600945
0.08798196 0.14729561 -0.13158491 0.08337709 0.067963935 -0.04104099 0.00695474 -0.10464596
-0.04631324 0.06774612 0.08297873 0.08174421 -0.06116963 -0.016951675 0.07183933 -0.14783011
-0.12135108 0.023556981 0.04590809 0.031410128 -0.02238315 0.09313847 0.042287163 -0.098307565
-0.008815363 -0.1534976 -0.04834306 0.13624886 -0.087373525 -0.06476817 0.019225257 0.07632508
0.15953016 0.0890386 0.10265276 0.071560085 0.037530653 -0.03370999 -0.03691454 0.044384014
0.01194298 -0.069774814 0.06523154 -0.058063038 0.067469396 0.08389616 0.14433648 0.032570094
-0.02692812 -0.011470106 -0.081150606 -0.11266277 0.083580285 -0.15517402 -0.017521968 -0.0108470395
0.02290847 -0.024788104 0.09699691 -0.075637236 -0.023431832 0.06273528 -0.026051158 0.088403285
-0.04337635 0.12147227 -0.01410736 0.13691694 0.0066180504 0.036527384 0.052177962 -0.09835953
0.0520332 -0.11041013 0.03254493 0.14870064 -0.06819052 0.018237052 0.07708703 -0.03704086
-0.045216855 -0.073411435 0.058343112 0.014963951 0.14930224 0.10592169 0.052782774 0.04487009
-0.023679782 -0.10848936 0.074381426 -0.050340123 0.03394242 -0.07565251 -0.08375755 0.047189828
-0.024031144 -0.050690915 -0.048452955 0.082425915 -0.036078703 0.06423824 -0.045305535 -0.07805695
0.12562169 0.13718562 0.032578584 -0.0733372 0.15495475 -0.118763946 -0.022966282 0.12532178
0.0032461318 -0.040017832 0.033364773 0.01315326 0.08562316 0.0699314 -0.006873191 0.14487565
-0.14903478 -0.037326556 -0.05085625 -0.02523862 0.15286906 -0.017166832 -0.047802325 -0.032346334
-0.0114609245 -0.0049933423 0.07799765 -0.039212134 0.073968954 0.045924008 0.16156931 -0.083673246
0.0030267276 -0.108090445 -0.055406008 -0.042101465 -0.113799855 0.026226554 0.05270434 0.020336919
0.0067620203 -0.09905512 -0.148945 -0.087736174 0.020685881 0.036771905 0.07043573 0.1320226
0.1465472 0.07975127 0.07556555 0.025419666 0.06891403 0.0087116165 -0.0752708 0.07226098
0.15057218 -0.030094834 0.11884521 -0.097233765 -0.11379704 0.123875365 -0.07565923 0.013098355
0.08965339 0.11604496 -0.029024655 -0.09051926 0.1480094 -0.04402083 0.09143702 0.024133468
-0.10303919 -0.14643776 0.077473365 -0.15157236 -0.109365694 0.06575013 -0.009655281 0.025701534
-0.103838414 -0.09229343 0.00048695438 0.08921724 0.07582661 0.025934806 0.0728068 -0.0028630665
0.0058938717 -0.05247499 -0.042256832 0.083688006 0.06085117 0.12970987 0.13315137 0.036938112
-0.09134764 -0.0808326 0.03363317 0.13064018 -0.034579135 -0.046631735 0.068656825 -0.026664877

lstm.bias_ih_l1 f4 [256]
00000000: 2398 933d 72ec 94bd e432 023d ae58 913d
00000010: 1eaa 86bc 951e 873d d2f0 5cbc 36a8 b4bd
00000020: 8bc4 9ebd 32e0 043d 807e 96bd 6d1a 003e
00000030: 54c1 923d 7c5c 0e3e 2cc5 99ba afad e13d
00000040: bca5 97bd d19f a23d 7bbc 9d3d e955 3b3d
00000050: 4b4c c0bc e992 06bd 6a4c a8bc 1eb9 113e
00000060: 8205 723d e851 49bc d7aa a6bc 1c5d e23c
00000070: ed71 a63d 6dcb 173e 1aed d43d cc8a 0d3e
00000080: 3b66 6dbc 14ad 883d 6fae f93d 5c44 f43d
00000090: b2b2 563d 0b7b f83d 2e18 51bd 0c22 d5bd
000000a0: 50d7 763d 7084 bd3d 913b de3d ada3 00be
000000b0: eea6 123e 670b 8ebd 9590 0f3e 6c0c ccbc
000000c0: 1d79 1e3e 7747 c43d 4dd1 d93d 183c 1b3d
000000d0: 254b b4bd 63b6 a5bd e66f 93bd b0e1 ccbc
000000e0: 553a 01bc b107 8e3d 15dc 9fbd 0a8f 6fbd
000000f0: 00e9 8a3c 96ea c2bb 1577 703c 8d6c a3bd
00000100: 72bb a5bd 284e 91bd 70d5 b8bc 0fa6 2f3c
00000110: be7e 82bd 4d45 a1bd 96c1 0b3c c116 1e3e
00000120: 642e e03d f8b3 ab3c c754 66bd 7d2a 3d3d
00000130: f323 b8bd d210 96bd b656 483d 9a7f 623d
00000140: 86c9 a3bc 79f8 113d f8df ad3c 5671 123b
00000150: a355 8a3d f9eb a43d bbbe 3dbd 8bcd e13c
00000160: 4b66 a9bd 8f2f 27bd 3009 d3bd 28a6 98bd
00000170: 6138 30bd 9187 fd3c b194 a23c 6c7c 583d
00000180: 4db9 023e 0d3a 763d 6bf5 0e3d 1f0d 723d
00000190: 6151 d4bc a53d 993b 8d28 7e3d c266 003e
000001a0: ea86 093e 2527 b9bd 525b 2f3d 6938 973d
000001b0: 54fa 5f3d 2531 a5bd 3263 033e 8997 8bbd
000001c0: 19e0 45bd 1e99 56bd 7803 163e 963a 0c3e
000001d0: 465d 27bb 4cef 8e3d f134 933d 34a5 d2bd
000001e0: 6753 24bd e549 8ebc 7cb3 133d 7d7c a63b
000001f0: 0876 fa3d 9b7d 55bd 5cee ccbc 65a3 273d
00000200: 003d 2cbd 6b38 63bd 9e8a c6bd ffe5 c33d
00000210: 957f c63d 766e 453d b2b3 c9bc 0c33 1e3e
00000220: ec33 313d 0f7f 9fbd 5ff0 debd 1ade b63d
00000230: 2fd9 50bd 879e 5c3d e8a4 14bb 0ee7 9e3d
00000240: 4423 c23d 7784 fb3d a726 a93c 0e0e b3bd
00000250: 28d3 84bc b277 2abd 370b 893d 989f 2dbd
00000260: 5027 823c 9ae4 183e a23b 8cbd 2467 023e
00000270: d1de a03d 9c4b dfbd 1ac3 f93d b731 b5bb
00000280: 1833 09be f5ce 85bd fbb7 d9bc ef81 f4bd
00000290: 4bd6 bdbc 5a7c 563d 459b 05be 21d6 993d
000002a0: d128 393b e27e 0d3e 750b 1e3e 27ba 42bc
000002b0: 3614 14bc 0aa4 1fbe 0bbc c4bd a00a 1ebc
000002c0: a689 e13d a610 063e 0e11 cd3c 22aa 973c
000002d0: 7871 6d3d 0a18 c13d e3a0 043e 3f13 4a3d
000002e0: 2fcc 2bbd cc3e b7bd fa89 5bbd 34b8 d93c
000002f0: 78de 19be 8d6d f03d e65e ea3d ddb3 9e3d
00000300: 218b c03d e332 293e 6607 233d 1a70 733c
00000310: b4bb 5d3d 9b22 a43d 1c7d 833d d386 0c3d
00000320: 5a48 d53c 20bb 06bd 63e7 383d 62b3 c93d
00000330: 26fd af3c 187b d3bd 4d92 ec3c ce1c 95bb
00000340: 723c 0a3e 7042 003e c339 4ebd d236 bd3d
00000350: 3aba 973d d26e 77bd 39a0 d6bb 69dd 5e3d
00000360: bceb c73d 535e 6cbb 6710 803d 6c78 943d
00000370: 8e92 68bd fefe 3c3c e79c 813d c485 cc3d
00000380: fa28 863d 19e6 0dbb 88df f03b 3d73 a13d
00000390: c0e1 c53d 6ac4 89bc eb82 233e 5667 3c3d
000003a0: 1064 82bd 541a dc3c 80ae f23c 98f8 5fbd
000003b0: afe4 4b3d 95a9 eb3b 050c 41bc 0cac da3d
000003c0: ab22 003e b8b4 fbbc 7d94 4c3d bdac a23d
000003d0: 7317 163d 2a9d 083d aaf8 833c e51c 9c3c
000003e0: 7092 68bd f686 283e aec2 283e 0845 f63d
000003f0: 7b64 2fbc 8edd bcbb 2b30 9d3d 1c3b d63d
0.07206752 -0.07271661 0.031786814 0.070969924 -0.01643854 0.0659763 -0.01348515 -0.08821146
-0.07752331 0.03244037 -0.07348347 0.1251008 0.07165781 0.13902467 -0.0011731735 0.11019456
-0.07404658 0.07940639 0.077019654 0.045736227 -0.02347388 -0.03285495 -0.02054425 0.14230773
0.059087284 -0.012287594 -0.020345135 0.027632289 0.08127198 0.14823695 0.10396786 0.13822478
-0.014489706 0.06673637 0.12191474 0.11927101 0.05241651 0.121328436 -0.05104845 -0.104068846
0.06026393 0.09253776 0.10851205 -0.12562437 0.14321491 -0.069357686 0.14019997 -0.024908267
0.15475889 0.09583943 0.10635624 0.037899107 -0.08803395 -0.08091428 -0.07199077 -0.02500996
-0.007887443 0.06935061 -0.07805649 -0.058486022 0.016956806 -0.005948375 0.014676829 -0.07979689
-0.08092393 -0.07094985 -0.022562712 0.010720744 -0.063718304 -0.07874546 0.008530041 0.15438367
0.10946348 0.02095984 -0.056233194 0.046183098 -0.08991232 -0.07327427 0.04891082 0.05529747
-0.019993555 0.035637353 0.02122496 0.0022345386 0.06754615 0.08052821 -0.046324473 0.02756383
-0.08271464 -0.04081684 -0.10304487 -0.07453567 -0.043022517 0.030948432 0.019846292 0.052853033
0.12765999 0.060113955 0.034902018 0.059094545 -0.02591771 0.004676538 0.06205039 0.12539199
0.13430372 -0.09040669 0.0428117 0.07383806 0.05468209 -0.08066014 0.12830809 -0.068160124
-0.04830942 -0.052392118 0.1464976 0.13694224 -0.0025537773 0.06979236 0.07187832 -0.10285416
-0.0401186 -0.01736922 0.03605984 0.005080758 0.12229544 -0.05212174 -0.025016002 0.04092731
-0.04205036 -0.055473726 -0.09694408 0.09565353 0.09692303 0.048201047 -0.024621818 0.1544916
0.043262407 -0.077879064 -0.10885691 0.08929081 -0.050988372 0.05386212 -0.00226813 0.07758914
0.09479383 0.12281125 0.020648314 -0.08742915 -0.016213968 -0.041618057 0.06691592 -0.04238853
0.015887886 0.14930955 -0.068473116 0.12734658 0.07854999 -0.10903093 0.12195416 -0.005529608
-0.13398397 -0.065336145 -0.026576987 -0.11938845 -0.023173472 0.052364685 -0.13047512 0.07511545
0.0028253088 0.13817933 0.15434058 -0.0118852025 -0.009038022 -0.1558992 -0.09606179 -0.009646088
0.110125825 0.13092288 0.025032546 0.018513743 0.05796954 0.09428413 0.12951998 0.04933476
-0.04194277 -0.089475244 -0.05359838 0.026577093 -0.15026271 0.11739645 0.11443882 0.0774915
0.09401537 0.16523318 0.039801978 0.01485827 0.054134086 0.08014413 0.06420347 0.034308266
0.026035476 -0.0328933 0.045142543 0.09848668 0.021483015 -0.10326213 0.028878355 -0.004550553
0.1349962 0.12525344 -0.050348055 0.09238972 0.07408567 -0.06040842 -0.0065498617 0.054410372
0.0976176 -0.0036066964 0.062531285 0.07249531 -0.05678039 0.011535404 0.06328755 0.09986451
0.065507844 -0.0021652041 0.0073508658 0.07883308 0.09662199 -0.01681729 0.1596791 0.045996986
-0.06366742 0.026868023 0.029624224 -0.054680437 0.049778637 0.0071918466 -0.011782651 0.106773466
0.12513225 -0.030725822 0.049946297 0.079431035 0.036643457 0.03335301 0.016109783 0.019056747
-0.05678028 0.16457734 0.16480514 0.120248854 -0.010705109 -0.005763716 0.07675203 0.10460493

lstm.bias_hh_l1 f4 [256]
00000000: 291d 953c 22e0 653c 3408 98bd 5f3a 8cbd
00000010: cdc5 1b3d b6e7 f13c e7b0 353c 239c 143e
00000020: 63a6 803d 74e3 68bd d5d8 52bd 5ed5 523d
00000030: b04d be3d 983e cebd 1bbe a43d 249a f9bc
00000040: 22d9 af3d 9aae edbc 9c26 013e b632 173e
00000050: 8188 58bd d6f6 b4bd 9de7 723d d68e 0f3e
00000060: 430c a03d 0be3 d9bc ed09 003e d836 cdbd
00000070: 4e92 0f3e c4c6 36bc 9f2a 613c 292a 033d
00000080: 97a3 e63a 4ddd da3b 25ae 893d c487 213d
00000090: eae9 4a3d e3a9 053e ac65 653c d0b6 80bd
000000a0: ca8b a5bd 7263 eb3d 5e73 5abd 70e1 013d
000000b0: 3c02 21bd fa69 40bd 960a 653d a814 e83d
000000c0: a57c 9dbd 5383 f23d 7d9c cdbd 2da1 fa3b
000000d0: e97b d2ba be38 7dbd e37d 7ebd 29f0 02bd
000000e0: 0a36 8dbd 0627 113d 987d 47bd a3ff 9dbc
000000f0: ca22 07bd bfed 723d a4ba 2c3b 3527 ce3d
00000100: 1e6d e93d 30e4 58bd b4f6 8c3c 0914 c3bd
00000110: 4d50 b83d d21c 023c 7e1a 683d f4fb 943d
00000120: 6e45 093e 7ebc d03c 26a0 9d39 59fa 0f3e
00000130: c8b4 043c 9925 173d 9ad1 413d e3ec 20bd
00000140: 3bfe e33d ca00 87bd c904 b33d 6173 b63d
00000150: 2291 ec3d 16d5 83bd 0280 e53d be47 233e
00000160: c18d bc3c 3ea5 aebd 8058 693c 0674 af3c
00000170: ce48 95bd 317c d73c 30c2 93bc fe94 9bbd
00000180: 4041 f33d 8203 8c3d e475 86bc 5d0d 043e
00000190: 39ef 2a3d aab1 6f3c c940 303d 9c4e b3bd
000001a0: e379 dabc 1c5e 253d 59f3 03bc 86e1 f53c
000001b0: 0bd7 183d 81ca 853d d9c3 213e 72c1 fdbc
000001c0: a441 a33c e25a 14bd 4cbb a6bd 2243 7f3d
000001d0: 086a fd3d f8ee 8e3d 7274 80bd 6a64 cf3d
000001e0: 7371 a7bd 5db8 58bd b422 163e a496 8abc
000001f0: 1a3b 0ebd ab38 cebc 5972 a5bc 7d74 843d
00000200: 067a c7bd b7df 22be 5afc 94bd a507 0d3d
00000210: e581 133d cc82 123d 15b6 17be adbe 5d3b
00000220: 855f 14bd 62b7 81bd 4908 d8bd dcf3 773c
00000230: 3c45 36bb f17a d6bd 83e8 b13d fcba 7c3d
00000240: ce3c 8e3d ac7a a53d 786d ca3c b090 16bc
00000250: d56a 1ebe 0183 b13d 0eb2 f23d d4c4 afbd
00000260: 6817 003e 47f8 e5bb 3846 973d 81fb b8bc
00000270: 7136 12bd b47a c9bd 9863 d83d 3890 9dbb
00000280: 7f89 07be 600c 9cbc 526e e2bd 919f b8bd
00000290: aef7 d4bd b203 b3bd 3026 d6bd 3868 6a3d
000002a0: 7531 9fbd 6ee4 4b3d c178 0f3e 17a6 083d
000002b0: e02d 1f3e 2c0b 913d 6eb1 b4bc 51b6 c03c
000002c0: 42d7 1d3e 4ac2 62bd db96 debd 90c4 f73d
000002d0: a000 b73d 244e 823d 7f9d 603d 107d d4bd
000002e0: 6d3e 983d 206e 2cbd 8046 e8bc 498b 143e
000002f0: 15e7 0a3d 40ba a83c 1fab ad3b 23b7 dabd
00000300: 7d30 ca3d e0c5 253e fdc5 99bc d3ba 43bd
00000310: 3bec fa3d 3ba9 82bd c0e3 103e 4015 693d
00000320: efff 0a3e 48a8 743d d7cd ab3d e415 adbd
00000330: 6aa2 283b 9e29 dc3d 90af 3abb 2daf 0c3e
00000340: ced7 f83c 5ef5 a4bc 5f38 0fbd bc44 62bd
00000350: 80ce a73d 827d 44bd d7a9 b73d b261 ff3b
00000360: e9ba d23d f615 073e abb8 82bd feb5 2ebd
00000370: de0a 053e 29b6 e03b bfa7 9abd eea5 02bd
00000380: 7fbd 97bd f575 09bd d8d2 4f3d 9bad ea3d
00000390: 7c23 883d aab2 833c 6559 033d ca70 54bd
000003a0: 5ae4 c83d d43f e53d 0e2e b03d de03 983d
000003b0: 55fd 2a3e 5593 713d f0da a4bc 008a f13d
000003c0: 1414 6f3d b82e a93c 14a5 963c ba38 663d
000003d0: fc64 7ebc d2d4 df3d 071b 5abd 4ae7 213d
000003e0: cbc0 a2bd 16fc bd3d d126 76bc fdf2 293d
000003f0: 942b 0a3e ec6e 5c3d 851b 613d 6201 b83d
0.018202381 0.014030488 -0.074234396 -0.06847071 0.038030434 0.029529434 0.01108954 0.14512686
0.06281736 -0.05685754 -0.05147632 0.051473014 0.092921615 -0.100705326 0.08044072 -0.030469008
0.08586337 -0.02901392 0.12612385 0.14765438 -0.052864555 -0.08836143 0.059302915 0.14019331
0.07814839 -0.02659752 0.12503786 -0.10020226 0.14020655 -0.011155788 0.013743072 0.03202263
0.0017596361 0.006679213 0.067226686 0.039436117 0.049539484 0.13053088 0.014001291 -0.06284869
-0.08083303 0.11493577 -0.05333268 0.031709135 -0.03930877 -0.046976067 0.0559183 0.11332065
-0.0768979 0.11841454 -0.100396134 0.007648608 -0.0016058657 -0.06182169 -0.062131774 -0.031967316
-0.06895073 0.035437606 -0.04870376 -0.019286936 -0.03299216 0.059308764 0.0026356364 0.10066072
0.113977656 -0.05295199 0.017207481 -0.09525306 0.08999691 0.007941442 0.05666589 0.07274619
0.13405392 0.025480505 0.00030064693 0.14060344 0.008099742 0.03690109 0.047319032 -0.039288413
0.11132475 -0.065919474 0.08741147 0.089087255 0.115511194 -0.06437127 0.11206056 0.15945336
0.023016812 -0.08527611 0.014242291 0.021417629 -0.07289277 0.026304336 -0.018036932 -0.075967774
0.1187768 0.068366066 -0.016413637 0.12895723 0.041732047 0.014629761 0.043030534 -0.08755228
-0.026669448 0.040372953 -0.008053624 0.030014765 0.037314456 0.06532765 0.15797366 -0.030976031
0.01992876 -0.036219485 -0.08141193 0.062319882 0.123737395 0.069791734 -0.0627221 0.10126574
-0.081759356 -0.052910198 0.14661676 -0.016917534 -0.034724332 -0.025173506 -0.020196127 0.06467531
-0.09740071 -0.15905653 -0.07274695 0.03443112 0.03601255 0.03576927 -0.14815553 0.0033835575
-0.036223907 -0.063338056 -0.10548455 0.015133824 -0.0027812263 -0.10472668 0.08686926 0.06170176
0.06945191 0.080800384 0.024710402 -0.00918977 -0.1547044 0.08667565 0.118503675 -0.08582464
0.12508929 -0.0070181224 0.0738644 -0.022580864 -0.03569645 -0.09837857 0.10565871 -0.004808452
-0.13236044 -0.01904887 -0.11056198 -0.0901481 -0.10398804 -0.08740939 -0.104565024 0.057228297
-0.07773105 0.049778394 0.14010908 0.03336152 0.15544844 0.07082209 -0.022057261 0.023524435
0.15414146 -0.05536107 -0.10868617 0.12098038 0.08935666 0.063625604 0.0548377 -0.10375416
0.07433782 -0.04209721 -0.02835393 0.14506258 0.033911783 0.020596623 0.0052999402 -0.10679462
0.0987253 0.16188765 -0.018771166 -0.04778559 0.12252089 -0.063799344 0.1414938 0.05690503
0.13574193 0.059730798 0.0838887 -0.08451441 0.0025731572 0.10750125 -0.002848599 0.137387
0.030376341 -0.020136531 -0.03496587 -0.05524133 0.081936836 -0.047971256 0.08967941 0.0077936286
0.102895565 0.13191971 -0.06382879 -0.04265403 0.12992427 0.0068576527 -0.07551526 -0.031896524
-0.074091904 -0.03355976 0.050738186 0.11458894 0.06647393 0.016076405 0.032067675 -0.051865377
0.098091796 0.11193815 0.08602534 0.074226126 0.16698201 0.058978397 -0.020123929 0.117938995
0.058368757 0.02065216 0.018389262 0.056206442 -0.015527006 0.10929264 -0.05324843 0.039527215
-0.079469286 0.09276597 -0.015023903 0.041491497 0.13493186 0.05381672 0.054957885 0.08984639
