fault_model_nn_allprior_11kv/last_Y2020.pt (torch, 545973 bytes, 15 tensors)

emb.weight f4 [4782, 16]
000000 25 7d c3 3f 80 7b 8b 3f 48 a4 15 3f c3 71 d8 bf
       1.5272566 1.0897064 0.584538 -1.6909717
000010 2a 74 b0 3e 15 73 78 bf f3 0b d4 bd 96 dd 9b bf
       0.34463626 -0.970506 -0.10353842 -1.2176998
000020 a5 4c bd be 7f 77 9f 3f f8 c2 d5 bd d8 b0 84 bf
       -0.36972538 1.2458342 -0.10437578 -1.0366468
000030 ac 38 ba be 07 c7 b3 be 7d fd e0 be 90 71 e6 3e
       -0.36371362 -0.35112783 -0.43943396 0.45008516
000040 23 92 9e 3f ba 23 9f bc 32 29 86 be 6a 2c 4b 3e
       1.2388347 -0.019426215 -0.26203305 0.19841161
000050 c3 0e c6 be 20 aa 39 3f 88 e4 db 3e 17 d4 a6 3f
       -0.38683137 0.72525215 0.42947793 1.3033475
000060 3b b0 67 3f fd e8 66 3f 8a 0b 8a 3e ce cb 6c 3f
       0.9050328 0.9019926 0.2696193 0.9249848
000070 4c 7a 8c 3d 4a 91 c8 bd fb a0 8b bc b9 43 fe 3e
       0.06859264 -0.09793337 -0.017044535 0.49661043
000080 13 93 7c bf b9 3f fc be 73 56 d2 bb 89 16 a8 3f
       -0.9866192 -0.49267367 -0.006418997 1.3131877
000090 18 01 27 3d df 0a da bd 2c 96 0c 3d a5 43 ce be
       0.040772527 -0.10646605 0.034322903 -0.40285984
0000a0 94 f7 93 bf ec 40 1c 3f ab 2d 00 bf fd a8 7d be
       -1.155993 0.6103656 -0.50069684 -0.24771495
0000b0 9d fe 60 bf 91 5f db 3f d0 2b 57 bf 0f c7 1d be
       -0.8788851 1.713854 -0.8405123 -0.15407966
0000c0 cc 61 08 bf 16 58 98 be 8f 82 ad 2e e9 d8 3c 3e
       -0.53274226 -0.29754704 7.890321e-11 0.1844212
0000d0 01 d7 1d be fa 6d 4c 3f 1a e9 e0 be 3d 2d bc be
       -0.15414049 0.7985531 -0.43927842 -0.36753264
0000e0 5c 9c 80 bf 46 4a d4 2c 84 3f be ae fd 4c a0 3e
       -1.0047717 6.0336484e-12 -8.651482e-11 0.31308737
0000f0 a4 5b 32 b1 fb 26 b8 3f 9d bc 4a bf 13 4b 7c 3f
       -2.59545e-09 1.4386896 -0.7919405 0.98552054
000100 24 fe 86 3f 46 c2 00 3f 4f ef ea 3f 63 cf 6c 3e
       1.0546308 0.5029644 1.8354281 0.23125987
000110 df 30 f4 3d 18 63 c7 bd 2a 76 3a bf 71 6f 76 3f
       0.11923384 -0.097356975 -0.72836554 0.96263796
000120 c6 88 3d bd 35 82 9a 3e ab ad 3c bd 3d 8d 47 3e
       -0.046273015 0.30177465 -0.04606406 0.19487472
000130 23 15 96 3e 9d 51 a5 be f2 5c ed bf f6 82 ee be
       0.29313 -0.32288828 -1.854399 -0.4658429
000140 ba 9e b9 ab 76 63 52 bd cc 94 71 bf bd cf 6f be
       -1.3189096e-12 -0.051364385 -0.9436767 -0.2341909
000150 cd 8e 45 3e 65 db 3b 3e a8 03 40 3f 23 42 68 2d
       0.19292755 0.18345411 0.7500558 1.32023585e-11
000160 15 e4 bf 3e 68 b6 18 be fc 6c 29 bf 0a 0c 80 3e
       0.374787 -0.14913332 -0.6618192 0.25009185
000170 da b5 a8 bf 34 75 e7 be d7 16 70 3f cd 45 1a 3e
       -1.3180497 -0.45206606 0.9378485 0.1506569
000180 a4 a3 06 c0 2f 5c 33 3e 51 b2 fb 3e fd 5a 3f 3d
       -2.1037378 0.17515634 0.49159482 0.046717633
000190 2d 84 98 3e 5e 1d 98 3e 71 cf 30 3f 42 17 47 be
       0.29788342 0.29709905 0.6906653 -0.19442466
0001a0 d0 1f 13 3d 2c a0 d1 3e d5 a2 05 3e 41 ba 48 bd
       0.03591901 0.40942514 0.13050397 -0.04900575
0001b0 aa 32 2e 3e 0c c6 5b 3f 49 df 19 3e e0 84 a6 bd
       0.17011514 0.8584907 0.15026583 -0.08130813
0001c0 32 51 87 bf 93 7d 06 bd 20 78 b1 be c5 82 62 3e
       -1.0571654 -0.0328346 -0.3466196 0.22120197
0001d0 33 d7 d3 3e e7 81 29 3e 85 5d 0a be 78 d4 89 3e
       0.4137512 0.1655346 -0.13512237 0.26919913
0001e0 fb 9a eb bd 9e 6a 6c 3e 32 dc 5e 3c 43 d0 08 3f
       -0.115041696 0.23087546 0.013602303 0.5344278
0001f0 52 cf 30 3f e9 0b 9e 3e 76 6b d8 3e d0 c6 53 3e
       0.69066346 0.30868462 0.42269486 0.2068131
000200 88 19 c3 3f 96 37 20 3f 13 c3 84 bf 9c 36 3d bf
       1.5242167 0.6258482 -1.0372032 -0.7391145
000210 06 07 9c b7 8a c2 9d 3f ed cd 96 3e d3 a6 67 3e
       -1.859992e-05 1.2324994 0.29453984 0.22622232
000220 11 17 40 3f 2a 42 a0 ab 5b 40 b3 bf a6 30 0b 3f
       0.75035197 -1.1387048e-12 -1.4004015 0.54371107
000230 87 fb 95 bd 1d 69 25 3f 5d 5a a5 be 4e b7 8e 3e
       -0.07323366 0.64613515 -0.32295504 0.27874225
000240 1a a8 16 bf e5 32 13 3f 21 b8 9b 3f ad 8a 86 3f
       -0.5885025 0.57499534 1.2165567 1.051107
000250 91 70 9d 3c e0 06 89 bb c8 b0 ba be 71 51 23 b1
       0.019218715 -0.0041817278 -0.36462998 -2.3765916e-09
000260 7e b8 69 3d a5 6b 15 3f 36 2b 0c be 0e e8 99 3f
       0.05706071 0.5836738 -0.13688359 1.2023942
000270 94 5f 04 c0 d9 ec cf bd 34 71 4d bf eb 1d e0 3e
       -2.0683336 -0.10152597 -0.8025086 0.43772826
000280 47 3a bf bf 0e 39 f5 3b 85 17 a9 ac c0 18 63 bd
       -1.493966 0.007483608 -4.80588e-12 -0.055443525
000290 df 7a d4 3c 18 c7 b9 be fe f4 4d 3a ab 5a 34 bf
       0.025937496 -0.3628471 0.0007856636 -0.7045085
0002a0 20 93 99 bf f5 a1 74 3f 35 a6 64 3f 07 1e 92 2d
       -1.1998024 0.95559627 0.8931611 1.6611613e-11
0002b0 a4 9e 92 bf 30 dc c5 3e 69 b3 ce 3e ce 2c cf 3f
       -1.1454663 0.38644552 0.40371254 1.6185548
0002c0 a1 c7 57 bb 36 2a 6a 3d 06 ba 26 bf 14 fa e6 bd
       -0.0032925385 0.05716916 -0.651276 -0.11278167
0002d0 ee b2 20 bf c3 bb b4 bf 45 fd 6c bf 46 ae f7 be
       -0.62773025 -1.41198 -0.9257396 -0.48375148
0002e0 7c ca 9d be 3a 9b 8e bf 4e d5 cb bf f7 34 84 3d
       -0.30818546 -1.1141121 -1.592447 0.06455415
0002f0 71 9e 39 3f 5b 38 b7 be 4d 7c 17 3f 23 98 00 3f
       0.7250739 -0.35785183 0.5917404 0.5023214
000300 a4 2b af 3f 70 6f 0e bf a7 78 1e 3f 59 93 8d bd
       1.3685193 -0.5563879 0.6190285 -0.0691287
000310 d6 bd 48 bf c9 c1 ea 3d e8 03 24 3e 44 e1 7a 3f
       -0.78414667 0.11462743 0.16017115 0.9799998
000320 b7 d5 66 3e 69 c9 d9 3f fc 10 41 be 4e fc 18 bf
       0.22542463 1.701459 -0.18854135 -0.59759986
000330 d7 9e 02 3e ca 06 29 3f 4b 23 82 3f f3 cf 3a 3e
       0.12755905 0.66025984 1.016702 0.18243389
000340 6e 34 e1 be 92 82 22 bf 49 6e 23 be 75 d6 75 be
       -0.43985313 -0.63480484 -0.15960039 -0.2400759
000350 d7 78 2d 39 6c 20 f2 3d d2 40 bd b8 e6 33 f4 bf
       0.00016543582 0.1182259 -9.024296e-05 -1.9078338
000360 a9 58 b4 bd b9 0b 31 3f 07 1a b0 bf e8 be 8d 3f
       -0.08805973 0.6915851 -1.3757943 1.1073885
000370 c5 d4 13 3d fd cd 27 be 46 e1 25 3f e7 97 a4 3f
       0.036091585 -0.16387172 0.64796865 1.2858857
000380 97 c8 14 2b 79 b6 a1 3f ad 22 27 39 b8 12 2c bf
       5.2858537e-13 1.2633811 0.00015939279 -0.6721606
000390 55 bf 64 be 3e e1 0b 30 e8 fc b6 3d 7d 72 ca 3f
       -0.22338612 5.0887994e-10 0.08934957 1.5816189
0003a0 50 ed 81 2f 05 84 06 bf 06 fc d1 bf 8e 2f 31 bf
       2.3633584e-10 -0.52545196 -1.6405036 -0.6921319
0003b0 7b 71 e9 ab 8c a3 f5 2e 40 84 08 3b 0c ae c4 3d
       -1.6587143e-12 1.1170362e-10 0.002083078 0.09603509
0003c0 a5 15 0c bf ec c3 b1 3c 5a d3 47 be ad bf 09 3e
       -0.54720527 0.021699868 -0.19514218 0.13452025
0003d0 04 90 fc be 77 e9 ad ac aa 7e 74 bd b9 33 88 3f
       -0.49328625 -4.9428755e-12 -0.05969111 1.0640785
0003e0 58 56 5c 3f c8 66 b2 be 4c f2 f3 3e 2b 34 32 3e
       0.8606925 -0.3484404 0.47645795 0.17402713
0003f0 8a 8c 48 3e 60 90 5e 3e 97 48 2c 3e 8e 8e cc 3b
       0.19584861 0.21734762 0.16824566 0.00624258

lstm.weight_ih_l0 f4 [256, 3]
000000 7b bf ca 3b cb 76 93 bd 9d 38 c5 bd de 87 b8 bc
       0.006187377 -0.07200392 -0.09629939 -0.022525724
000010 78 f2 b2 3d 4e 33 4c bd bb 34 9a bc de fb cb bc
       0.087376535 -0.049853615 -0.018823972 -0.024900373
000020 53 a4 0e bd 6c 90 7a 3d f3 74 b5 bd 14 56 34 bd
       -0.03482468 0.061172888 -0.08860197 -0.044027403
000030 fd 03 32 bd 6a a9 06 be bd e1 eb bc a5 5e 37 bb
       -0.043460835 -0.13150564 -0.028794164 -0.0027979997
000040 b6 3b bf bc d6 63 2c 3c df 50 c3 bc 69 6c b3 bc
       -0.023343902 0.01052185 -0.023842273 -0.02190228
000050 f2 53 94 3d 84 ef 87 bd 8b bd 51 3d c6 c0 c0 bd
       0.07242574 -0.06637481 0.051206153 -0.094117686
000060 1e 5b d1 bc 51 cc 31 bd 15 95 11 bd 96 c3 45 ba
       -0.025556143 -0.043407742 -0.035542566 -0.0007544098
000070 8c 37 5d 3d 86 2b 81 3b ef bc 5c bd 45 5d 23 3d
       0.05400805 0.003941956 -0.05389112 0.03988387
000080 13 91 b4 3d 6d 86 10 3d 86 60 43 bd b4 c1 80 bd
       0.08816733 0.03528445 -0.047699474 -0.06286946
000090 52 4d 01 bd 12 4e 7a 3d 9e 85 4a ba 4c e0 7d 3d
       -0.03156788 0.06110961 -0.0007725599 0.061981484
0000a0 fe 6e 9b bd f5 f6 f8 3d c7 8d ef 3c 44 74 51 3c
       -0.075895295 0.12156478 0.02924241 0.012784068
0000b0 01 92 98 3d 51 c2 36 3c 1d 6b 10 be de 35 e2 3c
       0.07449723 0.011154727 -0.1410336 0.027613577
0000c0 49 30 54 bd 15 ec 84 3d f4 6f 53 3d fb 3a 89 3c
       -0.05180386 0.064903416 0.05162044 0.016751757
0000d0 90 c8 23 3d 78 51 cf 3b a9 56 42 bd 6d 0c 05 be
       0.039986193 0.0063268505 -0.047445927 -0.12993021
0000e0 5e 91 ee 3d 41 e9 42 3d 24 7a ea bd 9c e1 5f bd
       0.1164882 0.04758573 -0.11449078 -0.054658517
0000f0 1a 96 28 3d c1 df 40 bd 35 63 40 bd e1 01 fe 3c
       0.041158773 -0.04708839 -0.04696961 0.031006755
000100 49 84 48 bd 2c 86 d9 bc a2 12 3b ba 8f c6 2a bd
       -0.048954282 -0.026553236 -0.00071362604 -0.041693266
000110 82 46 17 3c 46 f2 ea bc f3 d6 43 3d 66 d3 d0 3d
       0.009233119 -0.028679978 0.047812413 0.10196571
000120 0a 85 9a 3b 31 10 94 3d d0 22 ea bd 83 06 3a 3d
       0.0047155665 0.07229651 -0.11432421 0.045416366
000130 53 d8 4d bc 46 c0 3a 3c 20 44 bf 3d 1a 74 b9 bc
       -0.012563783 0.011398381 0.09339166 -0.02263837
000140 f9 1e 3e bd 44 a9 50 bd aa 35 e2 3a 73 cf 3e 3c
       -0.046416257 -0.050942674 0.0017258425 0.011646139
000150 12 60 c7 3c 3c 7e 4e bd ab 16 0e bd 1c 3d 44 3c
       0.024337802 -0.050413355 -0.034689587 0.01197746
000160 d3 c0 ea bc 29 ce 3e bb af 0a 2a bd dc 6e ab bd
       -0.028656399 -0.002911458 -0.041514095 -0.08370754
000170 72 cc b1 3d e4 dd 98 bc 62 78 0d bc 3a 6b dc 3d
       0.08681573 -0.018660493 -0.0086346585 0.10762639
000180 ec 71 ca 3d 29 cb 25 bd 7e af 58 3b 9e 35 c7 3c
       0.0988501 -0.04047695 0.0033063586 0.024317559
000190 be 04 8d 3d 0b 9e 83 bd 33 f6 4b 3c ee 1e a5 3c
       0.0688567 -0.06426629 0.012448835 0.02015635
0001a0 63 de 09 bd d3 a7 17 bd 13 e8 01 bb 71 3b 7b 3d
       -0.03365935 -0.037025284 -0.0019822165 0.061335985
0001b0 c9 66 fb 3c b8 54 e5 bd 1b b1 28 bd 29 b4 d8 bc
       0.03068866 -0.111977994 -0.041184526 -0.026453095
0001c0 e5 5a 96 bd e9 c7 c8 bd 89 13 f9 ba 6c 64 a2 3c
       -0.073415555 -0.09803755 -0.0019003014 0.019823276
0001d0 2c e9 3e bd 68 cd 2e bd 45 18 9f bd d2 0b 3b 3d
       -0.04660909 -0.04267636 -0.07768301 0.04566557
0001e0 66 40 2a 3c 33 01 b1 3c d5 67 97 bc f7 a0 14 3d
       0.01039133 0.021607017 -0.018482128 0.03628632
0001f0 6a f0 fe bd c0 7b d6 bc 85 09 89 3d 02 98 98 bc
       -0.12448199 -0.026182055 0.06691269 -0.01862717
000200 20 c3 a5 3c 10 d6 63 3b a2 38 fb bd 5e b2 35 3d
       0.020234644 0.0034765042 -0.12266661 0.044359557
000210 ab cf bb 3b 47 12 97 3d 31 85 df 39 78 ce 8e 3d
       0.005731543 0.07376533 0.0004263311 0.069729745
000220 0c a1 bf bd 4f e4 52 3d e0 7c 82 bb 67 44 b8 bd
       -0.09356889 0.051487263 -0.0039821714 -0.08997422
000230 2c 62 4a 3d 92 61 23 bd f4 dc 29 bd 9e b1 69 bb
       0.04941003 -0.039887972 -0.041470483 -0.0035658847
000240 02 76 ea bc 92 ea 66 3a a0 b6 8e 39 15 15 39 3c
       -0.028620724 0.00088087574 0.00027220417 0.01129653
000250 59 ef a6 3c a3 ad d6 3d 05 47 9d 3d ba fa 71 bc
       0.020377802 0.10482337 0.076795615 -0.0147692505
000260 6d a0 0d 3d a2 cc 35 bc 15 6b 0f 3c 01 4b bd bd
       0.034576822 -0.011096152 0.008753558 -0.092428215
000270 09 60 24 bb 26 5b 48 3d 0c d2 c7 bc 49 7b 18 3d
       -0.0025081655 0.04891505 -0.02439215 0.03722695
000280 a5 4a 7f 3d e5 c9 db bd e5 bf 25 3c f9 f8 e9 bb
       0.062327046 -0.10731868 0.010116552 -0.0071402756
000290 eb 99 05 bb d2 75 13 3b 66 42 c7 bb eb 72 7d bc
       -0.0020385932 0.0022500646 -0.0060809134 -0.015469293
0002a0 92 13 80 bb ff 7f 43 bd 66 b7 0e bd ea 2f 3d 3d
       -0.003908583 -0.04772949 -0.03484287 0.046188273
0002b0 57 ba 98 bb 7e d5 82 3d de fc 0a 3d 8e f3 02 3d
       -0.0046608853 0.06388377 0.03393256 0.031970553
0002c0 97 a7 19 3c b5 42 3e bd dc 47 0b be 79 b8 bf bb
       0.009378335 -0.046450336 -0.13601631 -0.0058508483
0002d0 6e 84 9d bd db 58 cb 3d 4c c8 cc 3c c7 e9 09 3d
       -0.076912746 0.09929057 0.024997853 0.033670213
0002e0 88 55 c9 3d 80 a2 5e bd 56 76 27 bd 6e aa f7 bd
       0.09830767 -0.05435419 -0.04088434 -0.12093054
0002f0 21 b4 fc bc 47 97 33 bc e2 4d 06 3d 90 31 d1 ba
       -0.03084761 -0.01096136 0.03278912 -0.0015960205
000300 2f 7a 6a bd 51 49 ea bc 43 8d f8 3d 67 04 a2 ba
       -0.05724543 -0.028599413 0.121363185 -0.0012360931
000310 fc 47 92 3d 0a 95 60 3d d8 c0 42 3d 27 c2 16 bd
       0.07142636 0.054829635 0.04754719 -0.03680625
000320 73 bd de 3c 86 d4 0d bd fc 0d d1 bd 7c fc fa 3d
       0.027189946 -0.034626506 -0.102077454 0.12255189
000330 05 f8 dc b8 6f 74 39 3d 42 c5 99 3b 32 8c 3c 3c
       -0.00010536615 0.045277055 0.0046927044 0.011508035
000340 7b 69 c9 bb 8c 29 a6 3c 8e 53 ab 3c 9a b7 6b bd
       -0.0061466075 0.020283483 0.020913865 -0.057548143
000350 7e 92 8a 3d e5 17 2e 3d 64 77 8b 3d 4a bd 4a 3d
       0.067662224 0.042503256 0.06809881 0.049496926
000360 a8 e2 e5 bc fb b5 4d bc a6 41 25 3d 07 1e 3f ba
       -0.02806218 -0.012555595 0.04034581 -0.0007290546
000370 4d 5a e1 3c 99 73 03 bd 85 47 97 bd 9e bc 07 3d
       0.02750888 -0.032092664 -0.07386688 0.033138864
000380 ce 3a 56 3b 18 fd 12 bd 64 b6 55 bd 1b c7 97 bc
       0.003268886 -0.0358859 -0.052175894 -0.018527558
000390 9d ce 43 3d 04 47 82 3c ed 5c 8f 3d 82 68 1e 3c
       0.047804464 0.015903004 0.07000146 0.009668471
0003a0 d4 2c 48 3d 24 e3 19 3a c9 87 d6 bc 8c 51 ce bc
       0.048870876 0.00058703334 -0.026187794 -0.025185369
0003b0 fc b2 ee 3d cf c5 1d 3b 37 2a 62 3d 8f 31 52 bd
       0.11655232 0.0024074202 0.05521604 -0.051316794
0003c0 37 e6 f9 3c bf 44 2d 3d 0d 86 ab 3d 25 32 46 bd
       0.030505283 0.04230189 0.083751775 -0.048387665
0003d0 4f a8 b2 bb 04 bd 8a 3d f1 30 82 bd 65 a0 2a 3d
       -0.005452193 0.06774333 -0.06356991 0.04165687
0003e0 63 6a 39 bd 1a 1d 2a bd 19 0b 24 3c 1a 2d 9c 3d
       -0.045267474 -0.04153166 0.0100124115 0.0762579
0003f0 55 13 ce 3d 60 4a 61 bb 36 34 bd bc fd ba da 3c
       0.10062281 -0.0034376606 -0.023096185 0.026700491

lstm.weight_hh_l0 f4 [256, 64]
000000 87 86 b2 3c 77 62 b1 bd 7f b7 01 3e e7 c1 d2 3d
       0.021792663 -0.08661359 0.12667654 0.1029089
000010 08 0f bd 3d 02 42 9e 3b a2 97 ba bc 52 00 96 bd
       0.092313826 0.004829646 -0.022777382 -0.0732428
000020 ca a1 b3 bd 0b 01 47 3d 6e 9f 18 bc ff 65 1b bd
       -0.08771093 0.04858498 -0.009315355 -0.037939068
000030 f5 ec d0 bd 2f ee 9e bd cd 86 07 3c df af ce bd
       -0.10201446 -0.07760274 0.008271885 -0.100921385
000040 d5 03 83 bd b6 7c 87 bd 49 ef ce 3d b5 ca ab 3d
       -0.06397215 -0.066155836 0.10104234 0.08388273
000050 bf 1d 01 bd 9d c0 c6 3c 72 c8 55 bc c8 18 17 bd
       -0.03152251 0.024261767 -0.013048278 -0.036888868
000060 cd 31 52 3c 6f 9d 71 bd ba 9f 74 3c 1d a0 39 bc
       0.012829256 -0.05898803 0.01493066 -0.011329678
000070 48 89 d3 3d 46 cd 4b bc 31 82 78 3d 88 03 e2 3c
       0.10328919 -0.012439078 0.060671035 0.027589574
000080 e5 5c b6 3c 3f aa c2 3d 68 6e ef 3c e9 17 50 bd
       0.022261092 0.09505128 0.02922745 -0.050804053
000090 97 de af 3d 73 5a 8d bc 0c 2f bc bd b7 50 4c bd
       0.085873775 -0.017255044 -0.09188661 -0.049881663
0000a0 6a 06 09 bc 56 ed d9 bd 1a 8f 58 bd ce a5 26 bc
       -0.008363346 -0.10640971 -0.052870847 -0.010171367
0000b0 6a f8 aa bd 0a e8 b6 3d f2 98 da 3d 90 4c b1 3d
       -0.083481625 0.08930977 0.10673703 0.08657181
0000c0 c6 cb b4 bd cc b4 53 bc ad c4 ce 3d ac 15 77 bd
       -0.08827929 -0.012921523 0.10096107 -0.060323402
0000d0 1f eb 54 3d cd 5e ea 3b 3a 6c 2e 3d 9e b3 d4 bb
       0.05198204 0.0071524144 0.04258368 -0.0064911386
0000e0 22 e8 72 3d e8 45 dc 3b 36 5b fa bc f8 f5 91 bd
       0.05930341 0.0067222007 -0.03056107 -0.07126993
0000f0 a4 83 df bc 85 05 8d bd 5e 0e 6b bd f1 9c ec 3c
       -0.02728445 -0.068858184 -0.05738675 0.02888343
000100 db 1f b8 bb 74 b2 db 3b 39 ea 31 3c fc 73 03 3d
       -0.005619032 0.006704623 0.010859066 0.032093033
000110 75 2a 7d bc 4a d1 cc 3c 43 57 83 bb 03 8d 71 3b
       -0.015452017 0.02500214 -0.004008205 0.0036857731
000120 3b c9 85 3b f9 cf 09 bc 35 99 ef 3b 6b 99 24 bd
       0.0040828264 -0.008411401 0.007311965 -0.040185373
000130 75 0f 55 bc 77 a6 a5 3c 03 f3 08 3d 12 35 53 bd
       -0.0130041735 0.020220978 0.03343488 -0.051564284
000140 c2 0d 77 3c e1 d0 0e bd dd de a3 bc 61 1d 93 3b
       0.015078964 -0.03486717 -0.02000373 0.004489586
000150 43 b9 e5 3c fe c8 16 bc 06 2e 21 b7 d0 13 1e 3b
       0.028042441 -0.009203194 -9.6070635e-06 0.0024120696
000160 83 9b 58 3b c4 6e 8f bb ff 95 d6 bc 77 8c e1 3c
       0.0033051677 -0.004377218 -0.02619457 0.0275328
000170 ad 06 a8 bb 44 3a 16 bb 49 be e7 bc 75 5f 1b 3d
       -0.005127749 -0.0022922913 -0.028288977 0.03793283
000180 f0 f6 08 bc 18 53 42 3d 72 ac fa bc 33 c1 87 3c
       -0.008359656 0.047442526 -0.030599806 0.016571617
000190 e4 84 e7 bb c2 47 88 bb 3f 7c 79 bd fd 44 6b bd
       -0.0070654023 -0.004158945 -0.060909506 -0.05743884
0001a0 24 d0 4c bc cb bb 6e bd 7c 68 00 bb 61 13 4d bd
       -0.0125007965 -0.058284562 -0.0019593528 -0.05006731
0001b0 88 af c6 3b 59 b3 82 bc 7f 99 1c bd 22 ef 2d bc
       0.0060634054 -0.01595466 -0.038232323 -0.010616096
0001c0 76 25 77 bd b8 65 88 bd 5e 2a 75 3d 18 c3 1f 3b
       -0.06033846 -0.06660026 0.059854858 0.002437776
0001d0 8f aa 64 3b 3b e8 1e 3d f4 a6 6a bd 25 33 7d 3b
       0.00348917 0.03879569 -0.057288125 0.003863522
0001e0 a4 ad 8f 3c d9 cf 04 3d d2 c3 a1 3c 51 c5 80 3d
       0.017538853 0.03242478 0.019746695 0.06287635
0001f0 d1 23 f5 b9 60 5e 15 bd 79 65 d8 bb 0e 28 a2 bc
       -0.00046756727 -0.036466956 -0.0066038934 -0.01979449
000200 57 48 e2 bd 9d c8 c6 3c 01 d7 ed 3d 59 e4 af 3d
       -0.11048954 0.024265582 0.11613274 0.08588476
000210 b2 0e 93 bd 0e 40 7b 3c 8c ad 88 3c 70 1e d6 bd
       -0.07180537 0.015335096 0.016684316 -0.10455024
000220 3c d6 50 3c f8 5e 79 bc e7 ac 83 3d a7 f4 ff bc
       0.01274639 -0.015220396 0.06429463 -0.031244589
000230 f0 09 8b bd 6e 95 fb 3c 8a 57 f3 3c 69 b1 00 be
       -0.06789005 0.030710902 0.029704828 -0.12567677
000240 54 f6 12 3d cb 6e 36 3d db 6c ed 3d 70 e4 7f 3d
       0.035879448 0.044539254 0.11593028 0.062473714
000250 29 5c 0f bd 8a 40 f3 3d 66 9f 39 bc 68 a3 9c bd
       -0.035 0.11877544 -0.011329507 -0.07648355
000260 cc d3 51 bd bb 94 17 bd 19 20 d7 3a 43 9f 98 bd
       -0.051227376 -0.037007075 0.0016412764 -0.07452252
000270 a6 a8 6e bd da ae ba bc b0 8a 4a bd af 11 ca 3d
       -0.058266304 -0.022788454 -0.04944867 0.09866654
000280 41 25 01 bc 8d 32 f3 bc 1d d4 ef bc 9b 07 c7 3d
       -0.007882417 -0.02968719 -0.029275948 0.097182475
000290 ac fb 15 3d d8 03 45 bb 0b 6f 71 3d 75 e9 a8 bd
       0.036616966 -0.0030062106 0.05894379 -0.082476534
0002a0 10 c2 04 3d 00 37 88 3d 31 35 95 bd 77 dc 21 bd
       0.032411635 0.066511154 -0.07285536 -0.039516892
0002b0 0d 37 c5 bd 6b 29 87 bd c2 20 d4 3d 94 b3 d1 3d
       -0.09629641 -0.06599697 0.103578106 0.1023933
0002c0 fc 0e 6d 3c c5 64 57 3d b2 f7 3d bc 63 e6 1a 3d
       0.014468905 0.052586336 -0.0115947 0.03781737
0002d0 95 ee 1a 3d 79 bf b8 bd e7 c5 84 bd de 07 a7 ba
       0.037825186 -0.090208955 -0.064830594 -0.0012743433
0002e0 5d f7 0f 3c a9 48 00 bc 68 e6 fe 3c 5f 0f f2 bd
       0.008787003 -0.0078298235 0.031115726 -0.11819338
0002f0 d3 95 85 3d 08 69 94 bd 68 9e e8 3c 18 06 2a 3d
       0.06522717 -0.072465956 0.028395846 0.041509718
000300 30 a3 19 bd c8 e2 95 3c fe d0 66 bd a6 ad 11 bd
       -0.037509143 0.018296614 -0.056351654 -0.035565995
000310 8f 16 4d bd b6 ef 20 3d 8b 06 92 bd 19 b2 e1 bd
       -0.05007034 0.039291106 -0.07130154 -0.110202976
000320 30 2f 40 3c d2 02 67 bc 38 84 71 3d 77 6e 48 ba
       0.01173 -0.0140997935 0.058963984 -0.0007645855
000330 23 e2 22 bd 7f 29 c3 bd b6 0e 30 3d 59 98 08 bd
       -0.039766442 -0.09529399 0.04298278 -0.033348415
000340 56 af 32 3d bb 0e 12 bd 6e b1 87 bd 94 87 06 3e
       0.043624245 -0.03565858 -0.06625639 0.13137656
000350 20 9d 94 3d 53 81 df bc 47 16 7c 3a 0f e7 8a 3b
       0.07256532 -0.027283346 0.00096163567 0.00423897
000360 e5 35 c4 bd ad aa 01 be 37 80 f2 bb 22 08 e0 bd
       -0.09580592 -0.12662764 -0.0074005383 -0.10939051
000370 a9 9c 68 3c 45 36 3f 3d 21 8c c8 bc 59 31 67 bc
       0.014197507 0.046682615 -0.024480881 -0.0141108865
000380 4c 63 88 bc 96 55 ba 3d 51 69 7c bc 99 32 cd bc
       -0.016648911 0.090983555 -0.015405969 -0.02504854
000390 9e ad 7c 3d 55 4b 46 3d 92 74 8b bd c8 34 46 bd
       0.06168901 0.048411686 -0.068093434 -0.04839018
0003a0 15 bc 08 3d b6 5d 7c bd ab 15 a4 bd 25 3d a2 3b
       0.033382494 -0.061612807 -0.08011945 0.0049511367
0003b0 fa 0b 0c 3d a4 cc 5f 3d 68 b3 6b bc 0c 2f fb 3b
       0.03419111 0.05463852 -0.0143860355 0.0076655205
0003c0 c4 f1 0e 3d 4b 9d 73 3d cf 18 ab 3c 4e d1 1c bd
       0.034898534 0.05947618 0.020885853 -0.038285546
0003d0 e9 64 ca 3c 62 4e a2 bd eb 41 b3 3b a5 36 16 bb
       0.02470632 -0.079251066 0.0054705045 -0.0022920754
0003e0 cb 01 ba 3a 5d ef c4 bd 64 2c 31 bd 55 cd 66 bc
       0.0014191208 -0.096159674 -0.043255225 -0.014087041
0003f0 f3 37 cd 39 2c 45 06 3c c6 54 9d bc 0d 33 02 bd
       0.00039142332 0.008195203 -0.019205462 -0.031786967

lstm.bias_ih_l0 f4 [256]
000000 0f 89 c4 bd 70 95 6e bd 97 5b 08 3e 19 ee cb 3d
       -0.09596454 -0.058247983 0.13316189 0.09957523
000010 9a 4a 97 ba 67 3b 21 bd da 45 81 3d 69 7c e2 3d
       -0.0011542619 -0.03936329 0.06312151 0.110588856
000020 3d 5f 2a bc 3c e1 6e 3d e9 7d 10 bd 1c 69 b9 3d
       -0.010398683 0.05832027 -0.035276327 0.09053251
000030 9b 47 c9 3d 17 f9 a4 3d dd f8 c6 3d ed a0 01 3d
       0.09828111 0.080553226 0.09715436 0.03164761
000040 ed 96 af bd c8 3b 11 bd 0a 0d 85 3c d5 77 93 bd
       -0.08573709 -0.035457402 0.01624157 -0.072005905
000050 63 0d 94 3c 61 9a 13 3d a7 ab 96 bd 2a 02 09 3e
       0.01807279 0.0360359 -0.07356959 0.13379732
000060 77 d4 ee 3d 08 45 48 3d 53 f1 40 bd 17 f4 fa 3d
       0.11661618 0.04889396 -0.047105145 0.12253588
000070 6e 88 fb 3d cb 3c d5 3d 5e f7 94 3d 7e 2f 09 bd
       0.12281881 0.10411986 0.07273744 -0.033492558
000080 57 94 2b bc 05 12 15 3d 2d fc f0 3d 53 6a cf bd
       -0.010472379 0.036394138 0.11766849 -0.101277016
000090 f3 89 8e bd e5 9e 30 bd 13 5a 11 3d 5b 83 ec 3d
       -0.069599055 -0.043120284 0.035486292 0.115484916
0000a0 3b 33 17 3d 68 52 3a 3d 2b 94 12 3e af 70 eb 3c
       0.03691409 0.045488745 0.14314334 0.028740255
0000b0 c4 88 cd bc ee 99 02 bd 7d 05 aa ba e0 4c 96 3c
       -0.025089629 -0.03188508 -0.0012971606 0.018347204
0000c0 fe 4b 0d 3e 2f 44 d2 bc 13 b1 a1 3d cd dc 62 3c
       0.1379852 -0.025667278 0.07895102 0.013846588
0000d0 68 7c 95 3b 36 b9 f8 3d 2c 6c a9 3d c8 4f 88 3c
       0.0045619495 0.12144701 0.08272585 0.016639605
0000e0 95 59 92 bd 45 52 bb 3d 21 aa 93 bd f4 5d 6a bc
       -0.07145993 0.09146551 -0.07210184 -0.014304627
0000f0 f3 c7 b7 3d 78 46 49 b9 5b c4 ff 3d 5a eb e4 3d
       0.08973684 -0.00019195105 0.12488624 0.11177702
000100 9f ea 00 3e ae b9 04 bc 95 ca f2 3d 50 20 89 3d
       0.12589501 -0.00810091 0.11855046 0.06695616
000110 58 28 21 3e 9e 00 11 bd e0 4b 06 bd b5 68 81 3d
       0.15738046 -0.03540098 -0.032787204 0.063187994
000120 3b b8 99 3d df 2d a7 3c a8 75 56 bc f3 11 17 3d
       0.07505842 0.020407615 -0.013089575 0.036882352
000130 36 d6 8f 3d c7 46 ab 3c e7 1a 0e 3d 9e c9 ea bc
       0.07023279 0.020907773 0.034693625 -0.028660592
000140 6e 8c ab 3d be ff d2 3b 43 53 0c 3e 0a e5 a3 bd
       0.08376394 0.0064391783 0.13703637 -0.0800267
000150 cb 4a d1 3d ad 0f 1c bd c3 c8 66 bd f2 13 06 3d
       0.10219344 -0.038100887 -0.056343805 0.032733865
000160 8d 0b d1 3d fc 92 49 bd 04 a0 c4 3d 97 6b 0d 3e
       0.10207281 -0.04921244 0.09600833 0.13810574
000170 5e 2c 42 3d 3b 39 18 bd 7a 74 84 3d 1c 9e 11 3e
       0.047405593 -0.037163954 0.06467529 0.1422047
000180 f8 ad d2 3c b1 97 ac 3c 00 83 66 bd db ef 40 3c
       0.02571772 0.021068426 -0.056277275 0.011775936
000190 ad 65 c3 3d e6 cd 81 bd f0 22 fc bb 56 34 40 bd
       0.095408775 -0.063381 -0.0076945946 -0.04692491
0001a0 1f 44 b7 ba 75 bd ac 3d 18 e3 94 3d 10 c3 86 3d
       -0.0013982094 0.084345736 0.07269877 0.06580174
0001b0 5c 5c 19 3c 3c ab 41 3d bc 3d bd 3c 5d cb 70 3c
       0.009360399 0.047282442 0.023100726 0.014696923
0001c0 97 c7 85 3c 5b 16 d4 3c fe 91 11 3e 54 89 40 bc
       0.016330523 0.025889566 0.14215848 -0.011751492
0001d0 db 0d 4c bd 21 e0 a8 bd 21 81 81 bd ee 4f 3d bc
       -0.0498179 -0.08245874 -0.063234575 -0.011554701
0001e0 db 42 51 bd 4e c1 12 3e 51 4d 08 3e 93 2a a7 3d
       -0.05108915 0.14331552 0.13310744 0.08162417
0001f0 da 4e a4 3d f3 f1 d4 3c 58 d5 ca 3d a2 ff a8 3d
       0.08022852 0.025994277 0.09903973 0.08251883
000200 ae 95 a4 bd 06 54 03 be f2 17 00 3e d2 bc c2 3b
       -0.08036362 -0.12825021 0.12509134 0.0059429193
000210 03 35 e5 bb de 58 de 3d b0 e5 05 be 22 93 8e bd
       -0.006994845 0.10856794 -0.130759 -0.06961657
000220 11 b6 86 3d e6 8d cd bd 41 00 00 3a d8 57 d8 3c
       0.06577695 -0.100368306 0.00048828503 0.026409075
000230 0f 87 f1 bd cf ec 15 3d 36 85 08 bd c8 1e 62 3d
       -0.117933385 0.03660279 -0.033330165 0.055205137
000240 5c a3 1b 3e ad 0f 8d 3d bc 18 f2 3d a8 68 b3 3d
       0.15199035 0.068877555 0.11821124 0.08760196
000250 05 5e 0e 3e 8d 4b 33 3d 30 9f 3d bd b5 61 3d 3d
       0.13903053 0.043773223 -0.04629439 0.04623576
000260 a1 66 9c bd a7 40 df bd 19 3b 1a be 2d ea 1a bd
       -0.076367624 -0.10901003 -0.15061606 -0.037820984
000270 23 65 ff 3d bd df 98 3d a5 b7 f5 bd 0b ca f7 3d
       0.12470462 0.0746455 -0.11997918 0.120990835
000280 1e da 87 3d d2 3b 8b 3c 63 fc e1 3c 7d 1f c3 3c
       0.066333994 0.016996298 0.027586168 0.023818726
000290 f7 58 e7 3b 88 71 b3 3c 0d 90 03 be 8e 08 0a be
       0.007060166 0.021904722 -0.1284792 -0.13479826
0002a0 c7 aa 13 be 81 9f 98 3d 5b c3 d9 bd 7d 2a 49 bc
       -0.14420615 0.07452298 -0.10632964 -0.012278196
0002b0 fb 62 af bc 7d 98 b2 3d d2 73 17 3e e3 54 06 3e
       -0.021409502 0.08720491 0.14790276 0.13118319
0002c0 13 94 21 be 36 ba 21 be 80 16 02 3e 2b ea ae bd
       -0.15779142 -0.1579369 0.12703896 -0.08540758
0002d0 ad 43 f9 3d c9 37 81 bd 01 11 da bd 5b ee 3e 3d
       0.12171111 -0.06309468 -0.106477745 0.046614032
0002e0 b0 19 7f bd 51 06 22 be ee 5c 9b bd 9b 22 10 be
       -0.062280357 -0.15822722 -0.07586084 -0.14075701
0002f0 af 31 c4 3d 53 ee 4f bd a8 9d e6 bd 2e 61 28 bd
       0.09579789 -0.050764393 -0.11260539 -0.041108303
000300 97 ed 90 bb 48 ad 87 3d e4 9a 81 3c 45 1e 7a bd
       -0.004422854 0.06624848 0.015820928 -0.061064024
000310 8b 15 ab bd 0c dc 17 bd da df a2 bd 9b 18 ee bc
       -0.08353718 -0.037075087 -0.079528525 -0.029064467
000320 b4 9f 97 3c f5 a7 88 bd 81 c2 70 bc 45 c4 fd 3a
       0.01850877 -0.0667266 -0.014694811 0.0019360861
000330 ad e8 f9 bc 2c 4a d7 bc b4 03 37 bd e4 d0 0e 3e
       -0.030506456 -0.026280485 -0.044681266 0.13946873
000340 1a ba 8c bd 5e 79 7e bd 7f 96 34 bd 31 d9 eb 3c
       -0.068714336 -0.062127464 -0.044088837 0.028790088
000350 3e 92 c4 3d da ce a8 3d 54 08 1b 3d 26 e7 ff 3d
       0.09598206 0.08242579 0.03784974 0.1249526
000360 e8 46 23 3d 2c b9 c5 3d 39 ed 07 bd 99 ec 9e 3d
       0.039862543 0.09654459 -0.033185218 0.07759971
000370 b4 d2 0d 3e e3 bc 03 3c b8 da 7a 3d 56 d6 b9 bc
       0.13849908 0.00804064 0.061243743 -0.022685211
000380 75 df 2a bd 72 10 05 bd a1 f8 8c 3d 1d be b6 3c
       -0.04171701 -0.032486387 0.0688336 0.02230745
000390 70 fc 94 3d 28 04 59 3c fb 63 52 bd 5b 60 03 3e
       0.07274711 0.01324562 -0.05136488 0.12829725
0003a0 99 7f 09 3e ab 5e b6 3d 95 66 0c 3e 7b 2e ad 3d
       0.13427581 0.08904775 0.13711007 0.08456131
0003b0 e4 41 9b 3d f7 86 e7 3d 94 1f 0b bd 22 9a 4e 3d
       0.07580927 0.113050394 -0.033965662 0.05043996
0003c0 1e 29 8f 3d 15 8a 56 3c b1 19 ea 3d 4b 4f c5 3d
       0.06990264 0.013094445 0.114306815 0.096342646
0003d0 fc 1e 81 3d 92 e4 1c bd 09 b8 df 3d 29 65 08 3d
       0.06304738 -0.03830392 0.10923774 0.0332996
0003e0 b3 f5 23 bd 98 d9 10 3e 32 e2 8f bd 36 9e d6 bb
       -0.04002924 0.14145505 -0.07025565 -0.006549622
0003f0 9e 56 94 3d 03 e6 03 3e aa 1f f0 bb 37 83 69 3d
       0.072430834 0.12880711 -0.0073279934 0.0570099

lstm.bias_hh_l0 f4 [256]
000000 ed 04 cb 3c bb 0f 66 bd 25 c4 d8 3d 70 48 24 3d
       0.024782622 -0.056167345 0.105842866 0.040108144
000010 96 13 27 3d 73 8c 90 bd c9 07 a9 bd 5a f6 c0 3d
       0.040790163 -0.070580386 -0.08253438 0.09421988
000020 75 c3 a2 3d 39 7b 7a bc 68 57 c7 3d a0 cf bc 3d
       0.07947437 -0.015288168 0.09733468 0.09219289
000030 14 05 a5 bd 59 c0 8f 3d 17 03 95 bd 5e 80 f9 3d
       -0.08057609 0.07019109 -0.0727598 0.12182687
000040 f6 e6 bf 3c af 1b eb 3d 47 92 38 bd d9 23 be 3d
       0.02342556 0.114798896 -0.045061376 0.09284181
000050 ee 28 04 bd f2 81 93 bd 23 64 97 bd d4 14 03 3d
       -0.032265596 -0.072025195 -0.073921464 0.032002285
000060 c1 90 6e bd 1b 9f e5 bc f0 c2 a1 3d d2 76 56 3d
       -0.058243517 -0.028029969 0.078985095 0.05235941
000070 5e 2b 5e bd af d1 ec 3d 1e 44 18 bd be ea f5 3d
       -0.054240577 0.115634315 -0.037174337 0.12007664
000080 6e a9 14 3c b1 3c 59 3d fa ba be bd 41 a9 38 bc
       0.009073598 0.053036395 -0.09313007 -0.011270822
000090 9c b8 6b 3d d2 f8 c2 3d d1 6c ed 3d c0 c2 d3 bc
       0.057549104 0.09520115 0.11593021 -0.0258497
0000a0 76 5d 91 3d 44 be c0 3d 4b 74 d9 3c 62 fc 17 3d
       0.070979044 0.0941129 0.02654471 0.037105925
0000b0 9e e1 4a bd 40 87 17 3e 2b 78 93 bc cf 40 1b 3e
       -0.04953157 0.14797688 -0.018001636 0.15161441
0000c0 49 14 14 3e 6f f0 b0 3c 02 e1 be 3d 47 3f 8d bc
       0.14460863 0.021599023 0.093202606 -0.017242087
0000d0 9b 1f 87 3d 76 19 5f 3d d2 7c cd 3b 15 05 a2 3b
       0.06597825 0.05446764 0.0062709833 0.0049444535
0000e0 e5 d3 95 bc d1 39 0c 3c fc f5 9e 3d 2e 31 8d 3d
       -0.018289516 0.008558706 0.077617615 0.06894146
0000f0 78 15 28 bd 5e c9 05 3e e4 99 bc bc 07 1c 23 bc
       -0.0410361 0.13065097 -0.0230226 -0.009955413
000100 00 6b 93 3d 87 6d 97 3d 07 64 a7 bd 2f 9e 88 3c
       0.07198143 0.073939376 -0.081733756 0.01667699
000110 89 f8 1f 3e e7 47 d2 3c 83 84 22 bd e9 1a 28 3d
       0.15622152 0.025669051 -0.039677154 0.04104129
000120 55 30 80 bd a2 3e 2a bd d9 11 09 bd b0 df 52 bd
       -0.062592186 -0.041563638 -0.033464286 -0.051482856
000130 76 d1 a0 bd 26 08 b6 3d 2a 8f c6 bb a0 f3 01 3d
       -0.078524515 0.08888273 -0.006059547 0.03172648
000140 d6 cf e1 bc 3e 33 b8 3c 12 4b ac bd 8c 91 02 3e
       -0.027564924 0.022485372 -0.08412756 0.12750834
000150 70 ac f6 3d 71 36 95 3d 5c 3b 95 bb a3 a4 e2 3c
       0.120446086 0.072857745 -0.0045541953 0.027666396
000160 dd 0a a2 bd ff 7a fb 3c fa 82 5c bd c3 ea 62 bd
       -0.07912228 0.030698298 -0.053835846 -0.055399667
000170 c8 9e aa 3c bb c7 a4 3d bf ce 42 bd b7 e4 cd 3d
       0.020827666 0.08045908 -0.04756045 0.100533895
000180 fa 64 a2 3d 4e 2a 44 bd a2 a7 bb 3d 54 bd 03 3b
       0.07929416 -0.047891907 0.09162833 0.0020101862
000190 74 0b 63 bb 85 c8 c9 3d 8b c7 0e bd f5 a2 49 3d
       -0.0034644278 0.09852699 -0.034858268 0.049227674
0001a0 d2 2d 6e 3c 58 8c 05 3e 1b 04 35 3d c3 b3 b4 3d
       0.014537292 0.13041818 0.04419337 0.08823349
0001b0 39 56 09 3c ab 33 83 bd 0f a9 5c 3d c2 0f 23 3d
       0.0083823735 -0.06406339 0.053872164 0.03980995
0001c0 56 e3 39 bb 71 81 1d 3e f8 dc 81 bd d0 92 dc bc
       -0.0028364263 0.15381409 -0.063409746 -0.026925474
0001d0 de 72 54 bd 55 01 e7 3d 8b ac 26 bd 78 3c ee 3c
       -0.05186736 0.11279551 -0.040691894 0.029081568
0001e0 dc 35 0f 3d 04 3b 0b 3e 44 59 ae 3d 19 03 e6 bc
       0.034963474 0.13596731 0.0851312 -0.028077649
0001f0 a4 a4 b0 3d bd 8c 9b 3d 7b 1d a6 3c 20 9b bd 3d
       0.08625153 0.07595203 0.02027773 0.09258103
000200 9d 28 20 3c aa 19 bc bd 8d 09 e3 3d 13 80 c1 3d
       0.009775308 -0.091845825 0.11085806 0.09448256
000210 34 f3 16 3e 5b b1 57 bc 86 39 8a 3d 8a 73 9e bd
       0.14741212 -0.013164843 0.06749253 -0.07736881
000220 d6 a6 ed bd 70 2b fc 3d 19 0e fb 3c 60 80 b3 bd
       -0.11604087 0.123129725 0.03064637 -0.0876472
000230 47 26 d3 bd e4 02 1c be 32 57 af 3d f1 45 c8 bd
       -0.10310035 -0.15235478 0.08561553 -0.09778965
000240 99 3c d1 bc 3f 5b ef bd 1d 2e 1f 3e d4 f0 16 3e
       -0.02554159 -0.11687326 0.15544935 0.14740306
000250 73 7c e3 bc 1f 15 75 3d ff 34 cb bd a2 49 50 3d
       -0.027769303 0.059834596 -0.099222176 0.05085147
000260 d3 6a 1e 3d e1 1e 9c 3c a0 ce d5 bd c9 dc fd bd
       0.038676094 0.019057693 -0.10439801 -0.12395627
000270 14 24 51 3d 9b 5d 8e 3d 7d 86 8d 3c fa 4a ad 3b
       0.051059797 0.069514476 0.017276043 0.005288479
000280 55 74 0c be 21 56 ff 3d 4f 17 84 3d 4c 81 94 bd
       -0.13716252 0.124676 0.06449758 -0.07251224
000290 a3 89 c9 3d 4c 35 24 3d 2c de 0c be 96 f3 19 be
       0.09840705 0.04008989 -0.13756627 -0.15034327
0002a0 e0 bd 5e bd 2d d2 a8 bd 8d 6b 07 be d8 19 0c be
       -0.054380298 -0.08243213 -0.13224621 -0.13681734
0002b0 84 cb 94 bd e1 0e eb 3d 52 ba e5 bb 43 29 b9 bc
       -0.0726538 0.11477447 -0.0070107365 -0.022602683
0002c0 33 c6 c3 bd f2 e6 6c bd 1d 75 a4 bc 39 ed 06 3e
       -0.09559288 -0.057837434 -0.020075375 0.13176431
0002d0 dd c3 12 bd 49 9f 0f 3d fb f5 cb bd fb 5c 5b bd
       -0.03583132 0.035064016 -0.099590264 -0.05355547
0002e0 bd 3e 93 3b b7 4d 76 3d a1 cb 02 3e b8 f1 4d bd
       0.004493563 0.06013271 0.12772991 -0.05027935
0002f0 98 f2 a3 3c a0 5c 8a ba a3 12 9a bb 47 31 9c 3d
       0.020013139 -0.0010556169 -0.0047019287 0.076265864
000300 2a 98 8a 3d 58 ed 98 bc f9 65 20 3c a3 22 71 3d
       0.06767304 -0.018667862 0.009789937 0.058870923
000310 22 f7 8e 3d 77 ea b4 bc 7c cb ab 3d e0 82 d0 3d
       0.069807306 -0.022084458 0.08388421 0.101812124
000320 da ea 27 3d f6 7b 31 3b ce 10 a3 bc da 6a a8 bd
       0.040995456 0.0027081943 -0.019905474 -0.08223505
000330 91 ac 1f 3e 6d 1d dd 3c 37 18 ac bd 2c 6d d9 bc
       0.15593173 0.02699157 -0.08403056 -0.026541315
000340 9e 4d 1e 3c 21 17 04 3e 34 19 85 3d 6d 5d c4 3c
       0.00966206 0.12899448 0.06498948 0.02397033
000350 75 dd 94 bc 74 4b 04 3e b2 a0 8c bd c7 18 f5 bc
       -0.018172005 0.12919408 -0.06866588 -0.029919041
000360 be f8 a6 bd cf 28 d4 3d ea de 51 bc c8 dc f8 3d
       -0.081529126 0.10359346 -0.0128094945 0.12151486
000370 2e 38 d7 3c 72 56 c5 3d bd 9c a6 3c e9 dd 0f 3e
       0.026271906 0.09635629 0.02033841 0.14049496
000380 29 19 7c bd dc 17 12 3e 19 d6 84 3a 0a 1f 02 3d
       -0.061547432 0.14266914 0.0010134607 0.031767882
000390 bf 94 dd 3d 93 d2 38 3d 0d 57 0c 3e bd cd 9c bd
       0.10819387 0.045122694 0.13705082 -0.07656429
0003a0 68 d7 40 bd 08 cf db 3c 68 eb dc 3c 09 dc 85 3d
       -0.047080427 0.026832119 0.02696772 0.06536109
0003b0 7c d2 37 3d 6d 43 34 bd 23 83 9f bd 49 c6 87 3d
       0.044878468 -0.044009615 -0.07788684 0.06629617
0003c0 68 e6 a5 bb 85 29 c5 3d 05 48 80 bd 47 8f 11 3d
       -0.005062867 0.0962706 -0.06263737 0.03553703
0003d0 e6 dd 86 bd b9 0b ae 3d 4f 63 e1 bb 37 27 dc bc
       -0.065852925 0.0849833 -0.0068782936 -0.026874168
0003e0 33 0f 53 3d 6c be ae bd ac f2 a8 3d bd 49 14 3d
       0.051528167 -0.08532414 0.08249411 0.036203135
0003f0 39 00 ba bd d7 3e b1 3d 72 35 cd 3d 04 ff bf 3d
       -0.09082074 0.08654564 0.100199595 0.09374812

lstm.weight_ih_l1 f4 [256, 64]
000000 8b d0 f9 bd 5b 07 7d bb ff 8e 92 bd 63 17 88 bd
       -0.121979795 -0.003860912 -0.071561806 -0.06645086
000010 a4 83 ed bb 8a df 58 bd f1 3b b8 bd bc 20 71 3d
       -0.007248359 -0.05294756 -0.08995808 0.05886911
000020 82 fe 01 bd a1 6a 15 3d e2 dc fd 3b 59 24 41 3c
       -0.03173686 0.036478642 0.0077472785 0.011788451
000030 ce 85 70 bd ce 29 95 3d 28 d3 ec bc 69 96 08 bd
       -0.058721356 0.07283364 -0.02890928 -0.033346567
000040 52 34 89 3d e2 7b 27 3d 8a c1 3c 3d 22 d6 c4 bc
       0.066994324 0.04088963 0.04608301 -0.024027888
000050 c8 c7 5f 3c 49 9f 02 3d e2 25 57 3b ab 50 97 3d
       0.013658471 0.031890187 0.0032828976 0.07388433
000060 78 09 81 3d 94 c7 8d 3b 51 5e eb bd 47 3e 32 3d
       0.06300634 0.00432677 -0.11492599 0.043516424
000070 73 9c 0c bd 07 51 9f 3d 3d 66 32 bd b7 b6 69 bd
       -0.03432889 0.077791266 -0.043554533 -0.057059016
000080 af ca 93 ba c8 5c 99 bd 79 65 7f bc bd c1 60 bd
       -0.0011275614 -0.074884 -0.015588158 -0.054872263
000090 08 49 04 bc 80 95 d2 3d 44 a3 8d 3d e0 7b 7d 3d
       -0.008074053 0.10282421 0.06915906 0.061885715
0000a0 bc 3d 97 3d 84 9c 8c bd 16 da 4f 3c 9b da c2 3c
       0.07384822 -0.068657905 0.012686273 0.02378588
0000b0 ef 93 83 bd 1a c6 69 bd 92 dc 1d 3d 1d db 6b 3c
       -0.064247005 -0.05707369 0.03854043 0.014395502
0000c0 d9 b8 b6 bb 5d bd 18 bd e3 dc 6f 3b a8 38 70 3d
       -0.005576235 -0.037289966 0.0036600165 0.05864778
0000d0 dd 06 a5 3c 70 27 a8 bc b3 b6 8a bd 1c c3 e6 3b
       0.020144874 -0.020526618 -0.06773128 0.007042302
0000e0 ff 7c 33 bd ce 3d 15 bd 52 f2 00 bd 4b bd f6 bd
       -0.043820377 -0.036435895 -0.031481095 -0.120478235
0000f0 fc bc fe 3b bb b0 1d 3c 2b 48 5d 3c 4b d8 56 bd
       0.0077739935 0.009624655 0.013505976 -0.052452367
000100 f5 13 c7 bd 77 bd 52 bd 47 89 c3 3c 7c 29 90 bd
       -0.097206034 -0.05145022 0.02386917 -0.070391625
000110 fd 16 e5 3d 96 b8 ad 3c 44 63 46 3d e1 83 1b 3c
       0.11186025 0.021206181 0.04843451 0.009491892
000120 70 f4 6b 3a 06 6b c4 ba 14 a4 93 3d c3 f6 73 bd
       0.00090009626 -0.0014985509 0.0720903 -0.059561502
000130 90 86 9f 3c bf 5d 81 bd 35 5e de 3c f8 24 b3 bd
       0.019473344 -0.06316709 0.02714453 -0.087472856
000140 cb 03 5b bc c6 43 a8 bd db ad 86 bd 03 dd 2e 3c
       -0.0133676035 -0.08216052 -0.06576129 0.0106728105
000150 97 8c bb bc 15 b9 17 3d d1 18 d1 3a ef 33 af 3c
       -0.022894187 0.037041742 0.001595283 0.021387069
000160 b6 95 38 3c 5a df ef bb 14 79 60 3b 26 1d b1 3c
       0.011266163 -0.0073203268 0.0034251856 0.021620344
000170 97 d6 89 bd 56 71 1a bd f6 90 3f bc 45 e2 00 bd
       -0.06730383 -0.03770574 -0.011692276 -0.031465787
000180 ed 06 a3 ba 43 03 10 3b 7b 6d 80 3d 68 34 95 3d
       -0.0012437977 0.00219746 0.06270882 0.07285386
000190 75 36 b8 3d ad 49 97 3d b4 6d 45 3c 1b a7 10 3d
       0.08994762 0.073870994 0.012050081 0.035315614
0001a0 6b 16 93 3c 02 dc ea bd 51 04 bb 3b a6 72 bc bd
       0.017955026 -0.114677444 0.0057073017 -0.09201555
0001b0 e8 01 30 3d 8c 73 f7 3d 57 02 b1 bc 4e 3f d4 3d
       0.042970568 0.12082586 -0.021607561 0.10363637
0001c0 a8 38 fa bb c6 78 ea bd 78 83 85 3d 07 56 94 3d
       -0.0076361485 -0.11448817 0.06519216 0.07242971
0001d0 40 e5 86 3b 1c b5 05 bd 8e 12 b6 bd 85 84 e9 39
       0.004116684 -0.032643422 -0.08890258 0.00044539958
0001e0 10 6b 80 3d 41 1b 4b 3d 44 d3 5e 3d 81 8a 67 3c
       0.062704206 0.04958654 0.054400697 0.014132143
0001f0 f0 88 85 bb 28 e0 9c bc 80 04 23 bd b5 c3 12 3d
       -0.004075162 -0.019149855 -0.039799213 0.035831172
000200 01 1e 69 3d 99 ac 5d bd 29 f3 c3 3d 8c 58 d9 3d
       0.05691338 -0.05411968 0.095678635 0.10612592
000210 94 35 db 3d eb ea 53 3d 45 5b 15 bb 8a 66 97 bb
       0.107035786 0.051737707 -0.0022789997 -0.004620378
000220 c8 e4 1e 3d 4b 60 3a bd 2a d2 71 3d b9 9c c1 bd
       0.0387924 -0.04550199 0.05903832 -0.094537206
000230 3e c8 fb bd 31 2b 7d 3d 08 19 55 bd b7 49 07 3d
       -0.122940525 0.06180877 -0.052025825 0.033029284
000240 e0 5e 0b 3d e6 a0 90 3d 4b 2e 6d bd 34 ac 10 3d
       0.034026027 0.07061939 -0.057905477 0.035320476
000250 6a a4 5d 3d 8d eb d4 3d ae 26 9b b7 79 3b 98 3d
       0.054111876 0.1039649 -1.8495452e-05 0.074332185
000260 85 02 2c 3d 30 10 4a 3c 04 a6 f3 3c e6 62 ac 3c
       0.04199459 0.012332961 0.029742248 0.021043252
000270 b7 26 48 bd 76 48 b6 3c 3c a4 76 bd 49 cf 13 3d
       -0.048865046 0.022251349 -0.06021522 0.036086354
000280 02 59 3d 3b f6 33 93 3d 15 29 97 3d 41 e6 97 3c
       0.0028892164 0.07187645 0.07380883 0.01854241
000290 1b 66 d4 3d f8 54 e6 3d 9d bb 83 3d af b0 91 3d
       0.103710376 0.11246675 0.06432269 0.07113778
0002a0 96 82 45 bc 6f 7c be bc 43 25 10 3d 5e 28 cd bd
       -0.01205506 -0.023252694 0.035191786 -0.10017465
0002b0 f2 3c bb bd 7c 9a 18 3d 0d 2c ae 3c a7 2b 9f 3c
       -0.09142484 0.037256703 0.02126124 0.019429995
0002c0 c6 e5 af bc 51 20 88 3d e5 73 65 bd 74 ff 50 3d
       -0.02147187 0.06646789 -0.05601873 0.05102487
0002d0 e9 38 fe 3c e2 73 6c 3d ee b6 9d 3b 07 e0 12 3c
       0.031032996 0.057727702 0.0048130667 0.008964545
0002e0 66 2e df 3c 15 01 7f 3b 77 de 30 bd 69 e5 33 bd
       0.027243804 0.0038910557 -0.04318091 -0.043919954
0002f0 51 40 28 bc f7 fb 27 3d c5 6a ba bc 8d 26 ec bc
       -0.0102692405 0.041011777 -0.02275599 -0.028826976
000300 69 1c f3 bd 66 af a4 3c 17 92 8c bd 67 ad b9 bc
       -0.11870653 0.020103168 -0.06863802 -0.022665692
000310 f0 99 a8 bc 22 e3 50 3d 6e 74 03 bd a9 0e a7 bd
       -0.020581216 0.05099786 -0.032093458 -0.08157093
000320 62 0b 70 bd 4f cd 59 bc 9b fb e8 3c 77 00 d8 bc
       -0.058604605 -0.013293578 0.028440287 -0.02636741
000330 d2 cc a7 bd 8c 7c 13 bd 2c c5 ad 3d 0d b4 a3 bd
       -0.08193363 -0.03600745 0.08484873 -0.07993326
000340 a3 2e d8 3d 20 aa 88 bc be 8b 40 3d 54 33 d6 bc
       0.1055577 -0.016682684 0.04700827 -0.026147522
000350 1b 60 bd 3c 34 a8 b3 bc 93 06 b5 b9 cc 3c df 3d
       0.023117116 -0.021930791 -0.00034527908 0.10900268
000360 52 67 45 bd 5c ea 94 bd 99 93 1f bd 23 33 20 3d
       -0.048194237 -0.07271263 -0.03895912 0.039111268
000370 bd 89 04 bd e1 d0 30 3d 61 f1 4b 3c 68 79 dc bc
       -0.03235792 0.043167952 0.012447686 -0.02691336
000380 53 26 20 b9 0c 62 b3 bc d3 d6 2c 3d 22 94 98 bc
       -0.00015273066 -0.021897338 0.04219706 -0.018625323
000390 56 b5 51 3d 36 1c 14 bd ec 21 39 bd 92 2c 92 bc
       0.051198326 -0.036159717 -0.045198366 -0.017843518
0003a0 e8 0b 30 bd a1 1e 99 bd 45 1f 03 3c 87 66 87 bd
       -0.042980105 -0.07476545 0.008003061 -0.066113524
0003b0 df d5 49 3b a3 c3 ec bc eb 90 72 3d d2 a1 c8 3d
       0.0030797643 -0.02890188 0.059220236 0.0979649
0003c0 78 80 e2 bd bf 0f 6d 3d eb ba 24 3c 1c 4e a3 ba
       -0.1105966 0.057876345 0.01005433 -0.0012459191
0003d0 83 00 2f 3d dc 4a 69 3d af b2 e4 bc dd 72 b2 b9
       0.042725097 0.056956157 -0.027917234 -0.00034036385
0003e0 a3 42 8f bc 32 e1 0a bd 06 ee 8f 3d 62 ed 7c 3d
       -0.01748783 -0.03390617 0.07027821 0.061749823
0003f0 2a 1c 06 3b 6d 5c fb 3c 7d 36 43 bd 38 a2 24 bd
       0.0020463564 0.03068372 -0.047659386 -0.040193766

lstm.weight_hh_l1 f4 [256, 64]
000000 55 5b 94 3d 20 1a 08 bd a6 33 f0 bd f4 16 97 bd
       0.07243983 -0.03322804 -0.11728601 -0.07377425
000010 da 07 05 3e be f0 39 3d 3e c9 a2 3d 9c c9 e8 bd
       0.12991276 0.045395605 0.0794854 -0.11366579
000020 52 eb 57 3b b0 7d 93 bd 82 84 43 bd 4c 4d 77 3d
       0.0032946658 -0.07201707 -0.04773379 0.06037645
000030 67 79 39 3d 63 f4 92 3d 75 34 94 bd 51 5d d8 bc
       0.045281794 0.07175519 -0.07236568 -0.026411684
000040 94 86 87 bc f8 09 08 3d 0a 25 f1 bd e3 33 fa 3d
       -0.016543664 0.033212632 -0.11774643 0.12216928
000050 55 ff cf 3d 05 4f ac bd 29 32 1b bd c8 97 e8 3b
       0.101561226 -0.08413509 -0.037889633 0.007098172
000060 6b 8a 2b 3d b6 c1 04 3d e0 93 0b bc 92 1b 57 bd
       0.041880053 0.0324113 -0.008519143 -0.052516527
000070 5c 6c 1c bd 9d e1 b9 bd d8 6c dd bc d9 30 81 3d
       -0.038189277 -0.090762354 -0.02702944 0.06308145
000080 7a 06 87 3d 57 0b f9 3c 02 86 fc bd 10 f0 8e bd
       0.06593032 0.030400915 -0.123302475 -0.06979382
000090 da 33 12 bd 70 9d af 3b 86 e1 d8 bd 3d 16 2b bd
       -0.03569398 0.005359344 -0.1058989 -0.041769255
0000a0 a1 22 7a bd ec da 35 3d 8f 68 57 bd cb 5e 07 3e
       -0.06106818 0.044398233 -0.05258995 0.13219754
0000b0 4e 75 f6 bc c9 71 cb 3d 53 56 eb 3c 5c 56 a7 bd
       -0.030085232 0.09933812 0.028727686 -0.081707686
0000c0 06 2e a3 3d 0e b1 e1 3d 5c 2f fe bd b8 d5 60 bd
       0.07967763 0.110200986 -0.12411377 -0.054891318
0000d0 d1 d4 86 3d 26 c4 3c 3d b9 78 0a 3d f1 a0 75 bd
       0.0658356 0.0460855 0.033806536 -0.05996794
0000e0 9c ee 19 bd ca dc 6e 3d e0 b7 ab bd e6 ab 93 bd
       -0.03758107 0.05831603 -0.08384681 -0.072105214
0000f0 d0 55 ef bc f3 29 a3 3c d5 63 d6 3c 81 dd b9 3d
       -0.029215723 0.019917464 0.02617065 0.09075452
000100 84 ad a2 3d a4 07 bc 3c 12 1a ff 3c 10 2c e8 bd
       0.07943252 0.022952862 0.031140361 -0.11336529
000110 f6 e1 dc 3d 46 8e 06 3d 45 be 28 bd 76 3b ce bc
       0.10785286 0.032850526 -0.04119708 -0.025174838
000120 78 8a ae 3b 22 5d 68 3c 52 75 d8 3d 50 78 65 bc
       0.0053265654 0.014182361 0.10569252 -0.0140057355
000130 c1 b7 84 bc a1 0c 2d 3d 51 a0 47 bc 3f cd cd bc
       -0.016200902 0.042248372 -0.0121842185 -0.025122283
000140 35 26 85 bc b0 99 be b9 e7 b3 8f 3d 68 f6 73 3c
       -0.01625357 -0.0003635413 0.070167355 0.014890291
000150 50 52 30 3c 44 d6 90 bd 38 94 a5 bd 01 c3 80 3d
       0.010761812 -0.07072118 -0.08084911 0.06287194
000160 0b 3f 43 3d f7 76 c7 bd 67 5d 8c 3c f8 af 4d 3d
       0.047667544 -0.097394876 0.017134381 0.050216645
000170 51 3e 40 bd bf 3a ff bd c9 64 f5 3c 87 b8 84 3d
       -0.04693443 -0.12462377 0.029955285 0.06480508
000180 bd ba e4 3c 0c 55 84 3d 62 2a 05 bd 94 8a 21 3d
       0.027921075 0.06461534 -0.032511123 0.0394388
000190 80 d0 9d 3d 9d 99 e5 3d 3b 98 e2 3c eb 73 28 bd
       0.07705784 0.1121094 0.02766048 -0.041126173
0001a0 c5 0b e6 3c ad cd 83 3c da d2 9d 3c 37 96 17 3d
       0.028081784 0.016089285 0.01926558 0.03700849
0001b0 84 56 f5 bd 7c ed 96 3d 0d 59 be bc f4 cb 83 bc
       -0.11979392 0.07369515 -0.023235822 -0.016088463
0001c0 90 70 86 3d 51 58 7b bd 0c 3b fb 3c c1 4b db bc
       0.06564438 -0.061363522 0.030667804 -0.02676952
0001d0 63 bb 65 3d 7d 7d 6d 3d 96 39 a5 bd 95 20 91 bd
       0.05608691 0.057981003 -0.08067624 -0.07086293
0001e0 fc a4 91 bd 52 72 c6 3c 42 0c bf bd a6 7f 6f bd
       -0.071115464 0.024224434 -0.0932851 -0.058471344
0001f0 e1 1e 5d bd 30 2b 4e 3d ac 6c c0 3d 3b aa c8 3d
       -0.053984527 0.050334156 0.093957275 0.09798094
000200 7e 57 05 bc b1 34 0e bc 26 82 7f 3d 67 9a 86 3d
       -0.008138536 -0.008679555 0.06237998 0.06572419
000210 e5 74 9b 3d ae dc 15 bc ba 9d ff 3c d5 d4 8c bd
       0.07590655 -0.009146852 0.03120314 -0.06876532
000220 6f 63 c7 bc 4e 70 7a 3c 29 8e 7a 3c b3 8b da 3c
       -0.024339406 0.015285565 0.015292683 0.026677942
000230 8e d1 eb bd 16 a0 73 39 3e 1b ec bc 3f b1 cb bd
       -0.11514579 0.00023233923 -0.028821584 -0.099459164
000240 2a 3a b2 3d 00 79 34 bd 88 d9 11 bd 5b 2a 28 bc
       0.087025 -0.044060707 -0.035607845 -0.010264005
000250 a5 ef 93 bc 19 9d 52 bd 19 05 c4 3d 10 16 8b 3d
       -0.018058607 -0.05141935 0.09571285 0.067913175
000260 88 7e 03 3d b2 9e b8 bd aa 0f d4 bc ed 73 d8 bc
       0.03210309 -0.09014644 -0.025886375 -0.026422465
000270 30 71 ed bd e5 30 8e bc 26 d5 1f 3d bc 04 0f 3c
       -0.115938544 -0.0173573 0.039021634 0.008729156
000280 02 cc 3f 3c e3 67 ae 3c 24 a0 4f 3d 32 c8 0b bd
       0.011706354 0.021289771 0.05068983 -0.034126468
000290 7e 0f b5 3c 50 49 ab bd e0 22 9c 3d 60 83 04 3d
       0.022102114 -0.083635926 0.076238394 0.03235185
0002a0 e0 d5 30 bc c3 a3 85 3c b3 94 ef bc 37 45 01 3e
       -0.010793179 0.01631344 -0.02924571 0.1262406
0002b0 c1 70 05 3d e6 7d 84 3c 8d 8b c0 bd b8 f1 a1 3c
       0.032578234 0.016173314 -0.09401617 0.01976858
0002c0 2b b5 97 bc c4 a5 b0 bc a7 e1 55 bd 69 ec c4 bc
       -0.018519005 -0.021563418 -0.052217152 -0.02403851
0002d0 73 55 8f 3d 83 d6 81 bd 23 bc d9 bd 00 60 88 3c
       0.0699872 -0.06339743 -0.10631587 0.016647339
0002e0 ac cf d2 3d 61 93 dd 3c 07 99 0d bb f6 7e c7 bc
       0.102935165 0.027047815 -0.0021606104 -0.024352532
0002f0 53 9a 73 bd 1a fa 22 bb ce 69 43 3d 59 60 24 3d
       -0.059473347 -0.002486831 0.047708325 0.040130947
000300 a7 86 41 bd 2d 26 9d bd 12 8e 3a 3d 57 27 0a bd
       -0.047247555 -0.07673297 0.045545645 -0.033728924
000310 e4 17 2d 3c 95 d2 69 3d 56 74 44 3d cb 6f a8 3c
       0.010564778 0.057085592 0.04796251 0.02056112
000320 11 ab a1 3a 57 b1 b4 3d 7d 49 6d 3d 6d be 9d bd
       0.0012334307 0.088228874 0.057931412 -0.077023365
000330 40 76 3f bd ef 11 f9 bc 75 57 fd 3c 14 5b a1 3b
       -0.04674363 -0.03040406 0.030925492 0.0049241874
000340 0a cf 54 bd df b6 88 3d 64 ec da 3a 5e 9a 67 bd
       -0.05195526 0.06675505 0.001670253 -0.0565437
000350 7b 88 57 bc 83 0b 52 bb cd 5d 59 bc 80 bb d6 3c
       -0.013155098 -0.0032050319 -0.013266993 0.026212454
000360 00 93 87 3c 65 ca b9 bd f3 21 bc bc da f6 e2 3d
       0.016549587 -0.09071807 -0.022965407 0.110822394
000370 26 58 56 3c 90 59 56 bd e0 fe 90 3d 7d 5b 03 bc
       0.01308254 -0.052331507 0.070798635 -0.008017418
000380 6a b5 82 bd e2 57 bd bd b6 26 96 bd ba 5e 86 3d
       -0.06382258 -0.09245278 -0.07331602 0.065610364
000390 0b c8 57 bc 52 c3 9a bd 2f d8 2f bd dc bb e2 3d
       -0.013170253 -0.07556786 -0.042930778 0.110709876
0003a0 b5 e3 e0 3c 05 bc f6 3b 84 98 9d 3d 30 36 ea bc
       0.02745233 0.007529738 0.07695106 -0.028590292
0003b0 9d 4d be bd 93 1c e3 3d b4 49 0f 3d f1 ec 88 3d
       -0.09292147 0.110894345 0.0349824 0.06685818
0003c0 f5 eb a5 3c 6d 9a 7e 3c db 32 cf bc 88 16 ab bd
       0.020254115 0.015539748 -0.025292804 -0.08353907
0003d0 67 83 85 3d 53 8d 37 3d 82 9a 8d 3d 1a 71 9a 3d
       0.06519204 0.04481251 0.06914236 0.07541104
0003e0 18 ee f5 3d d8 01 74 3d 62 8c f9 bc 86 b7 88 3d
       0.120083034 0.05957207 -0.030462448 0.06675629
0003f0 f9 3b 22 3b 22 e7 e4 3c f6 15 f2 3c 72 7a 88 3d
       0.0024754985 0.027942244 0.029551487 0.066639796
