fault_model_nn_allprior_11kv/last_Y2023.pt (torch, 545973 bytes, 15 tensors)

emb.weight f4 [4782, 16]
00000000: c125 403f 6158 bf3e a858 9f3e dcfd 58bf
00000010: 2251 073e e426 b5be 7f70 1ebe 5952 00bf
00000020: 1203 97bc 91e8 1a3f 2a82 993d 25e4 ffbe
00000030: eed0 44bd 86cd 49be cc85 23be f8c6 abbc
00000040: 37ab f63e ca27 a3bd 9ae6 983d 08fb 463c
00000050: 52b9 843c f020 293e 661c 5f3c 9df1 163f
00000060: 9b7e bd3e a172 b43e 6a10 4e3d 7b39 833e
00000070: 56b7 dd3d 67c4 c2bd 2be2 893d d6e6 00bc
00000080: 8df9 e8be 568c 2fbe 771a ee3d 1b3a 023f
00000090: 1d86 893d 8a0b a9bd 6f06 d6bd 876c 613c
000000a0: ed92 dfbe 58c0 643e f3eb 223a c48c 1bbe
000000b0: cd7f 8abe 4fed 5b3f c02f 9abe 0a70 c5bd
000000c0: 47da 15bd b87f feba 8efe 0506 9eda 8638
000000d0: 9245 69b7 1d0e 183e 9198 81bc 4ffd d4bb
000000e0: b39c 8dbe 10d2 9202 8bef ed04 36ff 2c3b
000000f0: 4a6c 9389 2a75 1c3f eb5c 14be 7bea 863e
00000100: a7cb 223f a36b 5e3e cdb1 803f e73b edbc
00000110: 96f8 0ebd 0ad6 473d d37f 7ebe c9ce c83e
00000120: 9eb2 d3bd 18f1 e83c 3b94 c9bd a5e5 1c3e
00000130: fc4c fd3d fd6f a3bd db2b b8bf 1a35 aebd
00000140: cc52 0503 316e 19ae 3674 71be d188 d0b9
00000150: 2ad2 c138 2532 8138 a5b4 fb3d 2302 2384
00000160: 9a22 ec3b 2f37 2db7 9fa7 a7bd 2ced 243a
00000170: 7317 03bf cff7 93bc 7b95 6d3e f4ee 3d37
00000180: f3d1 9dbf 7de0 4bbd 9253 153e f491 ce3b
00000190: 8740 6e3d 7d6b d6ba b9af fe3d 9717 583d
000001a0: ecee 943d 7f5b e63d a825 0e3d a963 adbd
000001b0: 1578 d43d 7667 603e 610a e13d 6c76 81bd
000001c0: 2968 04bf 1365 4e3e 1645 12bf 8f16 b43d
000001d0: be2d 1e3d 6eba 663e 7214 0a3e 3a24 06bd
000001e0: bf34 8cbe ae40 0abe e2cc 6ebe b2b8 1f3f
000001f0: bcda b13e 6908 ce3e a6b9 453e d524 bc3e
00000200: dcf2 2e3f 0701 8a3d 161e 99be 5a76 f0bd
00000210: c0c2 498c 646f e33e 9c13 ef3a 5294 a239
00000220: 4e03 fc3d 70bd 9480 154f 14bf 9596 223d
00000230: fa00 a3b1 4e61 9a3d ec90 4fbb 2e10 a93a
00000240: d18b 5cbd 3c12 4a3d b516 dd3e d521 9e3e
00000250: f1b6 9d1d 45ad fa11 232d ccbb 0488 450a
00000260: b399 342f f6d7 553d fa57 9cb6 367d d73e
00000270: 608e 95bf 3475 6eb4 1348 1abe 12f1 7e3c
00000280: 8e5d 28bf b7eb a194 1c9c 2802 f37f eeae
00000290: b175 1424 c2e3 c6bb 7196 8a8e f164 cebd
000002a0: d977 d6be 586e 793e a1a4 503e 6a03 4985
000002b0: d859 c1be 1764 0a3c cc8f 2c3c 85c0 433f
000002c0: 7282 0f3e 69f6 213e f25e 48bf 40fe 4fbe
000002d0: cffe 14bf ebdf 81bf 9f31 1ebf b6d9 1abf
000002e0: 661b fcbe 41fa 91bf f488 9cbf dceb 763e
000002f0: 8ee5 0e3f d425 04be fabb ba3e 1f28 173f
00000300: 4af4 0e3f 7b42 d9bd 655d 273e ea02 7f3b
00000310: 311c 0abe 8f5a 1abd 1b82 80bd 8767 a33e
00000320: 229c ae3d 0025 5f3f f3fc ff3c 92bd 1bbe
00000330: b03f be3d 8e0d b23d 0315 d83e 75a3 68bd
00000340: c494 7bbe 16d6 76be f267 1d3e df71 273b
00000350: 518e d43d a177 c8bd 0fec 2ebe 32a0 80bf
00000360: eb7f 0a3e a1db 933e e907 09bf 17a9 a73e
00000370: 9e25 3f3e 7482 2ebe 0362 e03e a5e5 ec3e
00000380: a3a3 7dbd fa66 f33e ad21 d13d ac3e bcbd
00000390: 30e7 80bb a04c 3cbd 0edc 7cbd babb 523f
000003a0: 7167 4f3d 7a3c e2bd c883 47bf c6c3 a6be
000003b0: 680b 913d e900 a1bd ba1c 9b3d 0b17 60bc
000003c0: 01a0 c9bd 6afc 0ebd a800 543d 404f 8c3b
000003d0: 6e10 9ebb 1a2e 04bd b1a0 51bd 6cb5 b63e
000003e0: 516f 6b3e 78c4 0d3d 9578 233d 4071 61bd
000003f0: d9b6 723d 12db 1fbd 4d18 8c3d 8e67 20bd
0.7505761 0.37372115 0.31122327 -0.8476236 0.13214543 -0.35381234 -0.15472601 -0.5012565
-0.018434081 0.6051112 0.0749553 -0.49978748 -0.048050813 -0.19707307 -0.15969008 -0.0209689
0.48177502 -0.079665735 0.07465859 0.012144811 0.016201649 0.16516471 0.013617611 0.5896242
0.37010655 0.35243705 0.050308622 0.25629792 0.10825984 -0.09510117 0.06732591 -0.007867536
-0.45502892 -0.17143378 0.116261415 0.5086991 0.06715033 -0.08254154 -0.10450446 0.013758785
-0.43666783 0.22338998 0.0006214969 -0.15190417 -0.2705063 0.8590898 -0.30114555 -0.096405104
-0.03658512 -0.0019416725 2.5201537e-35 6.4303385e-05 -1.390408e-05 0.14849134 -0.01581982 -0.0064999233
-0.27658615 2.1573342e-37 5.5938418e-36 0.0026397235 -3.5490797e-33 0.6111628 -0.1448857 0.2635077
0.63592 0.21720748 1.005426 -0.028959228 -0.03490504 0.048788108 -0.24853449 0.39220265
-0.10336803 0.028435275 -0.09842726 0.15321977 0.12368199 -0.079803444 -1.4388384 -0.08506222
3.9180233e-37 -3.4886042e-11 -0.23579487 -0.00039774788 9.242103e-05 6.1605395e-05 0.122903146 -1.9161539e-36
0.0072062733 -1.0324452e-05 -0.08186268 0.0006291445 -0.51207656 -0.0180625 0.23201554 1.13209135e-05
-1.2329696 -0.049774636 0.14582661 0.00630402 0.058167007 -0.0016358938 0.1243586 0.052756872
0.07272133 0.1124792 0.03470388 -0.08466274 0.10374466 0.21914467 0.10988308 -0.06321415
-0.51721436 0.20155744 -0.57136667 0.08793365 0.038617842 0.22532055 0.13484362 -0.032749392
-0.27383992 -0.13501236 -0.23320344 0.623912 0.34737194 0.4024079 0.193091 0.3674685
0.68339324 0.06738477 -0.29905766 -0.11741324 -1.5543082e-31 0.44420922 0.0018240097 0.00031009555
0.12305318 -1.3659611e-38 -0.5793317 0.039694387 -4.7440354e-09 0.07538091 -0.0031672074 0.0012898499
-0.053844277 0.049333796 0.43181387 0.30885187 4.174671e-21 3.954983e-28 -0.0062309667 9.510787e-33
1.642551e-10 0.05220791 -4.659404e-06 0.42087716 -1.1684074 -2.2208116e-07 -0.15066557 0.015560405
-0.65767753 -1.6349819e-26 1.2387492e-37 -1.0845715e-10 3.2192073e-17 -0.0060696313 -3.4164496e-30 -0.10077847
-0.41888312 0.24358499 0.20375301 -9.451602e-36 -0.37763858 0.008446715 0.010532331 0.76465636
0.14014605 0.15816654 -0.78269875 -0.20311832 -0.5820131 -1.0146459 -0.61794466 -0.6048845
-0.49239653 -1.1404496 -1.2229295 0.2411341 0.5581902 -0.12905055 0.3647154 0.59045595
0.55841506 -0.10608383 0.16344221 0.003891165 -0.13487317 -0.03768402 -0.06274816 0.31914923
0.08525874 0.8716583 0.031248545 -0.15209034 0.09289491 0.086939916 0.4220353 -0.05679651
-0.24568468 -0.24105105 0.15371683 0.002555005 0.10378707 -0.097884424 -0.17082237 -1.0048888
0.1352536 0.288785 -0.53527695 0.32746193 0.18666694 -0.17041951 0.43824777 0.46268955
-0.061923634 0.47539502 0.10211501 -0.09191641 -0.0039338097 -0.045971513 -0.061733298 0.823177
0.05063576 -0.11046691 -0.7793546 -0.32571238 0.07082254 -0.07861502 0.075738385 -0.013677369
-0.098449714 -0.03490869 0.05175844 0.0042819083 -0.004823736 -0.03227053 -0.051178638 0.3568529
0.22991683 0.034611195 0.039909918 -0.055039644 0.05925641 -0.03902728 0.068405725 -0.039161257

lstm.weight_ih_l0 f4 [256, 3]
00000000: 12ce 08be 3e88 17bd f3e3 43bd 9503 4b3d
00000010: 2ad4 d83c 0920 ce3c 33db b4bd 8ec7 8d3b
00000020: 2cbb 5abb 58f0 38bd 9128 04bd 8f63 33bc
00000030: 81ee b8bd ef8b b2bc aa62 b3bb 4116 27bd
00000040: ba96 003c dbb6 293c 44f4 85bc 0c2f 723b
00000050: 7991 953b dd74 00be 8168 013d 5e23 09bc
00000060: dc4a b13c 7218 8c3b c7c1 673c b9a4 5c3b
00000070: 3aad b73a 4084 2f3b 9b85 c63d a8e5 823c
00000080: 7982 763d 8a8b 7f3c 984c 823c 388d 7b3a
00000090: d24d babd 5486 f33c 39b6 34ba cb35 5bbd
000000a0: afc5 7b3b 30f1 953c 0595 bcbb 02e7 833c
000000b0: bcf3 b23c dceb 9cbd f4be 2abd 1a5e 4e3c
000000c0: 70f8 b8bc 6e8d b63c d6ba d4b9 5071 cebc
000000d0: dc82 6c3c c4d3 fe3b 67b3 03be 94c9 44bd
000000e0: c8c6 3d3c 2d0e f9bd b58f 61bd c551 a6bb
000000f0: 6841 2aba 67dd 893b ef3e c8ba 82f0 0abe
00000100: 1bbf e8ba 3836 ebbb 1a0c c13e 7c44 ea3d
00000110: 6d59 7c3e 268c 72b9 6245 9e3c 9e22 503d
00000120: 9377 7c3c 85f0 ac3c dcd1 afbb 8254 89bd
00000130: 3121 cf3a 8c9a 41bc 96b4 15be d470 9aba
00000140: 49cc b0bb 404c 98bd d3b9 1a3c e5dc c53b
00000150: 5184 82bc 33d9 523b 44a9 963b 3499 f7ba
00000160: 3bee 003c 011c 14ba c997 a8bb 73fa aabc
00000170: 678a ef3c 9c56 ffbd 19d3 e1ba 45f0 493d
00000180: 3102 cd3e ae3d 0d3d 5c0c 123e 3083 3ebe
00000190: bd75 4b3d ec73 0ebd 9cb0 08bb 8ddb 193a
000001a0: c916 503b 3ceb e1bb 00dd 823b 2fde 513c
000001b0: 3c84 05be 6378 5bbd 7e51 84bc 57a8 9fbd
000001c0: c274 00bd c8e8 cabb 283f 55bc 0456 723c
000001d0: dd53 6739 1a5a fdbd e306 9ebc 5aee 11bb
000001e0: c059 24bd 4328 6f3c 33c7 0b3c 0000 89bb
000001f0: 1416 edbc d402 3a3c 3072 5bbd 8f86 ee3b
00000200: e28d a63c 88fa 31bd 38ff d3bc f060 9c37
00000210: bfa9 30bc ce95 cb3c c4ad 66bb 5eb5 d4bd
00000220: af2b e0bc d9b4 953c c689 a1bd c9fe fdbc
00000230: 32bd 323b d6c3 9cbd f93b 98bc 586d 90ba
00000240: 8d65 3fbe 18a0 173c b44d b7bb 8026 32be
00000250: 681e 7f3c f4d8 51bb dec8 80bd d61a 3b3b
00000260: d449 023c a70a f93b f724 1d3c caa5 e4b9
00000270: d4f1 923b b632 f73a f309 733b 295d abbb
00000280: 2de6 c73b a2c2 87bc ce14 cfbd cdd3 ba3b
00000290: aee8 d73b aa7a 403d e10a 453c 55e8 113d
000002a0: 4c9b 423c 23b8 1c3b a7b3 a63b 1490 60bd
000002b0: 4b13 cb3b e762 6d3c f082 01bc 424b 023b
000002c0: 6537 0a3c 0cf0 cabd 66bc 20bd 9c23 18bc
000002d0: c51c b13e e392 ce3d 2c27 373e 4a6c 163d
000002e0: 9fed ed3a 4d25 693c 4952 483d 05b0 f5bb
000002f0: 0758 423c e83f e53c adcd 333c 537f 423c
00000300: 5f0f 60be 8e1b 6abc 8f95 3b3d 7a5d 833c
00000310: 8e55 123c 4b51 05bb 1257 fabd 58af c3ba
00000320: 28d5 2d3b 4dfc 89bd 4419 b4bc b108 0e3d
00000330: 7b32 0dbe a91d 283c c43b 02bc 14ca a8bd
00000340: c1f0 3abb 5eab 81bb 730b a7bc 9046 713b
00000350: 6bd7 2bba 0217 47be 86d5 083d 5f78 ac3a
00000360: 5bef 94ba 06d7 493b 1251 f5bb 0134 32bb
00000370: 6da8 2cb8 1f3b 62bb 3abc 8bbc dce6 843b
00000380: 47a4 a2bc 1f29 9bbd 0deb 4abc ca03 d4bc
00000390: 602e d6bd 41ca f13b 79b8 7d3b 8e84 f8bd
000003a0: 1910 323b 2ed9 c2bc 65de dbbd ec84 43bc
000003b0: 1bf4 e63a 7c5f 24be c856 693c 4bf4 a9bc
000003c0: 20b0 a0bc 595b 913b 1689 473b 4e03 a5bd
000003d0: ddb0 2cbb 9f5a 143b 89f0 2cbe 0690 653c
000003e0: da3d 90bc cc28 3dbe ece6 583b 6968 bc3c
000003f0: b163 5bba f915 da3b b57e 5e3a 36e7 2ebe
-0.1335986 -0.036995165 -0.04782481 0.049563963 0.026468355 0.02516176 -0.088308714 0.0043267673
-0.0033375723 -0.045151085 -0.03226525 -0.01094903 -0.09029866 -0.021795241 -0.005474408 -0.040792707
0.007848436 0.010358538 -0.016351826 0.0036954312 0.004564461 -0.1254458 0.031593803 -0.008370249
0.021642141 0.004275375 0.014145321 0.0033667518 0.0014013418 0.0026781708 0.09693452 0.01597865
0.060183022 0.015597234 0.015905663 0.00095959334 -0.09096874 0.029727139 -0.00068936084 -0.053518098
0.003841739 0.018303484 -0.005755069 0.016101364 0.021844737 -0.07662174 -0.041686013 0.012595678
-0.022579402 0.022284236 -0.00040574995 -0.025200516 0.014435496 0.0077767093 -0.12861405 -0.048043802
0.011583038 -0.12160907 -0.05506869 -0.0050756657 -0.00064947316 0.0042073014 -0.0015277545 -0.13568309
-0.0017757149 -0.0071780942 0.37704545 0.114388436 0.24643488 -0.00023131128 0.019320194 0.050814264
0.015409368 0.021110782 -0.0053655934 -0.06705572 0.0015802738 -0.011816632 -0.1461967 -0.0011782893
-0.0053954464 -0.074364185 0.009443718 0.0060382956 -0.015932234 0.0032172918 0.0045978148 -0.0018890263
0.007869299 -0.0005649925 -0.0051450473 -0.020871377 0.0292408 -0.12467691 -0.001722905 0.049301405
0.40040734 0.03448265 0.14262527 -0.18604732 0.04967283 -0.03477852 -0.002085722 0.00058692024
0.0031751862 -0.006894497 0.0039936304 0.01280932 -0.13038725 -0.053581607 -0.01615214 -0.0779578
-0.03136135 -0.0061923005 -0.013015546 0.014791016 0.00022061118 -0.12370701 -0.019290393 -0.0022267313
-0.040124655 0.0145970015 0.0085313795 -0.004180908 -0.028941192 0.011353213 -0.053575695 0.007279224
0.020331327 -0.043451816 -0.025878534 1.864179e-05 -0.010782658 0.024851706 -0.0035198787 -0.103861555
-0.02736458 0.018274711 -0.07887606 -0.03100528 0.0027273414 -0.0765454 -0.018583285 -0.0011018915
-0.18691082 0.009254478 -0.0055939797 -0.17397499 0.015571214 -0.0032020183 -0.062883124 0.002854993
0.007952172 0.007600147 0.009591333 -0.0004361107 0.0044843946 0.0018859718 0.0037084788 -0.0052296114
0.006100437 -0.0165723 -0.1011139 0.005701518 0.006589017 0.04699198 0.0120265195 0.03562196
0.011877846 0.0023913465 0.005087334 -0.054824904 0.0061973683 0.014488912 -0.007904753 0.0019881283
0.008436059 -0.099090666 -0.03924217 -0.009285834 0.34592262 0.1008661 0.17886037 0.036724366
0.0018152482 0.014230085 0.0489066 -0.00749779 0.011861808 0.027984574 0.01097433 0.011871177
-0.21880864 -0.014288796 0.045796927 0.016035784 0.008931531 -0.0020342644 -0.122236386 -0.0014929576
0.0026524756 -0.06737576 -0.021984704 0.034676258 -0.13788788 0.010260978 -0.00794882 -0.08241668
-0.0028524848 -0.003957196 -0.020391202 0.003681574 -0.0006555232 -0.1944237 0.033406757 0.0013158432
-0.0011362837 0.003079833 -0.007486471 -0.0027191641 -4.1164854e-05 -0.0034520102 -0.017057527 0.004055841
-0.019853724 -0.075762026 -0.012385142 -0.025880713 -0.10458064 0.007378847 0.003871469 -0.12134658
0.002717024 -0.0237852 -0.10735778 -0.0119335465 0.0017620357 -0.1605205 0.014241882 -0.02074637
-0.019615233 0.0044359383 0.00304467 -0.08057271 -0.0026350536 0.0022637022 -0.16888632 0.014011389
-0.017607618 -0.18472594 0.0033096625 0.022999005 -0.0008369042 0.0066554514 0.0008487509 -0.17080387

lstm.weight_hh_l0 f4 [256, 64]
00000000: 7605 a43c b850 073b 855b 383d c6b2 ce3c
00000010: f4b8 0e3d 9ff2 02bc 2db7 c53b 105b babc
00000020: 1f45 bb3a b94e efba 79be 5abb a43d 03bb
00000030: 7a03 02bd 446f a8bc f2c3 edbb 0d44 ecbc
00000040: fac5 e3bc f297 86bc 6faa 213d 9099 ff3c
00000050: a03f eabb 0cae 65ba cf45 553c 77ff 8fbc
00000060: f5ca 0c3c f8d1 83bc 800e 8b3c 7c46 d53b
00000070: dc69 f03c f44f eabb 1cfe b13c 72f0 393b
00000080: f747 853c 5e60 123d 98a6 2839 2f2d 93bc
00000090: 73f7 f63c 89e4 82bc 4c87 dcbc 8de9 76bc
000000a0: 937a 843b cbe2 0fbd 40ff 64bc d023 c03b
000000b0: ec25 d4bb 4012 083d d8a4 1f3d 00b4 023d
000000c0: cb85 17bd 1f9e 813b ae05 123d dd20 43bc
000000d0: 93dd 8bb9 6f39 203c 8e8c e43c 281f 4b3c
000000e0: abdc a6ba d654 3f3c 92b5 39bc 7e0f eabc
000000f0: abe4 07bc 20c6 1d3b a0a9 303a dd33 933a
00000100: 320a 8aba 40b6 013c db38 6dba 0694 c9b7
00000110: 687a e139 5fc1 163a 9f19 7539 115c 093a
00000120: f515 caba dfa3 0b3b 1b87 063c 05bf b1b9
00000130: 0196 a23a 7839 68ba f485 1f3b e4c4 b7ba
00000140: e8d8 c6ba 2ef4 02bb 50d7 a2b9 1692 8939
00000150: af9c 8abb ec8b c838 02ca 31bc deb9 813b
00000160: 746b f8b7 37bf 30ba cbae 1b3a 7bca 9b39
00000170: c8d9 01bb 3e8d 57bb d5aa 79ba ba3f 5e3a
00000180: 2993 2b3c a19d bb3a 52cd f6ba 67fc d0b9
00000190: 3249 923a 26d2 9a38 30fc a23a 53ba 1038
000001a0: 574e 813a 8d29 143a a5f8 453a cc8c b2b9
000001b0: e655 363a e43d 2037 71a1 3039 4cd1 663a
000001c0: 0e65 cc39 8481 3eba 20e5 e838 1c38 de3a
000001d0: c0aa 74ba cf22 123b 203d 623a cb40 2dbc
000001e0: 2ecb 293b 2ab0 37b8 fc82 23bb f2b1 9a38
000001f0: 9ecd 563c a766 b63b 45cc f3ba ad5c 083b
00000200: 5ae1 e5bc c77a 8b3a ff29 fa3c cb57 193c
00000210: fee0 19bd ae67 efbb cf67 203c dbc7 d2bc
00000220: 943f 453a b0ab 8aba 9093 b5ba ffd1 553b
00000230: 289d 3ebc dadc 853c 2f0b 76bb 5147 b5bc
00000240: 2f6a 8cba 2547 993c 131a 193d 8a35 6f3c
00000250: 162c 9fbb 470c c03c 21c2 453c ad2d c5bc
00000260: 2cc7 323b 85fd 0ebb 28e4 3d3c fb48 47bc
00000270: e5f6 bbbc cf2e b3bb 2848 9a39 8e9e c23c
00000280: 069e 2c3c acf6 afbc 634d fbbb 21e2 a23a
00000290: 991a 373b 91a1 2dbc af0f bc3c fe14 c9bc
000002a0: f5b0 973c c644 b73c c9c6 7ebc 0a67 73b9
000002b0: bc54 82ba caf1 0ebd 9e0f dc3c cf1a fd3c
000002c0: 0102 873c 296e 063d 9576 56bc 5597 95ba
000002d0: a245 3e38 67aa b4ba adea 32bc cc06 1e3c
000002e0: 582a 4cbb 6f52 df3b 6400 84bb f847 30bd
000002f0: dbd9 e5bb ac6a 9b3b 8feb 623b 58dc 1037
00000300: 7462 3cbb 66d0 083a 44ab 88bc 0802 28bc
00000310: b902 8ebc 8d10 2dbb b187 f13a 1c56 82bc
00000320: 1196 573a e2ee 48ba 770c 0aba ad41 8a3b
00000330: f590 4db9 4301 10bc c525 70ba 46ce 7b39
00000340: 1d35 6eba c23f 27ba f76f 9ebc 8562 bf3c
00000350: 9c5e 8cba 7027 20bc 67ea b03b 92ed 67bb
00000360: 2427 03ba a61f 97bc 374d bd3b 298f 28bc
00000370: adc7 4fbb 926b 07bb caa7 0f3b 8dea ffbb
00000380: 7cd2 953b 6b1b 713c d832 2ebb 0f04 a0bb
00000390: 3a96 fb3b df30 f73a 1bde 6ebb 5167 8dbb
000003a0: b41a 323c 263c bbbb 8ef6 00bc 9308 c83b
000003b0: dbe2 a63b decc b93b daff 0abc 000f c4bb
000003c0: 725c 863c 08b4 b03c 89e2 01bb 46b6 28bb
000003d0: d389 04ba e285 9eb9 eb6c ed3b f8c8 ae3b
000003e0: e632 a0ba 9df6 43bc 09e0 9bbb 87cd 3e3b
000003f0: 78b7 85bb 9889 853b efec 943a b38b 34bb
0.020022135 0.0020647477 0.045009155 0.02523173 0.034844354 -0.007992416 0.006033799 -0.0227485
0.0014287567 -0.0018257714 -0.003337769 -0.0020025754 -0.031741597 -0.020560868 -0.0072560245 -0.028841043
-0.027804364 -0.016429875 0.03946918 0.031201154 -0.007148698 -0.0008761592 0.013017132 -0.01757787
0.008593311 -0.016091332 0.016974688 0.0065086465 0.029347353 -0.0071506444 0.021727614 0.0028372076
0.016269667 0.035736434 0.0001608379 -0.017965881 0.03014729 -0.015978115 -0.026919983 -0.015070331
0.0040429323 -0.035128396 -0.013976872 0.005863644 -0.006474247 0.03322053 0.038975567 0.031909943
-0.03699283 0.003955617 0.035649948 -0.011909691 -0.00026677232 0.009779318 0.027899053 0.012397565
-0.0012730559 0.011677941 -0.011334794 -0.02857184 -0.008294265 0.002407439 0.0006739143 0.0011230666
-0.0010531603 0.007916987 -0.00090493046 -2.4029996e-05 0.00043006544 0.00057508604 0.00023374565 0.0005239854
-0.0015417921 0.0021307392 0.008210923 -0.0003390239 0.0012404324 -0.0008858661 0.0024341317 -0.001402047
-0.0015170844 -0.0019981968 -0.00031059468 0.0002623952 -0.004230104 9.562806e-05 -0.010851385 0.0039589247
-2.961394e-05 -0.00067423604 0.0005938827 0.00029714764 -0.0019813646 -0.0032890583 -0.0009524052 0.0008478124
0.010472097 0.0014313945 -0.0018829501 -0.00039860906 0.001116073 7.3824354e-05 0.0012434777 3.4505803e-05
0.0009865266 0.00056519435 0.00075520045 -0.00034055708 0.0006955549 9.551153e-06 0.0001684481 0.00088049914
0.00038985204 -0.0007267224 0.000111053 0.0016953978 -0.0009333305 0.002229858 0.0008630324 -0.01057453
0.0025908458 -4.3794666e-05 -0.00249499 7.376437e-05 0.013110546 0.0055664363 -0.0018600306 0.0020807192
-0.028061558 0.0010641449 0.030537603 0.00935931 -0.037568085 -0.0073060608 0.009790375 -0.025730064
0.00075244275 -0.0010579731 -0.0013853181 0.0032626388 -0.011634149 0.016340662 -0.0037543287 -0.022128733
-0.0010712798 0.018710682 0.037378382 0.014600167 -0.0048575504 0.023443354 0.01207021 -0.024069631
0.002727936 -0.002181859 0.011590041 -0.012163396 -0.022944877 -0.0054682265 0.0002942693 0.023757245
0.010535723 -0.021479927 -0.0076691373 0.0012427011 0.0027939437 -0.010597602 0.022956697 -0.024546143
0.018516997 0.02237166 -0.015550324 -0.00023212671 -0.0009943466 -0.034898557 0.026862916 0.030896572
0.016480448 0.0328199 -0.013089796 -0.0011412898 4.536438e-05 -0.0013783694 -0.010920209 0.009645175
-0.0031153169 0.006815247 -0.004028367 -0.043037385 -0.007014496 0.004742941 0.0034625267 8.634372e-06
-0.0028745206 0.0005219042 -0.016683228 -0.010254391 -0.017335283 -0.002640757 0.001842728 -0.0159102
0.0008223961 -0.0007664991 -0.00052661396 0.004219255 -0.00019604324 -0.008789363 -0.00091609015 0.00024014068
-0.0009086894 -0.0006380045 -0.019340498 0.023362407 -0.0010709348 -0.009775028 0.0053990367 -0.0035389406
-0.0005003086 -0.018447708 0.005777027 -0.010288038 -0.003170471 -0.0020663482 0.0021920078 -0.007809943
0.004572211 0.01471601 -0.0026580598 -0.0048832963 0.0076778205 0.0018859169 -0.0036448303 -0.004315295
0.010870624 -0.0057139574 -0.007871283 0.0061045378 0.0050929612 0.005670174 -0.008483851 -0.0059832335
0.016401503 0.02157022 -0.0019818863 -0.002574341 -0.0005055938 -0.0003023586 0.00724565 0.005334016
-0.00122222 -0.011960653 -0.0047569317 0.0029114203 -0.004080709 0.0040752403 0.0011362116 -0.0027549088

lstm.bias_ih_l0 f4 [256]
00000000: a0fd b8bd ba51 92bc d433 cc3d b89d 643d
00000010: 9c92 36bc cd38 e7bc 034a ad3c 38aa ab3d
00000020: 0119 ac3b 7061 5d3b 0688 ff3c a654 4b3d
00000030: a9ae 8a3d 3020 443d 16b0 763d 8e2a 923c
00000040: f2e1 95bd 799e c7bc 486d bb3b 98b4 87bd
00000050: c27b 7dbc 42cb 9f3c 85ca 423e dd72 af3d
00000060: 75f5 463d 0a9b e03c 51c8 2fbd 9a4a a13d
00000070: d005 833d 9a26 313c 3deb 243d d2d4 05bd
00000080: d65d 893d 2623 c83c 399c 0c3d 0cac 94bd
00000090: d979 8abd 081a 1bbd a3c9 333c d45d b13d
000000a0: 7ea7 a63c dcba 923c b6ea c63d 62d5 273c
000000b0: ce8a c4bc 870d f7bc 2dad 25bc 2951 e03b
000000c0: 3f17 e03d 718e 04bd bb3f 553d 8d8f d3bb
000000d0: 7770 05b9 f967 383d ced3 813d cd64 8f3c
000000e0: fff0 a7bc fca7 7c3d 887b 28bd 1d22 b8bc
000000f0: 6197 363e 7f11 8c3b d8d6 813d 7e3a 073d
00000100: 6cb7 be3d 6c99 8dbc 6e44 b73d d281 083d
00000110: ddab df3d ebaa 04bd 5493 ffbc b40e 2c3d
00000120: 0640 e2ba ea84 99bb d283 6dbc b0fb 1c3c
00000130: 5ba4 363d c485 1338 bee6 243c 3ec0 f4bc
00000140: a400 2d3d 33cc 05bc 8a1c d73d f2d2 9cbd
00000150: 7d91 1c3c 7123 2fbd 94ab 82bc 8745 613c
00000160: 180d 113d db6c 58bd 4f86 923d ef00 bc3d
00000170: 123f 993c ce3b ddbc 827c d43c b8a8 dd3d
00000180: e2be 0d3d 3fb2 003c 4e43 15bd 2414 1cbc
00000190: 0ef1 873d ea49 78bd a61c a2bc f3cb 4ebd
000001a0: 73b2 36bc 6e73 1e3d 12e0 3c3d f9e6 0e3d
000001b0: 1914 18bc b454 fe3c cf3c db3b 9359 db3a
000001c0: fcd3 913b 1fc5 1d3c b2fc d13d 0893 53bc
000001d0: df19 86bb ef2c 6ebd 5753 84bd 9799 0ebd
000001e0: 4e9c b0bc 2062 d03d c934 523d 5892 5d3d
000001f0: 2fa5 cd3c 16b8 84bb 40b3 153d 66ad 783c
00000200: 3b13 95bd 3d37 e5bd 239e ed3d dab8 30ba
00000210: eb25 4dbc 0ced c43d 1e06 ebbd bd13 7ebd
00000220: e3f0 9a3d 9fe3 bdbd ed79 6bbc e53b 143d
00000230: 3b35 debd 6ede 403d e5c5 1dbd bf28 753d
00000240: b7b4 0b3e 78b8 9d3d dc32 dd3d e041 9d3d
00000250: be17 fa3d 75de 113d 9a2d 10bd 9345 e93c
00000260: 453e 7fbd 7326 c7bd 655a 10be a8b5 00bd
00000270: 2915 df3d 2a0a 793d ba27 d3bd e842 e53d
00000280: 53b8 8c3d 8303 553c 1702 3c3c 7027 4d3c
00000290: 5323 623b 54e7 713c aed6 ccbd 76e4 fbbd
000002a0: fde3 05be 5a8d a53d f7bf c1bd ad9d a4bb
000002b0: e313 1dbc a185 a23d 0b47 0b3e 2d48 003e
000002c0: 0541 17be b765 16be 3223 eb3d 152f b4bd
000002d0: acff bc3d dc11 50bd 4158 c8bd 43ee 4d3c
000002e0: 6eaf 89bd 8966 16be 9893 a1bd ab0c 03be
000002f0: dafc a73d de98 27bd 15e4 c2bd edb6 4bbd
00000300: 60bd 8ebc d8e2 653c 53bd 34ba 95dd 70bd
00000310: 2c1a a9bd 8a0e 15bd dd3a 7cbd 33c2 19bd
00000320: 05dd e43b 8240 193b c158 cf3c 6325 ddbb
00000330: b59a 2bbd 17b4 0cbd f7b4 1abd aefe c53d
00000340: 0c50 86bd f323 48bd 4645 51bd 4208 7d3c
00000350: 7777 f13b c33a 4e3d b473 743e 6dd1 bf3d
00000360: 4e1d 533c 3a61 803d dcdb 30bd 3cc2 2f3d
00000370: f9a3 933d 2f28 65bc 781d 0a3d c394 ffbc
00000380: e269 513d 7e95 33bd b7e2 953c eb48 6bbb
00000390: 5d6a 293d 8cc5 123b cafb 4bbd ee6c ca3d
000003a0: 0410 c43d 0b01 343d 2c9a c13d 8209 4e3d
000003b0: ba41 023d dda9 b13d a94d 2abd 3516 023d
000003c0: 9bdb 4a3d 1eac c4bb dd47 a93d 7566 523c
000003d0: 6ca8 ab3a 6e70 1ebd ba21 b03d 26e4 963c
000003e0: d76a afbc 3aef ca3d 3516 3fbd 1c74 acbc
000003f0: e121 4b3e c99f 593d e29c 6a3b cc60 a53c
-0.0903275 -0.017861236 0.09970823 0.055814475 -0.011143353 -0.028225327 0.021153456 0.08382076
0.005252004 0.003378 0.03119279 0.049641274 0.06771595 0.04788226 0.060226522 0.017842557
-0.07318486 -0.024367558 0.0057198144 -0.066262424 -0.015471401 0.0195061 0.19022568 0.0856683
0.04857393 0.027417678 -0.042915646 0.07875557 0.06397593 0.010812426 0.040263403 -0.032673664
0.06707351 0.024430823 0.034328673 -0.07259378 -0.06761522 -0.037866622 0.010973367 0.086604744
0.020343538 0.017911367 0.09712736 0.0102437455 -0.023991968 -0.030157818 -0.010112089 0.0068456125
0.10941934 -0.032362405 0.05206273 -0.0064563216 -0.00012725765 0.04502103 0.06339227 0.01750412
-0.020500658 0.06168364 -0.041133434 -0.022477204 0.17831184 0.0042745466 0.06339806 0.033014767
0.09312329 -0.017285071 0.08948599 0.03332693 0.10921452 -0.032389563 -0.031198181 0.04200621
-0.0017261512 -0.004685034 -0.01449676 0.009581491 0.044590335 3.517211e-05 0.010064779 -0.029876824
0.04223694 -0.008166361 0.1050349 -0.07657422 0.0095561715 -0.04275841 -0.015950955 0.013749487
0.035412878 -0.052838188 0.071545236 0.091798656 0.018706832 -0.027006056 0.025938276 0.10823196
0.03460587 0.007854997 -0.03644114 -0.009526286 0.066377744 -0.060617365 -0.019789051 -0.05048747
-0.011150944 0.0386843 0.046112128 0.03488824 -0.009282135 0.031046249 0.0066905986 0.0016735069
0.0044503193 0.009629517 0.10253276 -0.012913473 -0.0040924395 -0.05814832 -0.06461208 -0.034814443
-0.021558907 0.10174966 0.05131987 0.054094642 0.02510318 -0.004050265 0.0365479 0.01517806
-0.072790585 -0.111921765 0.11602428 -0.0006741412 -0.012521247 0.096155256 -0.11475776 -0.062030543
0.07565477 -0.09271931 -0.014372331 0.036189932 -0.10849997 0.047087125 -0.038518805 0.05985331
0.13643156 0.077012 0.10800716 0.0767858 0.1221156 0.035612542 -0.03519974 0.028475558
-0.062315244 -0.097241305 -0.14096983 -0.03142324 0.10892708 0.06080071 -0.103103116 0.11194402
0.068710946 0.013001326 0.011475108 0.01252161 0.0034505918 0.014764626 -0.100018844 -0.12299435
-0.13075252 0.08083601 -0.094604425 -0.005023679 -0.009587261 0.07935644 0.1360132 0.12527533
-0.14770897 -0.14687239 0.11481322 -0.08798043 0.09228453 -0.050798282 -0.09782458 0.012569013
-0.06722914 -0.14687552 -0.078894794 -0.12797801 0.082025245 -0.04091727 -0.095161594 -0.049735
-0.017424285 0.014031135 -0.00068946666 -0.058805067 -0.08256945 -0.03639082 -0.061579574 -0.03753872
0.0069843554 0.0023384397 0.025310876 -0.0067488416 -0.041895587 -0.034351435 -0.037770238 0.09667717
-0.065582365 -0.04886241 -0.051091455 0.015443863 0.0073689776 0.05034901 0.23872262 0.09366117
0.012885405 0.062685445 -0.043178424 0.042909846 0.0720901 -0.013986631 0.03371951 -0.031198865
0.05112637 -0.04384374 0.018296583 -0.0035901617 0.0413612 0.002239558 -0.04980067 0.09884058
0.09573367 0.043946307 0.09453234 0.050302036 0.031800963 0.08674977 -0.04157797 0.03175946
0.04952584 -0.0060019633 0.0826566 0.0128418105 0.0013096458 -0.03868144 0.08600183 0.018419337
-0.02141325 0.0990891 -0.046652038 -0.021051459 0.19837143 0.0531309 0.0035799076 0.020187758

lstm.bias_hh_l0 f4 [256]
00000000: 8f84 363c 0580 8dbc b33f 9e3d 78e0 883c
00000010: 665b a73c 4c84 42bd e764 6ebd 4768 8f3d
00000020: 7e19 3c3c d444 433b 8a5b 723d 8174 4f3d
00000030: 8d90 97bd 8352 253d e1fa 42bd 2d1e a43d
00000040: 4f86 353b 64fe 823d 7c21 3bbd 1fd2 913d
00000050: 5a38 d1bc c1db 8bbd f0b7 423e ae77 f83c
00000060: f199 12bd 1d5a 06bd 9873 683d ec3d e43c
00000070: 078a 30bd 7423 643c b349 d6bc 7e6e ba3d
00000080: d175 9e3d f7e4 1e3d af6c 47bd e8c3 a4bc
00000090: ccc7 133d 5cf6 8d3d 452f 793d 7cd2 f3bc
000000a0: c023 393d 03fe 393d cea1 833c 01ff 853c
000000b0: 0359 18bd b402 eb3d 6858 bfbc 3249 f53d
000000c0: f69e eb3d fe04 f13b ba7e 813d 69e1 51bc
000000d0: 35c0 a33a b430 3d3c 095a a9ba 0d36 903c
000000e0: 9b92 0abc bcfd 29ba 740b 9f3c a4f9 323d
000000f0: 257b 1c3e 3791 7b3d 52c1 743b c877 0cbb
00000100: a3f9 403d ea4b 833b 6c4a a5bd 1ffe 91b9
00000110: c8d1 dd3d 24af 933b c444 0dbd 4279 bb3c
00000120: 21d9 2dbc f74e 9bbb a3a1 95bc 3c6c 45bd
00000130: 3a54 97bd b582 503d d254 7fbc 4fce 5b3c
00000140: 9f8c 08bd 7011 d23a 4a4c a5bd 937d c63d
00000150: efd4 6c3c 12b2 3f3d 86df 87bb 6d00 303c
00000160: f656 5bbd 5296 1f3c 9aa3 4cbd f8d3 5ebd
00000170: 9113 f43a f557 0b3c 5e00 24bd 6485 973d
00000180: 7541 8f3d c3d1 54bd cd67 de3c 6af1 6cbc
00000190: 608f 80bc fafa 8b3d 00f2 17bd 03c9 f83c
000001a0: 47b1 853a c7e3 873d b47a c93c 618d 543d
000001b0: 3273 20bc dc78 79bd 0906 ff3c c7e2 c03c
000001c0: 6cdb 4bbc 766d f53d e63f 82bd b7b4 82bc
000001d0: f64e 87bb 9aff 2a3d 4587 39bd 8aa8 0dbd
000001e0: af9d 923a fb74 c43d 38e3 eb3c 90f4 10bd
000001f0: 7eb2 d63c f871 8e3c de0b cc3a c9e4 953c
00000200: cc5d 7a3c 9879 9dbd 9725 d13d 6c8f ab3d
00000210: 8ba0 083e 4a20 a0bc 4cfb 933d 198d 8ebd
00000220: 51cc b5bd a3af cc3d a6ef 203c 649e 95bd
00000230: b807 c1bd 779d 09be ce68 943d 6bf5 aebd
00000240: 8885 05bd fcbb c3bd c705 133e ca92 093e
00000250: b8b0 15bd 168d 513d cf21 b1bd 75cf 053d
00000260: f2db 3f3d 2883 d43c 51cc c5bd 6b66 e9bd
00000270: 32b3 223d e6f4 643d 353a dd3c 6ea5 7bb8
00000280: b0ab f3bd 89c9 f03d 9af2 393d 5084 a0bd
00000290: 292b bc3d 5bed 043d 18e8 ddbd ab3d 0dbe
000002a0: adee 37bd dfe3 88bd de98 f4bd f240 00be
000002b0: d488 6dbd 19ce d83d 0776 3bbc 81cb ccbc
000002c0: dbec b2bd a5fa 4cbd 4bac ddbc 46e2 cf3d
000002d0: 076d 41bd 7f8b 2d3d 3490 babd 9342 25bd
000002e0: 32e7 01bc ae47 843d 1723 e73d 6457 2cbd
000002f0: c0ff 243c 9f9c da3b d4a7 073c ed27 5e3d
00000300: 310d 363d 73c3 c3bb 5e49 c0bb 0c7a e03c
00000310: d665 293d 75f1 d5bc 574d 043d 26ed 993d
00000320: 97bf 133c 9a3e 433b 00a3 bf3c 393c 85bd
00000330: 9e83 e33d 6861 da3b be9f 86bd 9f4e 00bd
00000340: 8028 28bc 2cd5 a13d 53d0 323d 785d 393c
00000350: 2b65 bfbc 8c4c b43d 8a13 603e d897 81bc
00000360: 08e5 62bd b027 8c3d 3f02 d6bc b826 9b3d
00000370: 75fa 673b efd2 853c 59f7 d53b 4a08 dd3d
00000380: 1585 203d d51d e93d e9ad 58bc a7c6 dc3a
00000390: ec0b 923d 3657 e83c 8762 a43d d68a a2bd
000003a0: 318e 3cbd dde2 953b 5235 473c ea7e 113d
000003b0: c984 613c de6f 36bd 2a24 a0bd 2c4e 3b3d
000003c0: 16de 8ebc 35b9 873d 3ebd 83bd 33ff e8ba
000003d0: 7488 36bb 6ed4 e63c 5ce8 71bc cbb9 993c
000003e0: 03d3 4f3c e93b a6bd 0093 d73c ac57 793c
000003f0: b0cc 243e 562b 183d 288d 7a3d d142 113d
0.011140003 -0.017272959 0.077269934 0.016708598 0.020429324 -0.04748945 -0.058201697 0.07002311
0.011480687 0.0029795663 0.05916933 0.050648216 -0.07400618 0.040361892 -0.047602538 0.08013568
0.0027698462 0.063961774 -0.04568623 0.071201555 -0.025539566 -0.06829024 0.19015479 0.030330505
-0.03579134 -0.032800782 0.056750864 0.027861558 -0.043100383 0.013924468 -0.02615819 0.09103106
0.077373154 0.038792577 -0.048687633 -0.020112947 0.036079213 0.06931755 0.060836095 -0.029763453
0.04520011 0.04540826 0.016068365 0.016356947 -0.037194263 0.11475125 -0.023357585 0.119768515
0.11504929 0.0073553314 0.06322999 -0.01281009 0.0012493195 0.011547256 -0.0012920509 0.017603898
-0.008457805 -0.0006484648 0.019414641 0.043695107 0.15281351 0.061417785 0.0037346673 -0.00214337
0.047113072 0.0040068524 -0.080708355 -0.0002784589 0.10831028 0.0045069624 -0.034489408 0.022884969
-0.01061085 -0.004739638 -0.018265551 -0.048198923 -0.07389112 0.050905902 -0.015584188 0.013415887
-0.03333723 0.0016026925 -0.080711916 0.0969192 0.014455064 0.04680068 -0.004146519 0.010742289
-0.05354973 0.009740429 -0.04996071 -0.054401368 0.0018621554 0.008504857 -0.040039413 0.07398489
0.06994907 -0.051957857 0.027149105 -0.0144618545 -0.015693367 0.06834979 -0.037096024 0.030369287
0.0010199927 0.06635242 0.024594642 0.051892642 -0.00979309 -0.060906276 0.031130807 0.023545636
-0.012442451 0.11983769 -0.06359844 -0.015955312 -0.004129286 0.041747667 -0.04529502 -0.03458456
0.0011185909 0.09592625 0.02879487 -0.035389483 0.026208159 0.017388329 0.0015567502 0.01829757
0.015281152 -0.07689208 0.10212248 0.08376965 0.13342492 -0.019546647 0.072256655 -0.06960506
-0.08876861 0.099944375 0.009822762 -0.07305601 -0.094253 -0.13438974 0.072465524 -0.085429035
-0.03259805 -0.095573395 0.14357673 0.13434902 -0.036545485 0.05115994 -0.086490266 0.03266855
0.046840616 0.025941446 -0.09658111 -0.11396488 0.039721675 0.055897616 0.027005294 -5.999713e-05
-0.11897981 0.1175719 0.04539738 -0.078377366 0.0918792 0.032452922 -0.10835284 -0.13793056
-0.044905353 -0.06684088 -0.119432196 -0.12524775 -0.057991818 0.10586185 -0.011441714 -0.024999382
-0.08736583 -0.05004372 -0.027059695 0.1015058 -0.047223117 0.042369362 -0.09109536 -0.040346693
-0.007928656 0.06458984 0.1128599 -0.04207553 0.010070741 0.0066715027 0.008279759 0.054237295
0.044446174 -0.005974227 -0.005868121 0.027401946 0.041356884 -0.026116112 0.03230032 0.075159356
0.009017847 0.0029791952 0.023393154 -0.06505627 0.11109088 0.0066644438 -0.06573437 -0.03132498
-0.010263562 0.079019874 0.043655705 0.011313789 -0.02336367 0.08803663 0.21882454 -0.015819475
-0.055394202 0.06843507 -0.026124118 0.075757444 0.0035397087 0.016335933 0.0065297303 0.10792597
0.039189417 0.11382643 -0.013225057 0.0016843871 0.0713118 0.028361898 0.08026605 -0.07936637
-0.04603404 0.0045741634 0.012158709 0.035521425 0.013764569 -0.04454028 -0.07819398 0.045728847
-0.017439883 0.06627122 -0.064325795 -0.0017776251 -0.0027852328 0.028177466 -0.014764871 0.01876535
0.012684586 -0.08116896 0.026315212 0.0152186565 0.16093707 0.037150703 0.061169773 0.03546411

lstm.weight_ih_l1 f4 [256, 64]
00000000: 0757 0abd bf89 26bc 6dec f1ba 5999 d63a
00000010: ba40 dd3b 3055 ce3b 8f2b 09bc f4be b6ba
00000020: cf98 ab3a a5a0 fdba 8af3 3bbb 4dfe 93bb
00000030: 2a6e a1bc 3b6a d63a b8a1 9c3b a783 63bc
00000040: 2a86 543c 2e42 88ba 9a2e b03c f782 a03b
00000050: e53a 043c 4a14 503c 37ca 083c c390 363c
00000060: bf6e 3bbb 7038 edbb 1a6e d7bc e4a5 bdbb
00000070: 4c20 933b 0282 da3b e48c 24bc 2a29 0eba
00000080: cc1f 81bc 1847 cdbb 1341 813b 20ff d33a
00000090: 9f4e ee3b edf6 a33c 8b50 283b cb71 bb3b
000000a0: 011e 743b 480b 82bc 2d4f 1cbc 0834 babb
000000b0: a8e7 e7bb 88e8 a4ba c37d 8d3c 29f8 653c
000000c0: 1d5a 58bc 7dc7 9bbc 1be1 1d3c bf3c dfba
000000d0: 662b e73a 56a4 97bb b3e5 abbc f8d2 423c
000000e0: 7806 17bb b78d 7bbc c7fd fb3b 8755 36bd
000000f0: 6da1 2abc 9d83 acbb 0eed a9bb 6e50 3eba
00000100: a11a f4bc 0212 28bc dd80 863c c078 8b3b
00000110: 0cf6 033d 93ef 033c 4fe5 bdbb e163 4cbc
00000120: ff9c 7f3a ae82 eaba b699 ddb9 0729 f2bb
00000130: ebdf 30bc 9cfb 6cbc da46 313c 0ffd abbc
00000140: c10a f43b 925a 81bc eaec ac3a 2b55 7d3c
00000150: 63b1 e53b 617c 6d3c 3727 a83b afb5 283c
00000160: 7240 81bb 1b54 3abc 0b56 6cbc ce00 2dbc
00000170: fc11 903b 82aa c83b 463f 1abc 6ce0 173c
00000180: 74d8 18bc f345 7a3c 72ee 993b 1301 963b
00000190: 72ef dd3c 8b42 953c 2096 edbb 0b5b ccbb
000001a0: 7ffd 14bc 9b07 aabc d9d8 5bbc 8f6c 84bc
000001b0: 02df c9bb 8e93 0b3d 584f 093c 0b2b 103d
000001c0: e30d 85bc 8633 10bd 6a30 ae3c 8acf eaba
000001d0: 2855 c23a 5cd3 98bb 1472 bcbc d671 583c
000001e0: dc02 90ba 10b6 e3bb 2c7e 113c 2b2a dbbb
000001f0: d4bc cfbb 08c3 54bb 0099 d4bb e2eb fb3a
00000200: d26c 7d3b 8c75 2abc 5802 fe3c 5513 da3c
00000210: 001b 1e3d 5d38 153c 3fa8 dabb 8bab 4cbc
00000220: 7836 e838 68cd 8cba ac6a 3d3a c3d4 2ebc
00000230: ab2d 08bd 02cb 3a3b 864a 0b3b 607f c4bb
00000240: 875f 373c cd15 b13b 3d2a 92bb ced5 a73c
00000250: 5590 023c 6435 c73c cc44 653b 3644 803c
00000260: fe2f 5dbb 431f bbbb a25b 0bbc 58db 07bc
00000270: e1d4 313b 1d3c de3b 9367 5fbc 6977 a93c
00000280: cffb 2abc 0a22 023d 857f b93b fd9c 803b
00000290: 464a 153d d732 ce3c 7e19 383b a29d 263c
000002a0: 90d3 48bc 3084 2fbc 74c8 c7bb 2c04 adbc
000002b0: 3d30 1ebc 06d7 aa3c f453 733c 3cea 843c
000002c0: 7b5c 96bc 2770 103c f0b8 85bb 7ef1 92ba
000002d0: 8b5c fd3a 56ce fbba ef6f 35bc 8cea 393c
000002e0: 5708 8dba 972a 26bc 522b ec3b bb8e babc
000002f0: 77e2 a8bb d238 5fbb e82c e5bb 22ba dd38
00000300: 026c afbc 4142 733b a666 bbbb 3d2c 9dba
00000310: 8319 6a3a 7aa5 123b 05f4 4aba b912 3cbc
00000320: c525 1eba 8eb4 8cb9 41b9 a73b 401f 7bbb
00000330: 36b8 e2bb 5f78 abbb e7bd 053c affd 20bc
00000340: 9e73 5f3b a3f9 a1bb 246b ec3b 7665 8dba
00000350: 5cab af39 2895 b33a 657b 17bc caee 3f3c
00000360: e231 0bbb c7f4 26bc 2b3d 86bb 8afa cbba
00000370: 8a03 833a 39c5 50bb cc01 09bb 0cb2 d93a
00000380: 315b ae3c 0ce1 b13a c503 c53a c6ae 84b9
00000390: c1a2 1d3c 58b1 243b debf 5dbb 083b cbbb
000003a0: 0308 ccbb 7281 12bc d954 9ebb 4eea a4bb
000003b0: e4a7 cbb8 368c 0b3b 7e1f 113c 1176 893c
000003c0: c543 a1bc 0e45 0e3c 16f4 6c3b 913e c13a
000003d0: f1e9 043a f871 8538 8a6a b1bb 4233 2e3b
000003e0: 8c0b 5a3a 3c33 01bc a1ea 803b 63e9 233c
000003f0: f90a 293c 545f 043b 0eb9 8dbb b0f2 fc3a
-0.033774402 -0.010164677 -0.0018457301 0.0016372605 0.006752101 0.0062967762 -0.008372202 -0.0013942407
0.0013091805 -0.0019350244 -0.0028679096 -0.004516399 -0.01970585 0.0016358563 0.0047800206 -0.013886369
0.01297144 -0.00103957 0.021506596 0.0048984247 0.008070682 0.01270015 0.008348993 0.011142912
-0.0028599945 -0.007239394 -0.026297618 -0.005787598 0.004489934 0.00666833 -0.010043357 -0.0005423004
-0.015762232 -0.0062645786 0.003944525 0.0016174056 0.007272556 0.020015204 0.0025682773 0.0057203523
0.003724933 -0.01587452 -0.009540361 -0.005682472 -0.007077176 -0.0012581507 0.017271882 0.014036217
-0.013205078 -0.019016022 0.009636189 -0.0017031654 0.0017636835 -0.0046277447 -0.020983553 0.011891119
-0.0023044627 -0.015353612 0.0076901647 -0.04451516 -0.0104144635 -0.005264713 -0.00518573 -0.000725991
-0.029797854 -0.0102582 0.016418869 0.004256338 0.03221707 0.008052724 -0.005795158 -0.012474985
0.0009750872 -0.0017891729 -0.00042266928 -0.0073901447 -0.010795574 -0.014464285 0.010820115 -0.020994691
0.007447571 -0.015790258 0.0013193164 0.0154622 0.0070096715 0.014494986 0.005131628 0.010297223
-0.00394445 -0.011372591 -0.014424811 -0.010559274 0.004396675 0.0061238417 -0.0094145 0.009269815
-0.00932895 0.015275466 0.0046976143 0.004577765 0.027091715 0.018220207 -0.0072505623 -0.006236439
-0.009093641 -0.02075558 -0.0134184 -0.016165046 -0.006160618 0.034076266 0.008380733 0.0351973
-0.016241973 -0.035205387 0.02126332 -0.0017914635 0.0014826404 -0.004663868 -0.023003615 0.013210734
-0.001098718 -0.006949194 0.008880179 -0.0066883764 -0.0063396487 -0.003246488 -0.0064879656 0.0019220079
0.0038669598 -0.010404002 0.031006977 0.026620546 0.038599968 0.009107676 -0.0066728885 -0.012492071
0.00011072768 -0.0010742368 0.0007225673 -0.0106708435 -0.033246677 0.002850235 0.0021254136 -0.0059966296
0.011192209 0.00540421 -0.0044606016 0.020487692 0.007968982 0.02431745 0.0034983633 0.015657526
-0.003375053 -0.005710514 -0.008505734 -0.008292042 0.0027134942 0.0067820684 -0.013635534 0.020686822
-0.010436012 0.031770743 0.0056609535 0.0039249645 0.036447786 0.025170727 0.0028091366 0.0101694185
-0.012257472 -0.010712668 -0.006096894 -0.021120153 -0.009655056 0.020854484 0.014851559 0.016224973
-0.018354645 0.008815802 -0.004080884 -0.0011210886 0.0019329948 -0.0019211273 -0.01107405 0.011347424
-0.0010759932 -0.01014199 0.0072073126 -0.022773137 -0.00515395 -0.0034060967 -0.0069938786 0.00010572771
-0.021413807 0.0037118348 -0.0057190238 -0.0011991333 0.0008930193 0.0022376464 -0.000774205 -0.011479073
-0.000603285 -0.00026837405 0.0051185195 -0.0038318187 -0.0069189323 -0.005232855 0.008162952 -0.009826108
0.0034096013 -0.004943089 0.0072149206 -0.0010787684 0.00033506274 0.0013701068 -0.009245728 0.011714647
-0.002123945 -0.010190195 -0.0040966473 -0.0015562337 0.0009995562 -0.0031855835 -0.0020905612 0.0016608848
0.021283718 0.0013571098 0.0015031031 -0.00025307218 0.009621323 0.002513012 -0.0033836286 -0.0062021054
-0.006226541 -0.008941995 -0.004831892 -0.005032814 -9.7110664e-05 0.002129329 0.008857606 0.016779931
-0.019685635 0.008683456 0.0036156229 0.0014743378 0.00050702604 6.3631625e-05 -0.005414312 0.0026580845
0.00083177607 -0.00788575 0.00393422 0.010004374 0.0103175575 0.0020198422 -0.0043250388 0.0019298401

lstm.weight_hh_l1 f4 [256, 64]
00000000: 64e8 3b3c eeb9 d9bc 6884 86bd 95bb cdbc
00000010: d699 7e3d 0452 983b c6d3 903c 685f 8dbd
00000020: 5c82 83bb e95d a9bc a732 31bb 03f4 163c
00000030: 8230 923b c692 453d 2eda 18ba 10f1 f9bc
00000040: 24af db3b 827b 72bb c719 74bd c349 843d
00000050: 2be6 783d 0f79 72bd 6086 63bb 1209 a23c
00000060: a9ef cb3b 3526 c4bb 08ad a8bc 8f69 a43b
00000070: 1589 eabb 59c4 6cbd d2cc 1f3b c92b 423d
00000080: a475 413d c7c6 0bba a239 9bbd 6c5d 4ebd
00000090: c490 76bb 7303 933c 7987 4ebd eea7 1bba
000000a0: 0f6b 6e39 b499 223d 2c92 f03b 9d98 a93d
000000b0: 02bd 00bd 61c1 7d3d 3fc1 8ebb 75e6 59bd
000000c0: 98ad 503d 8394 ec3c fe1a 21bd 7f44 80bc
000000d0: 4514 633b 7a9c d13c 242d 0fbb aecf 2fbd
000000e0: aa52 673a 4ee7 273d 80b7 47bd b9d4 cdbc
000000f0: 685e 96bc bb87 853b 6cb7 d23c 37be 423c
00000100: d1d4 233c 859b 59bc 674c 19bc ca0e f8bc
00000110: 7d25 4e3d 26da aebb 78fd 923b 5583 fdbc
00000120: cc8d 7cbb e90e c33c f293 5e3d 90bf d1bc
00000130: 45c2 cfbc ccf5 143d 2915 453c d68f 00bd
00000140: eacd f43b 8d6e afbc d3e1 d93b 211d c43c
00000150: ae20 ca3c 8b04 52bd 9b78 87bc c0a0 3f3d
00000160: e46b 473b 3de5 7ebd 2740 3ebc 4986 fa3c
00000170: e29c ecbb 15d4 8fbd eecd 853b 9be6 443d
00000180: ab34 f73c 28e7 c6b8 2a76 0abd 7499 38ba
00000190: a63e 643d 0ab7 6b3d b5c5 03bc 8965 4f3b
000001a0: b9c4 9c3c e6a7 de3c 628b 913c 2c34 143d
000001b0: 05ac 98bd a1c0 4f3d d9f9 a2bc f651 debc
000001c0: 431f 383d e99a 1a3c ff01 4abc d31a 5dbc
000001d0: a80c 4cbb 67c6 e83c 47f6 99bc ff16 41bd
000001e0: 2cab 26bc 24b3 d93c df4a 53bd 32ac 3abc
000001f0: 1485 c0bc 0695 b33b 9e96 473d ea8b 3a3c
00000200: 5cde a2bc be13 9ebc bd0c 3f3c d627 f83a
00000210: 97b9 373d ffeb 9dbc 2780 583c 1aaa 53bd
00000220: 6a97 6dbb b2b1 b53c 6e8f b53c 269e 62bb
00000230: 8ae2 93bd 98cc 8b3c c52c ae3b 1928 86bd
00000240: 26b4 c83c 5ed1 22bd 62fc eebc d504 2b3c
00000250: b887 0c3c 4561 32bd 4d0f 7e3d f2c5 533d
00000260: 7af1 483b ce93 82bd d91a f0bc 9bed 0b3c
00000270: b3ba edbc c76f d4bc 01db a93b 7954 a93c
00000280: 34bc a93c 0c3c f1b8 f7a4 333c b499 07bd
00000290: ba41 e23c fc6e babc 86af 873c c355 cc3c
000002a0: 4106 153c bdc7 cb3c 4de9 e83b cd3e ac3d
000002b0: e161 4a3b 110d d13c 46e9 34bd a643 fcbb
000002c0: ae59 1a3c 4c49 483c 58ac edbc 57e3 62bc
000002d0: 95b3 413c 184f b6bb 6551 f8bc 2654 07bc
000002e0: 4800 993d def5 de3c 565a 8bbc 1414 39ba
000002f0: 0939 eebc 4cbd 093b e991 103d 2082 373c
00000300: 7b74 23bc c5ca 32bc b1d1 983c 60b2 133b
00000310: d399 b9ba 3c3c b73c 0409 6a3a 348f 393c
00000320: 568b 233b 14fd e43c 72ee 323c 7596 acbc
00000330: 9095 2fbc 76df 58bc 5ad2 58ba 4e3f b93b
00000340: f055 0bbc 49a5 e23c 54bd a43b c3a3 b5bc
00000350: 9e3d 0dbc 33d0 143b a33c 02bc fdd2 be3b
00000360: a6f6 163c 4f9e edbc bf92 9bbb b626 7b3c
00000370: 1ea2 0e3b 5f90 5abc 27f8 8739 62ec e3bb
00000380: 2bb1 cdbc 99d8 c5ba 3e91 b8bc 9dd0 dd3c
00000390: 872f 0cbc 41bb d1bc 2452 a1bb 1fa8 9c3c
000003a0: 64a1 c4ba d933 08ba b550 803b 44f7 65bc
000003b0: 2785 03bd 0739 083d d7df 403c 0075 db3c
000003c0: 9a86 d33a dae6 91bb f80b 173b 8ca4 0e38
000003d0: e3ec cd3c 3259 503b 9f19 3e3c 3742 e93c
000003e0: 5aa6 313d ea11 613c b601 92bb 2b78 b93c
000003f0: 6835 ad3b 7257 07bb 8729 213b bc4c 18bb
0.01146898 -0.026577916 -0.06568223 -0.02511386 0.062158428 0.004648449 0.017679106 -0.06902963
-0.004013343 -0.020674663 -0.0027038248 0.00921345 0.004461349 0.048235677 -0.0005830851 -0.030510455
0.006704228 -0.0036999886 -0.059594896 0.064593814 0.06076638 -0.05919748 -0.0034717545 0.019779716
0.006223638 -0.005986 -0.02059032 0.0050174664 -0.0071574547 -0.05780444 0.0024383557 0.047405038
0.04723133 -0.00053320493 -0.07579352 -0.050382063 -0.0037622908 0.01794598 -0.050422166 -0.0005937804
0.00022737331 0.039697364 0.007341644 0.08281062 -0.031430252 0.061952 -0.004356533 -0.053198297
0.050946802 0.02887941 -0.039332382 -0.015657661 0.0034649533 0.02558731 -0.0021846974 -0.04292267
0.00088242686 0.040992074 -0.048758984 -0.025125848 -0.018355563 0.004075018 0.025722228 0.011886171
0.00999947 -0.013281708 -0.009356595 -0.03028049 0.05032872 -0.005336064 0.0044857822 -0.030946413
-0.0038536666 0.02381082 0.05434031 -0.02560404 -0.02536119 0.036367223 0.012028971 -0.031387173
0.007470836 -0.02141502 0.006649235 0.023939671 0.024673786 -0.051273864 -0.016537001 0.046784163
0.0030429298 -0.062230337 -0.011611975 0.03058161 -0.0072208503 -0.07022873 0.0040833866 0.048071485
0.030176481 -9.484432e-05 -0.033804096 -0.0007041909 0.05572381 0.057547607 -0.0080427425 0.0031646213
0.019136773 0.02717967 0.017766658 0.036182567 -0.07454685 0.050720815 -0.019894527 -0.027138691
0.04495169 0.0094363475 -0.0123295775 -0.013495165 -0.0031135473 0.028414918 -0.018794192 -0.04714107
-0.0101726465 0.026574679 -0.051585075 -0.011393594 -0.023500957 0.0054804115 0.048727624 0.011385897
-0.01988142 -0.019296523 0.011660752 0.001893277 0.044854727 -0.01927757 0.013214148 -0.051675893
-0.003625358 0.022179458 0.02216312 -0.0034579127 -0.07220943 0.017065331 0.0053153955 -0.06550617
0.024499964 -0.03975045 -0.02917308 0.010438164 0.00857728 -0.043549795 0.06202631 0.051702447
0.003066151 -0.06375848 -0.029309677 0.008540536 -0.02901969 -0.025932206 0.005183578 0.020670163
0.020719625 -0.0001150296 0.010964624 -0.033105567 0.027619231 -0.022758 0.016563188 0.024943238
0.009095729 0.024875516 0.0071078897 0.08410416 0.0030881094 0.025518926 -0.04416778 -0.007698494
0.009420795 0.012224507 -0.029012844 -0.013848147 0.011822601 -0.005563628 -0.03031225 -0.008259809
0.07470757 0.027216848 -0.017010849 -0.0007060182 -0.02907993 0.002101737 0.0352954 0.011200458
-0.009976502 -0.010912602 0.018654676 0.002253674 -0.0014160223 0.02236759 0.0008927735 0.011325646
0.0024954877 0.027952708 0.010921108 -0.021067837 -0.010716811 -0.013236871 -0.0008271091 0.0056532985
-0.008504376 0.027666705 0.0050274525 -0.022172814 -0.008620648 0.0022707104 -0.007949027 0.0058234916
0.009214079 -0.029006151 -0.004747718 0.015329054 0.002176411 -0.013340085 0.00025934094 -0.0069556693
-0.025108894 -0.0015094458 -0.022530194 0.027077014 -0.008556253 -0.025601985 -0.004923122 0.019123135
-0.0015001711 -0.0005195714 0.003915871 -0.0140360035 -0.032109406 0.03325751 0.011772118 0.026789188
0.0016138137 -0.0044525685 0.0023047905 3.4008684e-05 0.02513737 0.0031791446 0.011602788 0.028473957
0.043371536 0.013737181 -0.0044557704 0.022640308 0.0052859075 -0.0020651487 0.0024591403 -0.0023239097
