fault_model_nn_allprior_11kv/last_Y2019.pt (torch, 545973 bytes, 15 tensors)

emb.weight f4 [4782, 16]
000000 3b 3e e1 3f 8e 50 a8 3f 62 7f 45 3f 98 60 f7 bf
       1.7597116 1.3149583 0.77147496 -1.9326353
000010 4a fc 05 3f f8 eb 8d bf 68 22 69 bd bc ae b6 bf
       0.5233809 -1.1087637 -0.056917578 -1.4272075
000020 1c e1 15 bf c3 9f bc 3f 93 99 8d be ac 5b 9c bf
       -0.58546615 1.4736255 -0.2765623 -1.2215476
000030 b4 ef 14 bf e1 70 d7 be 5f 44 18 bf 78 06 21 3f
       -0.5817826 -0.42078307 -0.59479326 0.62900496
000040 7c 18 bc 3f 7b 6b a5 bd d7 b6 d8 be b2 c8 92 3e
       1.4694972 -0.08077141 -0.42326996 0.28668743
000050 cb 7f 16 bf 86 60 6d 3f 9c 5a 22 3f 17 7e c2 3f
       -0.58788747 0.9272541 0.6341951 1.519473
000060 fc 31 8d 3f 32 de 8f 3f ca 2c de 3e 4f 8b 95 3f
       1.1030879 1.1239684 0.43393546 1.1683139
000070 28 46 c8 bd ff d7 97 3c 57 12 07 be d1 02 31 3f
       -0.09779006 0.018535612 -0.1319059 0.6914492
000080 b8 58 9a bf 2e 12 32 bf 0a 2c 9c bd a4 cc c4 3f
       -1.2058325 -0.6955899 -0.07625587 1.5374951
000090 b4 6f 23 3e 69 60 84 be 09 2e 17 3e af 9c 19 bf
       0.1596058 -0.25854805 0.14763655 -0.60004705
0000a0 f6 66 b0 bf 7f a3 51 3f f9 3c 34 bf f0 e9 db be
       -1.3781421 0.818901 -0.70405537 -0.42951918
0000b0 4f 42 8c bf 26 97 f8 3f 1f 3a 87 bf 87 89 a3 be
       -1.0957736 1.9421127 -1.0564612 -0.31940863
0000c0 6f de 3c bf ef 82 f8 be d6 78 3a 39 c0 52 b6 3e
       -0.73776907 -0.48537394 0.00017783357 0.35610008
0000d0 64 93 a3 be f2 b6 81 3f 32 94 23 bf 67 dd 0f bf
       -0.31948388 1.0133955 -0.63898003 -0.5619721
0000e0 13 b7 9c bf 90 20 15 35 63 e2 f3 37 9c a6 00 3f
       -1.224337 5.555421e-07 2.9073277e-05 0.50254226
0000f0 3b 13 21 bb 3a 0c d5 3f 4e d8 80 bf 03 34 9a 3f
       -0.0024578113 1.6644356 -1.0066011 1.2047123
000100 94 ef a3 3f 22 fb 33 3f eb ef 03 40 f7 f6 c8 3e
       1.2807488 0.70305073 2.0615184 0.3925092
000110 d6 ff 5d 3e 8d 0f ef bd 84 06 62 bf 38 97 8e 3f
       0.21679625 -0.11672888 -0.8829119 1.1139898
000120 ae 47 a6 bd 10 d0 e2 3e 17 86 46 bc 77 ac 91 3e
       -0.081191406 0.44299364 -0.01211693 0.28451893
000130 42 ce d5 3e 7f 09 ff be f7 55 03 c0 23 92 27 bf
       0.41758925 -0.49811932 -2.0521219 -0.6545736
000140 ca f3 73 b4 3c 21 36 be db bc 94 bf 8a 05 d4 be
       -2.2719829e-07 -0.17786115 -1.1620134 -0.41410476
000150 1d 7c bb 3e d7 bb b5 3e 35 a8 76 3f a6 21 1f 37
       0.36618128 0.35494873 0.96350414 9.484973e-06
000160 a5 df 11 3f de 68 a0 be de 51 5f bf 59 4b dd 3e
       0.5698188 -0.31330007 -0.87234294 0.43221548
000170 e8 6d c5 bf cb 0f 27 bf d1 f9 93 3f 15 60 a1 3e
       -1.5424166 -0.65258473 1.1560613 0.31518617
000180 ee 15 15 c0 ee b7 b0 3e 50 1f 2a 3f 28 b4 ea bc
       -2.3294635 0.34515327 0.6645403 -0.028650358
000190 fa 29 f4 3e 27 07 ea 3e 4d ca 66 3f 5f 74 9d be
       0.47688276 0.45708582 0.90152436 -0.30752847
0001a0 2d d6 d3 bd 26 f0 1b 3f db 75 7e 3e 11 9d e7 3d
       -0.10343585 0.6091331 0.24849646 0.11309255
0001b0 17 c4 12 3e ac 27 8c 3f 59 28 93 3d f0 0e 55 be
       0.14332615 1.0949607 0.0718543 -0.2080648
0001c0 23 1a a4 bf ea c3 ec bd e5 75 00 bf 44 2f ad 3e
       -1.2820476 -0.11560805 -0.5017989 0.33825123
0001d0 58 ef 0c 3f c6 cd eb 3d 2a 18 9c be 33 1f c3 3e
       0.5505271 0.115138575 -0.30487186 0.3810974
0001e0 5c 03 14 bd 74 aa 4e 3e 91 89 2e 3d db 23 25 3f
       -0.036136016 0.2018221 0.042611662 0.64507836
0001f0 ed d3 6c 3f 66 56 59 3e 60 1c 0e 3f c9 ed a9 3e
       0.92510873 0.21224365 0.55512047 0.33189228
000200 14 1b e0 3f 07 c3 55 3f 9e f1 a0 bf 3a c5 73 bf
       1.7508264 0.83500713 -1.2573736 -0.9522282
000210 44 87 83 bc 3b 56 ba 3f df cd f6 3e 11 57 cf 3e
       -0.01605571 1.4557565 0.48203942 0.40496114
000220 28 bc 76 3f 4f 37 34 b5 f6 17 d0 bf 97 d0 3f 3f
       0.96380854 -6.713571e-07 -1.6257312 0.7492766
000230 09 12 59 be e8 27 5b 3f aa 6d 03 bf 9c cc ed 3e
       -0.21198286 0.8560777 -0.5133921 0.46445167
000240 58 ce 4b bf 42 32 48 3f 85 44 b8 3f 65 c1 a2 3f
       -0.7961173 0.7820169 1.439591 1.2715269
000250 dc 33 ec 3d b1 dc 86 bd 5f 0f 0f bf cc 4b 80 3b
       0.11533329 -0.06585062 -0.5588283 0.0039152857
000260 91 a0 3f 3e 1f 84 4a 3f cc 91 98 be e6 6d b6 3f
       0.18713595 0.7910785 -0.29798734 1.4252288
000270 28 22 13 c0 66 f9 80 be 1c 3c 82 bf fb 27 23 3f
       -2.2989597 -0.25190276 -1.0174594 0.6373288
000280 1d 32 dc bf 5d e6 a4 3d 3d 29 aa b5 d9 f6 3c be
       -1.7202793 0.08051751 -1.2677989e-06 -0.1845354
000290 0b cd 05 3e ba 90 0e bf d4 91 21 3d bf a0 6a bf
       0.13066499 -0.55689585 0.039445713 -0.9165153
0002a0 bf 17 b6 bf 90 4b 96 3f 0a 21 8e 3f 8e 89 1f 37
       -1.4225997 1.174181 1.1103833 9.5091655e-06
0002b0 b8 08 af bf f7 17 15 3f a7 d8 19 3f 93 4a ec 3f
       -1.3674536 0.5823969 0.6009621 1.8460258
0002c0 35 b1 28 bd d9 e3 d0 3c e3 9a 40 bf 0c 13 9b bd
       -0.041184623 0.025499271 -0.7523634 -0.07571992
0002d0 f6 ce 57 bf f4 3e bb bf 34 f6 7b bf aa e2 0f bf
       -0.8430017 -1.4628587 -0.9842255 -0.56205237
0002e0 8f ec ca be c3 3a aa bf 05 ad e0 bf 00 3e d4 3c
       -0.39633605 -1.3299183 -1.7552801 0.02590847
0002f0 09 33 62 3f f2 2a 01 bf 66 8f 11 3f 51 0d 28 3f
       0.88359123 -0.50456154 0.56859434 0.6564532
000300 a7 bb cc 3f 98 fa 40 bf 04 a4 50 3f 60 21 7a be
       1.5994767 -0.75382376 0.8150027 -0.24426794
000310 56 0f 80 bf e0 4f 81 3e 55 54 ab 3e ad 79 98 3f
       -1.000468 0.25256252 0.33462778 1.1912133
000320 8b 67 ba 3e 40 21 f7 3f 5f d5 c0 be e6 86 43 bf
       0.36407122 1.9307022 -0.3766279 -0.76377714
000330 ef 6f ba 3d ab ed 63 3f 0a f1 93 3f 64 85 ac 3e
       0.09103381 0.8903453 1.1557934 0.3369552
000340 54 bc 23 bf f6 24 58 bf 2a 01 a7 be c1 76 d7 be
       -0.6395924 -0.844314 -0.32618076 -0.4208279
000350 cc 56 d6 3c 1f 53 8c 3e c2 5f b9 bc 90 cc 08 c0
       0.026164435 0.27407166 -0.022628669 -2.1374855
000360 06 f2 6e be 4b 35 67 3f 91 e8 cc bf 26 15 aa 3f
       -0.23334512 0.90315694 -1.6008474 1.3287704
000370 21 9f 1a 3e c1 ab a9 be 92 a4 5b 3f c6 42 c1 3f
       0.15099765 -0.3313885 0.8579799 1.5098503
000380 78 b3 bc b1 d2 57 be 3f c2 63 d4 3c 00 10 62 bf
       -5.4919234e-09 1.4870551 0.025926474 -0.88305664
000390 01 ab cd be b2 13 08 3a 22 cc 70 3e 8e 85 e7 3f
       -0.40169528 0.0005190923 0.2351537 1.8087633
0003a0 5d 54 57 b6 9b e8 3a bf fb 1f ef bf 5d 5a 67 bf
       -3.2086602e-06 -0.7301118 -1.8681635 -0.9037226
0003b0 b2 f2 98 b5 11 fc 43 39 21 90 57 3d ee 48 7a 3e
       -1.1395516e-06 0.00018690551 0.052627686 0.24441883
0003c0 a3 c0 40 bf e6 46 f8 3d 85 d2 bc be 3d 0a 97 3e
       -0.7529394 0.12122898 -0.36879364 0.295
0003d0 8f 3c 32 bf c7 24 fe 35 0d e8 43 be f8 71 a4 3f
       -0.69623655 1.8935178e-06 -0.19131489 1.284728
0003e0 d7 df 89 3f 1c 8f 0a bf f7 ae 2d 3f 42 f5 af 3e
       1.0771435 -0.5412462 0.678451 0.34366804
0003f0 8b 3f bd 3e ba 18 ca 3e 3e 63 ac 3e 73 a7 9a 3d
       0.36962542 0.3947199 0.33669466 0.0755147

lstm.weight_ih_l0 f4 [256, 3]
000000 5c 1f 11 3c e2 1d 98 bd e3 32 d2 bd 04 8e 88 bd
       0.008857574 -0.07427575 -0.10263612 -0.06667712
000010 f1 a3 c6 3d bf 47 a6 bd 76 a4 bd bc 87 bd e8 bc
       0.09699238 -0.08119153 -0.02314971 -0.028410686
000020 b8 29 30 bd 4e 24 cd 3d e1 3c bf bd 91 36 47 bd
       -0.043008536 0.1001669 -0.093377836 -0.048636023
000030 15 00 6d bd a1 ed 16 be b0 47 1f bd 9a 2c 99 3c
       -0.057861406 -0.14739086 -0.038886726 0.018698025
000040 75 51 ea bc 8c 91 4a 3c bd 70 2d bd d8 5b c7 bc
       -0.028603295 0.012363803 -0.042343844 -0.024335787
000050 e1 41 aa 3d 63 05 a4 bd b5 47 5f 3d f1 70 dd bd
       0.08313347 -0.0800884 0.054511745 -0.108125575
000060 6e 45 ff bb 25 77 5c bd 4b e1 6a bd eb 25 d5 bb
       -0.007790259 -0.053824563 -0.057343762 -0.0065047643
000070 29 58 94 3d 92 53 11 3d 75 fb 3e bc 71 6b 4b 3d
       0.07243378 0.03548009 -0.011656632 0.04966301
000080 af 51 f5 3d 1b e6 c2 3d cf 6c 8e bd 8c a7 91 bd
       0.119784705 0.095165454 -0.06954347 -0.07112035
000090 2c 9d 1c bd 1e de 84 3d eb f8 6f ba 9f 36 e9 3d
       -0.03823583 0.06487678 -0.0009154218 0.11387371
0000a0 41 cc c1 bd 72 f7 0a 3e 9a 96 b1 3d b8 03 62 3c
       -0.094627865 0.13570955 0.08671303 0.013794832
0000b0 aa 03 c6 3d 40 df fe 3c 58 20 1e be 04 c5 2a 3d
       0.096686676 0.031112313 -0.15442026 0.041691795
0000c0 ec c6 91 bd a4 9e 90 3d d7 ff 8c 3d 36 86 4c 3d
       -0.071180195 0.07061508 0.06884735 0.04993268
0000d0 39 78 43 3d b7 c1 ef 3b 86 e9 6c bd 92 0f 0d be
       0.047722075 0.007316794 -0.057839893 -0.13775471
0000e0 4b 67 0c 3e 87 81 82 3d 1f 2b f4 bd 42 5c 7a bd
       0.13711278 0.06372362 -0.11922287 -0.06112314
0000f0 4d 2e 84 bc 9e d0 5f bd 3b 44 5b bd 4c f6 43 3d
       -0.01613536 -0.054642312 -0.053531867 0.04784231
000100 f8 b2 7f bd 27 60 03 bd e3 2d 2b bd da b2 90 bd
       -0.062426537 -0.03207412 -0.041791808 -0.07065363
000110 4a 5b ed 3c 17 39 46 bd f0 a0 7a 3d d0 6c ed 3d
       0.028974194 -0.04839429 0.06118864 0.1159302
000120 e0 b0 86 3d 27 37 a7 3d 77 7a 08 be b6 c8 8e 3d
       0.06576705 0.08164816 -0.13327967 0.06971876
000130 33 52 56 bc cc 72 99 3c 04 fb fd 3d 91 e6 d7 bc
       -0.013081121 0.018731497 0.12401393 -0.02635506
000140 bc e2 77 bd 42 3a 8b bd 15 ea 23 3b 48 79 74 3d
       -0.060518965 -0.06798221 0.002501135 0.059685975
000150 1d 52 42 3d 70 3d 96 bd a9 dd 21 bd b9 b5 9e 3d
       0.04744159 -0.07335937 -0.039518032 0.077495046
000160 dd 65 09 bd 0f 4c 79 bc c8 b7 80 bd c5 c4 b6 bd
       -0.03354441 -0.015215888 -0.062850535 -0.089242496
000170 09 02 c4 3d fd 65 ae bc 96 69 15 bc d2 19 e9 3d
       0.09570701 -0.021288866 -0.009119412 0.11381878
000180 81 7e c8 3c 70 d9 78 bd 56 24 4e bc 99 68 f6 3c
       0.024474384 -0.06075424 -0.012581905 0.030079173
000190 8f 2e 91 3d 2a a4 8e bd db 45 f6 3c 63 c5 ee 3c
       0.070889585 -0.069649056 0.030062607 0.029146856
0001a0 1a e3 3f bd fd e7 f8 bc 72 2c 47 bb ff 8f 8c 3d
       -0.04684744 -0.030384058 -0.0030391482 0.068634026
0001b0 29 b2 20 3d 89 a3 ef bd 6d 93 43 bd 7a 44 21 bd
       0.039232407 -0.11701114 -0.047748018 -0.039371945
0001c0 b5 3c 9d bd 8d 6b dc bd 4f 7b 8e 3b b0 d9 b2 3c
       -0.076775946 -0.10762701 0.0043481956 0.021832317
0001d0 5d b5 65 bd ad f5 5b bd a2 95 ab bd ef be a7 3d
       -0.056081165 -0.05370109 -0.083781496 0.081907146
0001e0 82 54 b1 3c b1 4d bf 3c c1 df ed bc 55 21 ca 3d
       0.021646742 0.023352476 -0.029037358 0.09869639
0001f0 e2 91 09 be 4f 73 6d bd ba 8d f0 3d eb 89 b1 bc
       -0.13434556 -0.057971295 0.11745782 -0.02167221
000200 2d 79 58 3d e9 d8 1a 3c 1d ae 09 be 28 1f 4a 3d
       0.052849937 0.0094511295 -0.13445325 0.04934612
000210 2e 06 b8 3c e7 6b a8 3d 18 f2 39 3a 75 b5 c1 3d
       0.022463884 0.08223706 0.0007093265 0.09458438
000220 74 e0 cf bd 39 ca 7d 3d 8a f4 94 bb 89 19 c4 bd
       -0.10150233 0.061960433 -0.004545753 -0.09575183
000230 ae d9 72 3d d3 4f 3f bd da 02 32 bd 6a 45 77 bb
       0.059289627 -0.046706986 -0.04345975 -0.0037730583
000240 e9 eb 0a bd 50 20 73 3a e3 24 ce 39 70 ac 67 3c
       -0.033916388 0.00092745293 0.00039318865 0.014140233
000250 4b 81 be 3c 34 23 01 3e 3b 18 e4 3d 7e d5 85 bc
       0.023255011 0.12611085 0.11137434 -0.016337153
000260 b9 74 28 3d a1 1c 36 3b 57 48 75 3c ec dc 00 be
       0.04112694 0.002778806 0.01497086 -0.12584275
000270 b3 8d 1b ba 60 86 93 3d 4a de 06 bd c8 37 74 3d
       -0.00059338956 0.07203364 -0.032926835 0.05962351
000280 10 c6 95 3d 5a 3d f1 bd c9 c8 6d 3c ac 55 f7 bb
       0.07313168 -0.1177928 0.014513203 -0.0075480547
000290 f2 0d 0f bb 33 57 56 bb cc 2e d4 bc 89 da 88 bd
       -0.002182838 -0.0032705783 -0.02590122 -0.06682307
0002a0 4d 51 89 3d 78 90 75 bd f2 6e a6 bd 63 20 94 3d
       0.0670496 -0.05995223 -0.0812663 0.0723274
0002b0 f8 85 a1 bb 03 1a a7 3d f1 26 89 3d 97 9d 73 3d
       -0.0049293004 0.08159258 0.066968806 0.05947646
0002c0 44 cf 78 3d 22 24 73 bd 6a 22 15 be 5c 3c ef bb
       0.06074454 -0.05936063 -0.14563909 -0.0073008966
0002d0 f6 ac 0a bd 16 68 18 3e b3 44 06 3d bc 7c 08 bd
       -0.033856355 0.14883456 0.03278036 -0.03332208
0002e0 c4 13 f6 3d 7c 6f 71 bd 3a dd 82 bc 00 d6 0c be
       0.12015489 -0.05894421 -0.01597463 -0.1375351
0002f0 50 1a 0e bd 61 62 0c 3d ce a7 26 3d 7b 05 41 bc
       -0.034693062 0.03427351 0.040687375 -0.011781092
000300 aa a9 88 bd d1 bf fe bc 43 41 02 3e d0 7f 09 bd
       -0.06672986 -0.031097325 0.12720208 -0.033569157
000310 54 2e be 3d 3d 4c 84 3d 3a 8e 71 3d e0 c2 69 bd
       0.0928618 0.06459854 0.05897353 -0.057070613
000320 23 98 07 3d 2c 6d 5f bd 6d b6 e6 bd 59 a9 07 3e
       0.033104073 -0.054547474 -0.11265264 0.13248195
000330 c4 19 96 3b 22 bf 4f 3d c3 f0 22 3c 8f 9e ae 3d
       0.004580708 0.050719388 0.009945097 0.085263364
000340 46 34 e6 bb 6d 32 f6 3c 99 64 59 3d c2 92 c6 bd
       -0.0070252744 0.030053342 0.053074453 -0.096959606
000350 6b b9 a3 3d b4 8d 6f 3d 01 d9 92 3d e7 7b 76 3d
       0.0799435 0.058484748 0.071702965 0.060176756
000360 6a 54 21 3b bb 3d a7 bc 5c 50 5c 3d 71 47 90 3a
       0.0024616965 -0.020415178 0.053787574 0.0011007619
000370 c1 95 27 3d 63 b0 58 bd 2d ba d5 bb 6e 49 2f 3d
       0.0409143 -0.05290259 -0.006522438 0.042794637
000380 bd 04 27 3c 26 fd 7c bd 20 fc 70 bd 05 48 b7 bc
       0.010194001 -0.06176486 -0.058834195 -0.022373209
000390 83 db 8a 3d d4 60 8c 3c 1c 32 c7 3d 3c 8b b6 3c
       0.0678015 0.017136015 0.097263545 0.022283189
0003a0 6c 58 a1 3d e4 1d 9b 3a 1b 00 14 bd 45 72 f3 bc
       0.07878193 0.001183447 -0.036132913 -0.029717574
0003b0 70 35 10 3e d5 41 1c 3d 61 e9 78 3d dc 43 79 bd
       0.14082885 0.03814872 0.060769442 -0.06085573
0003c0 2b 3a 57 3d f3 fb 87 3d 29 ab ed 3d 87 45 74 bd
       0.052545708 0.066398524 0.11604912 -0.05963662
0003d0 1e 16 3b bc a9 ac b4 3d e1 e1 98 bd f6 f7 3a 3d
       -0.011418847 0.08821995 -0.07464958 0.04564663
0003e0 a0 5b 63 bd 5f 1c 44 bd 98 f1 2a 3c 5d ed aa 3d
       -0.055507302 -0.04787862 0.010433577 0.08346055
0003f0 b7 e8 30 3d bd 32 0c bb e7 7e b3 bd 0c 00 59 3d
       0.043190684 -0.0021392547 -0.08764439 0.05297856

lstm.weight_hh_l0 f4 [256, 64]
000000 5b 06 bc 3c 21 5e f5 bd f1 17 0a 3e 9b b7 e4 3d
       0.02295225 -0.11980844 0.13485695 0.111678325
000010 58 e7 c6 3d 36 1a be 3b 6f 2c d6 bc 50 a2 9f bd
       0.09712094 0.0058014644 -0.026144234 -0.077946305
000020 b2 8f fc bd b6 b7 83 3d b4 d5 3c bc d6 c9 2b bd
       -0.12332095 0.064315245 -0.01152556 -0.041940533
000030 42 fa de bd a4 66 ab bd 7c 27 16 3c 4a 27 de bd
       -0.10887577 -0.083691865 0.009164687 -0.108473375
000040 86 6f 8e bd 75 f3 91 bd 69 e1 d9 3d 6d 2d b5 3d
       -0.06954865 -0.07126514 0.10638697 0.08846555
000050 d8 f1 1e bd 3b 2a d7 3c ee 5b 28 bd 03 14 26 bd
       -0.03880486 0.026265254 -0.041103296 -0.04054643
000060 b1 44 6c 3c a1 69 80 bd 6c 6b 82 3c be 40 49 bc
       0.014420674 -0.06270147 0.015920363 -0.012283502
000070 8c e0 e2 3d 64 94 74 bc d0 80 89 3d fa 0d f1 3c
       0.11077985 -0.014927957 0.06714022 0.02942561
000080 9d 7e 20 3d b3 56 cd 3d d9 5b 08 3d a2 d5 67 bd
       0.039183248 0.10026302 0.033290718 -0.05660022
000090 e4 ac b9 3d 29 86 97 bc e8 a4 c9 bd 4b e3 56 bd
       0.090661794 -0.01849659 -0.098459065 -0.052462857
0000a0 09 aa 12 bc 09 ad e8 bd 0a e5 66 bd 27 0d 35 bc
       -0.008951672 -0.11361129 -0.056370772 -0.011050499
0000b0 f4 ef c4 bd 7e c4 c0 3d ff e9 e6 3d 03 6f ba 3d
       -0.0961608 0.09412478 0.112751 0.09103205
0000c0 89 5f bd bd cd ed 5f bc 82 20 db 3d c2 58 8d bd
       -0.092467375 -0.013667536 0.1069956 -0.06901695
0000d0 29 18 ac 3d cc d3 ff 3b 13 d2 38 3d d0 bc da bc
       0.08403046 0.0078072306 0.045122217 -0.026701361
0000e0 dd 6d 99 3d 37 54 e7 3b d3 ed 0f bd 2f 5e 98 bd
       0.07491658 0.0070595997 -0.035138916 -0.07439839
0000f0 50 5c 76 bd f9 ee a8 bd 06 b3 a1 bd 07 49 05 3d
       -0.06014663 -0.082487054 -0.07895474 0.032540347
000100 f1 c0 14 bc e8 bc 0a 3d 70 61 94 3c d9 9a 6d 3d
       -0.009079204 0.03387156 0.018112868 0.058009002
000110 0a 57 bd bc af bc 89 3d fa 97 2e bc ca 60 b9 3b
       -0.023112793 0.06725442 -0.010656351 0.00565729
000120 65 d1 6d 3c 3b 54 f8 bc 43 3a c5 3c 9c 00 98 bd
       0.014515256 -0.030313602 0.024075633 -0.07421991
000130 0d 45 ad bc 0a d1 1e 3d 0c 25 89 3d f7 53 b2 bd
       -0.02115109 0.038773574 0.06696519 -0.08707421
000140 8a da f0 3c 28 5a 87 bd 39 4f f3 bc f6 40 e0 3b
       0.029401083 -0.06608993 -0.029700862 0.0068436814
000150 21 c9 7e 3d 52 17 87 bc 17 a4 90 ba f3 05 de 3b
       0.06220353 -0.016490612 -0.0011035231 0.0067756115
000160 14 59 e5 3b 16 fc e4 bb 1a 2c 37 bd f0 ff 45 3d
       0.0069991443 -0.006988059 -0.044719793 0.048339784
000170 d6 a8 02 bc 3e 4d db bb 71 2b 77 bd d5 4c 89 3d
       -0.007974824 -0.0066925576 -0.060344163 0.06704108
000180 c9 cc 18 bd 62 cd 95 3d f7 da 9c bd bf 4e 08 3d
       -0.037304673 0.07314564 -0.07658952 0.033278223
000190 22 b4 2d bc 29 bc db bb ff 8a cf bd 50 aa af bd
       -0.010602029 -0.00670578 -0.10133933 -0.085774064
0001a0 ea 80 9c bc 98 b1 c2 bd 4a 60 53 bb c6 a4 a9 bd
       -0.01910444 -0.095065296 -0.0032253438 -0.08283381
0001b0 c8 9f 80 3c 30 e7 bd bc ae bd 6b bd 77 21 87 bc
       0.01570119 -0.023181528 -0.05755394 -0.01649545
0001c0 b0 b2 af bd 39 45 d3 bd 71 ef c9 3d 45 33 ba 3b
       -0.08579004 -0.103159375 0.09860123 0.0056823813
0001d0 64 66 84 3c 3d 11 92 3d d2 88 af bd a7 36 58 3d
       0.016162105 0.07132194 -0.08571018 0.052786496
0001e0 22 7e 4b 3d a3 1c 52 3d a6 92 62 3d 7d dc b0 3d
       0.049680836 0.05129684 0.055315636 0.08635805
0001f0 4c 23 be bc 3a 36 b5 bd 02 35 a4 bc bd 2a 30 bd
       -0.02321019 -0.088482335 -0.020044807 -0.04300951
000200 eb 0a f4 bd 79 ae 13 3d 32 b1 ff 3d fb 00 c4 3d
       -0.11916145 0.036055062 0.12484969 0.095704995
000210 92 14 9c bd ab 0c 98 3c 0b 45 a1 3c d5 c6 e6 bd
       -0.07621111 0.018560728 0.019686243 -0.11268393
000220 af 63 ca 3c a0 da cb bc a1 40 b8 3d 0e 68 12 bd
       0.024705736 -0.024884522 0.08996702 -0.035743766
000230 55 58 96 bd 8f b6 08 3d b2 4e 09 3d ac a8 0d be
       -0.07341067 0.033377226 0.033522315 -0.13833874
000240 e0 a2 23 3d d8 c3 46 3d 68 22 fc 3d a6 84 88 3d
       0.03995025 0.048526615 0.1231125 0.06665926
000250 7e ce 4a bd dc da 04 3e 94 68 fa bc 3e c8 ad bd
       -0.049513333 0.12974113 -0.030567445 -0.08485459
000260 d9 c4 7c bd ec 79 24 bd a9 1d e1 3a 56 91 a5 bd
       -0.061711166 -0.040155336 0.0017174977 -0.08084361
000270 22 a6 81 bd cd 17 f3 bc ce ea 68 bd a4 83 d9 3d
       -0.063305154 -0.029674435 -0.056864552 0.106208116
000280 18 84 5b bd dc b4 01 bd f8 ee 09 bd 56 5a ec 3d
       -0.05359277 -0.03166662 -0.033675164 0.11540668
000290 cc f2 20 3d ed 8e 56 bb 40 91 82 3d 83 06 b3 bd
       0.03929405 -0.0032739 0.063753605 -0.087414764
0002a0 07 3e 0e 3d 55 db 94 3d 0b be a0 bd 0a 67 32 bd
       0.034727123 0.07268397 -0.07848748 -0.043555297
0002b0 57 68 ec bd f9 c9 8f bd 98 42 e3 3d ca 8e de 3d
       -0.11543339 -0.07020945 0.11096686 0.108670786
0002c0 3a 0f 79 3c 1c ac 63 3d 5e 56 4a bc e2 f2 38 3d
       0.015201384 0.05558406 -0.012349693 0.045153506
0002d0 9c b7 89 3d 4e ec d7 bd 1f 9e 8f bd 31 fd 23 bc
       0.06724474 -0.105431184 -0.07012581 -0.010009096
0002e0 38 30 5c 3c 1e f8 0c bc 10 86 17 3d 4b 1b ff bd
       0.013439231 -0.008604078 0.036993086 -0.124563776
0002f0 0b 20 f7 3d 1b 3c bb bd 93 8f 2f 3d 3b 2b 49 3d
       0.120666586 -0.091423236 0.042861532 0.049113493
000300 c4 02 2f bd 5b ae 17 3d 54 53 85 bd 97 82 2d bd
       -0.042727247 0.037031513 -0.06510034 -0.04236087
000310 2c 16 66 bd 4b 77 64 3d ef 73 c6 bd 75 59 02 be
       -0.05617349 0.05577783 -0.09690081 -0.12729438
000320 5e 3a b5 3c 4b e4 c4 bc 7e 75 c6 3d 3d b8 8f ba
       0.022122558 -0.02403464 0.096903786 -0.0010964941
000330 77 e1 3d bd d9 64 e9 bd 34 74 58 3d a8 b8 20 bd
       -0.0463576 -0.11396188 0.052845195 -0.039238602
000340 b2 e5 5a 3d ff a4 2d bd a0 f1 98 bd 66 3b 18 3e
       0.05344171 -0.04239368 -0.07467961 0.14866409
000350 a9 75 e9 3d ca b2 04 bd 8e c3 9b 3c a3 3e b5 3b
       0.11399395 -0.03239707 0.019014146 0.0055311485
000360 da 03 01 be 9e 68 14 be 4d 1f 12 bc 63 60 05 be
       -0.12599126 -0.14493033 -0.0089185955 -0.1302505
000370 78 8b 89 3c d7 e9 93 3d d6 c2 fe bc a8 f9 84 bc
       0.016790137 0.07222336 -0.031098764 -0.016232327
000380 58 e3 46 bd 2d 91 d2 3d 95 84 a9 bc 1b 04 01 bd
       -0.048556656 0.10281596 -0.020693103 -0.031498056
000390 cf d6 8e 3d b5 79 6a 3d 9e 95 a4 bd 55 57 5f bd
       0.06974565 0.057244975 -0.0803635 -0.054526646
0003a0 55 f8 1b 3d f3 b8 91 bd 53 a3 be bd 1e c2 ba 3b
       0.038078625 -0.071153544 -0.093084954 0.00569941
0003b0 d5 2a 3e 3d 57 04 7d 3d e1 c9 84 bc d7 cc 0e 3c
       0.046427567 0.061771717 -0.016209545 0.00871583
0003c0 e1 dd 1e 3d 76 e6 88 3d 7e 04 c5 3c 82 1f 53 bd
       0.03878582 0.06684582 0.024049994 -0.05154372
0003d0 82 75 9c 3d f9 bf cb bd 63 f8 c9 3b f4 00 06 bd
       0.076396 -0.09948725 0.006163643 -0.032715753
0003e0 00 0b 20 3b 44 f6 e3 bd 32 0a 76 bd 19 10 80 bc
       0.002442062 -0.11130956 -0.060068317 -0.015632676
0003f0 82 ff d1 3b f4 19 44 3c cf d7 1f bd a0 ce 25 bd
       0.0064086327 0.011969078 -0.03902417 -0.040480256

lstm.bias_ih_l0 f4 [256]
000000 04 aa c6 bd 97 c2 80 bd bb 0c 0a 3e 6b d4 d1 3d
       -0.09700397 -0.06287115 0.13481419 0.10245594
000010 e6 53 8f ba 57 fc 27 bd 33 2b 87 3d 58 21 e5 3d
       -0.0010935038 -0.041012134 0.066000365 0.111880004
000020 c0 4b 11 bc 40 6a ac 3d 91 82 1b bd 47 6c c0 3d
       -0.008868158 0.08418703 -0.037966315 0.09395652
000030 70 54 cc 3d a6 cd a8 3d 56 9f ce 3d 6a 98 05 3d
       0.09977043 0.08242349 0.10088985 0.032616057
000040 01 4d b3 bd c3 03 17 bd 2e 08 87 3c 90 0c 95 bd
       -0.08754922 -0.03686882 0.016483393 -0.07277787
000050 a1 77 96 3c 96 a9 15 3d 21 07 b7 bd f9 8e 12 3e
       0.01836759 0.036538683 -0.089369066 0.14312352
000060 b8 84 fb 3d 09 ba 4b 3d e5 72 44 bd 94 59 00 3e
       0.122811735 0.049737964 -0.047961134 0.12534171
000070 5e c1 01 3e aa c9 e7 3d 63 c4 9a 3d 2d d7 0a bd
       0.1267142 0.11317761 0.07556989 -0.033896614
000080 b6 1b 0a bd 7b aa 16 3d af 92 ff 3d 54 d1 d4 bd
       -0.033717833 0.036783677 0.124791496 -0.10391489
000090 6a 63 90 bd 2e 97 33 bd 77 5a 16 3d 43 8d ef 3d
       -0.07050212 -0.043845348 0.036707368 0.116968654
0000a0 c7 aa 1a 3d 3d 08 41 3d 4c 61 16 3e 7d 66 f1 3c
       0.037760522 0.047126997 0.14685553 0.029467816
0000b0 98 f5 d5 bc b9 42 04 bd e8 ec a5 ba 0c 0f 98 3c
       -0.026118085 -0.032290194 -0.0012659105 0.018561862
0000c0 3b e0 0e 3e 89 67 d4 bc f9 30 a4 3d 73 bf 83 3c
       0.13952725 -0.025928276 0.08017153 0.016082501
0000d0 bf da 0e 3c 51 55 02 3e 3b 53 ab 3d 0f 70 01 3d
       0.008719145 0.12727858 0.08365484 0.031601008
0000e0 b2 d7 a3 bd f1 00 bf 3d 3f ca 9b bd 40 4f 6d bc
       -0.08000125 0.093263514 -0.07606935 -0.014484227
0000f0 b0 8e db 3d 04 92 c4 b9 23 2b 0d 3e 48 db fb 3d
       0.10720575 -0.00037492823 0.13785987 0.12297684
000100 3c 5e 02 3e ee 4f 10 bc f6 55 f5 3d 79 4a 8d 3d
       0.1273126 -0.008808119 0.119792864 0.0689897
000110 0f 0e 24 3e 2e be 18 bd ec dc 0a bd d9 c9 82 3d
       0.16020988 -0.037290744 -0.033902094 0.06386156
000120 27 49 c0 3d f6 f4 11 3d 4d 82 2e bc 82 41 1c 3d
       0.09388953 0.035634004 -0.010651183 0.03814841
000130 17 12 92 3d 6f 29 af 3c 3b f6 14 3d 83 28 f1 bc
       0.071323566 0.021382062 0.036367636 -0.029438263
000140 b1 32 b0 3d 6e 04 e7 3b 3f 08 0e 3e c6 93 a5 bd
       0.086034186 0.0070500886 0.13870333 -0.08084826
000150 56 88 e0 3d 6e 93 1e bd 4f 04 8b bd 6e 97 10 3d
       0.10963504 -0.03871482 -0.06787931 0.035300665
000160 a7 8e dc 3d e0 ed 4c bd 75 47 c7 3d 68 4d 10 3e
       0.10769396 -0.050031543 0.09730426 0.14092028
000170 ee 3c 48 3d ed 83 21 bd 32 70 8a 3d 30 94 13 3e
       0.048886232 -0.039432455 0.06759681 0.14411998
000180 55 fc c0 3c 1d 89 ae 3c 2e 8e 71 bd 8a a5 5e 3c
       0.023557821 0.021305615 -0.058973484 0.013589272
000190 06 0a c6 3d 48 d9 83 bd a4 c4 fe bb e9 2d 42 bd
       0.096698806 -0.064379275 -0.0077749062 -0.047407065
0001a0 ea 56 9c ba 16 47 b2 3d a9 24 98 3d 9c c1 89 3d
       -0.0011927758 0.08704965 0.07428867 0.06726381
0001b0 e6 c6 26 3c b9 74 44 3d 26 b8 c0 3c 2e 68 73 3c
       0.010179257 0.047962878 0.023525309 0.014856381
0001c0 a9 71 87 3c 12 a4 d6 3c 17 85 13 3e 41 7b 43 bc
       0.01653369 0.026201282 0.14406238 -0.0119312415
0001d0 35 10 7b bd b0 a3 ad bd 4f bb 82 bd 6f 39 a6 bc
       -0.061294753 -0.084784865 -0.063833825 -0.020291058
0001e0 99 01 66 bd 99 24 15 3e 7f ed 0e 3e 57 73 a9 3d
       -0.056153867 0.14564742 0.13957785 0.082739525
0001f0 f1 55 c7 3d 42 f6 e4 3c 69 25 e3 3d ca d1 b9 3d
       0.09733189 0.027949456 0.1109112 0.09073217
000200 4b de a4 bd 25 9d 03 be 53 4c 00 3e 62 3d c4 3b
       -0.080502115 -0.12852915 0.12529115 0.0059887627
000210 2f 13 e5 bb 67 08 df 3d cf 68 06 be 21 d5 8e bd
       -0.0069908123 0.108902745 -0.13125919 -0.06974245
000220 94 d0 86 3d 36 f1 ce bd d7 85 56 3a fb af d8 3c
       0.06582752 -0.10104601 0.0008183396 0.026451102
000230 a9 28 f2 bd 06 2f 16 3d 30 01 09 bd 3f c3 62 3d
       -0.118241616 0.03666594 -0.033448398 0.055361982
000240 1f 1f 1c 3e 42 a9 8d 3d 26 d5 f2 3d f6 e0 b3 3d
       0.15246247 0.06917049 0.11857061 0.08783142
000250 c7 9f 0e 3e 08 bc 33 3d 88 8f 3f bd 17 ec 3e 3d
       0.13928138 0.043880492 -0.04676774 0.04661187
000260 22 fe 9c bd cb d7 df bd 94 9d 1a be 85 6c 1b bd
       -0.076656595 -0.10929831 -0.15099174 -0.03794529
000270 12 32 00 3e 56 5d 99 3d d8 9f f6 bd f9 52 f8 3d
       0.125191 0.074885055 -0.120422065 0.12125201
000280 59 19 8c 3d 28 b2 8b 3c ca 6b e3 3c 09 25 c4 3c
       0.06840772 0.017052725 0.027761359 0.023943441
000290 b3 a9 e8 3b dc f7 b3 3c 6d 4c 04 be b4 65 0a be
       0.007100308 0.021968774 -0.12919779 -0.13515359
0002a0 f8 1b 14 be ca 1d 99 3d fe 68 da bd 87 1e 4a bc
       -0.14463794 0.07476385 -0.10664557 -0.01233638
0002b0 6b 40 b0 bc 2a 15 b3 3d b8 ee 17 3e 2f 8a 06 3e
       -0.021515092 0.08744271 0.14837158 0.1313865
0002c0 1b e8 21 be a4 15 22 be dd 64 02 3e 12 4d b0 bd
       -0.15811197 -0.15828568 0.12733789 -0.0860845
0002d0 33 7f fb 3d ed cc 81 bd d6 6d da bd b7 6c 49 3d
       0.12280121 -0.063379146 -0.10665481 0.049175944
0002e0 d7 76 80 bd 0c 5e 22 be ce d5 9b bd 5c 9e 10 be
       -0.06272667 -0.15856189 -0.076091394 -0.1412291
0002f0 df ad c5 3d 30 06 51 bd 0c 6a e7 bd 57 85 29 bd
       0.09652304 -0.05103129 -0.11299524 -0.04138693
000300 7e 22 86 bb cb 8a 94 3d d0 5d 86 3c e1 01 7d bd
       -0.0040934673 0.07253035 0.016402155 -0.06176937
000310 61 08 ac bd a2 8f 1b bd 89 fd a6 bd 9e 4b f0 bc
       -0.08400036 -0.037978776 -0.08153827 -0.029332932
000320 a1 e1 d1 3c 80 89 ad bd 05 bc 2b bc e7 42 28 3b
       0.025620284 -0.08473492 -0.010481839 0.0025674643
000330 29 3d f0 bc f6 ec db bc b0 28 35 bd c2 cc 13 3e
       -0.029326038 -0.02684639 -0.044228256 0.14433578
000340 fe 1f 8e bd 19 68 82 bd 36 27 34 bd 08 44 f2 3c
       -0.06939696 -0.06367511 -0.043982707 0.029573455
000350 43 31 d5 3d e7 c4 ac 3d 73 94 34 3d ee 36 0a 3e
       0.104097866 0.08435994 0.044086885 0.13497517
000360 27 37 34 3d 41 a8 ca 3d 2d a2 05 bd b0 1b a4 3d
       0.04399791 0.09895373 -0.032625366 0.080130935
000370 77 a0 12 3e 9e 3b 2d 3c 89 7b 82 3d 47 43 b1 bc
       0.14319025 0.010573296 0.06371219 -0.021638526
000380 0f dc 42 bd 72 d4 03 bd 5b 88 97 3d 27 75 cd 3c
       -0.047573145 -0.032185026 0.073990546 0.025080277
000390 17 08 99 3d 85 11 65 3c bc 9e 50 bd 4c 56 05 3e
       0.07472246 0.013981228 -0.05093263 0.13021201
0003a0 1d 68 0c 3e b1 41 be 3d c8 f1 10 3e 3a c6 b3 3d
       0.13711591 0.092898734 0.14154732 0.08778043
0003b0 b9 3b a6 3d de e3 ea 3d c8 91 0a bd 82 d9 50 3d
       0.0811686 0.114692435 -0.033830434 0.05098868
0003c0 5c 73 90 3d 7e 9c 5c 3c a1 49 ed 3d 45 29 df 3d
       0.07053253 0.013465045 0.11586309 0.108965434
0003d0 85 ba a7 3d f9 ad 1c bd 6e 95 e2 3d 3a 14 8b 3d
       0.08189873 -0.03825185 0.11063658 0.06790967
0003e0 2d fc 23 bd 33 18 14 3e 05 fe 94 bd a2 39 cb bb
       -0.040035415 0.14462356 -0.07275013 -0.0062019387
0003f0 06 b3 ae 3d e7 ad 0b 3e d5 5e 4e bb ba 5d 86 3d
       0.0853024 0.13640557 -0.003148963 0.06560846

lstm.bias_hh_l0 f4 [256]
000000 92 af cd 3c f9 4f 78 bd 71 78 db 3d 80 27 29 3d
       0.025108133 -0.060623143 0.10716332 0.041297436
000010 3c a2 2a 3d a2 40 96 bd d2 4c af bd 85 3a c3 3d
       0.041658625 -0.073365465 -0.08559574 0.09532646
000020 9b de c7 3d b2 ee 8c bc 2a 89 e8 3d 37 f3 c3 3d
       0.097592555 -0.017203663 0.11354287 0.09567874
000030 b7 54 a7 bd 62 18 93 3d 52 25 9a bd 18 7e 00 3e
       -0.08170455 0.07182385 -0.075266495 0.12548101
000040 eb 3c c5 3c 87 75 f5 3d 31 70 3a bd 1a 77 c0 3d
       0.0240769 0.11985307 -0.04551715 0.09397717
000050 f6 5a 1a bd 1c a2 95 bd 65 e3 b7 bd bc d1 0c 3d
       -0.037684403 -0.073063105 -0.08978919 0.034379706
000060 b8 8e 79 bd 17 3c e9 bc 53 3b a4 3d 16 81 5b 3d
       -0.060927123 -0.028471036 0.08019128 0.053589903
000070 46 9f 64 bd ec ae 00 3e 8c 1d 1d bd 5b 6a f9 3d
       -0.055815957 0.12566727 -0.038358256 0.12178489
000080 bd 76 25 bb ec 82 5b 3d 96 9b c9 bd 81 0e 31 bc
       -0.0025247775 0.053591654 -0.09844129 -0.010806681
000090 c8 1a 6f 3d 95 78 c6 3d ec 32 f5 3d f7 1f d6 bc
       0.05837515 0.09690968 0.11972603 -0.026138289
0000a0 fa 88 94 3d 1d a6 c7 3d 79 86 df 3c 14 bb 1b 3d
       0.07252689 0.097484805 0.027285801 0.03802021
0000b0 e5 ce 53 bd b6 b8 19 3e af 3c 95 bc f3 d9 1c 3e
       -0.051710982 0.15011868 -0.018217413 0.15317516
0000c0 6b bb 15 3e cd 4d b3 3c b6 d1 c1 3d 74 ed 96 bc
       0.14622276 0.021887684 0.09463827 -0.018423773
0000d0 23 84 b1 3d 5b 01 6b 3d be ca d0 3b e6 12 13 3c
       0.08667781 0.05737434 0.006371825 0.008976674
0000e0 e9 01 a6 bc 36 52 0f 3c 93 3d a8 3d 0a 59 8f 3d
       -0.020264583 0.008747628 0.08214869 0.06999405
0000f0 08 50 4a bd a7 6c 0c 3e bd 29 ca bc 73 bd 2e bc
       -0.04939273 0.13713323 -0.024678105 -0.010665285
000100 cf 27 95 3d 4d 81 a4 3d 14 ff a8 bd b7 55 8d 3c
       0.072829835 0.08032475 -0.08251777 0.017252786
000110 0c d9 22 3e 05 f6 d6 3c 37 86 28 bd 26 f8 29 3d
       0.1590311 0.026240358 -0.041143622 0.04149642
000120 dd 17 90 bd e3 fc 6f bd f0 68 0e bd be 35 59 bd
       -0.070358016 -0.05859078 -0.034768045 -0.05302977
000130 33 03 a3 bd 9b ef b9 3d c1 9d c3 bb 83 d0 05 3d
       -0.079595946 0.09078904 -0.0059697335 0.032669555
000140 80 73 e5 bc 43 b6 c2 3c 38 12 ae bd f2 36 04 3e
       -0.028009176 0.02376855 -0.08499569 0.12911585
000150 90 09 05 3e 3f 67 97 3d 67 c6 bb bb 8c ed f4 3c
       0.12991929 0.073927395 -0.0057304385 0.029898427
000160 2a ea a8 bd da 02 00 3d 99 94 60 bd 2f 2b 67 bd
       -0.08247788 0.03125272 -0.054829214 -0.056437667
000170 30 af b0 3c 06 6c b2 3d 57 4e 49 bd 2a ba d0 3d
       0.02156791 0.0871201 -0.049146976 0.10191758
000180 78 dd bc 3d 5b 06 46 bd 06 17 c6 3d 11 d8 5d 3b
       0.09221929 -0.048345905 0.0967236 0.003385071
000190 a1 1a 61 bb a9 25 cd 3d 17 7d 12 bd 15 21 4c 3d
       -0.0034348147 0.10016949 -0.035763826 0.049836237
0001a0 a7 1f 76 3c 79 d3 09 3e 26 38 39 3d e6 9b b8 3d
       0.015022195 0.13459577 0.045219563 0.0901411
0001b0 13 e5 15 3c 6b b4 84 bd 20 44 60 3d cd 95 24 3d
       0.009148854 -0.064797245 0.05475247 0.040181924
0001c0 87 74 37 bb ae 25 1f 3e dc 80 83 bd 7f be eb bc
       -0.002799304 0.15541717 -0.06421062 -0.028777359
0001d0 65 ee 82 bd 31 f4 f2 3d d2 2e 28 bd d6 c0 4b 3d
       -0.063931264 0.11862982 -0.041060276 0.04974445
0001e0 46 f9 21 3d 15 7f 0d 3e a1 f2 b6 3d 60 bc e8 bc
       0.039544366 0.13818009 0.089329965 -0.028410137
0001f0 35 16 d6 3d 22 04 a5 3d 0c 6c c5 3c e2 5e d0 3d
       0.104534544 0.08057429 0.024099372 0.101743475
000200 2d f1 1f 3c 81 80 bc bd ef 67 e3 3d 97 1a c2 3d
       0.009762091 -0.09204198 0.11103808 0.09477728
000210 af 81 17 3e 78 6f 58 bc b0 9c 8a 3d 2a bb 9e bd
       0.14795564 -0.01321017 0.06768167 -0.077505425
000220 44 ca ef bd 25 d9 fe 3d c0 78 01 3d 32 0d b4 bd
       -0.11708501 0.12443761 0.031609297 -0.08791579
000230 4b b5 d3 bd 63 6e 1c be 99 43 b0 3d 06 fa c8 bd
       -0.10337313 -0.15276484 0.08606643 -0.09813313
000240 b1 91 d1 bc 12 8a f0 bd b6 a7 1f 3e f7 50 17 3e
       -0.025582166 -0.11745085 0.1559132 0.1477698
000250 d2 6e e5 bc df a6 75 3d 4c 82 cc bd d2 f7 51 3d
       -0.028006945 0.059973594 -0.0998579 0.05126173
000260 e8 ba 1e 3d b0 47 9c 3c db 57 d6 bd b7 92 fe bd
       0.038752466 0.019077152 -0.10465976 -0.124303274
000270 e4 07 52 3d 15 d4 8e 3d ec 9d 8d 3c 29 89 ae 3b
       0.051277056 0.06974045 0.017287217 0.0053264094
000280 e9 3d 0e be 0b da ff 3d 19 d3 84 3d 71 ec 94 bd
       -0.13890804 0.1249276 0.06485576 -0.0727166
000290 37 fd c9 3d 4b 98 24 3d 44 a7 0d be b3 5a 1a be
       0.0986275 0.0401843 -0.13833338 -0.15073662
0002a0 4e 80 5f bd 3d 7a a9 bd 3b d0 07 be 66 70 0c be
       -0.05456572 -0.08275268 -0.13263027 -0.13714752
0002b0 e4 5e 95 bd 4d ae eb 3d 70 87 e5 bb b0 34 b9 bc
       -0.072934896 0.115078546 -0.007004671 -0.022608131
0002c0 76 31 c4 bd 6f 7e 6d bd cd 97 a4 bc 48 2f 08 3e
       -0.095797464 -0.057981905 -0.020091916 0.13299286
0002d0 64 e3 12 bd 87 af 0f 3d c0 4d cc bd ea 51 68 bd
       -0.035861388 0.035079505 -0.09975767 -0.056718744
0002e0 31 57 94 3b 9f ac 76 3d b4 49 03 3e 6c b3 4e bd
       0.0045269956 0.060223218 0.12821084 -0.05046408
0002f0 b7 df a6 3c 7f ba 9c ba 3c 94 9d bb 75 8b 9d 3d
       0.020370347 -0.0011957436 -0.0048089307 0.07692615
000300 00 df 8c 3d 22 63 a6 bc 75 f2 28 3c ab 1a 7b 3d
       0.068784714 -0.020310942 0.0103117125 0.06130473
000310 f6 11 93 3d 2b 10 b8 bc 27 d1 b4 3d fb c5 d2 3d
       0.0718116 -0.022468647 0.08828955 0.10291668
000320 40 35 54 3d ef aa 08 3c 7e d7 84 bc eb 2c ac bd
       0.051808596 0.008341535 -0.016216036 -0.08407005
000330 f8 8b 23 3e bb b5 e1 3c 77 a7 ad bd e6 e7 d4 bc
       0.15971363 0.027552476 -0.08479207 -0.025989484
000340 97 43 30 3c 24 d9 09 3e af 84 87 3d 9b 5e ca 3c
       0.010758302 0.13461739 0.06617104 0.024703315
000350 3b bd ac bc 06 12 07 3e aa 05 ac bd b5 ac e2 bc
       -0.021086326 0.13190469 -0.08399518 -0.027670244
000360 b3 fb a8 bd 85 52 d9 3d 56 75 43 bc 17 15 00 3e
       -0.08251133 0.106114425 -0.011929831 0.12508045
000370 75 fb e0 3c 79 0a d7 3d dc 1b b0 3c f1 d5 12 3e
       0.027463654 0.105000444 0.02149766 0.14339425
000380 8b 27 8f bd a4 ed 13 3e 9a b0 34 3b da 03 0f 3d
       -0.06989964 0.14446121 0.0027571083 0.034915783
000390 08 92 e2 3d 74 d5 3d 3d 97 0c 12 3e 86 f2 9c bd
       0.110630095 0.046346143 0.14262615 -0.07663445
0003a0 9d cd 41 bd 99 9c eb 3c 42 8a ec 3c f3 9e 8b 3d
       -0.04731523 0.028761195 0.02887452 0.068174265
0003b0 27 a4 47 3d c7 93 35 bd 8c 53 a0 bd bf 28 89 3d
       0.048740532 -0.044330385 -0.07828435 0.06697225
0003c0 70 77 a6 bb f1 b7 c7 3d 67 5f 81 bd 12 18 2b 3d
       -0.005080156 0.09751881 -0.06317025 0.041771002
0003d0 f7 d4 a0 bd 97 01 b8 3d 35 4e d8 bb c5 ca 6c bd
       -0.0785312 0.08984678 -0.00660112 -0.057810564
0003e0 a6 42 77 3d ea 6d b0 bd 31 0d b3 3d 0f aa 17 3d
       0.060366295 -0.086147144 0.087427504 0.037027415
0003f0 d9 d2 da bd a4 99 bb 3d c6 20 e6 3d ea de d7 3d
       -0.10684747 0.09160164 0.1123672 0.10540564

lstm.weight_ih_l1 f4 [256, 64]
000000 36 b7 09 be d6 3c c8 bb c1 6c a2 bd 26 6c 9a bd
       -0.13448796 -0.006110768 -0.079308994 -0.07540159
000010 ef 98 00 bc 86 b7 8d bd cc 67 e4 bd 9c 3d 86 3d
       -0.007848962 -0.0691977 -0.1115261 0.0655472
000020 9b 4d 67 bd a0 d8 8a 3d cc a8 39 3c e8 0c 6d 3c
       -0.056470495 0.06779599 0.011331748 0.014468409
000030 5d 72 86 bd 41 73 a9 3d 6f 5b 09 bd 07 09 1b bd
       -0.06564782 0.08273936 -0.033534463 -0.037850406
000040 97 c8 9e 3d ad eb 3d 3d 87 35 4d 3d c8 1f d6 bc
       0.07753103 0.046367336 0.050099876 -0.026138201
000050 a5 a5 be 3c 4f 61 15 3d 97 75 ff 3c 9f 5a b2 3d
       0.023272345 0.036469754 0.031184 0.08708691
000060 40 4c a8 3d c7 de 9b 3b 84 92 05 be d9 a2 4a 3d
       0.082176685 0.0047567817 -0.13044173 0.04947171
000070 a7 99 20 bd ba 72 e6 3d 4a 93 50 bd f9 5e 80 bd
       -0.039209034 0.11252351 -0.050921716 -0.062681146
000080 13 f4 14 bc 42 f2 a6 bd 1f 4e a6 bc 8d 02 8c bd
       -0.009091395 -0.08151676 -0.020300923 -0.06836424
000090 10 72 10 bc 28 27 f3 3d 14 eb 9e 3d 94 2a 89 3d
       -0.008816257 0.11872703 0.07759681 0.06697574
0000a0 57 92 a7 3d f2 99 9d bd 54 cb 67 3c db cc df 3c
       0.08182209 -0.07695378 0.014147598 0.027319362
0000b0 a9 2a a8 bd f2 c4 7f bd 25 02 2d 3d 88 d4 7f 3c
       -0.08211262 -0.06244368 0.042238373 0.015614636
0000c0 57 b7 c6 bb 79 1d 26 bd be 79 84 3b 1c c0 aa 3d
       -0.0060643363 -0.04055545 0.004042833 0.08337423
0000d0 12 c9 31 3d c3 e8 d3 bc 7f 50 9b bd 29 e0 4e 3d
       0.043404646 -0.025867825 -0.07583713 0.050506745
0000e0 49 09 96 bd 7d 32 27 bd 8d 22 2c bd 2a 3e 04 be
       -0.0732599 -0.040819634 -0.042025138 -0.12914339
0000f0 1b 25 63 3d 09 cd 86 3c d7 05 b0 3c b7 94 85 bd
       0.05545531 0.01645519 0.02148716 -0.06522506
000100 5c d1 de bd a8 3c cc bd 9c e0 dd 3c e5 e3 a6 bd
       -0.10879776 -0.09972507 0.027084641 -0.08148936
000110 af df fd 3d 67 6e eb 3c 63 ae 7c 3d e0 04 31 3c
       0.1239618 0.028739167 0.061689746 0.010804385
000120 01 0e d8 3a c3 0d 37 bb 03 5b d4 3d 56 fa 99 bd
       0.0016483666 -0.0027931787 0.103689216 -0.07518451
000130 48 c8 b6 3c a6 2d 96 bd 7b 56 04 3d 04 51 d0 bd
       0.022312298 -0.073329255 0.032309037 -0.101717025
000140 7d ba 81 bc 54 2e c2 bd df 81 95 bd a9 12 43 3c
       -0.015835995 -0.09481493 -0.073001616 0.011906304
000150 52 65 3a bd 3e 09 32 3d 69 20 db 3c 1b a6 d2 3c
       -0.045506783 0.043465845 0.026748853 0.02571397
000160 e1 d2 7a 3c 54 9b 07 bc 55 20 82 3b a3 48 ce 3c
       0.0153090665 -0.008276779 0.0039711394 0.02518112
000170 10 da a2 bd ca cf 6b bd 89 b8 67 bc a2 60 10 bd
       -0.07951748 -0.05757121 -0.014143118 -0.035248406
000180 45 84 a2 bc c7 cb 21 3b b6 4c af 3d e0 43 c2 3d
       -0.019838462 0.002468811 0.08559553 0.094856024
000190 73 5f cd 3d 9c 96 b3 3d df 28 64 3c 3a 8e 1f 3d
       0.10027971 0.08768961 0.01392576 0.038953997
0001a0 e4 d4 a6 3c 3b 44 06 be 33 aa d5 3b 40 a9 de bd
       0.020365186 -0.13111965 0.0065205335 -0.108721256
0001b0 85 c1 65 3d fc a1 0a 3e 7a 98 c5 bc 3f d4 e9 3d
       0.056092758 0.13538355 -0.024120558 0.11417436
0001c0 5b 9d 0a bc 42 d7 01 be 09 13 96 3d 34 63 db 3d
       -0.008460368 -0.1267977 0.073278494 0.10712281
0001d0 8b 1d 1b 3c 57 35 2f bd 89 c1 d1 bd ac 36 84 3b
       0.009467493 -0.04277548 -0.10241992 0.0040348377
0001e0 c3 33 d7 3d 50 0a 68 3d 9c ae 9a 3d fd 04 7c 3c
       0.1050792 0.05665046 0.07552835 0.015382049
0001f0 cd 39 03 bd 9c a3 1c bd eb 1b 87 bd 39 39 3b 3d
       -0.032037545 -0.038241968 -0.06597122 0.04570887
000200 11 d0 7c 3d d3 dc b2 bd 14 08 d7 3d 40 7c f2 3d
       0.061721865 -0.08733525 0.10499588 0.11840105
000210 f3 60 ec 3d d2 bf 84 3d 25 4b 34 bb f3 eb a7 bb
       0.11541929 0.06481899 -0.002751061 -0.005124563
000220 cd 6e 78 3d 6b 47 93 bd 80 4a 9e 3d 7b b7 e6 bd
       0.060652543 -0.07191356 0.077290535 -0.11265465
000230 43 8d 0b be 99 f3 8c 3d b3 a0 71 bd 50 e0 16 3d
       -0.13628106 0.068824 -0.058991145 0.036835015
000240 d3 4c 1e 3d a9 63 a0 3d 0c 14 80 bd ee 90 1c 3d
       0.038647484 0.07831509 -0.06253824 0.038224153
000250 70 2d bf 3d 7a ac ef 3d f1 4e 7e b9 44 31 ae 3d
       0.093348384 0.11702819 -0.00024252736 0.085054904
000260 b6 ee 57 3d ac 15 5c 3c e2 b3 08 3d b0 03 c1 3c
       0.052717887 0.013432901 0.033374675 0.023561329
000270 38 1e 63 bd 79 45 fb 3c 46 52 8d bd 42 c9 20 3d
       -0.05544874 0.030672776 -0.06900458 0.039254434
000280 a2 9a 89 3c 51 fa 9e 3d 9b fd be 3d b5 4a b8 3c
       0.016797367 0.07762588 0.09325715 0.02249656
000290 c7 fd e5 3d 98 bf 02 3e 3a c1 92 3d e1 9b 9c 3d
       0.11230045 0.127684 0.07165761 0.07646919
0002a0 89 93 59 bc 83 37 d2 bc ab 82 1f 3d 01 10 e8 bd
       -0.013279804 -0.025661236 0.038942974 -0.113311775
0002b0 6a 45 e5 bd 01 fc 25 3d 05 45 bd 3c 45 ee aa 3c
       -0.1119488 0.040523533 0.0231042 0.020865569
0002c0 03 9f bd bc be 85 92 3d 92 8f 79 bd 0f 1a 8c 3d
       -0.023147112 0.071544155 -0.060927935 0.06840908
0002d0 1c f1 68 3d fa ea 8f 3d d8 33 ae 3b 7e fb 2d 3d
       0.056870565 0.0702724 0.005316239 0.04247617
0002e0 33 3f 24 3d 92 e9 8b 3b 5e 8a 60 bd 3a cf 3f bd
       0.040099334 0.004269787 -0.054819457 -0.046828486
0002f0 f4 34 4a bd 84 94 89 3d b2 df 06 bd 38 01 0d bd
       -0.049366906 0.0671778 -0.032928176 -0.03442499
000300 3c e9 09 be a6 65 4f 3d f0 8d a2 bd 07 ab d8 bc
       -0.13467878 0.05063405 -0.07937229 -0.02644874
000310 97 9f be bc e0 a1 8f 3d e9 32 2b bd 20 16 c5 bd
       -0.023269458 0.07013297 -0.0417966 -0.09623361
000320 36 1c de bd f1 df c6 bc 22 2b 1e 3d 1b ec 0a bd
       -0.108452246 -0.024276705 0.038615353 -0.033916574
000330 dc 75 c8 bd ab 27 2e bd 09 bc d2 3d aa 95 c3 bd
       -0.09788105 -0.0425183 0.10289771 -0.095500305
000340 fc 1e 04 3e ca e0 9f bc 61 85 5d 3d 61 11 f4 bc
       0.12902445 -0.019516367 0.05408228 -0.029793443
000350 47 d4 8c 3d 90 01 d8 bc ee a6 f5 bc cd fb 07 3e
       0.06876426 -0.026367933 -0.029986825 0.13279648
000360 c0 08 8d bd 72 a0 ab bd f6 80 43 bd 09 d4 3f 3d
       -0.068864346 -0.08380212 -0.04773041 0.04683307
000370 85 d5 26 bd bd 93 90 3d b9 65 7a 3c d7 de fb bc
       -0.04073097 0.07059429 0.015283042 -0.030745907
000380 36 c6 ae bc 29 88 cb bc 65 ca 79 3d d8 c0 ce bc
       -0.021334749 -0.0248452 0.060984034 -0.02523844
000390 e6 b6 6e 3d 10 a4 34 bd 5a 30 61 bd 75 a8 a6 bc
       0.058279894 -0.044101775 -0.054977752 -0.020343998
0003a0 c5 e0 4f bd de be b2 bd 26 9d 1a 3c 6d 18 a5 bd
       -0.050751466 -0.08727811 0.009436881 -0.080612995
0003b0 89 11 81 3b 6e 40 08 bd dd bd 8b 3d 3a 1e e1 3d
       0.003938858 -0.03326457 0.06823323 0.109920934
0003c0 b6 06 01 be 75 aa 85 3d 1e 6b 3f 3c d8 43 e6 ba
       -0.12600216 0.06526653 0.011683254 -0.0017567826
0003d0 1b c2 bb 3d 30 c9 9f 3d 64 01 0a bd eb c0 cc ba
       0.09167882 0.07802045 -0.033692732 -0.0015621459
0003e0 bd 10 de bc 16 e4 22 bd 06 cc cd 3d d1 30 8d 3d
       -0.02710759 -0.0397683 0.1004868 0.068940766
0003f0 0a 9e ac 3c f7 3c 9d 3d 1a 36 98 bd fc 62 52 bd
       0.021071453 0.07677644 -0.07432194 -0.05136393

lstm.weight_hh_l1 f4 [256, 64]
000000 0c b9 9c 3d b9 fa 13 bd 76 ea fd bd 25 c9 a8 bd
       0.076524824 -0.03612778 -0.123982355 -0.0824149
000010 3d e2 0c 3e f6 08 43 3d a6 7c b8 3d 65 4c f4 bd
       0.13758178 0.047615968 0.0900815 -0.119286336
000020 b0 ac 35 3c dc cb 99 bd dd 96 4e bd 7f cc 81 3d
       0.011088535 -0.07509586 -0.050436843 0.06337833
000030 1f 5e 42 3d 44 a9 9a 3d 52 9e a3 bd 70 5e e4 bc
       0.047453042 0.07551816 -0.079891816 -0.027877063
000040 76 47 98 bc 6d 9a 0e 3d f4 5c ff bd f4 56 04 3e
       -0.018588763 0.03481524 -0.12468901 0.12923795
000050 1a 22 db 3d 50 36 b3 bd 2f 55 22 bd 46 7e f3 3b
       0.10699864 -0.08750594 -0.03963202 0.0074308245
000060 cc 1f 33 3d 84 7c 0b 3d 2a 0f 12 bc fe a8 69 bd
       0.043731496 0.034054294 -0.008914748 -0.05704593
000070 c6 01 2c bd 0f 96 c3 bd 5a f0 08 bd 66 f4 86 3d
       -0.04199388 -0.09550106 -0.033432342 0.06589584
000080 4b eb 8c 3d ec 96 15 3d 78 f6 03 be fa dd 94 bd
       0.06880816 0.036520883 -0.12886989 -0.07268901
000090 fd 92 17 bd 2e 18 ba 3b c5 54 e7 bd 6f 88 36 bd
       -0.037005413 0.005679152 -0.112954654 -0.044563707
0000a0 b8 2a 89 bd 3c 10 3d 3d 63 c8 71 bd b2 10 0d 3e
       -0.06697601 0.04615806 -0.059028994 0.137759
0000b0 1f 43 00 bd d4 fc d5 3d 9c 0e fd 3c 4e 3c b0 bd
       -0.03131401 0.10448614 0.030890755 -0.08605252
0000c0 24 58 ac 3d 91 98 02 3e b7 97 0d be ad 26 84 bd
       0.08415249 0.12753512 -0.13827406 -0.06452689
0000d0 86 e1 8e 3d c2 c6 4e 3d 01 29 1a 3d 22 4d 81 bd
       0.06976609 0.05048252 0.03763676 -0.0631354
0000e0 a3 6b 20 bd 32 4d 7a 3d 4d 55 b6 bd 0e 0b 99 bd
       -0.03916515 0.061108775 -0.089029886 -0.07472812
0000f0 b4 c6 01 bd b9 1e bf 3c 50 e5 e3 3c 63 ec ea 3d
       -0.03168364 0.02333008 0.027819306 0.114708684
000100 eb 4b ad 3d b9 19 ce 3c f0 dc 07 3d 26 a1 03 be
       0.08461746 0.02515875 0.033169687 -0.12854442
000110 6e 97 ec 3d 07 8d 0e 3d 21 94 41 bd 2d 5a da bc
       0.115523204 0.034802463 -0.047260407 -0.026654327
000120 31 e0 f2 3c 44 00 75 3c 4f cd e7 3d 7f e5 73 bc
       0.029647918 0.014953677 0.113184564 -0.014886259
000130 f4 dd 8c bc f9 3d 38 3d bd d6 5f bc 73 19 db bc
       -0.01719568 0.044980977 -0.013662037 -0.026745534
000140 2f 0d 98 bc bf 6f d8 b9 43 da 99 3d d5 4f 82 3c
       -0.018560974 -0.00041281988 0.07512333 0.015907208
000150 e9 20 3c 3c 83 19 98 bd d3 e3 ae bd c6 9a 87 3d
       0.011482456 -0.07426741 -0.08539548 0.066213176
000160 00 15 4e 3d 10 3c d3 bd e9 7c 93 3c af 9b 62 3d
       0.050312996 -0.103141904 0.018003898 0.055324253
000170 e7 ff 56 bd cb 8c 07 be af e7 1c 3d 7a e4 8b 3d
       -0.05249014 -0.13237302 0.03830689 0.06830688
000180 46 38 f1 3c 9d ad a4 3d 7b 75 0c bd 37 bf 29 3d
       0.029445779 0.080409266 -0.034291726 0.041442122
000190 51 3c a5 3d dc 3f f5 3d b5 48 f4 3c 46 e5 35 bd
       0.08068145 0.11975071 0.029819826 -0.044408105
0001a0 13 b3 ff 3c f8 53 8a 3c 64 ac b3 3c 81 91 1f 3d
       0.031213319 0.016885743 0.021932788 0.038957123
0001b0 9a b6 00 be 8a 20 a0 3d 11 06 d0 bc 32 37 8c bc
       -0.12569657 0.07818706 -0.025393518 -0.017116163
0001c0 b7 9f 8f 3d c5 2e 91 bd ad d6 0c 3d 6a 37 02 bd
       0.07012885 -0.07088999 0.03438442 -0.03179113
0001d0 7c 69 75 3d 05 28 83 3d b4 f9 ba bd 26 40 9a bd
       0.05991505 0.064041175 -0.09129658 -0.075317666
0001e0 e6 fc 98 bd 22 3f d2 3c ae 83 cc bd 6b 2e 7a bd
       -0.074701115 0.02566487 -0.099860534 -0.061079424
0001f0 02 ac 72 bd 73 a8 75 3d ea 81 ce 3d 2e bc 00 3e
       -0.05924607 0.0599751 0.10083373 0.12571785
000200 25 17 0c bc 2a a8 18 bc 8f c9 85 3d e2 56 93 3d
       -0.00855044 -0.009317437 0.06532585 0.07194306
000210 1d 72 a3 3d 28 c6 1c bc ff ab 0d 3d 3a b9 92 bd
       0.0798075 -0.0095687285 0.034587856 -0.071642354
000220 8d 2a 98 bd 24 29 82 3c c2 d0 83 3c 6c f4 e3 3c
       -0.07429991 0.015888758 0.016090754 0.02782651
000230 bd 0d f6 bd 92 5d 8c 39 fa 79 00 bd 17 0d d5 bd
       -0.12014339 0.00026772596 -0.031366326 -0.10402887
000240 1c d0 c4 3d 8e 1f 3c bd 72 79 19 bd 4b c7 2f bc
       0.09610006 -0.04592853 -0.037469335 -0.0107286675
000250 19 9a 9a bc 87 4d 5a bd c7 19 cc 3d 0c 6a 90 3d
       -0.018872308 -0.053296592 0.09965854 0.07051477
000260 a0 b7 08 3d c2 6f c0 bd 8b 3a dc bc b3 ed e7 bc
       0.033378243 -0.09396316 -0.026883384 -0.028311586
000270 c6 bd 00 be 83 ba 94 bc 4b 67 3f 3d 02 ef 14 3c
       -0.12572393 -0.018155342 0.046729367 0.009090187
000280 23 9c 47 3c e6 ce cc 3c 5f 91 57 3d a7 1f 11 bd
       0.012183222 0.025001 0.05262887 -0.035430577
000290 3c 5b bb 3c a9 92 b3 bd cb fa a4 3d d0 4c 0c 3d
       0.022870652 -0.087682076 0.080556475 0.03425294
0002a0 56 5d 3e bc 7e 76 8a 3c 0c 5c 03 bd e0 25 06 3e
       -0.011618933 0.016902205 -0.032070205 0.13100386
0002b0 12 0f 0a 3d 72 6f 8a 3c 09 4b cd bd 61 03 a9 3c
       0.03370578 0.016898844 -0.100240774 0.020631494
0002c0 ed f1 9e bc 2e b4 c4 bc 39 12 69 bd 25 b8 df bc
       -0.019402469 -0.024011698 -0.056902144 -0.027309487
0002d0 9b 65 96 3d 0f 77 8b bd ea 33 ee bd 3e 4c 8e 3c
       0.073435985 -0.06809818 -0.116309956 0.01737034
0002e0 31 9c da 3d 01 1c e7 3c 67 58 16 bb c3 c8 cd bc
       0.106743224 0.028211595 -0.0022940875 -0.025120145
0002f0 27 49 82 bd 54 40 37 bb 8d be 4d 3d 6d 46 46 3d
       -0.06361609 -0.0027961927 0.05023055 0.048407007
000300 3e 65 51 bd ba 01 af bd 0e 86 49 3d 07 0f 20 bd
       -0.051121943 -0.08545251 0.04920011 -0.03907683
000310 4b e8 3d 3c 4e 34 7c 3d 25 27 66 3d 2e 1c b4 3c
       0.0115910275 0.06157332 0.056189675 0.021986093
000320 bd f1 7b 3c 36 3d c1 3d 88 ee 81 3d 55 62 aa bd
       0.015377459 0.09435503 0.06344324 -0.083195366
000330 20 ee 4e bd 07 cf 06 bd 77 35 12 3d 4e 03 ac 3b
       -0.050520062 -0.03291228 0.03569552 0.0052494174
000340 6a 67 78 bd f8 91 92 3d 02 e8 e6 3a 9e 07 7a bd
       -0.0606455 0.071567476 0.0017616751 -0.06104242
000350 93 7d 68 bc d3 fb 63 bb a0 b1 68 bc c4 df e5 3c
       -0.0141900955 -0.003478755 -0.014202505 0.028060801
000360 de b6 91 3c 82 30 c7 bd 9f 57 c9 bc 5a 01 ff 3d
       0.017787393 -0.09726049 -0.024577914 0.1245143
000370 92 4a 75 3c 29 57 67 bd 61 c2 c0 3d 01 95 0b bc
       0.014971392 -0.056479607 0.09412075 -0.008519412
000380 5b 1b 8c bd 26 43 fb bd 47 c2 a0 bd f2 b8 8f 3d
       -0.06841155 -0.12268667 -0.078495555 0.070176974
000390 60 b1 64 bc 4f 7c a8 bd 11 ec 41 bd 8c 60 fa 3d
       -0.013958305 -0.08226835 -0.04734427 0.12225446
0003a0 28 c0 fe 3c 18 0b 04 3c 34 62 b6 3d e5 61 fa bc
       0.031097487 0.008059286 0.089054495 -0.030564258
0003b0 1d b4 ca bd 48 a7 f4 3d 09 a6 1f 3d 24 4b 93 3d
       -0.09897635 0.11945969 0.038976703 0.07192066
0003c0 5a 07 b5 3c aa d4 93 3c af 64 eb bc 5a 2d cc bd
       0.022098232 0.018045742 -0.028734533 -0.099695876
0003d0 83 66 90 3d af 70 4d 3d e3 4c a3 3d be 86 a6 3d
       0.070508026 0.05015629 0.07973649 0.08131169
0003e0 4c 12 03 3e ae aa 83 3d f7 83 07 bd 9c 32 91 3d
       0.12799948 0.06429039 -0.033084836 0.07089731
0003f0 8f 49 31 3b 56 97 0b 3d 74 40 04 3d 65 51 af 3d
       0.00270519 0.034079872 0.03228803 0.08560447
