fault_model_nn_allprior_11kv/last_Y2022.pt (torch, 545973 bytes, 15 tensors)

emb.weight f4 [4782, 16]
0	0x3f84ed2b	1.0384878
1	0x3f1b88f8	0.6075587
2	0x3eb62351	0.3557382
3	0xbf9cc8e4	-1.2248807
4	0x3e52636c	0.20545739
5	0xbf1ac5e2	-0.60458195
6	0xbe2630cf	-0.16229557
7	0xbf4a1cba	-0.78950083
8	0xbd54e08b	-0.051971953
9	0x3f5f4444	0.8721354
10	0x3d95a157	0.07306164
11	0xbf2c79c3	-0.67373294
12	0xbde3d897	-0.111252956
13	0xbe728012	-0.23681667
14	0xbe82b6e9	-0.25530174
15	0x3d5584dc	0.052128658
16	0x3f44c1ee	0.76858413
17	0xbdf3e1ae	-0.11908279
18	0x3ca68e02	0.020331386
19	0x3d6790f6	0.05653473
20	0xbd374b99	-0.04474983
21	0x3ecae9a9	0.39631394
22	0x3e03e4b5	0.12880214
23	0x3f614c01	0.880066
24	0x3f144a2b	0.5792567
25	0x3f107a21	0.56436354
26	0x3db7bbb1	0.08971346
27	0x3f02dac3	0.51115054
28	0x3de00cdd	0.109399535
29	0xbdce5540	-0.10074854
30	0x3d26e92c	0.040749714
31	0x3dcf48f2	0.10121335
32	0xbf23c72a	-0.63975775
33	0xbe7a439d	-0.24439855
34	0x3dc25d07	0.094904
35	0x3f5f9459	0.87335736
36	0x3db45bc9	0.08806569
37	0xbdc43bf8	-0.09581751
38	0xbdcf2f59	-0.10116453
39	0xbd8d0e8d	-0.06887541
40	0xbf311682	-0.6917497
41	0x3ea21d56	0.31663007
42	0xbe114935	-0.14188083
43	0xbe0a9bd0	-0.13536
44	0xbee3310b	-0.44373354
45	0x3f9ce9b9	1.2258826
46	0xbedf7b3f	-0.43648717
47	0xbdc4d621	-0.09611154
48	0xbe423de9	-0.1896893
49	0xbd4c14af	-0.049824413
50	0x9a75515e	-5.073054e-23
51	0x3c4b81b8	0.012421064
52	0xbbe0783d	-0.006850271
53	0x3ecc92d1	0.39955762
54	0xbe01ac42	-0.12663367
55	0xbdacb9d8	-0.084338844
56	0xbf1465df	-0.5796794
57	0x1871e4c0	3.126401e-24
58	0x9933e312	-9.2999396e-24
59	0x3d68c31d	0.0568267
60	0x1d5e0d64	2.9388378e-21
61	0x3f7b1f93	0.98095053
62	0xbec9b643	-0.39396867
63	0x3f0ffdad	0.56246454
64	0x3f2a3bd5	0.66497546
65	0x3e494271	0.19654252
66	0x3faf2711	1.3683797
67	0x3d1ecf33	0.03877182
68	0x3caa0d64	0.020758338
69	0xbd27f729	-0.041007195
70	0xbeddea61	-0.4334288
71	0x3f212bb5	0.62957317
72	0xbcfd898c	-0.030949377
73	0x3df2c24b	0.11853465
74	0xbd5b3d78	-0.053525418
75	0x3d408041	0.046997312
76	0x3e5d7af7	0.21628939
77	0xbe482d2b	-0.1954848
78	0xbfcb592c	-1.5886588
79	0xbe3b59b5	-0.1829594
80	0x162d6f98	1.4010041e-25
81	0xb89a3453	-7.3530384e-05
82	0xbf06799d	-0.5252932
83	0xbcd2fa0e	-0.025754001
84	0x3c6ad40a	0.014332781
85	0x3c481b0f	0.0122134825
86	0x3eb7c307	0.35890982
87	0x17e0113a	1.4480009e-24
88	0x3db4e42a	0.08832581
89	0xbbc84500	-0.006111741
90	0xbe93159d	-0.28727427
91	0x3cfe9c77	0.031080468
92	0xbf5e0eb6	-0.867412
93	0xbe0a0477	-0.13478266
94	0x3f05282c	0.5201442
95	0x3bcf74e1	0.0063310717
96	0xbfd2286a	-1.6418583
97	0xbd89e5c9	-0.06733281
98	0x3e6d58c7	0.23178397
99	0x3d1823ae	0.0371434
100	0x3e01ddd7	0.12682281
101	0x3dc6c6f1	0.09705914
102	0x3ea7a1d0	0.3274064
103	0xbbeef505	-0.007292392
104	0x3ddfb761	0.109236486
105	0x3e4be6b3	0.19912224
106	0x3d5905e0	0.05298412
107	0xbdb09a37	-0.08623164
108	0x3e0fa30b	0.1402704
109	0x3ef506c3	0.4785672
110	0x3e0c32ea	0.13691297
111	0xbdb1eb85	-0.086875
112	0xbf3430d7	-0.70387024
113	0x3da32fd6	0.07968108
114	0xbebcceed	-0.36876622
115	0x3e3414e1	0.1758609
116	0x3d9f810b	0.07788285
117	0x3e064170	0.131109
118	0xbd3128d7	-0.04325184
119	0x3e3466b4	0.17617303
120	0xbe4d9773	-0.20077305
121	0x3d29986c	0.041405126
122	0xbdaa4386	-0.0831366
123	0x3eeda454	0.46414435
124	0x3f0a23f4	0.5396111
125	0x3ea069ef	0.3133082
126	0x3eb6872a	0.35649997
127	0x3e6a719d	0.22894903
128	0x3f87f21a	1.0620759
129	0x3e84a8c2	0.25910002
130	0xbf1bdc62	-0.6088315
131	0xbeb3202d	-0.34985486
132	0x9f269832	-3.527776e-20
133	0x3f49a4ba	0.7876698
134	0x3d46b964	0.048516646
135	0x3cbeaaec	0.023274861
136	0x3eb7e356	0.3591563
137	0x96041003	-1.0667927e-25
138	0xbf71ddeb	-0.94479245
139	0x3e4a4eb2	0.19756582
140	0xb9c4454d	-0.00037435666
141	0x3e8cc0b3	0.27490768
142	0xbd7bd103	-0.061478626
143	0x3d2ba542	0.04190565
144	0xbe6c21e7	-0.23059808
145	0x3e61ca15	0.22049744
146	0x3f45dc07	0.7728886
147	0x3f1f12fb	0.62138337
148	0x34c05023	3.5821094e-07
149	0xac0dccd4	-2.0151008e-12
150	0xbda97ff6	-0.0827636
151	0x1dce108d	5.454486e-21
152	0x38fddd43	0.00012105193
153	0x3e686bdf	0.226974
154	0xbb93fb36	-0.0045160307
155	0x3f42815c	0.75978637
156	0xbfcb0cff	-1.5863341
157	0xbabf8c13	-0.0014613889
158	0xbece49c5	-0.40290657
159	0x3e00ac4c	0.12565726
160	0xbf844418	-1.033328
161	0x300fecf9	5.2359855e-10
162	0x95542684	-4.2843443e-26
163	0xb8ddd096	-0.00010576953
164	0x360b2449	2.0733735e-06
165	0xbda787a8	-0.08180171
166	0x22a49fa5	4.462132e-18
167	0xbea49e59	-0.3215206
168	0xbf41e44e	-0.7573899
169	0x3f092d24	0.53584504
170	0x3ef63aff	0.48091885
171	0x987eaa84	-3.2914819e-24
172	0xbf3514ad	-0.70734674
173	0x3dc24fa5	0.09487847
174	0x3dd6d4c8	0.104898036
175	0x3f9376e8	1.1520662
176	0x3e29ee37	0.16594778
177	0x3e063897	0.13107525
178	0xbf386d0c	-0.7204139
179	0xbe5bd0a5	-0.2146631
180	0xbf1865f0	-0.59530544
181	0xbf90c2e4	-1.1309476
182	0xbf2c60f9	-0.6733547
183	0xbf09f47e	-0.5388869
184	0xbf01ae0f	-0.5065622
185	0xbf90a282	-1.1299593
186	0xbfa81024	-1.3129926
187	0x3e71279b	0.23550265
188	0x3f1b1834	0.60583806
189	0xbe28e631	-0.16494061
190	0x3ed8a70a	0.4231494
191	0x3f1df6ca	0.61704695
192	0x3f66f598	0.90218496
193	0xbe832a20	-0.25618076
194	0x3e9862e7	0.29762957
195	0x3caf3624	0.021388121
196	0xbebd1c58	-0.36935687
197	0xba877e0e	-0.001033725
198	0xbca26ba3	-0.019826716
199	0x3f129a46	0.5726665
200	0x3e01e4cd	0.12684937
201	0x3fa043b5	1.2520663
202	0x3c33a6df	0.010965078
203	0xbe8c3ddf	-0.27390954
204	0x3de62704	0.112379104
205	0x3e9d064c	0.30668867
206	0x3f2e2d7a	0.6803814
207	0xbd46b6fc	-0.04851435
208	0xbe5a958d	-0.21346112
209	0xbea04401	-0.31301883
210	0x3d2af20c	0.04173474
211	0xbbf55756	-0.007487218
212	0x3d94d7e1	0.07267738
213	0xbd079ea3	-0.033110272
214	0xbda49d0b	-0.08037766
215	0xbfb67146	-1.4253318
216	0x3d8f04f7	0.06983369
217	0x3eb67431	0.35635522
218	0xbf6a50fb	-0.91529816
219	0x3f27dcc5	0.6557124
220	0x3ddad797	0.10685652
221	0xbdb98490	-0.090584874
222	0x3eedfe79	0.4648321
223	0x3f52618f	0.8218011
224	0x3d960a73	0.07326212
225	0x3f4ef5ad	0.8084362
226	0xbc94ae77	-0.018149598
227	0xbe99e673	-0.3005863
228	0xbde18d11	-0.110132344
229	0x3da257e4	0.0792692
230	0x3d8b2fa7	0.06796198
231	0x3f902a7c	1.1262965
232	0xbdb0e14e	-0.086367235
233	0xbe9ee87b	-0.31036744
234	0xbf97426d	-1.1817147
235	0xbea5d45c	-0.3238858
236	0xbd8c709b	-0.06857415
237	0x3cf60148	0.030029908
238	0xbd6dfca0	-0.05810225
239	0x3e0368ed	0.12832995
240	0xbe4ce530	-0.20009303
241	0x3546c1b5	7.404263e-07
242	0xbc736504	-0.014855627
243	0x3b8aff35	0.004241849
244	0xbe260577	-0.16213022
245	0x95d7a592	-8.709903e-26
246	0xb91c846d	-0.00014926652
247	0x3f22145f	0.63312334
248	0x3ee7caf6	0.45272034
249	0xbd97f244	-0.074192554
250	0x3e1a64d9	0.15077533
251	0x3c28a207	0.010292537
252	0x3c762944	0.015024487
253	0x3ca94c3d	0.020666236
254	0x3c16d8ba	0.009206945
255	0x2efbf81e	1.1458233e-10

lstm.weight_ih_l0 f4 [256, 3]
0	0xbd9b7c00	-0.075920105
1	0xbd702786	-0.058631442
2	0xbd8ac1be	-0.06775235
3	0x3ce9258d	0.028460288
4	0x3d42536f	0.04744285
5	0x3b178b8d	0.002312395
6	0xbd024801	-0.03180695
7	0xbc080a19	-0.008303189
8	0xbc4aca8d	-0.012377393
9	0xbdc813c2	-0.097693935
10	0xbd85b726	-0.065290734
11	0xbcb4c6ec	-0.02206751
12	0xbdaaafad	-0.08334289
13	0xbd8751e4	-0.06607416
14	0xbbb6eb11	-0.0055822213
15	0xbdb82ab7	-0.08992522
16	0x3b3aef10	0.002852384
17	0xbc15c891	-0.009142057
18	0xbd5547ca	-0.052070417
19	0xbc0c757c	-0.008572932
20	0x3cf0abde	0.029378828
21	0xbde72b63	-0.11287572
22	0x3d228919	0.039681528
23	0xbd4a9cae	-0.049465828
24	0xbc4c2566	-0.012460088
25	0xbc2dc546	-0.010606116
26	0xbb246466	-0.0025084256
27	0x3b27d3f3	0.002560851
28	0x3c35cf84	0.011096839
29	0x3a8ea0ec	0.0010881699
30	0xbc4f8e3c	-0.012668189
31	0x3c7902b8	0.015198402
32	0x3cad8a01	0.02118397
33	0xbd40316d	-0.046922136
34	0x3ac18256	0.0014763575
35	0xbd01ca26	-0.031686924
36	0xbd89ab4d	-0.06722126
37	0x3d332926	0.043740414
38	0x3b0e8670	0.0021747611
39	0xbe010b24	-0.12601906
40	0xbc98299c	-0.018574528
41	0x3d8832a2	0.066502824
42	0xbdef08d5	-0.116716065
43	0x3c2d7771	0.010587559
44	0x3c901c33	0.017591571
45	0xbe260a39	-0.16214837
46	0xbdaa411f	-0.08313202
47	0x3b6be2b3	0.0035993278
48	0xbd5bf4d5	-0.053700287
49	0x3d2eb7a8	0.042655617
50	0x3b8d5984	0.0043136496
51	0xbe13c5f8	-0.14430988
52	0x3c649067	0.013950444
53	0x3c17a780	0.009256244
54	0xbdafc940	-0.08583307
55	0xbdb939a4	-0.09044197
56	0x3d2d0bd0	0.042247593
57	0xbda2d55b	-0.079508506
58	0xbdb8cfb0	-0.09023988
59	0xbcbb8bc2	-0.02289379
60	0x3d7400de	0.05957114
61	0xbc8a1b1b	-0.016858628
62	0xbc8fcd60	-0.017553985
63	0xbde2ddca	-0.11077459
64	0xbbb79e97	-0.005603622
65	0xbc72d973	-0.014822352
66	0x3e695e7e	0.22789952
67	0x3be89e68	0.0070989616
68	0x3dc68c00	0.09694672
69	0xbe2cd257	-0.16877113
70	0x3b76b856	0.0037646494
71	0x3d84794c	0.06468448
72	0xbd533d08	-0.051571876
73	0x3d2121b8	0.039338797
74	0xbd458608	-0.048223525
75	0xbdbb2733	-0.09138336
76	0xbc158416	-0.00912573
77	0xbba8e318	-0.005154025
78	0xbd981d33	-0.07427444
79	0xbc87e1c6	-0.01658715
80	0x3ae9c7fa	0.0017836087
81	0xbdf7185c	-0.12065193
82	0xbaeec98e	-0.0018218027
83	0x3c2dde2f	0.010612055
84	0xbcd07ca2	-0.025450055
85	0x3ada14f0	0.001663832
86	0xbc88f0ed	-0.016716445
87	0xbcd2c553	-0.025728857
88	0xbbeec6a4	-0.0072868634
89	0xbc3367dd	-0.010950056
90	0xbddc645a	-0.10761328
91	0xbd611b54	-0.054957703
92	0x3d462db6	0.048383437
93	0xbdb1aa6a	-0.08675082
94	0xbb872166	-0.0041238545
95	0x3d979290	0.074010015
96	0x3e549d73	0.20763187
97	0xbb818a83	-0.0039532795
98	0x3d54d5a3	0.051961552
99	0xbd720bf1	-0.05909342
100	0x3d69b42b	0.057056587
101	0xbd18f416	-0.037342153
102	0xbd0c0f55	-0.03419431
103	0x3c2c34bd	0.010510621
104	0xbc395cf7	-0.011313668
105	0xbd84b89e	-0.064805254
106	0x3b3e3600	0.0029023886
107	0x3d00798c	0.031365916
108	0xbd972eef	-0.07381999
109	0xbdafaad6	-0.08577506
110	0xbc8c2060	-0.017105281
111	0xbdf051e1	-0.11734367
112	0xbd6113b3	-0.054950427
113	0xbd69991d	-0.057030786
114	0xbdbc7700	-0.09202385
115	0x3c7e03fa	0.015503878
116	0xbc9abea8	-0.01888974
117	0xbd849663	-0.064739965
118	0xbd4b8cfe	-0.049695008
119	0x3c07d5ae	0.008290691
120	0xbd9bf122	-0.07614352
121	0x3c86faca	0.016477007
122	0xbc2596d4	-0.010106761
123	0xbd5f853a	-0.054570414
124	0xbd9d5fad	-0.07684264
125	0xbb22d6b3	-0.002484721
126	0xbdb6c2f3	-0.08923902
127	0xbba3a20a	-0.004993682
128	0xbb5fb5e2	-0.003413551
129	0xbdc2f990	-0.095202565
130	0xbd8d6ef7	-0.069059305
131	0x3caffc49	0.021482604
132	0xbe0dc3a1	-0.13844158
133	0x3d25fbf4	0.040523484
134	0x3acddb47	0.0015705609
135	0xbd80c40a	-0.062873915
136	0xbd68635f	-0.056735393
137	0x3c97639b	0.018480113
138	0xbd429a62	-0.047510512
139	0xbd77bf0a	-0.060484923
140	0x3c8226b5	0.015887598
141	0xbd06f8d4	-0.032952145
142	0xbcfe5975	-0.031048516
143	0xbb17f373	-0.0023185879
144	0xbdbbafae	-0.091643676
145	0xbb4328ed	-0.0029779032
146	0x3bd8f6db	0.0066212243
147	0xbd81312a	-0.063082054
148	0x3c39aac4	0.011332218
149	0x3d0635c7	0.03276613
150	0xbc33fa9a	-0.010985041
151	0xbbcd8e6c	-0.0062730815
152	0x3c47c96e	0.012194021
153	0xbc943b41	-0.01809466
154	0x3c0de275	0.008659949
155	0xbc91f8d9	-0.017818855
156	0xbbaad2a1	-0.005213097
157	0x3c1689ac	0.009188097
158	0xbbb04187	-0.005378905
159	0x3835c9fd	4.334188e-05
160	0x3cef4367	0.029206945
161	0xbd790caf	-0.06080311
162	0xbda8212a	-0.082094505
163	0xbb905811	-0.0044050296
164	0xba68f96c	-0.00088872644
165	0x3bb2b55a	0.0054537477
166	0x3a81ab53	0.0009892978
167	0x3b38789e	0.0028148065
168	0xbd82016c	-0.063479275
169	0xbbd85eae	-0.0066030836
170	0xbc0a407d	-0.008438227
171	0xbdb58d44	-0.08864835
172	0xbb1cdb6d	-0.00239345
173	0x3c5774e9	0.013150432
174	0xbd6141a2	-0.054994233
175	0x3c1301a4	0.008972559
176	0xbb9bf283	-0.0047591343
177	0xbd5ca039	-0.053863738
178	0xbdb6acb2	-0.08919658
179	0xbb929821	-0.0044737016
180	0x3da48827	0.080337815
181	0x3c510e52	0.012759762
182	0x3d07e600	0.03317833
183	0x3d7b19f2	0.06130404
184	0x3d03f3b5	0.03221484
185	0xbcf61c9f	-0.030042944
186	0xbdd515db	-0.10404559
187	0xbd622aef	-0.055216726
188	0xbc6c265d	-0.014413443
189	0xbd6072d8	-0.054797024
190	0x3c831799	0.016002463
191	0x3b0510a9	0.002030412
192	0xbdff31e6	-0.12460689
193	0xbc4d33a6	-0.012524521
194	0x3db4fbec	0.08837113
195	0x3ca9e938	0.02074109
196	0x3c8b3636	0.016993623
197	0x3ca69066	0.020332526
198	0xbcd60654	-0.026126064
199	0x3c0f2f4b	0.008739303
200	0x3bb3321c	0.00546862
201	0xbe1804d5	-0.14845593
202	0xbd6c54ec	-0.057698175
203	0x3da34d1c	0.07973692
204	0xbddaa963	-0.10676839
205	0x3cd6e0f1	0.026230307
206	0xbb120d84	-0.0022285888
207	0xbdb956d2	-0.09049763
208	0x3c1d3794	0.00959577
209	0xbc490f0a	-0.012271652
210	0xbd3ae2f3	-0.045626592
211	0x3b8a0d1b	0.004212988
212	0x3cbaaefb	0.022788515
213	0xbde5dd75	-0.1122388
214	0x3d660c60	0.056164145
215	0x3af269c0	0.0018494651
216	0xbc94dd3a	-0.018171895
217	0x3b17835f	0.0023119075
218	0x3bf23db1	0.007392608
219	0xbbc6971b	-0.0060604936
220	0x3b9ffb75	0.004882271
221	0xbb9cb9ee	-0.0047829067
222	0xbd06e7a4	-0.032935753
223	0x3c3b9e1d	0.011451271
224	0xbbe86691	-0.007092305
225	0xbd7111ca	-0.058854856
226	0xbcaa17cf	-0.020763306
227	0xbc294587	-0.010331518
228	0xbda14180	-0.07873821
229	0x3c4a5f77	0.012351862
230	0x3c77b762	0.015119405
231	0xbe147b1c	-0.14500087
232	0x3c8717f8	0.016490921
233	0x398956cb	0.00026195342
234	0xbe097835	-0.13424762
235	0xbbb9edeb	-0.005674114
236	0x3d1a0316	0.0376006
237	0xbe5862f9	-0.21131505
238	0x3d0bf60c	0.034170195
239	0xbccb9529	-0.024851399
240	0xbd5fe763	-0.054664027
241	0x3c81f08f	0.015861778
242	0x3c020a5f	0.007937043
243	0xbe326fd2	-0.17425469
244	0x386a1ab8	5.581483e-05
245	0x3ce85b93	0.028363978
246	0xbde89c00	-0.1135788
247	0x3ce72969	0.028217988
248	0xbcada041	-0.02119458
249	0xbe043cce	-0.1291382
250	0x3c00fcec	0.007872801
251	0x3d48c1ea	0.049013056
252	0x3d99a2c7	0.075017504
253	0xba184b1c	-0.0005809532
254	0x3b689e8d	0.0035494894
255	0xbe100527	-0.14064465

lstm.weight_hh_l0 f4 [256, 64]
0	0x3ca8a1b4	0.020584919
1	0xbc27dd87	-0.010245687
2	0x3daaefde	0.08346532
3	0x3d6edbee	0.05831521
4	0x3d84ff55	0.06494013
5	0xbb4456b7	-0.0029958913
6	0xbbb15c6b	-0.0054126284
7	0xbd3da767	-0.046302225
8	0xbc1db4ea	-0.009625653
9	0x3beaa0b6	0.0071602715
10	0xbbb50e64	-0.005525397
11	0xbc878e4a	-0.01654734
12	0xbd868a7b	-0.06569382
13	0xbd3970ba	-0.04527352
14	0x3a03b882	0.0005024747
15	0xbd7d969b	-0.061911207
16	0xbd31c903	-0.04340459
17	0xbd1bb3cc	-0.038013265
18	0x3d92edd8	0.07174271
19	0x3d6c1c30	0.05764407
20	0xbc6cb510	-0.014447466
21	0x3c2f0b7b	0.0106838895
22	0x3c240a25	0.010012184
23	0xbcdcc8cf	-0.026951222
24	0x3c2acbe9	0.0104245925
25	0xbd196690	-0.037451327
26	0x3c715518	0.014729761
27	0xbaef1b5d	-0.0018242408
28	0x3d85020b	0.0649453
29	0xbc139ae3	-0.009009096
30	0x3d182edc	0.037154064
31	0x3c7e9efa	0.015540833
32	0x3bc0b1b7	0.0058805603
33	0x3d870864	0.06593397
34	0x3c18ea64	0.009333227
35	0xbcffee21	-0.031241478
36	0x3d70321f	0.05864155
37	0xbc8119c2	-0.015759353
38	0xbd6dcca4	-0.05805649
39	0xbd0a9b97	-0.03383979
40	0xbb235dc1	-0.0024927708
41	0xbd8dacaf	-0.069177024
42	0xbd04f40f	-0.032459315
43	0xbb023ccf	-0.001987267
44	0xbcf86139	-0.030319797
45	0x3d7cb752	0.061698265
46	0x3d977ec3	0.07397225
47	0x3d75dafd	0.060023297
48	0xbd819ffc	-0.06329343
49	0xbbb187b9	-0.0054177907
50	0x3d8b06ee	0.06788431
51	0xbcfe3ca3	-0.031034773
52	0x39f81a3c	0.00047321792
53	0x3c10aee6	0.008830762
54	0x3d0c949b	0.03432141
55	0x3b834e10	0.0040071085
56	0x3c10c1bb	0.008835251
57	0x3c18eafe	0.00933337
58	0xbc9d10d1	-0.019173058
59	0xbd565aa2	-0.052332528
60	0xbaa07e52	-0.0012244678
61	0xbc923ac9	-0.017850297
62	0xbb7085c6	-0.003670083
63	0x3c2be4cd	0.010491562
64	0xb709fdaa	-8.224897e-06
65	0x3a3a422c	0.00071051973
66	0x382b12ba	4.0787017e-05
67	0x3a78b3d3	0.0009487245
68	0xbac645fe	-0.001512706
69	0xba844718	-0.0010091988
70	0x3a7321e6	0.00092747656
71	0x3a02deef	0.0004992326
72	0x3a61b2a3	0.0008609688
73	0xb9be2af7	-0.00036271635
74	0x3937b1c6	0.00017518466
75	0xba26c17a	-0.0006361228
76	0xb95686d4	-0.00020458858
77	0x3a971460	0.0011526458
78	0x38ed64bc	0.00011319804
79	0xbb01d7e3	-0.0019812516
80	0xb94266e3	-0.0001853961
81	0xb9a1c160	-0.0003085239
82	0xbb1c6d14	-0.0023868727
83	0x38a55350	7.883331e-05
84	0xba87dd80	-0.0010365695
85	0xba650340	-0.0008736141
86	0xbb50f471	-0.003188398
87	0xbacd1e58	-0.0015649302
88	0x3a62145f	0.00086242513
89	0xb6978d70	-4.516616e-06
90	0xb9bb79de	-0.00035758218
91	0x3aac5d9c	0.0013150456
92	0xba2773da	-0.00063878077
93	0xba561f90	-0.00081681553
94	0x399cf697	0.00029938362
95	0x3a00c40b	0.0004912025
96	0x3a2415a0	0.0006259326
97	0x3b3f4e25	0.0029190865
98	0xba75914b	-0.00093676586
99	0xb9ae1621	-0.00033204354
100	0xba67a274	-0.0008836158
101	0xba45c687	-0.00075445365
102	0xbb2b49c6	-0.0026136502
103	0xbba57c69	-0.0050502312
104	0xba49cae7	-0.00076977763
105	0xbb3bb9c2	-0.0028644656
106	0x38bbfa7b	8.9635105e-05
107	0xbb102ce2	-0.0021999408
108	0x3a4d5407	0.00078326504
109	0xbada9238	-0.0016675657
110	0xbb6dc482	-0.0036280458
111	0xba97ec3a	-0.0011590787
112	0xbbf257f3	-0.0073957383
113	0xbba263c5	-0.004955741
114	0x3b3afa9e	0.0028530727
115	0xb9dfdb57	-0.00042697295
116	0xba8f2eca	-0.0010923978
117	0x3aa55860	0.0012614839
118	0xbba68f9f	-0.005083039
119	0xb9e4f24e	-0.0004366808
120	0xba2e5e7e	-0.00066516537
121	0x3b166dd3	0.0022953644
122	0xba98cb10	-0.0011657197
123	0x3c1be63d	0.009515342
124	0xb8869cb5	-6.418807e-05
125	0x3a6213cf	0.00086241675
126	0x3a6d3a97	0.0009049563
127	0xba16fb47	-0.0005759489
128	0xbd886896	-0.06660573
129	0x3b87bd4f	0.0041424404
130	0x3d9416f4	0.072309405
131	0x3d2689ee	0.040658884
132	0xbd597fe9	-0.0531005
133	0x3a8eedeb	0.0010904645
134	0x3c249641	0.010045589
135	0xbd81d45e	-0.06339334
136	0x3b551fd9	0.0032520203
137	0xbb369a17	-0.002786284
138	0x3bd15a9c	0.0063889753
139	0xbc25e28a	-0.010124812
140	0xbd2221a3	-0.03958286
141	0x3cb5f675	0.022212246
142	0x3c342195	0.010994335
143	0xbd8a463b	-0.06751677
144	0x3c7c9f0b	0.015418778
145	0x3cf95e84	0.030440576
146	0x3da16b02	0.07881738
147	0x3d21797d	0.0394225
148	0xbc1bb16b	-0.009502749
149	0x3d88ce31	0.06679953
150	0x3bad26dd	0.005284174
151	0xbd3a5a57	-0.04549631
152	0xbc56d022	-0.013111146
153	0xbc9f3bf6	-0.019437771
154	0x3b9cefce	0.004789329
155	0xbd2c26c1	-0.042029146
156	0xbd1c4d6d	-0.038159776
157	0xbc0f13c7	-0.008732743
158	0xbc93e22d	-0.018052185
159	0x3d7964b4	0.060887054
160	0xb96b36a8	-0.00022431707
161	0xbcbe4c4a	-0.023229737
162	0xbc80d7b4	-0.015727855
163	0x3cfe3ebc	0.031035773
164	0x3caa7d2d	0.020811642
165	0xbbc29d44	-0.0059391577
166	0x3d21068b	0.03931288
167	0xbd647c64	-0.05578269
168	0x3cc53029	0.024070816
169	0x3d2c3489	0.04204229
170	0xbd335769	-0.043784533
171	0xbc96f45c	-0.018427067
172	0xbce44036	-0.02786265
173	0xbd47824f	-0.048708256
174	0x3d8739be	0.0660281
175	0x3d8c3067	0.068451695
176	0x3c62d191	0.01384391
177	0x3d26f181	0.04075766
178	0xbc322386	-0.010872727
179	0x3c23fcfa	0.010009045
180	0xbaa1a74e	-0.0012333186
181	0xbd0281ec	-0.031862184
182	0xbd17fae4	-0.037104502
183	0x3b23377e	0.0024904902
184	0xbbb683fd	-0.0055699334
185	0xba1a93a2	-0.0005896633
186	0x3bdf4c12	0.006814488
187	0xbdac1ea2	-0.0840428
188	0x39c816be	0.00038163917
189	0xbc608257	-0.01370295
190	0x3c027083	0.007961395
191	0x3c40e727	0.011773861
192	0xbc850ad5	-0.016240517
193	0x3afe9df1	0.0019425732
194	0xbce116ce	-0.027476694
195	0xbc8890c1	-0.016670587
196	0xbce4e777	-0.027942402
197	0x3b6e45ea	0.003635759
198	0xbc267a54	-0.010161001
199	0xbd4220c2	-0.04739452
200	0x3a0e49ac	0.0005427848
201	0xbaaf4f29	-0.0013375032
202	0x3b478195	0.0030442227
203	0x3b213291	0.002459679
204	0xbc6c53e3	-0.014424297
205	0xbd08eebc	-0.0334308
206	0x3c3918fb	0.01129746
207	0xbc3e88fe	-0.011629341
208	0x3c347612	0.011014478
209	0xbc2d8d40	-0.010592759
210	0xbd0ca5e5	-0.034337897
211	0x3d82caa6	0.06386308
212	0x3bcc2b6b	0.0062307618
213	0xbc57e131	-0.013176248
214	0x3c3a22fd	0.011360881
215	0xbb299aef	-0.00258797
216	0xbc9b4193	-0.018952167
217	0xbd6bee52	-0.057600327
218	0x35e72100	1.7220445e-06
219	0xbd1f3518	-0.038868994
220	0x3b583373	0.003298965
221	0x3abbd3f8	0.0014330139
222	0xbb9731e2	-0.004614101
223	0xbbfa9030	-0.007646583
224	0x3b36c852	0.0027890396
225	0x3d353e0e	0.044248633
226	0xbbce0afb	-0.00628793
227	0xbc1e2ad7	-0.0096537685
228	0x3cefc134	0.029266931
229	0x3c8e01e0	0.017334878
230	0xbccbf09d	-0.024895007
231	0xbcba5d53	-0.022749579
232	0x3c8c9e8d	0.017165447
233	0xbcd31550	-0.025766999
234	0xbd04f27e	-0.03245782
235	0x3b97ce07	0.0046327147
236	0x3c3048da	0.010759557
237	0x3ccd0730	0.025027841
238	0xbc11d9cc	-0.0089020245
239	0x3a8555a0	0.0010172613
240	0x3caf34b7	0.021387441
241	0x3d076278	0.03305289
242	0x3be80023	0.0070800944
243	0xbc2694ea	-0.01016734
244	0xba09d94b	-0.00052585144
245	0xbc9804f7	-0.018557055
246	0x3ba2c8ad	0.00496777
247	0x3b4e3e20	0.0031470135
248	0xbb642f40	-0.0034818202
249	0xbd2579ba	-0.04039929
250	0xbc374efb	-0.011188264
251	0xbbc89090	-0.006120749
252	0xbabd849c	-0.0014459076
253	0x3bc1c22e	0.0059130406
254	0x3a222b9b	0.00061863073
255	0xbc284642	-0.010270657

lstm.bias_ih_l0 f4 [256]
0	0xbdbb400d	-0.09143076
1	0xbd16e637	-0.036840644
2	0x3dfb03c0	0.12256575
3	0x3daadd16	0.0834295
4	0xbb31cbef	-0.002712961
5	0xbd220a34	-0.03956051
6	0x3d35dead	0.044401813
7	0x3dcea158	0.10089368
8	0xbc2d11b3	-0.010563302
9	0x3baeecf4	0.0053383056
10	0xbcbb4513	-0.022860086
11	0x3d8cede7	0.06881314
12	0x3db5907a	0.08865447
13	0x3d8c4176	0.06848423
14	0x3d9ad8d1	0.07560886
15	0x3cd08aed	0.02545687
16	0xbda1af17	-0.07894724
17	0xbce5b01e	-0.02803808
18	0x3c5ea5ae	0.013589306
19	0xbd8a56c0	-0.067548275
20	0x3bfeaa56	0.0077717705
21	0x3cf6df3f	0.030135749
22	0x3c095903	0.008383038
23	0x3dd084db	0.1018159
24	0x3da6b785	0.08140472
25	0x3d2f7fec	0.042846605
26	0xbd270c1d	-0.040783037
27	0x3ddbc8ad	0.10731635
28	0x3dca95fb	0.09891888
29	0x3d6bcdb4	0.05756922
30	0x3d608340	0.05481267
31	0xbd07844b	-0.03308515
32	0x3c36b51d	0.011151579
33	0x3d0d8207	0.034547832
34	0x3d9d70d0	0.07687533
35	0xbdb492aa	-0.088170364
36	0xbd85b5cf	-0.06528818
37	0xbd276ffd	-0.040878285
38	0x3ccca2b3	0.024979925
39	0x3dda8b5d	0.10671113
40	0x3cf41e36	0.029799562
41	0x3d0a84b0	0.033817947
42	0x3df7fa26	0.12108259
43	0x3cb89573	0.0225322
44	0xbcad9660	-0.021189868
45	0xbcfadd2a	-0.030623037
46	0xbb409fd9	-0.0029392152
47	0x3c896c80	0.01677537
48	0x3e04d923	0.12973456
49	0xbccd0f97	-0.025031848
50	0x3d9105db	0.07081195
51	0xbb37cd7b	-0.002804606
52	0xbc060a45	-0.008181159
53	0x3db4bc90	0.08825028
54	0x3d9d0b84	0.07668212
55	0x3a97a46c	0.0011569387
56	0xbd46a853	-0.04850037
57	0x3da38f76	0.079863474
58	0xbd693d4a	-0.056943215
59	0xbc6c09b3	-0.014406609
60	0x3d68b81c	0.056816205
61	0xba0cbd18	-0.00053687533
62	0x3d965935	0.07341234
63	0x3d71c1be	0.059022658
64	0x3debbe5f	0.1151092
65	0xbbdba92c	-0.0067035165
66	0x3de0903a	0.10965009
67	0x3d5f8286	0.054567836
68	0x3e0f373a	0.13985911
69	0xbd182563	-0.03714503
70	0xbcfea139	-0.031082736
71	0x3d648821	0.055793885
72	0x3caf5aa9	0.021405535
73	0xbb949933	-0.0045348643
74	0xbc68249b	-0.014168884
75	0x3cceea66	0.025258254
76	0x3d7ef002	0.062240608
77	0x3c730749	0.01483328
78	0x3cb9f0a3	0.022697752
79	0xbcdbd395	-0.026834289
80	0x3d8aea9d	0.0678303
81	0x3b5a361f	0.003329642
82	0x3e008f9a	0.1255478
83	0xbd9b273b	-0.07575842
84	0x3d6a732d	0.057238746
85	0xbd1f9b27	-0.038966324
86	0xbcd88b00	-0.026433468
87	0x3cf5bf64	0.029998489
88	0x3d8fb412	0.070167676
89	0xbd42b771	-0.047538225
90	0x3db7fe68	0.08984071
91	0x3dfa4d7a	0.12221809
92	0x3d160035	0.03662129
93	0xbd001218	-0.031267256
94	0x3d3b7932	0.045769878
95	0x3e03c4ed	0.1286809
96	0x3c02b2fd	0.007977244
97	0x3c9f4ebf	0.019446729
98	0xbd45a6ef	-0.048254903
99	0x3b3d8670	0.0028919242
100	0x3db0b5eb	0.08628448
101	0xbd7a1301	-0.06105328
102	0xbc45e883	-0.012079361
103	0xbd38e454	-0.045139626
104	0xbbaec873	-0.005333954
105	0x3d872fd9	0.06600923
106	0x3d7a982e	0.061180286
107	0x3d5ec4c9	0.054386888
108	0x3b7a4b03	0.0038191683
109	0x3d2a2a9f	0.041544553
110	0x3c981f00	0.01856947
111	0x3c55a74d	0.013040376
112	0x3c7c4f68	0.015399791
113	0x3cb7d2f1	0.022439452
114	0x3e04a6d1	0.1295426
115	0xbc86dc6b	-0.016462525
116	0xbca5d72a	-0.0202442
117	0xbd92c822	-0.071670786
118	0xbd7cbad9	-0.06170163
119	0xbb2e5203	-0.0026599176
120	0xbd209ef5	-0.039214093
121	0x3e02792a	0.12741533
122	0x3dc64cef	0.09682643
123	0x3d96a1d7	0.07355087
124	0x3d00351a	0.03130064
125	0x3c81b3e0	0.015832841
126	0x3d6ad36c	0.057330534
127	0x3d290727	0.041266587
128	0xbda29bd8	-0.07939881
129	0xbe00430d	-0.12525578
130	0x3dfd6c74	0.123742014
131	0x3bc7966d	0.00609093
132	0xbbe1918c	-0.0068838056
133	0x3dd82859	0.10554571
134	0xbe026cea	-0.1273686
135	0xbd8c492b	-0.06849893
136	0x3d87875e	0.06617616
137	0xbdca0495	-0.09864155
138	0xbc1303c6	-0.008973068
139	0x3cdb19f3	0.026745772
140	0xbdee25dd	-0.116283156
141	0x3d157596	0.03648909
142	0xbd07b534	-0.033131793
143	0x3d5c9480	0.053852558
144	0x3e185ed6	0.14879927
145	0x3d88695a	0.06660719
146	0x3deda78f	0.11604225
147	0x3db0e2b7	0.086369924
148	0x3e0b405f	0.13598774
149	0x3d2fbea8	0.042906433
150	0xbd3534b9	-0.044239733
151	0x3d43506d	0.047684122
152	0xbd97635f	-0.073920004
153	0xbddb8af9	-0.10719866
154	0xbe1931fa	-0.14960471
155	0xbd1a8fe4	-0.03773488
156	0x3df7f5f2	0.12107457
157	0x3d942d9c	0.07235262
158	0xbdee99aa	-0.11650403
159	0x3df42809	0.119216986
160	0x3d990c0b	0.07473
161	0x3c8b600c	0.017013572
162	0x3ccef23a	0.025261987
163	0x3cba8b38	0.022771463
164	0x3bea0fc5	0.007142993
165	0x3cad8f22	0.021186415
166	0xbdfc0add	-0.123067595
167	0xbe081e8f	-0.13292907
168	0xbe1056f8	-0.14095676
169	0x3d96c837	0.07362407
170	0xbdd50fc9	-0.104034014
171	0xbc3edae0	-0.011648864
172	0xbcacb31a	-0.021081496
173	0x3daf7640	0.08567476
174	0x3e1488bd	0.14505287
175	0x3e052ed3	0.13006143
176	0xbe204a85	-0.15653427
177	0xbe1fd23a	-0.15607539
178	0x3e0011e6	0.12506828
179	0xbdac20ed	-0.084047176
180	0x3de7f3b6	0.11325781
181	0xbd784c87	-0.060619857
182	0xbdd76bc3	-0.10518601
183	0x3d0751a8	0.033036858
184	0xbd7c005e	-0.061523788
185	0xbe1fce13	-0.15605955
186	0xbd998092	-0.07495226
187	0xbe0d4e7b	-0.13799469
188	0x3db451c9	0.08804662
189	0xbd47f146	-0.04881408
190	0xbddfdcaa	-0.1093076
191	0xbd292bcc	-0.041301534
192	0xbc23f729	-0.010007658
193	0x3d1e4c43	0.038646948
194	0x3c2889fe	0.010286806
195	0xbd7644ee	-0.06012433
196	0xbda8ddcc	-0.082454294
197	0xbd355498	-0.044270128
198	0xbd94f611	-0.07273496
199	0xbd0492b4	-0.03236647
200	0x3a8fa478	0.001095905
201	0xbc8879ee	-0.016659703
202	0xbc6e1add	-0.014532772
203	0xbbc5bc53	-0.006034413
204	0xbd10f807	-0.035392787
205	0xbcf3bfe9	-0.029754596
206	0xbd3845d0	-0.044988453
207	0x3de97c97	0.11400717
208	0xbd8a7d20	-0.06762147
209	0xbd62eb9f	-0.055400487
210	0xbd40ed4b	-0.0471013
211	0x3ccac3a2	0.024751488
212	0x3d5d0891	0.053963248
213	0x3d88f988	0.06688219
214	0x3d5b458d	0.053533126
215	0x3dd6a8a6	0.10481386
216	0x3cc209ff	0.023686407
217	0x3da545c5	0.08069948
218	0xbd183ccd	-0.03716736
219	0x3d810ddf	0.06301474
220	0x3de1d444	0.110268146
221	0xbb4b6cbc	-0.0031040153
222	0x3d358476	0.044315778
223	0xbced65a9	-0.02897914
224	0xbcb23f4c	-0.021758698
225	0xbd1af5f4	-0.037832215
226	0x3d29e373	0.041476678
227	0x3c220c71	0.009890662
228	0x3d6e24b1	0.05814046
229	0x3bbddb99	0.0057940003
230	0xbd5b27d1	-0.05350477
231	0x3defb6c4	0.11704782
232	0x3ded07f5	0.11573783
233	0x3d878264	0.06616667
234	0x3de870c6	0.11349635
235	0x3d8a8a01	0.067646034
236	0x3d56f1d2	0.05247671
237	0x3dcf0136	0.10107653
238	0xbd16dac7	-0.036829736
239	0x3d39dc4c	0.045376107
240	0x3d80e2e3	0.06293275
241	0x3bb460ef	0.0055047194
242	0x3dd27e18	0.10277957
243	0x3d323165	0.043504138
244	0x3c0be646	0.008538788
245	0xbd1de25b	-0.038545948
246	0x3dccd4d9	0.10001535
247	0x3aac3237	0.0013137524
248	0xbd1ef1ba	-0.038804747
249	0x3df54d6d	0.119776584
250	0xbd7da74a	-0.061927117
251	0xbc37958e	-0.01120509
252	0x3d53d7b7	0.051719394
253	0x3dbb14ec	0.0913485
254	0xbc363d53	-0.011123019
255	0x3cecc711	0.028903516

lstm.bias_hh_l0 f4 [256]
0	0x3cb00aba	0.02148949
1	0xbd118707	-0.035529163
2	0x3dc6f5a6	0.097148225
3	0x3d074777	0.03302714
4	0x3d0e4879	0.034737084
5	0xbd84f4e7	-0.06492024
6	0xbd90b1d3	-0.07065167
7	0x3daf44bb	0.08558031
8	0x3cc592e7	0.0241179
9	0xbbcf9486	-0.006334844
10	0x3d3b601d	0.045745958
11	0x3d8faab6	0.070149824
12	0xbd9a5d10	-0.075372815
13	0x3d73624b	0.05941991
14	0xbd7e2fb2	-0.062057205
15	0x3dcfda3c	0.10149047
16	0x3c884ec2	0.016639117
17	0x3db7df6b	0.089781605
18	0xbd3310ae	-0.04371708
19	0x3db0eb28	0.086386025
20	0xbc9f6666	-0.019458007
21	0xbd8dced5	-0.06924216
22	0x3c072e4d	0.008250785
23	0x3cfc4a27	0.030797077
24	0xbd49b7cb	-0.049247544
25	0xbcdc177b	-0.026866665
26	0x3d9707fe	0.07374571
27	0x3d3b60e2	0.04574669
28	0xbd47beb2	-0.048765846
29	0x3d848f2a	0.06472619
30	0xbd0c8b4c	-0.03431253
31	0x3dde2d63	0.108485006
32	0x3cbde5da	0.02318089
33	0x3d4dc419	0.05023584
34	0xbd9623bb	-0.07331034
35	0xbc6ced26	-0.0144608375
36	0x3d552693	0.05203874
37	0x3dabb6fc	0.08384511
38	0x3dbbfe2e	0.0917934
39	0xbcc8b6d3	-0.02450124
40	0x3d75a913	0.059975695
41	0x3d961b58	0.07329434
42	0x3ca8e316	0.020616096
43	0x3cf4b61f	0.029871998
44	0xbd239f92	-0.0399471
45	0x3e0a0880	0.13479805
46	0xbc9572d0	-0.018243223
47	0x3e11b1b9	0.14227952
48	0x3e0b3532	0.13594511
49	0x3c9c5e8d	0.019088054
50	0x3dabb613	0.08384337
51	0xbca18d1c	-0.019720607
52	0x3bf6e39e	0.0075344583
53	0x3d14b71a	0.03630743
54	0x3ba33c62	0.0049815634
55	0x3a795dc4	0.00095125684
56	0xbca1e058	-0.019760296
57	0x3bc15627	0.0059001627
58	0x3d512c7a	0.051067807
59	0x3d7d58ef	0.06185239
60	0xb8e69b54	-0.00010996187
61	0x3dc74e05	0.09731678
62	0xbc8f8b3a	-0.017522443
63	0xbc583e76	-0.013198486
64	0x3d84030f	0.06445896
65	0x3d31669d	0.04331075
66	0xbda1b607	-0.07896047
67	0x3c44733b	0.011990364
68	0x3e0e245d	0.13881059
69	0x3c3fbc42	0.011702599
70	0xbd146799	-0.03623161
71	0x3d0ef16e	0.034898214
72	0xbcf63d0f	-0.030058412
73	0xbc277e75	-0.010223021
74	0xbcc76206	-0.024338733
75	0xbd452ec8	-0.048140317
76	0xbd9826a0	-0.07429242
77	0x3d999080	0.07498264
78	0xbc242256	-0.010017952
79	0x3cc9dfc1	0.024642827
80	0xbcead706	-0.028666984
81	0x3c839584	0.016062506
82	0xbda625de	-0.08112691
83	0x3df18254	0.11792436
84	0x3d8b2682	0.06794454
85	0x3d80379a	0.06260605
86	0xbc028d98	-0.007968329
87	0x3cd7c5eb	0.026339492
88	0xbd8800a0	-0.06640744
89	0x3cca726b	0.024712762
90	0xbd415138	-0.047196597
91	0xbd4d9dc8	-0.0501993
92	0x3c664bd6	0.014056167
93	0x3d3960f5	0.04525848
94	0xbd338169	-0.043824587
95	0x3db8600b	0.09002694
96	0x3d455f42	0.048186548
97	0xbd3a8e9b	-0.045546155
98	0x3d798806	0.060920738
99	0xbb98d1c8	-0.0046636797
100	0xbbb22fc5	-0.0054378235
101	0x3db06389	0.08612735
102	0xbd0edbc5	-0.034877557
103	0x3d375e1d	0.044767488
104	0x3c141d86	0.009040242
105	0x3dd5757a	0.104227975
106	0x3d129024	0.035781994
107	0x3d984a7b	0.07436081
108	0x3b4a697b	0.0030885625
109	0xbd7cfaed	-0.06176274
110	0x3d3f873c	0.04675983
111	0x3d173ad0	0.036921322
112	0xbb383a98	-0.0028111096
113	0x3e126134	0.14294893
114	0xbd78316a	-0.060594
115	0xbccaa4f1	-0.024736853
116	0xbca9c29f	-0.020722685
117	0x3da6a52f	0.08136975
118	0xbd25d1c6	-0.04048326
119	0xba930312	-0.0011216125
120	0x3c39feeb	0.011352281
121	0x3df742e2	0.12073304
122	0x3d76ef72	0.060286947
123	0xbce498eb	-0.027904948
124	0x3d0a6151	0.033784214
125	0x3d5877d9	0.05284867
126	0x3bccb418	0.006247055
127	0x3d424c11	0.047435824
128	0x3c23c3b4	0.00999539
129	0xbdb6f86a	-0.089341
130	0x3de083b6	0.10962622
131	0x3dbeca52	0.09315933
132	0x3e13ce52	0.14434174
133	0xbc646e23	-0.013942274
134	0x3d88d6ad	0.06681571
135	0xbd9c07c4	-0.07618669
136	0xbddfbacb	-0.109243
137	0x3de82caa	0.11336644
138	0x3c918c07	0.017766966
139	0xbdaf0c98	-0.08547324
140	0xbdd0331a	-0.10165997
141	0xbe19425a	-0.14966717
142	0x3da8e936	0.082476065
143	0xbdc4ff1d	-0.096189715
144	0xbcd28b6c	-0.025701247
145	0xbde98b12	-0.11403479
146	0x3e1c5372	0.15266207
147	0x3e14d921	0.14535953
148	0xbce4c2a7	-0.027924849
149	0x3d70c2b0	0.05877942
150	0xbdc51515	-0.09623162
151	0x3d556928	0.052102238
152	0x3d1f9b21	0.0389663
153	0x3c9c07b7	0.019046647
154	0xbdd51e3c	-0.104061574
155	0xbdfafcb4	-0.122552305
156	0x3d48c691	0.049017493
157	0x3d89d597	0.06730192
158	0x3c940dc9	0.01807298
159	0x3b9e9156	0.0048391027
160	0xbde56d05	-0.112024345
161	0x3dfcffc6	0.123534724
162	0x3d7a42fd	0.06109904
163	0xbd92ac35	-0.07161752
164	0x3dc78491	0.09742082
165	0x3d2086c1	0.03919101
166	0xbe070926	-0.13187084
167	0xbe17cec7	-0.14824973
168	0xbd5766d1	-0.052588288
169	0xbda3e0b3	-0.08001842
170	0xbe04a824	-0.12954766
171	0xbe09ce33	-0.13457565
172	0xbd9200ee	-0.071290836
173	0x3de71eb5	0.11285154
174	0xbbe983f6	-0.0071263267
175	0xbcb830a4	-0.022484131
176	0xbdc29bc9	-0.0950237
177	0xbd6a3ce2	-0.05718697
178	0xbca54860	-0.020176113
179	0x3dfa0d4c	0.122095674
180	0xbd1aa7ff	-0.03775787
181	0x3d127f15	0.035765726
182	0xbdc96edc	-0.09835598
183	0xbd2361a4	-0.03988804
184	0x3b215616	0.0024617962
185	0x3d74da02	0.05977822
186	0x3dfeda76	0.12444012
187	0xbd499496	-0.04921397
188	0x3c6bc91b	0.014391209
189	0x3917f4a5	0.0001449162
190	0xbb49897b	-0.003075211
191	0x3d90a7fd	0.07063291
192	0x3d6c380e	0.057670645
193	0xbc374ad9	-0.011187279
194	0x3b969d46	0.004596385
195	0x3d33ae86	0.04386761
196	0x3d6b4673	0.057440232
197	0xbd016df1	-0.03159899
198	0x3d6e2453	0.05814011
199	0x3db9d8e3	0.09074571
200	0x3c2ef898	0.010679387
201	0xbb74faee	-0.003738101
202	0xbc93e9a7	-0.01805575
203	0xbd9e3e71	-0.077267535
204	0x3e0c36cb	0.13692777
205	0x3c905272	0.017617438
206	0xbda07bfe	-0.0783615
207	0xbd012c17	-0.031536188
208	0x3a8a497e	0.0010550467
209	0x3dd0cd3c	0.10195395
210	0x3d650ed8	0.05592236
211	0x3ca59f39	0.020217525
212	0xbc81b890	-0.015835077
213	0x3de028dc	0.10945293
214	0x3c8225e2	0.015887205
215	0xbcb260c8	-0.021774665
216	0xbd94ac33	-0.07259407
217	0x3db278e2	0.08714463
218	0xbc9722f8	-0.018449292
219	0x3dcff428	0.10153991
220	0x3c888ea5	0.01666958
221	0x3d68f0ae	0.056870155
222	0x3c224dbc	0.009906229
223	0x3dfdf76a	0.12400706
224	0xbd16184f	-0.036644276
225	0x3e043d8b	0.12914102
226	0xbc1e01fe	-0.00964403
227	0x3c8ef7c0	0.01745212
228	0x3dba857e	0.09107493
229	0x3d0f7e3e	0.035032503
230	0x3ddf0577	0.10889714
231	0xbd9cf1a7	-0.07663279
232	0xbd47a6a6	-0.048742913
233	0x3c630492	0.01385607
234	0x3c880637	0.016604526
235	0x3d4f2972	0.050576635
236	0x3ce87a8a	0.028378744
237	0xbd380b04	-0.04493238
238	0xbd9f306c	-0.077729076
239	0x3d77ca60	0.060495734
240	0xbc09f67f	-0.008420586
241	0x3dab99e1	0.083789594
242	0xbd7ede43	-0.062223684
243	0x3c088b1d	0.008333948
244	0xbce898cc	-0.028393172
245	0x3d74a61c	0.059728727
246	0xbc1f1ec8	-0.009711929
247	0x3a23aa44	0.0006243328
248	0x3cbf9273	0.023385262
249	0xbdaed111	-0.0853597
250	0x3d5e750c	0.054310843
251	0x3cec5155	0.028847376
252	0xbcd02442	-0.025407914
253	0x3d7b4a38	0.061350077
254	0x3d8c2ab6	0.06844084
255	0x3d5fc729	0.054633293

lstm.weight_ih_l1 f4 [256, 64]
0	0xbd8dfae7	-0.069326214
1	0xba32a856	-0.0006815245
2	0xbd1aa817	-0.03775796
3	0xbcf673ae	-0.030084457
4	0xbb6fbe7e	-0.0036582048
5	0xbc1fb66b	-0.009748082
6	0xbcd28c3d	-0.025701636
7	0x3cf6c4b5	0.030123094
8	0xbb202c5a	-0.0024440498
9	0x3ac7d36c	0.0015245504
10	0x3a9ef239	0.0012126631
11	0x3b1eaac2	0.0024210666
12	0xbcfe8d70	-0.031073302
13	0x3d05ef00	0.03269863
14	0xbc368db8	-0.011142187
15	0xbc8a5dcb	-0.016890427
16	0x3cee0e3d	0.029059524
17	0x3c93fb6a	0.01806422
18	0x3ced8274	0.028992869
19	0xbc5e67c7	-0.013574547
20	0x3b5997ff	0.003320217
21	0x3c74e105	0.014946227
22	0x3b21ce5c	0.002468965
23	0x3cf05e6b	0.029341897
24	0x3c413d62	0.01179442
25	0x3abd864f	0.0014459583
26	0xbd62b55b	-0.055348735
27	0x3c9b5b4d	0.018964434
28	0xbc70ac7e	-0.014689563
29	0x3c20168e	0.009771002
30	0xbc92ca66	-0.017918777
31	0xbd014771	-0.031562272
32	0xba5a04b7	-0.00083167426
33	0xbd34570d	-0.04402833
34	0xbb10f122	-0.0022116383
35	0xbc5e58d6	-0.013570985
36	0xbb70e763	-0.003675901
37	0x3d381114	0.044938162
38	0x3d0b02f8	0.033938378
39	0x3d1a1bf8	0.03762433
40	0x3d1fd771	0.03902382
41	0xbd11cabb	-0.03559373
42	0x3bb7ce33	0.0056092977
43	0x3c1a902a	0.009433785
44	0xbc8417c0	-0.016124606
45	0xbd03ed95	-0.032208998
46	0x3cbd6b2f	0.023122398
47	0x3c1eb3bb	0.009686406
48	0xbb95efed	-0.0045757205
49	0xbcbfd4a7	-0.02341683
50	0x3b3ce06a	0.0028820285
51	0x3c01e8e5	0.007929062
52	0x3ab9c447	0.0014172875
53	0xbbba2d57	-0.0056816745
54	0xbd130659	-0.035894725
55	0x39da338f	0.00041618614
56	0xba8a5e33	-0.0010556638
57	0xbca07981	-0.019589188
58	0xbb8fffc3	-0.004394503
59	0xbda37694	-0.07981601
60	0x39a45c83	0.00031349444
61	0xba577922	-0.00082196493
62	0xba87fed1	-0.0010375624
63	0xbc592c27	-0.013255156
64	0xbd6050fe	-0.05476474
65	0xbb3b0609	-0.0028537533
66	0x3c7b4e05	0.0153384255
67	0xbcc93107	-0.02455951
68	0x3d840bb6	0.06447546
69	0x3bec0b39	0.0072034863
70	0x3c0dad49	0.008647271
71	0x39700494	0.00022889889
72	0xbb9dfefe	-0.004821657
73	0x3b2358c7	0.0024924742
74	0x3c2c8766	0.010530328
75	0xbc9ba4bd	-0.018999452
76	0x3b8d62c2	0.0043147514
77	0xbd00d929	-0.0314571
78	0x3c58f07d	0.013240931
79	0xbd28db45	-0.041224737
80	0xb9075466	-0.00012906044
81	0xbd26923b	-0.0406668
82	0xbcfea055	-0.031082312
83	0x3c237a4d	0.009977889
84	0x3c0ac348	0.00846941
85	0x3c92950b	0.017893335
86	0x3ba19266	0.004930782
87	0x3c6f678e	0.014612092
88	0xbb37698b	-0.0027986492
89	0xbbfe1853	-0.0077543645
90	0xbb9527ee	-0.004551879
91	0x3b45c4dd	0.0030177154
92	0xbcb15118	-0.021645114
93	0x3a38991d	0.00070418586
94	0xbc03b2b7	-0.008038214
95	0xbc43c316	-0.011948368
96	0xba1a05ed	-0.0005875517
97	0x3bb77110	0.005598195
98	0x3c5d61db	0.0135121
99	0x3ca3741c	0.019952826
100	0x3d55db2c	0.05221097
101	0x3d066f82	0.032821186
102	0x3aa359cf	0.0012462678
103	0x3c7feeb6	0.015620878
104	0x3b86887a	0.0041056247
105	0xbd654143	-0.05597044
106	0xbb12f658	-0.0022424664
107	0xbd1e10f8	-0.0385904
108	0x3b3e714d	0.0029059232
109	0x3d881d9c	0.066462725
110	0xbbef6c4b	-0.0073066107
111	0x3d7d3bde	0.061824672
112	0xbc23e3e2	-0.010003062
113	0xbd874d24	-0.0660651
114	0x3d169865	0.03676643
115	0x3c29140b	0.01031972
116	0x3b82ca7a	0.0039914222
117	0xbc179902	-0.0092527885
118	0xbd373258	-0.044725746
119	0x3a3fb92f	0.0007313666
120	0x3bed7338	0.007246401
121	0x3c9016b0	0.017588943
122	0x3c4f1f3e	0.012641726
123	0x3be3acdb	0.006948096
124	0x3ab802b9	0.0014038897
125	0xbb7c7871	-0.0038523937
126	0xbc18972f	-0.009313389
127	0x3c4b30ed	0.0124018015
128	0x3d09cc25	0.033641953
129	0xbb7da033	-0.0038700223
130	0x3d65ec7e	0.05613374
131	0x3d6841ec	0.056703493
132	0x3d8e34e3	0.06943681
133	0x3c70b24b	0.014690946
134	0xbae5563a	-0.0017497011
135	0xbb754220	-0.0037423447
136	0x3a829c36	0.0009964767
137	0xbb088911	-0.002083365
138	0x3c49f7e8	0.012327172
139	0xbd0de997	-0.034646597
140	0xbd8afc1e	-0.06786369
141	0x3cfdf592	0.031000886
142	0xbcc00887	-0.023441566
143	0x3c7e9f64	0.015540931
144	0x3c8d0ac6	0.017217051
145	0x3d15b538	0.036549777
146	0xbd102603	-0.0351925
147	0x3cbf0cab	0.02332147
148	0x3bd62eb4	0.006536329
149	0x3d56701c	0.05235301
150	0x3b89e80c	0.0042085703
151	0x3d101fdb	0.03518663
152	0x3c174298	0.009232186
153	0x3bcafbc6	0.0061945645
154	0x3c56f261	0.013119311
155	0x3c12f3f3	0.008969295
156	0xbcb2aac8	-0.02180995
157	0x3b93755e	0.0045000752
158	0xbce413f6	-0.02784155
159	0x3cbcb0cf	0.023033528
160	0xbaa9524e	-0.0012918205
161	0x3d3f9150	0.04676944
162	0x3c9fd357	0.019509954
163	0x3bf06d2d	0.0073372335
164	0x3d8713fc	0.065956086
165	0x3d5f32a8	0.05449167
166	0x3d055c84	0.032558933
167	0x3d37eef8	0.044905633
168	0xbc031fb1	-0.008003161
169	0xbc666762	-0.014062734
170	0x3c91c66d	0.017794812
171	0xbd49b9be	-0.049249403
172	0xbceee841	-0.029163482
173	0x3cc48091	0.023987086
174	0x3c66878e	0.014070405
175	0x3c61f1ce	0.013790561
176	0xbc7b0930	-0.015322015
177	0x3d2a835b	0.041629177
178	0xbd05da9b	-0.03267918
179	0x3c203150	0.009777382
180	0x3b14ea35	0.0022722606
181	0x3c8a655f	0.01689404
182	0x3a4e67c8	0.0007873741
183	0x3a2a8e39	0.0006506178
184	0x3b7da403	0.0038702495
185	0x3a55e2f1	0.0008159122
186	0xbc112495	-0.0088588195
187	0xbcf9f0c3	-0.030510312
188	0x3a2fddbc	0.0006708761
189	0x39b5dded	0.00034688358
190	0xbb997490	-0.004683085
191	0xbc106b29	-0.0088146115
192	0xbd685709	-0.05672363
193	0x3a39e016	0.00070905813
194	0xbcee61c1	-0.029099347
195	0xbc046661	-0.00808105
196	0xbc2115c3	-0.009831849
197	0x3be90330	0.0071109757
198	0xbbc13ad4	-0.0058969054
199	0xbcf712ce	-0.030160334
200	0xbb8bfb34	-0.004271889
201	0x3a3ccfb6	0.0007202582
202	0x3ba78883	0.005112709
203	0xbbaf244d	-0.0053449036
204	0xbcf18058	-0.029480144
205	0xbc8529b4	-0.016255237
206	0x3cdf85d0	0.027285486
207	0xbcf1e1b1	-0.029526563
208	0x3d08b268	0.033373266
209	0xbc0468e5	-0.008081649
210	0x3cb423bc	0.021989696
211	0xbc27ff67	-0.010253764
212	0x3b07019e	0.002060033
213	0xbc034d50	-0.008014038
214	0xbad0cf3b	-0.00159309
215	0x3d1a0cfa	0.03761003
216	0xbbcfe0dc	-0.006343944
217	0xbd03b228	-0.032152325
218	0xbc603e7f	-0.013686775
219	0x3c531a24	0.01288465
220	0xbc155bd6	-0.009116134
221	0x3ac4e881	0.0015022905
222	0x3b2c33e2	0.0026276042
223	0xbc443fd0	-0.011978105
224	0x3bf4b227	0.0074675265
225	0xbc17f828	-0.009275474
226	0x3b9719b2	0.0046112174
227	0xbb2b82ce	-0.0026170495
228	0x3cc920a0	0.02455169
229	0xbc1ed406	-0.009694105
230	0xbc7ec250	-0.015549257
231	0xbc20d2a9	-0.00981585
232	0xbc8d52ba	-0.017251361
233	0xbcf972cf	-0.030450253
234	0x3b2923d3	0.0025808706
235	0xbcace08a	-0.021103162
236	0xba310cec	-0.00067539397
237	0xbc462fcf	-0.012096359
238	0x3cd8d8d1	0.026470574
239	0x3d47e864	0.04880561
240	0xbd5ac10d	-0.053406764
241	0x3cea3c7d	0.028593296
242	0x3b9aae33	0.004720473
243	0x386e8dde	5.6875746e-05
244	0x3ab19453	0.0013548232
245	0x3c203a47	0.009779519
246	0xbc3c0b5e	-0.0114773195
247	0xb9c449c4	-0.00037438993
248	0xbab9c6d9	-0.0014173641
249	0xbc5e2660	-0.013558954
250	0x3c0b5bbd	0.008505759
251	0x3d0f6043	0.03500391
252	0x3b615cda	0.003438762
253	0x3b6bc3f2	0.0035974947
254	0xbbcb70c6	-0.006208512
255	0xbc0491db	-0.008091415

lstm.weight_hh_l1 f4 [256, 64]
0	0x3d51c020	0.051208615
1	0xbcacaee7	-0.021079494
2	0xbdaea0bf	-0.08526754
3	0xbd1f714b	-0.038926404
4	0x3dbe3f44	0.09289411
5	0x3d0896d9	0.033346985
6	0x3d1d0a71	0.038340036
7	0xbdb07a46	-0.08617072
8	0xbae58116	-0.0017509784
9	0xbd6259d6	-0.055261455
10	0xbd09722f	-0.03355616
11	0x3d353c85	0.04424717
12	0x3d08bccd	0.03338318
13	0x3d5c39ea	0.05376617
14	0xbd20ac29	-0.039226685
15	0xbca576ff	-0.020198343
16	0xbbf68c76	-0.0075240685
17	0x3cc520b8	0.024063453
18	0xbdacc200	-0.0843544
19	0x3db4ae98	0.088223636
20	0x3d9a4722	0.07533099
21	0xbd89e84d	-0.06733761
22	0xbce7fec7	-0.02831973
23	0x3bcbcb5f	0.006219312
24	0x3d01a34c	0.031649873
25	0x3cbc9ada	0.023023058
26	0xbbf25444	-0.007395299
27	0xbcfedcd2	-0.031111155
28	0xbcb3beaa	-0.021941502
29	0xbd8b400c	-0.06799325
30	0xbbdd20e6	-0.0067483066
31	0x3d4abf7d	0.049499024
32	0x3d545734	0.051840976
33	0x3c20fbd1	0.009825663
34	0xbdc3c8d5	-0.0955979
35	0xbd63692c	-0.05552022
36	0xbce4cc54	-0.027929462
37	0x3b9581b2	0.00456258
38	0xbd951964	-0.072802335
39	0xbce2c8cd	-0.02768364
40	0xbd0cf655	-0.034414608
41	0x3d13d4e0	0.036091685
42	0xbccfab72	-0.025350306
43	0x3dd557a7	0.10417109
44	0xbcc92a16	-0.024556201
45	0x3d987e8a	0.074460104
46	0x3c92f6ed	0.017940009
47	0xbd79ca83	-0.060984146
48	0x3d6fa211	0.058504168
49	0x3d42fd4d	0.047604848
50	0xbd880fe5	-0.06643657
51	0xbcb41ff0	-0.021987885
52	0x3d39af2d	0.045333076
53	0x3ce28f10	0.027656108
54	0x3c8c26dd	0.017108375
55	0xbd385e49	-0.045011792
56	0xbce84dd2	-0.02835742
57	0x3d377665	0.044790644
58	0xbd738c83	-0.059460174
59	0xbd6b4fb2	-0.05744905
60	0xbc9871c8	-0.018608943
61	0x3c02eb9d	0.007990745
62	0x3c9b2874	0.018940188
63	0x3cc159c8	0.023602381
64	0x3d4ed222	0.050493367
65	0x3c18c377	0.009323946
66	0x3c8b23c9	0.016984837
67	0xbd6b65cc	-0.057470128
68	0x3d987109	0.07443435
69	0x3ca31702	0.019908432
70	0xbc7e6906	-0.015527969
71	0xbcb379c7	-0.021908654
72	0xbba89530	-0.0051447377
73	0x3c624a07	0.013811595
74	0x3d9700c3	0.07373192
75	0xbc6053e7	-0.013691879
76	0xbc75ceab	-0.015002887
77	0x3d06e120	0.03292954
78	0xbb2b8fba	-0.0026178197
79	0xbcb1b173	-0.02169106
80	0xbb99b890	-0.004691191
81	0xbb8b9e06	-0.004260781
82	0x3d32b577	0.04363009
83	0x3c62fd4c	0.013854336
84	0x3c3a944f	0.011387899
85	0xbd6683d2	-0.056278057
86	0xbd6382b3	-0.055544566
87	0x3d4b763e	0.04967331
88	0x3d013b7d	0.031550873
89	0xbd96b97f	-0.07359599
90	0x3c13ab7e	0.009013055
91	0x3d032e28	0.03202644
92	0xbcce50b6	-0.02518497
93	0xbdbb223e	-0.091373906
94	0x3c224230	0.009903476
95	0x3d518c27	0.05115905
96	0x3cc1904c	0.023628376
97	0x3c86f9f7	0.016476614
98	0xbcdfe96a	-0.02733298
99	0x3cd4e4f0	0.025988072
100	0x3d7e9f62	0.062163718
101	0x3da1d8d8	0.07902688
102	0x3c6ccfff	0.014453887
103	0xbcbe63f4	-0.02324102
104	0x3c923983	0.01784969
105	0x3c819f00	0.015822887
106	0x3c563064	0.013073061
107	0x3cfb74bf	0.030695317
108	0xbdbfd50d	-0.09366808
109	0x3d653370	0.055957258
110	0xbc873600	-0.016505241
111	0xbc7c27ce	-0.01539035
112	0x3d4737fb	0.04863737
113	0xbcada3c1	-0.021196248
114	0x3c3441c9	0.0110020125
115	0xbc609255	-0.013706763
116	0x3d073398	0.033008188
117	0x3d13018e	0.035890155
118	0xbd2956b4	-0.041342452
119	0xbd59e197	-0.053193655
120	0xbd48a9e1	-0.048990134
121	0x3ca57339	0.020196544
122	0xbd86d850	-0.06584227
123	0xbd2b0d07	-0.04176047
124	0xbd090ff2	-0.033462472
125	0x3c99fefb	0.018798342
126	0x3d8533ca	0.065040186
127	0x3cd52a2a	0.026021082
128	0xbbf05d19	-0.007335317
129	0xbbe304ac	-0.006928047
130	0x3d3c4de4	0.04597272
131	0x3d18084b	0.037117284
132	0x3d6a0a18	0.057138532
133	0xbc03ba9b	-0.008040096
134	0x3c919b47	0.017774237
135	0xbd618d85	-0.055066604
136	0xbb11af4c	-0.002222973
137	0x3c589513	0.013219136
138	0x3c4a7694	0.012357373
139	0x3c9fcd3b	0.019507041
140	0xbdb94aee	-0.09047495
141	0x3aa7bd68	0.0012797536
142	0xbc852992	-0.016255174
143	0xbd9e8d23	-0.077417634
144	0x3d48c112	0.04901225
145	0xbd121fae	-0.035674743
146	0xbcdf328e	-0.027245786
147	0xbbdc4b07	-0.006722811
148	0xbc4e6554	-0.012597401
149	0xbd2e780f	-0.042594966
150	0x3d9bc5b4	0.07606068
151	0x3d62a768	0.055335432
152	0x3cc8938a	0.024484415
153	0xbd92e2b5	-0.07172147
154	0xbcb2c60a	-0.021822948
155	0xbc855c25	-0.01627929
156	0xbd93453a	-0.07190938
157	0xbc6f4747	-0.014604396
158	0x3c69fbf8	0.014281265
159	0x3c03bf43	0.008041206
160	0x3c2809cb	0.010256241
161	0x3bfd8311	0.0077365716
162	0x3d212ded	0.03935044
163	0xbce83212	-0.028344188
164	0x3c9cd098	0.019142434
165	0xbd7e006d	-0.062012125
166	0x3d5c78ca	0.05382613
167	0x3cc3c910	0.023899585
168	0xbbc3e2e7	-0.0059779766
169	0x3c6ba7ad	0.014383239
170	0xbc7ed69a	-0.015554095
171	0x3dd178dd	0.10228131
172	0x3cd05a3e	0.025433656
173	0x3c60ff85	0.013732796
174	0xbd852ab4	-0.065022856
175	0x3c64f5a3	0.01397458
176	0xbc4f5fb6	-0.012657097
177	0xbc1ef380	-0.00970161
178	0xbd05ffbb	-0.032714587
179	0xbc4e0d7e	-0.012576459
180	0x3d50c567	0.050969508
181	0xbd247386	-0.040149234
182	0xbd813459	-0.06308813
183	0x3c3fc703	0.011705163
184	0x3dac53bd	0.08414409
185	0x3cb40f87	0.02198006
186	0xbb2ce137	-0.0026379356
187	0xbc9d2269	-0.019181447
188	0xbd263a0b	-0.040582698
189	0xba65108a	-0.0008738121
190	0x3d13e422	0.036106236
191	0x3c69c019	0.014266991
192	0xbcf0cf54	-0.029395737
193	0xbd229c56	-0.039699875
194	0x3cece86e	0.028919425
195	0xbc5828ed	-0.013193351
196	0x3bb5f890	0.0055533126
197	0x3d169da3	0.036771428
198	0x3c967c4a	0.018369813
199	0x3c62b48b	0.01383699
200	0xba84d769	-0.0010134998
201	0x3d72212f	0.059113678
202	0x3d08fc7b	0.03344391
203	0xbd4769c0	-0.048684835
204	0xbcefdc02	-0.029279713
205	0xbc9cd3f0	-0.019144028
206	0x3c4cb820	0.012495071
207	0x3b5ff5cc	0.0034173606
208	0xbcaa26e7	-0.020770503
209	0x3d34f402	0.044178016
210	0x3ae594b4	0.001751563
211	0xbd14a908	-0.036294013
212	0xbc0d4d46	-0.00862438
213	0xbafeb82d	-0.0019433551
214	0xbc1907d9	-0.00934025
215	0x3c8d8d2d	0.017279232
216	0x3c356dd0	0.011073545
217	0xbd764aa1	-0.060129765
218	0xbc7b752a	-0.015347758
219	0x3d612769	0.054969225
220	0x3bc17cc6	0.0059047667
221	0xbd082a2e	-0.03324335
222	0x3c51b385	0.012799148
223	0xbbb88e8c	-0.0056322273
224	0xbd2d685a	-0.042335846
225	0xbc8eb497	-0.017420096
226	0xbd47e227	-0.04879966
227	0x3d348dec	0.04408066
228	0xbc16dedc	-0.009208407
229	0xbd3c3494	-0.04594858
230	0xbcbfb2a4	-0.023400612
231	0x3d7a2d3f	0.061078306
232	0x3c4cbd7b	0.012496348
233	0x3baa60ce	0.0051995283
234	0x3d016e9a	0.03159962
235	0xbc9e4f98	-0.019325063
236	0xbd830c74	-0.063988596
237	0x3d91feec	0.071287006
238	0x3c9b7d9d	0.018980796
239	0x3d31d29b	0.04341374
240	0x3c44d7d8	0.012014352
241	0x3bbe692c	0.0058108773
242	0xbc390316	-0.01129224
243	0xbced0b7d	-0.028936142
244	0x3d27c7ba	0.04096196
245	0x3cb6ac70	0.022299021
246	0x3cf84560	0.030306518
247	0x3d464d82	0.04841376
248	0x3da8dc04	0.0824509
249	0x3d19122e	0.037370853
250	0xbc94a575	-0.018145302
251	0x3d3f7867	0.046745684
252	0x3ae74818	0.0017645387
253	0x3c036406	0.008019453
254	0x3c8985e3	0.016787475
255	0x3c72dc03	0.014822963
