fault_model_nn_allprior_11kv/last_Y2025.pt (torch, 545973 bytes, 15 tensors)

emb.weight f4 [4782, 16]
0	0x3eb1d26f	0.3473086
1	0x3d953173	0.07284822
2	0x3e25ee3b	0.16204159
3	0xbebe7fc2	-0.37206846
4	0x3dc61c11	0.09673322
5	0xbe17d29c	-0.14826435
6	0xbdf41464	-0.11917952
7	0xbe4b76c3	-0.19869523
8	0x3d26634b	0.040622037
9	0x3e99a16a	0.30005962
10	0x3db775f4	0.08958045
11	0xbe6f1b08	-0.23350155
12	0x3cfb32c7	0.030663861
13	0xbdf33e35	-0.118770994
14	0xbcbc803d	-0.023010368
15	0xbd8e5d80	-0.069514275
16	0x3e04a07d	0.12951846
17	0xbd96ed5e	-0.07369493
18	0x3d927738	0.071516454
19	0xbd7f7fdc	-0.062377796
20	0x3d8fdcf3	0.070245646
21	0xbcfa5985	-0.030560264
22	0xbd781013	-0.060562205
23	0x3e6ffe2c	0.23436803
24	0x3e20a053	0.15686159
25	0x3e200044	0.15625101
26	0x3da436aa	0.08018239
27	0x3cc2eac2	0.023793582
28	0x3daef438	0.08542675
29	0xbd94f9ac	-0.07274184
30	0x3db2707c	0.08712861
31	0xbd86acfc	-0.06575963
32	0xbeafcb79	-0.34334925
33	0xbe18acf2	-0.14909723
34	0x3df57a0b	0.119861685
35	0x3dad833c	0.084722966
36	0x3de77657	0.113018684
37	0xbdf2f147	-0.11862426
38	0xbe0a293c	-0.13492292
39	0x3d812599	0.06305999
40	0xbe40188c	-0.18759364
41	0x3e5372b4	0.20649225
42	0x3d8aa30b	0.06769379
43	0xbe161ab9	-0.14658631
44	0xbdb434d5	-0.087991394
45	0x3ee9f67d	0.45695868
46	0xbdf93357	-0.121679954
47	0xbdffae9c	-0.12484476
48	0xb744d192	-1.1731305e-05
49	0xadc6720a	-2.2560637e-11
50	0x81479632	-3.6658287e-38
51	0x1ee44d52	2.4172418e-20
52	0x973fe764	-6.2007485e-25
53	0x3b2ac5b4	0.0026057782
54	0xb4b3fb99	-3.352441e-07
55	0xb1def346	-6.4887073e-09
56	0xbca191e7	-0.019722892
57	0x012e6d94	3.203737e-38
58	0x00ab9884	1.5758582e-38
59	0x2ed96736	9.8863515e-11
60	0x8137d336	-3.3763328e-38
61	0x3e21d4d0	0.15803838
62	0xbb1cb354	-0.0023910599
63	0x3c8b98c2	0.017040614
64	0x3f01860b	0.5059516
65	0x3e1c7d6b	0.15282218
66	0x3f5014e0	0.8128185
67	0x3d461458	0.048359245
68	0xbc4fb3cc	-0.012677144
69	0x3d50c011	0.05096442
70	0xbe7ca72b	-0.24673145
71	0x3eb18e27	0.34678766
72	0xbdadb07a	-0.08480926
73	0x3d5d1629	0.05397621
74	0xbdcb6bb6	-0.099326536
75	0x3de0696e	0.10957609
76	0x3df3beb6	0.119016096
77	0xbdcb64a3	-0.09931304
78	0xbf9e8d20	-1.2386818
79	0xbdc9ba2e	-0.09849964
80	0x8110d490	-2.660113e-38
81	0x03188b15	4.4828444e-37
82	0xbc461c4e	-0.012091709
83	0xa7d8f12f	-6.0213535e-15
84	0x211f18ed	5.3904284e-19
85	0x1e93ab0e	1.5634977e-20
86	0x3aae74b7	0.001330993
87	0x81bf8a0d	-7.036041e-38
88	0x3231b6b2	1.0344296e-08
89	0x9409cf32	-6.9575945e-27
90	0xb9997c7c	-0.00029275182
91	0x29a65903	7.387322e-14
92	0xbdd64418	-0.104622066
93	0xb51fa802	-5.94766e-07
94	0x3c3c4dbd	0.011493144
95	0x15d32398	8.527838e-26
96	0xbf269f0a	-0.65086424
97	0xbd320181	-0.043458465
98	0x3d6d5a31	0.05794734
99	0xbd0f6dfd	-0.035017002
100	0x3d37ce29	0.044874344
101	0xbd2d2a27	-0.042276528
102	0xbcbea008	-0.023269668
103	0x3d3ae52e	0.04562872
104	0x3d4a278f	0.049354132
105	0x3d6a5213	0.05720718
106	0x3d42b92f	0.047539886
107	0xbd503306	-0.05082991
108	0x3d665ec1	0.056242708
109	0x3b4d8677	0.0031360665
110	0x3d944063	0.07238843
111	0xbd3d52f6	-0.046221696
112	0xbee5587b	-0.44794068
113	0x3e516a93	0.20450811
114	0xbefa5736	-0.48894662
115	0x3e887148	0.26648927
116	0x3cd639f1	0.026150675
117	0x3e49670c	0.19668216
118	0x3e2c2658	0.16811502
119	0xbd76b659	-0.060232494
120	0xbe60618e	-0.21912214
121	0xbdd7af77	-0.10531514
122	0xbe522c8c	-0.20524806
123	0x3f08fadb	0.53507775
124	0x3ea3c8d5	0.3198916
125	0x3ecd00ba	0.40039617
126	0x3dccb43b	0.09995314
127	0x3eb92526	0.36161155
128	0x3e8cc427	0.27493402
129	0xbdb0d346	-0.08634047
130	0xbd368eae	-0.044569664
131	0xbdcf57b6	-0.101241514
132	0x3debe679	0.115185685
133	0x3da64baa	0.081199005
134	0xbe011604	-0.12606055
135	0x3e0107aa	0.1260058
136	0x3e48b7e6	0.19601402
137	0x3e003be4	0.12522846
138	0xbe2fb6ed	-0.17159624
139	0xbdae1f4b	-0.085020624
140	0x3e02f3e6	0.12788352
141	0xbd61c642	-0.055120714
142	0x3dfb1095	0.12259022
143	0xbde870e2	-0.11349656
144	0xb86d561e	-5.6585406e-05
145	0x3826ef1c	3.9800172e-05
146	0x3d8bfbcf	0.06835138
147	0x3cdfa3b4	0.02729974
148	0x8099c09a	-1.4119923e-38
149	0x019bacc4	5.7185914e-38
150	0xb1b80c22	-5.356484e-09
151	0x00f6bab6	2.2658511e-38
152	0x03fa91f9	1.4727193e-36
153	0x3851b1da	4.999512e-05
154	0x9266afd3	-7.2791923e-28
155	0x3d82fb28	0.063955605
156	0xbf114591	-0.56746775
157	0x08c56069	1.1879172e-33
158	0xbb33a535	-0.0027411703
159	0x34a78499	3.1202651e-07
160	0xbebb1589	-0.36539868
161	0xbdadfa50	-0.08495009
162	0x3dbedd17	0.09319513
163	0xbd8e8671	-0.069592364
164	0x3db0e975	0.086382784
165	0xbdb810c8	-0.08987576
166	0xbdd6a1c2	-0.104800716
167	0x3d4d9ce9	0.05019847
168	0xbdb9ee6e	-0.0907868
169	0x3e33925c	0.175363
170	0x3e09371a	0.13399926
171	0xbdc3e074	-0.095642954
172	0xbd883d27	-0.06652289
173	0xbd977586	-0.07395463
174	0x3e077fbb	0.13232319
175	0x3e846e02	0.2586518
176	0x3e19b7b7	0.15011488
177	0x3dc41772	0.09574784
178	0xbf37fd1c	-0.7187059
179	0xbe39bcbc	-0.18138403
180	0xbf16ce14	-0.589082
181	0xbf641fe9	-0.8911119
182	0xbf16855a	-0.5879723
183	0xbf030126	-0.5117363
184	0xbeec2a31	-0.4612594
185	0xbf8d0b9f	-1.1019171
186	0xbf9db0e5	-1.2319609
187	0x3e5abd6a	0.21361318
188	0x3f05d27b	0.5227429
189	0xbe482499	-0.19545211
190	0x3eaf9195	0.34290758
191	0x3f10d057	0.565679
192	0x3e208ecf	0.15679477
193	0xbd319a91	-0.043360297
194	0x3d57864c	0.05261831
195	0xbd0f4fe3	-0.034988295
196	0x3cd16249	0.025559561
197	0xbd1ee8ce	-0.03879624
198	0xbd411895	-0.047142584
199	0x3daa60db	0.08319255
200	0x3d333c24	0.043758526
201	0x3ebaa3eb	0.36453184
202	0x3d2ec940	0.042672396
203	0xbd575c48	-0.05257824
204	0x3d40b71f	0.047049638
205	0xbcbb2428	-0.02284439
206	0x3e12012b	0.14258258
207	0xbd29a992	-0.04142148
208	0xbe3ff046	-0.18744001
209	0xbe1c9a80	-0.15293312
210	0x3dda31eb	0.10654052
211	0xbdbf15b1	-0.09330309
212	0x3dde2704	0.108472854
213	0xbdd20e5f	-0.10256647
214	0xbe0bc7f8	-0.13650501
215	0xbf0e7cfb	-0.55659455
216	0x3dd7723b	0.105198346
217	0x3e48f250	0.19623685
218	0xbe37783d	-0.17916961
219	0x3ddc7ef9	0.107664056
220	0x3e0a76e7	0.1352192
221	0xbdf848df	-0.12123274
222	0x3e996e6c	0.29967058
223	0x3e030cda	0.12797871
224	0x3dcca3b1	0.09992159
225	0x3f1f4059	0.6220756
226	0xbbb08638	-0.005387094
227	0xbd556743	-0.05210043
228	0xbcf7818e	-0.030213144
229	0xbdbeec5c	-0.09322426
230	0x3e0ab73d	0.13546462
231	0x3f44970c	0.7679298
232	0xbc13f98a	-0.009031663
233	0xbe4fea81	-0.203043
234	0xbf461a8a	-0.77384245
235	0xbe81c64a	-0.25346595
236	0xbd25e581	-0.040502075
237	0x3da286c3	0.0793586
238	0xbd90a45e	-0.070626006
239	0x3d8867bb	0.0666041
240	0xbccd8364	-0.025087066
241	0x3e0aec00	0.1356659
242	0xbe020a3b	-0.12699215
243	0x3e212f49	0.15740694
244	0xbe6fb959	-0.23410548
245	0x3db3fb0a	0.08788116
246	0x3e078ba9	0.1323687
247	0x3ec4e95b	0.38459286
248	0x3e7644d6	0.24049696
249	0xbe41798f	-0.18894027
250	0xbc4c5965	-0.012472485
251	0x3e085cbc	0.13316625
252	0xbdbfa6de	-0.09357999
253	0x3e14b5a4	0.14522415
254	0xbdb8d36c	-0.090247005
255	0x3dff7c44	0.12474874

lstm.weight_ih_l0 f4 [256, 3]
0	0x3c734cba	0.014849836
1	0xbc861ac0	-0.016370177
2	0xbd5f091d	-0.05445205
3	0x3e07ed74	0.13274175
4	0x3ced77a4	0.028987713
5	0x3d79a658	0.060949653
6	0xbb830624	-0.0039985348
7	0x3ca31362	0.019906703
8	0xbc1ac454	-0.009446222
9	0x3ad3d8bd	0.0016162616
10	0xbb42d451	-0.0029728601
11	0x3b351aa8	0.0027634297
12	0x39cfe2f2	0.00039651204
13	0xbb98c7ac	-0.0046624746
14	0xbc26ab2e	-0.010172648
15	0x3d29aa36	0.04142209
16	0x3c99dc1e	0.018781718
17	0x3c318adb	0.010836328
18	0x3c69c2c0	0.014267623
19	0x3c2df5eb	0.010617713
20	0x3c03b176	0.008037915
21	0x3b89e317	0.0042079794
22	0x3d2b4007	0.041809108
23	0xbce3ada0	-0.027792752
24	0x3da2d0a6	0.07949953
25	0x3b8a1a4d	0.004214561
26	0x3da5f7f3	0.08103933
27	0x3d6bf6e9	0.05760852
28	0xbb315ed6	-0.0027064583
29	0x3d77a85b	0.06046329
30	0x3e2753f8	0.16340625
31	0x3da7b57b	0.081889115
32	0x3d502a9b	0.05082188
33	0x3d88d0fc	0.066804856
34	0x3ce6bd03	0.0281663
35	0x3c8c8860	0.017154872
36	0xbc126f69	-0.008937695
37	0x3ccdb6da	0.025111604
38	0xbb7242b7	-0.0036966035
39	0x3cb83668	0.02248688
40	0x3c7444cb	0.01490898
41	0x39d1d883	0.000400249
42	0x3d425045	0.047439832
43	0x3cd12719	0.025531339
44	0x3b84e86a	0.004056026
45	0x3d44b4f7	0.048024144
46	0xbc695f2b	-0.014243881
47	0x3d134729	0.035956535
48	0x3b926426	0.004467505
49	0x3ba51671	0.0050380756
50	0x3ba5ccca	0.005059813
51	0x3d2af26e	0.041735105
52	0x3cac27ff	0.021015165
53	0x3c82239c	0.01588612
54	0xbd195bce	-0.037441067
55	0xbccafb7a	-0.024778116
56	0x3c4e1a17	0.0125794625
57	0x3be8fa82	0.007109941
58	0xbc82aca1	-0.015951457
59	0x3bb5fd4c	0.005553877
60	0x39f6d401	0.00047078732
61	0x3b17e312	0.0023176116
62	0xba511a36	-0.0007976623
63	0x3975e0b5	0.0002344873
64	0x3be8c753	0.0071038394
65	0xbcb46b75	-0.022023896
66	0x3e6a6b12	0.22892407
67	0x3def2238	0.116764486
68	0x3e4fda1d	0.20298047
69	0x3d1defdb	0.038558822
70	0x3ce05219	0.027382897
71	0x3d165437	0.036701407
72	0x3dccda64	0.10002592
73	0x3d0badf9	0.03410146
74	0x3d169ef1	0.036772672
75	0x3d020da0	0.031751275
76	0x3c8e7251	0.017388495
77	0xbc5771ec	-0.01314972
78	0xbcddd93d	-0.027081126
79	0x3b901cfd	0.004397987
80	0x3c3886b4	0.0112625845
81	0x3ae6cb9c	0.0017608288
82	0x3c3d6089	0.01155866
83	0x3b4b3f90	0.0031013228
84	0x3c6675ce	0.014066173
85	0x3a40a301	0.0007348508
86	0x3c8dcef4	0.017310597
87	0x3c093bca	0.008376071
88	0x3976bffa	0.00023531905
89	0x3c046aeb	0.008082132
90	0x3d5a7ea8	0.053343445
91	0x3c9904bc	0.018679015
92	0x3ce78dd6	0.028265875
93	0x3c18fec9	0.009338089
94	0x3c4c1922	0.012457164
95	0x3d1010e0	0.035172343
96	0x3e9639f7	0.293411
97	0x3d5051d5	0.05085929
98	0x3db5544a	0.088539675
99	0xbd2d36fa	-0.042288758
100	0x3d598bfa	0.053112008
101	0xbd8ef765	-0.069807805
102	0x3ca02dde	0.019553121
103	0xba9017a6	-0.0010993376
104	0x3cb29208	0.021798149
105	0x3d423b7d	0.047420014
106	0x3be9b469	0.0071321023
107	0x3d10c875	0.03534742
108	0x3a671a5e	0.00088158797
109	0xbcdcda9e	-0.026959714
110	0xbccb15ac	-0.024790607
111	0x3d9342c4	0.07190469
112	0xbad574bf	-0.0016285403
113	0x3cf86567	0.03032179
114	0x3c94db1e	0.01817089
115	0x3c90d039	0.017677413
116	0x3c6df98d	0.01452483
117	0xbbaf07a6	-0.005341488
118	0x3be1293c	0.0068713706
119	0xbb902ad4	-0.0043996368
120	0x3cf6a6a8	0.030108765
121	0x3ccf4139	0.025299655
122	0x3ca32d65	0.019919107
123	0x3d4174a4	0.047230378
124	0x3a04f772	0.00050722726
125	0x3d39fe57	0.045408573
126	0x3d12bb99	0.03582344
127	0x3cb86b01	0.022511961
128	0x3d25a2a5	0.040438313
129	0x3d28d7fe	0.04122161
130	0x3c4ab06c	0.012371164
131	0xbca04a67	-0.019566728
132	0x3cd4d926	0.02598245
133	0x3c7d6b6f	0.015467509
134	0x3c8158e2	0.015789453
135	0x3c363591	0.01112117
136	0x3b7a39a2	0.0038181324
137	0x3ad65526	0.001635228
138	0x3c396b82	0.011317136
139	0xbb1700d2	-0.002304126
140	0xbcaba8e5	-0.020954559
141	0xbcd47e6c	-0.025939189
142	0xbba499d8	-0.0050232224
143	0xbd1dad0c	-0.03849511
144	0xbd33603f	-0.04379296
145	0x3cae8858	0.021305248
146	0xbc826028	-0.015914991
147	0xbd41dbec	-0.047328874
148	0x3cb358c6	0.021892916
149	0xbcb4003f	-0.021972774
150	0x3c8f342a	0.017480928
151	0x3c64ea01	0.0139718065
152	0x3c770c34	0.015078593
153	0x3d235304	0.03987409
154	0x3bcbc1a8	0.006218154
155	0x3ce27512	0.027643714
156	0x3cc3f0f2	0.023918603
157	0x39af843e	0.0003347713
158	0x3ce1b427	0.027551724
159	0x3a20c881	0.0006133393
160	0x39a8552a	0.0003210691
161	0x395612c8	0.00020415627
162	0x3c7f287f	0.01557362
163	0x3d0d0617	0.034429636
164	0xbc812c21	-0.015768113
165	0x3d15505c	0.03645359
166	0xba26c9dc	-0.0006362477
167	0x3d3b618b	0.04574732
168	0x3cce6c82	0.025198225
169	0xb84c8538	-4.876146e-05
170	0x3c9d6f12	0.019218002
171	0x3d3f522b	0.04670922
172	0x3ca8851a	0.02057128
173	0x3cc3029d	0.023804957
174	0x3c958bdf	0.018255172
175	0xb97fdc9e	-0.00024400881
176	0x3ca50ed4	0.020148672
177	0xbbde2823	-0.006779687
178	0xbc3835ad	-0.011243266
179	0xbcaae899	-0.020862864
180	0x3e796cd7	0.24357925
181	0x3e32bcd7	0.17454849
182	0x3dd2ae45	0.102871455
183	0x3da434da	0.08017893
184	0x3c849f62	0.01618928
185	0x3d8eeac4	0.06978372
186	0x3d87ff05	0.06640438
187	0x3c9f42f5	0.019441107
188	0x3cbd368f	0.023097305
189	0x3d95013b	0.07275625
190	0x3c803f42	0.015655164
191	0x3d3c67b5	0.04599734
192	0xbe0911d0	-0.13385701
193	0xbd6ada28	-0.057336956
194	0xba89f945	-0.0010526559
195	0x3d2704c6	0.040776037
196	0xbc8d9d62	-0.01728696
197	0xbc9eee46	-0.019400727
198	0xbd3aeaa1	-0.045633916
199	0xbc222fdd	-0.009899107
200	0xbca92e9b	-0.020652106
201	0xbc218da2	-0.009860428
202	0xba05b3a2	-0.0005100315
203	0x3b520944	0.003204898
204	0xbd021878	-0.031761616
205	0xbc0cef49	-0.008601972
206	0xbc5b6f9f	-0.013393312
207	0xbb5a6c70	-0.0033328794
208	0xbc84d722	-0.016215865
209	0xbd06286b	-0.03275339
210	0xba59f871	-0.0008314914
211	0xba0ada32	-0.0005296796
212	0xbc5a4603	-0.013322356
213	0xbdcd7f07	-0.10033994
214	0x3bb9da0c	0.005671745
215	0xbd288854	-0.041145638
216	0x3bf1b4ad	0.0073762746
217	0x3b8762e2	0.004131661
218	0xbc93c2e1	-0.018037261
219	0x3b6d8b3c	0.003624632
220	0x3b45a0be	0.0030155624
221	0xbc070ec9	-0.008243271
222	0xbc7a1ea0	-0.015266091
223	0xbce86cb7	-0.028372152
224	0xbdd38174	-0.103274256
225	0xbc31165c	-0.010808554
226	0xbcff40e1	-0.031158866
227	0xbd86ec3f	-0.06588029
228	0xbd2951e6	-0.04133787
229	0xba8ebeea	-0.0010890637
230	0xbc0e23ff	-0.008675574
231	0xbd41ad41	-0.04728437
232	0xbd3d7b02	-0.046259888
233	0xbd596718	-0.053076833
234	0xbbbd9979	-0.0057861176
235	0xbc9cceb1	-0.019141527
236	0xbd0f03da	-0.034915783
237	0xbd3ca04e	-0.046051316
238	0xbbe4682b	-0.0069704256
239	0xbcaa1ee7	-0.020766689
240	0xbab7c5c5	-0.0014020732
241	0xb9da8143	-0.00041676508
242	0xbbb3c969	-0.0054866564
243	0xbc4a8823	-0.012361559
244	0xbc92874d	-0.017886782
245	0xbccb643c	-0.024828069
246	0xbe189a46	-0.149026
247	0xbc16f0d5	-0.009212692
248	0xbcff56bd	-0.03116929
249	0xbd688eda	-0.05677686
250	0x3b16900e	0.0022974047
251	0xb9cf587e	-0.00039548049
252	0xb9022a11	-0.00012413437
253	0x39b96f16	0.00035368715
254	0xbac8a037	-0.0015306537
255	0xbd7554ab	-0.0598952

lstm.weight_hh_l0 f4 [256, 64]
0	0x3ad9ed54	0.0016626515
1	0x3b2a9c81	0.0026033225
2	0x3d0630cf	0.03276139
3	0x3c60c28d	0.0137182595
4	0x3cc9a125	0.024612973
5	0x3b2cca45	0.002636568
6	0x3a2020b1	0.0006108387
7	0xbcbae678	-0.022814974
8	0x3b1e2c85	0.0024135422
9	0xba83186a	-0.0010001783
10	0x3a3370bf	0.00068451086
11	0xbbdc6380	-0.0067257285
12	0xbcc9fef1	-0.024657698
13	0xbc9b5614	-0.018961944
14	0x3acf9792	0.0015838018
15	0xbcbb9f97	-0.022903247
16	0xbb9ff018	-0.0048809163
17	0xbc4c7558	-0.012479149
18	0x3d08c74b	0.033393186
19	0x3cc945ed	0.024569476
20	0xba03e183	-0.0005030857
21	0x3c1703d2	0.009217219
22	0x3960c963	0.00021437327
23	0x3b72aa26	0.0037027686
24	0x3a877dbc	0.0010337154
25	0xbc750c1e	-0.014956502
26	0xba5012df	-0.00079373823
27	0xbba3d3ee	-0.004999629
28	0x3c0d560e	0.008626474
29	0xbb210639	-0.002457036
30	0x3b915763	0.004435466
31	0x3c296709	0.010339507
32	0x3be84516	0.007088314
33	0x3d04a383	0.0323825
34	0xb95a7826	-0.00020834859
35	0xba987df3	-0.0011634215
36	0x3cc7720d	0.024346376
37	0xba830cec	-0.0009998358
38	0xbc5e082f	-0.013551756
39	0xbc7d1728	-0.015447415
40	0xbb8bdbb3	-0.0042681335
41	0xbc4250e6	-0.011860108
42	0xbc8eb2c9	-0.017419236
43	0xbb8888f8	-0.0041667186
44	0xbb5c173e	-0.003358319
45	0x3cced547	0.025248183
46	0x3ccd8fa0	0.0250929
47	0x3cf07a74	0.029355265
48	0xbd18db01	-0.037318233
49	0xbc13ee5a	-0.009028995
50	0x3cc3b01f	0.023887692
51	0xba8e4bad	-0.0010856293
52	0xbaa700d1	-0.0012741332
53	0xb923b9a0	-0.00015614042
54	0x3bd93747	0.006628904
55	0x3a947dba	0.0011328973
56	0xba3baf54	-0.000715961
57	0xba8daef5	-0.0010809588
58	0xb9974a10	-0.00028856145
59	0xbcb4a951	-0.022053393
60	0x3b855dd7	0.0040700245
61	0xbaa2a5f7	-0.001240908
62	0xba3630cc	-0.00069500203
63	0xba6d74ed	-0.0009058256
64	0xbc0b57a5	-0.008504783
65	0xb9c0c1c9	-0.00036765475
66	0x3c0c2c5e	0.0085555
67	0x3bcc6a41	0.0062382524
68	0x3beaf7c2	0.0071706483
69	0x3b168a4f	0.0022970622
70	0xbb24826a	-0.0025102147
71	0xbbe20957	-0.006898086
72	0xbb0af1b6	-0.00212012
73	0x3a16637d	0.0005736871
74	0x3ba99b28	0.005175967
75	0xba92b1c6	-0.0011191897
76	0xbc04cf25	-0.008106028
77	0xbb902173	-0.0043985187
78	0x3b4db798	0.0031389948
79	0xbbc8eae5	-0.0061315172
80	0x3b33732e	0.0027381885
81	0xbb8797ae	-0.0041379547
82	0x3c4a3be6	0.012343382
83	0x3c162db1	0.009166167
84	0xba2bf4be	-0.0006559602
85	0x3bcccc61	0.00624995
86	0xbae1b434	-0.0017219842
87	0x3bb4dff4	0.0055198614
88	0x3ab0cb56	0.0013488333
89	0xbbcf8d73	-0.0063340007
90	0xbc244cf9	-0.010028117
91	0xbbbf3b57	-0.0058359313
92	0x3954a532	0.00020279436
93	0x3a928507	0.0011178561
94	0xbbdd0304	-0.0067447443
95	0x3c1bbe7f	0.009505867
96	0x3a9bf01c	0.001189712
97	0x3c2f9d6a	0.010718683
98	0x3aab64fd	0.0013076362
99	0x3a7bffd7	0.0009613013
100	0x3bbe65b6	0.0058104647
101	0x3b910304	0.0044254083
102	0xbb466d84	-0.0030277679
103	0xbc04ce99	-0.008105897
104	0xbb934c05	-0.004495146
105	0xbb0262a4	-0.001989522
106	0xbc236303	-0.009972337
107	0xbb7e7d8b	-0.0038832154
108	0xbb1cb526	-0.0023911684
109	0x3bd1377c	0.006384788
110	0x3baa5d73	0.0051991283
111	0x3c2beb1e	0.010493068
112	0xbc096007	-0.008384711
113	0xbc088b4a	-0.00833399
114	0x3be345b7	0.006935801
115	0x387f2bf0	6.0837658e-05
116	0x3b366e51	0.002783675
117	0x39ed6fa8	0.00045287353
118	0xbbd3e2da	-0.006466252
119	0xbaac8a17	-0.0013163713
120	0x3aafb445	0.0013405165
121	0xbbca5ffc	-0.006175993
122	0x3a833b75	0.0010012226
123	0xbbffb66f	-0.00780373
124	0x3a8bd5d5	0.0010668585
125	0x3b6debd7	0.0036303902
126	0xbbc7bb4e	-0.0060953265
127	0x3a84975d	0.001011591
128	0xbc593023	-0.013256106
129	0x39a831de	0.0003208061
130	0x3c40df22	0.011771949
131	0x3b0159df	0.0019737405
132	0xbc2483e3	-0.01004121
133	0xba380b99	-0.0007020771
134	0x3ab6cf83	0.0013947341
135	0xbc33cd34	-0.010974217
136	0x3ad61e15	0.001633587
137	0xba1fd654	-0.0006097306
138	0xbab5cdab	-0.0013870498
139	0x3a0b65b0	0.0005317582
140	0xbb8f0e29	-0.0043657017
141	0x3ad6a3cf	0.0016375723
142	0xba4aadd8	-0.0007731593
143	0xbbf958ed	-0.0076094777
144	0xb95d66e8	-0.00021114538
145	0x3b106d3d	0.0022037767
146	0x3c74aa13	0.014933127
147	0x3bbf733a	0.0058425935
148	0x37291ba4	1.0079621e-05
149	0x3c090bfc	0.008364674
150	0x3b0e9be3	0.0021760396
151	0xbb1e8cba	-0.0024192766
152	0x3ac822b0	0.0015269127
153	0xbac54f9f	-0.0015053636
154	0x3b110238	0.0022126567
155	0xbb9454bc	-0.0045267027
156	0xbb5ba0c1	-0.0033512565
157	0xba9f65ea	-0.001216111
158	0x3ad19609	0.0015990149
159	0x3c190dc4	0.009341661
160	0x3ae22fb2	0.0017256646
161	0xbbb490f9	-0.005510446
162	0xba8ff06a	-0.0010981683
163	0xba0d7ca0	-0.0005397294
164	0x3b26a1f5	0.0025426124
165	0xbaf45b9c	-0.0018643024
166	0x3bb15f5f	0.0054129804
167	0xbc0fe2d3	-0.008782106
168	0x3b950221	0.004547373
169	0x3b5155f0	0.0031942092
170	0xbbc87637	-0.006117608
171	0xb9ed0b44	-0.00045212556
172	0x3a276034	0.000638488
173	0xbc248b10	-0.010042921
174	0x3c007066	0.007839298
175	0x3c7f2651	0.0155731
176	0x3b8aaad4	0.00423179
177	0x3c25c472	0.010117637
178	0xbaebf0b7	-0.0018000816
179	0xba901d89	-0.001099513
180	0xba837ada	-0.001003112
181	0xb9032c37	-0.00012509605
182	0xbb8234a2	-0.0039735595
183	0x3ad50e2a	0.0016254832
184	0xba661f99	-0.0008778512
185	0x3a8f3452	0.0010925627
186	0xba23df73	-0.0006251253
187	0xbc75704a	-0.014980385
188	0xba1fd82c	-0.0006097581
189	0xba8c9e57	-0.0010728341
190	0x3b0aeb42	0.0021197353
191	0xbab96cf2	-0.0014146848
192	0xbac87b6b	-0.001529557
193	0xba0f7334	-0.00054721837
194	0xba5c14de	-0.00083954434
195	0xb9014093	-0.00012326454
196	0xba68f7f6	-0.0008887047
197	0xb969dd79	-0.00022303117
198	0x396afefa	0.00022410965
199	0xbb07423e	-0.0020638849
200	0x3a2e8886	0.0006657917
201	0xb9954c9c	-0.00028476573
202	0xba5027b8	-0.0007940489
203	0x39d07e4e	0.00039766956
204	0xb9d339bd	-0.00040288075
205	0xba5511c9	-0.00081279554
206	0xb91d7fab	-0.00015020247
207	0xba03b147	-0.000502367
208	0xb90025ae	-0.00012221068
209	0xb94d29a4	-0.00019565836
210	0xba9769b8	-0.0011551892
211	0x3b2fd14f	0.0026827639
212	0x38ce1b20	9.827898e-05
213	0xb6bb05e8	-5.573722e-06
214	0x3a81a6e1	0.0009891653
215	0x3956778e	0.00020453168
216	0x3a21e126	0.00061752123
217	0xbadc16c6	-0.0016791455
218	0xb94383ac	-0.00018645701
219	0xba494bdc	-0.00076788454
220	0xba10ad8e	-0.0005519026
221	0xb990e5c2	-0.00027637003
222	0x394c9b86	0.00019512893
223	0x39900437	0.0002746896
224	0xba3a07ed	-0.0007096518
225	0x3b4a37db	0.0030856046
226	0xb9bc84d8	-0.0003595713
227	0xb99de1b7	-0.00030113544
228	0x3ab4cbf9	0.0013793699
229	0x3966cf31	0.00022011694
230	0x39839447	0.00025096742
231	0xba31517c	-0.0006764156
232	0x3a369883	0.0006965475
233	0xb8360800	-4.3399632e-05
234	0xba6a0e70	-0.0008928543
235	0x399b7dca	0.00029657624
236	0x3973dd63	0.00023256759
237	0x3a31f75b	0.0006788873
238	0xb93b9166	-0.00017887875
239	0x39f1d792	0.00046127714
240	0x3ad1758f	0.001598047
241	0x3ae7e5a1	0.0017692336
242	0x39a9e775	0.0003240664
243	0xb9d389c4	-0.000403477
244	0xb9c4cd21	-0.00037536866
245	0x381bdb19	3.715893e-05
246	0x39e7211d	0.00044084425
247	0x3a4c62fa	0.0007796731
248	0xb9660b18	-0.00021938642
249	0xba9dd924	-0.0012042862
250	0xb9a82dbb	-0.0003207753
251	0xb89801fb	-7.248294e-05
252	0xbaab0488	-0.0013047615
253	0xb9f04e08	-0.00045834505
254	0x39b20082	0.00033951184
255	0xba050916	-0.0005074901

lstm.bias_ih_l0 f4 [256]
0	0xbd94ac47	-0.07259422
1	0x3cdfc1bb	0.027314058
2	0x3d9d2f61	0.076750524
3	0x3cf874ac	0.030329071
4	0xbc3da76c	-0.011575561
5	0xbbaf5e84	-0.0053518433
6	0x3c76a16f	0.015053137
7	0x3d97cf41	0.074125774
8	0x3d97a3a7	0.07404261
9	0x3d5935ea	0.053029932
10	0x3dbb5e80	0.09148884
11	0x3d727078	0.05918929
12	0x3d4cd73e	0.05000996
13	0x3d5f9cae	0.05459278
14	0x3d49477a	0.04914043
15	0x3d0633b4	0.03276415
16	0xbd0ae681	-0.033911232
17	0xb99fe296	-0.00030495663
18	0x3bfc9610	0.0077083185
19	0xbd5ee1c4	-0.054414526
20	0xbbc6ae09	-0.006063227
21	0x3ca058ae	0.019573536
22	0x3e0e208a	0.138796
23	0x3db32ac7	0.087483935
24	0x3d86cc16	0.06581895
25	0x3ceebf10	0.02914384
26	0xbd015fba	-0.031585433
27	0x3d6411a6	0.055680893
28	0x3ce8024c	0.028321408
29	0x3c17802a	0.009246865
30	0x3d4328e4	0.04764642
31	0xbcb7be99	-0.022429751
32	0x3d82b092	0.06381334
33	0x3cafad84	0.021445043
34	0x3cb5db5b	0.022199323
35	0xbad82443	-0.0016490299
36	0xbd7bf86f	-0.06151622
37	0xbc94be78	-0.018157229
38	0x3bf7b52f	0.0075594406
39	0x3d80b7c1	0.06285048
40	0x3ca7f2c2	0.020501498
41	0x3d12517a	0.035722233
42	0x3dcb200c	0.09918222
43	0x3c8b7f9c	0.017028622
44	0xbb58586f	-0.0033011695
45	0xbce6b500	-0.02816248
46	0xbc557682	-0.013028743
47	0xba8285e5	-0.0009958117
48	0x3dc6b788	0.097029746
49	0xbd034769	-0.032050524
50	0x3d2ded06	0.04246237
51	0x3cc799ba	0.024365295
52	0x3cdd2f8f	0.027000217
53	0x3bee47c0	0.007271737
54	0x3d5d5ec0	0.05404544
55	0x3d1b0fc1	0.03785682
56	0x3c62b34c	0.013836693
57	0x3d7acc83	0.061230194
58	0x3c42de84	0.011893872
59	0xbcd9a9a0	-0.026570141
60	0x3e4d8706	0.20071039
61	0x3d58fb47	0.05297401
62	0x3d958b0a	0.0730191
63	0x3d4f57db	0.050620895
64	0x3da45d85	0.0802565
65	0xbc4b6b34	-0.012415696
66	0x3d89ecbe	0.06734608
67	0x3c7cd522	0.015431674
68	0x3da72ffb	0.081634484
69	0xbcda94aa	-0.026682217
70	0xbc7edb62	-0.015555235
71	0x3d093b57	0.033503857
72	0xbcd4161f	-0.025889454
73	0xbc9ff298	-0.019524857
74	0x3bb7cdec	0.0056092646
75	0x3baef5a6	0.005339342
76	0x3cdf8f13	0.027289903
77	0x3ae189f1	0.0017207247
78	0x3a9941c2	0.0011692571
79	0xbc9e7cd7	-0.019346638
80	0x3c6bc4ae	0.014390154
81	0xbbf8606f	-0.007579855
82	0x3dbe8e06	0.093044326
83	0xbd8fe5b3	-0.070262335
84	0xbbbc3207	-0.0057432684
85	0xbd1a7873	-0.037712526
86	0xbc8589af	-0.016301004
87	0x3c63175f	0.013860553
88	0x3c5de94c	0.013544392
89	0xbd391478	-0.045185536
90	0x3d8059f5	0.06267158
91	0x3d74792a	0.059685864
92	0xbb8186ce	-0.0039528375
93	0xbbb5bde4	-0.0055463184
94	0x3c50ec8e	0.0127517115
95	0x3da75ddd	0.081722
96	0x3d290175	0.041261155
97	0x3ba1ea88	0.0049412884
98	0xbc3d5fe5	-0.011558508
99	0xbb937e34	-0.0045011286
100	0x3d4ccca2	0.04999984
101	0xbd617d8b	-0.055051368
102	0xbcdc93ac	-0.026925884
103	0xbd5d4dc3	-0.054029237
104	0xbc975bf0	-0.018476456
105	0x3c57a5bd	0.013162074
106	0x3d1feeed	0.039046217
107	0x3cd9e737	0.02659951
108	0xbc4f3c25	-0.012648617
109	0x3c7af030	0.015316054
110	0xbbc402d7	-0.005981784
111	0xbbd4eb26	-0.0064977584
112	0x3b10ffb3	0.0022125065
113	0x3b9c05bc	0.004761426
114	0x3d88bde6	0.06676845
115	0xbc3af5cf	-0.011411144
116	0xbc425ebd	-0.011863408
117	0xbc344923	-0.011003765
118	0xbd80fe0a	-0.06298454
119	0xbc9ca111	-0.019119771
120	0xbc00c6ba	-0.00785988
121	0x3da870b8	0.082246244
122	0x38198955	3.6605943e-05
123	0x3d0a6a00	0.033792496
124	0x3dd5ae70	0.10433662
125	0xbcf98349	-0.03045811
126	0x3cddb36a	0.02706309
127	0xbc23e4e7	-0.010003305
128	0xbd5e9b89	-0.05434755
129	0xbdcd0dfe	-0.100124344
130	0x3db176a7	0.08665209
131	0xbc8ead6b	-0.017416677
132	0xbcf1d661	-0.02952117
133	0x3d8d02dd	0.06885312
134	0xbdb2511a	-0.08706875
135	0xbd1c5a52	-0.038172074
136	0x3db4d870	0.08830345
137	0xbdc4fdea	-0.09618743
138	0xbca8e3cd	-0.020616436
139	0x3d54bc6c	0.051937506
140	0xbda954a6	-0.082680985
141	0x3d82055b	0.06348678
142	0xbd797d2c	-0.06091039
143	0x3d9d5a77	0.076832704
144	0x3dcbe756	0.09956233
145	0x3dc1e363	0.09467199
146	0x3db3dd09	0.087823935
147	0x3d50f1b5	0.05101176
148	0x3dbdda1b	0.09270116
149	0x3c69cbf3	0.014269817
150	0xbc8696a5	-0.016429255
151	0x3c8a6948	0.016895905
152	0xbd17407b	-0.036926728
153	0xbd9135a0	-0.07090306
154	0xbdfc77c0	-0.12327528
155	0xbc247bab	-0.01003925
156	0x3d6deec3	0.05808903
157	0x3cd459b7	0.025921686
158	0xbda64d3c	-0.081202
159	0x3d9fcba0	0.0780251
160	0x3d683266	0.05668869
161	0xbb9abe1c	-0.00472237
162	0xba87068b	-0.0010301633
163	0x3b644042	0.003482834
164	0xbc9f7535	-0.019465068
165	0xbbafe1e6	-0.0053675054
166	0xbd837d8f	-0.06420433
167	0xbdbc4211	-0.09192289
168	0xbdca6a10	-0.09883511
169	0x3dba60a6	0.091004655
170	0xbd9af9ef	-0.07567202
171	0x3c89e9f9	0.0168352
172	0x3c6cfbd3	0.014464336
173	0x3d55208d	0.052032996
174	0x3dd3c7e6	0.10340862
175	0x3dce9543	0.10087063
176	0xbdf34645	-0.11878637
177	0xbdfcf6fd	-0.12351797
178	0x3da55171	0.08072174
179	0xbdb271ff	-0.08713149
180	0x3da81817	0.0820772
181	0xbd1aae49	-0.037763868
182	0xbd9748f7	-0.07386964
183	0x3cf398e4	0.02973599
184	0xbd54c474	-0.051945165
185	0xbdfc9e3a	-0.12334867
186	0xbdacae10	-0.08431637
187	0xbdd0a6ac	-0.1018804
188	0x3d896a88	0.06709772
189	0xbd34f38a	-0.04417757
190	0xbda0d74e	-0.07853566
191	0xbd7e8fab	-0.06214873
192	0xbbff6323	-0.0077938004
193	0x3d535d0b	0.051602405
194	0xbb005f8e	-0.0019588205
195	0xbd0e741c	-0.0347787
196	0xbd90a6c3	-0.07063057
197	0xbc427c98	-0.011870526
198	0xbca28de4	-0.01984305
199	0xbd04e600	-0.032445908
200	0x3d9b6932	0.07588424
201	0x3d5c9b53	0.053859066
202	0x3dd1b6d5	0.102399506
203	0x3c78868c	0.015168797
204	0xbd1f11c1	-0.03883529
205	0xbc705412	-0.014668481
206	0xbcb6d448	-0.02231802
207	0x3dc4f1b0	0.09616411
208	0xbd03e052	-0.03219635
209	0xbc9ebe77	-0.01937793
210	0xbd317315	-0.04332264
211	0x3c49499e	0.012285618
212	0xbba08790	-0.004898973
213	0x3d3a071d	0.04541694
214	0x3e37f01f	0.17962693
215	0x3dbc92a6	0.092076585
216	0x3d46ceed	0.048537184
217	0x3d766cd6	0.060162388
218	0xbd07ad25	-0.033124108
219	0x3cff7bc0	0.031186938
220	0x3d01caa2	0.031687386
221	0x3c016505	0.00789762
222	0x3d30bb13	0.043147158
223	0xbcbc3baf	-0.022977678
224	0x3d40280e	0.0469132
225	0xbd262eab	-0.04057185
226	0x3ca3f4ee	0.020014253
227	0x3cb9b8df	0.022671161
228	0x3d0b88c3	0.034065973
229	0x3c692405	0.014229779
230	0xbd0aa2c7	-0.033846643
231	0x3d9dd98b	0.07707509
232	0x3da1a8cd	0.07893524
233	0x3d3dd874	0.046349004
234	0x3dc9b90b	0.09849747
235	0x3d4f4586	0.050603412
236	0x3cdbec80	0.02684617
237	0x3d8f867c	0.07008073
238	0xbd1e892a	-0.03870503
239	0x3cb3e531	0.021959873
240	0x3d40ca95	0.047068197
241	0xbbd46e12	-0.006482848
242	0x3d8a686b	0.067581974
243	0x3cda28e6	0.02663083
244	0x3ce051de	0.027382787
245	0xbc1fd8de	-0.009756295
246	0x3d9b34e9	0.07578451
247	0x3d1cd802	0.03829194
248	0x3c4a5775	0.012349953
249	0x3dbfc431	0.093635924
250	0x3c0ab7b4	0.00846665
251	0xbccb6b70	-0.024831504
252	0x3e62bf98	0.221434
253	0x3d844d0a	0.064600065
254	0x3cde73c6	0.027154814
255	0x3d43f63e	0.047842257

lstm.bias_hh_l0 f4 [256]
0	0x3c90be2d	0.017668808
1	0x3ce3513f	0.027748702
2	0x3d71ef21	0.05906594
3	0x3c19b79a	0.009382153
4	0x3c61d6ce	0.013784124
5	0xbc977a71	-0.018491002
6	0xbc87fd34	-0.016600229
7	0x3d7db48f	0.061939772
8	0x3d988f33	0.07449188
9	0x3d5922cc	0.0530117
10	0x3dd45f3e	0.103697285
11	0x3d75b30b	0.0599852
12	0xbd8422b6	-0.06451933
13	0x3d463f2d	0.048400093
14	0xbcf8f8ac	-0.030392013
15	0x3da82990	0.082110524
16	0x3b6fa2a3	0.0036565445
17	0x3d83bbbb	0.06432291
18	0xbd1eb3ea	-0.0387458
19	0x3d6ab5e4	0.05730237
20	0xbbd8d934	-0.0066176895
21	0xbd61eed4	-0.055159405
22	0x3e0e0c23	0.13871817
23	0x3d2b2d0e	0.041791014
24	0x3cb71e98	0.022353455
25	0xbcb2881c	-0.021793418
26	0x3d5d1176	0.05397173
27	0x3c9e2a04	0.019307144
28	0xbba9a8c3	-0.0051775887
29	0x3c193125	0.009350096
30	0x3b0e8bc5	0.002175079
31	0x3d981558	0.07425946
32	0x3d99d094	0.07510486
33	0x3d0eb085	0.03483631
34	0x3c44b4c4	0.0120059885
35	0x3c886a79	0.016652333
36	0x3cde7616	0.027155917
37	0x3d8d477f	0.068984024
38	0x3d23c82d	0.039985824
39	0xbd0abad9	-0.033869598
40	0x3d21174d	0.039328862
41	0x3d3b0eb9	0.045668337
42	0x3cf7e740	0.030261636
43	0x3cb45dda	0.022017408
44	0xbc2ef551	-0.010678605
45	0x3db9a870	0.0906533
46	0xbcc225ca	-0.02369966
47	0x3dc08b7f	0.09401607
48	0x3dd12925	0.10212926
49	0x3b74b87e	0.0037341411
50	0x3d4dc1f8	0.05023381
51	0x3cc22802	0.023700718
52	0x3cddc478	0.027071223
53	0x3a94a3d7	0.0011340332
54	0xbb3578b2	-0.0027690348
55	0x3d1b127a	0.037859417
56	0x3c7207f6	0.014772406
57	0x3c353c41	0.011061729
58	0x3c904833	0.017612552
59	0x3cebe6e8	0.028796628
60	0x3e2f8fb3	0.1714466
61	0x3d819f8d	0.0632926
62	0x3cc7881f	0.0243569
63	0x3d293eb5	0.041319568
64	0x3d1ff2a9	0.039049778
65	0x3b72a308	0.0037023444
66	0xbd90b56f	-0.07065856
67	0xbb358bab	-0.0027701657
68	0x3da5ae96	0.0808994
69	0xbb19d91e	-0.002347536
70	0xbc884046	-0.01663221
71	0x3c85b6d6	0.016322535
72	0xbcd5a141	-0.026077868
73	0xbc9ff52a	-0.019526083
74	0x3b75a98a	0.0037485086
75	0xbd2de30e	-0.042452864
76	0xbd8c657c	-0.06855294
77	0x3d33f5a7	0.043935444
78	0xbc8c5312	-0.017129455
79	0x3c7f668f	0.015588417
80	0xbca94f07	-0.020667566
81	0xba3f3388	-0.00072937505
82	0xbd9a080f	-0.07521068
83	0x3d92cdc1	0.07168151
84	0xbbaf8177	-0.0053560096
85	0x3d1a2079	0.037628625
86	0xbab092f8	-0.0013471534
87	0x3c3c6900	0.011499643
88	0xbcf6cf8b	-0.030128261
89	0x3bf9ff4a	0.00762931
90	0xbd300d2d	-0.042981315
91	0xbd3e2a0e	-0.046426825
92	0xbc1ae22c	-0.009453338
93	0xbb87add9	-0.0041405973
94	0xbcf69ac5	-0.030103097
95	0x3d5f4980	0.054513454
96	0x3da08089	0.07837016
97	0xbd50a39b	-0.050937276
98	0xbb6b6b2d	-0.0035922036
99	0xbbbfa02e	-0.0058479523
100	0xbcaad558	-0.020853683
101	0x3d551b27	0.052027848
102	0xbd1c71a4	-0.038194314
103	0x3c63c3df	0.01390168
104	0xbc15d8f7	-0.009145967
105	0x3cc68ab8	0.024236068
106	0x3ca71452	0.020395432
107	0x3d26de01	0.040739063
108	0xbc53910b	-0.012912999
109	0xbd7a4263	-0.061098468
110	0x3c5f6044	0.013633791
111	0x3c46bca7	0.012129939
112	0xbc5c8864	-0.013460252
113	0x3dd678d5	0.10472266
114	0xbd4dadb0	-0.05021447
115	0xbc3d95d5	-0.011571367
116	0xbc4260fe	-0.011863945
117	0x3bdb4c53	0.006692448
118	0xbd3bdc7d	-0.04586457
119	0xbc9cafcd	-0.019126797
120	0xbbd47e33	-0.0064847707
121	0x3d9e77a8	0.07737666
122	0xbb364d10	-0.002781693
123	0xbd29138a	-0.0412784
124	0x3dd8e325	0.105901994
125	0xbcdb1e6b	-0.026747903
126	0x3a346455	0.0006881406
127	0xbc1953d5	-0.009358366
128	0x3d042cef	0.032269415
129	0xbd8759aa	-0.06608899
130	0x3d95fb9d	0.07323382
131	0x3d754f9d	0.05989038
132	0x3de5e7a9	0.11225826
133	0xbd338774	-0.04383035
134	0x3db5817b	0.08862587
135	0xbd3add4f	-0.045621213
136	0xbd92c97c	-0.07167336
137	0x3db1c5ea	0.08680327
138	0x3bae4278	0.0053179823
139	0xbd65e2e2	-0.056124575
140	0xbd8d6ec7	-0.06905895
141	0xbdec44e1	-0.11536575
142	0x3d4970d3	0.049179863
143	0xbd84fc95	-0.06493489
144	0xbd61f059	-0.055160854
145	0xbd9a1b90	-0.075247884
146	0x3dfb2ce0	0.122644186
147	0x3dd9bd66	0.10631828
148	0xbd520d1d	-0.051282037
149	0x3cf17346	0.029473912
150	0xbd8b05fa	-0.06788249
151	0x3cad0f45	0.021125445
152	0x3d8f472c	0.06995997
153	0x3d4cd0d5	0.050003845
154	0xbda4a6d7	-0.08039635
155	0xbdb673dd	-0.08908818
156	0xbb1ed1ee	-0.0024234015
157	0x3cb0c648	0.021578923
158	0x3d3b5f93	0.045745444
159	0xbcf1452a	-0.029451925
160	0xbe095547	-0.13411437
161	0x3dc9faa8	0.09862262
162	0x3ceaf761	0.028682413
163	0xbda61b60	-0.0811069
164	0x3d88ec92	0.06685747
165	0x3c43d3c2	0.011952342
166	0xbd93ed93	-0.07223048
167	0xbdd9da5e	-0.10637353
168	0xbc7ead98	-0.015544318
169	0xbd3a4ed7	-0.045485344
170	0xbdcc92ce	-0.09988938
171	0xbdd02f98	-0.10165328
172	0xbd022024	-0.031768933
173	0x3d9f5b69	0.07781107
174	0xbd223ed0	-0.039610684
175	0xbd3899c0	-0.045068502
176	0xbd73a415	-0.059482653
177	0xbce8ed8f	-0.02843359
178	0xbd5e2eb6	-0.054243766
179	0x3dc764f3	0.097360514
180	0xbd5e642d	-0.054294754
181	0x3d2da294	0.042391375
182	0xbd89ba1a	-0.06724949
183	0xbcf9c359	-0.030488657
184	0x3ba2061c	0.004944576
185	0x3daa9690	0.08329499
186	0x3da8dd97	0.0824539
187	0xbc971216	-0.018441241
188	0xbbc42ded	-0.00598692
189	0x3a94d42f	0.001135474
190	0x3cc2fb81	0.023801567
191	0x3d2d766b	0.04234926
192	0x3d43a8f5	0.04776855
193	0x3d124027	0.03570571
194	0xbbce43f5	-0.006294722
195	0x3c878d4a	0.016546864
196	0x3d022529	0.03177372
197	0xbb9d23ee	-0.004795543
198	0x3ca5a894	0.020221986
199	0x3d8c73ae	0.06858002
200	0x3d9bba55	0.076038994
201	0x3d5ccb3a	0.05390475
202	0x3dd01d53	0.10161843
203	0xbd027eed	-0.031859327
204	0x3db658b0	0.089036345
205	0x3ca17570	0.019709319
206	0xbd311514	-0.043232992
207	0xbbf30de3	-0.007417427
208	0xbb59c21e	-0.0033227275
209	0x3d98b016	0.07455461
210	0x3d321a7f	0.0434823
211	0x3c10b5db	0.00883242
212	0xbbe26e79	-0.006910142
213	0x3d9eb0c0	0.07748556
214	0x3e210cf7	0.15727602
215	0x3b7f2ec1	0.003893778
216	0x3c461d67	0.012091971
217	0x3d853d22	0.06505801
218	0xbc940774	-0.01806996
219	0x3d62b728	0.055350453
220	0x3c154c74	0.009112466
221	0x3c1cb39a	0.009564305
222	0x3cc739d5	0.024319569
223	0x3dbc40f4	0.09192076
224	0x3d0e1714	0.034689978
225	0x3ddc6b04	0.10762599
226	0x3c733d53	0.014846164
227	0x3cc8c564	0.024508186
228	0x3d75b682	0.059988506
229	0x3d12f2fa	0.03587625
230	0x3d5cb268	0.05388108
231	0xbd9bb8c5	-0.07603601
232	0xbcf9cfbb	-0.030494561
233	0x3cee305a	0.02907579
234	0x3ce298d3	0.027660763
235	0x3d1d79e1	0.03844631
236	0x3c8a5e1d	0.01689058
237	0xbd241813	-0.04006202
238	0xbd8dd377	-0.06925099
239	0x3d0c0933	0.03418846
240	0xbc7883a7	-0.015168107
241	0x3d72796a	0.05919782
242	0xbd2f69d4	-0.042825535
243	0x3ccd3f75	0.025054673
244	0x3cde993e	0.027172681
245	0x3bad0b83	0.0052809133
246	0xbc5d0fe3	-0.013492557
247	0x3d1ce0b4	0.03830023
248	0x3c846055	0.016159216
249	0xbd63575c	-0.055503234
250	0x3c98ecdc	0.01866763
251	0x3bcbf37a	0.006224093
252	0x3e387a98	0.18015516
253	0x3d7dc844	0.061958566
254	0x3d8fc648	0.07020241
255	0x3d555949	0.052087102

lstm.weight_ih_l1 f4 [256, 64]
0	0xbac1b225	-0.0014777823
1	0xbc0bd95c	-0.008535709
2	0x3b823f64	0.003974842
3	0x3b18f229	0.0023337698
4	0x3b30a3c8	0.002695309
5	0xbb03219a	-0.0020009042
6	0x3ab3dc7f	0.0013722329
7	0xbb09b34f	-0.0021011417
8	0x3bb61bf2	0.0055575306
9	0xbb0f1086	-0.0021829917
10	0xbba600a0	-0.0050659925
11	0x3b67623e	0.003530636
12	0xbba4010d	-0.005005008
13	0x3ad72beb	0.0016416287
14	0xbafe6d2b	-0.0019411197
15	0x3b0315f8	0.0020002108
16	0x39c13542	0.0003685151
17	0x3b2efc62	0.0026700725
18	0x3c0ad4b0	0.00847356
19	0x3bb4039f	0.0054935957
20	0x3b16b1ac	0.0022994084
21	0x38ab420a	8.166216e-05
22	0x3b00728a	0.001959952
23	0xbb39a6eb	-0.002832825
24	0x3b9acbd4	0.0047240052
25	0xb8f350ac	-0.00011602169
26	0xbbd5ea6b	-0.006528189
27	0xbb0e14a0	-0.0021679774
28	0x3939dd22	0.00017725353
29	0x39e7f3c3	0.0004424137
30	0xba4c9e4c	-0.00078055705
31	0x3ad91d20	0.0016564466
32	0xbc03c1b0	-0.008041784
33	0x3b937ad0	0.0045007244
34	0xba41d450	-0.0007394003
35	0xbb993523	-0.004675524
36	0x3af71a16	0.0018852379
37	0xb9473269	-0.00018996898
38	0xbae5fa48	-0.0017545903
39	0xbb9dbbe4	-0.004813658
40	0xbb0f9f24	-0.0021914924
41	0x3b3fc38e	0.0029260847
42	0xbbd18611	-0.006394156
43	0x3a9db414	0.0012031817
44	0x3a327cd2	0.0006808761
45	0x3b5c566b	0.0033620845
46	0x3a83cadb	0.0010054962
47	0x3b80edc4	0.003934594
48	0xbbc95ba8	-0.0061449595
49	0xbba4ceee	-0.0050295508
50	0x3a6d1fc1	0.0009045564
51	0xbb149081	-0.002266914
52	0xbac1b77e	-0.0014779416
53	0x39dc1e79	0.00041984374
54	0xbb60b054	-0.0034284787
55	0x3aeffae8	0.0018309029
56	0xbb2f5ed0	-0.0026759394
57	0xba5d4fec	-0.000844239
58	0xbadf0d5f	-0.0017017535
59	0xbbe6937f	-0.007036626
60	0xbb289b6d	-0.0025727407
61	0xbba99de2	-0.005176292
62	0xb88e1cfc	-6.7764864e-05
63	0xbb29ba0b	-0.0025898244
64	0xbba8d8b1	-0.0051527848
65	0xbb2bf934	-0.0026241066
66	0x3ba24695	0.0049522617
67	0x3b4391fb	0.002984165
68	0x3ba4b036	0.005025889
69	0x39b10da7	0.00033770243
70	0x39d8d208	0.00041355216
71	0xbb840fb3	-0.004030192
72	0x3af7e454	0.0018912652
73	0x3a261c20	0.00063365884
74	0xbaf25ac3	-0.0018490184
75	0x3ab07318	0.0013462035
76	0xbb997e56	-0.00468425
77	0xbb0694f5	-0.0020535563
78	0x3a64d01a	0.00087285193
79	0xbb182f84	-0.002322168
80	0x3a415f97	0.000737661
81	0xba2d1f5c	-0.0006604099
82	0x3c05951b	0.008153225
83	0x3bfafd78	0.0076596104
84	0x39cca8a4	0.0003903556
85	0x3b216b21	0.0024630504
86	0xb9821c09	-0.0002481642
87	0x3a845d55	0.0010098616
88	0x3aeb3cfe	0.0017947254
89	0xbb353712	-0.0027651233
90	0xbbf4230c	-0.007450467
91	0xbb3f4c72	-0.0029189852
92	0x38c422e4	9.352507e-05
93	0xb9a20cee	-0.0003090868
94	0xbb57cb5c	-0.0032927608
95	0x3b83f1f4	0.004026646
96	0x388ffa9c	6.865451e-05
97	0x3c0d404c	0.008621287
98	0xb9b649ac	-0.00034768635
99	0xba9bfc1c	-0.0011900696
100	0x3b8d37e0	0.0043096393
101	0x3b4a213e	0.0030842568
102	0xbaa05022	-0.0012230913
103	0xbb4ad80b	-0.0030951526
104	0xbb4be232	-0.0031110165
105	0xb8400d38	-4.5788678e-05
106	0xbc071ed3	-0.008247095
107	0xba38bac2	-0.0007046872
108	0xb9dcf288	-0.0004214237
109	0x3b9d019e	0.0047914525
110	0x3acc790d	0.0015600041
111	0x3bf52fbb	0.0074824966
112	0xbbf9489a	-0.0076075317
113	0xbc07d538	-0.008290581
114	0x3b7fc390	0.0039026476
115	0xba93a5b4	-0.0011264593
116	0xbb214836	-0.0024609691
117	0xb8ed49f3	-0.00011314815
118	0xbb85cb44	-0.004083069
119	0x3ae8c944	0.0017760177
120	0xba80450f	-0.0009786206
121	0xbb3f3deb	-0.0029181193
122	0x397c9e79	0.00024091628
123	0xbb84acab	-0.004048904
124	0x3b91c1fb	0.004448173
125	0xbad55936	-0.0016277197
126	0xbabc9816	-0.0014388587
127	0x3a93bd61	0.0011271649
128	0xbac5b9d2	-0.0015085286
129	0xbc29359a	-0.010327721
130	0x3bb99db6	0.0056645526
131	0x3b63c438	0.0034754407
132	0x3b972def	0.00461363
133	0xbb1869e3	-0.0023256473
134	0x3abb1099	0.0014271914
135	0xbb2d08b0	-0.0026402883
136	0x3b837df8	0.0040128194
137	0xba4185c9	-0.0007382301
138	0xbb848391	-0.0040440043
139	0x3b650e62	0.00349512
140	0xbbe2e316	-0.0069240434
141	0x3aca8356	0.0015450518
142	0xbb01e8ab	-0.0019822519
143	0x3adccad3	0.0016845114
144	0x3a383e45	0.0007028322
145	0x3b1f506a	0.0024309405
146	0x3c0b2401	0.008492471
147	0x3bed70c7	0.00724611
148	0x3b2318b2	0.0024886546
149	0x3a31f5e5	0.00067886553
150	0x3a7de587	0.00096853863
151	0xbb1dea3e	-0.0024095918
152	0x3bbb97b1	0.00572487
153	0xba3af64c	-0.0007132038
154	0xbbf08dbe	-0.0073411157
155	0xbb2a7ead	-0.0026015446
156	0x3999ff5a	0.00029372686
157	0x3a4f1eab	0.0007900993
158	0xba980d04	-0.0011600559
159	0x3b4327ba	0.0029778318
160	0xbc10061b	-0.008790518
161	0x3bf4c2c8	0.007469509
162	0xba268272	-0.00063518353
163	0xbb9c5549	-0.004770909
164	0x3b5d1f89	0.003374072
165	0x38c4c926	9.383475e-05
166	0xbb172334	-0.0023061754
167	0xbbb25663	-0.005442427
168	0xbb41fe05	-0.002960087
169	0x3b46265b	0.0030235264
170	0xbbf2295d	-0.007390185
171	0x3a4e0372	0.000785879
172	0x3a24efcf	0.0006291838
173	0x3b9ae19b	0.0047266013
174	0x3ac31163	0.0014882501
175	0x3ba0e4c9	0.004910086
176	0xbbe8201f	-0.0070839073
177	0xbb86b0c5	-0.004110428
178	0x3a97989a	0.0011565865
179	0xbb0b09cd	-0.0021215559
180	0xba08b12d	-0.00052143895
181	0x3a0abba1	0.0005292241
182	0xbb870eea	-0.004121651
183	0x3a878176	0.0010338265
184	0xbb2718e6	-0.0025497018
185	0xbac0d930	-0.0014713164
186	0xbaabf871	-0.0013120306
187	0xbbda2df7	-0.0066583115
188	0xbb29b50e	-0.002589527
189	0xbb9aea36	-0.004727627
190	0xb9ca6dc6	-0.0003861023
191	0xbb456770	-0.0030121468
192	0xba46574a	-0.00075661077
193	0x3b41cc31	0.002957117
194	0xbac7832d	-0.0015221589
195	0xbaec5216	-0.0018029835
196	0xba135fcf	-0.00056218816
197	0x3a291d6a	0.00064512214
198	0xba5d371e	-0.0008438694
199	0x38420884	4.6261135e-05
200	0xbb82a1ef	-0.003986589
201	0x3b2b52ed	0.0026141957
202	0x3af48c26	0.001865749
203	0xba6f13fd	-0.0009120105
204	0x39f22fff	0.00046193597
205	0xba728b93	-0.00092523656
206	0x3a84b8cf	0.0010125878
207	0xba56d193	-0.0008194681
208	0x393743b5	0.00017477463
209	0xb888404a	-6.49696e-05
210	0x388d1a19	6.728265e-05
211	0xb96d4bb1	-0.00022630279
212	0xb93a3b03	-0.00017760326
213	0xba05977c	-0.00050961203
214	0xbb9ae6b9	-0.0047272113
215	0xb8aacde2	-8.14458e-05
216	0xbb4a5231	-0.0030871744
217	0xb9011c90	-0.00012313039
218	0xb9dd0aae	-0.00042160362
219	0x39ac267e	0.00032835075
220	0x3a5ecddf	0.0008499305
221	0x3a7baf38	0.0009601
222	0xba8c95a5	-0.001072575
223	0xba7041fb	-0.00091651053
224	0x3b3c6fa6	0.002875307
225	0xb9314667	-0.00016906262
226	0x3a8ab9da	0.0010583953
227	0xb93ec416	-0.0001819286
228	0x3986d8ca	0.00025719992
229	0x3ad355f4	0.0016123638
230	0xb851ba82	-5.0003182e-05
231	0x3a674150	0.0008821683
232	0xba0b5800	-0.0005315542
233	0xbab5a5f2	-0.001385866
234	0xba55055a	-0.00081261026
235	0xba9b1953	-0.0011833109
236	0xba618f31	-0.0008604406
237	0x38857c51	6.36509e-05
238	0xba5f11ab	-0.00085094076
239	0xba964840	-0.0011465624
240	0xb9257dee	-0.00015782539
241	0x3b154315	0.002277558
242	0x3a1b4a4e	0.0005923853
243	0x3af88d2e	0.0018962973
244	0x3af59ba3	0.00187384
245	0x36a82db4	5.0121107e-06
246	0xb9a863a1	-0.00032117686
247	0xbaefbc4c	-0.001829037
248	0x3a87ffc2	0.0010375904
249	0xba9c394c	-0.0011918931
250	0x3a2e0185	0.00066377997
251	0x3b18a6af	0.002329271
252	0x3b878c22	0.004136578
253	0x3ad76b68	0.0016435208
254	0xba6866d8	-0.00088654226
255	0x3b1bde5e	0.0023783664

lstm.weight_hh_l1 f4 [256, 64]
0	0xbc6d1bbd	-0.014471945
1	0xbca19973	-0.01972649
2	0xbd2a83a9	-0.041629467
3	0xbbedc2b3	-0.007255876
4	0x3cd320d4	0.02577249
5	0xbc8694a8	-0.016428307
6	0x3b39218a	0.002824875
7	0xbd3b8cc9	-0.04578856
8	0xbc03f9c7	-0.008055157
9	0x3c522bec	0.012827855
10	0x3ca04774	0.019565322
11	0xbc8dd080	-0.017311335
12	0xbc9b6ad9	-0.018971847
13	0x3d177e33	0.036985587
14	0x3c38215b	0.011238421
15	0xbcfce3f7	-0.03087042
16	0x3adcb86b	0.0016839629
17	0xbca7e9a8	-0.020497158
18	0xbd0547d5	-0.032539207
19	0x3d23e2dc	0.04001127
20	0x3d23f98b	0.040032905
21	0xbd276b00	-0.040873528
22	0x3c96f789	0.01842858
23	0x3cdd427a	0.027009238
24	0xbc91b27f	-0.017785309
25	0xbcbab5a1	-0.022791686
26	0xbce1bfc9	-0.02755727
27	0x3c9bd758	0.019023582
28	0x39d72638	0.0004103647
29	0xbd2777fa	-0.040885903
30	0x3ad4ba1f	0.0016229785
31	0x3d1b0719	0.037848566
32	0x3d164859	0.03669009
33	0xbb44bf7c	-0.003002136
34	0xbd47ffb9	-0.04882786
35	0xbd1b6579	-0.03793857
36	0x3c98f0c5	0.018669495
37	0x3ccb4e07	0.02481748
38	0xbcc5e4b9	-0.024156915
39	0x3c720e1c	0.014773872
40	0x3bc08504	0.0058752317
41	0x3d1465a1	0.036229733
42	0x3c0944ed	0.00837825
43	0x3d51eb85	0.05125
44	0xbd0436c6	-0.0322788
45	0x3d3006fe	0.04297542
46	0xbbe70f5f	-0.007051393
47	0xbd19947b	-0.037495118
48	0x3d1d451f	0.038395997
49	0x3c4fd269	0.012684443
50	0xbc4713ca	-0.012150714
51	0xba947fde	-0.0011329611
52	0xbc94c4c2	-0.018160228
53	0x3c3e50d5	0.011615952
54	0xbac8761e	-0.0015293991
55	0xbd06a0c1	-0.03286815
56	0x3cc02613	0.023455655
57	0x3d00f6ab	0.03148524
58	0xbd08b40c	-0.03337483
59	0x3c36dbd2	0.011160808
60	0xbb57cb5b	-0.0032927606
61	0x38d8a142	0.00010329719
62	0x3cab7327	0.020928932
63	0x3b5a3472	0.003329542
64	0xba9ccf06	-0.0011963553
65	0xbc022117	-0.00794246
66	0xbc2f7e40	-0.010711253
67	0xbbb41e1b	-0.005496753
68	0x3c9eb7cd	0.019374752
69	0xbc135a63	-0.008993718
70	0x3b24dac7	0.0025154816
71	0xbcbc4afd	-0.022984976
72	0xbbcf7615	-0.006331215
73	0x3c98cd97	0.01865272
74	0x3cfd8b12	0.030950103
75	0xbca10da7	-0.01965983
76	0xbca13091	-0.019676479
77	0x3ccd48e9	0.02505918
78	0x3be0cc57	0.0068602967
79	0xbcb71026	-0.022346567
80	0x39e75c80	0.0004412867
81	0xbc887f61	-0.016662301
82	0xbb90e31e	-0.0044216057
83	0x3c961d1b	0.018324425
84	0x3c9680cf	0.018371968
85	0xbd02dba4	-0.031947747
86	0x3ac5b8b4	0.0015084953
87	0x3cf4bc83	0.029875046
88	0xbbed8b9e	-0.0072493097
89	0xbd22909a	-0.039688684
90	0xbc5f3b8e	-0.013625039
91	0x3c9001e8	0.017579034
92	0xba5a09b0	-0.00083174836
93	0xbd2d7ea5	-0.042357106
94	0x3b4a8ea9	0.0030907786
95	0x3d006232	0.031343646
96	0x3cbbd0db	0.022926738
97	0xbb360931	-0.0027776475
98	0xbccb6390	-0.024827749
99	0xbc13423e	-0.008987961
100	0x3d0fcbb5	0.03510638
101	0x3d02a848	0.031898767
102	0xbbe507a5	-0.0069894367
103	0x3bd6b1fe	0.00655198
104	0x3b62a283	0.0034581728
105	0x3cb29cdd	0.021803314
106	0x3bc141b5	0.0058977255
107	0x3cd3e4f3	0.025866007
108	0xbd36a502	-0.044590957
109	0x3d062b50	0.03275615
110	0xbb8d4dc2	-0.004312248
111	0xbc9ee84c	-0.019397877
112	0x3cf0691e	0.029346999
113	0x3b53b722	0.00323052
114	0xbb0e6a00	-0.0021730661
115	0x3a163e70	0.000573135
116	0xbbcff2c0	-0.0063460767
117	0x3c0d1a6e	0.008612258
118	0xba3469db	-0.0006882229
119	0xbce880ab	-0.028381666
120	0x3b0b38a8	0.0021243487
121	0x3c961bad	0.018323744
122	0xbceeb6ef	-0.029139964
123	0x3b40060c	0.002930048
124	0xba837a70	-0.0010030996
125	0xba8b569c	-0.001063067
126	0x3cb2f6e2	0.021846239
127	0x3a120fa9	0.00055717916
128	0xbcdc9458	-0.026926205
129	0xbca7d6c3	-0.020488149
130	0xbc8a7758	-0.01690261
131	0xbbddedf6	-0.006772752
132	0x3cced739	0.02524911
133	0xbcd3d216	-0.025857013
134	0x3b24296a	0.0025049099
135	0xbd2fa4c1	-0.04288173
136	0xbbd0227b	-0.0063517666
137	0x3cefb15a	0.029259373
138	0x3ced7d3e	0.028990384
139	0xbcbf7b37	-0.023374183
140	0xbd41553b	-0.047200423
141	0x3ceec124	0.029144831
142	0x3c4b9000	0.012424469
143	0xbd40a40a	-0.04703144
144	0x3ae0aea4	0.0017141891
145	0xbd173fa8	-0.03692594
146	0xbce3a1fb	-0.0277872
147	0x3cd01e18	0.025404975
148	0x3cca9a7a	0.024731863
149	0xbd1c595f	-0.03817117
150	0x3d289bd8	0.04116425
151	0x3d29fe9d	0.041502584
152	0xbca7682f	-0.02043542
153	0xbd46374d	-0.048392583
154	0xbd084f85	-0.03327896
155	0x3cb4a97d	0.022053475
156	0xb9a85efd	-0.0003211423
157	0xbd02e6c1	-0.031958345
158	0x3aa9193d	0.0012901198
159	0x3cfc34e1	0.030786933
160	0x3cfa3fd7	0.03054802
161	0xbadb0d11	-0.0016712268
162	0xbc9c4d1b	-0.019079736
163	0xbd0dbe26	-0.034605168
164	0x3d065a18	0.032800764
165	0x3c6f868b	0.01461948
166	0xbc4cedd4	-0.0125078745
167	0x3caf09bd	0.021366948
168	0x3c01a19b	0.007912065
169	0x3d074131	0.033021156
170	0x3c119b76	0.008887162
171	0x3d647775	0.055777986
172	0xbcadf21c	-0.02123361
173	0x3d053743	0.032523405
174	0xbc6956ea	-0.014241913
175	0xbcc278f2	-0.023739312
176	0x3cd92723	0.02650792
177	0x3c41b0f0	0.01182197
178	0xbc4a4181	-0.012344719
179	0xbaadabbb	-0.0013250032
180	0xbc8b5da8	-0.017012432
181	0x3c026089	0.007957586
182	0xbaf6bffd	-0.0018825528
183	0xbcc20e0d	-0.02368834
184	0x3d6e5de8	0.058195025
185	0x3cf60a00	0.030034065
186	0xbcd89840	-0.026439786
187	0x3cb32411	0.021867784
188	0xbba1ca70	-0.0049374625
189	0x399df240	0.00030125864
190	0x3cd4b359	0.025964426
191	0x3b6163e9	0.0034391826
192	0x3bcb74df	0.0062090005
193	0x3bb15f63	0.0054129823
194	0x3c999ce0	0.018751562
195	0x3bcbc38d	0.00621838
196	0xbc0e9fd3	-0.008705097
197	0x3c943046	0.018089425
198	0xbad3701f	-0.0016131437
199	0x3c838de5	0.016058872
200	0xbb08c547	-0.002086954
201	0x3a0aeab4	0.0005299256
202	0xbbd85467	-0.0066018584
203	0x3ad26785	0.001605258
204	0x3bc72545	0.006077441
205	0xbc8736a6	-0.01650555
206	0xbbb6cb47	-0.0055784318
207	0x3c5a9ae7	0.013342596
208	0xba1bc9cb	-0.000594285
209	0x3cc51ef8	0.024062619
210	0x3c3a2c82	0.011363151
211	0xbc9c51db	-0.019082
212	0xbc6becc7	-0.014399714
213	0x3c3adb93	0.01140489
214	0xbc4b0ebb	-0.012393649
215	0xbc096ec0	-0.008388221
216	0x3c575562	0.013142915
217	0xbb28d299	-0.0025760292
218	0x3c0d8596	0.008637806
219	0xbb9a1a97	-0.004702877
220	0xba147e15	-0.00056645396
221	0x3b9ad20b	0.004724746
222	0x3930587e	0.00016817634
223	0xbc66064e	-0.014039589
224	0xbca58a00	-0.020207405
225	0xb99d7a6d	-0.00030036588
226	0x3ab33856	0.0013673406
227	0x3cae55b6	0.021281105
228	0xbc6aff01	-0.014343024
229	0xbca14707	-0.019687189
230	0x3bfa09cd	0.007630563
231	0xbba10d6b	-0.0049149296
232	0xbbdc6bdc	-0.006726725
233	0xbc39957a	-0.011327142
234	0xbb70537f	-0.0036670861
235	0xbc8d6599	-0.01726036
236	0xbb3ef016	-0.0029134802
237	0x3b898b6d	0.004197529
238	0x3c1c274f	0.009530856
239	0x3cb641fe	0.022248264
240	0xbc2c4004	-0.010513309
241	0xbc0394b6	-0.008031061
242	0x3bfe48da	0.0077601494
243	0x3b1b89f5	0.0023733352
244	0x3cc4dd6e	0.024031367
245	0xbbb4dbca	-0.005519365
246	0x3b059750	0.0020384379
247	0x3cb375eb	0.021906814
248	0x3c23ae1b	0.00999024
249	0xbbb8b4c0	-0.0056367815
250	0x3c0dec6e	0.008662326
251	0xbad60c44	-0.001633056
252	0x3b80d661	0.003931806
253	0xb978d88c	-0.00023731793
254	0xbc09fb6d	-0.008421761
255	0xbac574e8	-0.0015064748
