fault_model_nn_allprior_11kv/last_Y2021.pt (torch, 545973 bytes, 15 tensors)

emb.weight f4 [4782, 16]
00000000: 2158 af3f 92c2 6e3f 8991 ee3e 6dd4 c4bf
00000010: 906b 653e b823 52bf 3b9c aabd 6fb6 89bf
00000020: 1a6c 85be e44e 8f3f 87f7 c1bc 6821 5ebf
00000030: fa62 92be 6f18 8abe b32f d0be 8a48 a23e
00000040: 08d8 8a3f 9bfb 0a3c e1d3 15be 08ea ce3d
00000050: 5eed 8bbe 001d 233f 0051 af3e 0095 923f
00000060: 7c67 413f 7ec3 493f 3045 2e3e d760 4e3f
00000070: 0d12 143d 31c1 45bd 552f 1ebd f4d7 b43e
00000080: 5184 55bf aff4 b7be 51af 2cb9 60dc 933f
00000090: 7f50 e63b fe09 1dbd b86d a63b e0ab 8dbe
000000a0: f707 80bf abb1 f03e 63c8 bbbe 8402 11be
000000b0: 3e99 3abf b7a1 c63f ef0b 31bf f952 8ebd
000000c0: 7f22 cbbe 03ed 3bbe 5244 dc28 b8a3 bb3d
000000d0: 8b69 8ebd 9da0 263f 5dae 9ebe 69c7 7abe
000000e0: 8a10 5abf 3c56 b425 d5ea 13a8 29a8 493e
000000f0: b01c b7aa 2abc a33f f7fc 24bf dc3d 553f
00000100: 150f 653f fea9 b73e 5eed d53f 9f20 1a3e
00000110: 9570 7f3d 8a97 c6bd 4fa2 1ebf e1ad 593f
00000120: a41e 3e3b 9074 683e 6e43 fdbc f243 f13d
00000130: fb34 943e 940b 96be b55c dfbf 5d67 aabe
00000140: 2a6d 6c24 db6a 30bc 64c5 4abf 40b6 05be
00000150: 76d8 c83d b826 ba3d 989f 1a3f 6796 48a6
00000160: 97b6 803e 813c 87bd 7ae9 04bf 3803 133e
00000170: a679 94bf 6cb3 a4be 7150 493f e868 893d
00000180: 3acf f7bf 51eb a93d 79e4 bb3e 560f 243c
00000190: e241 343e c749 883e 3608 163f 02d6 13be
000001a0: 939c ae3c 6804 a83e 6589 773d 335f 0e3c
000001b0: 260d de3d d1a4 403f 98c8 b33d 4a70 23bd
000001c0: 9461 79bf 3b01 0cbd 37f4 cebe b865 0b3e
000001d0: f76e 933e e9ec 483e 6789 b7bd d2db 763e
000001e0: 09d2 0ebe fbab b63d 126a 18bd 1a53 f03e
000001f0: 696a 183f 5af9 913e 88b1 c53e 88b6 643e
00000200: e191 ae3f 183d f83e bd32 62bf e8eb 17bf
00000210: 5795 06ae 79ac 893f 3d49 393e 5146 fe3d
00000220: 5ab2 1a3f baf3 c324 8ce3 9ebf 8c69 d03e
00000230: c529 a6bc cb12 013f d872 52be 1b84 2b3e
00000240: 7211 e6be 7285 df3e afa9 873f 16b0 653f
00000250: a143 d63a 3985 85b8 f91f 78be 2e40 0a2a
00000260: cd76 553c dfb9 e33e b232 6cbd 95e0 853f
00000270: 66b5 f3bf a71d 11bd bc9b 27bf f8f3 9d3e
00000280: 7fbc aabf d3de 7039 886e aa25 2fac 4abc
00000290: 9fec 413b 357f 76be 67b4 8f35 9c64 0fbf
000002a0: ed8c 85bf 69c0 4d3f 4328 3e3f 0713 c1a6
000002b0: 6469 7dbf aa13 863e 2b11 8e3e ba88 ba3f
000002c0: 9c33 4abb e1ea 7dbd 2d73 30bf 4bd0 32be
000002d0: d4be 01bf 34c0 a1bf d5ea 46bf 4c04 07bf
000002e0: 9ec8 cdbe 03b0 8fbf 1548 bdbf c68d 0c3e
000002f0: 61c1 193f cc9e 51be af12 ea3e da23 053f
00000300: 0f3c 9b3f ba4d d7be 255e f93e 1d4d 07bd
00000310: 763d 24bf b819 bf3d 1660 d53d 4a48 533f
00000320: 2c79 0e3e 49d2 c63f b22a b8bd 0b7c e3be
00000330: fdd9 cd3d 66fd 0b3f de13 633f 77aa ae3d
00000340: 7a7c a3be 867e fbbe 870d 58bd cb1e 06be
00000350: b655 5d3c 5a5c a43c 42ec 47bd 9c85 debf
00000360: ca06 0a3a 7d7a 0f3f 2f85 9bbf 95e2 723f
00000370: 8c61 b03d dba5 f4bd 352a 163f 3182 903f
00000380: 187e fda3 1a92 8d3f 26a9 b931 5672 07bf
00000390: 4ca0 f9bd f92e 7027 ca10 ea3c 24d9 b53f
000003a0: 7c68 5c28 21a2 c7be c351 bdbf 7759 0cbf
000003b0: a052 1222 da25 c428 cca6 5337 ab36 043d
000003c0: 7d18 d2be a67c 083b ec50 ccbd d3ba 653d
000003d0: 613f b8be 096b 1325 1f77 67bc 0af2 683f
000003e0: 3f11 363f 2764 69be 223e b03e d1c8 ab3d
000003f0: f46c cd3d ddc8 ef3d fb1b a33d 617d 2239
1.369877 0.9326564 0.4659541 -1.5377327 0.22404313 -0.8208575 -0.0833058 -1.0758799
-0.26059037 1.119595 -0.0236776 -0.86769724 -0.28591138 -0.26971766 -0.40661392 0.31695968
1.0847178 0.008482839 -0.14631607 0.10103232 -0.27329534 0.63716125 0.34241486 1.1451721
0.7554853 0.7881392 0.1701858 0.80616516 0.036150027 -0.048279945 -0.038619358 0.3532101
-0.83405024 -0.35928866 -0.00016468509 1.1551628 0.007028639 -0.038339607 0.0050789975 -0.27670193
-1.0002431 0.4701055 -0.3667632 -0.14161116 -0.7289008 1.5518101 -0.69158834 -0.069494195
-0.39674756 -0.18352132 2.4454536e-14 0.09162086 -0.069537245 0.65088826 -0.30992404 -0.24490131
-0.85181487 3.1283457e-16 -8.21106e-15 0.19693054 -3.2527236e-13 1.2791798 -0.64448494 0.83297515
0.8947614 0.3587188 1.6713064 0.15051506 0.062363226 -0.096968725 -0.61966413 0.85030943
0.0029009962 0.22700715 -0.030915942 0.11780538 0.2894667 -0.29305708 -1.7450167 -0.33281985
5.1266808e-17 -0.010767664 -0.79207444 -0.13057804 0.09806912 0.09089416 0.6039977 -6.959277e-16
0.25139305 -0.06603337 -0.51918757 0.14356697 -1.1599624 -0.32168138 0.7863837 0.067094624
-1.9360116 0.08296836 0.36697748 0.010013422 0.17603257 0.26618788 0.5860628 -0.14437106
0.021314895 0.32815862 0.060433764 0.008689689 0.108423516 0.7525149 0.087784946 -0.03990201
-0.9741452 -0.03418086 -0.40420696 0.13613021 0.28795597 0.19621624 -0.08961754 0.24107292
-0.1394731 0.089195214 -0.03721053 0.469384 0.5953737 0.28510553 0.38612008 0.22335255
1.3638269 0.4848411 -0.8835867 -0.5934434 -3.0600713e-11 1.075576 0.18094344 0.124157555
0.6042839 8.498066e-17 -1.2413192 0.40705526 -0.02028359 0.504193 -0.20551622 0.16749613
-0.44935185 0.43656498 1.0598658 0.8972181 0.0016347059 -6.366749e-05 -0.24230947 1.2279129e-13
0.013028813 0.44477746 -0.057665534 1.0459162 -1.9039733 -0.03542867 -0.65472007 0.30850196
-1.3338774 0.00022971192 2.9565198e-16 -0.012370153 0.00295905 -0.24071963 1.0706834e-06 -0.5601289
-1.0433632 0.8037172 0.74280185 -1.3397223e-15 -0.9898894 0.26186877 0.27747473 1.4572976
-0.0030853515 -0.061991576 -0.68925744 -0.1746227 -0.50681806 -1.2636781 -0.77702075 -0.5274093
-0.4019212 -1.122559 -1.4787623 0.13725957 0.600607 -0.20470732 0.4571738 0.5200783
1.2127703 -0.42051488 0.4870464 -0.033032525 -0.6415628 0.09331077 0.104187176 0.8253218
0.13913411 1.5532924 -0.089925185 -0.44430575 0.100513436 0.5468353 0.8870219 0.08528607
-0.31930906 -0.49119967 -0.052747276 -0.13097684 0.013509205 0.020063568 -0.048809297 -1.7384524
0.0005265294 0.5604628 -1.215002 0.94876987 0.086123556 -0.11945697 0.5865815 1.1289731
-2.7483718e-17 1.1060212 5.4034386e-09 -0.5290884 -0.12188777 3.3332155e-15 0.028572459 1.4206891
1.223511e-14 -0.38990882 -1.4790577 -0.5482401 1.983043e-18 2.1776787e-14 1.26154155e-05 0.032278698
-0.41034308 0.002082625 -0.09976372 0.056086373 -0.35985854 1.2786482e-16 -0.014127522 0.9099432
0.71120065 -0.22792111 0.34422404 0.08387912 0.10030547 0.117082335 0.07964321 0.00015496231

lstm.weight_ih_l0 f4 [256, 3]
00000000: ddd3 f83a e42f 8dbd f5ce b3bd 0e3c f33a
00000010: b709 9a3d 8b68 c1bc f86e 78bc 5a46 a9bc
00000020: 8c72 d2bc f69c b53c 4cba a8bd 9b36 1bbd
00000030: 305d 06bd 0143 e5bd fd72 96bc bef2 f6bc
00000040: dd1d 98bc 3891 1f3c 2371 3abc e2c7 9abc
00000050: 9218 733d f7eb 62bd a954 3f3d effe 9dbd
00000060: 2031 71bc 1a21 05bd 3304 9dbc c622 51ba
00000070: 2622 123d b139 70bb 07e0 79bd 8ce0 de3c
00000080: 0e88 803d ab3d 253b 9768 e2bc 2445 58bd
00000090: 3472 e4bc 1263 643d de67 223a 869c 733c
000000a0: ce9b 64bd 2651 d53d 4ab5 29bc 93e9 393c
000000b0: f087 523d 8c09 56bc dc40 febd feec 8b3c
000000c0: 24b4 0abd c62f 6c3d afc6 093d 8d14 77bc
000000d0: ff14 013d 7590 973b efba 1ebd f4b6 f4bd
000000e0: f006 bd3d 9f63 e63c 9666 ddbd 4604 3ebd
000000f0: ad0c 5e3c 5f02 12bd 7755 25bd 65f0 003c
00000100: 951e 13bd fdb8 9ebc 1ffa 003b fe57 a0bc
00000110: 89ed d73b 018b 23bd 2b6e 0a3d d041 ae3d
00000120: 2b2d b4bc 4789 783d 864f bcbd 65d4 b03c
00000130: 7cb5 43bc 8c80 c33b 2df8 6c3d 94f3 9dbc
00000140: 2970 fabc 2632 1fbd 5229 753a b7a9 793a
00000150: 36fc 983b ab64 efbc d4f3 ebbc 9b5b f33b
00000160: b4ed b8bc fa94 9abb 2f60 39bd edb1 9dbd
00000170: 6ba2 9d3d 26d1 a3bc 73ab 05bc 57cb cb3d
00000180: 0af1 ec3d d033 b3bc 91ad 843b ab21 863c
00000190: 801d 873d 0a37 6abd df54 bcbb 12ed 453c
000001a0: 27b9 adbc 8218 18bd 8616 b8ba d022 593d
000001b0: 7254 9d3c da7a d7bd 3415 08bd 7d00 a8bc
000001c0: 0632 8dbd 4d91 afbd 00c0 96bc fad5 883c
000001d0: 1025 0ebd 0a11 06bd abb8 8ebd c67b a03c
000001e0: f46b 20bb 26ac 9c3c acc5 0bbc f2d0 9a3a
000001f0: 8f82 e4bd 1738 0ebc dbf9 c33c 27b1 73bc
00000200: 97f9 903b 3bd8 dbbb 188d dcbd c359 1c3d
00000210: ee97 6dbc acba 7f3d 5206 9d3a cbb5 2c3d
00000220: b2ce aabd 51fc 213d 770f b1bb 0f92 a8bd
00000230: d986 1b3d 67a6 04bd 1efe 1ebd 7fab 55bb
00000240: b618 c8bc 54e0 693a 3629 39b8 563b d33b
00000250: 035d 893c bc2b a53d 019a 363d 2345 51bc
00000260: 7fa3 dc3c af37 33bc ea94 c63b 18fd 7bbd
00000270: 4977 d8bb 5ff3 e63c f60a 7ebc 1893 3d3c
00000280: d5ca 4b3d c40b c1bd 9d24 493b 64ae ddbb
00000290: e4d8 e1ba 30a2 d339 0eee 16ba 7609 e8ba
000002a0: cb65 3fbd b573 16bd 5858 03bc a23f b03c
000002b0: 378c 8ebb ba9e 383d 412e 0b3c 038a 653c
000002c0: e956 9fba ef55 0dbd b1c0 fcbd 1cc4 87bb
000002d0: bb61 39bd 289d 6c3d 3be9 9c3c 3130 183d
000002e0: 79dd 9b3d 18ba 4cbd 2f0b 81bd c0e0 d0bd
000002f0: 2e66 c5bc cea7 22bd cdcd c83c 69aa 93bb
00000300: 7dba 48bd a136 d2bc 80c7 e83d 23b7 153c
00000310: 672c 493d ef42 323d 1693 053d 1377 a2bc
00000320: 8c57 a83c 5ff7 19bd 97b6 b6bd a178 e13d
00000330: cabb 2bbc fcc5 1b3d c332 303b 8c0c 3fbd
00000340: 4eae cdbb 6d57 813c d727 9b3b 4e6f debc
00000350: a03e 5a3d 437f 9b3c 8048 813d 93b1 193d
00000360: 2150 86bc 6a91 d9bb 289a df3c 02cd 18ba
00000370: e881 823c 7b0a 85bc a765 98bd 2b73 ac3c
00000380: a5c8 6f3b 07f0 d0bc 3268 33bd c024 6dbc
00000390: b514 a43c af36 5d3c 8257 3e3d 0e33 5dbc
000003a0: a6ee c93c cf14 6f3b 277a 11bd fb90 a4bc
000003b0: 5d72 b63d d026 10bd c918 443d 273d 22bd
000003c0: 246a 483c d0fb c43c 1025 543d 8556 65bd
000003d0: a013 493a c6bc 383d 4ea3 62bd 3c0a 163d
000003e0: c783 0bbd 5a00 1dbd 94da 173c e1d3 893d
000003f0: 130f fe3c c8cf 7cba 627b b8bc 5153 d8bb
0.0018984039 -0.068939 -0.08779708 0.0018557326 0.07521384 -0.02360942 -0.015163176 -0.020663429
-0.025689386 0.022169571 -0.08238658 -0.037893873 -0.032803714 -0.111944206 -0.018365378 -0.030145045
-0.018568927 0.009739213 -0.011379513 -0.01889414 0.059349604 -0.055400815 0.046711598 -0.0771464
-0.014721185 -0.03250227 -0.019167041 -0.0007977899 0.035677098 -0.003665548 -0.061004665 0.027206682
0.0627595 0.002521376 -0.027637763 -0.052800313 -0.027886488 0.055758543 0.0006195287 0.014868861
-0.05581265 0.104158685 -0.010358164 0.011347192 0.05139917 -0.0130638 -0.12414715 0.01708078
-0.0338632 0.057662748 0.033636745 -0.015080583 0.031514164 0.004625375 -0.038752493 -0.11948958
0.09229839 0.028123675 -0.10810582 -0.046390794 0.013552827 -0.035646793 -0.04036471 0.0078698145
-0.035917837 -0.019375319 0.0019680334 -0.019573208 0.0065895957 -0.039927486 0.03379647 0.085086465
-0.021994194 0.060677793 -0.091948554 0.021585653 -0.011945125 0.0059662517 0.057853866 -0.019281186
-0.03057106 -0.038866185 0.00093521655 0.00095238857 0.0046687378 -0.029222807 -0.02880279 0.0074266917
-0.022574283 -0.0047174664 -0.045257743 -0.07699952 0.076969944 -0.01999719 -0.008158552 0.09950893
0.11569412 -0.021875292 0.004049011 0.016373476 0.065974236 -0.057181396 -0.005747422 0.012080448
-0.021206452 -0.037132747 -0.0014044798 0.053011715 0.019205306 -0.10521479 -0.033223346 -0.020508045
-0.06894307 -0.08572636 -0.0184021 0.016703594 -0.034703314 -0.032731093 -0.06968816 0.01959027
-0.0024478408 0.019125056 -0.008531015 0.0011811538 -0.111577146 -0.008680365 0.023922851 -0.014873779
0.0044242847 -0.0067091263 -0.10769099 0.03817154 -0.014501555 0.062433884 0.0011980033 0.04216556
-0.08340205 0.03954727 -0.005403455 -0.082309835 0.037970398 -0.032385256 -0.038816564 -0.003260344
-0.024425846 0.0008921672 -4.4145818e-05 0.0064462824 0.016767984 0.08064982 0.044580463 -0.012772831
0.02693343 -0.010938569 0.0060602324 -0.061520666 -0.006606017 0.02819222 -0.015505543 0.011570714
0.049753983 -0.09426072 0.003069199 -0.0067651737 -0.0017230776 0.00040365895 -0.0005757519 -0.0017703015
-0.046727937 -0.03673144 -0.008016668 0.021514717 -0.004350211 0.04507325 0.0084949145 0.014009955
-0.0012156639 -0.03450578 -0.123414405 -0.004143251 -0.04525922 0.057767063 0.019154182 0.037155334
0.07610602 -0.04998216 -0.06300961 -0.10199118 -0.024096575 -0.039710812 0.024512196 -0.0045063985
-0.049005974 -0.025660815 0.113661766 0.0091379015 0.04911461 0.043520864 0.032610975 -0.01983217
0.020549558 -0.037589427 -0.08921545 0.11009336 -0.010481784 0.03803061 0.0026885725 -0.046642825
-0.0062768823 0.015788758 0.004734974 -0.027152684 0.05328238 0.018981582 0.063126564 0.037522864
-0.01639563 -0.006639649 0.027295187 -0.00058288884 0.015931085 -0.016240349 -0.07441264 0.02105101
0.00365881 -0.025505079 -0.04380054 -0.014474094 0.020029405 0.013501807 0.046470173 -0.013500942
0.02464993 0.0036480909 -0.035516884 -0.020088663 0.08908532 -0.035193264 0.0478752 -0.0396091
0.012232337 0.024045855 0.051793158 -0.055990715 0.0007670466 0.045101903 -0.05533152 0.036630854
-0.03406122 -0.038330413 0.009268422 0.06729866 0.031013047 -0.0009643999 -0.022519771 -0.006601729

lstm.weight_hh_l0 f4 [256, 64]
00000000: d245 a43c 5834 60bd c192 ed3d 8fe3 bb3d
00000010: 1216 b03d 3477 803b 78a4 9abc 6492 89bd
00000020: 39a0 5ebd dfea 053d 320a dbbb cc6a 07bd
00000030: c5a4 bebd a806 8fbd 4e6a ef3b 42bd babd
00000040: 8bbf 67bd 514b 74bd 047f c03d 6882 9f3d
00000050: ec27 bdbc 89e0 b23c 9494 2cbb 524b 03bd
00000060: cd08 2f3c b707 5ebd 7d4e 5c3c fc34 28bc
00000070: c5ab bf3d 9884 19bc d641 563d d24d cf3c
00000080: 2800 173c d4a4 b43d 04e3 c73c 9b9d 31bd
00000090: 340d a33d d2e7 7cbc d9c0 aabd d59b 3ebd
000000a0: bd71 fdbb b3be c6bd 833c 46bd 23cb 16bc
000000b0: ce11 8cbd 66f7 a93d 5664 ca3d 984f a53d
000000c0: 157c a9bd 83cd 45bc d191 be3d 6414 4bbd
000000d0: 5dca d83c b915 c93b bee1 1f3d 1ec5 4cba
000000e0: d0bd 2e3d 8672 c73b 466b cbbc 0f82 89bd
000000f0: 6bf2 0dbc 31b9 5abd 4952 16bd 87c0 c83c
00000100: 0969 73bb c244 9b39 52ed c43b 218d 723c
00000110: 9e9b 02bc 0349 e93b 9944 ebba 65d5 963a
00000120: 5dec 4539 0b5d 80ba c63f 113b 1a49 90bc
00000130: 5c74 ebbb 57a3 e53b 51e0 583c 8bef cebc
00000140: e31f d93b 010f 75bc 2037 31bc 6790 4e3b
00000150: b623 1d3c 2a20 4abb 80bb 8c38 bc16 c33a
00000160: d95d 073a c60a 40bb ca50 54bc c536 3c3c
00000170: a99e 0abb bce7 3339 88aa 2bbc 74c5 903c
00000180: ad18 e8ba 2022 d73c 2558 fcbb 5cda db3b
00000190: 5ba1 52bb fa92 b5ba 03ca f8bc 11cc 07bd
000001a0: 3129 f4bb f027 f4bc ef36 d9ba 10b5 cebc
000001b0: fc95 183a 834b 0dbc 03c4 a9bc 8c10 9ebb
000001c0: 90a2 18bd 4657 16bd 8515 f83c d890 a03a
000001d0: 6e8f 583a adb1 803c 733b 07bd 2414 9d36
000001e0: 1cfe a03b 47ba 833c 99a9 af3b 8286 213d
000001f0: 8ad1 c439 c7ff 32bc 8c48 13bb d977 bdbb
00000200: ae46 cbbd 47ae 613c 989c d63d bcd1 963d
00000210: 30e8 86bd 6644 403c ad90 563c 5883 c0bd
00000220: 62a3 9f3b b031 f3bb a35a 233d 42cb d3bc
00000230: 95e6 78bd 37a9 de3c 8e3d cd3c 8a8d e0bd
00000240: 8399 fc3c 820f 213d c700 da3d 5d82 693d
00000250: be59 adbc 108c d63d 16a0 36bb c1df 86bd
00000260: 8209 21bd 5b2c 07bd 1f79 bf3a ccfb 87bd
00000270: 5bab 53bd 4a69 7ebc b416 26bd 8eff b53d
00000280: 155f 84ba ef19 ddbc e9d5 c3bc 39e4 9b3d
00000290: e7e4 073d 1247 28bb 4787 573d 4a8d 9bbd
000002a0: d4ef ef3c 3a99 6f3d dd46 86bd ae24 0dbd
000002b0: de69 98bd 851f 77bd 885b c03d 24bb c03d
000002c0: 9db8 5b3c c0aa 463d bb6e 2cbc 37e9 f03c
000002d0: 7ce8 883c 8efc 93bd f0a0 6dbd 1ee8 88b7
000002e0: 6d90 9c3b 92ee e2bb 5281 c73c d2ab e0bd
000002f0: a95f e33c 4a62 55bd 3c61 803c 94dd 053d
00000300: d2bf 02bd 0cf4 da3b c88d 38bd dff3 dbbc
00000310: 499c 2bbd a5db ca3c 8325 40bd 425e b9bd
00000320: 24c5 873b 1a5d c1bb 4a27 f63c 3d9d a2ba
00000330: c97a 05bd 1600 99bd 8af5 053d 3615 debc
00000340: 60e1 083d 2925 eabc 404e 62bd 3ef7 e23d
00000350: f67f 223d 4432 a8bc 032a 32ba 5a2a 703b
00000360: ab87 86bd 0550 d7bd 9793 d2bb 766d b0bd
00000370: c3f6 403c 7377 d43c ef8a 94bc 8b2d 32bc
00000380: f79f c2bb e6c2 9d3d 0e51 1bbc 0aad 8ebc
00000390: 2dd7 563d 0749 1f3d 0aaf 5ebd 0b73 29bd
000003a0: e958 dd3c 2fef 4fbd f9fc 85bd bdcc 593b
000003b0: 2476 ae3c ce68 3e3d b2c1 3cbc 9c3d e73b
000003c0: 7eab f03c 6569 4b3d 56b2 903c 16a0 c7bc
000003d0: d6c4 bc3b 6974 6dbd 1d51 803b d68b 0238
000003e0: 08fe c13a 586d a1bd b908 d7bc 7f4a 4fbc
000003f0: 0248 463a dc3c 823b 886d 07bc 8be4 b2bc
0.020052824 -0.05473742 0.11600257 0.09174263 0.085979596 0.00392046 -0.018877253 -0.06717375
-0.05435202 0.032694694 -0.006684565 -0.033060834 -0.09308771 -0.069836915 0.0073063737 -0.09118129
-0.056579154 -0.05964214 0.09399226 0.07788545 -0.023090325 0.021835582 -0.0026333677 -0.032054253
0.010683251 -0.054206576 0.013446447 -0.010266539 0.09358934 -0.009369992 0.05230888 0.025305662
0.009216346 0.08820501 0.024400242 -0.043363195 0.07961503 -0.01543613 -0.08337564 -0.04653533
-0.007734506 -0.09704342 -0.048397552 -0.009203705 -0.068393335 0.08299141 0.09882419 0.08071822
-0.0827562 -0.012072924 0.09305156 -0.049579993 0.026463682 0.0061366227 0.039033644 -0.0007811355
0.042661488 0.0060866503 -0.024831425 -0.0671426 -0.008663754 -0.05339927 -0.036699567 0.024505867
-0.0037141463 0.00029615132 0.006009736 0.014804156 -0.007971672 0.0071192994 -0.0017949521 0.0011507688
0.00018875436 -0.0009793354 0.0022163256 -0.017612983 -0.007185502 0.007007997 0.013237075 -0.025260707
0.0066261156 -0.0149571905 -0.0108163655 0.0031519176 0.009591034 -0.0030841925 6.710645e-05 0.0014884095
0.00051638257 -0.0029303296 -0.012958715 0.011487667 -0.0021151698 0.00017157098 -0.01047767 0.017672278
-0.0017707549 0.02626139 -0.0077009373 0.00670938 -0.0032139632 -0.0013853007 -0.030369764 -0.033153597
-0.0074511995 -0.0298042 -0.0016572158 -0.025232822 0.0005820689 -0.00862396 -0.020723348 -0.00482375
-0.037264407 -0.036704324 0.030283699 0.0012250198 0.0008261119 0.015709722 -0.03301568 4.6813093e-06
0.0049131047 0.016080035 0.005360794 0.039434917 0.00037540152 -0.01092524 -0.0022473661 -0.005782109
-0.099255905 0.013774461 0.10479087 0.073642224 -0.06587255 0.011735057 0.013096017 -0.09400052
0.0048717717 -0.0074216947 0.03988136 -0.025853757 -0.060766775 0.027180297 0.025053766 -0.109644964
0.030834919 0.03932143 0.106446795 0.05700909 -0.021160956 0.104759336 -0.0027866415 -0.065856464
-0.039315708 -0.033001285 0.001460824 -0.06639823 -0.05167709 -0.015528033 -0.040548995 0.08886634
-0.0010099137 -0.026989905 -0.023905711 0.076118894 0.033177283 -0.0025677127 0.052619245 -0.07595308
0.029289164 0.058495738 -0.06556485 -0.03445881 -0.074420676 -0.060332794 0.09392458 0.09410694
0.013410714 0.048502684 -0.010524447 0.02940808 0.01671242 -0.07225905 -0.05801481 -1.6320551e-05
0.004777959 -0.0069254125 0.024353657 -0.10970272 0.027755575 -0.05209569 0.015671365 0.032682016
-0.031921215 0.0066819247 -0.045057088 -0.026849685 -0.041897092 0.024762938 -0.046910774 -0.090511814
0.004143374 -0.005900991 0.030048031 -0.001240648 -0.0325878 -0.074707195 0.032704867 -0.027109724
0.03341806 -0.028582172 -0.055250406 0.11082314 0.039672814 -0.020531781 -0.00067964214 0.0036646337
-0.06568845 -0.105133094 -0.0064262855 -0.08614628 0.011777583 0.025935864 -0.018132655 -0.010875116
-0.0059394795 0.077031896 -0.009479774 -0.017416496 0.0524513 0.038888004 -0.05436615 -0.04136948
0.027019935 -0.050765213 -0.06542391 0.0033233606 0.021296568 0.04648667 -0.01152079 0.007056905
0.029378649 0.04966106 0.017663162 -0.024368327 0.0057607694 -0.057972346 0.0039159195 3.1124648e-05
0.0014800439 -0.07882184 -0.026249276 -0.012652039 0.00075638306 0.00397454 -0.00826586 -0.021837493

lstm.bias_ih_l0 f4 [256]
00000000: c45e c1bd 8fc6 54bd ea05 063e 0155 c43d
00000010: 598f 91ba 13a9 16bd 5010 733d 42e5 de3d
00000020: 690f 29bc 225e 0c3d bf5b e7bc aac6 af3d
00000030: 4c76 c53d aae8 9f3d f3d0 bc3d 650d fa3c
00000040: d57f aabd 1552 0abd 096b 823c 9b13 91bd
00000050: 9f6a 5d3c 8088 113d eccb 63bd a232 f93d
00000060: 9901 de3d f6d9 433d 97ce 3abd 120e f33d
00000070: d885 f03d 2da5 bc3d ddee 8e3d 7b3e 06bd
00000080: e25b 5dbc e520 133d a4a6 dd3d c73c c6bd
00000090: e1ca 8bbd 1517 2cbd e964 0c3d 8d42 e83d
000000a0: d804 133d f9eb 303d e74b 0d3e ed09 e43c
000000b0: 69a2 bcbc 23cf ffbc 888c abba 0427 943c
000000c0: be14 0b3e fabf cebc 363d 9e3d 8e0e 283c
000000d0: 910a b63a 6a74 e83d 91f9 a63d c7f9 d23b
000000e0: 916b 6fbd 2d4c b63d 72f4 88bd 0439 65bc
000000f0: 8f41 943d ea33 c3ba 5ab2 e33d 3a2c c73d
00000100: 9708 fe3d 6210 eabb 6452 ef3d c067 843d
00000110: b953 1d3e 53fd 05bd 289a fdbc a037 7f3d
00000120: 7bf8 663d c574 063c 1ad6 20bc 6399 0f3d
00000130: 7a8b 8d3d 2bef a63c ffc1 053d 702d e0bc
00000140: 9ff5 a43d 7424 ab3b e1eb 093e a341 a1bd
00000150: 6e4d ad3d 898c 17bd 13ea 30bd 2a2a f13c
00000160: 270e c23d 9135 44bd cfbb c13d 2e6b 093e
00000170: ddc2 393d 6aa7 0cbd 6eb7 7e3d fc2e 0f3e
00000180: 17bc 823c 66bf aa3c ac39 57bd 6338 2e3c
00000190: a6e3 bf3d 1255 7dbd cd80 e0bb 296f 3dbd
000001a0: 0b86 acba 8bda a43d d83d 903d d8ed 823d
000001b0: cffd 193c 6f4e 3e3d eea3 b83c 4ff3 6d3c
000001c0: a45f 833c d71e d13c f1d5 0e3e 0c1d 48bc
000001d0: 4151 15bd 15ca a1bd 4191 7ebd c15f afbb
000001e0: 0d9e 29bd 8e75 0f3e a178 fe3d 4125 a43d
000001f0: 81fe 803d 8d22 b63c 88a5 b63d b87c 923d
00000200: 5142 a4bd 17e4 02be b8ae ff3d 5e4a c33b
00000210: c9cc e3bb d996 dd3d 4036 05be aa4a 8ebd
00000220: 4e28 863d f972 cbbd e785 3e3a 6699 d73c
00000230: 1ac8 f0bd 7064 153d 74a8 07bd 86f4 603d
00000240: e8fa 1a3e de26 8c3d 2d1e f13d 43d1 b23d
00000250: 5987 0d3e 52e8 323d 6e14 3cbd 227d 3b3d
00000260: 33a4 9bbd d97e debd 0dc8 19be 2a64 1abd
00000270: 690b fe3d 6821 983d c0be f4bd a320 f73d
00000280: 5e0c 853d c3e5 8a3c 4175 e03c f330 c23c
00000290: c9d8 e63b 8409 b33c a5a4 02be 808c 09be
000002a0: 6716 13be 77dc 973d eee6 d8bd ba7b 48bc
000002b0: ec10 afbc 03fc b13d 1cce 163e 7812 063e
000002c0: 4f25 21be a242 21be c4af 013e 3413 adbd
000002d0: 054e f63d b782 80bd 56a4 d9bd b038 2e3d
000002e0: b9f9 7abd 2a94 21be ad9c 9abd df7c 0fbe
000002f0: 05bc c23d a2d9 4dbd e605 e6bd 1ecf 26bd
00000300: c928 87bb c19d 6f3d 30d4 7a3c 4f03 6ebd
00000310: 2dff a6bd 0798 15bd df32 9bbd e63f ebbc
00000320: a581 4f3c 2314 41bd 4288 4abc 7b53 9c3a
00000330: 6061 edbc 2e49 d3bc 3b42 32bd d1e8 083e
00000340: 9302 8abd b864 78bd 04b6 35bd fb64 e73c
00000350: d25f a53d 439a a43d 3372 f93c 1699 ec3d
00000360: dd04 163d 7d56 c13d 5b88 05bd 076d 983d
00000370: 362b 073e 5335 e63b 9cac 743d b78b b3bc
00000380: 4c62 3cbd a2b0 04bd 746b 813d 18a1 a73c
00000390: 47a5 913d 3189 513c e82d 49bd fbee 013e
000003a0: 4362 063e 3e8a aa3d 3cda 063e c415 a73d
000003b0: 4d73 933d e190 e33d db4a 0abd 1573 4c3d
000003c0: da25 8c3d 3148 513c fa4b e53d 9558 a53d
000003d0: d2d9 343d 3771 1bbd 5b6f dd3d a66c 433c
000003e0: db4d 0dbd cfc5 0c3e 0bd5 88bd 04f6 d1bb
000003f0: cba5 743d 0ae0 f03d 4ce7 b2bb 2af0 493d
-0.09441903 -0.051947173 0.13088194 0.09586526 -0.0011105343 -0.036782335 0.05934173 0.10883571
-0.0103186155 0.03426946 -0.02824199 0.08582814 0.09641704 0.07808049 0.092195414 0.030523965
-0.08325163 -0.033769686 0.015920179 -0.070838176 0.01351419 0.035530567 -0.055614397 0.121678606
0.108401485 0.047815286 -0.045607176 0.11867918 0.11744279 0.09211192 0.06979153 -0.03277443
-0.013510676 0.035920043 0.108228 -0.09679561 -0.068258055 -0.0420142 0.034275923 0.113408186
0.03589329 0.04319379 0.13798486 0.027836764 -0.023026662 -0.0312267 -0.0013088146 0.01808501
0.13582131 -0.025238026 0.07726519 0.010257376 0.0013888647 0.11350329 0.0815307 0.006438467
-0.058452193 0.08901248 -0.06687249 -0.013990644 0.07239067 -0.0014892791 0.11118002 0.097252324
0.12403982 -0.0071430663 0.11685637 0.06465101 0.15363969 -0.032712292 -0.030957296 0.062308908
0.056389313 0.008206551 -0.009816671 0.03505839 0.06911369 0.020377716 0.032655712 -0.027365416
0.08054661 0.0052228514 0.13468887 -0.07873847 0.08462034 -0.03699926 -0.04319198 0.02943905
0.094753556 -0.047902647 0.0945965 0.13419792 0.04535185 -0.034339346 0.06218665 0.13982767
0.015958829 0.020843219 -0.052545235 0.010633561 0.09369592 -0.061848707 -0.0068512917 -0.04624859
-0.0013162507 0.08049496 0.07043046 0.06393021 0.009398892 0.04646152 0.022539105 0.014523341
0.016036816 0.0255274 0.139488 -0.012213957 -0.036454443 -0.07899872 -0.062150244 -0.005351991
-0.041410495 0.14009687 0.12425352 0.08014918 0.06298543 0.022233272 0.08918291 0.071526945
-0.08020461 -0.12782322 0.12484497 0.005959793 -0.0069519025 0.108197875 -0.13008976 -0.06947835
0.06550656 -0.09934039 0.0007267878 0.026318263 -0.11756916 0.036472738 -0.033119634 0.054920696
0.15134776 0.06843351 0.11773334 0.0873132 0.13821162 0.04367859 -0.04591792 0.045773633
-0.07599678 -0.10864038 -0.1501772 -0.03769318 0.1240452 0.07428247 -0.11950445 0.12066772
0.064964995 0.016955262 0.027399661 0.023704981 0.007044886 0.021855123 -0.1275812 -0.13432503
-0.14364015 0.07415097 -0.10590921 -0.01223653 -0.021370374 0.086906455 0.14727062 0.13092983
-0.15736888 -0.15748075 0.12664706 -0.08450928 0.120266 -0.06274932 -0.10627048 0.04253453
-0.06127331 -0.15779176 -0.07549415 -0.14012478 0.09508518 -0.05025638 -0.11231594 -0.040724866
-0.004124735 0.058500055 0.0153093785 -0.058108624 -0.0815414 -0.036521938 -0.07578062 -0.028716993
0.012665187 -0.047138344 -0.012361588 0.0011926735 -0.028977096 -0.02579173 -0.043520194 0.13370062
-0.06738772 -0.060642928 -0.044363037 0.028246393 0.08074917 0.080372356 0.030449962 0.11552636
0.03662573 0.094403245 -0.03260074 0.0744267 0.13200077 0.0070253997 0.059734926 -0.021917207
-0.04599218 -0.032395013 0.06319323 0.020462558 0.07111602 0.012789057 -0.049116045 0.1268882
0.13123421 0.08327149 0.13169187 0.08158448 0.07199726 0.11111618 -0.033762794 0.04991444
0.06843157 0.012773559 0.11196132 0.08073536 0.044153042 -0.037949767 0.10812255 0.011927759
-0.034498077 0.13747333 -0.0668126 -0.006407501 0.059728425 0.11761482 -0.0054597016 0.049301304

lstm.bias_hh_l0 f4 [256]
00000000: 61e3 c73c 6d25 4dbd a10e d53d d1ab 1e3d
00000010: a8a0 223d 5915 88bd 6c2e a0bd dbe7 bd3d
00000020: 7497 783d 6a27 4cbc d11e a93d ce00 b33d
00000030: 064c a1bd 7b5d 8b3d 99a8 8dbd 5c9b ef3d
00000040: 2424 b83c 2591 dc3d 3ada 35bd 5f04 bb3d
00000050: dc85 f3bc 9e1a 90bd 2deb 64bd 06bd ed3c
00000060: 313e 5fbd c3af dfbc e4e6 9e3d 2aa8 4f3d
00000070: 1a47 55bd 6fa5 d13d 07d5 0dbd e14b f13d
00000080: 3a2d 493b b255 563d 3f13 b0bd bcdf 34bc
00000090: d33c 673d 5440 be3d 9caf e33d 604c d0bc
000000a0: ae44 8d3d 1b2c b73d 25fc d03c fe37 133d
000000b0: 020e 3cbd 2588 143e fdb7 90bc e708 193e
000000c0: 4cc2 113e 2119 ae3c 79ce ba3d ed6f 87bc
000000d0: 3221 393d 5bd5 4e3d 17ad cc3b a7c5 f93a
000000e0: 7577 59bc a1e8 083c 015e 923d 3b49 8a3d
000000f0: c061 02bd bfb3 f63d dbd1 96bc b9a4 19bc
00000100: 0b44 913d b596 863d b7fd a4bd 9a3c 863c
00000110: 342b 1c3e 2513 cd3c 1815 19bd 08c5 253d
00000120: 5383 52bd b055 d4bc 1b8b d8bc e776 4abd
00000130: e6e1 9cbd e1da b03d f37d c2bb d110 fb3c
00000140: 1c40 ddbc a3c3 a63c 0bc5 a9bd 8060 003e
00000150: 65d4 cd3d 04a1 923d c5d9 55bb 303d cb3c
00000160: 974b 98bd 716e f63c cc1e 55bd 50e0 5cbd
00000170: 1731 a23c b7a8 923d 25fc 33bd 058f ca3d
00000180: 7041 863d 5415 41bd 87d8 ad3d 5352 bf3a
00000190: 12d9 5ebb 8854 c53d c2aa 06bd d818 463d
000001a0: 291b 693c 740d ff3d dbf3 2e3d 1498 af3d
000001b0: 241e 0b3c b0cc 80bd 10bc 573d ed1d 213d
000001c0: 90b7 3dbb c343 1b3e b80d 7fbd 1b39 cfbc
000001d0: c130 1bbd e457 d73d d291 23bd 1475 593c
000001e0: cc6e 073d 0b1b 083e 8181 a23d e661 e1bc
000001f0: 66bc 8a3d 02a2 8c3d 56ae a23c cda5 a43d
00000200: 4bd4 1f3c 9977 bbbd 3297 e23d adce c03d
00000210: e634 163e 90df 54bc 0e95 893d db22 9ebd
00000220: 1005 ebbd e983 f83d 20c9 f53c a1c7 b2bd
00000230: d481 d2bd e873 1bbe e61c ae3d ee64 c7bd
00000240: 8a81 d0bc 4aba edbd a489 1e3e ea71 163e
00000250: bc7b e4bc 5b82 743d 5cf6 c9bd 4a32 4e3d
00000260: 69cd 1d3d b58c 9b3c d43d d5bd 07f3 fcbd
00000270: 1403 503d 5ba9 8d3d 511c 8c3c e227 ad3b
00000280: f282 08be 5dae fe3d f32c 833d eec6 93bd
00000290: a8fa c83d b6d3 233d b8e0 0bbe 4f69 19be
000002a0: 4add 5dbd 75f1 a7bd e9e3 06be 1ca9 0bbe
000002b0: d033 94bd b140 ea3d 21d3 e4bb 2ecb b8bc
000002c0: 863f c3bd 693a 6cbd c6fa a3bc 1f15 053e
000002d0: db2b 12bd ac48 0f3d 9590 cbbd adf5 4cbd
000002e0: 40f1 9d3b 2c99 753d ca21 023e 6708 4dbd
000002f0: e464 a23c 33f6 3eba 0cd0 9dbb 5940 9a3d
00000300: 1af2 883d fb00 85bc 8b64 193c c2a3 6b3d
00000310: 0500 8c3d 26c5 b5bc ac8e a13d 3442 cd3d
00000320: 3dd5 fc3c 133c b0ba 8b6f 8bbc 30fd a2bd
00000330: f18d 1d3e 0f6b d43c d75c a6bd af5f d9bc
00000340: 5c78 0b3c 869f f73d 4d70 813d 487e c03c
00000350: 34f2 a5bc e715 013e 1aca 52bd 7f9a f6bc
00000360: 43a6 9fbd 5b74 cf3d 077c 4fbc 9d6f ef3d
00000370: b26c c93c 18e6 b23d a6a9 a83c 3801 0e3e
00000380: b5a0 83bd 090d 103e 2aef 7cb8 b5f9 f03c
00000390: eceb d83d 412b 343d a186 073e 24f9 99bd
000003a0: 85c0 3bbd a5cf c13c 940c cd3c afe7 803d
000003b0: 9e52 303d 18dc 30bd 388f 9dbd 1954 863d
000003c0: b93b b8bb 0bfb c13d 3019 7ebd 8b35 e33c
000003d0: 7f4b 4ebd 6d53 a13d 8507 d2bb 6a59 15bc
000003e0: 14e0 413d 3b7b abbd 837b 9b3d fc1e 123d
000003f0: 9c0c 96bd d137 a13d 84be be3d aa31 a93d
0.024400415 -0.05008452 0.10403181 0.038738076 0.039703995 -0.06644697 -0.07821354 0.092727385
0.060691312 -0.012460569 0.08257831 0.08740388 -0.078758284 0.06804939 -0.06916923 0.11699554
0.02247817 0.107698716 -0.04439757 0.09131693 -0.029726915 -0.07036327 -0.055888344 0.029020797
-0.05450267 -0.02730549 0.07758883 0.050697483 -0.05206976 0.10236632 -0.034626987 0.11782051
0.0030697123 0.05232782 -0.08597421 -0.011039671 0.05645449 0.09289613 0.11117479 -0.025427043
0.06897865 0.08943959 0.025510857 0.03594207 -0.045911796 0.1450506 -0.017665857 0.14944802
0.14234275 0.021252217 0.09121413 -0.016532863 0.045197673 0.05049644 0.00624622 0.0019056097
-0.01327311 0.008356244 0.07146836 0.06752249 -0.031831503 0.120460026 -0.018410614 -0.009377652
0.07093056 0.06571714 -0.08056205 0.016386319 0.15250856 0.025033543 -0.037373632 0.040471107
-0.05139477 -0.025919765 -0.026433518 -0.0494298 -0.07660274 0.08635498 -0.0059354245 0.030647667
-0.027008109 0.020356959 -0.08289536 0.12536812 0.10050277 0.071596175 -0.0032631021 0.02480945
-0.074362926 0.03008196 -0.052031323 -0.05392486 0.019798798 0.07161086 -0.043941636 0.0989056
0.0655545 -0.04713948 0.08488565 0.0014596678 -0.0034003896 0.09635264 -0.03287769 0.048363537
0.014227667 0.12453738 0.042713027 0.085739285 0.008491073 -0.06289041 0.052669585 0.03933518
-0.0028948523 0.15162568 -0.062268943 -0.025295785 -0.037888292 0.10514811 -0.039933987 0.0132725425
0.03306465 0.13291566 0.07934857 -0.027512502 0.067742154 0.06866838 0.01985852 0.080394365
0.009755204 -0.09153671 0.110639945 0.0941442 0.14668617 -0.012992755 0.06717883 -0.07721492
-0.11475575 0.12134535 0.03000313 -0.087294824 -0.10278669 -0.15180933 0.08501606 -0.09736048
-0.025452394 -0.116077974 0.15482193 0.14691892 -0.027891032 0.05969463 -0.098614424 0.050340928
0.038525973 0.018987993 -0.104121834 -0.12351041 0.050784186 0.069170676 0.017103346 0.0052842954
-0.13331202 0.12435601 0.06405058 -0.07215677 0.09813434 0.039996825 -0.13659942 -0.14981578
-0.054166116 -0.08200351 -0.13172878 -0.13638729 -0.07236445 0.1143812 -0.0069831763 -0.022557821
-0.095336005 -0.05767289 -0.020017039 0.12996338 -0.035686355 0.034981415 -0.09939686 -0.050038982
0.004820019 0.05996053 0.12708202 -0.05005684 0.019823499 -0.00072846113 -0.004816061 0.075318046
0.06686802 -0.01623582 0.00936235 0.05752922 0.06835941 -0.022188734 0.078885406 0.10022393
0.030863399 -0.0013445638 -0.017020961 -0.07958448 0.15386178 0.025929956 -0.081231765 -0.026534883
0.008512583 0.120909736 0.06320248 0.023497716 -0.020257093 0.12606011 -0.05146227 -0.030102966
-0.07795384 0.10129615 -0.012663848 0.116912104 0.024587963 0.08735293 0.020588707 0.13867652
-0.06427137 0.14067473 -6.030422e-05 0.029415945 0.105918735 0.043986563 0.1323495 -0.07518223
-0.045837898 0.023658583 0.025030412 0.0629419 0.04304754 -0.043178648 -0.076933324 0.06559009
-0.005622354 0.09471711 -0.06203574 0.027735492 -0.050364967 0.0787724 -0.006409588 -0.009115556
0.04733284 -0.08373114 0.07591917 0.03567408 -0.07326624 0.07871974 0.09313682 0.08261426

lstm.weight_ih_l1 f4 [256, 64]
00000000: 6959 d9bd 3994 03bb 58e0 7cbd 3f03 63bd
00000010: 5dd5 d2bb 81cc 13bd 44b2 87bd 079b 4e3d
00000020: 5964 64bc c761 773c c905 943b fa71 0f3c
00000030: 712a 4dbd c66e 783d f836 bfbc 721b e4bc
00000040: a9cb 5e3d eac2 0b3d e397 273d ba37 aebc
00000050: 11fb d03b 18d8 d73c aec6 d338 965a 6f3d
00000060: 0483 303d d352 753b 6b80 c4bd 8e34 143d
00000070: f838 e8bc f71c 3d3d 29c2 0ebd 5228 4cbd
00000080: 58aa 17b9 18c0 87bd 486a 2ebc 1500 24bd
00000090: a72a e8bb ed8f ab3d 9f1d 703d 843b 623d
000000a0: 0388 823d 03fc 6ebd db3f 313c 9583 9f3c
000000b0: f27f 39bd 5966 4dbd e495 0a3d 2478 523c
000000c0: 6e16 a3bb 1194 07bd 931c 523b b99f 113d
000000d0: 36cf db3b 6be3 71bc 8c20 6cbd 95b4 cb39
000000e0: 015d acbc 93f0 fdbc d33f aabc 4177 dfbd
000000f0: e31c ef39 84e2 903b 6f18 e23b 982e 1dbd
00000100: a18f a9bd 6a44 a6bc 08cd a33c 3684 69bd
00000110: 48fc c53d 4ff7 613c f7f8 0b3d 6fc7 ff3b
00000120: 3cc8 a339 dd55 05ba f8bf 303d 4c47 2fbd
00000130: 00c2 823c 316c 51bd 89dc ad3c dd8f 90bd
00000140: 5f21 2abc 4830 89bd 90bd 67bd 9763 163c
00000150: 10cb 09bc dd0e f23c 5507 adb8 c9d9 863c
00000160: ab85 eb3b c821 ccbb d829 2e3b 1bd8 8d3c
00000170: 9fe7 58bd 2cc1 a7bc a65c 13bc 7e82 dabc
00000180: f2bc 4bba c582 fe3a 3237 253d c524 4d3d
00000190: 70d0 9d3d 9438 6d3d 1aea 1e3c 9afb fa3c
000001a0: 1f11 743c e10c c2bd 303c 983b 7cb3 94bd
000001b0: b750 ef3c 8a75 d23d 8281 96bc afec b83d
000001c0: 408c d9bb a9cd cabd c432 623d aec4 2a3d
000001d0: e8c2 b13a 5c0e b6bc faf1 94bd 3b0e 8737
000001e0: da8e f93c 6589 273d 80d8 0b3d 5f0d 4c3c
000001f0: f718 89b8 f699 ebbb 3e07 a0bc 3182 cf3c
00000200: 756b 4f3d a5d9 e0bc 50a0 ab3d e0ee b93d
00000210: 99db c43d 159e 193d a1f6 e7ba 169c 83bb
00000220: 1da2 a73c 51f2 c1bc d2b1 243d d4d1 96bd
00000230: f761 d9bd 81eb 583d 0fe3 31bd 7830 e73c
00000240: 5587 e83c b952 793d 024d 54bd 4a54 013d
00000250: 052b cd3c 4ed9 b33d bf8a feb6 e433 7b3d
00000260: ec34 f83c 7c3b 323c 284e ce3c 7a5b 923c
00000270: a9e4 26bd 977a 663c 7a11 4bbd c929 033d
00000280: 2bbb 2939 dfea 833d 91a5 583d 88bc 663c
00000290: 2c9c bd3d 1138 c03d 289a 613d aa4d 833d
000002a0: bc7b 2cbc 5daa a5bc c418 f93c f517 acbd
000002b0: 2e58 8cbd b86e 073d 56e4 9a3c 1dff 8f3c
000002c0: d339 9ebc 7ae2 743d 8950 4bbd b28c 093d
000002d0: 6117 563c c95d 323d f8ac 873b ec8f 723a
000002e0: e975 803c ab06 5d3b dc27 fbbc fe3f 24bd
000002f0: 837f 87ba e1fc a53c a9e5 5bbc c3e7 b6bc
00000300: 7944 cbbd f54b af3b c4af 63bd e702 93bc
00000310: c8cc 8bbc dd64 053d 377c b5bc 0d30 84bd
00000320: aa0a ccbc 507b b0bb 0cfb 973c 6776 98bc
00000330: 1a6a 82bd 314d eabc 9655 843d 3baf 7ebd
00000340: fafa a23d 961a 5bbc 85f9 1d3d bfc5 b0bc
00000350: 6c32 b13b cf60 88bc df86 89b9 7aa7 a83d
00000360: 6692 eebc 73f3 73bd 71b5 f0bc 8bbd f63c
00000370: 1038 bdbc 0be7 b13c f190 143c b3c1 b4bc
00000380: 4f7a f1ba 4e26 94bc 453b ce3c b2ce 42bc
00000390: e4bb 2e3d d433 ddbc 05b1 0cbd 7e53 74bc
000003a0: 73d8 0bbd 31d1 75bd 4404 ca3b e8de 4cbd
000003b0: e164 f33a e152 c0bc c7e3 463d 2f76 aa3d
000003c0: 292d bcbd 7fcc 463d 7593 073c 71c2 1bba
000003d0: 5ed8 723c c361 143d 7958 b1bc 11e0 16b8
000003e0: d81a 13bc 4e13 debc 2524 2e3d e07e 573d
000003f0: d3bc cf39 c06b 043c 6f3e d2bc 0c14 e7bc
-0.10612757 -0.0020077361 -0.06173739 -0.055423018 -0.0064341263 -0.036083702 -0.06625798 0.050440814
-0.01393994 0.0150989955 0.004517291 0.0087552015 -0.050089303 0.060652517 -0.02334164 -0.027845118
0.054393444 0.03412143 0.040916335 -0.021266807 0.0063775857 0.026348159 0.00010098271 0.058436
0.043093696 0.00374334 -0.09594806 0.036182933 -0.028347477 0.0461702 -0.034853134 -0.04984314
-0.0001446394 -0.06628436 -0.010645457 -0.04003914 -0.0070851627 0.08377061 0.058622 0.05523254
0.063735984 -0.058345806 0.010818447 0.019471923 -0.045288034 -0.050146434 0.033834353 0.012846027
-0.004977039 -0.03310019 0.0032060489 0.035552714 0.006708051 -0.014763693 -0.057648227 0.0003885372
-0.021040441 -0.030998504 -0.020782387 -0.10911418 0.00045607155 0.004421534 0.0068998854 -0.038374513
-0.08279348 -0.020296294 0.019995227 -0.05701085 0.096672595 0.013791873 0.03417298 0.0078057568
0.0003123897 -0.0005086342 0.043151826 -0.042792603 0.015961647 -0.05112857 0.021223323 -0.0705869
-0.010383933 -0.06698662 -0.056577265 0.0091790175 -0.00841023 0.029548103 -8.2506485e-05 0.01646127
0.0071875653 -0.006229613 0.0026575234 0.017314961 -0.052955266 -0.020477854 -0.008994257 -0.026673552
-0.00077719905 0.0019417634 0.04033584 0.050083894 0.07705772 0.057915285 0.009699369 0.030637551
0.01489666 -0.09475113 0.004645847 -0.072607964 0.029213293 0.10276325 -0.018372301 0.09029519
-0.0066390336 -0.09902508 0.055224195 0.041691475 0.0013562115 -0.022223644 -0.07272716 1.609988e-05
0.030463625 0.040902514 0.034142017 0.01245436 -6.537319e-05 -0.0071899844 -0.019534703 0.025330635
0.05063959 -0.027447531 0.083801866 0.09078765 0.096121974 0.037504274 -0.0017697403 -0.0040164096
0.020463044 -0.023675116 0.040208645 -0.0736424 -0.106143884 0.05295897 -0.04342943 0.028221354
0.028384844 0.060869906 -0.051831253 0.031574525 0.025044927 0.08781682 -7.585942e-06 0.061328784
0.030298673 0.01087844 0.025183752 0.017865885 -0.04074541 0.014067314 -0.049577214 0.03202227
0.00016186821 0.064412825 0.05289227 0.014083035 0.09258303 0.09385694 0.055078655 0.064112976
-0.010527547 -0.020222837 0.030407317 -0.08403007 -0.068527564 0.033064574 0.018907707 0.017577702
-0.019314682 0.059786297 -0.04963735 0.033581443 0.013067097 0.04354647 0.0041404925 0.00092530134
0.015681224 0.0033725898 -0.030658655 -0.04010009 -0.0010337684 0.020262184 -0.0134214545 -0.02232731
-0.099251695 0.005349631 -0.055587545 -0.01794572 -0.01706542 0.032566894 -0.022153957 -0.064544775
-0.024907429 -0.0053857937 0.018552326 -0.018611146 -0.063678935 -0.02860126 0.06461637 -0.06217883
0.07958026 -0.013373038 0.03856804 -0.021578668 0.005407622 -0.016647724 -0.00026231163 0.082350686
-0.029122543 -0.059558343 -0.029383393 0.030119678 -0.023098022 0.021716615 0.00906776 -0.02206502
-0.0018423292 -0.018084671 0.025174746 -0.0118901 0.042659655 -0.027002253 -0.034348506 -0.014912484
-0.03414197 -0.060013954 0.0061650593 -0.050017267 0.0018569493 -0.02347702 0.04855707 0.08323323
-0.09188301 0.048534866 0.008274903 -0.0005941755 0.014822094 0.036226045 -0.021648632 -3.5971465e-05
-0.008978568 -0.027108815 0.04251494 0.05261123 0.00039622802 0.00808233 -0.025664536 -0.028207801

lstm.weight_hh_l1 f4 [256, 64]
00000000: 6b14 893d dbc0 f1bc 72ec ddbd 3602 81bd
00000010: 182a f53d f083 2d3d 0b2a 883d 5a51 d9bd
00000020: c235 0f3a 77d7 8abd d58e 34bd ad90 663d
00000030: b54e 2d3d 0ca7 883d f091 80bd 5b8b c8bc
00000040: 66e6 64bc ad0b fe3c 933a debd e8eb e63d
00000050: 5b1a c13d e4f3 a2bd 7b62 11bd bdeb da3b
00000060: 921b 213d 1f15 f73c c555 03bc 78f2 3ebd
00000070: 4aa4 08bd c7e3 acbd 8913 a3bc 56dd 723d
00000080: bf28 7e3d 2752 bf3c b01f edbd a6ec 86bd
00000090: beb4 0abd b2af a23b 76d2 c5bd acce 1bbd
000000a0: e508 5bbd bc25 2c3d c870 36bd d84c ff3d
000000b0: ed00 e9bc 4c51 bd3d 2dd8 d33c 0f72 9bbd
000000c0: 7bf8 963d e24a b73d cfe6 d9bd 9b7f 32bd
000000d0: 0509 783d d6ce 253d 3f3d ed3c b250 64bd
000000e0: e7f4 10bd 9685 5f3d 56a8 9dbd 623d 8cbd
000000f0: c356 d5bc 234a 823c 14b3 c43c 7639 853d
00000100: 6376 943d 6c45 a43c 957b e83c 9626 c2bd
00000110: 9150 c83d b940 f73c f76c 0abd 9c91 bebc
00000120: 055c a339 9464 583c 485c c43d 1252 53bc
00000130: 5ebf 74bc 4673 1e3d 217d 28bc e9b4 bcbc
00000140: 5a7b 5bbc 728e bfb9 8636 823d f805 5f3c
00000150: 2cc0 213c 1b29 87bd ddfb 98bd 7560 6f3d
00000160: eb7d 343d 32e2 b7bd 013f 823c 9444 333d
00000170: 97f0 23bd bd42 eabd 72eb ac3c 666d 763d
00000180: fa6f d43c bc89 413d 2c44 f7bc c73b 163d
00000190: 27e3 933d d70b d13d e707 cb3c 28b8 16bd
000001a0: ce1b c63c c004 773c b79b 833c 2116 0d3d
000001b0: 6225 e5bd c8cc 8a3d 0506 a8bc 1855 72bc
000001c0: 28e0 743d ea28 4cbd 7ebe d43c 28d7 abbc
000001d0: 8db7 503d 0b3a 4e3d ba89 8abd 0a21 85bd
000001e0: 809b 87bd 5d2c b73c 246e adbd 64c1 60bd
000001f0: 84bc 41bd 5094 203d 670b ae3d 41f1 8c3d
00000200: 519d f9bb 060a 01bc e607 6f3d 8664 6c3d
00000210: 07c3 903d 250b 0dbc f1d0 dc3c e7df 84bd
00000220: 55ad a3bb fd7f 6d3c 777d 693c 5276 cd3c
00000230: 27f9 ddbd 8b00 6739 40e5 d0bc 7113 bfbd
00000240: 18b5 9a3d a832 2abd 1bb9 07bd 2644 1dbc
00000250: 519b 8abc 6136 48bd e612 b93d 09de 833d
00000260: 9073 f83c 8b0c aebd 022b c9bc 4dcd c3bc
00000270: bb84 d3bd 199c 85bc a326 f73c f083 073c
00000280: 16b0 353c 4f56 8a3c 779e 443d 249d 04bd
00000290: 8cb0 ac3c f103 a0bd d439 903d 8a7b f43c
000002a0: df97 1ebc 839d 7e3c cdad d1bc 4242 f53d
000002b0: c0e7 fd3c 2c66 793c c1ba afbd 810b 983c
000002c0: 75a1 8dbc 5127 97bc df42 3dbd 7049 a4bc
000002d0: 0fb9 853d 4943 6abd 7c8a bfbd c109 803c
000002e0: c432 c83d b0e1 d03c af2a 04bb 308c bebc
000002f0: da57 5dbd 9ce9 07bb a8a7 353d 3491 fb3c
00000300: d572 2dbd 8f09 87bd f16b 263d a4ae e0bc
00000310: 8d66 193c ae42 513d 06fb 1c3d c2e6 973c
00000320: aed3 a4b9 7f67 a43d 55c7 503d 418b 8dbd
00000330: 6ede 2bbd be3c ddbc 6034 cf3c 1474 8e3b
00000340: 833e 2abd d3eb 763d 60a7 bb3a c4fd 4ebd
00000350: 220d 3fbc 8842 43bb 3010 43bc fedd c33c
00000360: 43aa 723c 8672 a8bd a4cf abbc f55f c03d
00000370: 80b5 2f3c d8c5 40bd 14ab 413d 0d8d ecbb
00000380: 2d2a 6cbd 43a2 7dbd ac72 88bd 3889 733d
00000390: 7970 44bc adca 88bd 6946 19bd 3bef c43d
000003a0: 06c6 bc3c fc4e e43b 902a 803d fbd5 d3bc
000003b0: d624 aebd a075 cc3d 75b4 f43c 8517 763d
000003c0: cca2 933c 3bad 4f3c bd90 adbc fa17 85bd
000003d0: a90e 6e3d c3b0 1c3d 7199 663d bd5e 8a3d
000003e0: aabe e03d 2049 5b3d 0cc4 debc 315c 7b3d
000003f0: e269 093b f1ba ac3c 113e d63c 673f 3f3d
0.066933475 -0.029510906 -0.10836114 -0.0629925 0.11970919 0.042362154 0.06648644 -0.1061122
0.00054630276 -0.06779378 -0.044081528 0.056290317 0.04231139 0.06672487 -0.06277835 -0.024480512
-0.013970947 0.031011427 -0.10851016 0.11275464 0.09428855 -0.07956675 -0.03549431 0.006680934
0.039332934 0.030161439 -0.0080160545 -0.046617955 -0.033359803 -0.084418826 -0.019906776 0.059293114
0.062050577 0.023354603 -0.115783095 -0.06588106 -0.033863775 0.004964792 -0.09659283 -0.038038895
-0.05347528 0.042028174 -0.04454115 0.12465829 -0.028442824 0.09244022 0.025859917 -0.07590114
0.07371613 0.0894983 -0.10639726 -0.043578725 0.060555477 0.040480457 0.028959868 -0.05574102
-0.035389807 0.054570757 -0.07698123 -0.06847645 -0.026042348 0.015904492 0.024011172 0.065051004
0.07249143 0.020052634 0.028379241 -0.09480016 0.09780992 0.03018223 -0.033795323 -0.023262791
0.00031158343 0.013207573 0.09587914 -0.012897985 -0.014938204 0.038684152 -0.010283739 -0.023035483
-0.0133961085 -0.0003653649 0.06358056 0.013612263 0.0098724775 -0.06599637 -0.07469914 0.058441598
0.044065397 -0.0897869 0.015899183 0.043766573 -0.040024366 -0.114385106 0.021108363 0.060162924
0.0259323 0.047250494 -0.030183874 0.036678102 0.0722106 0.102073364 0.024784042 -0.03679672
0.02418318 0.015076816 0.016065462 0.034444932 -0.11188771 0.0677734 -0.020510683 -0.014790796
0.059784085 -0.049843706 0.02596974 -0.020976618 0.050956298 0.050348323 -0.067645505 -0.06500442
-0.06621456 0.022360021 -0.08468273 -0.05487193 -0.047298923 0.03920394 0.084982686 0.06881953
-0.0076176305 -0.007875925 0.058357142 0.057713054 0.070684485 -0.008608614 0.0269551 -0.064880185
-0.004995028 0.014495847 0.014251105 0.025080834 -0.10838538 0.00022030079 -0.02549994 -0.0932988
0.07554072 -0.041552216 -0.033135515 -0.009598767 -0.016919764 -0.048879985 0.09036808 0.06438834
0.030328542 -0.08498486 -0.02455664 -0.023901606 -0.10328051 -0.016309785 0.03016979 0.008271202
0.011089345 0.016886858 0.048002686 -0.032376423 0.021080278 -0.07813252 0.0704228 0.029844064
-0.009679764 0.015540483 -0.02559557 0.11975528 0.030994296 0.015222114 -0.08580542 0.018560173
-0.017288903 -0.018451365 -0.04620635 -0.020054549 0.06529438 -0.057193074 -0.09352586 0.015629651
0.09775308 0.025498241 -0.0020167043 -0.023260206 -0.05403886 -0.0020738607 0.044349343 0.030708887
-0.04234584 -0.0659362 0.040630285 -0.027427025 0.009362829 0.05108898 0.038325332 0.018542651
-0.0003143823 0.08027553 0.050971348 -0.06911326 -0.041960172 -0.027006503 0.025293529 0.0043473337
-0.041563522 0.060283493 0.0014316849 -0.05053498 -0.011660846 -0.0029794294 -0.011905715 0.023909565
0.014811101 -0.082249686 -0.020973034 0.09393302 0.010724425 -0.04706368 0.047282293 -0.007218963
-0.05765741 -0.061922323 -0.06662497 0.059457034 -0.011989706 -0.06679282 -0.037420664 0.09615942
0.023043644 0.0069674235 0.06258118 -0.02585887 -0.0850312 0.09983373 0.029871205 0.060081024
0.018021964 0.012675579 -0.02118718 -0.06498714 0.05811945 0.03825451 0.056298677 0.06756351
0.10973866 0.053536534 -0.027193092 0.061367217 0.0020967652 0.021085234 0.026152642 0.046691325
