fault_model_nn_allprior_11kv/last_Y2024.pt (torch, 545973 bytes, 15 tensors)

emb.weight f4 [4782, 16]
00000000: 67fc 243f c06a 963e efd6 7c3e 5e41 31bf
00000010: 034c d53d 1da8 87be 8f39 f5bd 9cc0 debe
00000020: 1f8b a9bb f0ad 013f da03 d73d 119c cfbe
00000030: 001e 35bd f6c1 30be 5caf 00be fbc3 83bc
00000040: 41b5 c53e 6e59 2abd d6bb de3c c870 0abd
00000050: e492 813c 2b14 d13d d83f c93c 8c21 de3e
00000060: 4ddf 853e c710 793e b8c6 813d 098e 593e
00000070: 40eb 6a3d d89a 7bbd 523c 263d f3fd 2b3a
00000080: 62c8 eabe af72 3abe 9c05 0b3e 2295 a33e
00000090: da4b d73d 4920 00be f883 0cbe 5bac 323d
000000a0: 2624 aabe bd0e 8b3e 8b3c ba3d 413f 34be
000000b0: 3626 4ebe 7cef 363f 88d1 64be 42b0 fcbd
000000c0: fbd7 f8bb bb9a 8fb8 f24d bc80 9968 7b34
000000d0: 7fbd 8db2 03e6 833d ac2f 04bb 9e59 feb9
000000e0: 586c 20be e02b 9400 dedd 6901 abc5 ec38
000000f0: dbf0 6202 d832 e53e 7070 7ebd f2f9 153e
00000100: f14d 183f dcdb 393e a780 823f 4ef3 1d3d
00000110: f363 963c d9c8 f33b a32e a5be 49a2 e13e
00000120: 001c 84bd e002 d53d 6077 9dbd 7472 c63d
00000130: 8789 2c3e c4ad 0ebe e1b5 afbf 0a46 22be
00000140: bcb2 9601 f1b7 289e 4c58 00be 850d a9b6
00000150: d728 e934 62a6 6934 7d77 473d dc38 8900
00000160: d924 163a f0b9 27b2 7754 d8bc ccb6 3437
00000170: 4fef b6be dd3b 23bb a7e7 fa3d 2761 4532
00000180: 5b8c 86bf 5ad8 41bd abb5 df3d 85bf 16bd
00000190: 475a 593d dc93 febc 4d00 673d ed55 6b3d
000001a0: de13 a53d 1efb cc3d 6308 9a3d 3890 8cbd
000001b0: 7c17 b53d e6b9 ea3d 1675 db3d 226c 61bd
000001c0: e641 0bbf 5f41 fb3d 00cf 01bf a457 3e3e
000001d0: 9e3b d33c 4ecd 893e 0316 c33d 73b3 c43c
000001e0: 6494 98be f75c fcbd 1ea9 7cbe 1361 163f
000001f0: 9243 c33e 25b0 d13e 2925 173e 7599 b73e
00000200: 4ab2 023f 2307 cebc ea90 28be 748e b3bd
00000210: 180a 903d cf86 8f3e 5f43 b0bd ebdb ca3d
00000220: 464d 4e3e 6d00 cc3d b437 cabe 5e3d 3cbd
00000230: 145f cf3d 7601 b7bc 3240 b73d 6b11 93bd
00000240: a843 63bc 366a 463c ce7f 923e dfc5 3a3e
00000250: d2f3 2514 5033 238b 559d edb9 bae3 db01
00000260: 429f 6ba0 bea5 583c 9b3d 22b1 3ba0 8d3e
00000270: c11a 7bbf 3c57 08ad b2bd 86bd 1ac0 003b
00000280: 3db3 0ebf e0c7 72bd 7729 a83d 228a 31bd
00000290: 8006 763d 68d8 86bd 71fc a6bd 1289 833a
000002a0: a84f 83be 90a2 6b3e 7781 3a3e 4893 a6bd
000002b0: e635 64be 9196 94bd c4c7 ee3d 4200 133f
000002c0: 2e04 343e 809c 283e daed 44bf 2a31 06be
000002d0: 3c29 1ebf 8fc9 7dbf 1a28 18bf f563 1bbf
000002e0: 8ff4 01bf 41e7 95bf cdfd a9bf 5f40 753e
000002f0: 49e7 0a3f c487 0fbe 4078 aa3e 7ebd 133f
00000300: f51b d63e f0e4 86bd d474 e93d b6f2 06bd
00000310: 3e1a 55bd aa6e 2ebd 1281 64bd e667 653e
00000320: 0ef1 a53d 69d3 343f 3126 853d 4e11 dbbd
00000330: 3cce 993d 3a0e b43c 0dc4 a63e 2b75 3abd
00000340: 250b 2ebe 6e71 23be 5103 693d 864d 4cbd
00000350: 34ba 733d 60e9 63bd bf49 b6bd aa6b 6abf
00000360: 7099 983d 235c 603e 6ba4 cfbe edaf a63e
00000370: a3be db3d 7174 dabd af59 b13e c201 c63e
00000380: c688 023e e225 1d3f 43a0 1bbd bef1 b73b
00000390: c3ee 4cbd 8e9c acbc 5eb2 213e 0ceb 413f
000003a0: f1ab 90bd 72b5 7ebe 78e2 4bbf f387 45be
000003b0: 9077 a5bd dc11 023e 2342 c8bd 3faa 723d
000003c0: 5f65 9fbb 19d2 193e c5f0 1ebe 11f8 2e3e
000003d0: 86b2 48be 0165 e83d 0ae3 163e d046 b13e
000003e0: 48ac 353e 0cde 56be 0938 c6bd d31e 1e3e
000003f0: 4d70 f9bd b297 3e3e 194e dfbd f1c2 043e
0.64447635 0.2937832 0.24691366 -0.6924037 0.10414889 -0.26495448 -0.11973869 -0.43506324
-0.005174055 0.5065603 0.104987815 -0.40548757 -0.044218063 -0.1726149 -0.12566894 -0.016084662
0.38614848 -0.041589193 0.027189177 -0.033798963 0.015817113 0.10208925 0.024566576 0.4338497
0.26146927 0.24322806 0.06336731 0.21245588 0.057353258 -0.061426967 0.04058487 0.00065609737
-0.45856005 -0.18207811 0.13576359 0.31949717 0.105125144 -0.12512316 -0.13722217 0.043621402
-0.33230704 0.27159682 0.09093579 -0.17602254 -0.20131764 0.71459174 -0.22345555 -0.12338306
-0.0075941063 -6.847592e-05 -1.7293035e-38 2.3414249e-07 -1.6500733e-08 0.06440356 -0.0020170016 -0.00048513425
-0.1566633 1.3607393e-38 4.2954523e-38 0.000112901755 1.667298e-37 0.44765353 -0.062118948 0.14646128
0.5949393 0.18150276 1.0195512 0.03856211 0.018358206 0.0074397144 -0.32262143 0.44069126
-0.06450653 0.10400939 -0.076887846 0.09689799 0.16849338 -0.13933474 -1.372738 -0.1584703
5.535777e-38 -8.931884e-21 -0.12533683 -5.0381664e-06 4.3429347e-07 2.1760346e-07 0.048697937 1.260186e-38
0.00057275366 -9.762957e-09 -0.026407463 1.0771397e-05 -0.35729453 -0.0024907507 0.122512154 1.1488999e-08
-1.0511583 -0.04732547 0.10923322 -0.03680374 0.05306461 -0.031076364 0.05639677 0.057454992
0.0806043 0.10008834 0.07521131 -0.06863445 0.0884237 0.114612386 0.10715692 -0.055034764
-0.5439743 0.12268328 -0.5070648 0.1858812 0.025785264 0.26914448 0.09525683 0.02401135
-0.29800713 -0.12322419 -0.24673888 0.58741874 0.3813749 0.409547 0.14760269 0.35859266
0.510533 -0.025149887 -0.1646153 -0.08767405 0.07033175 0.28032538 -0.086066 0.09905227
0.20146665 0.09961019 -0.39495623 -0.04595696 0.101255566 -0.022339564 0.08947791 -0.071810566
-0.013871111 0.012110284 0.28613132 0.18239544 8.378456e-27 -3.143126e-32 -0.00045321384 8.0774666e-38
-1.9957968e-19 0.01322311 -2.3609121e-09 0.2766131 -0.980877 -7.750075e-12 -0.0657915 0.0019645751
-0.55742246 -0.059272647 0.08211034 -0.043344624 0.060064793 -0.06584245 -0.08153618 0.0010035357
-0.2564671 0.23011231 0.1821345 -0.081335604 -0.22286186 -0.07255281 0.11659196 0.5742227
0.1757972 0.1646595 -0.7692543 -0.13104692 -0.6178167 -0.9913568 -0.5943619 -0.606994
-0.5076379 -1.1711198 -1.3280579 0.23950337 0.54259163 -0.14016634 0.33294868 0.5771102
0.41818205 -0.06586635 0.11399236 -0.03294631 -0.05202698 -0.042586006 -0.055787154 0.22402915
0.08102618 0.70635086 0.06501425 -0.1069666 0.07510039 0.02197944 0.3257145 -0.045521896
-0.16996439 -0.15961239 0.05688793 -0.04987862 0.05950375 -0.055642486 -0.08900785 -0.9157053
0.07451141 0.21910147 -0.40555128 0.32556096 0.107297204 -0.10666741 0.34638736 0.38673216
0.12747487 0.6138593 -0.037994634 0.0056135347 -0.05003239 -0.021070745 0.15790698 0.7574928
-0.07064045 -0.24873903 -0.7964244 -0.19290142 -0.08079445 0.12702125 -0.097782396 0.05924439
-0.0048643793 0.15021552 -0.15521534 0.17086817 -0.19599351 0.1134739 0.14735046 0.34624338
0.17741501 -0.20983142 -0.096786566 0.15441446 -0.12179623 0.18612555 -0.10903568 0.12964989

lstm.weight_ih_l0 f4 [256, 3]
00000000: 87ce 9cbd 704b f6bc 170c 47bd d7a5 c53d
00000010: 6e46 9a3c 7de9 363d 740f 8dbd 3864 383b
00000020: 7175 41bb ca27 84bc a341 adbc 69bd f1ba
00000030: e06f 71bd 791f bfbc a398 ebb9 e6df 403c
00000040: d147 0f3c f621 053c d4d7 693b a3ba dd3b
00000050: 1840 1ebb a93f b7bd e5bd 013d 9efd 02bc
00000060: cf62 cb3d 3ed2 643c 1556 a43d 9c99 953d
00000070: 927b 1d3b 8cb9 783d 0c61 b13d c1ff f83c
00000080: 0e8e 493d 66c6 603d a667 213c d015 e83c
00000090: 2dc4 c5bd edfe b23c 51ee 8c3c 683a 23bc
000000a0: 4ba6 2c3b ee9b a53c f583 d93c 5b99 8b3c
000000b0: e086 5e3c 9ada 88bc 5217 10bd afa5 6c3c
000000c0: e0f1 f4bb 712c 543c c966 48bb ac7a 153c
000000d0: 2930 4a3c f3a2 863c a9cb efbd dd7e 3ebd
000000e0: 201b ef3c e137 a8bd 9eca 42bd a7cb 363b
000000f0: 73ff 843b a869 9d3b 592b 0d3b fe8f b8bd
00000100: 4bb0 4abb 9fbe 14bc aeed 113e 626c 1d3d
00000110: 2f33 0a3e f44f ad38 f159 9f3c 65c1 173d
00000120: 665c 9a3d b081 d73c ef87 b43c eed7 bbbc
00000130: ad16 813b 1b43 de3a b5e8 eabd 9ebb c3bb
00000140: 154f ce3b 4c0b 1ebd 61ce 183c 222f adbb
00000150: 5a52 8c3b 26ef 9639 40e7 833c 0dac 553b
00000160: 4f49 aa3b 01c5 a83b 4539 df3c 978f d4bb
00000170: 8ef2 923c 2020 9abd 6c53 e53a 8732 2e3d
00000180: b816 9a3e 8dda 203c 9419 f63d 3df2 22be
00000190: 142b 473d 693c 19bd 69a8 653c 9cee ab3b
000001a0: 43bc 623c 4909 393c 0ba0 8a3b 3fcc cd3b
000001b0: 55c3 ebbd 0b81 4fbd 4cad 1dbc 3f00 ee3a
000001c0: 0920 bebc 256f bb3a 61dc da3c 8566 9c3c
000001d0: ceec d93c d4c6 b7bd 4668 67bc 3d3b 3aba
000001e0: 67fa cfba 6349 8b3c 9e99 ea3c 717a 2c3d
000001f0: 4092 45bc 4835 033d c655 6ebc 5a41 603b
00000200: afea 1a3d 0d37 183c 68db a4bc d845 a4bb
00000210: 0123 b13c 13f3 a93c 2fa1 c43c fd89 68bd
00000220: 3c5a a5bc 252d 403c 3774 40bd 2672 b7bc
00000230: 0408 c33a 7a81 acbd 68c9 6fbc 77ae 4fbc
00000240: a05a 39be 604d 813b 1fb6 2c3b eafb 22be
00000250: 5e67 3a3c 2dde 0a3c a802 a1bc 0c77 bf3b
00000260: 2f5f d8bb 3c76 163d 55c5 813c 76f7 783c
00000270: a4c1 0a3e 3b8e 003d a032 f03d 59ee ae39
00000280: 13b0 813a c1aa a7bb 61aa 57bd 6c1f 443c
00000290: f9c9 2bbb fde6 a33c 01b0 dab9 766d ab3c
000002a0: 5bfc 5c3d 2420 193c 09aa f13c 13ce f739
000002b0: c5b0 003c 4f75 923c 9022 bcba aaf4 44ba
000002c0: dfe3 323b 7ea8 a4bd e58e 0cbd 48d1 52bc
000002d0: a087 3d3e 649c 8f3d 406b 0d3e 3141 e83c
000002e0: 2e9a 603b 6238 ed3c 60eb fc3d d709 fc3a
000002f0: 72cd 443d 4585 cb3d 3d91 f63c 6154 3d3d
00000300: 6eb0 58be 3c24 e8bc 7bb0 e83c 2e94 ff3c
00000310: f5c6 c4bb 9432 0dbc 5784 08be 82c4 9dbc
00000320: 16f7 12bc fcba 5cbd c84d 8cbc 1d0d b33c
00000330: c5fe f4bd 9b86 0abb bf34 63bb ae04 46bd
00000340: 5e30 5ebc 3892 7cbc 8b01 f2bb f0bf a2ba
00000350: 62e3 10bc 4c6a 61be c725 9d3c 45af 1dbc
00000360: 2fab 6d3c f21e f73b b49a c9bc 0898 273a
00000370: b230 073c a7ea 5abc 58f7 fbbb a863 813b
00000380: 50c3 15bd fcfe 98bd bbf7 d6bc d1c5 e3bc
00000390: 2b80 1bbe e126 15bc 8b85 7b3c 3860 f3bd
000003a0: 57ff 83bc 11a7 0fbd e5d1 85bd a41c 48bc
000003b0: 478b abbb b4cb e6bd 7425 273c 07d0 cbbc
000003c0: 8c36 34bc 8a37 2cbb 41e1 69bb 2171 92bd
000003d0: 958c 8bbc 90d8 23bb e9c4 45be adb9 553b
000003e0: eb14 4abc 95fe 30be 2d57 03bc 8615 c73c
000003f0: 82f9 8c3a c708 3a3b dc20 a3ba 5c57 18be
-0.076565795 -0.030065268 -0.048595514 0.09650772 0.018832412 0.044656266 -0.06887713 0.0028135907
-0.0029519463 -0.016132254 -0.021149462 -0.001844329 -0.058944583 -0.023330437 -0.00044936416 0.011772132
0.00874515 0.008125773 0.0035681622 0.0067666336 -0.002414709 -0.08947689 0.03167524 -0.007995037
0.099309556 0.013966141 0.08024231 0.07304689 0.0024029952 0.060723826 0.08661088 0.03039539
0.04920774 0.054876707 0.009851372 0.028330714 -0.09656558 0.021850074 0.017203482 -0.009962656
0.0026344236 0.020215955 0.02655218 0.017040899 0.013581961 -0.0167058 -0.03517849 0.014443799
-0.007475123 0.012950049 -0.0030578843 0.009123486 0.012340584 0.016435122 -0.11708767 -0.046507705
0.029187739 -0.08213783 -0.047556512 0.0027892382 0.004058772 0.004803855 0.002154073 -0.09011839
-0.0030927833 -0.009078651 0.14250824 0.03843344 0.13496087 8.264175e-05 0.019452067 0.03704967
0.07537155 0.026306957 0.022037474 -0.022930112 0.0039394707 0.0016957255 -0.114701666 -0.0059732934
0.0062960484 -0.038584992 0.009326548 -0.0052851597 0.004282278 0.0002878841 0.01610148 0.003260377
0.0051967273 0.005150438 0.027248988 -0.006486844 0.017937925 -0.075256586 0.0017496175 0.042528655
0.30095458 0.009817732 0.120165974 -0.15912719 0.048625067 -0.037411127 0.014017203 0.0052469503
0.01383883 0.011293718 0.0042305044 0.0062804515 -0.11511866 -0.050660174 -0.009623837 0.0018158032
-0.023208635 0.0014300091 0.026716413 0.019091854 0.026602175 -0.0897347 -0.014123982 -0.0007104164
-0.0015867472 0.017002767 0.028637704 0.042108957 -0.0120587945 0.032033235 -0.014546817 0.003421864
0.037821468 0.009290469 -0.020124152 -0.005013209 0.021623136 0.02074579 0.02400264 -0.05677222
-0.020184629 0.011729513 -0.04698583 -0.022393297 0.0014879708 -0.08423133 -0.014635421 -0.012675873
-0.18100977 0.0039459914 0.002635367 -0.1591641 0.011377184 0.008475822 -0.019654587 0.005843049
-0.0066031436 0.03673385 0.015841166 0.015195718 0.1355043 0.03138564 0.11728406 0.0003336545
0.0009894393 -0.005116791 -0.05265272 0.011970382 -0.0026212914 0.020007605 -0.00041711333 0.020926218
0.053951602 0.009346042 0.029500024 0.00047265048 0.007854645 0.017878203 -0.0014353562 -0.00075132644
0.0027296466 -0.0803995 -0.034315962 -0.012867279 0.18508768 0.07012251 0.13810444 0.028351398
0.0034271586 0.02895755 0.12349582 0.0019229007 0.04804749 0.099375285 0.030098552 0.046223048
-0.21161053 -0.02833759 0.028404465 0.031198587 -0.006005163 -0.008618016 -0.13331734 -0.019258741
-0.008970043 -0.05388926 -0.017126933 0.021856839 -0.11962656 -0.002113736 -0.003466889 -0.048344307
-0.013561336 -0.015415721 -0.007385438 -0.0012416821 -0.008843275 -0.22013205 0.019183053 -0.009624307
0.014506145 0.0075415308 -0.024609901 0.0006393199 0.008251356 -0.01336161 -0.007689398 0.0039486475
-0.036563218 -0.074705094 -0.026241174 -0.027804287 -0.15185611 -0.009103508 0.015351663 -0.11883587
-0.016112966 -0.035071436 -0.06534175 -0.01221386 -0.005235109 -0.11269322 0.010201801 -0.024879469
-0.010999333 -0.002627822 -0.003568724 -0.07150484 -0.017034808 -0.0025000907 -0.19313397 0.0032611892
-0.012334089 -0.17284615 -0.00801639 0.024302255 0.0010755511 0.002838658 -0.0012445706 -0.14877075

lstm.weight_hh_l0 f4 [256, 64]
00000000: 988f 3c3c 5fed 293b 7a52 373d a533 cc3c
00000010: a997 0a3d 8fbd f5b9 dfab b73a eed8 dabc
00000020: 0318 9d3b a6e6 50bb f4dc caba 4511 dfbb
00000030: 77a9 05bd cc53 c1bc 64e4 98b9 f7f9 f9bc
00000040: a00a 91bc 0f66 8dbc 41f8 223d b1f9 053d
00000050: c7e4 61bb 510b be3b 446c 24bb 9781 f6bb
00000060: e453 1f3b fdc3 96bc da41 053c 0748 34b9
00000070: f723 ca3c 1fde 30bb a75e 483c 534e 0d3c
00000080: 4978 7d3c 33ff 1e3d 69b2 b63a 6cf7 14bc
00000090: 8eed 013d 6a24 f9bb 0bdb c2bc 1dbc 93bc
000000a0: 0920 afba 2b52 f1bc 456a 90bc 4d58 3eba
000000b0: 6b5d 0abc 1c5a 0b3d 4b7b 153d 3166 0d3d
000000c0: 067e 26bd d029 44bb 44dd 0f3d 5edd a5bb
000000d0: edc6 75bb e2f1 883b 19e2 933c 6215 7b3a
000000e0: 859a 74ba f378 983b 78d5 76bb af1c e9bc
000000f0: a3ed 2d3b 91b4 46b9 4760 84bb cb1a 9b3a
00000100: 12bc c3bb f8ef bb39 f3fa df3b 0b8d be3b
00000110: ebf1 dd3b 05d2 203b 883c 13bb 37f7 cabb
00000120: 2078 47ba 7141 723a 59b7 4e3b 209c aeba
00000130: 42f2 01bc 37e6 46bb 4e78 5d3b 8275 80bb
00000140: 386c 1b3b 02c6 7abb 21d4 013c 85d6 093c
00000150: 43a0 4bba cd85 aa3b 3a9e 64ba c109 773b
00000160: ab47 01b9 f215 babb b3da ecbb 723c 82bb
00000170: c392 ca3a 3818 3ab9 d568 7abb fa0d 053c
00000180: aff0 33bb aec3 103c cf33 1f3a c15c 2d3a
00000190: e8b8 003c a146 6a3b e369 47bb 73e7 ecbb
000001a0: 0945 95bb bf34 06bb d51a cbbb d563 20bb
000001b0: 87bd 54bb 2fad c13b 378b bc3b 6c17 1a3c
000001c0: 6c5f fcbb 11e8 0abc 7365 af3b fa9a 0739
000001d0: fe48 2e3b 361f 8a3a db64 8abb 841d 95ba
000001e0: 5658 b93a befe a4bb 35f0 ea39 2458 e1bb
000001f0: 465b d33a 497c 6a3b 7e0f 97bb 206d 0237
00000200: 481a dcbc 1655 44bb 5171 e03c 428f 1c3c
00000210: ebf3 d0bc 4d51 ffba 0b76 8c3b a70b cabc
00000220: 202d 883b ddc8 58bb 9bba 47bb 701e d5b8
00000230: 7dee 40bc 3076 073c 222d 8038 c3b7 a5bc
00000240: 0c94 9d3a f03e 2e3c ca06 043d 684e 7a3c
00000250: b8e8 37b9 9c1d ad3c aefa b23a 456e 56bc
00000260: e973 453a c82f 9bbb 70ea 863b 46b0 47bc
00000270: 3d7c 49bc 14b6 50ba 8486 cfba 35d7 b53c
00000280: 424d 093c a9a8 4cbc ff6c 56bb 33e5 b73a
00000290: fc1f af3b 5b2c 70bb 348c 653c 973d b5bc
000002a0: 93c4 293c 50c0 503c 4b34 7dbc 7cd6 60bb
000002b0: e1b4 f3ba f5e0 bbbc 6bbf b33c e827 ef3c
000002c0: e24c 173c 33ac b63c c034 c5bb 0106 26bb
000002d0: 5ff0 9bbb 9fa9 c1ba 3f5f 4bbc 96eb e73a
000002e0: aace 66bb edf7 e33a abc8 c938 023f 11bd
000002f0: 20d5 80bb 9f44 d038 cf40 a63a 91ce c7ba
00000300: 06ef 95bb 6bf6 09bb c637 ffbb a952 60bb
00000310: 39a1 04bc af4f 6538 be1d b637 c03b 4abc
00000320: a233 203b 4963 05bb 1da1 faba a0db 703a
00000330: 78b1 10bb 1199 dbbb 2170 7a3a dd83 0fbb
00000340: 5a99 1b3a 0238 cfba d90d 16bc 685d 8a3c
00000350: 3f9b e039 734a 41bb 2516 223b 0fe1 82b9
00000360: f4e3 2038 2089 49bc 42ff 353a 23ec f0bb
00000370: 10c6 5cba 5ed3 a3b9 0c21 cb37 77da d3ba
00000380: 8895 3a3a b77b 533c b7be 9fba 507b aeba
00000390: f107 f13b 44c4 443b 46e6 0cbb 0b5c 9cbb
000003a0: 77b0 893b 3c73 6dbb 180c d4bb d122 db3a
000003b0: 0bed 973a 4a7a b83b 65c6 39bb fba3 89ba
000003c0: 15f9 033c 4794 353c ba88 933a 671f fdba
000003d0: aa88 4bbb 499b 43b9 738e 0a3b 3bcf 8c3a
000003e0: 5df9 9aba 499e 12bc 02ea 16ba 7d87 61b9
000003f0: 89b9 9dbb 675b c539 3fa1 8e38 0a6d f9ba
0.011508845 0.0025928838 0.04475639 0.02492697 0.03383604 -0.00046871274 0.0014013014 -0.026714768
0.004794122 -0.0031875758 -0.0015477226 -0.0068074786 -0.032632317 -0.023599528 -0.00029161863 -0.0305147
-0.017705262 -0.01726058 0.039787535 0.032708827 -0.0034468637 0.005799689 -0.0025088945 -0.0075227725
0.0024311477 -0.018404001 0.008133376 -0.0001719297 0.024675352 -0.0026987863 0.012229598 0.008624631
0.015470573 0.038817596 0.0013938668 -0.009092193 0.03172069 -0.007603218 -0.023786088 -0.018034035
-0.0013360988 -0.029458126 -0.017628798 -0.00072610826 -0.008445124 0.034021482 0.036494534 0.034521285
-0.04064753 -0.0029932149 0.035123125 -0.0050617894 -0.0037502602 0.0041792253 0.018052148 0.00095780764
-0.00093308865 0.00465309 -0.0037663858 -0.02845606 0.0026539348 -0.00018950018 -0.0040397975 0.0011833546
-0.0059733475 0.0003584621 0.0068353354 0.0058151535 0.0067732236 0.0024539244 -0.00224665 -0.006194021
-0.00076091476 0.0009241319 0.003154239 -0.0013321675 -0.007931294 -0.003034962 0.003379363 -0.003920258
0.0023715626 -0.0038264995 0.007924111 0.008412962 -0.00077677163 0.0052039386 -0.00087210874 0.0037695023
-0.00012329097 -0.0056788856 -0.0072282194 -0.003974491 0.0015455115 -0.00017747364 -0.0038209457 0.008121008
-0.002745669 0.008835716 0.0006073089 0.00066132477 0.007856585 0.0035747665 -0.0030428104 -0.0072297393
-0.004555349 -0.0020478216 -0.006198267 -0.0024473567 -0.00324616 0.0059105377 0.0057539004 0.009404998
-0.007701805 -0.0084781805 0.00535267 0.00012932337 0.00265938 0.0010537866 -0.0042234487 -0.0011376594
0.0014140706 -0.0050352504 0.00044810926 -0.0068769623 0.0016125224 0.0035779646 -0.004610001 7.7740115e-06
-0.026868 -0.0029957942 0.027397783 0.00955564 -0.025506934 -0.0019479186 0.0042865328 -0.02466376
0.00415577 -0.0033078708 -0.0030476216 -0.00010162301 -0.01177561 0.008267924 6.111922e-05 -0.020229226
0.0012022271 0.010635123 0.032233037 0.015277483 -0.00017538934 0.021132283 0.0013655031 -0.013087814
0.00075322256 -0.0047359206 0.0041173026 -0.012188023 -0.012297687 -0.0007961702 -0.0015832935 0.022197345
0.008380236 -0.012491384 -0.0032718775 0.0014030099 0.005344389 -0.0036647532 0.014010478 -0.022124095
0.010361808 0.012741163 -0.015454362 -0.003430753 -0.0018593335 -0.022934416 0.021941861 0.029193833
0.009234639 0.022298908 -0.006018251 -0.0025333168 -0.004758879 -0.0014775282 -0.012412845 0.0017694111
-0.0035218396 0.0017392613 9.621804e-05 -0.03546048 -0.0039316565 9.9309946e-05 0.0012684109 -0.0015244057
-0.004575613 -0.0021051418 -0.007788631 -0.0034228957 -0.008095079 5.4672066e-05 2.170994e-05 -0.012343347
0.0024444838 -0.0020353368 -0.0019121502 0.0009188 -0.0022078436 -0.0067015965 0.00095534517 -0.0021898665
0.0005935632 -0.0015809538 -0.009158575 0.016890243 0.00042840277 -0.0029493838 0.0024732437 -0.00024963214
3.835927e-05 -0.01230076 0.00069426384 -0.0073523684 -0.00084218476 -0.00031247264 2.4214874e-05 -0.001616313
0.0007117619 0.012907914 -0.0012187575 -0.0013311896 0.007355683 0.003002421 -0.0021499558 -0.0047717146
0.0042019445 -0.0036232015 -0.0064711682 0.001671875 0.001159103 0.0056298124 -0.0028347012 -0.001050114
0.008054991 0.011082715 0.0011255958 -0.0019311727 -0.00310568 -0.00018654497 0.0021142035 0.0010742912
-0.0011823584 -0.008948871 -0.0005756916 -0.00021508145 -0.0048133773 0.00037642868 6.801122e-05 -0.0019029689

lstm.bias_ih_l0 f4 [256]
00000000: e346 abbd e7d8 2b3c d34f c53d becc 523d
00000010: fb59 07bc 9f8b a9bc 966e 853c 2dfa b03d
00000020: d9aa 683d 0edb 433d 5f66 2c3d deb5 7d3d
00000030: 5790 8f3d 72c3 5f3d bcb6 6e3d 1210 a53c
00000040: 9232 82bd 77fa 35bc 9e0e 253c 3cc0 6bbd
00000050: cb98 28bc 8b40 b33c 9cc6 bb3d 04ff a13d
00000060: bb02 6b3d cd72 013d 92e5 17bd b823 933d
00000070: 3877 4f3d a4a0 9c3b 7b5f 183d 7b90 ecbc
00000080: 3230 413d 44f8 e03c 8411 e93c f87b 5fbd
00000090: d311 7cbd b148 00bd 9678 af3c 0dc2 a83d
000000a0: 989e d03c 59dc f23c 4511 d53d 4079 6f3c
000000b0: e991 abbb 8671 efbc 98e1 17bc 73ea 773b
000000c0: ed8e e63d 7123 e0bc 7065 313d 9188 053c
000000d0: 98d6 c83d fb9e f63c f666 7e3d 71a1 763c
000000e0: 6005 0d3c d0ec 883d 69be d8bc e945 b3bc
000000f0: c1c6 363e 368f 423c 1025 c83d fd59 4a3d
00000100: c136 b83d fa64 2cbc f668 ae3d 0d18 eb3c
00000110: bd94 d33d 2b9d efbc 1c09 dbbc c186 2f3d
00000120: 9f52 a5bc aa95 afbc 6e63 6cbc 043c 7c3c
00000130: 739d 393d 25f2 333b 229e 0e3c 87af ecbc
00000140: ddfb 023d a1b7 8bbb ebfa d43d 73f5 8fbd
00000150: 6118 f13a 4f56 25bd 4264 efbb 343c 4e3c
00000160: 31bc f73c 583d 44bd 3e8e 8f3d f7a2 a73d
00000170: c344 2e3c 4177 8ebc 5d81 9b3c f864 cd3d
00000180: 2ee3 093d 9f61 2f3c bcef cdbc 0190 1fbc
00000190: 65e5 873d 7858 6ebd 72ff 9abc be29 4dbd
000001a0: bcd4 32bc 9081 f73c f5ff 473d 2ef4 0a3d
000001b0: 795e b9bb 1a29 db3c e109 813b df31 00bb
000001c0: 5624 213c 1619 453c 6e84 b53d 9fb3 25bc
000001d0: b22c 28bd d1a2 30bd c698 83bd dcec 09bc
000001e0: f172 7abc 170b cd3d f4c1 fc3c 72db 483d
000001f0: 4668 623d 8c72 1ebc 4456 373d f1d0 4f3b
00000200: 0f41 84bd 5107 d6bd b7bb e53d 5c01 a3bb
00000210: a48b 6dbc 8d2a b23d cba0 d4bd e56d 63bd
00000220: 73e0 a43d 340d b7bd 160c 66bc 4197 1e3d
00000230: dbec d6bd 2500 633d 7071 42bd aad9 8a3d
00000240: 5abb 013e d356 9d3d 5511 d23d 2b42 963d
00000250: 405e ec3d f71f f73c b4c6 e6bc ecea c33c
00000260: c4b9 56bd eb9d b8bd 5974 0ebe 9ac0 aebc
00000270: e846 c93d d151 533d f3b4 bcbd e0f5 d73d
00000280: 205f 7e3d 6259 f83b 897c f23b 415b f83b
00000290: 9516 35bb fca3 0c3c 43ff b9bd 72af ebbd
000002a0: f07a fbbd 0182 a63d bb75 c1bd 254d 943b
000002b0: a468 c8bb becb 8d3d 5d0f 043e bd78 f43d
000002c0: 9f6e 12be 5310 12be 4b07 d83d e32d bbbd
000002d0: a5f2 af3d baae 35bd 563f b4bd d1b3 dd3c
000002e0: e030 81bd 9f1f 0fbe af05 a3bd c026 f4bd
000002f0: c497 9b3d 1938 0fbd b465 b7bd d587 61bd
00000300: 6329 63bc 4edd 123d 8fd0 e33a 7dc6 4bbd
00000310: 52fa 9ebd 962e ecbc 9b99 53bd cae7 00bd
00000320: 48c9 6d3d a8b1 463d 9cf9 1e3d f0b4 e63b
00000330: 7f7e 0dbd aa7b c9bc 9b2f 0fbd e472 c13d
00000340: 3cdc 6dbd 2076 15bd c037 38bd 7a10 9f3c
00000350: 2377 743a d965 503d 762d 023e c641 ae3d
00000360: 74df e03c 4788 843d 99ab 21bd dfa8 203d
00000370: f044 6b3d 017f 06bc 4e8e fe3c cf6c f0bc
00000380: 04c7 d73c d43e 24bd 6aaa 933c c19f abba
00000390: 46a8 303d 895a bb3b f0d7 0ebd e286 c23d
000003a0: 36ad c13d 198b 4a3d 47bb cd3d f726 583d
000003b0: 429b 263d ae4e a93d 207d 21bd 4de5 e33c
000003c0: 59ad 613d d261 14bb 65aa 953d c6c4 8d3c
000003d0: a6a8 d03d e990 f6bc aff5 ac3d 45fd 783c
000003e0: 19ca 553b 0688 d03d 302b 05bd 1275 a9bc
000003f0: 9546 393e e1c8 2c3d 8660 1f3d 72dd 223d
-0.0836313 0.010488725 0.09634366 0.05146479 -0.008261199 -0.02069646 0.016288083 0.08641467
0.056803558 0.04781633 0.042089816 0.06194102 0.070099525 0.05462975 0.058279738 0.020149264
-0.06357302 -0.011107079 0.010074286 -0.057556376 -0.010290335 0.021881362 0.09168741 0.079099685
0.05737565 0.031603623 -0.03708417 0.07184547 0.050650805 0.004779892 0.037200432 -0.028877487
0.047165103 0.027462132 0.028450735 -0.054561585 -0.061540436 -0.031319324 0.021419805 0.08240137
0.025466248 0.029646086 0.104036845 0.014616311 -0.0052358997 -0.029228937 -0.009270094 0.0037828952
0.1125773 -0.02736065 0.04330963 0.008150236 0.098065555 0.030105105 0.06210991 0.015053139
0.0086072385 0.066857934 -0.026457982 -0.021883922 0.17849256 0.011874964 0.09772694 0.049402226
0.089948185 -0.010522122 0.085161135 0.028697992 0.10331104 -0.029249748 -0.026737742 0.04285312
-0.020180998 -0.02143367 -0.014428003 0.015395168 0.04531617 0.0027457562 0.008704694 -0.028892292
0.031978477 -0.0042638336 0.10399421 -0.070292376 0.0018394106 -0.040365513 -0.007305653 0.012587596
0.030241104 -0.047910064 0.070095524 0.0818538 0.010636511 -0.01739085 0.018982584 0.10029024
0.03366392 0.010704427 -0.025138728 -0.009738923 0.066355504 -0.05818984 -0.018920634 -0.050088637
-0.010914978 0.030213147 0.048828084 0.033924274 -0.005657014 0.026752997 0.0039379452 -0.0019560975
0.009835323 0.012029907 0.088631496 -0.010113626 -0.04105825 -0.043124024 -0.064256236 -0.008418288
-0.015286193 0.10011881 0.030854203 0.049037404 0.055275224 -0.009670865 0.044760004 0.0031710232
-0.064577214 -0.10450614 0.112174444 -0.0049745273 -0.014498625 0.08699522 -0.10382231 -0.055524725
0.08050623 -0.08938065 -0.014040967 0.038718466 -0.10494395 0.05542006 -0.047471464 0.067797974
0.12669125 0.07682576 0.10257212 0.07336839 0.11541414 0.03016661 -0.02817092 0.02391573
-0.052423254 -0.090144955 -0.1391157 -0.021332074 0.098279774 0.051591698 -0.09214201 0.10544944
0.062102437 0.0075790146 0.0074000997 0.0075792377 -0.0027631868 0.008584019 -0.090818904 -0.11508073
-0.12279308 0.08130265 -0.094462834 0.004525798 -0.0061159898 0.06923626 0.12896486 0.119370915
-0.14300011 -0.1426404 0.10548266 -0.091396116 0.08591203 -0.044356085 -0.08801143 0.027063282
-0.0630815 -0.13976906 -0.079600684 -0.119214535 0.07597306 -0.03496561 -0.08954945 -0.05506118
-0.013864848 0.035855584 0.0017380881 -0.04974984 -0.077625886 -0.028830808 -0.05166016 -0.03147105
0.058053285 0.04850927 0.038812265 0.0070406124 -0.034544464 -0.0245951 -0.03495751 0.09445742
-0.05807136 -0.036489606 -0.044975042 0.019417036 0.0009325614 0.05087838 0.12712654 0.08508639
0.0274503 0.06471305 -0.03947029 0.039223548 0.05743879 -0.008208991 0.031073716 -0.029348759
0.026340015 -0.04009898 0.018025596 -0.0013093875 0.043129228 0.0057175797 -0.034873903 0.09498383
0.094568655 0.04944906 0.10045486 0.052771535 0.04067541 0.0826696 -0.03942597 0.0278193
0.055096958 -0.0022641313 0.07307891 0.017305743 0.10188417 -0.030098395 0.08445298 0.015197103
0.003262168 0.101821944 -0.03251189 -0.020685706 0.18093331 0.04218376 0.03891041 0.039761968

lstm.bias_hh_l0 f4 [256]
00000000: 1908 683c ae07 333c 3d6d 9a3d 58a2 903c
00000010: ece4 b03c 88c1 1cbd 283e 44bd 3aa6 953d
00000020: 167e 6e3d 9de2 433d 8d3d 763d e5cf 803d
00000030: 2567 80bd 1e9b 423d 6e54 39bd 1476 a23d
00000040: 1b48 183a 7460 913d 62be 21bd e0d6 943d
00000050: 7850 77bc e05e 7ebd 2395 bb3d dad3 d33c
00000060: be0c 33bc 6648 d4bc 4d5f 6f3d 3e58 cb3c
00000070: 0eab 06bd b611 cf3b 2fd6 afbc 09fa b13d
00000080: f9af 723d 794c 2a3d 6a97 c5bc 50d5 63bc
00000090: e1d7 1d3d 23e2 903d ae16 863d 5ef8 ebbc
000000a0: 3d29 463d a973 523d 4793 e03c bb6c a73c
000000b0: a9be 88bc f4dd dd3d 3253 b1bc 9161 e13d
000000c0: fdcb f13d 5b6d 393c 4bd3 5a3d e28e a63b
000000d0: b23a c93d 31db d33b d6b0 58b9 61cc 763c
000000e0: f322 713c ce84 013c 7cd6 263c d4e9 273d
000000f0: e333 153e 8004 443d 82e2 203d 80aa e03c
00000100: 0c0f 3a3d 3972 ad3b dfa7 9abd bdab 12ba
00000110: edd2 d13d e169 853b 07f3 efbc 2fcd c63c
00000120: 22dc b6bc b168 afbc 0056 87bc b694 23bd
00000130: 9a57 87bd d7a3 503d 387b 80bc 2dbc 483c
00000140: 2862 febc 859e 9a3b 4a40 9abd 66e6 c13d
00000150: 30eb 923b f8be 383d 3ca2 2a3c 69f8 1f3c
00000160: 21fd 2cbd b6af 413c 1ff1 3fbd 7646 5bbd
00000170: 0604 2ebb 5223 543a e30d 1dbd 384c 8b3d
00000180: fb07 953d ee6f 45bd c042 803c affe 5abc
00000190: 4ecb 55bc a8f4 853d 6419 0cbd ae36 e13c
000001a0: 2e35 ac39 ac81 573d c9b2 e83c 115b 4d3d
000001b0: acad c7bb 353f 79bd c740 db3c 2709 9a3c
000001c0: 1031 ddbb bdc6 f43d 3016 81bd 3584 3cbc
000001d0: 232f 28bd 757a de3c d6ab 3abd dbab 09bc
000001e0: 5acc 73bb 9aa3 c13d 44e5 843c 95f9 13bd
000001f0: 0c54 693d 6abc 573b 2184 3c3c 497b a73b
00000200: e8b6 ba3c 287d 8fbd 9d96 c93d 2dbf 9e3d
00000210: 0acc 043e 309b debc d6a9 a03d 5a1d 81bd
00000220: 1d69 a3bd b087 c33d 04f6 3b3c 4e25 8fbd
00000230: 833c babd dd2d ffbd c973 823d 2bb9 9bbd
00000240: a981 1bbd 99c8 c0bd 8710 0d3e 2644 053e
00000250: 081d 1fbd b69e 3a3d 068b a3bd 59aa e63c
00000260: 2ec7 613d 1ce0 023d f930 c3bd 2047 d2bd
00000270: cd69 003d eaca 3f3d 341d 143d ccf6 a3bb
00000280: 2c5b 04be 9176 e43d 107f 233d 2f2a a5bd
00000290: 96c1 ad3d 31e6 d53c 84c2 cabd c8f7 04be
000002a0: 8227 1cbd 60d3 7ebd 2eae f3bd 3314 ebbd
000002b0: 8d5d 5bbd 037d c33d 7259 85bc e225 efbc
000002c0: 0b27 aabd b9ad 3ebd 38cb 0abd 8b60 c23d
000002d0: 7f42 4dbd a050 3c3d 4190 a6bd a82b 0cbd
000002e0: 53c2 b7bb 2b92 8e3d ee97 d73d f8c8 0cbd
000002f0: c78f 3c3b d97b 3c3c e9fe 583c 2181 463d
00000300: aefa 3c3d 29cf a83c bcbc 51bb b641 dc3c
00000310: cb93 263d a887 9fbc 4dcd d23c 832c a03d
00000320: d3eb 6f3d bcbb 473d bcc2 193d 92d3 45bd
00000330: 72b9 e33d a8cd 6c3c 2808 7cbd 4dd9 ddbc
00000340: 91f9 2ebc e62a a83d 7dc6 403d 825b 7d3c
00000350: f55c 73bc fb3b b23d 7c4d cc3d 2892 91bc
00000360: 3084 ecbc d5d0 8f3d 0329 bcbc 7909 8f3d
00000370: ed1c 5a3b 2102 0b3c c167 e33b 18a1 d33d
00000380: e646 593c d72c ec3d fa5a 5cbb 0aba 353b
00000390: 1cd0 933d d4c1 fb3c e439 a73d 14c6 9dbd
000003a0: 28af 18bd e949 893c abea b43c a26d 1e3d
000003b0: e022 cd3c 903c 30bd 56da 97bd 63cc 283d
000003c0: 779e 30bc 220d 8c3d bd0b 82bd 1f8e 233c
000003d0: 0f4c ce3d 8aeb 9c3c cffe 55bc 3e85 793c
000003e0: 9713 bf3c 1676 90bd 28ed 803c a31a 673c
000003f0: 787a 093e dfbb 053d 0ff7 bc3d a6bd 4c3d
0.014162087 0.010927124 0.07540367 0.017655537 0.021593533 -0.038270503 -0.04791084 0.07307096
0.058225714 0.047823537 0.060117293 0.06289653 -0.06269673 0.047511213 -0.045246534 0.07932678
0.00058090844 0.07098475 -0.039488204 0.07267547 -0.015094869 -0.0621022 0.09159305 0.025857855
-0.010928331 -0.025913429 0.058440495 0.02482235 -0.032877974 0.00631925 -0.021464435 0.086902685
0.05924985 0.041576836 -0.024120051 -0.013905838 0.038535956 0.07074382 0.065472946 -0.028804954
0.04837917 0.051379833 0.027413977 0.020437589 -0.016692476 0.1083335 -0.021646116 0.110049374
0.11806486 0.011317576 0.05342416 0.005082951 0.09825648 0.0064653386 -0.00020665242 0.015063376
0.014717805 0.007905198 0.010182973 0.04099448 0.14570574 0.047855854 0.039278515 0.02742505
0.045424506 0.0052931574 -0.0755155 -0.0005595049 0.10245309 0.0040714596 -0.02929069 0.024267761
-0.022321764 -0.021412225 -0.0165205 -0.039936744 -0.066085055 0.0509375 -0.015683755 0.012251896
-0.031052664 0.004718604 -0.075317934 0.09467773 0.004483603 0.045103997 0.010414656 0.009763815
-0.04223359 0.011821678 -0.04686081 -0.053533994 -0.002655269 0.00080924213 -0.03834332 0.06801647
0.07276913 -0.048202448 0.015656829 -0.013366385 -0.01304896 0.06540805 -0.034203902 0.027491894
0.00032846018 0.0526139 0.028405564 0.050135676 -0.0060937013 -0.060851295 0.026764287 0.018803192
-0.0067502335 0.11951969 -0.0630306 -0.01150613 -0.041060578 0.027158001 -0.04557403 -0.00840279
-0.003720066 0.09455033 0.016222604 -0.03612669 0.05696492 0.00329187 0.011506111 0.0051111323
0.022792295 -0.070062935 0.0984318 0.07751308 0.1296846 -0.027173609 0.07844894 -0.063044265
-0.07979033 0.09547365 0.011472229 -0.06989537 -0.09093573 -0.124599196 0.063697405 -0.07603677
-0.03796545 -0.09413261 0.13775836 0.13014278 -0.038846046 0.045561515 -0.07985501 0.0281574
0.055121593 0.03195201 -0.09530825 -0.10267472 0.0313509 0.046824373 0.036160663 -0.0050037857
-0.12925404 0.11155427 0.039916098 -0.080646865 0.08484189 0.02611074 -0.09900382 -0.12985146
-0.038123615 -0.0622133 -0.118984565 -0.11478462 -0.053556014 0.095453285 -0.016278002 -0.029192869
-0.08308228 -0.046552394 -0.03388521 0.0949107 -0.050112244 0.045975327 -0.08132983 -0.03422132
-0.005607882 0.06961473 0.10527025 -0.034371346 0.0028772221 0.011504137 0.013244369 0.04846299
0.046137504 0.020606594 -0.0032003364 0.026886802 0.04066829 -0.019473866 0.02573266 0.0782099
0.05857451 0.04876302 0.03753923 -0.048297472 0.11119355 0.014453329 -0.061531216 -0.027081156
-0.010679618 0.08211307 0.047064293 0.015463712 -0.014853706 0.087028466 0.099757165 -0.017769888
-0.028871626 0.070222534 -0.022968775 0.06984229 0.0033281401 0.008484394 0.0069398587 0.103334606
0.013261532 0.1153199 -0.0033623562 0.0027729296 0.07217428 0.030732073 0.08165339 -0.07703796
-0.037276417 0.016758876 0.022084555 0.038678773 0.025041044 -0.043026507 -0.07414691 0.041210543
-0.010779968 0.068384424 -0.06349895 0.009982615 0.10073101 0.019155283 -0.013061239 0.015229521
0.02332477 -0.07053773 0.015738085 0.014105472 0.13425624 0.03264987 0.0922681 0.04998555

lstm.weight_ih_l1 f4 [256, 64]
00000000: 7901 9cbc 304b c4bb 3001 e23b 0429 af3b
00000010: 76aa 0c3c f2cf 603b 5069 4bbb 1527 02bc
00000020: b7f4 ef3a 5dce 58ba d6e1 0fbb d76e a2bb
00000030: 92d2 74bc 2c68 8cbb ab8c 913b 5cf7 0abc
00000040: 9a34 d43b 6218 82bb 1390 8d3c 2153 253c
00000050: 4d1c 993b 8b07 1d3c 8553 dcba bdb8 a23b
00000060: f870 72ba 6d85 08bc 8611 91bc 80f4 ccbb
00000070: 02c9 9a3b 2c02 343b bb94 aebb 6c11 d03b
00000080: 7e04 dfbb 9fe7 9f3b 161f 933a b590 c1b9
00000090: 8cbc 223c 36f6 203c a6c2 a7bb 1adf 68bb
000000a0: 72dc 96bb 6282 e6bb 179f 3abc ae80 aabb
000000b0: e19d a0bb 0728 9e3b 71c1 493c e9e1 503c
000000c0: e1ae 85bc 2925 83bc c2f9 083c b275 cdba
000000d0: 4451 7eba 7e7c 77ba 453f 69bc ddab 5f39
000000e0: 7cf5 2ebb 7b0a 34bc 6050 153b dd00 ecbc
000000f0: a764 16bb b238 bcba 24fd 63bb 7f0f f3ba
00000100: fc45 9dbc 33ff 5cbb d6a8 733c b52f c53b
00000110: 24c1 a93c 9d78 ac3b 5c07 69bb 63ce 5cbc
00000120: 4b5e a539 0139 223a 8156 4339 c36d f3bb
00000130: 21cc 4dbc f607 2fbc a2c1 e83b e7cc 47bc
00000140: 43c5 aa3b d21b 28bc 978f 163c d334 833c
00000150: 22eb 6a3b bc9d 383c 156a 6abb 3d87 d63b
00000160: c6bd 29bb 8cf6 41bc 95cd 62bc 20c1 f7bb
00000170: e2ed a43b 6ba2 203b 5e4d c1bb 0348 3f3c
00000180: 4832 a8ba 15e7 853c 8e95 c33a af96 6e3a
00000190: dde8 a23c 4b6d 2d3c 4276 13bc 743a 1cbc
000001a0: 7794 2abc 83c6 23bc 6a72 68bc 88b4 10bc
000001b0: 2d9c d8bb 9a4f a43c 3065 1f3c 1f1c c83c
000001c0: 9d03 a1bc 9cb6 cabc 06a3 583c 7a0b 52ba
000001d0: 015b 703a 43db 7bba ded8 80bc 04a1 d3b9
000001e0: bfbc 28ba 51d2 16bc d413 253b a65a 2bbc
000001f0: eb83 373a 4da9 4d3a 0041 f3bb 07ad f6b9
00000200: 9a64 80bb 3f98 afbb 3b85 b23c 7a4b 733c
00000210: c8af cb3c b2af aa3b 5d11 71bb 7f63 5bbc
00000220: f9a8 313a ec78 0ab8 7b8e 74b9 77dc fcbb
00000230: bb8d b3bc c91d 95bb f237 913b 17ce d9bb
00000240: 5629 dc3b d40b 28bb c0d8 b53b 1ee3 943c
00000250: dd71 993b 2c47 783c 85a2 46bb 916f fd3b
00000260: 0da0 1bbb e5b9 12bc 4f4a 45bc c35d eabb
00000270: 868b 943b 9235 4c3b 22a8 fcbb 6698 853c
00000280: 3129 8fbb 60a1 c83c c14a eb3a 9ca1 3e3a
00000290: 538b ca3c 63df 553c ac79 bebb f0be c2ba
000002a0: 394d 3cbc 0d74 e3bb 58af 36bc d6a8 36bc
000002b0: f3ac edbb 40b1 793c 6a21 4b3c 8d1b 6c3c
000002c0: d0b9 a5bc 8b9b 50bb 244e 3f3b eded 91ba
000002d0: 42a9 ae39 70b2 64ba 298a 3bbc 4697 98b8
000002e0: 1ffe d8ba a783 25bc 6a6d 2e3b 2ef1 9bbc
000002f0: 0d37 20ba 39ea 81b9 b73d d1bb fc32 21ba
00000300: 2066 57bc b828 b43b b1f2 e53a 1e98 f33a
00000310: bc18 9d3b 865f 8c3b 3bbc 5eba 7944 2cbc
00000320: 6295 d7bb 16f9 633b 4cc2 b23b 5742 04bc
00000330: 9d09 adbb da6f f6bb 00c7 c93b 78a4 01bc
00000340: 109a 273b b342 f0bb 95b1 173c ced8 bd3b
00000350: 088a 83ba 5818 a43b 9866 0cbc a774 e33b
00000360: c81a adbb 2d35 10bc 7345 f2bb 79ae dfba
00000370: 3433 1f3b 6b28 0f3a d445 04bb 8997 9d3b
00000380: 72f4 573c e87f 9d3b 4fdf 233b cd36 1c3b
00000390: bbdc 003c 6ca3 b03b 59e1 c4bb 9f8f bbbb
000003a0: a89b f4bb c9a9 f2bb dd81 08bc 7422 9abb
000003b0: 4673 9cbb bc7e 613b 5fc5 073c 6465 683c
000003c0: e53b 87bc b80a be37 50df e43a 4c33 5d3b
000003d0: e59b 013c e8bc 9aba a56b c1bb 4426 1abb
000003e0: 4810 8b3b ce03 febb a218 533a 861a 2a3b
000003f0: 1175 3e3c 01bc 123b 6ed5 0fbc 0ff0 e43b
-0.019043671 -0.0059904084 0.006897114 0.0053454656 0.008585563 0.0034303633 -0.0031038113 -0.007943888
0.0018307184 -0.00082704966 -0.0021954677 -0.004957061 -0.014942782 -0.004284879 0.0044418178 -0.008481827
0.006475997 -0.003970192 0.017280614 0.01009062 0.004672563 0.009584318 -0.0016809559 0.00496587
-0.0009248401 -0.008332592 -0.017708551 -0.0062547326 0.004723669 0.0027467115 -0.0053277886 0.006349733
-0.0068059554 0.0048799063 0.0011224474 -0.00036919644 0.009932648 0.009824326 -0.0051196394 -0.003553337
-0.004603916 -0.007034586 -0.011390469 -0.005203328 -0.004901633 0.004826549 0.012314186 0.012749174
-0.01631874 -0.01600893 0.008360328 -0.0015675335 -0.00097014406 -0.0009440853 -0.014236276 0.00021330961
-0.0026696613 -0.010988827 0.0022783503 -0.028809005 -0.0022948177 -0.0014360158 -0.0034788335 -0.0018544047
-0.01919841 -0.0033721447 0.014871797 0.00601765 0.02072198 0.0052634017 -0.0035557365 -0.013476941
0.00031541506 0.0006188304 0.00018628874 -0.007428856 -0.012560875 -0.01068305 0.007103161 -0.012194849
0.0052115037 -0.010260539 0.009189508 0.0160164 0.0035845716 0.011268076 -0.0035768796 0.0065468834
-0.0025900467 -0.0118385665 -0.01384296 -0.007560864 0.0050332407 0.002451087 -0.0058991155 0.011674884
-0.0012832368 0.01634554 0.001492189 0.0009101433 0.019886428 0.0105851395 -0.009000363 -0.009535421
-0.010411373 -0.009996059 -0.014187435 -0.0088321045 -0.0066104145 0.020057488 0.009728715 0.024427472
-0.019655043 -0.024745278 0.013222462 -0.00080125744 0.0009168834 -0.00096075627 -0.01572841 -0.00040365022
-0.0006436817 -0.009205417 0.002518882 -0.010458624 0.00070005533 0.0007845357 -0.00742352 -0.00047049692
-0.0039182426 -0.0053587253 0.021792045 0.014849538 0.024864092 0.005208933 -0.003678403 -0.013390421
0.0006777193 -3.301438e-05 -0.00023322731 -0.007716711 -0.021918168 -0.00455067 0.004431718 -0.0066468823
0.006718795 -0.0025641816 0.0055495203 0.018174704 0.004682763 0.015153687 -0.0030309272 0.007734247
-0.002374652 -0.0089554535 -0.012041642 -0.0071522905 0.004533234 0.003115986 -0.0077104727 0.01630802
-0.004368924 0.024491012 0.0017951356 0.00072720065 0.024724638 0.013053748 -0.0058128443 -0.0014857929
-0.011493021 -0.0069413246 -0.011150204 -0.011148652 -0.007253283 0.015240014 0.012398103 0.0144108655
-0.020230204 -0.0031830992 0.0029190863 -0.001113353 0.00033313973 -0.0008724099 -0.011446514 -7.276102e-05
-0.0016555226 -0.010102189 0.0026615509 -0.019035902 -0.0006111719 -0.00024779307 -0.006385531 -0.000614926
-0.013146907 0.005498018 0.0017543641 0.0018584763 0.0047942083 0.004283848 -0.00084966765 -0.010514372
-0.006579087 0.0034785918 0.005455291 -0.008072457 -0.005280687 -0.007520658 0.006157756 -0.007912748
0.0025574006 -0.00733217 0.009258647 0.0057936674 -0.0010035643 0.005007785 -0.008569382 0.0069413963
-0.0052827336 -0.008801741 -0.007393533 -0.0017065547 0.0024291994 0.000546104 -0.0020183222 0.004809324
0.013180839 0.0048065074 0.0025004928 0.0023836375 0.007865126 0.005390575 -0.006008309 -0.005723908
-0.0074648447 -0.007405494 -0.008331743 -0.004703814 -0.004774484 0.0034407815 0.008286803 0.01418433
-0.016508052 2.2654756e-05 0.0017461572 0.00337525 0.007910703 -0.0011805566 -0.005902725 -0.0023521343
0.0042438842 -0.0077519184 0.0008052682 0.002595575 0.0116245905 0.002238989 -0.008778913 0.006986625

lstm.weight_hh_l1 f4 [256, 64]
00000000: 2725 2bba 698b c3bc 1814 60bd 079f 8dbc
00000010: a459 3c3d 1424 a4bb d930 193c e917 6fbd
00000020: 223a bf38 ad04 c8bb 0b02 f63b ffc1 1cbb
00000030: 0e3a bcbb 1774 2f3d 74ef d63b dec0 fabc
00000040: d955 cb3b 802a 38bc 254d 40bd 8c9b 583d
00000050: 5e16 533d 6fe0 53bd 7181 cf3b 4146 bc3c
00000060: b45c 75bb 760d 57bc a6ef c1bc e354 423c
00000070: f834 96ba a2a2 4dbd 8cb0 e339 e16c 303d
00000080: 329a 2c3d 04b4 08bb b183 82bd f3d7 37bd
00000090: 457a b93b 5fc6 aa3c 445f 1abd a797 f23b
000000a0: f5be 9f3b b33a 1d3d 8383 2d3c 8dfa 8c3d
000000b0: 8245 02bd 11ab 593d cb48 0ebc 1670 3fbd
000000c0: f42f 373d d24c b33c 2c95 eebc ceff 11bc
000000d0: 7e99 c4bb 3d18 af3c 7214 1ebb 3184 1ebd
000000e0: f36e 223c b541 163d 0350 29bd 99ae 27bc
000000f0: 4d08 5fbc d711 c83a f72a c33c 9209 f53b
00000100: 9a76 3a3b e085 4ebc b9e9 3dbc 541d 9cbc
00000110: c6e4 1a3d 24cc 12bc 38c0 913b badd ebbc
00000120: 055f 62ba 481e c13c 0321 363d d165 c8bc
00000130: 04ab c7bc 858f 053d 915e 2a3c eaeb ecbc
00000140: 7f37 a53b 8d74 adbc bdb3 9cba 8e4c bc3c
00000150: 5a4e c13c 280d 36bd 5b6f c2bb 2a44 283d
00000160: 8394 5dbb 8d13 5bbd c7a3 6cbc 4d55 d03c
00000170: c614 87ba 9b1c 72bd a43b 483a 848c 2c3d
00000180: 9081 e73c 53eb bbba d24b 00bd 6b69 c9bb
00000190: 56e5 463d deb8 3e3d 706b 19bc 9833 e93b
000001a0: 860f 4e3c dfdd da3c 52b7 5d3c 7157 063d
000001b0: 29c9 80bd e781 333d e3bd 7dbc 23fe d1bc
000001c0: 3543 203d fa09 0a3c 2ff2 2dbc fd81 e8bb
000001d0: 83b8 c7bb b9ae af3c be1d fabb b296 25bd
000001e0: 7b1d 4dbb 9c32 ca3c 0f29 2ebd 7234 40bb
000001f0: 829e 6fbc 6f40 f83a f749 1b3d 39e9 ce3b
00000200: 89f5 b8bc 6502 a3bc 2922 0a3a 0e6e 94bb
00000210: 5c07 163d 87d8 b1bc 945a 0c3c 2f3f 41bd
00000220: ddcd 0639 7bdd ca3c d775 c63c 77ae 31bc
00000230: 116e 7abd f6d8 ac3c d922 123c 683c 6bbd
00000240: de47 5a3c c6e1 1cbd 12ad e5bc 452c 833c
00000250: 022b 703c 1614 28bd 8aa9 593d 88a8 413d
00000260: 5250 b2bb dfe1 68bd 466f f9bc 7029 613c
00000270: 5df3 32bc 1793 e3bc 161e 843a 4a9b c33c
00000280: 96f5 c03c b359 e0ba f6d2 ccb8 20c9 06bd
00000290: 5f21 f03c 2b9d fcbb 5d91 883b 4c63 ba3c
000002a0: 406f 163c e2b9 e13c 07f4 273c 34f7 923d
000002b0: 1c00 bebb 9c93 e03c bff9 03bd 810d 67bc
000002c0: 1d6f 7d3c effb 5c3c 3cb7 c5bc 2a6c 0fbc
000002d0: a194 5b3a 6a52 4e3b c12e 6bbc 6afc 68bc
000002e0: 4c65 893d e971 e23c 4c71 a5bc d1d9 f03b
000002f0: e428 a5bc 819f 803a 6048 fe3c 99a2 f73b
00000300: 618f d1bb f222 dfbb c12e 8b3c 05dd 793b
00000310: 4bde 4bbb 7ff2 9b3c c55e bfba def9 323c
00000320: 6a6d 30b8 a630 a63c 338e d93b af06 81bc
00000330: 1ee2 ecbb 6ed4 49bc ca2b 13bb f0dc c73b
00000340: 52a9 b2bb be4d cd3c 663e b63b 57d8 9cbc
00000350: 28de 08bc 0fb8 603b c36c 00bc 0620 433b
00000360: 7272 103c 58df babc 9a28 20bb 7cf0 233c
00000370: 94ac 8f39 ef4a 1ebc 3ca3 9f3a d337 f2bb
00000380: 7a5c abbc 160f a2b9 6fb5 87bc 6532 bd3c
00000390: c1c0 0dbc 3c91 b2bc 92a9 a4ba 4b3e 223c
000003a0: 5b90 66bb 3822 05bb 1719 1a3a 8839 58bc
000003b0: 7f9f c6bc 8846 d43c ac80 293c 9bbb c13c
000003c0: 085a 54b7 25b0 b4bb e8db 7b3b e67a eb3a
000003d0: bf74 bf3c 4351 31ba 8dd3 cc3b f215 c93c
000003e0: d7ed 0f3d d167 0c3c 5468 bcba e17c 823c
000003f0: 5dc5 c73b 01d0 aaba 55f6 48b9 e28e 11bb
-0.00065286685 -0.023870187 -0.054706663 -0.017287744 0.045983925 -0.0050091837 0.009350025 -0.058372412
9.118418e-05 -0.006104073 0.0075075678 -0.0023919342 -0.0057442253 0.04283532 0.0065593068 -0.030609544
0.006205302 -0.011240602 -0.04694857 0.052882716 0.051535003 -0.05172771 0.0063325693 0.022982718
-0.0037439289 -0.013125768 -0.023673844 0.011861059 -0.0011459878 -0.050203927 0.00043428352 0.043072585
0.04213924 -0.002085925 -0.063727744 -0.04488368 0.0056603276 0.020846544 -0.03768851 0.0074033323
0.004875059 0.038386058 0.010590437 0.06883726 -0.03180457 0.053141657 -0.008684347 -0.046737753
0.044723466 0.021887217 -0.029123865 -0.008911086 -0.005999743 0.021373862 -0.0024121073 -0.038700286
0.009914148 0.036683757 -0.04133607 -0.010234498 -0.013612819 0.0015264106 0.023824198 0.0074779475
0.002845204 -0.0126051605 -0.011591368 -0.019056953 0.03781583 -0.008959804 0.004447963 -0.02879225
-0.0008635375 0.02357401 0.044465076 -0.024462612 -0.024373539 0.032607574 0.010398523 -0.028921086
0.005042016 -0.02117374 -0.0011955422 0.022985723 0.023596931 -0.04444614 -0.0059336848 0.04108063
-0.0033810444 -0.053485442 -0.014443344 0.0254313 -0.0010305874 -0.05910931 0.00076382817 0.042126194
0.028260022 -0.00143371 -0.031322308 -0.0061466 0.048558556 0.04656302 -0.009363994 0.007116746
0.012576943 0.026717125 0.0135324765 0.032798234 -0.06288368 0.043825056 -0.015487167 -0.025633877
0.039126594 0.00842523 -0.010616823 -0.007095574 -0.0060949936 0.021445619 -0.00763294 -0.040426917
-0.003129809 0.024682336 -0.042519625 -0.0029328135 -0.014625194 0.0018940101 0.037912335 0.0063144234
-0.022578018 -0.019898603 0.00052693725 -0.004529721 0.036628112 -0.021709694 0.008566517 -0.047179397
0.00012855926 0.024763813 0.024226112 -0.010844818 -0.061140124 0.021099549 0.008919441 -0.057430655
0.013322799 -0.03830125 -0.028036628 0.01601232 0.014658691 -0.04103478 0.0531402 0.047279865
-0.005441704 -0.056856032 -0.030448567 0.01374279 -0.01092228 -0.027780099 0.0010079767 0.023877759
0.023554605 -0.0017116576 -9.7667726e-05 -0.03290665 0.029312788 -0.0077091656 0.0041677193 0.022752427
0.0091817975 0.027554456 0.010251052 0.071760565 -0.005798353 0.027414136 -0.0322206 -0.014102341
0.015468386 0.0134878 -0.024135225 -0.008753816 0.00083763344 0.0031482228 -0.014354409 -0.014220336
0.06708774 0.027642207 -0.020195626 0.0073501845 -0.0201611 0.0009813161 0.03104037 0.007557225
-0.006395266 -0.0068095857 0.016990067 0.0038126123 -0.0031107839 0.01903653 -0.0014600387 0.010923831
-4.206357e-05 0.02028687 0.006639266 -0.015750257 -0.0072291037 -0.012318714 -0.002245652 0.006099336
-0.0054523135 0.025061484 0.0055616377 -0.019146128 -0.008353747 0.0034289395 -0.007838431 0.0029773726
0.008816348 -0.022811577 -0.0024438263 0.010006066 0.00027403666 -0.00966142 0.0012179385 -0.0073919087
-0.02091812 -0.00030910288 -0.016566006 0.023095319 -0.008651913 -0.021797769 -0.0012562743 0.009902547
-0.0035181257 -0.0020314585 0.00058783725 -0.01319731 -0.024245976 0.025912538 0.010345619 0.023649028
-1.2657147e-05 -0.005514162 0.0038430635 0.0017965704 0.023371099 -0.0006764123 0.0062508048 0.024546597
0.03513893 0.008569674 -0.0014374354 0.015928688 0.0060965256 -0.0013031961 -0.00019165252 -0.002221041
