fault_model_nn_allprior_22_33kv_without_lstm/best_Y2019.pt (torch, 246328 bytes, 7 tensors)

emb.weight f4 [219, 16]
00000000: 6456 2cbf 8dc7 a8be e0b8 8bbf 1527 91bf
00000010: 7434 ac3e 313a 70bf 8b6d f9be 918d 16bf
00000020: 637a 923f 024d e8be 7918 98bf b3b7 c93e
00000030: 9eac 593e 8509 f6bf c6da 17bf 6910 7abe
00000040: ab4a 843f 6c5f 063f 76c3 01c0 88c5 f0be
00000050: 5b02 c6bf 15d6 64bf 19b2 9c3d bca3 11bd
00000060: 2d87 bcbe c9ca a9bf 3dfe 9dbf 47f2 d3be
00000070: e914 d6be 0648 6fbf df69 e53e 32c7 06be
00000080: d157 3c40 70ec 013f 73da 9a3f 0630 cbbe
00000090: be03 69bf 40fd d7bf 4a13 ccbf 3bae 503f
000000a0: 621c e43d 9b4b 2ebf f2ad 6fbf 1615 d8bf
000000b0: d4b3 b5be ee46 e3be 49ba 39bf 7117 8bbf
000000c0: 29ee d4bf 4723 3bbf 262f a63e a0a6 823f
000000d0: 45b4 ee3f 4a4b 34bf 2665 eb3f 0f9a ae3f
000000e0: 1771 6fbf 3705 48be 9416 b7bf e36f 8dbe
000000f0: 31dc 70be d1a1 dd3e 3c70 21be a9f1 c8be
00000100: c10c 0f40 6b13 cfbd 6f8a f03a cbae 8abe
00000110: 9c0c 37be 8910 28bf 8efa d1bd f26b a4bf
00000120: d5b6 71be 3131 cd3f 9e2d 4ebc b4ee 93be
00000130: bc35 82be 0531 5abe 1a96 89be 9deb 24bf
00000140: 26ef 9a3f 31d7 553f 1804 bf3d f742 d73d
00000150: edb2 7cbe 8d9e a53d cb3d acbf fe5d 6dbf
00000160: cb9e 443f 10c0 abbf f615 0a3e b694 2a3e
00000170: d54e b5bf 1106 d7bd 735a 333e bd18 973f
00000180: 6b93 96bf 7721 1e3f 94b9 f03c c3ef 123e
00000190: ab90 e23e e384 523f 0906 bcbf ab41 a0bf
000001a0: 6c9f b5be 7716 0ebf 71e3 e93e 6e0e 4cbf
000001b0: 59d8 613f 601b 0739 6847 e7bf 9e38 aabf
000001c0: aa77 8fbf 3c57 8e3f 3089 1fbf aea4 f3be
000001d0: a8f8 70bf 929f 02be 0198 36bd b356 2e3f
000001e0: 6f11 5bbe 0ad8 913f cbde 84bf d9a9 b73f
000001f0: 8158 2a3f c436 adbe aa98 733d 2d60 273f
00000200: 8741 3b3f 1786 8d3d 72d0 0940 6380 8a3e
00000210: a9f7 c33f 0867 cfbe 5c3c cfbd 91c8 fdbf
00000220: ce53 883f b3f7 1c3d 189b 233f 1e86 123f
00000230: a379 36bf 4ef0 7c3f f332 73bf eeea f43e
00000240: ce15 cdbe 1d85 2c3f 85aa 2bc0 2a1a b5be
00000250: ef47 7e3f 7e4f 403f d40f afbe 6fda f0bf
00000260: 8be0 2abf 246c a6b9 b905 09be 0d2f 193d
00000270: c15e 83bf 5df4 4d3f 3621 5ebf 9b55 c9bf
00000280: a62b 82be 9fd1 23be a8c5 f83f 9c86 3c3f
00000290: 72c7 2e3f e5d7 bfbf 377a 053d 8c84 f7be
000002a0: ebe3 d93f 1743 68bf 0514 e9bc a8f3 fe3e
000002b0: b573 2bbf ffaf ce3f 1eae 473f 7379 a93f
000002c0: 7f32 a03e 4ea6 43bf 3bac 053f 0121 c8bf
000002d0: 8034 82bc 2448 9c3e e467 7cbd 1a1e 9dbf
000002e0: 55b3 93bf f525 6e3f 8879 cf3f 6c0f 0b3f
000002f0: 3958 31bf bf4d df3f 5380 02be ccaa 29bf
00000300: 63f2 ae3e 593f a0bf 7325 61bf 8cc4 1f3f
00000310: c029 8bbf 585d a4bf ddd3 343f f11a 8dbe
00000320: dabc 1abf 6267 e3be 4589 62bf 100f e83f
00000330: bb42 113f 3eba 923e d809 643e 8e73 89bd
00000340: ccc9 5a3f a552 e13e fb10 04c0 9250 5940
00000350: 0e23 ef3f 2b29 0d3f 5a87 c5bf c7a3 09bd
00000360: 7a31 8a3f 741e ef3e 99c8 a2bf f8f2 28bf
00000370: 9a50 18bf 56b0 60be c37f 823f 0ed2 b33f
00000380: 343b 95bf f7b4 a7bf 023a 2cbf fe9f 9d3f
00000390: 67e2 cb3f fea4 ed3f 5980 70bf 79eb a73e
000003a0: c5a3 adbf 88cb 60be cfcc e43f 3697 0cbe
000003b0: 807a 98be 5017 76bf f18c 343e f4fd 213f
000003c0: b77b 80bf 9fe1 b03c 0b84 3bbf 3162 29bf
000003d0: 185b bfbe 760f 713f 6699 0abf 4c3f 50be
000003e0: 192d 80bf 8da4 d1bf 64ca 6a3e b105 e1bd
000003f0: 3257 21bf a315 843e 03c8 37bf 0c63 3abf
-0.6731932 -0.32964745 -1.0915794 -1.1340052 0.3363377 -0.93838793 -0.48716387 -0.58809763
1.14436 -0.45371252 -1.1882468 0.39397964 0.21257254 -1.9221655 -0.59318197 -0.24420322
1.0335287 0.5248935 -2.027555 -0.47025704 -1.5469469 -0.89389163 0.07651157 -0.03555654
-0.3682188 -1.326501 -1.2343212 -0.4139578 -0.41812828 -0.93469274 0.44807336 -0.13161924
2.94286 0.507514 1.2097915 -0.39685076 -0.91021335 -1.6874161 -1.5943387 0.81515855
0.11138226 -0.68084115 -0.93624794 -1.6881435 -0.3548876 -0.44390053 -0.72549874 -1.0866529
-1.6635181 -0.73100704 0.32457846 1.02071 1.8648764 -0.7042738 1.8390243 1.3640765
-0.93531936 -0.1953324 -1.4303765 -0.27624425 -0.23521496 0.4328752 -0.1576547 -0.39246872
2.2351534 -0.101111256 0.0018351803 -0.2708648 -0.17875904 -0.6565023 -0.10252868 -1.2845442
-0.23604901 1.6030637 -0.012584118 -0.28893054 -0.2543162 -0.21307762 -0.2687233 -0.6442202
1.2104232 0.8353148 0.09326953 0.105108194 -0.2467763 0.08086882 -1.3456358 -0.92721546
0.768048 -1.3417988 0.1348494 0.16658291 -1.4164683 -0.10499204 0.17514972 1.1804425
-1.1763738 0.61769813 0.029385366 0.14349274 0.44250998 0.8223402 -1.4689342 -1.252004
-0.35473192 -0.5550303 0.45681337 -0.7970952 0.88220745 0.00012884801 -1.8068666 -1.3298528
-1.1208394 1.1120372 -0.62318707 -0.47586578 -0.9412942 -0.12756184 -0.044578556 0.6810104
-0.21393369 1.1394055 -1.0380491 1.4348708 0.66541296 -0.33830845 0.059471764 0.6538113
0.7314686 0.06910341 2.1533475 0.27051076 1.5309955 -0.40508294 -0.101189345 -1.9826833
1.0650575 0.038322162 0.6390853 0.57235897 -0.7127935 0.98804176 -0.9499962 0.47835487
-0.40055698 0.67390615 -2.6822827 -0.35371524 0.9932851 0.75121295 -0.34191763 -1.8816661
-0.66748875 -0.00031742558 -0.1338109 0.037398387 -1.0263292 0.80450994 -0.86769426 -1.572925
-0.25423926 -0.15997933 1.943532 0.736429 0.6827308 -1.4987761 0.032587256 -0.48343313
1.702268 -0.9072737 -0.028451929 0.4979527 -0.6697343 1.614746 0.78000057 1.3240188
0.31288525 -0.76425636 0.5221593 -1.5635072 -0.015894175 0.3052379 -0.061622515 -1.2274811
-1.1539103 0.9302667 1.6208963 0.54320407 -0.6927524 1.7445601 -0.12744264 -0.6627624
0.341693 -1.2519332 -0.8794777 0.6240928 -1.0872116 -1.2840986 0.7063578 -0.27559617
-0.60444415 -0.44414812 -0.88490707 1.8129597 0.5674245 0.28657717 0.2226938 -0.067114934
0.8546417 0.44008365 -2.0635364 3.3955426 1.8682573 0.5514094 -1.5431931 -0.033603456
1.0796349 0.4670292 -1.2717468 -0.6599574 -0.5949799 -0.21942267 1.019524 1.4048479
-1.1658692 -1.3102101 -0.6727601 1.2314451 1.5928468 1.8565977 -0.93945843 0.3279684
-1.3565603 -0.21952641 1.7875003 -0.13729557 -0.2978096 -0.9612932 0.1763189 0.63278127
-1.0037755 0.02159196 -0.73248357 -0.66165453 -0.37374187 0.94164217 -0.5414032 -0.20336646
-1.0013763 -1.6378342 0.22928768 -0.10987414 -0.63023674 0.25797758 -0.7178957 -0.72807384

head.0.weight f4 [256, 88]
00000000: 4609 11bc 4b66 24bd fe3f 54bd 0300 2037
00000010: d1d6 02bd 1b63 1ebd ed85 983d 0854 ab3d
00000020: 3fa0 66bc 3377 9f3d 23df c23c c783 dcbd
00000030: bb0e a23d 1164 c93d b4d3 d1bb 9343 143b
00000040: 87d7 483d d0e3 053d 3336 10bc cfe0 983d
00000050: 636b a4bd aab6 86bd b18f edbb 7404 2a3c
00000060: 6fd9 6ebd 16b2 30bd 51c0 0abd 2e55 093d
00000070: 4ba3 85bd 2df3 793d 42ea 12ba ba09 4bbc
00000080: d065 973b f248 133d af89 ac3c 1ac9 2b3c
00000090: 4177 afbb a9ca 5b3d 5f74 c53d 4d59 d03d
000000a0: 265f 7cbc a04d a0bc 464b 34bc 7907 9e3d
000000b0: 119a 933d e2d1 d63d 5320 20bb 297c 923d
000000c0: 56c7 2ebc 8dd0 e63d ed01 f73c ba50 c2bd
000000d0: 7364 73bd 3577 84bc aef5 823d 791d 8abc
000000e0: b87b c7bd a36b 8d3d 2ff1 50bd 9575 a93c
000000f0: 2a3d c73c 8d7f 993c 60f6 783c 7c0d 26bd
00000100: 7c57 0d3d b3b8 bebd 7da3 6d3d 6c49 c8bd
00000110: e7cd c3bd b3ac adbd a260 1fbb ea08 af3c
00000120: 3303 3fbc a500 a63d 2ce9 073d 91e5 cebc
00000130: 1783 32bd fa69 01bd 0f88 a83d 2616 a73d
00000140: bd02 563c a3ab c53c 091f 27bd a818 cb3d
00000150: b101 86bd 8159 3e3c 58dc a0bd 7186 e03c
00000160: ad3a f339 0df2 6bbc 25d9 66bc 90fa 0c3c
00000170: bb8e c83d ce94 123d 7f11 923d 8541 8dbc
00000180: 9d75 293d e074 1e3b 90f8 10bd fd0c 1e3d
00000190: 3595 f73a 4096 7b3c 00a5 9a3d 7b09 feb8
000001a0: af06 0bbb 7dcb 353d 1384 94bd c6d7 e6bd
000001b0: 0c8d bfbd c048 cfbc c443 573d 4361 a6bd
000001c0: 3943 0d3d cfcd 34bd 77de fc3b 186f 133d
000001d0: 2eab d8bd 5975 b93d c0a4 35bd 814a a1bd
000001e0: 9c04 313d 1ae7 fabc 7b4d efba 6870 a33d
000001f0: 10c9 833d f100 76bd 522d 7e3d eaec 69bd
00000200: 9452 9a3d decc b43d 67a2 9e3d 0885 4f3c
00000210: 0b4a 9439 f1ad 693d a730 13bd 10a7 89bd
00000220: 0e7f ec3c 2a47 353d c532 8e3d 47e3 0b3d
00000230: 748b 47bd fcdf 8f3c e807 573d a4d6 e4bd
00000240: 5850 edbd a4cd 193d 2e77 96bd 1f3b c1bd
00000250: e73b 82bd 6e6e f3bd 844b 463d 47e1 b93d
00000260: c145 6fbd 2f25 b83c dafe b1bd 687c 163d
00000270: 6084 a9bd bcc7 82bd 158e 9639 88f4 e2bc
00000280: a8d7 b13c 9caf 9abb 37df b33d f4b1 493c
00000290: 8ba1 3b3d e880 cabd 70b8 aa3c 72f2 cf3c
000002a0: 6a9a 9fbc 79ef 4fbd b3df df3d 9a96 033d
000002b0: 0900 613c d875 98bd 2e9d a13c e99a 5c3d
000002c0: 0fd1 00bd faa4 eabc 8d06 bbbd 5ed0 82bd
000002d0: 6dbe 75bd 514c 5bbd 0a68 5fbd d12f 5a3c
000002e0: 28ca 7e3d 334f 8b3d affa c53d e520 33bd
000002f0: aedc 1dbb 8665 b63d 8d04 b13c ac07 413d
00000300: c538 88ba ccb1 9cbd 95af 703d 6eb0 183d
00000310: dafd a2bd 01ee 89ba 418f 8a3d 533c a039
00000320: 8570 f7bc eec4 293c cac6 3f3b cef5 5d3b
00000330: cc94 49bc d468 6dbc 86e4 843c 8d0f b9bd
00000340: 292d 483d 5a63 92bd 2d36 a0bc a081 5dbd
00000350: 4b63 76bd 490c c7bd 990a f63c cb0d d03d
00000360: 9c1a 8abd 62b7 8e3d 3473 0bbd 0bd5 adbd
00000370: 1151 1e3d 4c78 d0bd 2bd8 67bd 3d30 763d
00000380: 035b 523d 9b1d 873c 33c7 93bc 9009 da3b
00000390: b526 94bd 7791 613d 011e 6fbd 2047 b1bc
000003a0: 4548 9c3c 98fc c1b8 2b45 2dbd f968 4cbd
000003b0: cae7 f13c 89f9 6ebd f118 4dbd 74b3 76bc
000003c0: 093d d0bc 4939 69bb b359 9ebc 528e 923c
000003d0: 0d48 bbbd ff85 aabc 85b8 053c d0a5 dd3c
000003e0: f192 393c 3a65 86bc 0f2c d93b cb91 8bbd
000003f0: 163c d7bd 681a 98bd 808f cdbd d33a 903d
-0.008852309 -0.040136617 -0.05181884 9.536746e-06 -0.031943146 -0.038668733 0.07447419 0.08365637
-0.014076292 0.07786407 0.02378804 -0.10767322 0.07912966 0.09833539 -0.006403411 0.0022623285
0.049033668 0.032687962 -0.008801985 0.07464754 -0.08028295 -0.06577809 -0.0072497954 0.010377038
-0.05831283 -0.043138586 -0.033874813 0.0335285 -0.06525286 0.061022926 -0.0005604365 -0.012392456
0.0046202913 0.035958238 0.021061746 0.010484958 -0.0053547923 0.05366007 0.09641337 0.10173283
-0.0154035445 -0.019568264 -0.011004275 0.07716269 0.0720712 0.10489251 -0.002443333 0.07152588
-0.010667643 0.11270247 0.030152285 -0.094880536 -0.059421968 -0.016170124 0.06394516 -0.016859757
-0.09740394 0.06905296 -0.05101126 0.02068595 0.024321157 0.018737579 0.015195459 -0.040540203
0.03450726 -0.09312572 0.058017243 -0.09779629 -0.09560757 -0.084802054 -0.0024319072 0.021366555
-0.011658478 0.08105592 0.033181354 -0.02525595 -0.04358205 -0.031595208 0.08229076 0.08158521
0.013062176 0.024129694 -0.04080108 0.09916812 -0.06543291 0.011618019 -0.07854527 0.027407857
0.0004639229 -0.014400971 -0.014089857 0.008604661 0.09792849 0.035786442 0.07132243 -0.017243156
0.04137193 0.002417855 -0.035393298 0.038586605 0.0018889072 0.015355647 0.075510025 -0.0001211343
-0.00212137 0.044383515 -0.07251754 -0.11271624 -0.093530744 -0.025303245 0.05255486 -0.0812402
0.034487937 -0.044141587 0.0077169496 0.03599462 -0.10579525 0.090555854 -0.04434657 -0.078755386
0.043217286 -0.030627776 -0.0018257344 0.07980424 0.06434834 -0.06005949 0.06205494 -0.057110704
0.07535282 0.08828138 0.077458195 0.012665994 0.00028283926 0.05705065 -0.03593507 -0.06721318
0.028869178 0.04425732 0.06943277 0.034152295 -0.048716977 0.017562859 0.052497774 -0.11173752
-0.1158759 0.03754963 -0.073469505 -0.094351046 -0.06359082 -0.11886297 0.04841186 0.09076171
-0.058416132 0.022478668 -0.08691187 0.036739737 -0.08277202 -0.063857526 0.0002871609 -0.027704492
0.021709278 -0.0047206413 0.08782809 0.012310494 0.045808356 -0.09887868 0.0208399 0.025384162
-0.01948281 -0.05076549 0.10931339 0.032126047 0.013732919 -0.07444352 0.01972827 0.05385867
-0.031449374 -0.02864312 -0.09132109 -0.06387399 -0.059996057 -0.053539578 -0.05454258 0.013317064
0.06220451 0.068022154 0.09666955 -0.043732543 -0.0024087834 0.08906083 0.021608615 0.047126457
-0.0010392895 -0.076510996 0.058761198 0.03727763 -0.079585746 -0.0010523201 0.06765605 0.00030562523
-0.03020502 0.010361893 0.0029262775 0.0033868435 -0.012303542 -0.014490325 0.01622225 -0.09036169
0.048871193 -0.07147856 -0.019557083 -0.0540787 -0.060153287 -0.0971914 0.03003435 0.10158881
-0.067433566 0.06968571 -0.034045413 -0.084879 0.03865153 -0.10179195 -0.05660264 0.060104597
0.051356327 0.01649361 -0.018039322 0.006653972 -0.07233945 0.055070367 -0.058378223 -0.02164036
0.01907743 -9.2500064e-05 -0.04230229 -0.049904797 0.029529471 -0.058343444 -0.050072614 -0.015057433
-0.025419729 -0.0035587123 -0.019329881 0.01789013 -0.09144602 -0.020815847 0.008161669 0.027056605
0.0113265375 -0.01640569 0.0066275666 -0.06814917 -0.10509507 -0.074269116 -0.10037136 0.0704247

head.0.bias f4 [256]
00000000: 4dff dfbc ddc2 d03d ff47 33bd c867 d43c
00000010: d7db ce3d 2e51 99bd 97ba 423d 43a7 a9bd
00000020: 72ea a93d 49bb 993d 972e b4bd 8f78 9cbd
00000030: 6b53 733d 0389 a33d a4e6 f0ba 10a8 0e3d
00000040: fede 163d 84a6 ac3d c11a f53c e3cd d6bd
00000050: 1515 8dbd b3fa c13c a728 bb3b d88a cebd
00000060: 731d 973d 0a98 64bc 6539 763d 7acc 7ebd
00000070: 540b 69bc 25aa 173c 6af1 8e3b c7b1 873d
00000080: 2526 643d c2f7 08bc f873 40bd 3070 8d3d
00000090: ec2f 1dbc 4f81 4abd 5746 94bd d9ad 8c3d
000000a0: 93af f13c 225c 8abc 1243 983d db4d 073d
000000b0: 04b3 bc3d 7f6c b1bc bd13 b43d 93a3 933c
000000c0: 228b 32bd 98dd 2e3c 11e3 fd3d c124 34bd
000000d0: f73e eabc 73a2 c6bd c4f4 ef3d 6bc8 5cbd
000000e0: 1444 c53a 38cc 063d 8da3 7fbd 115e c6bd
000000f0: 867d c1bc 9ad9 d2bd 6ea6 b4bd c2db c0bc
00000100: 18bf dabd 1b40 df37 09e0 7ebd f422 8d3d
00000110: ecf2 8f3d 6cd4 84bc f880 223d ef6d f6bc
00000120: 50ec cdbc faf1 8cbd ba65 963d b107 57bd
00000130: 3362 ac3c 7a2c 913d 1be1 0cbd 8999 73bd
00000140: cd8b ca3d 57d4 bdbd 0d75 a8bc 3c8e 6a3c
00000150: 5971 003e 8829 db3c 9afd e03d 7562 41bd
00000160: a8a0 79bd 4966 a43d 08d0 543d a88d 96bc
00000170: fee0 eb3c 00fc 67bc 6685 ca3d 0239 75ba
00000180: 4aba 1cbd b632 d9ba acf8 0abd ba9d 993d
00000190: 7ec7 52bd 2925 a3bd 2510 803d f10c a33d
000001a0: 5c81 0d3c d8d9 933d 037c 603d 442f 61bc
000001b0: 7e2f d83d 4f3b 3b3d 1bc4 23bd 556c e6bd
000001c0: 26a0 af3d ec49 5abd eb42 96bd 2a9e 843d
000001d0: 9124 adbd 9989 16bd 836e 9f3d 37a1 6c3d
000001e0: 1a0f a13d b414 d63d 58e1 563c 139f 903d
000001f0: 3606 f93b 538d f1bc 5042 9fbc 9185 8f3d
00000200: 901a b4bd 3723 533d 22b0 a4bd 5e6d d43d
00000210: 2cac 413d a80b b4bd ab5f a53c d322 fb3c
00000220: 55f6 963d 4fa0 37bc fbb3 8fbd 51c4 7b3d
00000230: 8ea1 81bd e80d e13d 2b90 a8bc 3364 473b
00000240: dbd1 233d cfc1 673a 1076 1abd 9fa0 853d
00000250: 554d 0cbd 7cb6 babc 4d43 ab3d af29 b3bc
00000260: e1f5 97bd c57b 8b3d a3cc 98bd 9ef0 deb9
00000270: e51e 0ebd 746d 86bd b1b9 13bd c675 8d3d
00000280: f0a6 a2bd 0df7 133d 6a52 943c 76d7 993b
00000290: d9e8 273d 3f1f 4e3d dc93 65bc 3cf5 2339
000002a0: 3fbc bd3d fbc5 663d d3c3 c13c 98b0 5b3d
000002b0: a6ae 54bd 1ce2 6ebc 698c b53d 3e43 64bc
000002c0: d892 a63d c6fa db3d 0a1d 70bc 4b71 ddba
000002d0: 6fff fe3c f751 b93b 0ae6 56bc 2277 9a3d
000002e0: 3a98 823d e2da 95bd 5eca 8c3d 52ff a5bc
000002f0: 1e3c 7ebd 0e6b 0a3d 0e28 bf3d a70e b4ba
00000300: 19c7 c1bb cd54 8b3d 523a b13d 7019 7fbb
00000310: 5b33 1d3d fe40 603b a01a ab3c 1604 bebd
00000320: ad46 9ebd c612 593c 134e ca3d 5545 b83c
00000330: 32c5 be3d 4da3 93bc 681b e63d 6a77 9b3d
00000340: bf86 81bd ed22 f13c 438b b83d c3da d63d
00000350: 43dc ab3d 992c e63d 7984 943c 547f ee3d
00000360: 1128 cbbc 620e dcbd 2933 b93d 25ee 4fbc
00000370: 725b 4338 273c 3cbd 4a54 aebd ad41 abbd
00000380: aecc e9ba a91c aabd 0448 7e3d 3316 9a3d
00000390: b36c 7e3d 6021 c53d 64cf da3c 3553 7a3d
000003a0: 9901 92bd da9a 0b3d 3ea9 4d3c 3205 363d
000003b0: 7c77 df3c 1bf0 93bd 94a1 f03d 45e8 88bd
000003c0: 387b 0b3d 570d c03b 645b e13d 610c 793d
000003d0: 5cae 313c 6c8c 663d 23d5 943d 00c6 a33d
000003e0: 3dd8 9d3d e2bb 593d 674d aebc 8379 ca3d
000003f0: ad51 633c e29c 4a3a 8bf1 4cba b746 fe3d
-0.027343417 0.10193417 -0.043769833 0.025928393 0.10100525 -0.07486187 0.047541227 -0.08283856
0.0829667 0.07506425 -0.08797949 -0.07640182 0.059405725 0.07985117 -0.0018379283 0.034828246
0.036833756 0.08430198 0.029919984 -0.104884885 -0.06888787 0.023679113 0.0057116332 -0.10085076
0.07378664 -0.013952265 0.06011333 -0.062206723 -0.014223892 0.009256874 0.004362275 0.06625705
0.05570044 -0.008359851 -0.046985596 0.06906164 -0.009593945 -0.049439725 -0.07239979 0.06869096
0.029502666 -0.016889635 0.07434668 0.033033233 0.09213832 -0.02165818 0.08792827 0.018022334
-0.04358972 0.010672949 0.12396825 -0.043980364 -0.028594477 -0.096989535 0.11716607 -0.05390207
0.0015050196 0.032909602 -0.062411834 -0.096859105 -0.023619425 -0.102954105 -0.088208064 -0.023542289
-0.106809795 2.6613523e-05 -0.062225375 0.068914324 0.070287555 -0.016214572 0.039673775 -0.030081717
-0.025137097 -0.06882091 0.073436216 -0.05249757 0.021042919 0.07088561 -0.034394365 -0.059472594
0.09889946 -0.09269016 -0.020563627 0.014316138 0.12543239 0.026753202 0.10985871 -0.047213037
-0.06094423 0.08027322 0.051956207 -0.018378094 0.028793808 -0.014159203 0.09888725 -0.0009354503
-0.038263597 -0.0016570899 -0.03392856 0.07500787 -0.05145978 -0.07966072 0.06253079 0.07961453
0.008636799 0.07219285 0.054805767 -0.013744179 0.105559334 0.045710858 -0.039981943 -0.112511314
0.08575468 -0.053293154 -0.07336982 0.0647548 -0.0845424 -0.036752317 0.0778475 0.057770934
0.078642085 0.104531676 0.01311525 0.07061591 0.0075996174 -0.029486334 -0.0194408 0.07007898
-0.08794129 0.051547255 -0.08041407 0.10372423 0.047283337 -0.08791286 0.02018722 0.030656254
0.07371203 -0.011207654 -0.070167504 0.06146652 -0.06329642 0.109889805 -0.020576557 0.0030424714
0.039995056 0.00088408304 -0.03771025 0.06524777 -0.034253437 -0.022792093 0.08362446 -0.021870462
-0.074199446 0.068107165 -0.07460906 -0.00042522413 -0.034697432 -0.06563845 -0.03606576 0.06907229
-0.07941997 0.036124278 0.018105704 0.0046948744 0.040993545 0.050322767 -0.014012303 0.00015636248
0.09264421 0.056341153 0.023652947 0.05363521 -0.05192437 -0.014580276 0.08864672 -0.013932047
0.08133477 0.107411906 -0.014655361 -0.0016894726 0.03112766 0.005655523 -0.013116369 0.07542254
0.06376691 -0.07317139 0.06874536 -0.020263348 -0.06206905 0.0337935 0.09333812 -0.0013737277
-0.005913627 0.06803284 0.08653702 -0.0038925074 0.038379055 0.0034218426 0.02088672 -0.09278123
-0.07728324 0.013249105 0.09878173 0.022493998 0.09314956 -0.018022204 0.11235696 0.07591136
-0.06324529 0.0294356 0.09010937 0.10490944 0.08391621 0.11238975 0.018129574 0.1164538
-0.024799379 -0.10744931 0.09042961 -0.012691055 4.6576788e-05 -0.045955803 -0.085121706 -0.08362136
-0.0017837489 -0.08306248 0.0620804 0.075237654 0.062115382 0.096255064 0.02671022 0.06111451
-0.07129211 0.034083225 0.0125525575 0.04443855 0.027278654 -0.07223531 0.117495686 -0.06684927
0.034053057 0.0058609652 0.110037595 0.06080282 0.010844793 0.05628626 0.07267215 0.0799675
0.0770726 0.053157695 -0.021277143 0.09886458 0.0138744535 0.0007729066 -0.0007817975 0.124158315

head.2.weight f4 [128, 256]
00000000: 2f82 81bd 6b3e 143d 04c1 7abd 8dce 65bd
00000010: 099c 8e3c 9807 1aba 98a7 fabc b8c5 65bb
00000020: a277 42ba 6e08 26bd 0a7f 583d d17b a6bc
00000030: 4133 08bd d063 6e3b 2de7 2fbd b6ff 053d
00000040: 538f 073d 3f4c c6bc f8f8 60bd dcd7 bc3c
00000050: a0c2 183b e9b1 80bb 3c60 e7bc 5ee4 d2bb
00000060: 6424 413d c2d1 c43c 7b49 693d 1d4d d53c
00000070: 328c 4abc 5984 7abd f464 ac3c 562e 2f3d
00000080: 53c5 38bd e821 b93c ae22 0ebb 18c8 cbbc
00000090: e929 fb3a e52a 1d3d 3815 4f3c cd80 ee3b
000000a0: d961 b1bc 2c2c 0d38 2446 5c3d 6c81 4e3c
000000b0: c304 46bd 2f4c 2a3d 2ae9 1e3d e862 4fbd
000000c0: c33a 80bd 85de 41ba e8d9 34bd 4e6b dfbc
000000d0: d78e 083c 9a99 a2bb 3fd2 4fbd f146 043d
000000e0: ae2d 52bd cdeb 8fbd 7e64 3d3a c505 edbc
000000f0: 732f 39bd 462a 10bc 4ff4 c5bb 7183 5dbd
00000100: 3d11 713b ed70 a13c 0f55 4abd 5353 a43c
00000110: fb39 483d 392a dcbc 3dbc 10bd 7bc7 6cbd
00000120: 5802 f6bc 9ab1 493d 1152 5cbd 26ed 98bc
00000130: 3929 803c ec8d 87bd 56cb 4abb d89d 22bd
00000140: bdfe 483b 8e57 403d 856e e73c 3b58 cf3c
00000150: 717c cf3c b2c7 5abd 776c 1dbd a3f6 69bd
00000160: f681 a0bc 06f6 213a 4ac4 ddbb b402 47bd
00000170: fca6 fe3b 6fd7 13bd 8a93 273c bfca 933c
00000180: 6c19 053d c3c2 85bd 13db 1c3c 7fdc 84bc
00000190: 23d9 af3c ed23 cabb dc20 69bd 2ddb 713c
000001a0: 5a3f 753c a23c ab3c 9df1 cf3b 3e54 c73a
000001b0: 3f41 28bd c074 d7bc 399b a13c cbe9 e4bc
000001c0: 590e 233d 2975 5d3d c126 7fbd 656f d4bc
000001d0: 153d 1f3d c8c2 093d 42b3 763b 53dd 703b
000001e0: dec3 d43c 1237 dcbc 0128 57bc fc15 683c
000001f0: 966b 003b ecad 603c 59a9 43bd bdd0 52bb
00000200: 1a85 ebbc 2d2d 873c bb60 5b3d 93ea 133b
00000210: 161c c3bc cbc3 29bb 64ee 183c 3e6a f23b
00000220: ad67 d73b 50fb c5b8 e899 693c 3457 1d3d
00000230: 4e50 3dbd 9144 943c 98aa 813d 23c9 3f3d
00000240: cd58 043b 934a c4bc 7443 52bd 2b44 8ebc
00000250: 216c 5bbd 3d16 ac3c fadf 4d3d 4439 88b8
00000260: 13df 7bbb 53a7 a53b 1418 aabc 79fd a1bc
00000270: 0260 25bb adf9 a5bc 7d8d edbc 632d 473c
00000280: 7001 35ba 574b 4e3d 82fa 52bd 189f d2bc
00000290: 8d2b be3b 246d 013d ae96 053d 037e de3c
000002a0: a60c 29bc 30cf 83bd c8a5 3a3d 7044 06bc
000002b0: 2062 2cbd 23a8 bdbb ee97 83bd 589b 20bb
000002c0: 4c5b 403d 96cb 02bd 70fa 87bd 549b 14bc
000002d0: e61b 9a3a 63cc d9bc 4a7a 02bd 5366 38bd
000002e0: 5844 f63c c398 7ebd 1130 2cbd d26f 1abd
000002f0: 7286 73bd 6431 47bc 7108 83bd e442 faba
00000300: 3dd6 7dbc 7f51 b83b 2ee4 f6bc 749b 8abb
00000310: 119b 1ebc 7bd5 dbbc 04aa 0abd 889e ad3a
00000320: 622e fabc 94bd dbbb 99ab 3dbd 98b6 8fbc
00000330: 05ea e2bc 4bb2 1f3d 8fad 46bd de01 f73c
00000340: 5080 b7bc 6041 38bd 9e51 2cbd 9f60 01bd
00000350: 7a88 59bc 660a 2e3c 9ad3 283b 0420 6cbc
00000360: 50e2 08bd bbaf f33c be28 8ebd 7afd 253d
00000370: 1761 eabc 3a46 49bc 96ab 98bc 6f5c 863c
00000380: 8843 503d 24b9 383d 7fc2 4f3d a160 05bc
00000390: bf4f 0c3d 69ac 4a3d eae8 27bd cbd5 8e3c
000003a0: e49b 8cbb 71da da3a 063e 8fbd be94 5bbd
000003b0: 9f0d 96bb 3dfb 0039 e333 953b 5a2c 2cbd
000003c0: dc22 30bc 8ce3 333d 8cb7 2c3d 0bfa 203d
000003d0: ed7f 4f3d ec45 d2bb d8d0 c1bc c718 0c3d
000003e0: 421b 213d bee0 2a3d dd9d b73c 5a85 09bd
000003f0: 2b3e 2e3d 85f1 2abd a4ee d9bb cb49 06bd
-0.06323659 0.03619234 -0.06121923 -0.056105185 0.017408388 -0.00058757653 -0.030597493 -0.0035060477
-0.00074183394 -0.040535383 0.05285553 -0.020322712 -0.033252005 0.003637541 -0.042945076 0.032714568
0.03309567 -0.024206279 -0.054924935 0.023052149 0.0023309365 -0.0039274585 -0.02824413 -0.006435915
0.047153845 0.024025802 0.056954842 0.026037747 -0.012362527 -0.061161373 0.021044232 0.0427688
-0.045110058 0.022599176 -0.0021688151 -0.024875686 0.001916227 0.038370986 0.012639336 0.007278538
-0.021653103 3.3658158e-05 0.05377783 0.012604099 -0.048344385 0.04157656 0.03879658 -0.050631434
-0.06261208 -0.0007395524 -0.044153124 -0.027272847 0.008334837 -0.0049621584 -0.050737616 0.032294217
-0.051313095 -0.07027397 0.00072247523 -0.028933415 -0.045211267 -0.008799141 -0.0060410867 -0.05408043
0.0036783956 0.019707168 -0.049397524 0.020059263 0.04888342 -0.026875602 -0.035335768 -0.057807427
-0.030030414 0.04924164 -0.053789202 -0.018667769 0.015644656 -0.06618866 -0.0030943952 -0.039701313
0.0030669414 0.0469585 0.028250942 0.025310626 0.025327893 -0.0534131 -0.03843352 -0.057119977
-0.01959322 0.0006178323 -0.0067677842 -0.048586562 0.007771371 -0.036094125 0.010228047 0.018041013
0.032494947 -0.065312885 0.009573716 -0.016218422 0.021465844 -0.0061688335 -0.056916103 0.014761728
0.0149687175 0.020902935 0.006345941 0.0015207601 -0.04107785 -0.026300788 0.019727336 -0.027943512
0.039808605 0.05406681 -0.062292818 -0.025932023 0.03887661 0.033633024 0.0037643467 0.0036753013
0.025972303 -0.026881728 -0.013132096 0.014165398 0.0019595376 0.013713341 -0.047768924 -0.0032167875
-0.028749991 0.016501034 0.053559046 0.0022570237 -0.023817103 -0.0025904055 0.0093341805 0.007397919
0.0065736384 -9.4405026e-05 0.0142578855 0.03841324 -0.046219163 0.018099101 0.06331366 0.04682268
0.002019453 -0.023961341 -0.05133386 -0.01736649 -0.053569917 0.021006698 0.05026243 -6.495652e-05
-0.0038432523 0.005055347 -0.020763434 -0.019774185 -0.0025234227 -0.020260656 -0.028998131 0.012156817
-0.0006904816 0.05036482 -0.051508434 -0.025710627 0.0058035315 0.031598225 0.032614402 0.027159696
-0.010317957 -0.06436002 0.045568258 -0.008195028 -0.042085767 -0.0057878657 -0.06425463 -0.0024506655
0.046962067 -0.031932436 -0.06639564 -0.009070236 0.0011757582 -0.026586717 -0.031854905 -0.04501946
0.030061886 -0.062157404 -0.042038027 -0.037704296 -0.05945439 -0.012157772 -0.063980944 -0.0019093421
-0.015492973 0.0056249495 -0.030138101 -0.0042299572 -0.009680525 -0.026835194 -0.033853546 0.0013246099
-0.030539695 -0.006705949 -0.046306226 -0.017543122 -0.02769948 0.038988393 -0.048505362 0.030152258
-0.022400051 -0.04498422 -0.042070024 -0.031586286 -0.013277167 0.010622596 0.002576089 -0.01441193
-0.033418953 0.02974688 -0.06941365 0.040524937 -0.02861075 -0.01228481 -0.018636506 0.016401498
0.050845653 0.04509844 0.050722595 -0.008140714 0.03425574 0.04948083 -0.04099361 0.017435929
-0.0042910445 0.0016697181 -0.06994252 -0.05360865 -0.0045792605 0.00012300625 0.0045533045 -0.042034484
-0.010750499 0.043918177 0.04216723 0.03930096 0.05065911 -0.0064170267 -0.023659155 0.034203317
0.039332636 0.041718237 0.022414142 -0.03357444 0.042539757 -0.041734237 -0.0066507626 -0.03278522

head.2.bias f4 [128]
00000000: f0ea 37bd 2945 7cbd a841 18bb 78ca 353d
00000010: 295d db3c b436 3d3d 3721 46bd 847a 20bd
00000020: b4f4 e93c c52d a5bc 5fbb a03d 6c94 2f3d
00000030: 4483 a3bc 403b 8fbd d693 dfbc 765e febc
00000040: a155 23bd 1a75 1b3d 7702 593c fd41 99bc
00000050: 2a79 3fbd 7894 87bd 3132 723d f0b3 c93b
00000060: ed47 613d 40e8 993d ba75 8d3d 1a8b 3a3d
00000070: bd1e a53c e920 283b debf 3ebd b6ef 74bd
00000080: 8231 593d d8df 82bc 27d3 ca3b ae33 10bd
00000090: dde2 5dbc ea8e 923b 4fec 433d 78ef 9a3c
000000a0: 1eaf 493d 948e 263d cec1 2cbd 917b 13bd
000000b0: bf01 473c c864 ef3b 1b06 803c 1c44 83bc
000000c0: 4fca d3bb 2777 523d 9aba b8bb 7c50 5e3d
000000d0: 9959 58bd 30ad a03c a4b0 07bd ac6b d63c
000000e0: fe21 443d a89c 14ba e91d 3e3c f464 bd3c
000000f0: f151 983d 61e0 3dbd bff1 af3a 4299 83bd
00000100: a895 9b3c ffab b13a b4e2 f63c 4a33 2f3b
00000110: 85b3 a43d 280a 42bd 6216 533c 52b0 183d
00000120: 45c2 a23c 2a3e 2e3c c9c2 62bd b83e c7bb
00000130: 4aed f93c f209 14bd 6d8e a03d aec6 d0bc
00000140: 4961 123d 313b 9c3d 7b37 9bbc b509 f2bc
00000150: 277a 243c 7436 81bd b601 893c b75c 4abd
00000160: 3bcb 123d 6748 1cbb 7e9a b0bc b51f 883d
00000170: f17f a73d c8e7 4abc 186e 203d d2e1 c0bc
00000180: 78e4 743c 3ded 18bd 0c4d 29bd 9de9 35bd
00000190: c8c5 8c3d aa54 23bd 9bf6 04bd 91eb 0b3d
000001a0: 5b94 c9bc 140e bcbc 1e90 953c 9a7f 03bd
000001b0: ff36 2bbd 0da6 323d 56f0 e83c a978 cfbb
000001c0: 4cc2 9e3d 383c a03c 6da2 f1bc 6f1c 5e3c
000001d0: c39e febb 95d5 9dbc 2ff3 dabc d4f8 05bd
000001e0: 64d4 07bb ed79 ec3c afff 5a3d 8bc1 1fbd
000001f0: c9f0 713d 8bfe c5bc 83c8 da3c c12c 0b3d
-0.04490179 -0.061589394 -0.0023232494 0.044382542 0.02677782 0.046194747 -0.04837152 -0.03917934
0.028559066 -0.020163426 0.07848238 0.042866156 -0.019960053 -0.06993723 -0.027292173 -0.031050902
-0.039876584 0.037953474 0.013245217 -0.018708223 -0.04674641 -0.06620115 0.059129898 0.0061554834
0.055000234 0.07515001 0.0690722 0.045542814 0.020156259 0.0025654382 -0.046569698 -0.05979892
0.05302573 -0.015975878 0.006189722 -0.035205536 -0.013542858 0.004472603 0.047832783 0.018913016
0.04923927 0.040663317 -0.042177014 -0.036006514 0.012146412 0.0073057152 0.015627911 -0.016023688
-0.006463326 0.051383164 -0.005637479 0.054275975 -0.052819822 0.019613832 -0.033127442 0.026174389
0.04788398 -0.00056690956 0.011603811 0.023119427 0.07437504 -0.046356563 0.0013423486 -0.06425716
0.01899226 0.0013555287 0.030137397 0.0026733452 0.08042053 -0.047372967 0.012883754 0.037277527
0.019868026 0.010634938 -0.055361543 -0.0060804747 0.030508656 -0.036142297 0.078396656 -0.025485363
0.03573731 0.07628477 -0.018947354 -0.029545644 0.010038889 -0.06309214 0.016724449 -0.049404826
0.035838347 -0.0023846866 -0.021558043 0.06646673 0.081787 -0.0123843625 0.039167494 -0.02354518
0.014947049 -0.037335623 -0.041333243 -0.044412244 0.06873661 -0.039875664 -0.032461744 0.0341602
-0.024606874 -0.022955932 0.018257197 -0.032104112 -0.041800495 0.04361539 0.028434914 -0.0063315225
0.07751903 0.019559965 -0.029496396 0.013556584 -0.0077703907 -0.019266883 -0.026727287 -0.032708004
-0.002072596 0.028866732 0.053466495 -0.039002936 0.05906752 -0.024169227 0.02670694 0.033978228

head.4.weight f4 [12, 128]
00000000: a509 273d e7fe 9ebc 15a1 0c3d 3cd1 273b
00000010: 4d9c 7abc faaa 6d3d 4fbf 8dbd f9ab 55bd
00000020: 48f8 93bc e298 553d 2cc1 82bd 1e22 83bd
00000030: 3dcc ea3b 1011 9bbd 9141 9a3c b536 8fbd
00000040: a231 c6bd 1753 61bd b147 d73c 566b 003d
00000050: 7886 3c3d 14ff d43b 6ccd 53bd 0f26 a6bd
00000060: 9549 9bbd 3e4b aebd cea2 8c3d 0a0d aa3c
00000070: a2df c4bd 1679 c8bd 5621 743c e7a6 4f3d
00000080: 2c27 fc3c d090 72bd d016 94bc ea6b db3c
00000090: 3a7f debc 0912 c6bd 13ac 853d ceb6 8c3d
000000a0: 3902 90bd 4f5f c7bc c72b 3cbc 8642 2cbd
000000b0: a955 ecbb 4043 c6bd 468d 38bc d8e6 383d
000000c0: cbfd 8a3c 99b5 8e3c b145 bbbd b24c 45bd
000000d0: 373e 91bd ee06 f4bc bd62 afbc 92d9 99bd
000000e0: 24be b6bd 1231 78bd b759 643d 0f23 7cbc
000000f0: e3c5 aabd d1c0 1bbd 99aa 543d 2e01 793d
00000100: 3df6 1a3d b714 b43c ddd9 ba3b e30a 9a3b
00000110: 2f6f cdbd 81ef 6dbc 6ed5 8ebc 1d1c 6c3d
00000120: 3c43 cabc 85ff 44bd 1c70 16bd e8b0 debd
00000130: e502 3fbc 43ec 203d 413f 8a3d 293b 70bd
00000140: fa0e 45bd d930 69bd 4a5d 5a3d 3355 233d
00000150: 6367 213d 5430 033b 2903 643b 95f1 673d
00000160: b45b 783b d4d7 98bb c181 cebd e7c4 793d
00000170: 7221 ec3a ec35 19bd 2594 aebc 34b3 163b
00000180: ac18 38bd 65c9 a53a a912 33bc 1756 8e3d
00000190: 7f8c 563d 8ed2 3f3b 4297 b4bd 4431 67bd
000001a0: 72d8 8e3d ef66 efbc 4871 ddbd ff24 77bd
000001b0: 4941 c0bd b652 26bc fc49 2f3d 8f2c 20bd
000001c0: ac52 5bbd 53f9 533d b1c0 2a3d 3f41 773d
000001d0: 18be d3bd 191b fa3c 2646 953d 82c7 183d
000001e0: a7be c63c ac6e 18bd 2d2e 99bd e304 8f3c
000001f0: 99a6 333c 3605 333d c1e6 dabd 0f0d e63a
00000200: 85b2 6a3d e7c8 843c 35b4 34bd 22f9 d2bd
00000210: 855a 303d 7e82 72bd 95c9 36bd e541 b7bd
00000220: 3274 8dbd 5930 213d 7f24 bdba 7026 3d3c
00000230: 99ab 353d 03d4 4d3d 772a 9a3d dfda 48bd
00000240: 1f39 35bd 6f93 893a 9c05 a9bd 35f5 853d
00000250: fb53 9f3d 7ea4 69bd acd9 e8bb 2a24 b03b
00000260: e491 8a3a 6e7e b63c e074 82bd e8f5 113d
00000270: fc2d 51bd ddb7 923d d436 78bd 403d 933d
00000280: e9a8 12b8 3b77 3dbd 8190 aebc a8fc 32ba
00000290: 0644 9a3d 7562 983c 2deb 26bc 0eaa adbd
000002a0: 8026 953d 6a28 3abd f06d 843d a398 923d
000002b0: 20ea 0c3d 84fb dd3b 6e91 beba 3aa6 e83a
000002c0: 6341 6e3c f7a8 63bd 92f7 2a3d c3f9 7e3d
000002d0: 59b1 23bd 96f8 bebd 164c bdba 3071 8dbd
000002e0: 2371 7ebd ea25 9ebd a013 803d 10dd 82bb
000002f0: f0f6 e5bc b250 7d3d aebd 143a b1f0 3d3c
00000300: 4818 cfbc 022a 033d 704f f2bc aafe 9ebd
00000310: 6e7b 413d 2412 ae3b d389 b6bb 6d13 553c
00000320: 86b3 b4bd 16d7 c7bc 8d22 993d e4b4 48bd
00000330: ac8d 2fbc 04d0 86bd 7889 bdbd 6d3b b3bd
00000340: 9db9 203d 93d1 d4bd c8b2 783d 51eb 28bd
00000350: 88e7 65bd 9333 993d 6fbc a3bd 9ebd da3c
00000360: f1e8 453c 8dd2 2cbd fd99 97bd 35b9 0dbc
00000370: 84be 9dbd c115 993c 16c9 8dbd 4ced 663d
00000380: 456a 84bd 89c8 58bc 0a55 d33b 22dc 77bd
00000390: 41bd 09bd 9bf6 ae3b f1d6 7e3d 75b4 8d3d
000003a0: e02d 9c38 7c05 bc3c 2b2c c6bc 4a26 743d
000003b0: 420d 8c3d b6fb 51bd 8a77 5f3c d3ee 98bd
000003c0: ff39 893d 4b27 bc3c 713a 623c 88b3 1fbd
000003d0: c302 a8bd eaa5 813b f448 28bc 0e35 043d
000003e0: 9d7b 683b 2b9b 6cbc 33b0 85bb fb09 bcbd
000003f0: fa95 dabc 44f4 51bd 3dd9 cebc 1b37 a9bd
0.040780682 -0.019408656 0.034333307 0.002560689 -0.015296054 0.058024384 -0.06921255 -0.05216596
-0.018062726 0.052147754 -0.06384501 -0.06402992 0.0071654604 -0.07571614 0.018830093 -0.069928564
-0.096774355 -0.05501088 0.026279302 0.031352364 0.046026677 0.0065001342 -0.051709577 -0.08112728
-0.07582394 -0.08510445 0.0686699 0.02075817 -0.09612967 -0.0978872 0.014900526 0.05069628
0.030780397 -0.059220135 -0.018077284 0.026784856 -0.027160276 -0.09671409 0.06526961 0.06870805
-0.07031674 -0.024337439 -0.011485047 -0.04205563 -0.00721236 -0.09680796 -0.011264151 0.045142025
0.016966721 0.017420577 -0.09144152 -0.048168845 -0.07091945 -0.02978846 -0.021409387 -0.07512201
-0.08922985 -0.060593672 0.05574962 -0.015389218 -0.08338525 -0.03802568 0.051920507 0.06079214
0.037832487 0.021982534 0.005702241 0.004701005 -0.10030972 -0.014522434 -0.017435756 0.057644
-0.024690263 -0.048095245 -0.03672801 -0.10873586 -0.011658405 0.039287817 0.06750346 -0.05865017
-0.048109986 -0.05693135 0.053311624 0.039876174 0.039405238 0.002001782 0.0034791923 0.056626875
0.0037896456 -0.0046644006 -0.10083342 0.060978796 0.0018015339 -0.03740494 -0.021310875 0.0022994997
-0.044945404 0.0012648521 -0.010929742 0.06950014 0.05238008 0.0029269787 -0.08817913 -0.056443468
0.069748774 -0.029223887 -0.10812622 -0.060338017 -0.09387452 -0.010151556 0.042795166 -0.039104994
-0.05354564 0.051751446 0.04168767 0.060364958 -0.10338992 0.0305305 0.072887704 0.03729964
0.024260832 -0.03721492 -0.074795105 0.017458385 0.010965013 0.04370614 -0.10688544 0.0017551499
0.057299156 0.016209079 -0.04411717 -0.103014246 0.043055076 -0.05920648 -0.044625837 -0.08948115
-0.06906928 0.03935275 -0.0014430432 0.011544809 0.0443531 0.05025102 0.07527631 -0.049036857
-0.044243928 0.0010496209 -0.08253023 0.0654091 0.0777969 -0.057041638 -0.0071060266 0.005375405
0.0010572043 0.022277083 -0.063699484 0.035634905 -0.051069245 0.071639754 -0.060599163 0.07189417
-3.4966422e-05 -0.046256285 -0.02130914 -0.000682781 0.07532506 0.018601635 -0.010187906 -0.08479701
0.07282734 -0.045448698 0.064662814 0.071580194 0.034402966 0.0067743678 -0.0014539191 0.0017749735
0.014541957 -0.05558106 0.041740008 0.06224991 -0.039964054 -0.09324758 -0.0014442231 -0.069063544
-0.062119614 -0.07722075 0.06253743 -0.003993638 -0.02807185 0.061844535 0.00056740164 0.01159303
-0.025280133 0.032022484 -0.029578894 -0.07763417 0.047236852 0.005312221 -0.005570629 0.01300512
-0.08823304 -0.024394553 0.07477293 -0.049000636 -0.01071493 -0.065826446 -0.09254736 -0.08751569
0.039239515 -0.103915356 0.060717374 -0.04124004 -0.05612901 0.0748054 -0.07994925 0.026701745
0.012079463 -0.042192984 -0.07402418 -0.008650114 -0.077023536 0.01868713 -0.0692312 0.056378648
-0.06465582 -0.013231405 0.0064493464 -0.06051267 -0.033627752 0.0053394563 0.062216703 0.06919185
7.4472046e-05 0.022951834 -0.024190983 0.059606828 0.06838466 -0.05126544 0.01363934 -0.07467427
0.06700515 0.022967955 0.013807879 -0.038989574 -0.08203652 0.003956546 -0.0102713 0.03227716
0.003547407 -0.014441292 -0.0040798425 -0.09181591 -0.026682843 -0.05125834 -0.025250072 -0.08262464

head.4.bias f4 [12]
00000000: b925 c2bd 251f 653c fba1 23bc 4c53 b0bd
00000010: ed79 8abd 669a 89bd c33e 513c 2f50 a6bd
00000020: 1863 81bd 5f39 8bbd 4b84 813d 0a68 d0bd
-0.09479851 0.013984476 -0.00998735 -0.086096376 -0.06761537 -0.06718902 0.012771311 -0.081207626
-0.06317729 -0.06798052 0.06324061 -0.10176094
