fault_model_nn_allprior_22_33kv_without_lstm/best_Y2021.pt (torch, 246328 bytes, 7 tensors)

emb.weight f4 [219, 16]
000000 95 f5 2a 3a 55 99 28 bf 31 c6 be 3d 91 0d c3 bf
       0.000652158 -0.65858966 0.09315146 -1.5238515
000010 f4 de 31 3e 88 cc 6b be 62 52 8e bf 08 64 8e bf
       0.17370206 -0.23027241 -1.1118891 -1.1124277
000020 ec 6c e9 3f 3b c3 b3 bd dd 97 e7 be 2b 77 1c bf
       1.8236365 -0.08777472 -0.4523305 -0.61119336
000030 66 f0 7c bf 10 aa 48 bf 26 86 22 40 44 60 3f bf
       -0.9880432 -0.78384495 2.5394378 -0.74756265
000040 de eb 45 3e bd 9f a0 be 15 05 2f be 95 d7 89 bf
       0.19328257 -0.3137187 -0.17091782 -1.0768915
000050 85 69 29 3f 7f 67 88 bf 2e 22 b0 bf 35 c6 a6 bc
       0.66176635 -1.0656585 -1.3760431 -0.020358184
000060 a2 2f 43 3f 98 84 f8 bd 7b 49 79 bf 84 6a ad bf
       0.76244557 -0.12134665 -0.9737775 -1.3548131
000070 1d 91 e5 bf 7d 2f d4 be 5a d4 db 3f 35 df aa be
       -1.793491 -0.4144248 1.717418 -0.33373418
000080 d5 9b 8a bf 14 0a b5 bf 25 58 a6 bc a5 da 19 3e
       -1.0828806 -1.4143701 -0.020305702 0.15024813
000090 46 1c 58 bf 48 e4 51 3f 78 75 23 bf 71 9b 09 3f
       -0.8441814 0.81988955 -0.6385112 0.5375281
0000a0 3d c4 bd 3e 25 c2 94 3f 92 cd 64 be 21 02 fe be
       0.3706378 1.1621748 -0.22344044 -0.49611
0000b0 53 2e d9 be 42 40 d8 bd be d2 30 bf 76 13 f7 be
       -0.42418155 -0.10559131 -0.6907157 -0.48257035
0000c0 8e fb 34 3f d0 9a a3 be 44 a7 23 bf 12 3e b4 bf
       0.7069634 -0.3195405 -0.639271 -1.4081442
0000d0 90 82 d8 bf 20 de 17 3f bf 1e ae bd 86 32 19 3e
       -1.6914845 0.5932331 -0.08501958 0.1496068
0000e0 3d bf 9a bd a9 0e 8a bf bf d8 41 bf 24 bc 8f bd
       -0.07556007 -1.0785724 -0.75721353 -0.07018307
0000f0 84 93 71 be 9e 14 85 3f 0c 8e 97 3f d2 28 ac bd
       -0.23591429 1.0396917 1.1840224 -0.08406223
000100 0a 0a b0 be 7c 3f fe be af 63 0d bf 27 0a 92 3d
       -0.3438266 -0.4965781 -0.5523023 0.07130843
000110 f1 85 6d bf 82 c9 ce 3f eb e3 22 3f 15 5d 23 3f
       -0.92782503 1.6155245 0.63629025 0.63813907
000120 8c 79 ac 3f c3 56 9b 3e f9 7c 03 c0 fe c7 33 3e
       1.3474593 0.3033963 -2.0545027 0.1755676
000130 33 72 e6 bf aa 54 0a 3d 14 c1 39 be 18 a6 d3 bf
       -1.8003601 0.03377215 -0.1814006 -1.6535063
000140 10 b6 28 3d 19 96 aa 3e 36 69 9f be 72 96 f5 3d
       0.041189253 0.3331764 -0.31134957 0.11991586
000150 9a e0 62 bf ea 2d 85 bd 48 d8 2e 40 28 4d 1e 3f
       -0.88623965 -0.06502898 2.7319508 0.6183648
000160 63 31 89 bf 73 4a 9b bd 50 1d 4a bf 11 db d8 bf
       -1.0718197 -0.075825594 -0.7895098 -1.6941854
000170 6b 6e 19 40 4e 6a 3b 3f af a3 ca be 13 62 9e 3f
       2.3973644 0.73209083 -0.39578006 1.237368
000180 18 1d 44 bf 2b 1a c7 3f bb 35 c0 3f 87 01 c4 be
       -0.76606894 1.5554861 1.5016397 -0.38282415
000190 4a a6 d0 3e 2f 43 9e bf e4 19 91 bf 99 2c 90 bf
       0.40751868 -1.2364253 -1.1336026 -1.126361
0001a0 3f f8 c6 bf 65 f5 89 3f c7 98 86 bf e1 a5 15 c0
       -1.5544509 1.0778013 -1.0515374 -2.3382494
0001b0 9e d5 86 3e 1a f3 b6 3f bd 8b e3 bd 78 bd b2 3f
       0.26334852 1.4292939 -0.11110637 1.3964071
0001c0 1b 1d 03 3d fd 89 11 bf e2 8d 32 3e ce 55 c0 be
       0.03201018 -0.5685118 0.17436936 -0.37565464
0001d0 27 73 d1 3e 02 25 c1 bd 97 83 91 be 5e 1a 9d bf
       0.40908167 -0.09430887 -0.28420708 -1.2273672
0001e0 5c 71 dc 3d 9a d0 8c 3f 7f 5d 97 be 06 74 67 3c
       0.10763809 1.100116 -0.2956352 0.014126783
0001f0 db a1 82 be a0 ef a6 bf 2a af d6 be e5 a3 ed 3e
       -0.2551411 -1.3041878 -0.41930515 0.46414104
000200 8b 4f 8f be cf 63 25 bf d1 de 1c be ac 42 12 bf
       -0.27990374 -0.6460542 -0.15319373 -0.57132983
000210 4d c2 1c bf 1f 61 82 3e a2 88 f9 be 61 b4 2e bf
       -0.6123398 0.25464723 -0.48737055 -0.68243986
000220 c2 cd 27 3d 0b de dc bf b6 a5 e9 be d8 02 f2 bf
       0.04096771 -1.7255262 -0.4563424 -1.8907118
000230 f1 09 f6 3f a9 ed e8 bf b4 06 e0 bd 02 6e bc bf
       1.9221784 -1.8197528 -0.109387785 -1.4721072
000240 77 4d 36 3e b1 31 dd be db 17 3b 3f 4f 4f b4 3f
       0.17802988 -0.43201974 0.73083276 1.4086703
000250 6e 4b 4f 3e 01 db 2e be 4d 9f 43 bf a0 15 1a 3f
       0.20243618 -0.17075731 -0.7641495 0.6018925
000260 7d c1 e0 bd 4d 65 af 3f b5 9d 6a be 4b b7 9b bf
       -0.10974405 1.370279 -0.22911723 -1.2165312
000270 61 91 51 be 60 33 ac bf 51 0e d4 be b1 58 a5 3e
       -0.20465614 -1.3453178 -0.41417173 0.3229423
000280 4c 87 2b 40 70 6a b5 3d fb 55 b8 be fe ad 21 3f
       2.6801329 0.08858192 -0.36003098 0.63156116
000290 64 26 81 3e 03 40 e9 be f4 de 2d bf 28 82 5a bf
       0.25224602 -0.4555665 -0.67918324 -0.8535485
0002a0 75 1c 0f c0 95 ba 0d 3f e9 eb 90 3e 5e 33 04 bf
       -2.2361119 0.55362827 0.28304985 -0.5164088
0002b0 5a ac 04 bf 7f 9d bc be b7 a5 99 3d c6 b4 6a 3f
       -0.5182549 -0.3683891 0.07502311 0.9168209
0002c0 0d fc 81 be 95 a0 81 3e 80 b8 3d 3f b7 59 b6 bf
       -0.25387612 0.25317827 0.7410965 -1.4246129
0002d0 c9 0a d5 bd d6 07 a4 3f c6 d3 0a bf 8a ad 47 3f
       -0.10402448 1.2814891 -0.5422939 0.77999175
0002e0 36 72 64 bf be cd 01 c0 bd e0 46 3e 14 03 07 c0
       -0.8923677 -2.0281825 0.19421668 -2.1095629
0002f0 d0 6f a5 bf 30 1d 0d 40 e0 6d 71 bf 0d 4f c9 3e
       -1.2924747 2.2049065 -0.9430828 0.39318123
000300 ab c5 42 3f ff ca 4a 3f b2 23 09 bf 3a 4f a6 be
       0.7608287 0.79216 -0.5357009 -0.3248232
000310 36 ab 59 3e db 13 f1 bd 79 68 d8 be f4 b6 4d 3e
       0.21256718 -0.11771365 -0.42267206 0.20089322
000320 26 35 18 bf 51 92 dd bf 78 5c 35 3e ed ae 9f 3d
       -0.594561 -1.7310277 0.17711055 0.07797036
000330 60 cc 82 3e 30 cc 9a 3f c0 41 8e 3e 8d 2b 6d 3e
       0.2554655 1.2093563 0.27784538 0.23161145
000340 fd e8 04 3f 08 85 7d 3f bd f9 8f bf 11 a6 6f 3e
       0.5191801 0.99031115 -1.1248089 0.23403193
000350 3c ea 26 be d7 6e c1 be d1 27 1b 3f f9 30 6c 3f
       -0.16300291 -0.37779877 0.6060763 0.92262226
000360 ec 40 19 bf 8a fb 85 bf 7d 09 36 3e aa ad b8 bd
       -0.5986469 -1.0467389 0.17777057 -0.09017499
000370 59 11 62 bf 29 2b 01 bf ae 5a 3f bf a0 88 0b 3f
       -0.8830772 -0.5045648 -0.7474774 0.5450535
000380 83 b4 c7 3f 69 e3 36 bf 19 73 87 3f e7 c9 9a 3d
       1.5601963 -0.7144075 1.0582 0.07558041
000390 24 95 9e 3e 05 8e ac bf 63 4f 2e 40 4b 94 68 3e
       0.3097316 -1.3480841 2.7235954 0.2271282
0003a0 24 57 2f bf 7b 25 15 be de 2d f5 3e f7 a5 80 3f
       -0.6849234 -0.14565079 0.47886556 1.0050648
0003b0 88 d9 00 3f 65 cb af bf 27 20 f9 3d 9d d0 96 bf
       0.50331926 -1.3733946 0.12164336 -1.1782414
0003c0 ab ce e8 3d c7 91 1c bf 98 3c 60 3f 45 28 1f be
       0.11367544 -0.6115994 0.8759246 -0.15542705
0003d0 c3 2f 37 bf 72 ea e2 3f ea e8 cc bc f7 cb 3b bf
       -0.71557254 1.7727797 -0.025013406 -0.733581
0003e0 09 f0 53 3e 16 c9 a8 be 71 db c2 be 25 fc 20 bf
       0.20697035 -0.32965916 -0.38058046 -0.6288474
0003f0 32 d1 85 be 37 f7 6b bf 84 95 52 3e 9b 12 6b 3e
       -0.26136166 -0.92174095 0.20564848 0.22956316

head.0.weight f4 [256, 88]
000000 1e 14 ca 3d 38 9f 14 bd 3b 19 82 3d 4a 9e 95 3d
       0.09867118 -0.036284655 0.063524686 0.07305582
000010 57 6e fc 3a 25 eb 6d 3d 1f ec 41 3d 79 ea 55 bd
       0.0019258958 0.05808558 0.047344323 -0.052225564
000020 e9 7f 1f 3d af 0f 08 3c a7 a5 67 bd 5a a4 db 3c
       0.038940344 0.0083045205 -0.056554463 0.026811767
000030 8b 84 48 3d f3 9a 8c bc a2 0e e9 bd 97 cc c2 3c
       0.048954528 -0.01716373 -0.11379744 0.023779197
000040 4a cf c5 b9 b8 e8 5c bc 64 e5 da bc 65 7f a7 bd
       -0.0003772921 -0.013483219 -0.02672071 -0.081785955
000050 6e 02 d0 bc 8d 48 79 3d 35 d0 ae bd 04 27 96 bc
       -0.025391784 0.060860205 -0.08535806 -0.018329151
000060 41 0a fa bc 7f cb 33 3d ff 12 69 ba 8e 0d bc 3d
       -0.030522468 0.04389524 -0.0008891075 0.09182273
000070 de 0c 0a bd 50 24 ea bc ae 36 c9 bc dd a0 a6 bd
       -0.033703677 -0.028581768 -0.024562206 -0.08136151
000080 5e d2 d6 bc e2 8c 62 ba a0 7f 2e 39 2a 92 16 3d
       -0.026223358 -0.0008642209 0.00016641477 0.036760487
000090 67 73 9c 3d 1b 30 8a bd 0b c1 8b 3d 69 45 94 3d
       0.07639199 -0.06747457 0.068239294 0.072398014
0000a0 4d 24 4a 3d 80 51 b3 3d 06 72 b2 bc be e8 c4 3d
       0.049351025 0.08755779 -0.021782886 0.096147045
0000b0 7f 53 10 3d 1a 5e 01 3d 71 fd a7 3d 95 f5 87 bd
       0.035235878 0.031583883 0.08202637 -0.06638638
0000c0 3e 6d fe bc a8 cd 09 3d c9 e0 84 3d 22 9e b6 3d
       -0.03105795 0.033643395 0.06488187 0.0891688
0000d0 24 f5 0c 3d 46 d6 95 bc 81 bb 2b 3c 30 b1 2d bc
       0.03441347 -0.01829065 0.010481716 -0.010601327
0000e0 d7 fe 08 bc 59 6c be 3d 5b 9f 28 3d 52 f1 c2 3d
       -0.00836154 0.092980094 0.0411676 0.095186844
0000f0 d6 78 a6 3c 99 fc 64 3c 9e a9 c0 bc 0e f9 24 3d
       0.020321291 0.01397624 -0.02351838 0.04027658
000100 ec 62 bb bd 01 1e ab 3d 8a ed d2 bd 06 41 40 3d
       -0.09149727 0.08355332 -0.10299213 0.04693701
000110 c5 79 a5 3d 05 eb e3 3c 20 df 10 bd dc 90 c2 3d
       0.08079866 0.027822027 -0.03536904 0.09500286
000120 ff 1a b4 bd 71 65 85 3d 49 5b ca 3b 8b 97 a4 bd
       -0.087942116 0.06513489 0.006175433 -0.08036717
000130 7d 60 ae 3d de 2b 0a 3e 08 34 91 3d 84 38 b1 3d
       0.085144974 0.13493297 0.07090002 0.086533576
000140 ec 60 cd bc 03 60 7c bc c9 64 85 3d 55 69 4b bd
       -0.02507063 -0.01540375 0.06513364 -0.049661
000150 db 17 29 bd b0 e9 1d bd c4 35 aa bd 0d 7d 8e bc
       -0.041282516 -0.03855294 -0.08311036 -0.017393613
000160 a6 77 eb bc 7e d3 32 3d 34 df af 3d 13 79 94 3b
       -0.028743576 0.043658726 0.085874945 0.0045310347
000170 93 53 f9 3d 64 da 35 bd e4 30 83 3d cb 3a 42 bd
       0.12174144 -0.044397727 0.064058095 -0.04741935
000180 bc c0 09 3d 39 50 de bb a3 b1 cc 3d 7b 7a f4 bd
       0.03363107 -0.0067844656 0.09994819 -0.11937424
000190 8f 24 ba bb 0d 16 78 3c 46 f2 01 bd 44 c6 d0 bd
       -0.0056806277 0.015141976 -0.03172519 -0.10194066
0001a0 58 da 30 b9 08 f9 9e bd 14 1a bc 3c 1a 5b 95 3c
       -0.00016866007 -0.07762343 0.022961654 0.018231917
0001b0 a1 9f ab bd 27 3a d0 3c 75 6d b0 3d 32 82 9a 3d
       -0.08380056 0.025418354 0.08614627 0.07544364
0001c0 a3 f4 ed 3d 3f 68 6a 3d da 98 72 ba 29 25 87 bd
       0.116189264 0.057228323 -0.0009254344 -0.065988846
0001d0 41 c2 1a 3d 3e ba 9f 3d 7f 03 92 bc ff 14 05 bd
       0.03778291 0.07799195 -0.017823933 -0.032490727
0001e0 6a 8d b2 3d 99 02 3d 3d 88 4b c3 bb af 74 a2 3d
       0.08718379 0.046145055 -0.0059599318 0.07932412
0001f0 0d 6c d1 ba a4 5c 2e bd d8 57 b0 3d 7e 70 61 bd
       -0.0015977636 -0.042568818 0.08610505 -0.05503892
000200 62 6d d5 3d 0a a9 d8 3d 93 96 04 3d 68 79 33 bd
       0.10421254 0.10579117 0.03237016 -0.043816954
000210 75 4e 87 3b 9e dd 16 bc 5a 96 5d bc d1 82 76 bd
       0.004129226 -0.009208111 -0.013524616 -0.06018335
000220 b0 4a 26 bd e6 f9 50 bd 0c 23 11 bd 15 60 cf 3c
       -0.04059857 -0.05101957 -0.035433814 0.02531437
000230 40 1f 99 bb a4 d4 a4 bd be d6 a7 3d 88 ed 74 bd
       -0.0046729147 -0.080483705 0.08195256 -0.05979684
000240 6b ea 3e 3d 30 b8 60 ba f4 89 ee bc 97 aa 0b bd
       0.046610277 -0.0008572368 -0.029118516 -0.034098234
000250 55 c5 72 3d d7 41 36 3d bf f1 8e 3c bf 17 1e bd
       0.05927022 0.044496384 0.017449258 -0.038596865
000260 ad c0 96 bd 43 19 5e bd f9 60 ab 3d f6 3d f4 bd
       -0.07360969 -0.05422331 0.083681054 -0.119258806
000270 09 f8 28 bd c6 90 2f 3d da 98 32 b9 cb 00 a1 bd
       -0.04125217 0.042862676 -0.00017032344 -0.07861479
000280 bc 38 92 bd 23 1e 8b 3d d8 d0 bc bd c4 ac 90 3d
       -0.071397275 0.067928575 -0.09219521 0.070642024
000290 b9 11 73 bd 5a 99 ea 3c 90 c5 91 bd ad a7 a8 bd
       -0.059343074 0.028637577 -0.0711776 -0.082351066
0002a0 4c 03 99 3c 5a 99 1c 3d 2f b0 6b bd 87 4f 0f be
       0.01867833 0.038232185 -0.05754107 -0.13995181
0002b0 d6 29 aa bd b8 3b 48 bd 76 36 1c bd ed 94 30 3d
       -0.08308761 -0.048885077 -0.038137875 0.043110777
0002c0 48 7f 85 bd 33 08 a1 3c ae 54 e7 3d d8 b3 dd 3b
       -0.065184176 0.01965723 0.11295448 0.006765824
0002d0 24 8b 84 3c 0a da 26 3d c5 53 86 3d 7b 2f 8c 3d
       0.016179629 0.040735282 0.065589465 0.06844994
0002e0 56 62 35 bc 4f e0 ca 3d 62 3e 54 bd 76 95 af 3c
       -0.011070808 0.09906065 -0.051817305 0.021433573
0002f0 58 da 48 3d 37 b7 74 bc 25 24 de bd ce 67 9a bd
       0.049036354 -0.01493626 -0.10846738 -0.075393304
000300 80 56 f0 39 3a 4e ea bd aa f9 99 bd 3b 8c b2 3c
       0.00045840815 -0.11440702 -0.07518323 0.021795383
000310 c0 30 b8 3c 85 b5 d0 bc 6b b5 df bd 49 d9 9b bd
       0.022484183 -0.02547718 -0.109232746 -0.07609803
000320 2b 62 86 3d 4b ab b3 bc 18 a7 a8 bc ae 65 1d bd
       0.06561693 -0.021932265 -0.020587489 -0.038427047
000330 4e 95 ea bd 60 7a b2 3d e3 84 3f bd dc b4 3e bd
       -0.11454259 0.087147474 -0.04675759 -0.0465592
000340 ae ab c9 3d 30 d4 a7 bc 6a 73 17 bd 81 31 de 3c
       0.098471984 -0.020486921 -0.0369753 0.027123215
000350 eb ce b9 bd 80 4f e0 bc b1 1c 76 3c 8d d2 65 bd
       -0.090726696 -0.027381659 0.015021489 -0.056109
000360 db 12 84 3d 28 39 1f bd 6b b9 82 bc 5c ca d7 3d
       0.06448909 -0.038872868 -0.015957555 0.10536644
000370 90 3b b1 39 a0 bb d1 bc c6 00 03 3b ed 66 94 bd
       0.00033804448 -0.025602162 0.0019989475 -0.07246194
000380 ee 8b 95 3d 51 d8 be 3b ff 6a a4 bd 84 51 79 3d
       0.0730208 0.005824127 -0.080282204 0.060868755
000390 bb bd 84 bc ba 35 a2 3c 18 82 b4 3d 7e 1c 99 3d
       -0.016203752 0.01980101 0.08813876 0.074761376
0003a0 ac b2 cd 39 56 6b f1 3c b0 5e 4b 3d 0e 8e c1 bd
       0.00039233768 0.029470127 0.049650848 -0.09450923
0003b0 5c 4b 71 bd 58 97 83 bd 66 e2 44 3c f1 63 91 3d
       -0.05890976 -0.06425351 0.012016868 0.070991404
0003c0 5e 34 15 bd 5a 57 a1 bd 52 77 de bd 67 bd ca 3c
       -0.036426894 -0.07877989 -0.10862602 0.024748517
0003d0 4e 13 35 3d d0 e8 48 3c f3 4f 27 bc e4 55 6f bd
       0.044207864 0.012262538 -0.0102119325 -0.05843152
0003e0 e2 fd f4 3c d6 b7 0b 3e ce c3 b9 bd 95 cf a5 3c
       0.029906217 0.13644347 -0.0907055 0.020240584
0003f0 62 9d a4 3d 8b 62 0c ba a5 54 e7 bd 2e 21 77 3d
       0.08037831 -0.000535526 -0.112954415 0.060334377

head.0.bias f4 [256]
000000 e8 66 28 bc bc de 0f ba c1 ec 9f 3d 69 13 91 3c
       -0.010278441 -0.0005488207 0.07808829 0.01770945
000010 76 6c af bd 96 5b fb ba c7 63 af bb 0e 3f 43 bd
       -0.08565609 -0.0019177075 -0.0053524706 -0.047667556
000020 4f 2b 80 bd 00 7f 69 3c 41 cc a9 bd 56 f4 d3 3d
       -0.062582605 0.014251471 -0.082909115 0.10349338
000030 aa b6 95 3d ac a9 b5 3d e7 b5 16 bd bd 6c 8c 3d
       0.07310231 0.08870253 -0.03679457 0.06856678
000040 cf 60 e9 bd db 79 f1 3d 34 ef a4 3d 6e b3 d4 bd
       -0.11395418 0.1179082 0.08053437 -0.10385786
000050 69 36 4e bd 35 36 7f bd 0d 6f d8 bc 8f 72 e3 3d
       -0.05034486 -0.062307555 -0.02642014 0.11105835
000060 78 94 aa 3c 4b 32 82 bd b2 9f fb bc 9d 71 d1 bb
       0.020822749 -0.06357249 -0.030715797 -0.0063917176
000070 71 e5 d4 bc ca d8 e4 bd 2a 1e c7 3a ee c2 bd 3d
       -0.025988312 -0.11174162 0.0015191485 0.092656955
000080 64 5d 7b 3c 06 f4 23 bd ca 35 7d 3c 5c ad 82 bd
       0.01534209 -0.04002764 0.015454719 -0.06380722
000090 68 1c ce 3d 6e 68 e8 3d 45 a6 3f bd bf a8 b7 bd
       0.10064012 0.113480434 -0.046789426 -0.08967733
0000a0 24 34 bb bd fa 6e 92 bd 70 a3 91 3c ec c2 4d bd
       -0.091408044 -0.07150073 0.017778128 -0.05023472
0000b0 ac f5 42 b9 fb e4 93 bc e0 0c e5 3c bb 64 7f bc
       -0.00018592802 -0.018053522 0.02796024 -0.015587981
0000c0 c4 70 ed bd a4 06 63 bd c1 dd ab bd 78 0c 4c bd
       -0.11593774 -0.055426255 -0.083919056 -0.04981658
0000d0 32 ea f3 bc 6f c6 1b bb 8b 88 6e bd 26 28 b6 3c
       -0.029774759 -0.0023769399 -0.058235686 0.022235941
0000e0 9d 81 55 3d d2 56 9e bc b3 7f 0b bc 30 2e 96 3d
       0.052125562 -0.019328509 -0.008514333 0.07333028
0000f0 3c ba 95 bd 84 2c a2 bd 4f e1 5d 3d 2f 52 4a bd
       -0.07310912 -0.07918647 0.05416995 -0.049394783
000100 7a cd 8c 3d 9a 90 fa bc 31 6c 26 3d 86 04 0f bd
       0.06875129 -0.03058653 0.040630523 -0.034916423
000110 80 25 30 bd ff e5 b5 3d c8 40 9a 3d a0 0c 9a 3c
       -0.043004513 0.08881759 0.07531887 0.018804848
000120 f3 e0 d8 bc 9b ba e1 3d 2e db e2 3c 3a cc 28 bd
       -0.026474452 0.1102192 0.027692404 -0.04121039
000130 80 e8 b2 bc 0b 96 ce 3d 72 a0 7b bc 03 f9 7d 3d
       -0.02183938 0.10087212 -0.015358077 0.062005054
000140 25 ec 04 3d 35 20 39 bd a7 87 86 bd b7 ca d1 3c
       0.032451767 -0.04519673 -0.065688424 0.025609357
000150 38 d1 e5 bd a9 3a cb 3d 36 11 31 3d 89 cb fd bc
       -0.11221546 0.09923298 0.043229304 -0.030980842
000160 03 22 da 3d c9 47 f6 bc 90 e0 b1 bd 1d 71 d1 3d
       0.106510185 -0.030063527 -0.0868541 0.10226653
000170 c8 6e ac 3d 1b b1 f7 3d 09 72 ab bd 20 59 c6 bb
       0.08419567 0.12094327 -0.0837136 -0.006053105
000180 79 cd d0 3d c0 30 aa 3d 43 53 6d bd ea 4f 0c bc
       0.10195441 0.083100796 -0.057940733 -0.008563975
000190 34 77 3d 3d c1 e9 97 bd 32 3e 93 3c de e8 73 3d
       0.04625626 -0.07417632 0.017973993 0.05954825
0001a0 e5 82 b6 3c dd 90 d2 bb 86 46 e8 3c ec f1 76 bc
       0.022279212 -0.0064259605 0.02835394 -0.015072327
0001b0 fc 25 36 bd 1c d7 9b 3d df 0c 8a bd 2f d6 c8 3d
       -0.04446982 0.07609388 -0.06740736 0.09806477
0001c0 f1 79 8e 3d c6 f2 b5 bd f5 ac 8d bd 07 cd 4b 3c
       0.06956852 -0.08884196 -0.069177546 0.012439019
0001d0 c7 24 86 3d 41 d3 28 3c 44 f2 99 bc 26 cd 5e bb
       0.065499835 0.010304273 -0.018792279 -0.003399679
0001e0 2b 7d 5c bd 88 ac 47 3d 8a ba e3 bc 09 c4 31 bd
       -0.053830307 0.048748523 -0.02779891 -0.043399844
0001f0 ea d1 c5 bd df bb a2 bd d0 4a 6c bd 0c c7 de bd
       -0.096591786 -0.0794599 -0.057688534 -0.10877809
000200 92 57 15 bd d5 98 cd 3d 36 11 0f 3d 80 c6 3c bd
       -0.036460467 0.10038916 0.034928523 -0.04608774
000210 ce ef f7 3c 39 df 13 bb dc ed c6 3c b4 8e 62 3c
       0.030265715 -0.002256347 0.024283342 0.013827968
000220 4c 05 94 3d 46 37 11 3b 4e a3 c8 bc d7 19 0b bd
       0.07227573 0.002215819 -0.024491932 -0.03396019
000230 92 22 f9 bc fe 25 dc 3c ff ab 9d bd 3b c1 00 3d
       -0.030411992 0.026873585 -0.07698821 0.03143428
000240 c0 46 cc 3d 79 4a 51 3d 08 18 0b 3c f3 2a ff 3c
       0.09974432 0.051096413 0.008489616 0.03114841
000250 f4 a7 5b 3c d7 f8 7e 3d ea 79 c3 b9 de 3a ae bd
       0.013406742 0.06224903 -0.0003728413 -0.08507322
000260 f9 fc c5 3d 47 be 37 3d bb e1 c4 3c 7e 38 24 bc
       0.09667391 0.044859197 0.024033418 -0.010023234
000270 25 80 89 3d 46 5d e5 3d f1 b2 29 bd db 5a 14 3d
       0.06713895 0.11199431 -0.041430417 0.03621946
000280 cc 2d 97 bd db 08 c9 3d 1a 02 80 3d d8 b1 e7 3d
       -0.07381782 0.09816142 0.06250401 0.11313218
000290 06 35 30 3d 91 ff a9 3c 89 24 83 3d 30 6d 5d 3d
       0.043019317 0.020751746 0.06403453 0.054059207
0002a0 db 78 db 3d 67 04 cb bc 1b fe a9 bd fb 71 34 3d
       0.10716411 -0.024782373 -0.0830042 0.044054013
0002b0 ca e2 55 bc 20 47 02 bd ed 20 6e 3d 39 e3 3b bd
       -0.013054559 -0.03180611 0.05813687 -0.045870993
0002c0 d9 54 c0 3d 61 95 a0 bd 6e 73 5f bd b3 80 a0 bd
       0.093911834 -0.07840992 -0.05455344 -0.078370474
0002d0 90 33 27 bd b3 9c 80 3d 0d 65 d4 3d b8 8c cc 3d
       -0.04082066 0.06279888 0.103708364 0.099877775
0002e0 a3 86 9b bd aa e4 fe 3b 6c e6 b3 bd a8 3a 97 bd
       -0.07594039 0.0077787237 -0.08784184 -0.07384235
0002f0 80 71 cf 3d 68 9e cb 3d 8a 0d 2f 3d 02 6c 2e 3d
       0.1012907 0.09942323 0.04273752 0.042583473
000300 dd db 81 3d 21 c2 82 3b c7 05 20 3d 7c 02 cf 3d
       0.06340764 0.003990427 0.03906801 0.10107896
000310 70 ba 75 bd 66 02 64 3d 62 81 a2 3d 03 30 80 bd
       -0.059992254 0.05566635 0.07934834 -0.062591575
000320 88 68 c2 bd 2f 13 81 bd d4 fa 89 bb 49 1c a7 3d
       -0.09492594 -0.06302487 -0.0042108092 0.08159692
000330 94 f1 21 3d 93 6e 03 3d 76 f3 d2 bd 6d 17 fe 3d
       0.039537027 0.032087874 -0.10300343 0.12406812
000340 89 b9 0b bb f7 50 e9 3d 8b 78 cf bd d9 ed 8a 3d
       -0.0021320304 0.11392396 -0.101304136 0.06783647
000350 9e 80 bf bb 0e 97 db 3d c6 78 65 3d 89 39 cf 3d
       -0.00584419 0.10722171 0.05602338 0.10118396
000360 6d 2e c1 3d 90 b1 5f bd 13 ee a7 3b 19 9f 44 3d
       0.09432683 -0.054612696 0.005124816 0.04800329
000370 65 d6 da bc 7d 73 ab bd b4 ea 0e bd 84 94 ce bc
       -0.02671356 -0.08371637 -0.0348918 -0.025217302
000380 ac 75 80 3d a4 2e 95 3c 0c af 87 bc ef e2 6e 3d
       0.06272444 0.018210717 -0.016562961 0.05832189
000390 3c dd ab 3c fc 4b 5e bc 2d 4f c8 bc 73 9c 9e 3d
       0.020979516 -0.013567921 -0.024451816 0.07744684
0003a0 8d 92 4a bc ee 14 76 3c e2 b3 ca bd e2 cc a3 3d
       -0.012364042 0.015019638 -0.09897591 0.07998063
0003b0 30 a9 bd bd 0b e2 b7 bd 8f 21 78 bd 5c 67 6e 3d
       -0.092607856 -0.08978661 -0.06057888 0.05820404
0003c0 b3 db 80 bd ce a6 83 bc 86 bc 7e bd dc 2c b3 bd
       -0.06291904 -0.01607075 -0.06219151 -0.087487906
0003d0 b6 32 7a bd b8 e9 21 bc da 7e b3 bd 8a 33 97 bd
       -0.061083518 -0.009882383 -0.087644294 -0.07382877
0003e0 d1 6f 84 bd a5 bb 06 3c 41 90 ac 3d 17 1d 1f bc
       -0.0646664 0.008223449 0.08425952 -0.009711525
0003f0 de 5a bd 3d 0f a4 eb bc fa dc 8f bd ca 6e 07 bd
       0.09245847 -0.028764753 -0.0702457 -0.03306464

head.2.weight f4 [128, 256]
000000 22 ef f0 3b dd 05 5e bd d8 b8 10 3d 0c 8f 9f bc
       0.0073527256 -0.05420481 0.03533253 -0.01947739
000010 d7 bd 02 3d 3b ec a7 3c e9 8b d1 3c 83 7a 03 3c
       0.031919327 0.020498386 0.02557941 0.008024815
000020 6c 6f 4a bd 8f 5d 52 bd 51 54 1d bd b1 59 b3 bc
       -0.049422666 -0.051358756 -0.03841049 -0.021893354
000030 f0 8f 12 bd f6 ef 59 3c e9 72 f2 bc 09 32 d0 3c
       -0.0357818 0.01330184 -0.029595809 0.025414484
000040 8a a2 04 3b 1e fa 88 3c 7a 0f 88 bc 71 96 26 bd
       0.0020238482 0.016720828 -0.016608942 -0.040670816
000050 9e 1c fa bc ec 39 a0 3c 13 9e 5d 3c aa 6b 54 3c
       -0.030531224 0.01955887 0.013526457 0.012965122
000060 05 93 03 3d ca f5 fc 3c 10 0e 19 bc 2c a8 60 bd
       0.03212263 0.03087892 -0.009341732 -0.05484788
000070 96 b6 3c bd da ad aa bc af 7b 4b 3d bb c4 7e bc
       -0.046072565 -0.020834852 0.0496785 -0.015549834
000080 d0 42 c0 3b ce f8 e1 bc 01 6a 8c 3c f4 2a 33 bd
       0.0058673397 -0.02758446 0.01714039 -0.043742135
000090 f4 35 ce bc 37 2c 3e 3d 33 bd 20 3d a2 c8 5a bd
       -0.025172211 0.046428885 0.039242934 -0.053413995
0000a0 74 78 28 3c e9 fd e8 3c cb e3 3c bd 2b d5 07 3b
       0.0102826245 0.028441386 -0.046115678 0.0020726423
0000b0 52 b0 3f bd 2d 0d 42 3d 24 19 09 3d b8 47 fe 3c
       -0.04679901 0.047375847 0.03347124 0.031040058
0000c0 fe ab 2d 3d ef 3a 8e bb ce ab c6 bc b0 8b 6e bd
       0.042400353 -0.0043405215 -0.024251845 -0.058238685
0000d0 05 af c2 bc 6c 83 34 3d 18 ee 1e 3d 0c 67 c8 bc
       -0.023765096 0.044070646 0.038801283 -0.0244632
0000e0 9f 63 ce 3b d1 51 96 3c 61 96 8e 3c c5 89 1d bd
       0.006298497 0.01834956 0.01740569 -0.038461465
0000f0 96 e0 5d 3a 96 cd 0f 3d 6a 70 52 3d 04 04 f5 3c
       0.0008463947 0.03510817 0.051376738 0.029909141
000100 a8 70 2f bd a0 6e c6 bb 4e e0 e4 3c d2 e6 2a bd
       -0.042832047 -0.006055668 0.027938988 -0.041724034
000110 c9 78 28 3d e3 ba 12 bc 06 19 03 bd c9 fb 37 bc
       0.041130815 -0.00895569 -0.032006286 -0.011229464
000120 d3 ee 11 bd 00 ba 4d 3c 73 57 3c 3d 18 7b 08 bd
       -0.03562815 0.012556553 0.045981836 -0.033320516
000130 d3 be 3b bc fb a7 a5 39 90 c6 33 3d 4a 09 07 bd
       -0.01145907 0.00031596408 0.043890536 -0.032967843
000140 f1 d6 fa bc cb 9b 82 3b 85 e2 8f bd f8 4c 04 bd
       -0.03062007 0.003985857 -0.07025627 -0.032299966
000150 f2 8d 37 3d cc 6b 49 bd 1a 9e 51 bd b8 53 6b bd
       0.044813104 -0.04917507 -0.051176168 -0.057452887
000160 70 df 81 bc 23 25 94 3b 3f 95 85 bd 59 05 ef bc
       -0.015853614 0.0045210286 -0.06522607 -0.029177355
000170 6c 8b dc bc b1 d9 22 3d 02 10 8a bd f2 1a 7b 3c
       -0.02692195 0.039758388 -0.067413345 0.0153262485
000180 f8 d6 20 3d 00 13 e3 ba 77 8d 03 bd 9b 1b 42 3d
       0.03926751 -0.0017324388 -0.032117333 0.047389608
000190 b5 aa 10 3d fb e6 f2 bc c8 13 11 bc 36 ba 04 3b
       0.03531905 -0.029651156 -0.008854814 0.0020252592
0001a0 43 22 bc 3c fe 0d 8d 3c 4a a8 48 bd 9d e2 ba 3c
       0.022965556 0.017218586 -0.048988618 0.022813136
0001b0 e6 b1 8d 3c e5 4b 69 3c 3a df 26 bd 12 fc d7 bc
       0.017296743 0.014239286 -0.04074023 -0.026365314
0001c0 b6 08 1d bd bc db 6a bd 7c 2a 0c 3b f3 2e 7b bd
       -0.038338386 -0.05733846 0.0021387627 -0.06132407
0001d0 56 a4 08 bd 2f 3f 6b bd 14 da 03 3d 98 41 26 bd
       -0.033359848 -0.057433303 0.032190397 -0.0405899
0001e0 be d3 58 3b 8f b3 44 bd 84 0c 46 bd c2 c0 8d bd
       0.0033085193 -0.048022803 -0.04835178 -0.06921531
0001f0 8e c1 a1 bc 88 e1 00 3d 18 45 51 bc 5e bf a5 bc
       -0.019745614 0.031465083 -0.012772821 -0.020232853
000200 ef 9a 0d 3c 52 42 c3 bc 22 52 1f 3d b7 21 8b bc
       0.008642896 -0.023835335 0.038896687 -0.01698385
000210 be f8 4a 3d 8d be d9 bc 15 9a 84 3c f5 af d3 3c
       0.049553625 -0.02658012 0.016186753 0.025840739
000220 d9 9e 2a 3d eb df 4c 3d 8a 3f c0 3b d2 59 0d bc
       0.041655395 0.050018232 0.0058669494 -0.008627372
000230 fe 6e 35 bd 2d 51 80 bd b6 c9 a3 3c 23 4c 05 bd
       -0.044295304 -0.06265483 0.019993644 -0.032543313
000240 11 da f1 bc b6 2b 04 3d d2 be 98 bc 11 e7 9a 3c
       -0.029522927 0.03226825 -0.018645678 0.01890901
000250 3e d6 06 bd 32 f7 0c bd b4 52 30 3c af e4 ff 3c
       -0.03291916 -0.03441543 0.010761905 0.031236975
000260 39 45 fc 3c d8 fa b8 bb 69 a9 33 bb 47 7f 16 bd
       0.030794727 -0.0056451373 -0.0027414209 -0.036742475
000270 6e b8 94 bd 51 7a 3e bb 28 66 39 bd 19 ba f1 3c
       -0.0726174 -0.0029064605 -0.04526344 0.029507684
000280 89 39 e8 bc fb 78 88 3c 92 92 67 bc 11 e1 3f bd
       -0.028347747 0.01665925 -0.014134066 -0.0468455
000290 4d 8e fe 3c c2 98 2d bd 21 0f 1e 3d d5 69 b8 bc
       0.031073714 -0.04238201 0.038588647 -0.022511402
0002a0 5d b7 35 bd ce f6 13 38 81 2a 9c bc 87 08 8b bd
       -0.044364322 3.5277386e-05 -0.019063236 -0.06788736
0002b0 d7 d0 ac b9 8f c9 3c ba b8 66 c8 3b ee b6 6b 3c
       -0.00032961994 -0.00072016654 0.0061157607 0.014386876
0002c0 ee 5f b8 3c 46 f7 6d bd 45 65 22 3d 22 67 7d bd
       0.02250668 -0.058097146 0.03964736 -0.061865933
0002d0 54 64 c4 bc ae 78 e6 3a ca 42 8f bb d0 cd 65 3c
       -0.023973621 0.0017583573 -0.0043719755 0.01402612
0002e0 d6 e5 91 3b ac ea 4a 3d 54 92 d8 bb 79 17 34 bd
       0.0044524474 0.049540207 -0.0066092405 -0.043967698
0002f0 c7 65 bb 3c f0 d6 3f bd 76 2f a6 3c 65 69 81 bd
       0.02287568 -0.04683584 0.020286303 -0.063189305
000300 94 c3 c8 bc f2 8b 2d 3c 7b ee 2b 3c 48 88 31 bd
       -0.024507321 0.010592448 0.01049387 -0.04334286
000310 48 c6 43 3d a5 f9 02 3d 01 69 f4 3b 4c 42 84 3c
       0.047796518 0.03197636 0.0074588065 0.016144894
000320 98 ef 7e bc fc d2 e1 3c 85 25 14 3d 4a 0f 56 bd
       -0.015560053 0.027566426 0.036168594 -0.052260675
000330 f0 93 2e bc 3b b3 d3 bb db c0 6d bd 68 42 2c bd
       -0.010655388 -0.006460575 -0.05804525 -0.042055517
000340 34 df aa 3c f5 7f 17 3d 3f 4f 03 3d 70 13 a0 3b
       0.020858385 0.036987264 0.032057997 0.0048851296
000350 e7 a6 bd 3c 52 59 37 3c f1 11 33 3d 97 c0 2e 3d
       0.023150874 0.011190729 0.043718282 0.042664137
000360 ae 27 15 bd e2 3f f1 ba 5e af 60 bd 26 08 ca bc
       -0.036414795 -0.0018405879 -0.054854743 -0.024662089
000370 a8 06 2e bd 7e 3a e6 bc a8 90 48 bd 1f d0 60 bd
       -0.042486817 -0.028104063 -0.04896608 -0.05488598
000380 d2 e3 2b 3c e6 3b a2 3c 72 91 fe 3c 15 86 80 bd
       0.010491328 0.019803952 0.031075213 -0.06275574
000390 d4 d0 1a 3d 0b ad d5 3c 6d 3c f4 3c ee 05 67 3c
       0.03779681 0.02608349 0.02981397 0.014100535
0003a0 11 f2 6b bd bd d1 25 3d ea 18 c0 bb 2f c1 d6 bc
       -0.0576039 0.040483225 -0.005862345 -0.026215164
0003b0 b7 0b 68 bd 3d 26 1a 3c 02 07 3f 3d 05 09 4c bc
       -0.056651797 0.009408531 0.046637543 -0.012453322
0003c0 7f 85 55 3d 3d d0 56 bd 58 8e 5f 3d 1e e2 95 bc
       0.052129265 -0.052444685 0.05457911 -0.018296298
0003d0 db 0f 22 bb 66 ce 27 bb 89 5b f8 3a 66 fb 4a bd
       -0.002472869 -0.00256052 0.0018948178 -0.04955616
0003e0 e1 a4 e9 3c a7 8c 4c bd b7 1e 2c 3d 01 9d 19 3d
       0.028521003 -0.049938824 0.04202148 0.037503246
0003f0 c4 8f 31 3c ef 88 b6 bc ca 6c 28 bc d8 76 81 bd
       0.010837499 -0.022282092 -0.010279844 -0.06321496

head.2.bias f4 [128]
000000 b0 4e db ba b7 f1 f6 bc 79 13 50 3d ff c1 28 bd
       -0.0016731825 -0.030144555 0.05079982 -0.041200634
000010 10 ac 4b 3d c7 f1 cb 3c 94 2a 3a 3d 50 19 8a bb
       0.04972464 0.024895562 0.045450762 -0.0042144433
000020 1a eb 1c bc cc 66 8a 3c f2 cd 0d bd 81 ab ea bc
       -0.009577537 0.01689472 -0.034620233 -0.028646233
000030 b3 f2 23 bc c1 f0 64 3b 49 a6 15 3c 14 95 7e bc
       -0.0100065945 0.003493354 0.009133884 -0.015538473
000040 1d 0d 3e 3b c0 07 c0 bc f1 fb d7 3c ae 30 7d 3d
       0.0028999515 -0.023441195 0.026365252 0.061814003
000050 11 21 ab 3c fe 87 98 3d da d7 43 3c 09 e8 aa 3d
       0.02088979 0.074478135 0.0119533185 0.083450384
000060 3f 5b 91 bc da 71 89 3d fc 07 53 bd 38 04 a8 3c
       -0.017743705 0.067111686 -0.051521286 0.020509824
000070 79 4b 97 bc 9b 31 ee 3c b5 6a 24 3d 57 33 3f 3d
       -0.018468605 0.029076388 0.040140826 0.04667982
000080 09 dc 3a bc 7b 04 88 bc cb 83 a0 3c 98 47 71 3c
       -0.0114049995 -0.016603699 0.019594094 0.014726542
000090 f1 00 05 bc f0 20 46 bb ce a0 7d 3c 13 3e d4 b9
       -0.0081179 -0.0030232035 0.015480233 -0.0004048204
0000a0 43 dd 6c 3d 5b fb c9 bc 2c 17 0f 3d bb bf 9f bb
       0.0578282 -0.024655988 0.034934208 -0.004875151
0000b0 58 c9 18 bd 61 89 04 bb 5a 90 31 3d 70 4c 17 3d
       -0.03730139 -0.0020223486 0.043350555 0.03693813
0000c0 73 bd 35 3d ea 87 5b 3d 1b d8 db 3c a7 61 d5 bb
       0.044370126 0.053596415 0.026836446 -0.006511885
0000d0 7a 4e 66 3d 99 52 52 bd 43 32 31 3b 77 ed 7c bc
       0.056227185 -0.051348303 0.0027038015 -0.015437475
0000e0 6e 00 02 bc 6b e8 8f 3d 50 9b 10 bd 2c 6b 22 bd
       -0.007934673 0.07026752 -0.035304368 -0.03965299
0000f0 ac 2f d2 3c 30 1a 28 bd 19 31 29 bd e8 af f5 bc
       0.025657497 -0.0410406 -0.04130659 -0.029991105
000100 73 bd 05 3d c2 23 3f bc a9 63 0d 3d ff 18 06 3d
       0.032651376 -0.01166624 0.03451887 0.032738682
000110 54 6a e9 bc a2 13 7c bd 1a 0e 8d bc dd 1e f0 3a
       -0.028493084 -0.06154216 -0.017218638 0.0018319745
000120 a7 28 0d bd ef 2a 7f bb ef f0 36 bd 0d b2 a2 3d
       -0.034462597 -0.0038935503 -0.044663366 0.07944117
000130 10 6d 0d 3b c0 34 5d 3d 8e 22 3c 3c dc 06 97 3c
       0.00215799 0.054005384 0.011482848 0.018435888
000140 8e 9b 63 bc c4 1e 02 bd 69 17 63 bd 09 a6 14 3d
       -0.013892068 -0.03176762 -0.055442248 0.036291156
000150 44 13 af 3c 95 38 42 3d 5b af 69 bc ba 43 d8 3c
       0.021371491 0.047417242 -0.014262999 0.026399482
000160 79 30 27 3d fe 1f f4 3c 72 17 8c 3b 1b 64 ca 3b
       0.04081771 0.029800411 0.004275256 0.0061764843
000170 96 b8 80 bc 33 4d 78 bd 6b 19 fb bc d1 33 97 bc
       -0.015713017 -0.060620498 -0.030651769 -0.018457325
000180 d9 f5 8b bb b3 c7 3f bc af 52 8a bd 00 00 89 3d
       -0.0042712507 -0.011705327 -0.06754052 0.06689453
000190 ce 4b b1 3c f4 74 07 3d 07 6d 2e 3d ca e7 2c bc
       0.021642592 0.03307052 0.042584445 -0.01055331
0001a0 e4 c7 2d bd 9a 50 05 3c 35 cc a6 3c 8e fa 7d bd
       -0.04242696 0.008136893 0.020361045 -0.062006526
0001b0 6f 9b 41 bc 0b d7 06 bd f7 32 2f 3d 24 bb 13 3c
       -0.011816843 -0.032919925 0.042773213 0.009016786
0001c0 e8 ee 99 bb a6 9e 30 3c 29 a8 1c bd 5d 5e 8c 3b
       -0.0046976693 0.010780012 -0.038246308 0.00428371
0001d0 a6 66 ec bc 5f 33 46 3d 4a a0 d4 3b 36 6e 9b 3d
       -0.02885754 0.048388835 0.0064888345 0.075893804
0001e0 79 07 8f 3d 18 e9 52 3d b5 48 45 3d f3 88 0d bd
       0.06983847 0.051491827 0.048165042 -0.034554433
0001f0 45 1c 3b bd 80 d8 f2 bc 32 8b b3 3c 9c 0e 2b 3c
       -0.045681257 -0.02964425 0.02191696 0.010440495

head.4.weight f4 [12, 128]
000000 fe ca c4 bd 4b a5 c0 bd a1 3c 6f 3c f8 e6 41 3d
       -0.0960903 -0.09406527 0.014601857 0.04733941
000010 c5 b5 7a 3c 16 69 2f bd 99 40 5b bd 35 44 e2 bb
       0.015302126 -0.042824827 -0.053528402 -0.0069051036
000020 8a e3 2b b9 4c 6d 86 3d e0 12 88 bd 4e c0 82 3d
       -0.00016392596 0.065638155 -0.06644225 0.063843355
000030 b8 b9 94 3c 09 e8 49 3d 38 a0 be bc 62 6e 08 bd
       0.018154964 0.04929355 -0.023269758 -0.033308394
000040 f6 53 cf bd 20 94 9b bc 13 0f 12 bd 6f a7 b6 bd
       -0.10123436 -0.01899153 -0.035658907 -0.08918654
000050 8d f1 96 3a 3a 76 3d bc 2b 3e 96 bc 06 2d ad bd
       0.001151608 -0.011563832 -0.01834019 -0.08455853
000060 ab 6c 76 3c 97 e8 07 bd 5c f8 5f 3d 9c 02 5e bd
       0.015040557 -0.0331808 0.054680213 -0.054201707
000070 5f 46 ef 3b d9 3f 7b 3d 09 fb 34 3c 5e 7a a7 bd
       0.00730209 0.061340187 0.01104618 -0.081776366
000080 a0 d7 93 3a e2 92 91 3c 66 05 86 3d 0d 22 13 3b
       0.0011279471 0.017770234 0.065439984 0.0022450716
000090 40 f5 c4 bb 2b c9 b2 ba 84 ff a8 bd 03 c9 dc 3c
       -0.0060106814 -0.0013640275 -0.08251861 0.026951319
0000a0 44 86 ae bd 4e c6 81 bc cf ef ed 3c 4f 15 3e 3d
       -0.08521703 -0.01584163 0.029045014 0.04640704
0000b0 38 d5 1f 3c c7 54 a5 bd 85 7d 07 3d 53 c0 1b 3c
       0.009755425 -0.080728106 0.03307869 0.009506303
0000c0 fa c5 82 bd 17 56 bf bd ca 76 86 bd 30 79 12 bc
       -0.06385417 -0.09342592 -0.06565626 -0.008940026
0000d0 3e 30 3a bd 0a 56 17 3d 21 a6 bf bd 0b 7d 79 bd
       -0.045456164 0.036947288 -0.093578584 -0.060910266
0000e0 a6 c4 95 3c 6c ce d7 bd 1b 7b 1d bd 5c 78 7d 3d
       0.018282246 -0.10537419 -0.03844748 0.06188236
0000f0 7e 9c bd bc 7d c7 33 3c 17 4a 85 bd 30 ed f2 bc
       -0.02314591 0.010972855 -0.06508272 -0.029654115
000100 f3 ee 6f 3d 10 83 a1 bd 55 bb d0 3c ab ed e0 bc
       0.05857749 -0.07886326 0.025479952 -0.027457079
000110 ae 13 d3 3b a5 79 8c 3c 2d cf 80 3d 2f b0 79 bc
       0.006441555 0.017147848 0.06289516 -0.015239759
000120 f6 7e 40 bd 83 8b d5 ba 6c ed 7b bd 4f 12 1d bd
       -0.04699608 -0.0016292188 -0.06150572 -0.03834754
000130 1f e5 3a bd 3a a8 dd bc 42 b5 33 bc 08 e9 b8 bd
       -0.045628663 -0.027057756 -0.010968508 -0.09028822
000140 b8 a1 da 3c 42 24 d9 b9 c0 3d 5d bd 78 0d d8 3a
       0.026688442 -0.0004141648 -0.054013968 0.0016483506
000150 4e 7d 2c bd 22 09 fd 3a 98 66 be bc 50 5a 41 3d
       -0.042111687 0.001930509 -0.02324228 0.04720527
000160 59 f9 88 3d 28 56 74 bd 90 6e f0 3c 2d 7b bb 3c
       0.06688184 -0.059652478 0.029349595 0.022885883
000170 68 c4 3a 3d 71 50 25 3d 97 9a e9 3c 32 86 60 bc
       0.045597464 0.040359918 0.028516097 -0.01370387
000180 6e ee d3 b8 80 55 64 3d a1 5d 98 bc bb f8 fc bc
       -0.00010105675 0.0557456 -0.018599333 -0.030880323
000190 2a 06 4c bd 39 48 1c 3d 1a b5 83 3d 15 fb 95 bd
       -0.049810566 0.038154814 0.06431027 -0.07323281
0001a0 0b e6 34 3d 89 d6 44 3c f3 21 c3 3c 1b 3a af bc
       0.0441647 0.01201404 0.0238199 -0.021390012
0001b0 47 ae ef 3b 32 1b 84 3d 00 b7 1f 3d e0 8b 8c 3d
       0.0073144767 0.064504996 0.03899288 0.068626165
0001c0 ae 55 b5 bc 08 aa 3e bd 31 85 8f bd 0a ce 28 bd
       -0.022135582 -0.046548873 -0.07007826 -0.04121212
0001d0 af b9 ae bc 0d fe 3a 3d f4 45 16 bd c8 a6 5a 3d
       -0.021328775 0.045652438 -0.036687806 0.05338171
0001e0 d6 86 a3 bd 40 9a 91 3d 36 e8 4f 3c 5f a6 78 3d
       -0.07984702 0.07109499 0.012689641 0.06070554
0001f0 36 45 26 3d 11 e1 20 bd 2d ac 6b 3d f8 ba 2a bb
       0.04059335 -0.03927714 0.057537246 -0.0026051383
000200 9b d1 14 3d eb 4c 69 3d 9c 66 10 bd 2f d7 8d bc
       0.036332708 0.05695812 -0.035254106 -0.017314522
000210 c2 ac 1b bd 67 f1 5b 3c 37 37 46 3d 1f d7 bc 3c
       -0.03800655 0.013424254 0.0483925 0.023051796
000220 72 de ac b8 7b a0 2a 3d 7a 71 25 3d 9c 0e b9 bc
       -8.243033e-05 0.041656952 0.040391423 -0.022589974
000230 fe ef d5 3c fd ac ed bc de a7 2d 3d 5d 86 99 bd
       0.026115414 -0.029013151 0.04239642 -0.07496331
000240 ed be 47 3d 95 43 1f 3b 38 83 8b 3d a5 ba cc bd
       0.048766065 0.0024301757 0.06812137 -0.09996537
000250 7f 42 a2 bc bf 22 1f bc ab 9f 8b ba 51 a8 c3 bd
       -0.019807098 -0.009712874 -0.0010652443 -0.09553588
000260 63 5c 73 3d 32 dd a2 39 65 99 ae bd 53 3f 1a bd
       0.05941428 0.0003106385 -0.085253514 -0.037658047
000270 64 11 50 3d 09 85 f6 3b b9 18 58 bd 83 50 5b bc
       0.050797835 0.0075231832 -0.052757952 -0.013385895
000280 61 8c 07 3d 50 d5 a4 bb 88 fd 37 bd b8 2a a7 bd
       0.03309286 -0.0050303116 -0.04491952 -0.08162445
000290 79 ff cd 38 82 fd 03 3c ea 7a 09 bd 36 91 4a 3c
       9.822747e-05 0.008056046 -0.033564486 0.012363723
0002a0 7d 56 fe 3c 7e df 62 3d 53 46 3a bd ff f2 cf bd
       0.0310471 0.05538892 -0.045477223 -0.1015377
0002b0 dd f3 83 3d 28 2f 81 bc 9c 04 5b 3d ea 97 ad bd
       0.064429976 -0.015769556 0.053471193 -0.08476241
0002c0 c2 f2 4c bd f7 20 c6 bd 97 43 7f bd 90 06 82 3c
       -0.0500362 -0.09674256 -0.062320318 0.01587227
0002d0 2c 0f 45 3a 7f c5 0e 3d 44 87 b5 bd c7 2e 8b bd
       0.00075172144 0.034856316 -0.088636905 -0.067960314
0002e0 aa d9 0a ba 09 69 25 bd 18 00 4c 3d fd 91 03 3d
       -0.00052967167 -0.040383372 0.049804777 0.032121647
0002f0 fa 9a c1 bd 62 2c 6d 3c 36 9e b0 bd b4 5e 8d bd
       -0.094533876 0.014475914 -0.08623926 -0.06902829
000300 36 c4 c2 bd b2 9f 03 3c d9 17 48 3d aa 59 0c bd
       -0.095100805 0.00803368 0.048850868 -0.034265198
000310 e3 18 3b bd 5e 6b 52 3c 4a 82 1d 3d 39 c5 a7 3b
       -0.04567803 0.012842981 0.03845433 0.0051199463
000320 39 33 9a bd a7 b6 cf 3a cb 3f dd 3b 9f 5f ae bd
       -0.07529301 0.0015847281 0.0067519895 -0.08514332
000330 f3 b1 37 bd c7 f3 8b 3d 6e 4c 8a 3d 61 bd 53 3d
       -0.04484744 0.06833606 0.06752859 0.051694278
000340 0c ca bb bd f7 ba 73 3d 11 4f 4e 3d e5 42 9e bd
       -0.09169397 0.059504475 0.050368372 -0.07727603
000350 2b a3 32 bd f0 32 8b 3b 14 1b e7 bc 84 7b c1 bb
       -0.04361264 0.0042480156 -0.028211154 -0.005904617
000360 48 b2 06 bd d6 ad d8 bd f7 45 8d 3c 04 b2 c8 bd
       -0.032884866 -0.105800316 0.017245276 -0.09799579
000370 9f f1 e6 bc 29 34 33 bb 71 11 be bc 00 2d 7c 3d
       -0.028191386 -0.0027344322 -0.023201676 0.061566353
000380 be 68 73 3c 04 eb 7b 3b be bb 8b 3d 90 71 60 3d
       0.014856515 0.003843964 0.06822918 0.0547958
000390 a1 fb 98 bd 09 90 0f 3d b3 09 55 3d 09 23 d9 bc
       -0.074698694 0.035049472 0.052011203 -0.026505964
0003a0 cc 62 7f 3d 8b c0 42 bc 51 1f e7 3c 1b 40 ae bd
       0.06235008 -0.011886726 0.028213175 -0.08508321
0003b0 c4 ef e2 3b cc 35 5d bb 9c 01 1a 3c 88 e4 93 3d
       0.006925555 -0.003375399 0.009399798 0.07221323
0003c0 18 91 73 3d 18 ae 43 bd 75 cf 0f 3d 8c 24 42 3d
       0.059464544 -0.04777345 0.035109956 0.047398135
0003d0 ed 38 9a 3d 87 5c 80 bd ab 59 b4 bd 58 97 b5 bd
       0.07530389 -0.06267648 -0.08806165 -0.08866757
0003e0 9d 09 84 bd 3d 7a c8 bd 29 0e 0f 3d 07 d5 06 3d
       -0.06447146 -0.0978894 0.034925614 0.032918002
0003f0 c0 5d ba 3c 9d 8e 12 bd ef ec 75 bc cf 64 43 3d
       0.022749782 -0.035780538 -0.015010103 0.04770356

head.4.bias f4 [12]
000000 1a cf 66 3d c0 3e a2 bd 04 a5 8b bd ad 36 8b bd
       0.05634985 -0.07922125 -0.068185836 -0.06797538
000010 fa 39 47 3c b7 1a a6 bd 68 aa d6 bd 94 8d ca bd
       0.012159819 -0.08110564 -0.10481721 -0.09890285
000020 53 4d 23 3d 2f 46 85 bd 47 6e e9 bd 8b 82 62 bd
       0.039868664 -0.06507527 -0.11397987 -0.055300277
