fault_model_nn_allprior_22_33kv_without_lstm/best_Y2023.pt (torch, 246328 bytes, 7 tensors)

emb.weight f4 [219, 16]
000000 b7 64 53 37 4c 51 a7 3f 50 ef ed 3e a8 0f 28 b9
       1.260003e-05 1.3071685 0.46471643 -0.00016027561
000010 06 63 45 bf 66 cb 6f bf 80 8e 0e bf 81 3a 88 3f
       -0.7710422 -0.93669736 -0.5568619 1.0642854
000020 b9 0f 92 3e f9 c8 24 bf 43 94 60 3d d6 83 6b b9
       0.2852762 -0.6436916 0.054828893 -0.00022460459
000030 bf 1b 52 bf d6 cc 81 3f f6 34 d8 3f 05 65 64 3c
       -0.8207359 1.0140636 1.6891162 0.013940101
000040 41 d5 20 be 0c f2 ad bf e3 50 b6 bf 20 8a 88 be
       -0.1570635 -1.3589492 -1.4243435 -0.2666788
000050 a5 14 90 3e 4c a7 d4 3e 41 48 75 bf e4 9e 80 bf
       0.2814075 0.41533887 -0.95813376 -1.004849
000060 9d bb 96 3f 8f 32 a8 bf 83 1a c4 3e fc 11 2e bf
       1.1776005 -1.3140429 0.38301477 -0.6799619
000070 4e 0e 14 3e 71 39 e6 3e c9 9c b6 3f 22 54 19 3e
       0.14458582 0.449657 1.4266597 0.149735
000080 e5 8a 29 3f 29 fd 82 3f ba d9 62 3d 56 c1 09 bf
       0.6622756 1.0233508 0.05538342 -0.5381063
000090 b8 e4 aa 3e cc 80 e9 bf 2f b2 27 3f 0a 88 a0 bf
       0.33377624 -1.8242431 0.6550626 -1.2541516
0000a0 64 18 a5 3d ef bc a4 3e 2d 9b ed 3f 4d da 91 bf
       0.08061293 0.32175395 1.8562981 -1.1394745
0000b0 8c 0a 4f bf 3d f0 87 3e 5f 24 06 c0 ac 3b f2 3f
       -0.8087547 0.26550475 -2.09597 1.892446
0000c0 9b 41 fd 3f 64 37 18 bf e0 f3 f6 bc 1e df 9c 3f
       1.9785646 -0.5945952 -0.030145586 1.225559
0000d0 c7 e8 cb 3e e1 16 93 bf 66 32 c4 bf 70 08 d3 bd
       0.39826033 -1.1491357 -1.532788 -0.10304344
0000e0 2b 92 9a bf 68 e5 9e bf 47 95 35 bf 0c b7 1e bf
       -1.2075857 -1.2413759 -0.70930904 -0.6199806
0000f0 52 b5 46 3f 9c bb c4 3c 56 c6 8e bf 9f 42 19 3e
       0.7762042 0.02401524 -1.1154277 0.1496682
000100 fe 19 81 3f 46 c9 2e 3f ce 4d 29 bf 72 be c4 bf
       1.0086057 0.6827587 -0.66134346 -1.5370619
000110 21 6f a6 be bc 30 07 3f 5d 0e 5c bf ce 48 72 3f
       -0.3250666 0.5280874 -0.85959417 0.9464234
000120 6a 6d 5a bf 89 bb 29 3f 02 d0 31 be fa 1e 2d 3f
       -0.853232 0.6630178 -0.17364505 0.6762539
000130 81 7c 0f 3f be ca 12 40 ac 75 32 bf eb ed e2 3e
       0.5604935 2.2936244 -0.69710803 0.44322142
000140 75 97 aa 3e 85 88 f5 3e 37 5d 89 3f f4 f5 f2 bf
       0.33318678 0.4795572 1.0731572 -1.8981309
000150 e4 2b c2 3e c3 78 6b be 55 33 34 3e 49 0c 95 bf
       0.3792411 -0.22995286 0.17597707 -1.1644374
000160 a6 49 4b 3f 4c 2b 8a 3f f4 63 c5 3f 3e 43 62 3e
       0.79409254 1.0794463 1.5421128 0.22095963
000170 e7 44 a5 bd 19 b3 f6 be ed de c6 3f 5a 21 ec be
       -0.08069783 -0.48183516 1.5536782 -0.46119195
000180 03 ec 50 bf 08 52 82 3f f9 d5 83 3f e6 0f 40 bf
       -0.81610125 1.0181284 1.0299674 -0.7502426
000190 34 c6 79 bd ec dc 44 be c6 c0 40 c0 7d ea e4 bf
       -0.060980037 -0.192249 -3.011766 -1.788406
0001a0 02 26 2f c0 ee de 6d 3f d7 9b f0 be 9a cc c9 3f
       -2.7366948 0.9291829 -0.46993896 1.5765564
0001b0 2f 39 42 be 20 b8 c9 3e 52 83 a6 3e 90 d6 5c 3f
       -0.18967126 0.3939829 0.32522064 0.86264896
0001c0 dc 16 56 be 17 56 45 bf 72 91 90 3e ed 21 30 bf
       -0.20907158 -0.7708449 0.28235966 -0.68801767
0001d0 59 10 49 bf 74 d7 a0 3f e2 59 91 3e 20 b5 bc bf
       -0.7854057 1.2565751 0.28388888 -1.4742775
0001e0 26 2d b4 bf 61 25 a4 bf b0 f6 2c bf 60 95 b7 3e
       -1.4076278 -1.2823907 -0.67563915 0.35856152
0001f0 56 ac c3 3f 35 17 39 3f 7a c4 9e 3f 98 47 45 bd
       1.5286968 0.72301036 1.240371 -0.04816398
000200 c1 22 5b bf a0 b4 67 3f 19 f0 ef 3f 12 d5 4c 3f
       -0.85599905 0.90509987 1.8745147 0.8001262
000210 3c 0e 05 40 b3 78 8f bf 75 a7 f8 be 93 c1 d5 3d
       2.0789938 -1.120871 -0.4856526 0.10437312
000220 fa 38 41 bf b1 29 3d bf cb d8 e3 be 96 a8 1b 3e
       -0.75477564 -0.7389174 -0.44501337 0.15201029
000230 99 86 8a bd 57 1b af bd fa 40 2b 3d b4 e2 8c 3f
       -0.06763954 -0.085501365 0.041810013 1.1006684
000240 31 26 cf 3f c5 ab ab 3f e2 15 8b bf 8a 92 29 3f
       1.618353 1.3411795 -1.0866053 0.66239226
000250 46 ca 39 3e 65 fa fc 3e 37 a9 a1 bf 6a 08 f8 3f
       0.18143567 0.49409786 -1.2629765 1.9377568
000260 d3 27 35 3e 05 8f 13 3f bd b1 b1 bf 77 35 8d bf
       0.17690973 0.57640105 -1.3882366 -1.1031941
000270 37 97 4e be 64 06 e0 be 5f 21 c5 bd b9 19 d9 3f
       -0.20174871 -0.43754876 -0.09625506 1.6960975
000280 c5 e8 d4 3f 1c a3 9d 3f b3 b5 18 bf 8a f4 a9 3f
       1.6633536 1.2315402 -0.5965225 1.3277752
000290 b6 29 1b 3a 27 b6 55 3f d6 e4 55 bf db 84 2a 3f
       0.0005918996 0.8348107 -0.835523 0.6660897
0002a0 52 a7 30 3e ec 57 11 bc 40 9d 2b bf f2 6a 6e 3e
       0.17251328 -0.00887106 -0.6703682 0.23282984
0002b0 06 2e 53 3f 00 2f fa 3f bb c2 06 bf f0 91 e9 3c
       0.824921 1.9545593 -0.52640885 0.028511971
0002c0 b5 63 0c 3f f3 72 88 be 37 c5 60 bf 49 5e 87 be
       0.5483964 -0.266502 -0.87800926 -0.2643912
0002d0 54 69 1a 40 6c 29 32 be 3a 3d ce bd 01 f9 df bf
       2.4126787 -0.17398614 -0.10070272 -1.7497865
0002e0 7d ae bf bd dd a9 9d 3f 70 aa 84 3f 2f d1 04 c0
       -0.09359453 1.2317463 1.0364513 -2.0752676
0002f0 61 c9 92 bf d8 6a a4 3e 71 2f 20 3f 21 a6 c0 bf
       -1.1467706 0.32112765 0.6257239 -1.5050699
000300 e6 ea 92 3f 78 c1 22 3f 8f ab 30 3f 73 e5 81 be
       1.1477935 0.6357646 0.6901178 -0.25370368
000310 0f 83 7c 3e 3b 00 dc 3f 8c 3d c7 bd d6 b7 e8 3f
       0.2465937 1.718757 -0.09728536 1.8181102
000320 e6 1f 4a bf fe b1 b5 be 71 c8 ae 3f 5b a1 c2 bf
       -0.78954923 -0.3548736 1.365492 -1.5205492
000330 b5 07 0c be 37 4c 20 3f 76 4b c7 3e 9c 78 64 3f
       -0.13674815 0.62616295 0.3892476 0.89246535
000340 95 df f2 bf 1a f0 22 be 9b 21 31 bf 03 0f b8 3f
       -1.8974482 -0.15911904 -0.691919 1.4379581
000350 6c dd ce be 0c 3e 83 3e 86 16 d0 3e 0c b4 c6 3f
       -0.40403306 0.25633276 0.40642184 1.5523696
000360 dd 0b 14 bf a2 b7 90 be 05 1f 8b 3f 01 1c f4 3e
       -0.578306 -0.282651 1.0868841 0.47677615
000370 36 cc b0 bf 59 0a 90 3e 8d 70 f5 bf 9e 4a 9b bd
       -1.381232 0.28132895 -1.9174973 -0.075825915
000380 e0 e8 74 bd 29 7c a4 bf 95 9f c8 be 70 3f 81 3f
       -0.0597924 -1.2850391 -0.3918425 1.0097485
000390 ee 63 05 bf 5b f0 0f 40 f3 77 1e be 4c a7 74 3e
       -0.52105606 2.2490451 -0.15475444 0.23891944
0003a0 86 49 1f bf 99 fb 92 bf ff c3 4d 3f 55 ed 08 c0
       -0.6222156 -1.1483032 0.8037719 -2.1394856
0003b0 fb f1 cb bd 85 dc d6 be ed f5 20 bf e3 d5 aa 3f
       -0.099582635 -0.41965118 -0.6287525 1.3346523
0003c0 37 c5 15 3e 15 4f ed bf ef f8 13 3f 3b d4 18 bf
       0.14626013 -1.8539759 0.5780172 -0.5969884
0003d0 e4 1a a6 bf 7b d7 49 3f 99 86 a1 bf 53 e2 61 3f
       -1.2976956 0.7884442 -1.2619201 0.8823597
0003e0 af cd c8 bf 23 4f 54 be 4f 23 a5 3f a7 dc 0f c0
       -1.568777 -0.20733313 1.29014 -2.2478426
0003f0 16 6c 3d 3e 55 ab 43 bf 2f 87 c1 3f 7a 1b 0e 3f
       0.18498263 -0.76433307 1.511938 0.55510676

head.0.weight f4 [256, 88]
000000 60 5e 52 bd 38 40 29 3d 1c 79 67 3d 66 3f 3d bc
       -0.051359534 0.04132101 0.056511983 -0.01155076
000010 7e 72 8f 3b 5c 29 9b 3c b9 34 11 3d d3 a4 43 3c
       0.004377662 0.01894062 0.03545067 0.011941153
000020 e7 bf b0 3c b5 b8 70 3d 0f 91 dd 3d 3c 49 87 3d
       0.021575881 0.0587699 0.10818683 0.06605765
000030 a8 64 59 bd e0 b5 80 bb 4a 34 ab 3d f6 40 96 bd
       -0.05307451 -0.003927931 0.08359583 -0.07336609
000040 29 1e b4 bc 88 00 4a bd 35 4a 92 bd ac 06 8e bd
       -0.021987038 -0.049316913 -0.0714306 -0.06934866
000050 ed 79 a8 3c 33 62 45 3d 8c b3 2e bd 28 83 dd bd
       0.020565951 0.048189353 -0.042651698 -0.10816032
000060 5a 88 8e 3d 30 c6 aa bd f5 04 c3 37 82 7e e7 bc
       0.06959601 -0.083385825 2.324812e-05 -0.028258566
000070 28 fd 9f bd 21 0b b9 3d d8 42 b3 bd 1a f2 9d bd
       -0.078119576 0.09035326 -0.08752984 -0.07712193
000080 c7 75 78 bc c2 dc ba 3d be 3c e9 38 71 94 44 3d
       -0.015164799 0.091241375 0.0001112162 0.047993127
000090 26 24 21 3d fb bb be 3d 4e 1c 04 bd 10 da a0 bc
       0.039341114 0.09313198 -0.032253556 -0.01963523
0000a0 ab 9f b7 3d 9c 4f e5 3d e8 ff e2 3c 63 82 b9 3c
       0.08966001 0.11196825 0.027709916 0.022645181
0000b0 ef 16 97 b9 fd 4e 57 bc b1 e7 8b bd 88 2b fe 3c
       -0.0002881805 -0.013141391 -0.06831301 0.031026617
0000c0 c7 c6 3c bd 2d 5c fc bb c0 0b 0f bd 95 30 26 3b
       -0.046088006 -0.007701418 -0.034923315 0.0025358547
0000d0 78 ff 8c 3b dd ba b4 3d 07 e4 81 3c b8 2f 3a bd
       0.004302915 0.08824704 0.015855802 -0.045455664
0000e0 7b 38 bd bd c8 73 87 3d 77 a8 4d bd e2 eb ea bc
       -0.092392884 0.066138804 -0.05020949 -0.02867693
0000f0 63 dd a8 3d 59 0c 10 3d 3d 0e 2a b9 14 2b 8a bd
       0.08245351 0.035168026 -0.00016217768 -0.06746498
000100 21 a6 80 3d a7 b0 61 bd 1f 93 87 3b c2 41 a0 bd
       0.062816866 -0.05510011 0.0041374112 -0.07825042
000110 31 a7 b2 3d c7 60 f2 bd 3c 7e 4a 39 6f 55 8d 3c
       0.087232955 -0.11834865 0.00019311247 0.017252652
000120 71 8d 0c be ff da 7d bc bd de 3a 3d 5f c9 e0 bd
       -0.1372583 -0.015494107 0.045622576 -0.109759085
000130 65 d6 92 3d 30 85 bb 3d 36 e8 a3 bd f3 b7 e8 3d
       0.07169799 0.09156263 -0.08003275 0.113632105
000140 55 1e e2 3d cd d2 ab bd 76 ff 9d 3c 4c 43 05 3d
       0.110409416 -0.083898164 0.019286852 0.032534882
000150 5d 0a 95 bd 49 3d 28 bd 29 ba 6e bd 26 3c 82 3d
       -0.07277367 -0.04107407 -0.058283005 0.06359129
000160 b8 62 75 bd 7d 00 9b bd 57 03 d2 3d 4c c4 9f bd
       -0.0599086 -0.075684525 0.10254543 -0.078011125
000170 60 14 91 3d 56 cd 7b 3d 57 6b d3 bd 4e 5f 78 bd
       0.07083964 0.06147512 -0.10323208 -0.060637765
000180 e3 36 2c 39 33 a8 0d 3c ff 5a 46 bd b0 42 50 bd
       0.00016423645 0.008646059 -0.048426624 -0.05084485
000190 f1 98 92 bd d4 06 b3 bc b7 2d 30 3d df a2 41 3d
       -0.071580775 -0.021853842 0.043012347 0.047274467
0001a0 49 16 78 3b c8 a7 a9 3d 6e 0d 9d bd 89 6b a9 bc
       0.003785508 0.08283955 -0.07668577 -0.02068116
0001b0 9e 9d 43 bd 34 e5 da 3d d5 87 85 3d 58 e7 ba 3d
       -0.047757737 0.10688248 0.065200485 0.091261566
0001c0 90 d6 fd bd 85 dd 8c 3c ec df 91 37 fb b1 45 3d
       -0.1239444 0.017195472 1.7389619e-05 0.04826544
0001d0 b6 b8 33 bc ed 10 6a bd 22 3c ff bb cd 77 cb 3d
       -0.0109693315 -0.057145048 -0.007789151 0.099349596
0001e0 d1 39 f1 3c 2f 8b 47 3d fb a3 8d 3c 95 b4 22 3d
       0.029446514 0.04871672 0.017290106 0.039722998
0001f0 75 fe 8f bc 6a 1a bb bd 59 15 f5 3c b1 61 a8 bd
       -0.01757739 -0.091358975 0.029917406 -0.08221758
000200 85 eb 8c 3d 3b 63 a2 3d a2 c8 b3 bd 19 ed 3d bd
       0.06880859 0.07929083 -0.08778502 -0.046368692
000210 57 0a 8d bb 4c fc 0c 3d 3f ba b5 bc 61 da a2 bc
       -0.004304211 0.034420297 -0.022183536 -0.019879522
000220 0a d5 6b 3d 43 84 d5 bd e1 4c 8d bd f6 fd 70 bd
       0.057576217 -0.104256175 -0.06899429 -0.058835946
000230 c6 3c 9b 39 5d bf 34 bc cc 74 db 3d 06 68 8e 3c
       0.00029609184 -0.011031953 0.107156366 0.017383587
000240 f4 83 a8 bd c3 f9 69 3d 6e 06 79 bd c4 8d d7 bb
       -0.08228293 0.057122957 -0.060797147 -0.006578179
000250 52 b1 02 3d 88 71 d0 3c e8 22 ed 3b b0 c1 71 bd
       0.031907387 0.02544476 0.007236827 -0.059022605
000260 85 38 aa bb 57 14 e2 bb 7b 31 9e bd b2 86 17 bc
       -0.005194726 -0.0068993974 -0.077242814 -0.009248422
000270 c6 07 7f bd f1 f7 0a be 0d 83 c9 3b 19 b2 58 bc
       -0.062263273 -0.13571145 0.0061496557 -0.013226056
000280 59 86 57 3c a9 cc 9c 3d 5c 66 bf bd d1 cc 39 bd
       0.01315459 0.07656223 -0.093456954 -0.045361344
000290 d9 25 ce bc ef f8 ee bd 9c bb 8c bc ad 9f a2 3d
       -0.025164532 -0.11668574 -0.017179303 0.07940612
0002a0 09 69 6f bd 73 81 43 3d 63 3f 9f bd be 7e 3d bd
       -0.05844978 0.047730874 -0.07775762 -0.04626345
0002b0 0b 84 db 3d 71 75 93 bd 07 9e 03 3e d5 bd de 3d
       0.107185446 -0.072001345 0.12853251 0.10876051
0002c0 9f f4 4a 3d d6 7f ff 3c 00 6d 35 bd f6 ac a1 39
       0.049549695 0.031188887 -0.044293404 0.0003083718
0002d0 76 63 84 3d d4 65 cf 3d 24 d9 e9 3b 54 8a 97 3c
       0.06464283 0.10126844 0.007136481 0.018498577
0002e0 30 d2 25 38 b7 b3 43 bd 76 1c c7 bd 3c cb 49 bc
       3.9534818e-05 -0.04777881 -0.09722225 -0.012316521
0002f0 e9 34 07 3b 5f 55 a7 bd 7d 85 c4 3c 47 c8 3d 3d
       0.0020630902 -0.0817058 0.023989433 0.046333577
000300 80 ca 1b bc a5 be 0d bd 0c 33 f1 bd 79 ca 0e bd
       -0.009508729 -0.03460564 -0.117773145 -0.03486106
000310 dc 5a df 3b e9 20 86 bd 30 98 c4 bd c3 d9 98 bd
       0.006816251 -0.06549246 -0.0959934 -0.0746341
000320 32 af 63 bd dd 7b 5e 3d 77 94 51 b8 08 14 92 3d
       -0.055587 0.054317344 -4.996775e-05 0.07132727
000330 38 27 47 bd 66 c8 bc 3d a8 1b f6 bd b4 73 b9 bd
       -0.048621386 0.092179105 -0.12016994 -0.09055272
000340 72 7e fb bc 55 f2 b0 3d bc 6d 6c bc 2f df 90 3c
       -0.030699942 0.08639971 -0.01443046 0.017684547
000350 f4 c5 c4 bb 8f cb 4e 3d 53 87 cb bd d3 75 98 bd
       -0.006005043 0.050487097 -0.099379204 -0.07444348
000360 b7 c3 85 ba 62 c4 8a bc f0 93 8f 3d eb 53 88 bd
       -0.0010205422 -0.016939346 0.07010639 -0.06656631
000370 b5 83 da 39 6d dd 01 3c 96 1a a4 3d 3d c9 5b 3d
       0.0004167833 0.007926327 0.08012883 0.053658713
000380 35 8c 8f 3d 3b e9 d1 3d be 49 71 3c 08 72 c6 bb
       0.07009164 0.10249563 0.014727054 -0.006056074
000390 db fe 98 b8 8e 23 ca bd 74 03 cf 3d 49 09 a5 bb
       -7.295395e-05 -0.09870063 0.101080805 -0.0050365073
0003a0 c5 05 79 3d 65 7d b9 3d e9 17 dd bd c7 b8 88 3d
       0.060796518 0.0905712 -0.10795576 0.066758685
0003b0 91 f6 c4 3d d4 d2 90 bc e2 d2 f9 b8 54 89 2f bd
       0.09617341 -0.017678656 -0.00011912525 -0.042855576
0003c0 42 8a 63 3d 76 0e ac 3d 18 1f 03 3d 15 01 88 3b
       0.055551775 0.08401196 0.032012075 0.0041505196
0003d0 0d a0 f6 bc 6e 48 95 3c 0e 1e ab bc 32 f3 2b bd
       -0.030105615 0.018223014 -0.020888355 -0.041979976
0003e0 db 97 5a bd 51 af bb 3d cf cd 2c bc 24 87 81 bd
       -0.053367477 0.09164298 -0.0105471155 -0.06324604
0003f0 d7 a0 93 bd bc 28 8a 3c 3f 74 06 3d b3 5d bd 3d
       -0.07208412 0.016865127 0.032825705 0.09246387

head.0.bias f4 [256]
000000 0a 99 bf 3d a5 de 55 3d ea 35 42 bc f5 4e 08 3d
       0.09355362 0.052214283 -0.011853674 0.033278424
000010 1d 9c 4b bd b7 a3 97 bc 12 1f 30 3c 30 88 8b 3b
       -0.049709428 -0.018510683 0.010749595 0.004258178
000020 b8 80 1c 3d 14 fd b1 bd 7b bc d9 3d 98 dd ac bc
       0.038208693 -0.08690849 0.10631653 -0.021101758
000030 6f 67 ae bc 1f 94 52 bc ce ae 34 bd f1 27 8e bc
       -0.021289555 -0.012852698 -0.04411202 -0.01735303
000040 fa db 13 3c ac 6e 96 bc d1 3a 68 3d 42 e6 16 bc
       0.0090246145 -0.01836332 0.056696717 -0.009210171
000050 48 0b 91 bd 60 b0 97 3d b6 a2 ae bc ec 35 b6 3d
       -0.0708223 0.07406688 -0.021317821 0.088970035
000060 21 28 26 3d d1 66 ff 3c ad 9f 89 bd 67 9e c6 3d
       0.040565614 0.031176956 -0.06719909 0.096981816
000070 b3 82 9f 3b f9 38 9b 3d 2d b4 bb 3d c2 cb 71 bd
       0.0048678755 0.07579226 0.09165225 -0.05903221
000080 bf 02 71 3d 34 88 1b 3d 75 95 14 3c 44 d3 89 bb
       0.05884051 0.03797169 0.009068836 -0.004206093
000090 55 78 63 3d a1 72 b1 3c d4 6d f1 bc 5c 6f bd bd
       0.05553468 0.021661105 -0.029471315 -0.09249756
0000a0 81 e0 42 bd a5 d3 95 bd d7 82 ab 3d fa 25 b8 3d
       -0.047577385 -0.073157586 0.08374565 0.089916185
0000b0 e5 0a 57 bd 6e f4 dd 3d da 75 11 3d 0f 34 71 3d
       -0.052500624 0.10837637 0.035512783 0.058887538
0000c0 66 51 a2 bd 45 b9 6f bd e2 d2 9c 3d a2 2b 6b bc
       -0.07925682 -0.058526296 0.0765741 -0.014353665
0000d0 43 1b 54 bd e1 18 47 bd bc 0d 48 3d af 30 86 bd
       -0.05178381 -0.04860771 0.048841223 -0.065522544
0000e0 64 cc cd bc b5 3a ea 3d 77 4c fa 3d 11 c3 b0 3d
       -0.025121875 0.11436979 0.12221616 0.08630956
0000f0 a0 bc 7f bd db 6c 25 3c 26 84 af bd a4 cd 86 bd
       -0.062435746 0.010096754 -0.08570127 -0.065821916
000100 42 d9 4e bd 8d 49 a4 3d 90 14 27 3d d1 71 a3 3b
       -0.050500162 0.08021841 0.040791094 0.004987933
000110 ee 99 bb 3c fa 11 45 bd e8 67 86 3d 03 56 a5 bc
       0.022900548 -0.048112847 0.06562787 -0.020182615
000120 e0 fc 0f 3d 1c 19 55 bb 69 c6 93 3d 04 7f 5b 3c
       0.03515327 -0.0032516187 0.07215578 0.013396982
000130 df f4 68 bd 4e 6a 49 3d bd d0 c4 bc 5e 25 cf bc
       -0.056874152 0.049173646 -0.024025315 -0.025286373
000140 85 52 af 3b 82 af 47 bd 70 b4 7a 3d cb 19 ad 3d
       0.0053504133 -0.04875136 0.061207235 0.08452185
000150 c1 5a 51 3d 89 fe a5 bc 0a 88 5b ba 04 64 bf 3d
       0.05111194 -0.020262973 -0.00083744584 0.09345248
000160 84 1e 0c bd f6 e3 8c 3d f6 d1 61 bd eb 6d ea 3d
       -0.03420879 0.068794176 -0.055131875 0.114467464
000170 8d 4b a6 bd a4 35 b8 3a 84 09 54 3d 2a 3c 6b bd
       -0.08119879 0.0014054072 0.051766887 -0.057430424
000180 05 f4 43 bd 25 d5 ab bd 3d ca 67 3d 75 f3 d8 3d
       -0.047840137 -0.083902635 0.056589354 0.10593311
000190 48 b4 18 bd 24 f4 e3 3d 4c 15 98 bd ad 43 52 3d
       -0.037281305 0.111305505 -0.07425937 0.051334072
0001a0 d5 62 97 bd 19 4f f7 3d 59 8b df 3b d3 43 32 bd
       -0.073918976 0.120756336 0.0068220315 -0.043521713
0001b0 73 92 0a 3c 49 8f 51 3d 78 4a 4b bc 61 38 c4 3c
       0.008457768 0.051162038 -0.012407891 0.023952665
0001c0 16 60 9f bc 4f 22 37 3d 05 30 ac 3c 41 04 d8 3c
       -0.019454997 0.044710454 0.021018991 0.026369216
0001d0 98 47 83 bd 63 c8 9f bd 95 ec 7f 3d 92 01 93 3d
       -0.0641014 -0.078018926 0.06248148 0.07178034
0001e0 ae 22 a6 3d 35 c7 be 3b f9 83 87 bd c0 02 88 3d
       0.081120834 0.005822087 -0.06616969 0.066411495
0001f0 b7 e2 e7 bd 79 c2 96 bd b0 08 84 3d b9 f8 af bd
       -0.11322539 -0.073613115 0.064469695 -0.08592362
000200 d3 15 d0 3d 87 a9 03 bd df 08 b1 3d 7b 96 f4 3c
       0.10160413 -0.032144096 0.0864427 0.02985691
000210 86 9b 9c 3d ad 6f c8 3d 81 ec 31 bd b2 c6 a0 bd
       0.07646851 0.097869255 -0.04343844 -0.07850398
000220 d9 b9 8b 3d 72 8f f4 3d c6 ce b1 3d cb 05 d2 bd
       0.06822557 0.119414225 0.08682017 -0.10255011
000230 03 19 e2 3c fc 6b c5 3d d0 72 b0 bd 3f d3 b9 3d
       0.027599817 0.09639737 -0.08615649 0.09073495
000240 31 18 bf 3d 87 3c cc bc ce 95 dc bc 31 c4 24 bd
       0.09330786 -0.024931205 -0.026926901 -0.040226165
000250 cb c6 de 3c f5 62 9a 3c e2 17 9c bd cd 1d 52 bc
       0.027194401 0.018846015 -0.07621743 -0.012824488
000260 d8 d0 74 3d 0f 9b 9b bd 93 9e 92 bd 7f b3 de 3d
       0.05976948 -0.075979345 -0.07159152 0.1087408
000270 db 2e a8 bd f9 f1 9e 3d e0 3f a3 bd 66 9b 89 3d
       -0.08212062 0.07760996 -0.079711676 0.06719093
000280 5d 87 c1 bd 9c 1a 5f bd 43 fd 17 bd 1d 61 ad bd
       -0.094496466 -0.054468736 -0.037106764 -0.084657885
000290 fe 2d aa 3c 2c 90 56 3d 79 23 bd 3d 91 a9 f0 bc
       0.020773884 0.052383587 0.092352815 -0.02937773
0002a0 c1 30 bf bd a7 6e a8 bc c7 cf f6 3d 7c 43 96 bd
       -0.09335471 -0.020560576 0.12051349 -0.073370904
0002b0 bb 18 f7 3d a3 93 96 bd 98 bc 9a bd be 3b 29 3d
       0.12065264 -0.07352378 -0.07555503 0.04131674
0002c0 38 3f 16 3d 69 c9 53 ba 76 d6 b4 bd 2b 4e 29 3d
       0.036681384 -0.00080790237 -0.08829968 0.041334312
0002d0 ec 08 9e bc c5 81 a3 3d 32 03 c3 3d 3d 17 99 3d
       -0.019291364 0.07983736 0.09522094 0.074751355
0002e0 c5 96 bb 3d 24 a5 02 3d 89 84 ff bc 8a 40 84 3d
       0.091596164 0.03189577 -0.031191127 0.06457622
0002f0 52 84 80 3d ee ba d7 3c f4 e2 dc 3d 56 b8 b3 3d
       0.06275238 0.026334252 0.107854754 0.08775394
000300 8f e5 8a bc ac a3 2c 3d 1e a2 05 3d 51 fc ee 3d
       -0.016955165 0.042148277 0.03262531 0.11669219
000310 99 3d e0 3d 84 53 8e 3d 91 ef 7d bd 21 a0 52 3c
       0.10949249 0.06949523 -0.061996046 0.0128555605
000320 e8 31 21 bd f3 04 95 bd 3e e1 7d bc dc 61 86 3d
       -0.039354235 -0.072763346 -0.015495596 0.06561634
000330 ba f5 80 bd e6 20 e1 3d 97 1b d7 3c 8c bc 5f 3c
       -0.062968686 0.10992603 0.026258273 0.013655793
000340 26 63 bf 3c ac 63 22 3d 5c 72 54 3d bc 76 b8 bd
       0.023362707 0.039645836 0.051866874 -0.09007022
000350 cb 0d a7 bd 73 1a 5d bc 5e b2 ac 3c 09 c4 35 3c
       -0.08156928 -0.0134950755 0.021081146 0.011094102
000360 05 37 ce bd 2d 31 2c bd 78 d3 c1 bc 12 2a d6 bc
       -0.10069088 -0.042039085 -0.023660406 -0.026143108
000370 b1 41 f1 3c 02 31 c5 3d fb b3 e9 bb ff a6 16 3d
       0.02945027 0.09628488 -0.007132051 0.036780354
000380 47 e5 9b bd 8f 5a c9 bc df 3d 81 bd b2 85 1e bd
       -0.076120906 -0.024579315 -0.06310629 -0.03870172
000390 01 eb a9 3c 7d d9 25 3d f9 11 b8 bd 3e 5e de 3c
       0.020741941 0.040490616 -0.08987803 0.027144548
0003a0 08 a0 f0 bb 95 ca bb bd 0c 66 73 bd 21 34 cf bd
       -0.007343296 -0.09169499 -0.05942349 -0.10117365
0003b0 a2 7f 80 bd 3f f1 e3 3a af 79 bd 3d 37 2d a7 3d
       -0.06274344 0.0017390623 0.09251725 0.08162921
0003c0 5b 82 d1 bc a5 d5 61 3d c3 30 9e 3c 8d 4a 80 3d
       -0.025574854 0.055135388 0.01931036 0.062642194
0003d0 40 b9 6d bd 67 de 84 3d ee d3 2b 3d 85 17 98 3d
       -0.058037996 0.064877324 0.04195016 0.07426361
0003e0 7c 5c 43 3d f6 39 b9 3d 4d 93 e7 bc 55 f3 3d bd
       0.04769562 0.09044258 -0.02826848 -0.046374638
0003f0 f7 00 af bd fc 2a b0 3d 54 4b 05 3d d9 d2 dc 3d
       -0.08545106 0.086019486 0.03254254 0.107824035

head.2.weight f4 [128, 256]
000000 88 c6 37 3c 9c eb ca 3c 88 db 87 3d 43 96 02 bc
       0.011216767 0.02477055 0.06633669 -0.0079703955
000010 63 15 1f 3d 8f 0a a2 bc b6 54 5f 3d 90 4e 25 3d
       0.038838755 -0.019780425 0.054524146 0.040358126
000020 62 a6 35 bd 43 f1 3f bd 78 a5 e8 bc 2e f2 44 3d
       -0.04434813 -0.046860944 -0.028399214 0.048082523
000030 2a c0 18 3d c7 99 7e 3b 58 d5 8d bd 8f 1c c0 bc
       0.037292637 0.0038848983 -0.06925458 -0.023451118
000040 fe df 04 3b e8 41 9f bb 57 be 9e 3d d0 5b 98 3d
       0.0020275111 -0.0048601516 0.07751148 0.07439387
000050 59 9b ad 3c ac cd 7d bc 9c cc 28 3d 7b 83 91 bc
       0.02119224 -0.0154909305 0.041210756 -0.01776289
000060 13 6f d2 3c 71 52 17 3d d7 2f fb 3c 9b 8c 6b 3c
       0.02568773 0.036943857 0.03066246 0.014376785
000070 c7 14 23 bd 3d 39 3c bd 61 e3 90 bc 55 30 90 3d
       -0.039814737 -0.045953024 -0.017686548 0.070404686
000080 f3 ff d1 3c 71 83 eb bc 0e a5 97 3c d1 90 32 bd
       0.025634741 -0.0287492 0.018511321 -0.04359514
000090 29 66 3b 3c 0e 17 7d bc 72 33 f1 3b 27 9c 27 b9
       0.011437931 -0.015447391 0.007360869 -0.00015984532
0000a0 74 dd 55 bc 67 29 63 3d 6d 0c 17 bd 65 3c 69 bd
       -0.013053287 0.055459406 -0.036877085 -0.056942362
0000b0 a0 cd 4e 3c 4a 9b 72 3d a0 56 1a bd a0 69 33 3d
       0.012622267 0.059230126 -0.03768027 0.043801904
0000c0 fc 17 23 3c 8e 68 55 3c e5 de ea bc c1 58 04 3d
       0.009954449 0.013025416 -0.028670738 0.032311205
0000d0 da 22 4b 3b 34 c2 c0 3c 7f ad 79 3d d0 0b 58 bd
       0.0030996115 0.023530103 0.060956474 -0.05274564
0000e0 f1 7a 0d 3d 39 8a 09 3d 46 21 b4 3d ac b0 88 bc
       0.034541074 0.033579085 0.08795409 -0.016685806
0000f0 cd 40 84 3d 2f 09 a2 3d 24 bb de bc 11 7b 21 3c
       0.06457672 0.07911908 -0.027188845 0.0098560015
000100 84 a0 eb 3c 00 67 b9 3b 72 9e 0b 3d 2a fa 63 3d
       0.028763063 0.0056580305 0.034086652 0.055658497
000110 da cd 4b 3d 70 00 24 3d ab 44 59 3d 7f 58 83 bb
       0.049756862 0.04003948 0.053044003 -0.0040083523
000120 a2 f9 68 3d 6a 79 41 3c cb 93 5c 3d 6b 90 77 bd
       0.056878693 0.0118087325 0.053851884 -0.060440462
000130 47 4c 80 bc bf 5d 84 3d 65 05 8e bc 1e c6 c7 bc
       -0.015661372 0.06463193 -0.017336557 -0.024386462
000140 6f 9f 4a 3d 8f 9a 83 3d 32 ef 23 3b 15 fb 9a bc
       0.049468454 0.06425964 0.0025014398 -0.018918553
000150 32 2c 00 3b 0f 3d d3 3a e8 9e 71 3d ff 74 7f 3d
       0.0019557592 0.0016116219 0.058989435 0.062367436
000160 1f 77 0b bd 32 72 1d 3d 1c 1c 21 b8 36 d1 25 3d
       -0.03404915 0.038438983 -3.841157e-05 0.040482722
000170 95 af 31 bd b2 06 32 bb 89 5d 5c 3d 66 63 95 3d
       -0.04338034 -0.0027164635 0.05380014 0.07294349
000180 a0 bb 7b 3b d6 6f 78 3d 28 b9 4a bd 79 c4 a2 bc
       0.0038411394 0.06065353 -0.049492985 -0.019869076
000190 71 2a a4 3d f0 03 bd 3d ba 6a c9 bc 30 b7 50 3d
       0.080159076 0.09229267 -0.024587024 0.05095595
0001a0 11 3c 1d 3c 53 4f d6 bc 81 1b 3f b8 66 48 96 3c
       0.0095968405 -0.026160872 -4.5563564e-05 0.01834507
0001b0 59 b6 b9 bc a9 15 1a 3c f6 3f d1 bc 70 25 9b 3d
       -0.022669958 0.009404578 -0.025543194 0.075755
0001c0 0d c0 72 3c 9f b3 c2 bc 9f d4 38 bd cb be 49 bd
       0.014816296 -0.02376729 -0.045124646 -0.04925422
0001d0 5a 67 7c 3d e7 75 45 3c 20 d6 00 3d 80 9e c7 bc
       0.061622 0.012052036 0.031454206 -0.02436757
0001e0 96 64 02 bd e2 97 21 bc 3c a5 f4 bc 1b 4d 07 3d
       -0.031834207 -0.009862872 -0.029863946 0.033032518
0001f0 d2 13 5f 3d b5 f6 47 3d 10 59 ad 3d 32 2f a4 3c
       0.05446226 0.048819263 0.08464253 0.020042036
000200 31 31 4a 3d 8f 3c 2d bd 2a 18 6e 3b ad 58 96 3d
       0.04936332 -0.04229408 0.003633032 0.07341132
000210 77 ae a3 3c 4d 85 e4 bc f0 9d 6c bd 17 72 fa bc
       0.019980652 -0.027895594 -0.05776781 -0.03057198
000220 78 d3 22 3d 48 ae 97 3d 4c 3d 85 3b c2 98 8c 3d
       0.039752454 0.074062884 0.004066145 0.06865074
000230 cd 45 a8 3d 4e b1 53 3d 32 27 fb bc c8 20 e3 3c
       0.082164384 0.051682763 -0.030658338 0.027725592
000240 6b ff bb 3c bb 26 0e 3c f1 8a 94 bc 86 57 81 3d
       0.022948941 0.008676226 -0.018132659 0.06315522
000250 a9 bd 97 3c bf 45 2b 3d c8 94 dc bb f2 ac b1 3c
       0.018523054 0.041814562 -0.0067316033 0.021688912
000260 cd 5a 4f 3d 42 88 70 3d e5 8d 9b 3d b2 5b 48 3a
       0.050623704 0.058723696 0.075954236 0.0007643058
000270 19 3c d9 3c f0 ef 08 bc ea aa 6b 3b 7c 94 82 3b
       0.026517915 -0.008357987 0.0035960027 0.003984986
000280 01 3d 88 3d 2e 43 62 3c 82 ee 38 bd c4 fc 81 3d
       0.066522606 0.013809962 -0.045149334 0.06347039
000290 b3 58 d6 bc 14 3f 58 bd 9b 5e ea bc a6 a1 73 3d
       -0.026165342 -0.05279453 -0.028609565 0.05948033
0002a0 64 68 b0 bc f9 35 1d bd 8e 71 3d 3d bb e4 72 bc
       -0.021534152 -0.03838155 0.046250872 -0.014825041
0002b0 b8 60 95 3d 65 06 0e bd b7 a1 7c bd 7f 48 5f 3c
       0.07293838 -0.034674067 -0.06167766 0.013628124
0002c0 aa 92 97 3d 89 bd 68 3d 9b cf 61 3d 34 62 b0 bc
       0.07401021 0.05682138 0.05512963 -0.021531202
0002d0 ad 83 b3 3c ba 2f 6d 3d 08 bb 65 bc 99 e7 38 3d
       0.021913374 0.057906844 -0.0140216425 0.045142744
0002e0 7a ca 3a bd a4 c1 a4 3d 9d b4 08 3d 38 8d f8 3b
       -0.045603253 0.080447465 0.03337537 0.007585194
0002f0 fc 9b 25 bd 23 e5 67 3d 6a 7b 27 bd 4a 00 ae bc
       -0.04043196 0.056615006 -0.04088918 -0.021240372
000300 61 db 54 3b 8f 0a 5b 3d b1 cf 63 3d d8 79 80 3d
       0.0032479393 0.053476866 0.05561799 0.0627324
000310 e2 90 f5 3c 86 8c 38 3d 32 5c 83 3d 59 b6 38 bb
       0.029976312 0.04505589 0.06414069 -0.002818486
000320 66 8b 21 3e fd 51 87 3d 65 e2 c1 bb ce 48 84 3c
       0.15775833 0.06607435 -0.005916881 0.016147997
000330 50 13 80 bb 6c 3a 70 3d b2 e7 4f bc 42 3b 65 bd
       -0.003908552 0.058649465 -0.012689518 -0.055964716
000340 f5 7a 0d bd e4 5f ad bc 34 62 7e bc 0d c0 a8 3d
       -0.03454109 -0.021163888 -0.015526343 0.08239756
000350 bf ca 6d 3c d6 a5 25 3c 56 e1 90 3d 7a a8 8a 3a
       0.0145136705 0.010110339 0.070742294 0.0010578774
000360 6a 2f 7d bd c8 e5 83 bb 44 92 72 bc 33 9b 14 bd
       -0.061812796 -0.004025195 -0.01480538 -0.036280822
000370 2a 13 22 3d e1 53 ee b9 30 72 6a bd 90 b7 0b 3c
       0.039569058 -0.00045457392 -0.057237804 0.008527651
000380 44 ea 61 3d 78 27 aa 3c 8c f3 02 3d ca b9 67 3d
       0.055155054 0.020770773 0.031970546 0.056573667
000390 e4 e2 cc bb e9 1b 00 3c c3 c5 07 bd f6 02 81 3c
       -0.0062526334 0.007819154 -0.033147585 0.015748482
0003a0 ae 58 a8 3d bc 8a 2e 3d 0d 7f 05 3d 92 f3 d1 bc
       0.08220039 0.042612776 0.03259187 -0.025628839
0003b0 6c 7e 8d bc 5b 79 04 3d a4 ec f0 3c 2d 3a 80 3d
       -0.017272197 0.032342296 0.029409714 0.06261096
0003c0 6b f3 95 3c 36 1b 8a 3d af cd 70 3d 24 68 f5 3c
       0.018304547 0.06743471 0.058789905 0.029956885
0003d0 95 0d 9b bd 88 73 ac 3c 9b 34 e2 bc 3d 87 88 3c
       -0.0757095 0.021051183 -0.027612975 0.01666605
0003e0 76 39 67 bc 2c e5 d9 3c 20 85 83 bc c4 fe e3 ba
       -0.014112821 0.026598535 -0.01605469 -0.0017394652
0003f0 2f e3 3e 3d 8f a7 a6 3b 5c 54 29 3d 92 16 b4 3c
       0.046603378 0.0050858925 0.041340217 0.021983419

head.2.bias f4 [128]
000000 ff 18 ab 3c 1d e4 88 bd 8d d7 2f 3c a0 84 70 3d
       0.020885943 -0.06684134 0.010732544 0.05872023
000010 25 c8 17 bd af 7f 4b 3b c9 2a 5c bd 1a 80 6d bc
       -0.037056107 0.0031051447 -0.05375174 -0.014495874
000020 3c f1 27 3c 72 35 9d 3d 20 ed 80 3a 17 8a bb bc
       0.010250386 0.076762095 0.0009836294 -0.022892995
000030 b9 15 cc bc da 2d 1f bd a4 46 d3 bc 7f 87 25 bd
       -0.024912702 -0.038862087 -0.02579052 -0.040412422
000040 d8 51 fb bc f2 e8 8d 3c c1 a3 9e 3d cf 6a 84 3d
       -0.030678675 0.017322991 0.07746077 0.064656846
000050 0e 6c eb bc 53 ab b6 ba 3b af 2a bd 37 7d 38 3d
       -0.028738048 -0.0013936557 -0.04167102 0.04504129
000060 f0 fa 49 bd 14 ed c6 bb dd cc 30 bd c5 fa 2d 3d
       -0.04931158 -0.0060707424 -0.043164123 0.04247548
000070 34 2f 87 3d ef c6 81 3d 70 e9 0e bd 88 a4 94 3c
       0.066008 0.06336772 -0.034890592 0.01814486
000080 f3 58 03 bc c0 e3 86 bd dc 97 48 bd ff 99 d4 3c
       -0.008016813 -0.065864086 -0.04897295 0.025952337
000090 8e 4b 85 bd c9 5b 28 3d 58 f4 88 bc cb 9f 6f 3d
       -0.065085515 0.04110316 -0.016718075 0.058502
0000a0 3c 59 0e 3d 7d 07 83 bd 07 36 15 3d 5b 8b 22 bc
       0.03475307 -0.06397913 0.036428478 -0.00992092
0000b0 ee 65 49 3d f0 08 5d 3c 41 fc 12 3d e5 ba 79 3d
       0.049169473 0.0134909 0.0358851 0.060969252
0000c0 93 72 9c bc f4 ff b8 3a 94 fa 36 bc c3 a0 90 3d
       -0.019097602 0.0014114366 -0.011168141 0.07061913
0000d0 f9 f5 b2 bc bf fe 92 3c 0f db 8b 3d c7 49 d1 3c
       -0.021845805 0.017943738 0.068288915 0.025547875
0000e0 1e ad ef bc 99 84 cd 36 25 f8 ee bc c3 64 68 bb
       -0.029257353 6.1249125e-06 -0.029171059 -0.003546045
0000f0 ab ce 51 bd 37 a8 53 3c 52 2b 0e 3c b7 98 80 bd
       -0.051222485 0.0129185235 0.008677321 -0.06279128
000100 b6 24 98 3d fe a8 89 3c ee 0a 1a 3d 29 e2 41 3d
       0.07428877 0.016804215 0.03760808 0.047334824
000110 f0 86 ad bb f3 87 cb bc 7f 96 d9 bc 2a 0e 64 bc
       -0.005295627 -0.0248451 -0.02656102 -0.013919393
000120 a6 73 c4 bb af d4 9d 3c d8 87 c1 bb f5 50 ae 3b
       -0.0059952317 0.019266455 -0.0059060864 0.0053197094
000130 27 8e a4 bc 02 16 38 bd 7c 10 af bb 13 59 ad bb
       -0.020087315 -0.044942863 -0.0053425413 -0.0052901595
000140 7d 10 29 bd 1e 97 9a bc 37 d7 ca 3b 7e 00 21 3d
       -0.04127549 -0.018870886 0.0061902064 0.03930711
000150 b4 0a 22 bc 81 7c 2d bd 4c 68 c8 bc b1 3d d0 3c
       -0.009890247 -0.042355064 -0.024463795 0.025420042
000160 29 11 85 3c 38 64 8f 3c 1b 29 f7 bc 8a 43 c1 bb
       0.016243534 0.017503843 -0.030170968 -0.005897944
000170 85 91 8c 3d 58 0c f3 bc 33 09 95 bc af a3 16 bd
       0.06863693 -0.029668972 -0.018192863 -0.036777195
000180 b2 32 fe 3a b9 17 05 bd 4e 18 01 bd 54 60 04 3d
       0.001939377 -0.032493327 -0.03151732 0.03231843
000190 6f 24 5c 3d 20 0d 86 3d f8 91 25 bd dc b5 00 bd
       0.053745683 0.06545472 -0.04042241 -0.031423435
0001a0 26 69 31 3d d6 44 9d bc 18 49 13 bd ca 6b 65 3c
       0.043313168 -0.019197863 -0.03595838 0.01400275
0001b0 2d 82 97 3d 50 77 87 3c 68 90 45 3d 23 ee 06 bc
       0.07397876 0.016536385 0.04823342 -0.008235487
0001c0 63 54 35 bc d4 de 26 3d cb 1d f8 3c 9b e3 df bc
       -0.011067483 0.04073985 0.030287644 -0.02733021
0001d0 e1 bf 91 3c 5a 45 f3 3c ac 38 42 bd b4 3b 4d 3d
       0.01779169 0.029696155 -0.047417328 0.050105765
0001e0 c5 38 e5 bc 2a 5f 96 3d a0 df 35 3c 9d b9 3d 3d
       -0.027981171 0.0734237 0.01110068 0.046319593
0001f0 a9 70 99 3b fd 1f 17 3c 8e 02 a7 3c fa d8 63 3c
       0.0046826196 0.009223935 0.02038696 0.013906712

head.4.weight f4 [12, 128]
000000 eb d0 ad bd e9 a4 33 3d 59 df ac bd 94 25 90 3d
       -0.084871136 0.043858442 -0.08441038 0.070384175
000010 97 ff 66 3d bd cc e2 3c 44 72 66 3c 94 e2 eb bc
       0.056396093 0.027685517 0.014065329 -0.028794564
000020 2e 4e db bc 3b fa 86 bd 71 aa 5d 3d 58 1b 00 bc
       -0.026770677 -0.065906964 0.054117624 -0.007819019
000030 c3 c5 ea bc a3 07 19 3d 5b a6 40 3d 7a 78 04 3d
       -0.028658753 0.0373608 0.04703365 0.032341458
000040 5b 6b ae bd 44 74 c2 bd bd db b4 bb 7d 38 95 bc
       -0.0851657 -0.09494832 -0.005519359 -0.018215412
000050 e5 2b 0a 3c 59 e0 db bd d2 ed 6f bb dc 2f 37 bc
       0.008433317 -0.1073615 -0.0036610258 -0.011180844
000060 be 01 3d 3d 53 e4 65 3d 0c b2 bb 3c b4 e6 4e bc
       0.04614424 0.05612595 0.022912048 -0.012628246
000070 ee 4e b1 bd 37 a4 00 3d 47 a0 23 3d 2f b0 3e 3d
       -0.08657633 0.031406607 0.039947774 0.04655474
000080 ad a9 0f 3d 8e 0f 45 bd da 18 36 bc cd 6e 84 3c
       0.035073925 -0.048110537 -0.0111143235 0.016166115
000090 76 ad 31 3c 4a 27 e1 bd 14 50 42 3c ea 10 3b 3c
       0.010844579 -0.10993822 0.011859912 0.011417607
0000a0 d1 a0 86 bd 4f 47 28 3d e8 6e a9 3a b1 df 24 3d
       -0.06573642 0.04108363 0.0012926729 0.04025239
0000b0 2f a4 21 bd 7c 03 7a bd 62 3f d9 bd 3f c5 51 3b
       -0.03946322 -0.06103848 -0.106077924 0.0032008437
0000c0 94 53 c0 bd b1 da e2 bd 52 1c 5c 3d b0 d3 87 bc
       -0.09390941 -0.11076868 0.053737946 -0.016580433
0000d0 b4 2e a7 bd 25 85 67 3d 67 b4 87 bd f3 35 34 bd
       -0.08163205 0.05652346 -0.06626206 -0.043996762
0000e0 db 0a 9f 3d f9 5c 0b 3b 63 31 97 3d 7e a1 86 3b
       0.077657424 0.0021265133 0.07382467 0.004108607
0000f0 54 95 b6 bb 8d 2c 31 bc 98 f3 07 bd 56 69 d0 3d
       -0.0055720005 -0.010813844 -0.033191293 0.10176341
000100 22 6f d0 b8 cd cd 86 3d a2 10 ac bd e6 bc 86 bd
       -9.938913e-05 0.06582222 -0.0840161 -0.06578998
000110 83 57 bc 3c 8a cf 26 bd b6 98 75 3c 45 99 57 3c
       0.022990948 -0.04072527 0.014990022 0.013159101
000120 83 b0 96 bb 9a 23 de bc f4 e2 08 3b 12 fd d0 bc
       -0.0045986786 -0.027116586 0.0020887228 -0.025511298
000130 39 9a d2 3c 54 26 ad bc 6e 13 8e 3c 04 3c 1e 3c
       0.025708305 -0.02113644 0.01734325 0.0096578635
000140 4e f6 42 bd 9b 3e 82 bd da 28 74 3d 5a df 5a bb
       -0.047598176 -0.06359597 0.05960927 -0.0033397288
000150 64 82 05 3d b1 fd 7d 3c ed 5b a4 bd b9 54 85 3d
       0.032595053 0.015502379 -0.08025346 0.065103
000160 9a 08 87 bc 1e a7 20 bd df 23 97 3c 1d 50 d2 ba
       -0.016483594 -0.039221875 0.018449722 -0.0016045604
000170 f6 08 bb bd 9e aa 85 bd 09 12 17 3d 22 67 41 3d
       -0.091325685 -0.06526683 0.036882434 0.047217496
000180 29 1f a6 3c 7f c7 87 3d c4 fd 0b bd 3c f0 90 3d
       0.02027853 0.06629848 -0.034177557 0.07077071
000190 46 99 99 bd 37 fc b3 3c 7d 34 52 3d 9e d2 90 bc
       -0.07499938 0.021970851 0.051319588 -0.017678555
0001a0 7c ab 56 bd 71 3a bf bd f2 c2 c6 bd 4e a0 1e bd
       -0.052409634 -0.09337319 -0.097051516 -0.038727097
0001b0 56 b0 8d bd 3e 5f 81 3d f6 a3 fa 3c df 6c 78 3c
       -0.06918399 0.06316994 0.03059576 0.015162676
0001c0 af 37 0c 3d d4 78 60 bd b4 aa 7c 3d 57 cf 21 bd
       0.03423279 -0.05480273 0.061686233 -0.039504375
0001d0 cf a4 87 3d 65 42 5d 3d cd ca 8d 3d e8 69 00 bd
       0.066232316 0.054018397 0.06923447 -0.031351
0001e0 ad 3d 42 3d 86 1f b4 bd 5a 10 9a bd fe 37 d4 bd
       0.0474221 -0.08795075 -0.0752265 -0.10362242
0001f0 31 ef c1 3c 45 13 87 3d b0 df ec bc 89 55 75 bd
       0.023673626 0.06595472 -0.028915256 -0.059896026
000200 1c 1a a5 bd 01 82 88 bc f3 ad 22 3b 19 39 b8 bd
       -0.080616206 -0.016663553 0.002482292 -0.089952655
000210 ae 2e cf bd ad 3b 88 bc cc cb 58 bc 65 5d 2c 3d
       -0.10116325 -0.016630018 -0.013232183 0.042081255
000220 0a cc 84 3d f3 b7 0d 3d 73 54 2d bd f0 64 69 3c
       0.0648423 0.034599256 -0.042316865 0.014245257
000230 b1 f1 89 bc 22 fe 07 bd 17 ba d3 bd 45 38 07 3c
       -0.01683888 -0.033201344 -0.10338228 0.008253162
000240 71 a4 13 3c 34 cf 9b 3b f1 13 33 bc 0f 0c 97 bd
       0.009011374 0.004754925 -0.010930047 -0.07375347
000250 b9 24 29 3c 32 60 c8 3c 69 41 5b 3d 69 9e 44 3d
       0.010323697 0.024459932 0.053529177 0.048002634
000260 fa ac 55 3d cf 48 60 bc 23 2c 4f bd f4 9b 6e bd
       0.052166916 -0.013689234 -0.0505792 -0.058254197
000270 fd 8c fb 3b c0 67 07 3d b4 25 03 bd b6 03 f7 bc
       0.007676719 0.033057928 -0.03201838 -0.030153137
000280 ea 92 12 bd cc 56 08 bd f1 f4 dd bc 1a 5d 77 bd
       -0.03578464 -0.0332859 -0.027094336 -0.060391523
000290 b5 c8 09 bd e4 5e fd bc cd b6 e5 3c d2 b0 35 bc
       -0.033638675 -0.030929036 0.028041268 -0.0110895205
0002a0 bc b3 30 3d 26 7b b4 bd 11 6a 82 bd f5 fd 89 b8
       0.043140158 -0.08812551 -0.06367887 -6.579972e-05
0002b0 87 0c be bd df cd 95 3d 24 51 95 3c 49 10 ad bd
       -0.09279733 0.073146574 0.018227167 -0.08450372
0002c0 b8 85 91 3d 6a cf 53 bd 53 df b7 bc 35 60 d8 bc
       0.07105583 -0.051711477 -0.022445356 -0.026413063
0002d0 7a 5f 22 bd 44 08 2c 3d 3d 11 0d 3d 8a d4 80 bd
       -0.039641835 0.04200007 0.034440268 -0.062905386
0002e0 66 07 47 3d ce c8 e3 b7 85 b1 0f 3d 63 00 0c 3d
       0.04859104 -2.7154016e-05 0.035081405 0.034180056
0002f0 6a d3 2e bd 39 b0 c5 bd 77 a3 10 3c 66 1d c5 3c
       -0.04268209 -0.096527524 0.008828036 0.02406187
000300 7c 85 f4 3c d7 e3 23 bd ce 81 d3 3c 4d ee 70 bd
       0.029848807 -0.040012207 0.025818732 -0.05882101
000310 1c 9c 8c bc 3f 78 ba bc 98 cc 1d bd b2 bd c3 bd
       -0.017164283 -0.022762416 -0.038525194 -0.09557666
000320 94 e2 4d bb d9 a4 c0 bd c5 41 4b bc 44 36 ca bc
       -0.0031415569 -0.09406442 -0.012405817 -0.024684079
000330 53 69 fb bc fc 0b de bd 71 18 c6 bd 5c 2d 96 bd
       -0.030689871 -0.108421296 -0.096726306 -0.0733287
000340 0b 2f ea 3c f2 ba e2 3c 1d 4d 93 bd 66 c8 b0 bc
       0.028586885 0.027677033 -0.071924426 -0.021579932
000350 69 d2 d6 bd 93 25 7a bd 1f 2b ce bd 17 1e b2 bd
       -0.10489351 -0.06107099 -0.100668184 -0.086971454
000360 3b a4 a3 3c 6f b8 22 bd d1 e0 3d 3c e6 58 ab 3b
       0.019975772 -0.03972667 0.011589245 0.0052291034
000370 60 88 83 bd 8d 06 cc 3b ba 7d 41 3d 37 ca e1 3b
       -0.06422496 0.006226367 0.047239043 0.006890561
000380 8d 8f 8e bc 06 a5 48 bd 37 ef c6 bd bd d6 9c 3d
       -0.017402435 -0.048985504 -0.09713595 0.076581456
000390 cf a0 82 bd c3 53 28 bd 4e 2d 98 bb e4 35 31 bd
       -0.06378328 -0.041095506 -0.0046440726 -0.043264285
0003a0 12 f5 78 3d 21 30 43 bd 87 cb 77 bd ad e0 0c bb
       0.060780592 -0.04765332 -0.060496833 -0.0021496222
0003b0 1b ef 9e bd fc 19 07 bd 40 f5 65 bd 24 1b 71 bd
       -0.077604495 -0.032983765 -0.05614209 -0.058863774
0003c0 f7 7b bc ba fd ec 49 3c 66 a3 7b 3d 57 d5 9a bc
       -0.0014380206 0.012324569 0.061435126 -0.018900556
0003d0 86 aa 80 3d 64 2f 9d bd c7 e4 f1 3c a9 fe 90 3c
       0.06282525 -0.07675055 0.029528035 0.017699556
0003e0 4c 72 1d 3d 05 2c 6a bd d6 a5 4f 3c b4 0a 44 3d
       0.03843908 -0.057170887 0.012673816 0.04786177
0003f0 74 0f b9 bd 0e 94 94 bd fa 14 39 3c bd c3 8b 3d
       -0.090361506 -0.07254802 0.011296505 0.068244435

head.4.bias f4 [12]
000000 59 f1 d9 bc 76 8c 2e 3d b9 ab cb 3c 1c 97 2a 3d
       -0.026604341 0.042614423 0.024862157 0.041648015
000010 00 ec 43 3d bd 22 00 3c a5 b0 2d 3d 71 8c 64 bd
       0.04783249 0.007820782 0.04240479 -0.055797998
000020 76 87 68 3b 8b fc c2 bd a6 0e fb bc 94 37 b8 bc
       0.0035481132 -0.09520825 -0.030646633 -0.02248744
