fault_model_nn_allprior_22_33kv_without_lstm/best_Y2020.pt (torch, 246328 bytes, 7 tensors)

emb.weight f4 [219, 16]
00000000: 1f5f bcbf 3497 54bf 39f9 ecbe fe21 723f
00000010: 9672 f63d dc63 123f 9bd4 7b3d 4e83 82bf
00000020: f70d ea3e d2c6 1e3f 119f 16bf e0be febe
00000030: 9fd0 efbe 6b37 86be 8c49 703f 2d0f 7abf
00000040: 36e1 01bd 36be 813f 39fc 3d3f 5f91 53bf
00000050: 56e3 44bf fcbf 92be 4925 513f faec bcbf
00000060: a7c7 debe 9526 913f 1a3a 4640 d9e0 f7be
00000070: a9a1 203f 5a5b 95be 799b b53d 4a53 81bf
00000080: 8922 3ebf a979 d3bf 6036 84bf 616f 7d3f
00000090: 83dd 13c0 b286 173f 8770 323f 3c21 973f
000000a0: 70c9 bbbf 44a4 ea3f a4ce 0b3e 2b47 acbf
000000b0: 9fae e43f 806d 7a3f 5fb2 93bf abff 4ebf
000000c0: cf82 27bf 05a0 7d3f 2814 953e 0350 5abf
000000d0: 142d 993f 3119 34bf 36d9 943f 1f9a 12be
000000e0: 5338 c53e e0c6 1c3f 8b95 b23d 7bc7 133f
000000f0: e636 84be f809 b8be 703f 75be 63ad cabd
00000100: ebe1 c6be 8266 a33e e661 b03f 7a90 2c3f
00000110: d430 013e ead9 93bf e8f2 5dbf b127 b73d
00000120: d896 1c3f e552 3dbe 4618 c0be 7285 7bbd
00000130: e0cb 4f3f 66a2 18bf 961f eb3e 64e4 9e3f
00000140: 12a3 cd3f e0bc 113f 7fbb 853e 763e 4ac0
00000150: 2277 543f 5691 07c0 fb13 fd3e b751 9dba
00000160: 428b a7bf 204e 56bd 7773 a5bf 62fc 18c0
00000170: 007a 383f 5399 ec3f 8a00 1abf dc4c d83f
00000180: 8e63 b03f 51f3 4ebf 8404 9b3f c695 d6be
00000190: c55d 803e 5401 b43f 2de2 193f b89c 083d
000001a0: b329 0940 d08f 14bf cec3 cebe 052f 9dbf
000001b0: ffff 5c3f 3404 f8be b930 25bf 4c99 033e
000001c0: 501b f4be 093b 0a40 cb79 b9be 2484 a1be
000001d0: 8396 0540 305e b53e c0f0 423f e966 133f
000001e0: e42e bf3f 3a55 8dbf d9c7 7abf 3b3b 86bf
000001f0: 8c92 1abf 836c 383f f506 a93e 39d7 d7be
00000200: 89bb 693f 7548 4e3f 7658 20bf f70a 103f
00000210: 21fd d0be 118c 873f 819e 623e 910a c23e
00000220: 395c 9b3f 0a4b 10bf a7e4 e2bf de53 0d3f
00000230: 29de 733f b585 de3f 7905 02bf a660 61bf
00000240: 5e3c 9c3d b15f 8a3f 4f16 5cba 41a2 3e3a
00000250: 745b 913c bc90 ef3e cb7d b43e 0358 883e
00000260: 422b 5b3f 8a7e cdbf b13f 87bd ae80 88bf
00000270: 0536 023f a9ef 893f 41fb 023f b627 3bba
00000280: aee3 8c3f e4dd 2ebd 5f89 07bf e3c3 a5bf
00000290: eb4a 88bd deb7 713f 951d 2bbf 7c55 d53d
000002a0: 71d7 b8bf 9478 3d3e 2284 d0bd 8e82 04c0
000002b0: 07ce b1bf 4537 a93e 070e 38bf 5e9b 833e
000002c0: 6bde 93bf b753 90bf e4ea 553d 2473 02bf
000002d0: e050 233e e509 adbe 7c7f ddbf 3ecf 30be
000002e0: b1b4 c53e d8c9 e53f 8060 5a3f 65b7 4c3f
000002f0: 35e8 203f 4334 9f3f 0ac6 bfbf 78cf 89bf
00000300: 11f4 7abf 53d4 1140 97c2 273f 94b2 d03d
00000310: 5d4e e63f d305 953f 77fe 503d 00c4 15bf
00000320: a959 4dbf c79d ab3f 14c7 553f 766e 1fbf
00000330: 51ff fb3c cf18 f6bf d820 9bbc d9bc 7f3d
00000340: 95cc 9abf fbfa 923f 7d05 cf3e 6983 cebe
00000350: fa03 cfbe 9fc1 7e3f 7e8f 5d3f bf97 19be
00000360: 6e5f 8440 1e54 0fc0 798d 7d3e 7fd7 7ebe
00000370: a16e 383e c8a3 4dbe 3b38 f2be 172b afbe
00000380: ad26 ebbe f70a 8abf d1d4 1bc0 dc8f 36bf
00000390: 4620 803f 5482 5d3e f840 2fbe e4ea 7cbf
000003a0: 2f43 6fbf b760 a1bf e80f 8dbf 79a1 babf
000003b0: 1c11 99bf f3a6 5d3f 44fb b83f ed74 793f
000003c0: 876e a7bf 069c 66bf 2e36 8abf 9006 eb3f
000003d0: 18a5 e0bf 1f81 363f c232 a53f 57ce 2d40
000003e0: b33f 3f3f 329f 833e 9b11 6b3e a807 3b3e
000003f0: 93dd 073f a5de 333e 5a60 54bf bbc6 173e
-1.4716529 -0.8304322 -0.46283892 0.9458312 0.12033574 0.57183623 0.061482053 -1.0196321
0.4571378 0.62022126 -0.58836466 -0.49755 -0.46838853 -0.26214156 0.93862224 -0.97679406
-0.03170892 1.0136173 0.74212986 -0.82643694 -0.7690939 -0.28662097 0.8169752 -1.475982
-0.43511698 1.1339899 3.0972962 -0.48413733 0.62746674 -0.29171258 0.08867545 -1.0103543
-0.74271446 -1.6521503 -1.0329094 0.98998076 -2.310395 0.59189904 0.69702953 1.1807017
-1.4670849 1.833138 0.13653046 -1.3459219 1.786579 0.97823334 -1.153881 -0.8085887
-0.65433973 0.99072295 0.2911694 -0.8527834 1.1966882 -0.7035094 1.1628788 -0.14316605
0.38519534 0.6124096 0.08719929 0.5772626 -0.25823134 -0.35945106 -0.2394998 -0.09896352
-0.38844237 0.31914145 1.3779876 0.67407954 0.12616283 -1.1550877 -0.8669877 0.089431174
0.6116767 -0.18488653 -0.3751852 -0.06140656 0.81170464 -0.596228 0.45922536 1.2413449
1.606539 0.56928825 0.2611961 -3.1600623 0.8299428 -2.1182456 0.49429306 -0.0012002502
-1.3089373 -0.0523206 -1.2925862 -2.3904042 0.7206116 1.8484291 -0.6015707 1.6898456
1.3780382 -0.8084002 1.2110753 -0.41911143 0.2507154 1.4062905 0.6011074 0.033352584
2.14317 -0.5803194 -0.40383762 -1.2279974 0.8632812 -0.48440707 -0.6452747 0.12851447
-0.47677088 2.1598532 -0.36225733 -0.31546128 2.0873115 0.35423422 0.76148605 0.57578903
1.4936185 -1.1041634 -0.97961193 -1.0486826 -0.6037986 0.72040576 0.3301312 -0.4215639
0.9130178 0.8057931 -0.6263498 0.5626673 -0.40818122 1.058962 0.22130777 0.37898687
1.2137519 -0.563645 -1.7726029 0.55206096 0.95260864 1.7384554 -0.507896 -0.880381
0.076287016 1.0810453 -0.0008395658 0.00072721025 0.017743804 0.4679011 0.35252222 0.26629648
0.8561288 -1.6054242 -0.06603945 -1.066427 0.5086368 1.0776263 0.51164633 -0.0007139401
1.1006982 -0.04269208 -0.52943987 -1.2950405 -0.066549145 0.94421184 -0.66842014 0.104166955
-1.4440747 0.18503028 -0.10181452 -2.0704684 -1.3891 0.3304998 -0.71896404 0.25704473
-1.1552252 -1.1275548 0.052225962 -0.5095694 0.1594882 -0.3379661 -1.730453 -0.17266557
0.3861442 1.7952223 0.853035 0.7996734 0.6285432 1.2437824 -1.4982312 -1.076644
-0.98028666 2.2785842 0.65531296 0.10190311 1.7992665 1.1642402 0.051023927 -0.585022
-0.80214936 1.3407525 0.83506894 -0.62277925 0.030761393 -1.9226321 -0.01893656 0.06243596
-1.2093683 1.1482843 0.40433875 -0.40334633 -0.4043272 0.9951419 0.86547077 -0.14999293
4.136649 -2.239509 0.24760999 -0.24886893 0.18010952 -0.20082009 -0.47308525 -0.34212562
-0.45927945 -1.0784596 -2.4348643 -0.7131326 1.0009849 0.21631747 -0.17114627 -0.98795915
-0.9346189 -1.260764 -1.1020479 -1.4580528 -1.1958346 0.8658287 1.445168 0.9744404
-1.3080605 -0.9008182 -1.0797784 1.8361378 -1.7550383 0.71290773 1.2906115 2.715719
0.7470657 0.25707394 0.22955935 0.1826464 0.5307247 0.17565401 -0.8295952 0.14821903

head.0.weight f4 [256, 88]
00000000: 5681 3b3c 496c e03c 879d 86bd 03ce 033b
00000010: 2208 c8bd 09bf 5ebd 0900 44bb 8d84 9abd
00000020: 586c 3e3a e8d6 293d 90e4 45bc e63f 2f3d
00000030: 9abc 03bb 1ad0 acbd 0758 f6bc 97bd 933d
00000040: bc68 12bd 4e03 37bd ab07 02bd b77b bb3d
00000050: 0ff0 50bc 61d4 f1ba 9f03 d8bc 666d b23d
00000060: 4093 da3c 6a90 043d 7c7d 28bd 590b 2f3c
00000070: 02e6 bd3d 805f 85bd a3ad 303c 65cb a2bd
00000080: 8cfd 50bd 0a3b 023b 92b0 633b 022e 80bd
00000090: ab15 a9b9 0d5f 713d cab1 673d 23a3 353b
000000a0: ec80 89bd f59b 85bc 4ec1 3fba cafe 89bd
000000b0: fe03 523d 4ab2 12bd ccb4 c8bd dc52 2e3d
000000c0: 1118 d63b 7d44 5abd d7a7 b43d 74e2 7d3d
000000d0: 80fd 7d3d b17c f53c 1b7f 463c 90da 883c
000000e0: 3a24 b1ba 830e 7e3d d230 523d ec3e 0dbb
000000f0: 5d8b 01bb 1f8c adbd dacd 01b9 5ace a0b9
00000100: bd43 c43d 23d5 0d3d af61 4e3d c021 1bbc
00000110: ba20 5e3d f786 30bc b243 31bc a7eb 403d
00000120: 5f5e 95ba 6355 a83d 53ec 4c3d fdba 11bd
00000130: d3c7 4f3c c52e 20bd e0ee ed3b 0350 f83c
00000140: 664e 4f3d 7138 2c3d 8eaa 983d 9a83 d7bc
00000150: af7d 673c 7dcd a83d ff6f e9bc fd7f 583a
00000160: 8f47 0fbd 2782 8cbd ce50 81bd cd65 97bd
00000170: a12c 643d fe08 81bd 4d54 783d ffe3 c83d
00000180: 9f3c 8ebc 9cd1 cbbd 00ed 97bd 45eb 47bc
00000190: 0dc5 4f3d 3226 a63d ba78 923d 0bfc ce3d
000001a0: 4a97 0fbc 7fbe 713c 8a49 45bc 2a1f 963d
000001b0: 14b0 d5bd b7a8 433c 3d7f 95bd 559e a0bd
000001c0: 8140 57b9 72a8 8e3d aa1a 393d 57ea db3d
000001d0: 6f8c c7bd 5226 b23d 4226 aebd 0db5 e4bc
000001e0: 7976 573d 95ed c93b 2364 1939 2fe7 d23b
000001f0: 0a1e 0b3d 86f8 eabc 66b4 ad3c 1d3e f1bc
00000200: a3e0 97bd 6dd0 ca3d 01a7 da3d 7684 bd3d
00000210: 4d70 85ba 3ea6 49bd 598f 643d c051 603d
00000220: 7458 81bd 3654 c33d 6a3f 8f3d eb9b cb3d
00000230: 44f5 7338 c0d9 e7bd 294c b43d 7c63 eebc
00000240: b031 ba39 53ac 443d b0a8 7d3d f90e 08bd
00000250: 2d57 04bc d581 623c 2e63 80bd 355a 3f3d
00000260: d06f ba3c 562c a13d a8d7 7ebb ec1a 863c
00000270: b475 403d 92b2 56bd ea93 ff3b b5d3 393d
00000280: d7da 983d a651 9bbc 420f adbc 39e8 773d
00000290: dc0d c9bd 2c97 a7bd 37ef 003d 8c72 5cbd
000002a0: bf76 8a3b 7721 8ebc 7779 b8bd 6f87 cd3c
000002b0: dfe7 af3d a6ba 023e a836 55ba 1d9c 03bd
000002c0: 6424 90bd c43e b03b 7984 5ebc 5af3 0c3d
000002d0: fd1f 373d 22c0 ec3d b4c6 043d ea30 a43d
000002e0: a134 e7bb 175f c8bb 1450 563d e6d7 783b
000002f0: ae76 963d e59c 2cbd cfdb 8ebc 1813 cc3d
00000300: 3657 87ba 2745 923d 086c 48bd f0ac 4fbd
00000310: b368 843c 29cf 883c 5abe ecbd 6513 d9bd
00000320: cb86 9fbc c81b 6abc 2d7d 603d f81f 97bd
00000330: a104 67bd a8f8 6cbd d330 9c3d 99aa 5b3c
00000340: e040 253d 664d 623c d23e 0839 c46e e73d
00000350: b1a0 92bc 8814 533d ec5d c93d c7fb c73d
00000360: f2d1 a73d 1730 933d 9d5f 12bd beac b43d
00000370: 089b 6bbd e3fa 923c ea9d d93d 5145 0bbd
00000380: a69a cdbb 626f f93b eb9f bf3b de02 08bd
00000390: 12c4 fc3a 6071 d3bd ef53 35bd 4d3b 70bd
000003a0: 11ec a63d a786 5b3d 8121 89bd e11f 333d
000003b0: e159 243b 00c8 013d e560 4e3d de84 7cbc
000003c0: 0804 a6bc 8c68 f53d 89bd aebd 5352 e4bd
000003d0: 4f52 4e3c b5dd a73d b1ff f53a d1d3 aa3d
000003e0: 7904 aa3d fd02 c9bd 2814 653d b27f 7abd
000003f0: f4e3 83bd 17dc b9bd 0675 bbbb c2f1 3dbd
0.01144441 0.027395384 -0.06573015 0.0020111806 -0.09767176 -0.054381404 -0.0029907248 -0.07544813
0.0007264069 0.041464716 -0.012078419 0.042785548 -0.002010143 -0.0843813 -0.030071272 0.07213896
-0.035744414 -0.044680886 -0.031745594 0.09154456 -0.012752547 -0.0018450135 -0.026368914 0.08712272
0.026681542 0.032364286 -0.041135296 0.010683858 0.09272386 -0.06512356 0.010783586 -0.07948951
-0.05102305 0.0019871616 0.0034742695 -0.06258775 -0.00032250336 0.058928538 0.056566037 0.0027715645
-0.06714043 -0.016309718 -0.00073148764 -0.0673805 0.05127334 -0.03581456 -0.09800109 0.04255949
0.0065336307 -0.05328797 0.088210754 0.06198354 0.062009335 0.029966684 0.012115265 0.016705781
-0.0013514825 0.06202556 0.05131609 -0.0021552397 -0.0019766905 -0.084739916 -0.00012379084 -0.00030671322
0.095832326 0.03462709 0.050386127 -0.009468496 0.05423043 -0.010774366 -0.0108193625 0.047099736
-0.0011395923 0.08219411 0.050030064 -0.035578717 0.012681919 -0.039107103 0.007261142 0.03031159
0.050611876 0.042046014 0.07454406 -0.02630787 0.014129086 0.08242319 -0.028495787 0.0008258818
-0.034980353 -0.06860762 -0.063142404 -0.07392464 0.055706624 -0.06300543 0.06062727 0.09809112
-0.01736289 -0.09952089 -0.07418251 -0.012202089 0.05072503 0.08112754 0.07151933 0.10106667
-0.0087640975 0.01475489 -0.012041459 0.07330163 -0.10433975 0.01194208 -0.072996594 -0.078426994
-0.00020528027 0.06965722 0.045191444 0.10738056 -0.097435825 0.08698715 -0.08503391 -0.027918363
0.05260322 0.006162355 0.00014628521 0.0064362506 0.033964194 -0.028682958 0.021204185 -0.029448563
-0.07415893 0.09903035 0.10676385 0.092537805 -0.0010180563 -0.049230807 0.05580077 0.054765463
-0.06315699 0.09537546 0.06994517 0.09941848 5.8164136e-05 -0.113208294 0.08803589 -0.029100172
0.00035513705 0.048015904 0.06192845 -0.033217404 -0.008077425 0.0138249 -0.06268917 0.046716888
0.022758394 0.078697845 -0.0038885865 0.01637026 0.04698725 -0.05241639 0.007799615 0.045367915
0.074636154 -0.018959831 -0.02112544 0.0605242 -0.098170966 -0.081831306 0.031478133 -0.053820178
0.0042255814 -0.017349942 -0.090075426 0.025088994 0.08589148 0.12766513 -0.00081334496 -0.032131303
-0.07038191 0.005378576 -0.013581389 0.034411766 0.04470824 0.11560084 0.03241606 0.08017142
-0.0070558344 -0.006114851 0.052322462 0.0037970482 0.07346855 -0.042141814 -0.017438797 0.09964579
-0.0010325674 0.07142096 -0.04893115 -0.050702035 0.016163206 0.016700344 -0.11559744 -0.10599402
-0.019473454 -0.01428885 0.054806877 -0.073791444 -0.0564009 -0.057854325 0.076265 0.013407373
0.040345073 0.013812399 0.00012993373 0.11300424 -0.01789889 0.051533252 0.09832367 0.097648196
0.08194341 0.07186907 -0.035735715 0.088220105 -0.057520896 0.017941898 0.10625823 -0.034001652
-0.006274539 0.007612155 0.005847921 -0.03320586 0.0019284508 -0.10324359 -0.0442695 -0.058650304
0.08150495 0.05359521 -0.066958435 0.043731574 0.0025077986 0.031684875 0.050385375 -0.015412537
-0.020265594 0.11982831 -0.08532245 -0.111485146 0.012592866 0.08196584 0.0018768219 0.08341182
0.08301634 -0.09815023 0.055927426 -0.061156936 -0.06439963 -0.09075182 -0.0057207374 -0.046373136

head.0.bias f4 [256]
00000000: a120 453d cfa3 893d 92ff 88bd 9744 f23d
00000010: b18c 4bbd 9a86 12bc bc7b 443d efdb 9c3d
00000020: e67c 473d 0c27 1dbc 0025 a63d 81c0 c43d
00000030: 53c7 293d c1ec a0bd 7440 483d 4d8d 9dbd
00000040: 70bb 15bc 31b0 a1bd 8401 f03d 24fd 313d
00000050: 5730 a2bd 3f0b 00bc 505f 593d 0c80 c63d
00000060: aefc dc3d cbb9 0ebb 3142 a53d 3a27 873d
00000070: 5161 dd3c a251 8b3d 6b65 b23a 541a 5bbc
00000080: 7ee6 e63d 6638 8bbd 3504 cc3b 4137 babd
00000090: 766c b43c eb1f 8abd 9606 233d 3d2b 31bd
000000a0: 51e4 ee3d ed0a b2bd 4437 19bd d0eb b83d
000000b0: 090d 94bd 26eb d03c 7d08 80bd e313 523d
000000c0: 6086 cb3d a770 ab3d 310a 053c 2d7d 9b3d
000000d0: 97d8 5e3c 3845 f7b9 f9bf df3c 01ef 17bd
000000e0: 39d8 8d3d 733c f53d 753b be3d 5f78 33bc
000000f0: 2e24 e73d 1379 c4bc e137 78bd 03f3 78bd
00000100: eec1 a03c 15f8 783a 76e2 81bd 2787 89bd
00000110: 922d d43d 3869 cc3d 1f9c e13d e7fc a53d
00000120: 6d5f 2e3d e1c1 7b3b 1a5e 4fbd 88fb c73d
00000130: 3e6b 87bd 6de7 873d a59a fe3d e01d 46bb
00000140: 5d29 a9bd a61f d4bd ad7b 82bd b824 383d
00000150: a3eb 96bc 96d3 d4bd 219d 05bd f6a3 893d
00000160: 7641 aaba da8e 3f3d 979e 20bc 650d 58bd
00000170: dfa2 0a3d b0af ef3b abd2 af3c 460e 1fbd
00000180: b5d4 8dbd 9571 79bd e071 f1bc f4d5 1ebc
00000190: e502 0ebd c5ed 5c3d 4c7a 4dbd 057b f1bd
000001a0: 6ddc 11bd ee13 063c d87c 91bd fa6c 843c
000001b0: ce12 e8bd 8dab db3b 58ce c83d f479 92bd
000001c0: 145c 2bbd d0b4 6cbd 3345 8cbd 5bef 1bbc
000001d0: ca23 b0bc 58ef 9f3d ffd9 5b3d af2c b3bd
000001e0: 7287 21bd 5386 88bc ea38 53bd 41df 92bd
000001f0: bdb1 b93c 8197 d1bd fa7c b23c 1502 78bd
00000200: fcbb c33d ccdf d03d e3c1 bf3c f3ac 9e3d
00000210: d9d6 a2bd 5871 d2bc e503 b9bc daa7 6a3d
00000220: ac63 353d 3d0e 41bd 0980 683d e57a e4bd
00000230: 1ca6 92bd a66f e9bc 1288 163d 3cfd 93bd
00000240: c830 af3d 8b34 8f3d 1a4a 153d 7f6d f73c
00000250: b82b 95bd e7f6 f33d 7124 1fbb 6efd 853d
00000260: a714 d93d 23f8 a5bd 51a1 893d 6b6b 963d
00000270: 1d09 893d d95a aebd 5850 a8bd f955 ea3c
00000280: e24c 6f3d 67e0 fc3d b095 93bd d3a5 93bc
00000290: e6d3 40bd cd8f 5fbd c06e e9bd 0a92 5fbb
000002a0: 1308 c3bc 44e3 8ebd ef6e 3fbd f7fb c43d
000002b0: 7b22 c33d 8740 c8bd d0d0 453d 0c9b 94bc
000002c0: a48f fbbc 3238 e1bd 346a b8bd 8d1c c63d
000002d0: 7441 cb3d 8499 64bd beef 933c a3b1 f8bc
000002e0: f686 84bd 0eb3 143d 6e84 5dba 3ea2 ac3d
000002f0: 8373 7cbd e670 ad3d 595b 6abd d123 67bd
00000300: e2e5 863d e2d6 9cbd 7046 cdbd bc1f 05bd
00000310: 2722 ac3d acb9 51bd 6e29 013e e799 adbd
00000320: 44ac 8d3d 8d74 b1bd 9245 e2bd f3bb a23d
00000330: f2aa 9abd fa30 b3bd 8922 52bd 1210 fa3c
00000340: 977a 9fbd 88a6 293d f5b7 043d 3552 00bd
00000350: b0f5 d93d bd3d 3b3d ecdf d23d 745e 2e3d
00000360: 100a db3c 903b 81bd 1707 96bd b55a 8d3b
00000370: 3880 ea3d 3517 6cbc cba2 7abc f420 ec3c
00000380: 6b77 38bd b152 423d e7f4 0c3d fdcc ed3c
00000390: 926f 953d 9b0e 8abc 7933 66bd f2da ffbd
000003a0: d111 003d df3c ed3d 6552 15bd 0bdd f5bc
000003b0: 08f0 af3d 1cab 1a3c cc3b dcbc 698c b93c
000003c0: 2626 30bd 0d9f b63d 6689 7bbd 2676 d43d
000003d0: 22c0 5c3d f772 cd3d 1241 aebd c8f3 933d
000003e0: 0c37 3d3d 4730 623d d07e eabc ab7d 4bbd
000003f0: bc70 743d 6faf 23bd cc2d 4bbd f74a d33c
0.04812682 0.06720697 -0.06689371 0.11829489 -0.04969472 -0.008943224 0.047969565 0.076591365
0.048703097 -0.009591829 0.08112526 0.0960703 0.041449856 -0.07857657 0.048889592 -0.076929666
-0.009138927 -0.07894934 0.11719039 0.043454304 -0.07919376 -0.007815181 0.053069413 0.09692392
0.10790382 -0.0021778222 0.08069266 0.06599279 0.027023943 0.068026796 0.0013610547 -0.013372976
0.11274432 -0.067978665 0.0062260875 -0.0909257 0.022024374 -0.06744369 0.039801203 -0.043254126
0.11664642 -0.0869349 -0.03740622 0.09029353 -0.07229049 0.025502753 -0.06251619 0.051288497
0.09937739 0.08371096 0.008120106 0.07592235 0.013601444 -0.00047163083 0.02731322 -0.037093166
0.06926007 0.119744204 0.09288684 -0.010953992 0.112861976 -0.023983514 -0.060600165 -0.06077863
0.019623723 0.00094974163 -0.06342022 -0.067152314 0.10360254 0.099810064 0.11016106 0.08104878
0.042571474 0.0038415121 -0.05062685 0.09764773 -0.06612252 0.06635938 0.1243184 -0.003023021
-0.082598425 -0.10357599 -0.063712455 0.044956893 -0.018422907 -0.10391919 -0.032620553 0.06720726
-0.001298948 0.046767093 -0.009803436 -0.05274715 0.033846732 0.0073146448 0.021462759 -0.03883197
-0.06925336 -0.060899336 -0.029473245 -0.009694565 -0.03467073 0.053937692 -0.05016546 -0.11791042
-0.035610605 0.008183463 -0.0710389 0.016165245 -0.11331712 0.0067038 0.09804982 -0.07152167
-0.04183586 -0.057789624 -0.06849136 -0.009517516 -0.02150144 0.07809323 0.053674694 -0.08748757
-0.03943581 -0.016665613 -0.05156795 -0.071714886 0.02266776 -0.10233975 0.02178811 -0.06054886
0.095573395 0.10198936 0.023407882 0.07747831 -0.07951135 -0.025688812 -0.022584865 0.057288982
0.044284508 -0.04713272 0.05676273 -0.11156253 -0.07160589 -0.028495621 0.03675086 -0.07226035
0.08554226 0.06992444 0.036447622 0.030203579 -0.07283729 0.11912327 -0.0024283195 0.065424785
0.10599642 -0.08103969 0.06720222 0.07344707 0.06691191 -0.085134216 -0.08218449 0.028605448
0.05842293 0.12347489 -0.07206285 -0.018023407 -0.047077082 -0.0545805 -0.11398077 -0.0034114146
-0.023807561 -0.06976941 -0.046736654 0.09618371 0.09528061 -0.097779326 0.048294842 -0.018140338
-0.030708142 -0.109970465 -0.09004632 0.096734144 0.099245936 -0.055810466 0.018058654 -0.030358141
-0.06471054 0.036303572 -0.00084502145 0.08429383 -0.061633598 0.08468799 -0.057216022 -0.05643064
0.065868154 -0.07658173 -0.100232005 -0.032500967 0.084049515 -0.05120246 0.1261346 -0.0847662
0.06917623 -0.086648084 -0.11048426 0.07946005 -0.075521365 -0.08749576 -0.051302467 0.030525241
-0.07787054 0.041418582 0.032401998 -0.0313284 0.10642564 0.045713175 0.10296616 0.042570546
0.026738197 -0.06310189 -0.07325571 0.0043137916 0.11450237 -0.01440983 -0.015297602 0.028824307
-0.04503576 0.047442142 0.034413245 0.02902841 0.07296671 -0.016852668 -0.056201432 -0.124929324
0.03126699 0.11583876 -0.03645553 -0.030012628 0.08590704 0.00944021 -0.026883982 0.02264996
-0.04300513 0.08917055 -0.06141033 0.103740975 0.05389417 0.100316934 -0.08508505 0.07224232
0.046195075 0.055221822 -0.028624922 -0.049680393 0.059677824 -0.03996223 -0.049604222 0.025792582

head.2.weight f4 [128, 256]
00000000: 7aa0 a7bc 687d 5c3c c4b2 313d 16a1 343c
00000010: 3008 a33b 68cf a2bb d4a9 4bba 32e9 2339
00000020: c371 3dbc 2a02 3c3c 1d2f bfbc 4f94 303d
00000030: 872d 453c aabf 123d 8e67 273d d41f c1ba
00000040: d871 c33b a465 583c 80ba 4a3c 9f72 b03b
00000050: 324c 903c 3882 613c 438d a73b b4dc 5f3c
00000060: 135f 4c3c 4834 f03c 90f1 833c 0f8b 793c
00000070: 02ca 463c 33f6 dc3b 4a39 ebbb d721 553c
00000080: 5f90 033c 278b 853c 708c 65ba 6581 5c3c
00000090: b347 543c 944d 9b3c fb7b 133d 5fab ad3c
000000a0: 88fd 853c cf6e 033d 3e28 683c 000f c93b
000000b0: f12e 753c 8f64 5b3c fdec af3c acae e23a
000000c0: cac5 013c e03c 393c 84fe b33b 411a 563c
000000d0: bc54 90bc ac19 f43c 629c 943b eb59 2a3c
000000e0: 1f48 73bc a52e 5b3c c6e3 fc3b 1102 a33c
000000f0: 4cd4 843c b1ba 433c 558c 62bc 867f 3fbb
00000100: 8a9d 99bb 4769 133c e16e 2e3c 74ed 54bc
00000110: 555a 473c d86b 2f3d a20e 03bc 44c7 423b
00000120: ca08 653c e062 1d3d 1c2e 123c f92d 543c
00000130: 3775 4f3c 5f54 0a3d d014 8e3c 8362 30ba
00000140: a279 0eb9 32a5 113d 3b16 103a a447 2a3d
00000150: d046 073c 1a90 b0bb 2bbb 243c c099 6b3c
00000160: ff6a 263d c25e 8b3c b1ae 643c 4cd9 dc3c
00000170: eb96 de3b dac2 163c 4b28 343c 157d 9a3c
00000180: e8aa e23c 1685 4d3c 3521 3e3c e8d8 8d3c
00000190: 174d 7f3c 03ae 313d 2950 32bc a012 4cb9
000001a0: 79b9 793c 619f 813c 54a5 723c 838a ad3c
000001b0: 99c2 ccbb 3122 58bb 21bb 813c 279b 5c3c
000001c0: bc50 73bc 3ec8 65b9 4529 8f3c edd2 393c
000001d0: a5ad ab3c 12d9 903c 7147 5b3c fc40 213c
000001e0: 1503 763c 01f8 733c 78fb 183c 42d4 0b3d
000001f0: 3b49 613b 35ad af3b 9465 2b3d 33d3 b93c
00000200: 20e6 8c3c 1f32 363d 426d 5d3c 0e1a e33c
00000210: ff2f 8a3c b098 0ebc 0cf7 a4ba 2a87 f83c
00000220: c1ac 713c fc81 6e3c 251a 84bc ae60 ce3b
00000230: 7df7 a5b9 6eb3 a1bc 334e 8fbc 9910 5a3c
00000240: cf6b fcbb edc5 84bb 3cb2 5a3c 5601 403c
00000250: 11ed 76bc 5e4b 273c 3e28 923c 486b 323c
00000260: 9908 5d3c 6a0b 423c 1766 ae3c 8a75 723c
00000270: 8e0c 5a3c 5e83 4f3c 775e c13c ddb8 263d
00000280: 6170 90bc a78e dd3b ae2c 1bbc 676c 5d3c
00000290: d4e8 8d3c a5c1 edbc 91e1 063c 9698 a83c
000002a0: 72be a5bc d348 d13c 5242 673c 6616 eb3b
000002b0: 0144 293d 46ea 2abc 079a 96bb 5833 503c
000002c0: 8901 88bc e6e8 7d3c ae76 a8bc 5a5b c5ba
000002d0: 1862 713c c35a 5f3c 6ecd 923c 16fc 123b
000002e0: 10c6 413c d73d 263c 66f1 b63c 665a c53a
000002f0: ab43 a93c c6aa acbc d4a8 74ba c421 92bc
00000300: 1355 94bb cc80 403c a63d 9e3c 90d4 d73b
00000310: 9467 1f3d 9926 763c 8c2e f6bb 1d6b 4c3c
00000320: 7dc4 c13c b607 823c 1fce c0bc b448 743c
00000330: c4d8 063b 9441 8a3c 33fa 67bc f95a 65bb
00000340: d82b 823c 1312 a63c 7556 443c b8c8 813c
00000350: a9c8 97bc 1912 183c 0625 553c 39f5 633c
00000360: f86c d93c bc9d b13b 63c3 863c 6917 813c
00000370: 158f 623c 9fed 483a 07c9 fb3c e63f 3f3c
00000380: d03c 59bc 0a3c 6d3c 9693 183d 04b1 d839
00000390: e6dd 04bb c4ab 143c d8dc f039 27f0 9fbb
000003a0: 0662 06bc 8182 933c 86e4 0e3d 1c1d 7a3c
000003b0: 46cb 2b3c 94a1 d8bc 2498 df3c 54dd 1e3c
000003c0: d6d8 d8bb 8959 51bc 484e 3bba 4128 1f3c
000003d0: 691c 293d cb08 723c 45fa c33b f9b6 863c
000003e0: d7f4 9c3c 0aac 803c 8050 e43c 4eb6 513c
000003f0: 96e9 da3b 6e6a 643c a415 463d b730 003c
-0.020462263 0.013457634 0.043383375 0.011024734 0.0049753413 -0.0049685724 -0.0007769142 0.00015631763
-0.011562767 0.011475125 -0.023337895 0.043110188 0.01203478 0.035827316 0.04087024 -0.0014734217
0.005964499 0.013207827 0.012373567 0.0053847576 0.017614458 0.013763957 0.0051132753 0.01366346
0.012473839 0.029321805 0.016106397 0.015230908 0.012133123 0.0067432164 -0.0071784602 0.013008556
0.008030026 0.016301705 -0.00087565836 0.013458584 0.012956548 0.01895789 0.03600691 0.02119988
0.016356245 0.032088097 0.014169751 0.0061358213 0.014964805 0.013390674 0.02147531 0.0017294488
0.007920692 0.011306018 0.005492987 0.013067783 -0.01761853 0.029797398 0.004535244 0.010397415
-0.014848738 0.01337782 0.0077175824 0.019898446 0.016214512 0.011946366 -0.013827403 -0.0029220297
-0.0046879696 0.008997268 0.010646553 -0.012996066 0.012167533 0.042827457 -0.007999094 0.0029720822
0.013979146 0.038424373 0.008922126 0.012950414 0.012662224 0.03377187 0.017343909 -0.00067285466
-0.00013587487 0.035557933 0.00054964767 0.041572228 0.008256629 -0.005388272 0.01005439 0.014379919
0.040629383 0.017012957 0.013957665 0.026959084 0.006792893 0.00920173 0.010995935 0.018858472
0.027669385 0.012543937 0.011604597 0.017315343 0.0155823445 0.04337884 -0.0108833695 -0.00019461894
0.015241974 0.015823068 0.014809925 0.021184212 -0.006248784 -0.0032979364 0.0158363 0.013464726
-0.014850792 -0.00021913738 0.017475734 0.0113417925 0.020956824 0.017681632 0.013383732 0.009842154
0.015015383 0.014890672 0.009337299 0.03413797 0.0034375924 0.005361224 0.04184492 0.022683715
0.017199576 0.044481393 0.013514819 0.027722385 0.01686859 -0.008703396 -0.0012585833 0.030337889
0.01475066 0.014557358 -0.016125748 0.006298146 -0.00031655646 -0.019738879 -0.017493343 0.013309621
-0.0077032815 -0.004051915 0.013348158 0.0117190685 -0.0150711695 0.01021084 0.017841455 0.010889836
0.013490819 0.011843542 0.021288915 0.014798531 0.013308657 0.012665598 0.023604615 0.040703643
-0.017631711 0.0067613903 -0.009471102 0.013514615 0.017322935 -0.029023001 0.00823249 0.020580571
-0.020232413 0.02554742 0.014114933 0.007174301 0.04132462 -0.010431832 -0.004595998 0.012707554
-0.016602295 0.015497422 -0.020564403 -0.0015057132 0.01473286 0.013632479 0.017920222 0.0022428087
0.011827007 0.01014658 0.022331905 0.0015056848 0.02066215 -0.021077525 -0.00093330187 -0.017838366
-0.004526743 0.011749458 0.019316506 0.0065866187 0.03891714 0.015023851 -0.007512873 0.01247671
0.023653263 0.015872817 -0.023535786 0.014909912 0.002057598 0.016876973 -0.014158773 -0.003499685
0.015890047 0.02027229 0.011983504 0.01584278 -0.0185283 0.009281659 0.013009315 0.013913446
0.026541218 0.0054204147 0.01645059 0.015758233 0.013828059 0.0007664803 0.030735506 0.011672949
-0.013259128 0.014479646 0.037250124 0.00041330617 -0.0020273863 0.009074155 0.0004594091 -0.0048809233
-0.008202082 0.018006565 0.034885906 0.015265729 0.010485476 -0.026444234 0.027294226 0.009696323
-0.0066176457 -0.0127776945 -0.00071451487 0.009714187 0.04128686 0.014772604 0.005980762 0.01644467
0.019159717 0.015707035 0.027870417 0.0127998125 0.0066806776 0.01394139 0.04836048 0.0078241145

head.2.bias f4 [128]
00000000: 88ea 513b 3be1 8e3c 8c7c 3bbb 0ef4 493c
00000010: 8fb4 423a 6fda 2f3d ab44 72bd 3248 4a3d
00000020: f41d 843d 9dce b9bc 828f 463d cb00 e33c
00000030: 0544 363d eb00 1e3c 6f80 8bbc cf0c 38bd
00000040: fe85 a6bc f6e5 e2bc 796a 943d 8137 053c
00000050: a09d 89bb c1ab 873c bc31 eabc 2298 bcbc
00000060: 6337 223c 650a 8fba b303 e63c 674f 87bc
00000070: 374a c83b f2b9 3b3d f52c 36bd 8762 f13c
00000080: b949 f2bc a23b c0bb d243 1dbd 6870 db3c
00000090: 909a 3bbc 8fbd 903d b792 463d 3916 14bd
000000a0: adab e2bc 951a 423d c95e 5a3d 70cc 0cbd
000000b0: 5200 cabc 96ec 463d cc3f c83c 2865 e6bc
000000c0: 870a 88ba 1c73 973d 1c74 88bc 0b8a 45bd
000000d0: 793d 3fbc e7e1 933d 798e c3bb 3eb4 dc3c
000000e0: 5e40 0a3c 86f9 933d ab8e 903c 71c5 8ebc
000000f0: e156 573d 7846 c83c e0b0 8f3c 3406 08bd
00000100: 3634 033d 7c1d e9bc 835b ef3b 83a5 a13d
00000110: a1b7 8b3d e283 4d3c 3cfc fabb 239b 6fbd
00000120: 198a 813c 42c9 4b3d ce2f a2bc d6ef 4d3c
00000130: f9e3 733d e053 563d a347 1d3d eb83 533c
00000140: b607 ba3c cda9 57bd a634 3cbd 6794 47bc
00000150: 78d6 213d ec8d 05bc 69fd 92bc 83fa 3b3d
00000160: 1434 3d3d 91db 843c 51ad 3f3d 3a99 b4bc
00000170: 5538 483d 2e3c d13c 5e92 d5bc 8fff 11bc
00000180: 55af 3d3d 8b95 833d f683 2f3d 62e6 9d3d
00000190: a0be 39bd 4a86 0b3d 9429 5f3d ddde 0c3c
000001a0: 26bf 99bc 4160 1dbd 2c27 763c 671a 2e3d
000001b0: dc6f 2fbc cb7c 90bc 0fab 163d 433e d5bc
000001c0: 33bf b33c d93d 87bc b4a9 0c3d d835 3f3d
000001d0: 510c 9b3c 9cda 20bc 7318 823d 8c1f 1a3c
000001e0: 6e32 8f3d 7cdb 28bd 64da 253d c17e 013c
000001f0: 043b 96bc 9888 8dbb 6d22 d73a 16d1 03bb
0.003203066 0.017441383 -0.0028608171 0.012326254 0.0007427418 0.042932924 -0.059147518 0.049385257
0.064510256 -0.022681529 0.048476703 0.027710339 0.044498462 0.009643774 -0.017029015 -0.04493409
-0.020327564 -0.027697545 0.072468705 0.008130909 -0.0041996986 0.01656139 -0.028588168 -0.023021761
0.009900901 -0.0010913132 0.028077936 -0.016517354 0.0061123627 0.04583163 -0.044476468 0.029465927
-0.02957617 -0.005866484 -0.038394757 0.026786998 -0.011450425 0.070674054 0.048479762 -0.036154006
-0.027669752 0.04738863 0.05331305 -0.034374654 -0.024658356 0.04856547 0.024444483 -0.028124407
-0.0010379114 0.07395002 -0.016656928 -0.04822735 -0.011672371 0.07220822 -0.005967912 0.026941415
0.008438198 0.07225327 0.017646154 -0.017428132 0.05257309 0.024447665 0.017540395 -0.03320904
0.032032214 -0.028456442 0.00730461 0.07892897 0.06822134 0.01254365 -0.007659463 -0.05849756
0.01581292 0.04975248 -0.019798186 0.012569388 0.059543584 0.052326083 0.038398396 0.01290987
0.022708755 -0.05265217 -0.045948647 -0.012181378 0.039511174 -0.008151513 -0.017943101 0.045893203
0.046192244 0.016217979 0.046796147 -0.02204572 0.048881847 0.025541391 -0.02607077 -0.008911028
0.046309788 0.064250074 0.042850457 0.07709958 -0.04534781 0.034063615 0.05448301 0.008598057
-0.018767904 -0.038421873 0.015023988 0.042505648 -0.010707822 -0.01763763 0.036784228 -0.026030665
0.021941757 -0.016508983 0.03434153 0.04668221 0.018926771 -0.009817746 0.063523196 0.009406935
0.069920406 -0.04122494 0.040491477 0.007903756 -0.018338688 -0.0043192618 0.0016413458 -0.0020113639

head.4.weight f4 [12, 128]
00000000: ebb6 c6bb 5296 bdbd 6e74 c7bd 0dd5 10bd
00000010: a52c c0bd 734c 8c3c e95b 11bd 54b2 843c
00000020: fd39 f0bc ed14 cabd fc3f 64bd 0533 a23c
00000030: c77c 70bd 1be0 373d b000 58bc 179a eabc
00000040: 5b6f 903d 6ac3 913d cbb2 3bbd 0aa8 cbbc
00000050: 74fb 14bd 54e4 3dbb ada4 713d e11c 8e3d
00000060: d88a b7bb 14a2 cebd 8b8c e73c 8d4a 363c
00000070: fbfb 26bd 7ad1 1b3d eeb8 fc3b e724 88bd
00000080: 1508 d33c 1353 92bd d40b 9d3c 5712 413b
00000090: c4dc 0ebd 6abc 1d3c 7f70 4fbd 4fb9 0b3d
000000a0: 3226 c5bd a093 4abd 2a5a 1bbd 3bf7 64bd
000000b0: a06a 30bd dac6 543d 3d3d b3bd 19d4 2dbd
000000c0: 0984 65bd dfe7 c2bd 2f30 42bd 1351 1d3d
000000d0: 36c7 0fbd 053d 9dbc 13a9 09bd 5436 24bd
000000e0: 4848 a03c 6180 b6bd 77d3 003d b30c 96bd
000000f0: bee0 8b3b f073 9cbd dceb aebb cf73 883d
00000100: 7276 933d 6da6 38bd 7b38 a9bc 21df 973d
00000110: 3c70 3abc 8c42 c83c 7dbb c3bd 4877 4b3c
00000120: 9239 b7bd 2b94 a4bd d9e1 4f3d 45eb 9fbd
00000130: 85db 9fbd 81f4 003d 911c b03c 85c2 553d
00000140: 8b94 bbbd cd5b 623d 7f93 5b3c 11b3 fbba
00000150: 2cd5 c63c ced7 803d c71a a3bc 9e04 b53c
00000160: 718c 5ebd c68f 9c3c 9ea7 213d c93b 603d
00000170: 12ee 8a3c 349e 213d c972 c3bd b807 86bd
00000180: 78cd 6a3d b9bb 573c fd83 3bbd 06ed 163c
00000190: 8969 80bd 49f9 a13d 8764 11bd f698 cbbd
000001a0: 9f4e 4f3d 015d 34bd cd81 063d c95b 793d
000001b0: bac8 7abc f778 f73c 1e1d 373c c952 8e3c
000001c0: aa5b bdbd 23a9 85bc 5fd6 6abd 95a5 383d
000001d0: cae1 b1bd 7653 b9bd 1115 023d 02d0 2e3d
000001e0: 33eb 9abd 661f 4a3d 7cf9 643c 49fc c2bd
000001f0: ad81 9b3d d085 2fbb f820 27bd 34a8 c83b
00000200: bd97 0cbd dcad 0d3d f3ba 36bd 3d35 a9bd
00000210: 911f e03c ef4a fd3c 19e1 3fbc e86e 3a3d
00000220: 5cd2 92bd 6c73 92bd 9136 16bd b586 4e3d
00000230: 5e88 01ba 2927 6fbd 54a8 683d 8131 9cbb
00000240: 5229 333c 169d 88bc ade8 5ebd bd42 08bd
00000250: 43a9 90bc 1b2c ac3c 5c18 7a3d e792 423d
00000260: 018c d03c 7548 58bd c2e9 87bd f7c9 43bc
00000270: 62a2 943d 7a3c c1bd ffc8 8b3d 9390 7fbd
00000280: be0c c33c 4b3e 40bc 8f77 483d 719b cfbc
00000290: 25a4 bdbd bab0 34bd 4cf9 893d ca1a 90bd
000002a0: de7d 63bd ba42 923d c475 943d 9fdc 573d
000002b0: 3858 0cbb 731f abbd 4770 093d 9ecc bcbd
000002c0: 41b7 c1bc 282f 243d 16db 57bd 9b5e 8f3d
000002d0: 605a ae3c c831 85bd 9513 d8bc 6e68 a5bd
000002e0: 78e1 a4bd 6575 63bd 24f4 3e3d 6c3a bbbb
000002f0: 24de afbc b458 133d 9297 f1bb 0d41 c53b
00000300: 9bd3 3fbd 7869 473d 47fa 4ebd a0c4 b1bc
00000310: c01c 753d f9e8 9b3d 63ea 3fbd 091f 14ba
00000320: d836 9fbd 896f 6abc 28b2 813d c3b3 efba
00000330: 053d 37bd fce2 c5bd 1502 313d 73cd 13bd
00000340: 74e6 2dbd 3876 8fbb debe 933d 9d8f 9ebd
00000350: 8dae ad3c 35c0 9f3c 9623 83bc bbab 523d
00000360: 176e 633d deb8 f5bb ebf2 44bd d422 80bc
00000370: bbd7 1b3b 587b c5bd 2ca5 9d3d e41f b8bd
00000380: 7fdb 293d ed6b 433c 16cc fc3c 09c7 9cbd
00000390: 1f8f 103c b2d8 213d 7952 c9bd 55a1 b1bb
000003a0: 6bb8 1bbd 34c9 64bd dafb c3bd 957c 873d
000003b0: 507e 44bc f06d f6bc d06a 353d ad13 72bd
000003c0: 44aa 81bc 3da5 643c fa99 85bd fddd cebb
000003d0: a7b6 3e3d 1099 6b3d c761 e73b 4662 3ebd
000003e0: f229 333d 3fe5 5fbc 3171 b73c 6788 5bbd
000003f0: 4de8 2e3d 2507 02bb 4efb e9ba 472d 00bd
-0.006064286 -0.09257187 -0.09739004 -0.03535943 -0.09383515 0.017126298 -0.035488043 0.016198315
-0.029324526 -0.098672725 -0.055725083 0.019799719 -0.058712747 0.044891458 -0.013183758 -0.028637929
0.07052489 0.071173504 -0.045824807 -0.0248604 -0.036372617 -0.0028975205 0.058994938 0.06939102
-0.0056012683 -0.10089508 0.028265258 0.011126173 -0.04076765 0.03804157 0.007712475 -0.066476636
0.02576069 -0.071447514 0.01917068 0.0029460394 -0.034878507 0.009627441 -0.050644394 0.03411227
-0.09626426 -0.049457192 -0.037927784 -0.05589984 -0.043070436 0.051947452 -0.08751915 -0.0424386
-0.05603412 -0.09516882 -0.047409233 0.038407397 -0.03510209 -0.019194135 -0.033608507 -0.040090874
0.019565716 -0.08911205 0.03145167 -0.07326641 0.0042687347 -0.07639301 -0.005338175 0.06662714
0.07200326 -0.04508059 -0.020656815 0.07415605 -0.011379298 0.024445795 -0.09557245 0.012418576
-0.089465275 -0.08036073 0.050752494 -0.07808546 -0.07805542 0.031483177 0.021497997 0.05218746
-0.09159192 0.05526333 0.013401865 -0.0019203146 0.02427157 0.062911615 -0.01991023 0.022096928
-0.054333154 0.019111525 0.039466493 0.054744516 0.016959224 0.039457515 -0.09543378 -0.06544441
0.057324857 0.013167315 -0.04578017 0.009211784 -0.06270129 0.079088755 -0.03549626 -0.09941284
0.05061209 -0.044034008 0.03283863 0.06087855 -0.015306646 0.030209048 0.011176376 0.01737346
-0.09245999 -0.016316002 -0.057333346 0.045079786 -0.08685644 -0.09049122 0.03175837 0.04267884
-0.07564392 0.04934635 0.013975497 -0.09520776 0.07593093 -0.002678264 -0.040802926 0.006123567
-0.034324396 0.034589633 -0.044611882 -0.082621075 0.027358802 0.03091952 -0.011711382 0.045515925
-0.07169029 -0.07150921 -0.036673132 0.050421435 -0.000494128 -0.058386955 0.056801155 -0.0047666435
0.0109351445 -0.016676467 -0.054421116 -0.03326677 -0.017658835 0.021017125 0.061058387 0.04750338
0.025457384 -0.052803475 -0.06636383 -0.011950008 0.072575346 -0.09435363 0.06825446 -0.062393736
0.023809787 -0.011733602 0.048942145 -0.025342675 -0.09259824 -0.044113852 0.06737003 -0.070363596
-0.05553996 0.07141633 0.072490245 0.052700635 -0.0021414887 -0.08355608 0.03355434 -0.09218715
-0.023646953 0.040084034 -0.05269917 0.070004664 0.021283329 -0.06503636 -0.026376525 -0.08076559
-0.08050817 -0.055531878 0.04661955 -0.0057137515 -0.02146823 0.035973266 -0.007372805 0.0060197175
-0.046832662 0.048684567 -0.05053165 -0.021700203 0.05984187 0.076127954 -0.046854388 -0.00056503766
-0.077741325 -0.014308819 0.06332809 -0.0018287826 -0.044735927 -0.096624345 0.043214876 -0.036084604
-0.042456105 -0.0043781064 0.072141394 -0.07742236 0.021201396 0.019500831 -0.01600818 0.051433306
0.05552491 -0.0074988445 -0.048083227 -0.015641607 0.0023779708 -0.096426666 0.0769752 -0.08990458
0.041469093 0.011927587 0.030859035 -0.076551504 0.008823185 0.039513297 -0.098301835 -0.0054208436
-0.03801767 -0.055855945 -0.09569521 0.06615559 -0.011993006 -0.03008172 0.044291317 -0.059100796
-0.01582826 0.0139554115 -0.06523509 -0.006313084 0.04656091 0.05751902 0.0070612165 -0.04648044
0.043741174 -0.013665496 0.022392841 -0.05359688 0.042702008 -0.0019840684 -0.0017851384 -0.03129318

head.4.bias f4 [12]
00000000: f1d9 c4bd 083f 913d 164a 553d 44f3 673a
00000010: 4603 73bd 8844 afbd bc90 93bc 915d aa3c
00000020: cb1b 75ba 173b a2bc 89bc 9dbd 0616 a5bd
-0.096118815 0.070921004 0.052072607 0.00088482 -0.059329294 -0.08557993 -0.01801335 0.020796569
-0.000935015 -0.019803567 -0.07701976 -0.08060841
