fault_model_nn_allprior_22_33kv_without_lstm/best_Y2022.pt (torch, 246328 bytes, 7 tensors)

emb.weight f4 [219, 16]
00000000: 145b cabf 73ab 85bf a133 95bf d9df 8fbf
00000010: 505a 8d3e 1997 4f3f f03d da3e 8a4c c1bf
00000020: e1db f83e ec0e c73d 2862 633a bc43 26be
00000030: d62b f73f 9e04 703e f493 a1bf 9d6a 34be
00000040: 0bca 1e3f f0ba c33f 2c9f d2be 8dc0 803e
00000050: b463 b8bf a4a7 113f d649 2cbc 26be e7bf
00000060: 2c59 03c0 b9b6 76be c631 babd 4173 9bbe
00000070: d618 83bf bad1 473f 3f7b 8a3f 0f02 1d3f
00000080: 39d0 ff3f 7df2 a23f 7050 14bf 2754 fdbe
00000090: 8410 1ac0 e900 453e f79f d9bf b1d9 1d3f
000000a0: a9ed 14c0 2977 f0bf 77ed 08bf d878 6ebf
000000b0: 6a7b b0bf fdbb 323f f7ae 9e3e 6915 ca3f
000000c0: ea49 f4be 6b54 93be 8dc7 293f a155 9dbe
000000d0: f901 14bf 103d 00be f095 e13f 1bc8 043f
000000e0: 9917 6ebf 7f8a b1bd 6d74 903f 1a96 e03e
000000f0: 9c6f 7abf 010c de3c ce9f aa3f 6ca5 45bf
00000100: 7ff8 3d3e 503f c4be 0536 8d3f cb95 5c3f
00000110: 283b 9abf de53 afbf a14e 6d3e 388e 593f
00000120: 2065 4fbf 124e af3e ba6a 1fbe 01f8 a23f
00000130: 5d8e 25bf 5e85 3e3d d696 a73f 23ad 27bf
00000140: cc7d ba3f 1918 b2bf bcf8 223f 6d62 a7be
00000150: 9bd4 943e fc95 f63e 9f1b fb3f 46f5 a93f
00000160: 45f7 263f 5688 1ac0 90e5 f93e 4ed5 84bf
00000170: ddb3 ea3d 3346 dc3f 3104 68bf bb52 f8bd
00000180: b678 8c3f d8c1 55bf 3744 9dbf 2dc3 9f3f
00000190: 332c bcbf 07b5 a6bd f598 683f 6096 74bf
000001a0: 3924 323f 17c3 0f3f ba5a db3d 0312 02c0
000001b0: d171 783f 0316 c93e b2a0 b8be ae53 ee3e
000001c0: e3f2 4c3f 647c 6d3f 0358 0d3e 3360 76be
000001d0: 8c26 703f c4f3 363e 148f af3c 728e f0bf
000001e0: 805f a6bf 473c b33e 2b52 b63f 9348 97bf
000001f0: 1f3f 94bf a195 c63e 6d6e dbbe 69ad fb3f
00000200: 7f3f c8be 95ff 39bf 30b9 2abf 08cc 00c0
00000210: c414 9ebe 5463 14be 21ab d6bf f15e 92bf
00000220: 70df c93f 2bda 01c0 3b25 febe c4f8 233f
00000230: 2108 073e 134e eb3d 4568 16be cf0c 983f
00000240: 1ddc afbe b526 1040 7b71 56bf ddf3 0ec0
00000250: 2457 123f a4d4 d83f 44c4 203f ab17 c13e
00000260: 2eb7 be3e f574 043f 11a4 56bc af8f 05c0
00000270: a22b 6ebf 2b5a 96bd 13f4 6b3f 92a5 9a3e
00000280: 2dff edbe c3c5 903f 5a1d af3e 24ef d23f
00000290: 2c3b d1bd d2f8 8dbf 0ab0 17bf d2aa 833e
000002a0: 5361 5c3e 436b eb3f c3dd 653e 94c2 76bf
000002b0: 1f8d 1840 002a 103f a777 0f3f 1154 0b40
000002c0: 0326 35c0 bc24 51bf a150 0c3f 2cde 9a3f
000002d0: fff8 443e ec5a e8be d097 1bbf 6e5f 8e3f
000002e0: a400 503d 2df3 93bf 47a5 263f 4e32 adbe
000002f0: 58a4 fcbe eb4c c3be 546b ae3f a88b 773e
00000300: 7f1e ec3e 18e5 e53f 25d6 c53f 1bf9 4bbf
00000310: bb01 b3bf 3a37 2240 8985 1e3e 5b01 66be
00000320: 97a0 133e 23cd 91bf 80ce 64bf a162 30bd
00000330: 4745 a0bd 89c1 e73b 4eaa 23bf 41c9 df3f
00000340: 0fad a13f e214 a53f fc3e 983d e4d2 ba3e
00000350: 92f8 c6bf e4ee d63f bafb 273e 364d c6bf
00000360: 6345 563f fc50 6ebe 1dda f8bb 0bb4 48be
00000370: 759d a2bf 4261 05be 4371 593e 7fd7 e53f
00000380: 857b 0ac0 c3bb 3d3f 826d 793f 9155 2c3e
00000390: d4e1 603f c1c6 f43f bb45 0d3f 1892 e9bf
000003a0: ced3 3e3f 849d 903f 22b9 b4bf fe79 8cbe
000003b0: 9ece 8bbf 22c1 903e bdb9 163f d9a8 c6bf
000003c0: 4533 bd3e 0cad 85bf 93ca 713f dab5 7bbf
000003d0: a5ce 5a3f f7fd 0040 dcd5 273f 8254 663f
000003e0: 7805 683e 33c7 62bf cd3c b53f 92df 3abf
000003f0: 0f03 6e3f 67c3 b93f 86d3 4e3f f260 b13e
-1.5809045 -1.0442947 -1.1656381 -1.1240188 0.27607965 0.8108993 0.4262538 -1.5101483
0.48605254 0.09719643 0.0008673989 -0.16236776 1.9310253 0.23439261 -1.2623277 -0.17618795
0.62027043 1.5291424 -0.41137064 0.25146905 -1.4405427 0.56896424 -0.010515651 -1.8104904
-2.0523176 -0.2409314 -0.09091525 -0.3036137 -1.0241954 0.7805439 1.0818862 0.61331266
1.998542 1.2730252 -0.5793524 -0.49478266 -2.407258 0.19238628 -1.7001942 0.61660296
-2.3270056 -1.8786365 -0.5348734 -0.9315314 -1.3787663 0.698181 0.30992863 1.5787784
-0.47712642 -0.28775343 0.66320115 -0.30729392 -0.5781551 -0.12523293 1.7623882 0.51867837
-0.9300476 -0.08668994 1.128553 0.43864518 -0.9782655 0.027105333 1.3330019 -0.7720554
0.18551825 -0.38329554 1.103211 0.86166066 -1.2049303 -1.3697469 0.23174526 0.84982634
-0.8101368 0.3423925 -0.15568057 1.2731935 -0.64670354 0.046513908 1.3092906 -0.6549856
1.456964 -1.3913604 0.6366079 -0.3269228 0.29068455 0.48161304 1.9617804 1.3277977
0.65221053 -2.4145713 0.48807955 -1.0377595 0.114600874 1.7208923 -0.90631396 -0.121251546
1.0974338 -0.8349891 -1.2286443 1.2481438 -1.4700989 -0.08139997 0.90858394 -0.95541954
0.6958652 0.5615706 0.10710664 -2.0323493 0.9704867 0.39274606 -0.360601 0.46548218
0.80058116 0.9276793 0.13803105 -0.24060135 0.9380882 0.17866427 0.02143053 -1.8793471
-1.2997894 0.35006925 1.4243826 -1.1819023 -1.1581763 0.38786033 -0.42857686 1.9662296
-0.39110944 -0.7265561 -0.66688824 -2.012453 -0.30875218 -0.14491016 -1.6770974 -1.1435224
1.5771313 -2.028941 -0.4963778 0.6405146 0.13186695 0.11489501 -0.14688213 1.1878909
-0.3434762 2.2523625 -0.8376691 -2.2336342 0.57164216 1.6939893 0.6279948 0.3771337
0.3724913 0.5174096 -0.01310064 -2.0868948 -0.9303533 -0.07341417 0.921693 0.30204445
-0.46483746 1.1310352 0.3420208 1.647923 -0.10216364 -1.1091559 -0.5925299 0.25716263
0.21521501 1.8392109 0.22447877 -0.9639065 2.3836133 0.56314087 0.5604195 2.177006
-2.830445 -0.8169668 0.5481053 1.2099051 0.1923561 -0.45381868 -0.6077852 1.1122873
0.05078186 -1.1558586 0.65095943 -0.33827442 -0.49344134 -0.3814462 1.3626504 0.24174368
0.46117017 1.7960539 1.5455977 -0.7967698 -1.3984903 2.5346208 0.15480627 -0.22461455
0.14416729 -1.1390728 -0.89377594 -0.04306281 -0.078257136 0.0070726317 -0.6393174 1.7483293
1.2630938 1.2896998 0.07433888 0.36489022 -1.5544608 1.6791654 0.1640462 -1.5492313
0.83699626 -0.2327308 -0.0075943605 -0.19599931 -1.2704302 -0.13025382 0.21234612 1.7956389
-2.163789 0.74114627 0.9743272 0.16829516 0.87844586 1.9123155 0.55184525 -1.8247709
0.7454194 1.129807 -1.4118998 -0.27436823 -1.092243 0.2827235 0.58877164 -1.5520278
0.36953178 -1.0443435 0.9444973 -0.9832436 0.85471565 2.0155008 0.655607 0.899727
0.22658336 -0.88585204 1.415918 -0.7299739 0.9297342 1.4512757 0.8079151 0.34644276

head.0.weight f4 [256, 88]
00000000: 783f 2cbd b7ab 983d 819f 0a3d 187d b33c
00000010: b631 acbc aebe 3cbd ad7c 2bbd e021 99bd
00000020: 9a54 adbc 0305 babd 8cf7 a33d 8bdf 06bd
00000030: ebfa 853c e712 a13d 4c35 803d a988 80bd
00000040: fd44 843a 34a7 a63d 8952 dd3b 1cfb 16bd
00000050: 3c6f c9bd 63b5 6d3d 2329 943d d6fa 7ebd
00000060: 6b01 c7ba dc70 e33c 6aab f63c 42db 8bbd
00000070: ce29 b13d 480c f2b8 7490 8a3d 027f 3bbd
00000080: 5838 d8bd ad16 203d 30cc 03bd 37d2 15bd
00000090: d5dd fe3c 5599 d1bc e330 84bc 311c 983d
000000a0: d599 6d3c 9087 14bd 99e9 6dbb c76e 45bd
000000b0: 91dc 8a3b b420 0b3d 1222 cb3d 0a82 debc
000000c0: fe32 fabc 5a40 a3ba 36f0 e23c 4f40 903d
000000d0: b07a 91ba aa2c b73d 520d febc 88be a93c
000000e0: faf7 9c3d 9cec 41bd ab6b 2bbc 57a0 573d
000000f0: ea46 873d 5fdc 96bd 4c20 9639 ad38 af3c
00000100: 8b5d 32bd 9f96 a03d 7ecc 3f3d a69e de3d
00000110: 7b5e debd 3909 e7bd 7b9e 04bb 5399 1c3d
00000120: 7f9e 843b a536 273d a3e7 ac3d 9ecd 8a3d
00000130: b288 35bd 6823 25bd 4f3a fd3c 6f4b 97bb
00000140: 8965 813d 5132 3c3d 1b8d d63d 5b8b 763c
00000150: 7dc7 f6bc ad08 c33d 7a28 cdbd 4052 733d
00000160: 58d5 afbd fb71 663d eb72 7bbd 1db8 d63c
00000170: 2dbf 9e3c b874 8f3d ecf6 fd3d 9eb3 dabc
00000180: cd46 39bd b9bc 1cbd a8c8 a13d cb15 3e3d
00000190: 45b0 983d 22d8 47bc 6de7 633d b98e 25bd
000001a0: d6cc 8ebc aa9b b63d 49a9 36bd 38f4 263d
000001b0: 8d90 e8bd b032 f0bc 2281 2cbd 97c6 ad3c
000001c0: f7a6 933d 88c7 3abd 238d c7bb 0cd4 00bd
000001d0: 859e 66bd ce1f ae3d 32cf d8bb 41da fbbc
000001e0: b7c9 75bd c673 1cbd dc58 27bd fbc4 73bc
000001f0: f91d 063d ca91 143d c1ff cd3d 8cd9 9e3d
00000200: cb20 aa3c be2a e73d f25a 223d 01a5 a63d
00000210: 6231 94bb 47cd c53d 06a8 c43d b5ab 95bd
00000220: d3b9 ccbd 91c0 1bbc 7bb4 b33d 57e3 9e3c
00000230: 3917 bbbc 1dc8 553d d74a f5bc 7e01 763d
00000240: a50e 48bc 94cc c53d 8eb7 bdbd 97c0 9bbd
00000250: 798c a3bd f779 1b3d 176f 033c 273b 28bd
00000260: bfa4 57bd 0c70 c63d 3736 1cbd 12cf 863c
00000270: b6c1 b23d 0ff7 c7bc a548 d83b 5ba3 8fbd
00000280: 34b9 2f3d 74ef 723d 2eb9 3cbd 2efa 21bd
00000290: 8439 443c 8880 c0bc 4820 15bc 9909 97bb
000002a0: 8f49 bcbd 6ac8 0b3d 1c33 a4bd d2c5 a2bd
000002b0: e2dc 6fbd 8658 093e bcb2 423d 9a42 be3d
000002c0: 55dc 96bd 6462 4b3d 855e d53d 156c b53d
000002d0: 5a4e 1f3b 7370 3d3d 4057 81bd e307 5a3d
000002e0: 603b 25bd fe7b 47bc 4875 3bbd a5ed dcbc
000002f0: 0d6d 1d3c ccdd b2bc c5b7 92bd 2b17 9bbd
00000300: bced c7bb 7e54 9abd f5d9 8f3d 86d0 1ebd
00000310: e562 a5bd e83c cd3d c4d2 e43c b738 ae3d
00000320: 01f2 333d f846 8ebd ab55 2e3d 745f 163d
00000330: d530 babd 2fa7 77bd 7c8b 5fbd db68 833d
00000340: 0f16 383d afcf 043d 0cbd f83c af48 b2bd
00000350: 3ec2 be3d 8bab 3fbb 80af d3bc 02d6 873c
00000360: 72e5 0fbc 9acc 783d 262b a8bd 59bc 59bd
00000370: 6a8e 253d b929 edbd a7f4 4dbc e9a3 9a3d
00000380: 3611 2c3d 4eb1 d5bc 0c38 b4bd f0fc 2bbd
00000390: 4069 5cbc 8792 18bd ae66 853c fe11 963d
000003a0: 71ff 243d 4dd3 b43c 6c06 87bd 86a5 8a3d
000003b0: 708d 863d 5996 7a3d e44d 073b 93f1 29bd
000003c0: 5b33 23bd 6a95 ea3d f71e 9b3d 5135 563b
000003d0: 188f 47bc 9d03 14bc ed2d 23bb 453e b73d
000003e0: 112a dd3d 9d50 04be d8eb 583d 9026 853d
000003f0: aac5 bc3c 2583 9a3d eb3f dabc 961a e93d
-0.042052716 0.07454627 0.03384352 0.021910235 -0.021019798 -0.046080284 -0.041866947 -0.07477164
-0.021158505 -0.09082987 0.080062 -0.03292803 0.016354999 0.078649335 0.062601656 -0.06276066
0.0010091361 0.0813736 0.0067542237 -0.03686057 -0.098356694 0.058034312 0.07234409 -0.062250935
-0.0015182918 0.027763776 0.030111033 -0.068289295 0.08650552 -0.00011541747 0.067658335 -0.04577542
-0.10557622 0.039084125 -0.03217715 -0.03657743 0.031111637 -0.02558581 -0.016136592 0.07427252
0.014502008 -0.036262095 -0.0036302565 -0.04820135 0.0042377193 0.033966735 0.09918608 -0.027161617
-0.030541893 -0.0012455091 0.027702432 0.07043516 -0.0011099186 0.08944066 -0.031012211 0.020720735
0.07664485 -0.04734479 -0.010462682 0.052643146 0.06605323 -0.07366251 0.00028634293 0.02138933
-0.04354624 0.07841229 0.04682588 0.108701035 -0.108578645 -0.11281056 -0.0020236063 0.03823216
0.0040472145 0.040823597 0.08442619 0.067774996 -0.044319816 -0.04031697 0.030911593 -0.0046171467
0.063181944 0.045946423 0.104761325 0.015047873 -0.03012442 0.09523139 -0.10017486 0.05940461
-0.08585614 0.056261044 -0.06138889 0.026210839 0.01937827 0.07004684 0.12400612 -0.026696976
-0.045233537 -0.038265917 0.078996 0.046407502 0.07455496 -0.012197526 0.055640627 -0.040419314
-0.017431658 0.08916409 -0.044595037 0.04076025 -0.11355696 -0.029321045 -0.04211534 0.02121286
0.072095804 -0.045600444 -0.006089823 -0.031452224 -0.05630352 0.0850216 -0.0066164965 -0.03074372
-0.060006823 -0.038196348 -0.040856227 -0.014878507 0.032743428 0.036271848 0.10058547 0.077563375
0.02076759 0.11287449 0.039637513 0.08136941 -0.0045224885 0.09658294 0.096023604 -0.07308141
-0.09996381 -0.009506361 0.08774658 0.019395513 -0.022838222 0.052192796 -0.029942913 0.060060017
-0.012210523 0.09658161 -0.09263526 -0.07605093 -0.079857774 0.03795811 0.008022091 -0.041072037
-0.05264735 0.0968934 -0.03813764 0.01645616 0.08728354 -0.024409799 0.006600457 -0.070135795
0.042901233 0.05931039 -0.04607504 -0.03954523 0.011976603 -0.023498788 -0.009101935 -0.0046092984
-0.09193718 0.034126677 -0.08017561 -0.079478875 -0.05856026 0.13412675 0.047533736 0.09290047
-0.07366244 0.04965438 0.10418419 0.08858506 0.0024308176 0.046249818 -0.0631547 0.053230178
-0.040339828 -0.012175558 -0.045766145 -0.026968786 0.009608519 -0.021834277 -0.071639575 -0.07572778
-0.006101338 -0.07535647 0.07023994 -0.038773082 -0.08075503 0.100213826 0.027932532 0.08506911
0.043931965 -0.0694713 0.042562168 0.036712125 -0.09091345 -0.060462173 -0.054576382 0.06416484
0.04494291 0.032424625 0.030363582 -0.087052695 0.093143925 -0.0029246535 -0.02584052 0.016581539
-0.008782731 0.060742 -0.08211355 -0.053158138 0.04041902 -0.115802236 -0.012570537 0.07550795
0.0420086 -0.026085522 -0.087997526 -0.041989267 -0.013452828 -0.037249114 0.016284313 0.073276505
0.04028267 0.022073412 -0.06593022 0.06769852 0.06569946 0.06117854 0.0020645792 -0.04149015
-0.0398439 0.1145428 0.075742655 0.0032685588 -0.012180112 -0.009034065 -0.00248992 0.08947424
0.10799039 -0.12921377 0.052959293 0.06501496 0.023043472 0.07544545 -0.026641807 0.11382024

head.0.bias f4 [256]
00000000: 3b85 243d a658 9e3d f2a8 543d 73b5 fdba
00000010: 3649 74bc 69c0 b73d 665c a9bc babb 60bb
00000020: 5e4e d63d 5512 373c 28fc c03d bbd7 f33c
00000030: 173a a9bc 99bf c8bd 818f c13c 1028 883d
00000040: 212d 8a3d f018 b1bd 99d3 783d 8779 06bd
00000050: 6b55 413d 5fd1 b0bd 3f01 b23c 5cda 52bd
00000060: ce64 613d 49f6 82bd b6cc 94bd 8eec 8bbd
00000070: 5ef0 333d 7dbb 65bc 645d 9cbd 6ba2 6abc
00000080: 7601 8ebd f4b7 043d eb55 f23d 73e1 3fbd
00000090: 0900 37bd f9db ec3d 5c56 c4bb 9fb5 2bbd
000000a0: 3083 59bc 002d 5c3d 4ba2 0a3d b41a 49bd
000000b0: 8b30 293d 72e8 84bd ae7d d33d eadc a9bd
000000c0: a25c aebc ef5e 8a3b 69ea 10bc 480b 8abc
000000d0: 67e9 5abd 2092 39bd 46ad 7dbd 1a8f 123d
000000e0: b284 13bc c5d8 dd3d 5ebf 813d ca83 323d
000000f0: b72f a6bb b9ed 62bd e683 27bd b980 4e3d
00000100: b749 6ebd 9354 063d 2750 8fbd fb35 21bc
00000110: ab5c b7bd 7177 c33d 8e3e 87bd 626d ccbd
00000120: 2c09 a3bd eed9 363d 234d a5bc 32d7 6dbd
00000130: bac2 32bd 993d aa3d 13db 453d af1f 813d
00000140: e3b2 46bc eb12 bd3d 2779 123d 6499 6d3b
00000150: a6e3 c23d 4f14 4fbd 131f 0a3d 3723 e5bc
00000160: af36 c53d 1483 86bc c7b0 e03d d400 043c
00000170: 3ba4 8abd 11a2 adbd 022d a73c da4a 153d
00000180: df8b 0f3d cd14 f93c 5473 1e3d d060 633d
00000190: 1cf2 5bbd e01a 15bb d615 ae3d cb50 b53d
000001a0: e963 0b3d cc66 82bb e5ce e3bd ffdb 92bc
000001b0: 3eac 08bd 839b 8abd dcd6 aa3d eee4 63bd
000001c0: 9cf6 163c 2af1 9dbd aa0e 7abd c0d9 a33d
000001d0: bb44 7dbd b0f5 9e3d 0de3 94bd 6ce5 4e3c
000001e0: fb6b b33d 1955 8a3d 7e15 a1bc 5bad a3bc
000001f0: 5965 203b c363 a3bd 5d20 f53d 082c 0fbd
00000200: 1fe2 d3bd 89eb b2bd 86f7 723d 1dec a23d
00000210: 609b 883d c28d d0bc 059f 203d f704 afbd
00000220: f691 a9bd 15dc 14bd 4a12 f13d 6246 72bd
00000230: 7e3e 74bc 3d85 013d 56fd 9bbd 55eb bc3d
00000240: b29e 2d3d 725e 8c3d c535 873d a3d6 aa3d
00000250: e57f d6bd 3ad0 bcbb df2d 90bd 8160 70bc
00000260: 929c c93c 5b3b b83d d04c ea3d f65d cc3d
00000270: 7ac8 acbd 7fd4 b33d 0e15 cbbd a32f 95bd
00000280: b567 783d 444a 45bd 1269 dabd 4e97 963c
00000290: 1d43 9c3d 8540 b83d 7eaf ab3d 58c1 843d
000002a0: a6cb 27bd 8d95 9f3d e366 a0bd 1db1 0738
000002b0: 9482 7dbd fe09 8cbd cfd1 8e3c 020e 9abc
000002c0: 61bf f93c a8ce d13b c231 933d 32bf a83d
000002d0: 5fae 2cbd 7eb8 d33d 2da3 17bd 41ad e53b
000002e0: 8b23 06bd 719f 8b3d ecf7 9e39 61bf 71bd
000002f0: 74f2 c7bd 5b2b 99bd 3f55 9fbc 45a9 2a3d
00000300: 7d9c e63d 68d6 6dbd 9be7 88bc 9ada 76bc
00000310: 1dcd cc3d 0941 013e e8a3 c83d 77c2 56bb
00000320: be2c 603d b35b e1bb 91a7 dcbd 81bb 8e3c
00000330: 691d 043d bc73 99bd 56c7 a23d 9d81 b4bd
00000340: f428 9e3c 5687 03bd 50cb a0bd 30b4 f5bc
00000350: 5d18 9a3d 8678 9c3d 27a2 ac3d 20ac 9f3d
00000360: 3bd6 b5bd d4ba 6f3c 9176 2bbd 9870 ae3d
00000370: 550a 5a3d e541 8d3d 55da a53d 8ed0 3f3c
00000380: 7318 e1bd 2c9c 0dbc 7a69 34bc 3b64 8abc
00000390: d477 533d d7ce 843d 1023 f03c f15f 0dbd
000003a0: ec10 c9bd a482 3dbc 1ed3 593c 7aa2 a13d
000003b0: e1f7 6b3d 1967 a03b 99a0 babc 6a8f 4a3d
000003c0: 04c7 9d3d 559f 36bd d341 8f3c 2a3f d63d
000003d0: 82aa bd3d 78d2 273d 655a 45bd 10c0 99bd
000003e0: ab88 813d e5de 303d c86c 47bd e927 1dbd
000003f0: 4726 18bd 9e70 a13c dfa2 ad3c 8fda 6ebc
0.04016612 0.07731752 0.05191893 -0.0019356444 -0.014910033 0.08972246 -0.020673942 -0.0034291581
0.10464166 0.011173804 0.09423095 0.029765954 -0.020657582 -0.09802169 0.023627998 0.06648266
0.06746889 -0.086473346 0.06074867 -0.03283074 0.0472006 -0.08633684 0.02172911 -0.051477775
0.055027775 -0.063946314 -0.07265608 -0.068322286 0.043930404 -0.0140217515 -0.07635 -0.01432095
-0.069338724 0.032401994 0.11832794 -0.046845865 -0.044677768 0.11565394 -0.00599174 -0.041921254
-0.013275906 0.053753853 0.03384618 -0.04909773 0.04130606 -0.06489648 0.10326706 -0.08294089
-0.021284405 0.0042227427 -0.00884495 -0.016851082 -0.053445246 -0.04530537 -0.061932825 0.035781004
-0.009003805 0.10832361 0.063353285 0.043582715 -0.005071606 -0.05540249 -0.040897273 0.05041573
-0.05817577 0.0327955 -0.0699771 -0.00983953 -0.08953222 0.09544266 -0.06603728 -0.099818006
-0.07960734 0.044641428 -0.020178383 -0.058066554 -0.043642737 0.0831253 0.04830463 0.06304871
-0.012127611 0.09232124 0.03576007 0.0036254758 0.09516077 -0.050556477 0.03372104 -0.027970893
0.09629571 -0.016419925 0.109712176 0.008056838 -0.06769606 -0.08478177 0.020407204 0.036448337
0.0350455 0.030405426 0.038684204 0.05551225 -0.05369769 -0.0022751614 0.085002586 0.08853301
0.03403083 -0.0039795395 -0.111234464 -0.017927168 -0.033367388 -0.06767943 0.083417624 -0.055638246
0.00921407 -0.07712014 -0.06104914 0.08000517 -0.061833125 0.07761705 -0.07269869 0.012627941
0.0876083 0.06754512 -0.019663569 -0.019980123 0.002447447 -0.079780124 0.119690634 -0.0349541
-0.103458636 -0.08736331 0.059318088 0.07955191 0.066702604 -0.02545822 0.039214153 -0.08545869
-0.08279793 -0.0363427 0.117710665 -0.059149154 -0.014907477 0.031621207 -0.07616679 0.092245735
0.04238767 0.068539515 0.066020526 0.0834172 -0.10473613 -0.005762127 -0.07039999 -0.014671446
0.024610791 0.08995696 0.11440432 0.09978859 -0.08436675 0.08780765 -0.09916125 -0.072844766
0.060645778 -0.04816653 -0.10664572 0.018382695 0.07629988 0.08996681 0.08383082 0.0648219
-0.0409657 0.077921964 -0.07832124 3.2351458e-05 -0.061892107 -0.06837843 0.017434029 -0.018805508
0.030486764 0.006402809 0.07187225 0.082395926 -0.04215848 0.103379235 -0.03702085 0.007009179
-0.03274874 0.068175204 0.00030320825 -0.059020404 -0.09763041 -0.074789725 -0.019449828 0.041665334
0.112603165 -0.0580658 -0.016712 -0.015066767 0.1000006 0.12622465 0.09796888 -0.0032769719
0.05473017 -0.0068773865 -0.10774148 0.017423393 0.03225461 -0.07492778 0.079481766 -0.08813784
0.019306637 -0.03211149 -0.07851279 -0.029993147 0.07524178 0.076401755 0.084293656 0.07796502
-0.08878752 0.014631946 -0.04186112 0.08517569 0.05323251 0.06897334 0.08098284 0.011707438
-0.109909914 -0.008643191 -0.011011476 -0.016893497 0.05162795 0.06484764 0.029313594 -0.034515325
-0.09817681 -0.011566792 0.013294963 0.07892318 0.057609443 0.0048951027 -0.022781657 0.049453177
0.07703975 -0.044585545 0.017487442 0.10461266 0.092610374 0.040972203 -0.04818191 -0.07507336
0.063248955 0.04318132 -0.048687726 -0.03836814 -0.03714588 0.01970702 0.021195827 -0.014578476

head.2.weight f4 [128, 256]
00000000: 6333 38bd 6c03 f6bc 29c3 273c ca4b 903d
00000010: 7ca0 b7bc 0c60 303d e52d efbc 709d 9e3d
00000020: 4548 353d b714 c6bb 1fc0 773d 5047 f8bc
00000030: 36c6 be3a cc4e 203d a93a b03d 9657 443d
00000040: fcca e43b cc89 c9bc 0ab0 0e3c b29a 2f3d
00000050: 69b4 1e3d cc3e 38bd ba7a cebc 9563 973d
00000060: bc8f 5e3d 5cf8 4f3d e354 ae39 0ac9 543d
00000070: 9f59 8b3d 3649 f93b 172e 90bc 23be 623d
00000080: 1505 183d 6ce9 62bd 090d 853d 7cda 083d
00000090: 893b 32bc fe67 54bb 3e70 1c3d f381 063d
000000a0: 2d97 593d dd64 083c b931 ad3c 59d8 4fbb
000000b0: 169f 29bd 2efd 263d 7d34 913d 246c 033a
000000c0: 3985 0b3c 79ab 543a 4702 743c 8b24 44bc
000000d0: 010e a7bc 5cf3 45bd 18e1 163d 2b1d 44bb
000000e0: 71ce 8d3c 3bb6 8bbc 3ecf c4bc 7d53 b63b
000000f0: 2d8d 8bb7 1246 3e3d ae1d 4c3b c780 ebbc
00000100: 64e0 b2bc 41d3 583c 9f64 debb 5d24 3f3d
00000110: e3ad 5abc 24b3 9e3c ee64 4abd 39f6 383d
00000120: 4a4d 4cbd 06d2 413d 33e7 18bd e8d7 a53d
00000130: 82ae 053d 3554 993d 5ad8 d73b d3a9 57bc
00000140: 62d9 38bd f8be 523d 6cb8 263d 9d6d 19bd
00000150: 96d6 8abb 1a11 95bc 3a58 d0bc a11a 39bd
00000160: 0614 06bc 6a45 29bd 9aac 843c 2095 54bd
00000170: aea6 5d3d 4f98 18bc 1caf d9bc 30e8 9dbc
00000180: f93e 513c da77 d63d 2a99 7b3d 8369 8e3c
00000190: 5530 02bd 758a b83c 552d e6bc 961c 983d
000001a0: 6540 133c b922 20bd 7769 31bb a065 1f3d
000001b0: 8a0b ca37 ac63 90bb 892e b03d 4c97 a73d
000001c0: 7ddb 20bd 03f3 e43c 91ac 3a3d d3e0 d83c
000001d0: eb0c 54bc f048 17bd d238 613d a5e0 e53c
000001e0: ac3f 833a c143 263d 9da2 9bbc 0005 68bc
000001f0: 3a1a 393c b36c ef3c f5a4 693d d200 943d
00000200: 280b 313d cc9d 59bd 0948 373d 94bd d3bc
00000210: 3b2a 873d 1042 f43c 76d5 1bbd 665b c33c
00000220: 3c88 973d 0e32 473d 542c 54bd a616 59bc
00000230: 8d4f 493d 91ae 1bbc 24e5 fcbb eb8f 813d
00000240: 28e1 003c 2970 153c cdc9 36bd 050c 163d
00000250: d797 103c a161 83bc 947b a23d 6590 6ebb
00000260: 9d13 343c ed31 f23c d528 033d 943b c13d
00000270: f1e4 26ba 47e5 ffbb 6a86 643c e37a d83b
00000280: 049f 8c3c 942a 6b3b 56a2 f63c 9a79 4a3c
00000290: 9b79 2f3d ff78 d2bc f66b 98bb ab12 e03b
000002a0: 3b92 283d d791 283d f2ba dc3c e359 853d
000002b0: 0261 afbc 6af6 913d 5c78 263d c4ef 913b
000002c0: c6e8 6e3c b049 713d 7ea1 70b8 228c 073c
000002d0: 8ca2 403d fde9 6abd 0729 25bd a4f0 543c
000002e0: 275e ec3c 33ab bfbc cb19 69bc bb80 f3bb
000002f0: be48 7f3d 9c34 8a3d a5b8 1c3d 4a27 de3c
00000300: aa3d 3c3d c7c4 83bc d772 f5bc 2263 85bc
00000310: e732 e53c e08a 273a fc5a 8c3d 91b5 af3c
00000320: 5ec4 13bd 334c a33d c573 1d3d 1e43 3f3b
00000330: 2478 abba 68d4 adbc 323a 903c 0395 693d
00000340: 79e7 b33c ca23 8c3d 2f1c 32bd 2f45 7e3d
00000350: 6584 513d b64f 593d bd2f 9a3d 2678 943d
00000360: 13fe ccbc 6379 35bc 023b 8c3c fbed 0d3d
00000370: 5a7c 053d 6bc3 ce3c c78d 01bd e5c0 b2bc
00000380: b4b0 803d 45b3 fb39 302c e9bb b545 353d
00000390: a30b bc3c 8a7a 2a3d e36c c8bc 4f53 87bd
000003a0: 3e5c 8c3d c185 25ba 4703 a9bc 2e22 bd3d
000003b0: d3b2 4e3d a138 9e3d ce96 143c 9e2a aabc
000003c0: 6362 0b3d 4938 9e3d 19d9 a6bb c58d 36bd
000003d0: 01aa e43c 1d58 26bc e32c 993b 01f0 e43c
000003e0: 6e60 7d3d 52d3 8d3d 4783 1ebd 1c93 a0bb
000003f0: 3ed6 4e3d 8962 143d 3db1 423d fc45 16bd
-0.04497088 -0.030030929 0.010239401 0.070457056 -0.022415392 0.043060347 -0.029196689 0.077448726
0.044258375 -0.00604495 0.060485955 -0.030307442 0.0014554921 0.039137647 0.086049385 0.04793509
0.0069822054 -0.02460184 0.008708963 0.04287214 0.03874627 -0.044981763 -0.025205005 0.07392041
0.054336295 0.050773963 0.00033251112 0.05194954 0.06804203 0.0076076044 -0.017600102 0.05535711
0.03711422 -0.05539839 0.06496627 0.033411488 -0.010878452 -0.0032410617 0.03819298 0.032838773
0.053122688 0.008324829 0.021141874 -0.0031714647 -0.04141148 0.040768795 0.070900895 0.00050133676
0.0085156495 0.00081127096 0.014893121 -0.011971603 -0.02039242 -0.04832779 0.03683576 -0.0029924612
0.017310353 -0.017054668 -0.024024602 0.005564152 -1.6635831e-05 0.046453543 0.003114562 -0.02874793
-0.021835513 0.013233961 -0.0067868973 0.046665538 -0.013347122 0.01937253 -0.04941266 0.04515669
-0.049878396 0.047319435 -0.037329864 0.080978215 0.032637127 0.07486764 0.0065870704 -0.013163048
-0.045129187 0.051451653 0.040703222 -0.03745805 -0.0042370064 -0.018196631 -0.025432695 -0.04519141
-0.008183485 -0.041325964 0.016195584 -0.05190003 0.054114036 -0.009313657 -0.026572756 -0.019275755
0.0127713615 0.104720786 0.061425366 0.017384296 -0.031784374 0.022526959 -0.028097788 0.07427327
0.008987521 -0.039095614 -0.0027070919 0.038915277 2.408565e-05 -0.004406413 0.08602626 0.081831545
-0.03927182 0.027947908 0.04557473 0.026474392 -0.012942533 -0.036934793 0.05498583 0.02806122
0.0010013483 0.04059196 -0.018998438 -0.014161348 0.011297757 0.029226637 0.05704208 0.07226719
0.04322353 -0.053129002 0.044746432 -0.025847234 0.06599852 0.029816657 -0.03804537 0.023847293
0.073990315 0.04863172 -0.051800087 -0.013250029 0.04914813 -0.009502069 -0.0077177454 0.06326278
0.007866181 0.009120979 -0.044626046 0.036632556 0.008825264 -0.016037764 0.07933727 -0.0036401984
0.010991004 0.029564822 0.032021362 0.09435192 -0.00063665124 -0.0078093144 0.013948062 0.006606446
0.017165668 0.0035883533 0.030106705 0.012358094 0.04284058 -0.025692461 -0.004651542 0.006838163
0.04115508 0.04115471 0.026944611 0.06511285 -0.021408562 0.07127078 0.040642127 0.004453631
0.014581865 0.058908165 -5.737086e-05 0.008273156 0.047030017 -0.057352055 -0.04032233 0.012996826
0.02885349 -0.023397064 -0.014227341 -0.0074311174 0.06232523 0.06748316 0.03826203 0.027118344
0.045957245 -0.016085042 -0.029961986 -0.016282622 0.027978374 0.00063912384 0.068532914 0.021448882
-0.036075942 0.07973518 0.038440485 0.0029184292 -0.0013082069 -0.021219447 0.017605875 0.057026874
0.02196096 0.06842764 -0.04348391 0.062077697 0.051151652 0.053054534 0.075286366 0.07249479
-0.025023496 -0.011076304 0.01711798 0.034650784 0.032589294 0.025239667 -0.03162935 -0.021820495
0.062837034 0.00048008017 -0.0071158633 0.04425593 0.022954768 0.04162077 -0.024465984 -0.06607687
0.06853531 -0.00063141814 -0.020631446 0.09235035 0.05046351 0.07725645 0.009069158 -0.020772275
0.034029376 0.07725579 -0.005091798 -0.044568796 0.027913095 -0.010152844 0.0046745404 0.027946474
0.06185954 0.06925072 -0.038699415 -0.0049003493 0.050497286 0.036226783 0.04753231 -0.036687836

head.2.bias f4 [128]
00000000: 29cb 083d fe63 9f3d d436 47bd eaeb ee3b
00000010: 33b5 b33c b6f3 483d 5413 383d 1002 21bc
00000020: af60 113c d999 543d 3e3d 5dbc 7e0f 1d3d
00000030: 1d73 823c 7609 573b e4d7 97bc e31b 0fbd
00000040: b20e 5b3c f134 9c3c 2c2f 343d e1e0 993d
00000050: 534d 50bd 55df e7bc 1db2 953c bd05 2fbd
00000060: 1c30 d23c ef58 1fbd 8227 903c 1cd2 9f3c
00000070: 689c f33c 8ad9 c9bc 8c65 fbbc 771b 0abc
00000080: 4a7c 0ebd db91 61bd e8af bcbc c3ff e9bb
00000090: 4186 9d3b f5df 0fbd 29a3 c13b 4cdd 72bb
000000a0: aab0 04bd 5e65 6b3d 1017 13bd a2d3 4b3d
000000b0: 1327 9e3b e0de 523d f6f1 393d 2587 853d
000000c0: 9099 723d a0e6 f3bc 35c0 273d 1928 013d
000000d0: f309 41bd 3cf0 743d c5d2 973d 2361 4d3d
000000e0: e249 133d 983e da3b c607 543d f41a 95bc
000000f0: 4bf2 453c d507 d9bc b147 09bb 432b 0cbd
00000100: 9ba4 223d 227c 84bc a4d1 7b3d 4ee8 283d
00000110: 9044 9ebc 498e 2fbd cc3e da3b 3052 eeb9
00000120: d6c8 48bd 27d4 6bbd 9947 34bd c889 6f3d
00000130: ea28 8a3d dac3 94bc f3a1 a83d 1492 ac3c
00000140: b0f2 fe3c d9db 65bd 6996 edbc f096 d2bc
00000150: 238c 013d 9e51 723c fc84 373d 89d1 d5bc
00000160: 0bcf 2cbd 7f32 303d 072b 4bbd e110 b53b
00000170: bc8d e93c 56e7 77bc e18a 813c 221d f5bb
00000180: cd27 1abd 60e2 013d 2725 86bd 2a02 ff3c
00000190: abc8 973c 9421 d23c dc70 29bc bf6f c3bc
000001a0: 5876 23bd 0ee4 9b3c f4a0 65bd 8a15 efb8
000001b0: db4d 19bb cc24 1e3d 45a0 4b3d a7ad f53c
000001c0: 59fe 203d f4cb 9dbc 2b2c 7b3d 09da 233d
000001d0: 0011 fd3b 5160 0cbc 04d4 fe3b c1bb d53a
000001e0: 8e03 29bb ca4e 313c e3de 7b3d 2fd5 973c
000001f0: f974 16bd 41b3 7a3d 77be 0f3d cc65 803d
0.033396874 0.07782744 -0.048636273 0.0072913067 0.021936988 0.049060546 0.044940308 -0.009827152
0.008873149 0.051904533 -0.013503371 0.038344853 0.01592403 0.0032812036 -0.018535562 -0.034938704
0.013370203 0.019068213 0.0439903 0.07513595 -0.050854992 -0.028304735 0.018273408 -0.04273008
0.025657706 -0.038903173 0.017596964 0.019509368 0.029737666 -0.024639864 -0.03068807 -0.0084294
-0.0347865 -0.05507074 -0.023033097 -0.007141085 0.004807264 -0.03512569 0.005909343 -0.0037058173
-0.032395042 0.05746972 -0.035910666 0.049762376 0.0048264354 0.05148208 0.045396768 0.065199174
0.05922848 -0.029773057 0.040954787 0.03153238 -0.04712863 0.059799418 0.07413248 0.050141465
0.035959132 0.006660294 0.051765226 -0.018201329 0.012081693 -0.026492992 -0.0020947272 -0.034220945
0.03970776 -0.016172472 0.061479226 0.041237168 -0.019319803 -0.042860303 0.006660318 -0.00045456132
-0.049019657 -0.05757537 -0.044013593 0.058481008 0.06746085 -0.018159796 0.08234014 0.02106575
0.031121582 -0.056117866 -0.029002385 -0.025706738 0.031627785 0.014789967 0.04480456 -0.02610089
-0.04218964 0.043016907 -0.04960158 0.0055256938 0.028509967 -0.015130838 0.015813293 -0.0074802795
-0.037635613 0.03171003 -0.06550055 0.031128962 0.018528303 0.025650777 -0.010341849 -0.023856996
-0.039907783 0.019029643 -0.0560617 -0.0001140042 -0.0023392353 0.03860931 0.04971339 0.02999003
0.039305065 -0.019262291 0.06132142 0.040002856 0.007722974 -0.0085678855 0.007776739 0.0016306565
-0.0025789472 0.010822007 0.06149186 0.018534271 -0.036732648 0.061206106 0.03509375 0.06269416

head.4.weight f4 [12, 128]
00000000: 6a8a 88bc 8e42 443d b2a7 8bbd a24e 89bd
00000010: f82c 443c ccd5 73bd ce24 a9bd 7c0b 3f3d
00000020: c0b6 8a3d 8cd7 53bd 0b06 e1bb beb2 6a3d
00000030: 30b4 2c3d 0e9b 6d3d 5501 0cbd ace2 603d
00000040: d53f a4bd 57fc bcbc 7312 8a3d f166 193d
00000050: a977 a9bd bfae b53c 6641 2e3d 7640 813d
00000060: 1c4c cabd 0a63 89bd da54 9cbd 5eac c3bd
00000070: 8a51 97bd 4e10 073d b627 94bd fcca 02bc
00000080: f715 0bbd 082a 103c 45dd 9ebd 8026 4bbd
00000090: bfaf 55bd 9d5f 8f3d db27 0ebd 1556 bcbd
000000a0: bd2f d3bb 33b9 cfbc 9c1a a4bd c398 adbd
000000b0: 5538 343d ac24 69bb bb66 82bd 74d6 f63c
000000c0: ae5f 76bd 8fd7 9dbd 9806 4d3a d26a 893c
000000d0: 021f 113c e4bb 89bd 3afc a0bd 8a90 f93c
000000e0: 8644 e33c 23ff 613a 17fd c7bd a0b0 c1ba
000000f0: 3ec2 263b f2cc 88bd 222f 963a de86 953c
00000100: dce4 813d 43b3 59bd b628 8b3d 1663 c2bb
00000110: 9c58 e6bb 9e31 913d 05e3 25bd a347 0cbc
00000120: 0e0f 513c e8b5 8f3c 6d1d 633d 1939 c1bd
00000130: ecf8 27bd e19a 763d a081 8dbd e6f9 3a3d
00000140: 8d4d a0bd a8b3 8e3d f4b3 453d cc9b 303d
00000150: 8770 b3bc 1369 023d 2d45 463b 3eb1 c4bc
00000160: 7de1 84bb 8023 a13d 3fd4 20bc 03a8 423c
00000170: 079b b2bd fb03 8a3d 67ff 8abd 1aaa b4bd
00000180: 149f 86bd 609f 33bd 822d be3a 7793 dcba
00000190: 19da 4abd d94f a9bd f3b0 d93c edb7 213c
000001a0: 611a 033d 7f2c 9cbb d198 b83c c467 b5bb
000001b0: 8f06 5d3d bbbc 883d 6c72 953d 203b ab3c
000001c0: c3c9 b53b e2e6 783d c11b 3b3d ee6c 07bd
000001d0: 9213 983c 0cad 4dbd 37be fc3c 999f afbd
000001e0: e989 1abc c326 6ebd feea 20bd 337d a83c
000001f0: 2d69 3e3d 1416 58bd 798f c0bc 98a1 29bd
00000200: c34b 813d 8505 843b 7945 8b3d f9e5 b43c
00000210: fe6d a0bd 2d5d a93c 8a88 abbd cdaa 64bd
00000220: bca0 bb3a 332a 643c c326 fcbb 06ab cd3c
00000230: 3024 873c 6f9b c2bd 10aa 17bd d96a 7c3c
00000240: 39f4 f1bc 2625 713b 2c0e 50bd 8f3a 633d
00000250: d83b 673d a3b5 4b3d a5a9 0e3d c2ea 4f3d
00000260: 0daf 42bc bc47 61ba 958b b3bd 34ed c33c
00000270: 19e1 9fbd b9d7 dfbc 9d07 a2bd 7719 a63a
00000280: 0596 b03c b1f3 d7bc 561c 013d 1779 233d
00000290: 3092 9cbd f5ac c03c 6eaa 843d 6d79 00bd
000002a0: 7479 043d 0ae4 063d 93fa 71bd eade f13c
000002b0: c027 843d 5d48 55bd e1f1 5abd 5bf4 1cbc
000002c0: 12c3 c2bd f751 693d abbb f0bc b779 8fbc
000002d0: ad42 a6bd adcd b5bd ede1 d1bd 3421 8a3d
000002e0: 826c 163c a248 473a fc9d 58bc 3aac d1ba
000002f0: e158 b3bd da4a f0bc f8ff 013a 4c12 44bd
00000300: dc89 463d 57ea 08bd af18 86bd 2f1a 193d
00000310: 25b5 bebd fcfa 243d c9cf 5a3d 187e bdb9
00000320: 0c77 9bbd bdaf 0fbd e659 b23b d59d c0bd
00000330: 8ae1 7cbb 815d aabd 61eb f7bc c1fb cbbc
00000340: 854a 313d f4ee 21bd efdb 803d 4bf9 9cbc
00000350: 35cc c6bc 7460 8b3d 972f 25bd 1928 383d
00000360: ee4c 443d 6c82 253d 4923 7e3d da80 e73c
00000370: 92d3 153c f7de 07bd 491c 303d a178 443d
00000380: a332 e3bc b11c 5f3d b870 6bbc eda3 9cbd
00000390: a64a e33c 54c6 22bd 01bc c7bd 74b4 dd3c
000003a0: ca71 223d 90d2 423d 86b2 0d3d a610 5ebc
000003b0: 2628 963d cdd2 483d c82f 76bd 14ef 5dbd
000003c0: b7bc f3bc a92a 95bc 3540 c2bd 5976 f23c
000003d0: b56f 5c3d dd23 c4bc 5332 16bd 33f2 6abd
000003e0: 85f4 53bd 24f9 77bd faa4 aabd 2472 b6bc
000003f0: f821 fa3b 7491 d6bd dffc fc3c 60f9 243c
-0.016667563 0.047915034 -0.06819095 -0.06704451 0.011973612 -0.059530064 -0.08258973 0.04664181
0.06773138 -0.051719233 -0.0068671755 0.057299368 0.042164028 0.0580092 -0.034180958 0.05490367
-0.080199875 -0.023069544 0.067418 0.03745169 -0.082747765 0.022178052 0.042542838 0.06311123
-0.09877798 -0.06708343 -0.07633372 -0.09554361 -0.07388599 0.032974534 -0.07234137 -0.007982966
-0.033956494 0.0087990835 -0.077570476 -0.049597263 -0.052169558 0.07000659 -0.034705978 -0.09196106
-0.0064449 -0.025356865 -0.08012888 -0.084764026 0.043999035 -0.0035574837 -0.063672505 0.030131556
-0.06014984 -0.0770713 0.0007821112 0.016774569 0.0088574905 -0.067252904 -0.078606084 0.03046443
0.027742635 0.0008621087 -0.0976507 -0.001477737 0.0025445367 -0.06679715 0.0011458138 0.018252786
0.063424796 -0.053149473 0.06794874 -0.005932222 -0.007029606 0.07089542 -0.040499706 -0.008562001
0.012759937 0.017542794 0.055447984 -0.09434719 -0.041008875 0.060206298 -0.0690949 0.045648478
-0.07827292 0.069678605 0.04826732 0.04311733 -0.021904243 0.031838488 0.0030253634 -0.024010297
-0.0040552006 0.07868099 -0.009816228 0.011880877 -0.08720975 0.067390405 -0.067869954 -0.08821507
-0.065733105 -0.043853164 0.0014509412 -0.0016828616 -0.0495244 -0.08267183 0.026573634 0.0098705115
0.03200758 -0.0047660465 0.022533806 -0.0055360515 0.053961333 0.066766225 0.07297215 0.020902216
0.0055477335 0.060767062 0.045680765 -0.033062868 0.01856402 -0.05021386 0.03085242 -0.08575363
-0.009432294 -0.058142435 -0.039286606 0.020567512 0.046487022 -0.05275543 -0.023505913 -0.041413873
0.063132785 0.0040289783 0.0680036 0.022082316 -0.07833479 0.020674312 -0.08375652 -0.05582695
0.001431487 0.013926077 -0.0076950504 0.025105964 0.016496748 -0.09502303 -0.03702742 0.015406334
-0.0295354 0.0036795824 -0.050794765 0.055475768 0.056453556 0.04973377 0.034829754 0.050760992
-0.011882556 -0.0008593758 -0.087668575 0.023916818 -0.07806606 -0.027324544 -0.07911608 0.0012672384
0.02155591 -0.026361318 0.031521164 0.039910402 -0.076450706 0.023519972 0.064778194 -0.0313658
0.03234239 0.03293232 -0.059076857 0.029525239 0.06452894 -0.052070964 -0.05345333 -0.009579743
-0.09509863 0.056962933 -0.029386362 -0.017514093 -0.08118186 -0.0887712 -0.1024817 0.06744614
0.009181144 0.00076020707 -0.01322126 -0.0015996762 -0.08757187 -0.029332567 0.0004959102 -0.04786901
0.048471317 -0.03342661 -0.06547677 0.037378486 -0.09311894 0.04027842 0.053420816 -0.00036142836
-0.07591066 -0.035079706 0.0054428456 -0.09405104 -0.003858658 -0.08318616 -0.030263605 -0.024900319
0.043283958 -0.039534524 0.06291949 -0.01916184 -0.024267295 0.06805506 -0.04032859 0.044960115
0.04792493 0.040407583 0.06204537 0.028259683 0.009144681 -0.03317162 0.042995725 0.047966603
-0.027734106 0.05447072 -0.014370136 -0.07648454 0.027745556 -0.03973992 -0.09752656 0.027063586
0.0396593 0.04756409 0.03459408 -0.013553774 0.073318765 0.04902916 -0.06010416 -0.05418308
-0.029753072 -0.018208819 -0.09484903 0.029597448 0.05381747 -0.023942882 -0.036669087 -0.057359885
-0.051746864 -0.060540333 -0.08332248 -0.022271223 0.007633444 -0.10476962 0.030882297 0.010069221

head.4.bias f4 [12]
00000000: fc88 b3bd 6452 5a3d 152c 80bd 6c19 a9bc
00000010: 5dbb 51bd 3e03 87bc 8d08 41ba 786f fe3c
00000020: 68b4 b2bd 5474 b3bd a1e1 a0bd e340 04bb
-0.08766362 0.05330123 -0.06258408 -0.020642005 -0.051204074 -0.016481038 -0.000736364 0.031059012
-0.08725816 -0.08762422 -0.07855535 -0.0020180277
