fault_model_nn_allprior_22_33kv_without_lstm/best_Y2024.pt (torch, 246328 bytes, 7 tensors)

emb.weight f4 [219, 16]
0	0x38ffe218	0.00012201461
1	0xbc802f4c	-0.015647553
2	0x3e4d0b61	0.20023872
3	0xbedd65f3	-0.43241844
4	0x3e59868a	0.21242729
5	0x3f9c6d65	1.2220885
6	0x3f1fa353	0.6235859
7	0x3cfd6f5e	0.030936893
8	0xbe2e0c48	-0.16996872
9	0x3ceaf51e	0.028681334
10	0xbf88208e	-1.0634935
11	0x3f22fbc0	0.6366539
12	0xbf08bc69	-0.5341249
13	0x3f91b950	1.1384678
14	0x3f31505d	0.6926325
15	0xbbd8fa90	-0.0066216663
16	0xbf1e2ee8	-0.61790323
17	0xbe9cf0d5	-0.3065249
18	0x3fa68722	1.3009989
19	0x3d2c12c6	0.04201009
20	0x3ee82b0c	0.45345342
21	0x4001db4f	2.0290105
22	0x3f66f197	0.90212387
23	0x3e200bb2	0.15629461
24	0x3ea91bc8	0.33029008
25	0x3e961c34	0.29318392
26	0xbf52c003	-0.82324237
27	0xbf2b8fdf	-0.67016405
28	0xbf25a9c4	-0.64712167
29	0x3da24f6f	0.07925307
30	0xbf8c3cc0	-1.095604
31	0xbc0b88cd	-0.008516503
32	0xbdb3b6a4	-0.0877507
33	0xbf40a91b	-0.75258034
34	0x3f09c7a9	0.5382028
35	0x3ec8ab19	0.39193037
36	0xbfcc0cb6	-1.5941379
37	0xbf7d9065	-0.99048454
38	0xbfb9cf05	-1.4516302
39	0xbf296c80	-0.6618118
40	0xbe881caf	-0.26584384
41	0xbdefc016	-0.11706559
42	0xbf08ad3f	-0.5338935
43	0xbf01b989	-0.5067373
44	0xbf7025ed	-0.9380787
45	0xbf759452	-0.95929444
46	0x3f8c7b38	1.0975103
47	0x3fec67a9	1.8469135
48	0xbf14eb14	-0.581712
49	0x3f062880	0.5240555
50	0x3ea88870	0.32916594
51	0x3e652ca4	0.2238031
52	0xbf7a0b1f	-0.9767322
53	0xbea3b35c	-0.31972778
54	0xbf2a06b9	-0.6641651
55	0x3f55c93f	0.835102
56	0x3ff3d052	1.9047949
57	0x400d4c33	2.2077758
58	0xbf8bbaf9	-1.0916435
59	0x3f2ec230	0.68265057
60	0xbdb6cb9b	-0.089255534
61	0x3f12e0dc	0.5737436
62	0x3d8190b5	0.06326429
63	0xbec51ced	-0.3849863
64	0x3f8732cc	1.0562377
65	0x3fb7781e	1.4333532
66	0x3b53f9ff	0.0032345054
67	0xbd9fcf16	-0.078031704
68	0x3b07d820	0.0020728186
69	0x3f899d39	1.0751106
70	0xbf568060	-0.83789635
71	0x3f22b0b9	0.6355091
72	0xbe44804b	-0.19189565
73	0xbe828174	-0.2548939
74	0x3fb0cb06	1.3811958
75	0xbf58b4ff	-0.8465118
76	0x3f077bd6	0.52923334
77	0x3e751a62	0.23935845
78	0xbf0e16e0	-0.55503654
79	0xbfe47ddf	-1.7850913
80	0xc048bcc8	-3.1365223
81	0xbeaa0527	-0.33207056
82	0xbf2fed31	-0.687213
83	0xbf949a96	-1.1609676
84	0xbe1e4cdd	-0.15459009
85	0xbddd1c7b	-0.10796448
86	0xbf22b215	-0.6355298
87	0x3f7be848	0.9840131
88	0xbf19038b	-0.5977103
89	0x3efe7d10	0.4970479
90	0xbe9e3fd6	-0.30908078
91	0x3ef7cb16	0.4839713
92	0x3e486311	0.19569041
93	0x3ee1bd08	0.44089532
94	0x3f8fc15d	1.1230885
95	0xbe7bc74b	-0.24587743
96	0x3ee5f3f4	0.44912684
97	0xbf052a40	-0.52017593
98	0xbf79542c	-0.9739406
99	0x3e4be005	0.19909675
100	0xbef2547e	-0.47330087
101	0xbf1b068b	-0.6055686
102	0xbe598d07	-0.21245204
103	0xbef04af2	-0.4693218
104	0xbe5affb7	-0.2138661
105	0x3f87d0ce	1.0610597
106	0x3fd4091f	1.6565284
107	0x3ed749ec	0.42048585
108	0xbfeec8b5	-1.8655001
109	0x3f597dd0	0.849576
110	0xbe9e514d	-0.30921403
111	0xbe032e64	-0.12810665
112	0x3e8ed192	0.27894264
113	0xbe4aeb53	-0.19816332
114	0x3eda2d98	0.4261291
115	0xbf8c8280	-1.0977325
116	0xbe08ae54	-0.13347751
117	0xbf21b1f6	-0.6316217
118	0xbfc2f496	-1.5230892
119	0xbfde7259	-1.7378646
120	0x3f515306	0.8176731
121	0x3f5b51b6	0.85671556
122	0xbf536a9d	-0.82584554
123	0xbf6ee75b	-0.9332177
124	0x3e8cebd0	0.2752366
125	0x3db4ea8d	0.088337995
126	0xbf2fbf2e	-0.6865109
127	0x3e55427b	0.20826142
128	0x3fcddefc	1.6083674
129	0xbe9558d2	-0.29169327
130	0xbf73e8bb	-0.95276994
131	0x403521af	2.830181
132	0x3f91dad8	1.1394911
133	0x3f245c67	0.64203495
134	0x3d0029fc	0.03129004
135	0x3ede1520	0.43375492
136	0xbf127d59	-0.57222515
137	0x3e930f66	0.28722686
138	0x3f1f71f7	0.6228327
139	0xbf81e810	-1.0148945
140	0x3fc26549	1.518716
141	0xbef0be38	-0.47020125
142	0x3e35c9d9	0.1775278
143	0x3f169b01	0.5883027
144	0x3f95d59c	1.1705813
145	0xbe9e7b37	-0.3095338
146	0x3e106e47	0.14104567
147	0xbe15a1a2	-0.1461244
148	0x3fad902b	1.3559622
149	0x3dc7109e	0.09719966
150	0x3cf47e3b	0.029845348
151	0xbf850121	-1.039097
152	0x3e98cc55	0.29843393
153	0xbee93a49	-0.4555228
154	0xbf88f41e	-1.0699499
155	0x3f028964	0.5099089
156	0x3e890a4c	0.26765668
157	0xbe999887	-0.29999182
158	0xbe280d23	-0.16411261
159	0x3f49ba7a	0.78800166
160	0x3f98fd52	1.1952307
161	0xbec6763e	-0.38762087
162	0xbf45233a	-0.77006876
163	0x3ffa12f9	1.953704
164	0x3f4424e5	0.76618797
165	0xbe60195f	-0.21884678
166	0x3e9d8d78	0.30771995
167	0xbe7999fa	-0.24375144
168	0x3fff9919	1.9968597
169	0xbfab532e	-1.338476
170	0xbf08822c	-0.53323627
171	0xbf73b95f	-0.9520473
172	0x3e8f740a	0.28018218
173	0xbf36552f	-0.7122373
174	0xbedfd3d1	-0.4371629
175	0xbd33abae	-0.0438649
176	0x3f0bde88	0.5463643
177	0xbf6e60c5	-0.9311641
178	0xbf345b2f	-0.70451635
179	0xbf3d18d7	-0.7386603
180	0xbf22af04	-0.635483
181	0x3dbb9e46	0.09161048
182	0x3e58940c	0.21150225
183	0xbf8bb153	-1.091349
184	0x3fe5df3c	1.7958751
185	0xbf6055c2	-0.87630856
186	0x4025cd82	2.5906682
187	0x3dc1b9fc	0.09459302
188	0xbfa9c93e	-1.3264539
189	0xbf12df33	-0.57371825
190	0x3f90add9	1.1303054
191	0xbf5e8a49	-0.86929756
192	0x3f23f45f	0.64044756
193	0x3fb2c387	1.396592
194	0x3fc0fb8e	1.5076768
195	0x3eaeba9d	0.3412675
196	0x3f8790cc	1.0591063
197	0x3f161a49	0.5863386
198	0x3e59c2d6	0.2126573
199	0xbe7b48da	-0.2453951
200	0x3eb1bef8	0.3471601
201	0xbf647a17	-0.89248794
202	0x3e816125	0.25269428
203	0xbfb14ab2	-1.385092
204	0xbe8f871f	-0.28032777
205	0x3fbf7a91	1.4959279
206	0x3fcb6918	1.5891447
207	0xbe07ddac	-0.13268155
208	0x3f8b81ae	1.089895
209	0xbe942b0c	-0.28939092
210	0x3fd9ee71	1.7025892
211	0x3f301754	0.68785596
212	0x3dc3a05e	0.09552072
213	0xbec3c910	-0.38239336
214	0x3fb14c50	1.3851414
215	0x400fc16c	2.2461805
216	0xbf94e0ae	-1.1631067
217	0xbe6f4abb	-0.23368351
218	0x3fc1098b	1.5081037
219	0xbe60425a	-0.21900311
220	0x3fcdac07	1.6068124
221	0x3f1b9aab	0.6078288
222	0x3f0fa697	0.5611357
223	0xbfa5838d	-1.2930771
224	0xbd0b1baf	-0.033961948
225	0xbeb711e2	-0.3575583
226	0xbf8afee0	-1.0859032
227	0x3ff051f9	1.8775016
228	0x3f886927	1.065709
229	0xbe909d91	-0.28245214
230	0xbfa7bc3a	-1.3104317
231	0x3f895cbd	1.0731426
232	0xbf043c47	-0.51654476
233	0x3f2328e7	0.6373429
234	0x3f87e274	1.0615983
235	0xbe9a7603	-0.3016816
236	0xbf0fadd7	-0.56124634
237	0xbf99415f	-1.1973075
238	0xbf38200b	-0.71923894
239	0x40070215	2.109502
240	0x3e497951	0.19675185
241	0x3de9f633	0.11423912
242	0xbed9c10f	-0.42530105
243	0xbe4db2ef	-0.20087789
244	0xbbc73828	-0.0060796924
245	0xbfaeeefa	-1.366668
246	0x3d1d33e2	0.038379557
247	0xbf98a4ef	-1.1925334
248	0xbe2110b6	-0.15729031
249	0xbea98652	-0.3311029
250	0x3fa0bf3c	1.255836
251	0xbfdbe6d7	-1.7179822
252	0xc003ce66	-2.0594726
253	0x3f1b59dc	0.6068399
254	0xbf7e1c89	-0.9926229
255	0xbec8c2a0	-0.39210987

head.0.weight f4 [256, 88]
0	0xbdb6a6f3	-0.08918562
1	0xbcf9f813	-0.030513799
2	0xbd5d8cdb	-0.05408941
3	0x3c90457e	0.017611261
4	0x3d00e914	0.03147228
5	0x3d094521	0.033513192
6	0xbcad4da2	-0.021155182
7	0x3cb6eafa	0.022328842
8	0xb8c0c00d	-9.191046e-05
9	0xbdc59fa5	-0.096495904
10	0xbc36a9b9	-0.0111488635
11	0xbda2e8a0	-0.07954526
12	0xbcf6d0b4	-0.030128814
13	0xbdb58fbd	-0.088653065
14	0x3dc20332	0.09473266
15	0xbc828c3d	-0.015936011
16	0x3b749106	0.0037317886
17	0x3c17200b	0.009223948
18	0x3d8a6497	0.06757467
19	0xbde8ff52	-0.113768235
20	0xbd7678d1	-0.060173813
21	0xbc36f13f	-0.011165916
22	0x3d96b15c	0.07358047
23	0xbddfd427	-0.10929137
24	0x3c0b413f	0.008499443
25	0xbda55e2c	-0.080746025
26	0x39174fa3	0.00014430149
27	0xbde53a30	-0.11192739
28	0xbc258cd8	-0.010104381
29	0xbd91afca	-0.07113607
30	0x3d3c4ab6	0.045969687
31	0x3d871619	0.06596012
32	0xbdc01c65	-0.09380416
33	0xbd63d1a2	-0.055619843
34	0xbc0814f0	-0.008305773
35	0x3d20309e	0.039108865
36	0x3c5e2dd9	0.013560736
37	0x3d7886c8	0.060675412
38	0x3dbba588	0.09162432
39	0xbdd9d9ca	-0.10637243
40	0xbd9b27a2	-0.07575919
41	0x3cb594de	0.022165712
42	0x3d2b8c57	0.041881885
43	0x3d71a3db	0.058994155
44	0x3c1f8d0d	0.009738219
45	0xbd969041	-0.07351733
46	0x3cbf278e	0.02333429
47	0xbd95d635	-0.073162474
48	0xbdb2c80c	-0.08729562
49	0xbcc58e08	-0.024115577
50	0xbb39c0d4	-0.0028343694
51	0xbd28aeb3	-0.04118223
52	0x39444f6f	0.00018721608
53	0xbd8d4835	-0.06898538
54	0xbb79a1d4	-0.0038090842
55	0xbc3ceb74	-0.011530746
56	0x3d3148ab	0.043282192
57	0x3c834c65	0.016027639
58	0xbceee944	-0.029163964
59	0xbd0565e3	-0.03256787
60	0x3dd9a311	0.106268056
61	0x3c4d79c7	0.012541241
62	0x3c970ef3	0.018439746
63	0xbdec8b1d	-0.11549971
64	0xbd33e3fd	-0.0439186
65	0x3d45b51e	0.04826843
66	0xbcdb2d4b	-0.026754996
67	0xbcd2db0d	-0.025739217
68	0x3db2b907	0.087266974
69	0xbe02a38f	-0.12757705
70	0x3b25fb84	0.0025326917
71	0xbd122b09	-0.035685573
72	0xbe058bea	-0.13041654
73	0x3dab048a	0.08350475
74	0x3dc1553b	0.094400845
75	0xbdc016df	-0.09379362
76	0x3c9cd9ac	0.019146763
77	0xbe01df0b	-0.1268274
78	0x3d104326	0.035220288
79	0xbd1748b0	-0.036934555
80	0x3c13bdda	0.009017432
81	0xbdf41bf4	-0.11919394
82	0xbd83db2e	-0.064382896
83	0x3de576ac	0.112042755
84	0xbba80135	-0.005127097
85	0xbe1a301a	-0.15057412
86	0xbdad8d4b	-0.08474215
87	0x3df53fdf	0.11975073
88	0x3d2ec539	0.042668555
89	0x3d20b7fd	0.039237965
90	0x3d7b666d	0.061376978
91	0xbd3df27a	-0.04637382
92	0x3dcf2ce2	0.101159826
93	0x3ded15a9	0.11576397
94	0x3d813cfe	0.063104615
95	0x3d476922	0.048684247
96	0xb9340e95	-0.0001717157
97	0xbc3d11ae	-0.01153986
98	0xbcdd6db4	-0.02702985
99	0x3cb9fd50	0.022703797
100	0xbcb6cd48	-0.022314683
101	0x3d58d8e5	0.05294122
102	0xbd53043a	-0.051517703
103	0xbd770aad	-0.060312916
104	0xb7fd0e30	-3.0166557e-05
105	0x3c4c2c5e	0.01246175
106	0x3d99a8c9	0.07502896
107	0x3d870141	0.06592036
108	0x3cbe202a	0.023208696
109	0xbd346d96	-0.04404982
110	0xbddea54c	-0.108713716
111	0xbd8e0a6a	-0.0693558
112	0x3cb7f091	0.022453578
113	0x3d90f49c	0.070779055
114	0xb88fe46c	-6.861318e-05
115	0x3b97bb7e	0.004630505
116	0xbd55bc6d	-0.05218165
117	0x3d00f561	0.03148401
118	0xbc9509ce	-0.018193152
119	0xbda4491b	-0.08021756
120	0x3d628991	0.055306975
121	0x3d2035db	0.03911386
122	0x3c800e17	0.015631719
123	0x3d9040b1	0.07043589
124	0x3d850764	0.0649555
125	0xbd5583e6	-0.05212774
126	0x3dbbffdc	0.09179661
127	0xbd62df21	-0.055388574
128	0x3c570a53	0.01312502
129	0xbc33d2b8	-0.010975532
130	0xbdde0ac5	-0.10841898
131	0xbda0a198	-0.078433216
132	0xb928e87e	-0.00016108339
133	0x3d368402	0.044559486
134	0xbc641a4d	-0.013922286
135	0xbd960799	-0.07325668
136	0xbdf01719	-0.117231555
137	0xbd4b96a6	-0.049704216
138	0xbdbcdf0a	-0.09222229
139	0x3dad2ba5	0.0845559
140	0xb82d9ab3	-4.139049e-05
141	0x3d8ec00b	0.06970223
142	0x3dbd2c3d	0.092369534
143	0x3c389416	0.011265775
144	0xbdd4185e	-0.1035621
145	0x3e029c4c	0.12754935
146	0x3d560919	0.05225477
147	0x3d507971	0.050897066
148	0xbc9cb6eb	-0.01913019
149	0xbcf58abc	-0.02997338
150	0x3bef9a26	0.007312077
151	0x3ce6fda3	0.028197115
152	0xbdbcd321	-0.09219957
153	0x3b90e80b	0.004422193
154	0xbd192179	-0.037385438
155	0xbd26f06f	-0.04075664
156	0x3cc87976	0.02447198
157	0xbd7d2c59	-0.06180987
158	0x398e9670	0.00027196435
159	0xbd214614	-0.039373472
160	0xbd2714e4	-0.040791407
161	0x3de63393	0.11240306
162	0xbcd85f4e	-0.026412632
163	0xbcf64a86	-0.030064832
164	0x3c4ed914	0.012624998
165	0xbcec0ce9	-0.02881475
166	0x3e0cb86e	0.1374223
167	0xbd044a10	-0.032297194
168	0x3db6a488	0.089181006
169	0xbdcd193c	-0.10014579
170	0xbce7b574	-0.028284766
171	0x3da828d8	0.08210915
172	0xbd87356c	-0.06601986
173	0xbd3081b7	-0.043092456
174	0x3d59b50f	0.053151187
175	0xbdca6f39	-0.09884495
176	0x3cdf780d	0.027278924
177	0xbdc859e8	-0.09782773
178	0xbcc00b02	-0.023442749
179	0x3d365d8a	0.0445228
180	0xbcde19d0	-0.027111918
181	0xbd611218	-0.054948896
182	0x3d665421	0.056232575
183	0x3c9268ef	0.017872302
184	0xb7133286	-8.773646e-06
185	0xbd2bf6aa	-0.041983284
186	0x3cc5a7d5	0.02412788
187	0x3dd16c60	0.10225749
188	0xbb879fbc	-0.004138915
189	0xbdcfb457	-0.10141819
190	0xbc898e76	-0.016791563
191	0x3e0cb7d3	0.13741998
192	0x38c26b9a	9.270683e-05
193	0x3dcb2afd	0.09920309
194	0xbc8af983	-0.01696468
195	0xbd8c86bd	-0.06861637
196	0xbdba3ea6	-0.090939805
197	0xbdb0e941	-0.0863824
198	0x3d8447d9	0.06459016
199	0x3d441a61	0.04787672
200	0xbcd86b2d	-0.026418293
201	0x3d9ccbe0	0.076560736
202	0x3a86dea2	0.0010289738
203	0x3dae175f	0.085005514
204	0x3d9fbcf3	0.07799711
205	0x3db66b4e	0.089071855
206	0xbc921290	-0.017831117
207	0xbd3a0f08	-0.04542449
208	0x3d0d8a8f	0.034555968
209	0x3e026c1c	0.12736553
210	0x39855ab2	0.0002543531
211	0x3d2357c7	0.039878633
212	0xbe097e1d	-0.13427015
213	0x3c76a97b	0.015055056
214	0xbda6ae45	-0.08138708
215	0x3dedbbd3	0.1160809
216	0x3c989b02	0.018628601
217	0xbc30bd44	-0.010787312
218	0xbb5aa7d8	-0.0033364203
219	0xbc88f8f3	-0.01672027
220	0xbae127b1	-0.0017177967
221	0x3da37fc8	0.07983357
222	0xbd791875	-0.06081434
223	0x3d4a1f81	0.04934645
224	0x3becc93c	0.0072261374
225	0xbd43ba94	-0.047785357
226	0xbdc1a2f2	-0.094549075
227	0x3e147791	0.14498736
228	0x3c954695	0.018222133
229	0xbd9c0882	-0.0761881
230	0xbda58eb8	-0.08083862
231	0x3d5fba91	0.054621283
232	0xbd8f627e	-0.07001208
233	0x3d31cb38	0.043406695
234	0xbd8dac74	-0.069176584
235	0x3c720543	0.014771762
236	0x3d0defe0	0.03465259
237	0xbd149ea2	-0.036284097
238	0x370e6384	8.48703e-06
239	0x3e025f0d	0.12731571
240	0xbce4a802	-0.027912144
241	0xbd38e9c2	-0.045144804
242	0x3e0aed42	0.13567069
243	0xbd1a1375	-0.037616212
244	0xbd066812	-0.032814093
245	0x3e05bba3	0.13059859
246	0xbc6d87df	-0.014497726
247	0x3dae1748	0.08500534
248	0xbd95d2c7	-0.07315593
249	0x3c747ab2	0.014921831
250	0xbcdf1649	-0.027232306
251	0x3d8a27b2	0.067458525
252	0xbc57236b	-0.013131003
253	0xbdce72ec	-0.10080513
254	0x3c280d09	0.010257014
255	0x3d950ad4	0.07277456

head.0.bias f4 [256]
0	0x3cc359bd	0.023846501
1	0x3d9cddda	0.07659502
2	0xbc5e8f62	-0.01358399
3	0x3d89c926	0.06727819
4	0x3d6c75bc	0.057729468
5	0xbd6e0c32	-0.0581171
6	0xbd9d0b77	-0.07668202
7	0x3d661cf8	0.05617997
8	0x3d952317	0.072820835
9	0x3d532954	0.051553085
10	0x3db62da7	0.08895426
11	0x3d35ef77	0.044417825
12	0x3c069b6e	0.008215768
13	0x3dde3d1b	0.10851499
14	0xbd25d651	-0.04048759
15	0xbccf0202	-0.025269512
16	0xbcc26b13	-0.023732698
17	0x3dbd1a9a	0.092335895
18	0xbd522a51	-0.051309887
19	0xbd6ed1d1	-0.058305565
20	0xbd2ba3ca	-0.04190425
21	0x3d40a208	0.047029525
22	0x3d93b2a2	0.07211806
23	0x3d78dd71	0.060758058
24	0x3dba76ae	0.091046676
25	0xbd8df66b	-0.06931766
26	0x3dceb385	0.100928344
27	0x3decf9bb	0.1157107
28	0x3dd8ab0f	0.10579502
29	0x3d143ac8	0.03618887
30	0x3d92e952	0.071734086
31	0xbd9e9b47	-0.077444606
32	0xbdadf899	-0.08494682
33	0xbd3c21d5	-0.045930702
34	0xbcd4c5e6	-0.025973272
35	0x3db05c76	0.086113855
36	0x3df4de51	0.11956466
37	0x3b803ccb	0.003913497
38	0x3d58da41	0.05294252
39	0xbd35f75c	-0.044425353
40	0x3d340b72	0.043956228
41	0x3ca82a7a	0.020528067
42	0xbd31246f	-0.043247636
43	0xbc80aa01	-0.015706064
44	0xbd245ef4	-0.040129617
45	0x3d88f625	0.06687573
46	0xbdca5e65	-0.098812856
47	0xbdc0d4bd	-0.094155766
48	0x3dcd5569	0.10026056
49	0x3d5a5592	0.053304262
50	0xbdb69c77	-0.08916562
51	0x3db85bd3	0.09001889
52	0xbb4c96a3	-0.0031217716
53	0x3da988ef	0.08278071
54	0x3bb6785c	0.005568547
55	0xbc8f2c29	-0.017477112
56	0xbd7b8071	-0.06140179
57	0xbb2e6112	-0.0026608151
58	0xbd33c53e	-0.043889277
59	0x3d323128	0.04350391
60	0xbd97db6f	-0.074149005
61	0x3ddf2733	0.108961485
62	0xbdbb45ac	-0.09144148
63	0x3d74f1a8	0.059800774
64	0xbd0919b5	-0.03347178
65	0xbc93cbd0	-0.018041521
66	0xbcb61cac	-0.022230469
67	0x3cbe8c46	0.023260247
68	0x3d5e7ca7	0.054318096
69	0xbd29ae80	-0.04142618
70	0xbd22b968	-0.0397276
71	0x3d2b4983	0.041818153
72	0xbd036cf7	-0.03208634
73	0x3d4a505d	0.049393047
74	0xbd475c20	-0.04867184
75	0x3d365716	0.044516645
76	0xbb97572d	-0.0046185465
77	0xbb941965	-0.004519629
78	0xbd6def82	-0.05808974
79	0x3de2c465	0.110726155
80	0x3de0324b	0.109470926
81	0x3d8914c9	0.066934176
82	0xbdb3573d	-0.08756874
83	0x3d91ce77	0.07119458
84	0xbc3959f5	-0.011312951
85	0x3dde5e47	0.10857826
86	0x3daafa26	0.08348493
87	0x3d9e4294	0.077275425
88	0x3d7c3ce7	0.06158152
89	0x3d349145	0.044083852
90	0x3d9d1075	0.076691546
91	0x3cd1001d	0.02551275
92	0x3d9b9783	0.07597258
93	0x3db78e3e	0.089626774
94	0xbb839837	-0.004015948
95	0xbd659287	-0.056047942
96	0xbd090144	-0.033448473
97	0xbd24958a	-0.040181674
98	0xbc890214	-0.016724624
99	0xbd91a464	-0.07111433
100	0xbd2a8572	-0.04163117
101	0xbccdfb0c	-0.025144123
102	0x3b8fb499	0.0043855426
103	0xbba88911	-0.0051432927
104	0xbd82085a	-0.06349249
105	0x3c015b02	0.007895233
106	0x3d7b543c	0.06135963
107	0xbd7b5d9f	-0.06136858
108	0x3d2a9d75	0.04165407
109	0x3db9fe7d	0.09081743
110	0x3dee6be3	0.116416715
111	0xbd969e11	-0.073543675
112	0x3db87f45	0.0900865
113	0xbd75e069	-0.060028467
114	0xbd0e4d63	-0.03474177
115	0xbc0d785c	-0.008634653
116	0xbb158e37	-0.0022820362
117	0x3d3c6dc4	0.04600312
118	0x3cee4a29	0.029088097
119	0x3b70246e	0.0036642808
120	0x3df7361c	0.120708674
121	0xbd13df67	-0.036101725
122	0x3d2caea5	0.04215874
123	0x3df59581	0.11991406
124	0xbd4c9687	-0.04994824
125	0x3c585d01	0.013205768
126	0x3d616f13	0.05503757
127	0x3c505e0e	0.012717737
128	0xbda76981	-0.0817442
129	0xbba8386a	-0.005133678
130	0x3d686c86	0.05674412
131	0x3d8723e5	0.06598643
132	0x3d90355d	0.07041428
133	0x3d0fdb12	0.03512103
134	0x3d352e98	0.04423389
135	0x3ce6976b	0.028148374
136	0xbdbed585	-0.09318069
137	0xbdb2db06	-0.08733182
138	0x3ddb31c2	0.1070285
139	0x3d3fccf8	0.046826333
140	0xbd7df398	-0.061999887
141	0xbddef435	-0.108864225
142	0xbd3e72fb	-0.046496373
143	0xbcc537fb	-0.024074545
144	0xbd96a51d	-0.073557116
145	0xbd54b56a	-0.051930822
146	0x3ddd3f79	0.10803122
147	0xbdd71cb4	-0.105035216
148	0x3cbac994	0.022801198
149	0x3d4380db	0.047730308
150	0xbdb3ed41	-0.08785487
151	0x3c3a1052	0.01135643
152	0x3de4f031	0.111786254
153	0x3d919c3b	0.07109877
154	0xbdbd8953	-0.09254708
155	0xbb70eda7	-0.0036762746
156	0x3d6b47fe	0.057441704
157	0x3bc92821	0.006138817
158	0x3c69ec77	0.014277569
159	0xbd27b100	-0.040940285
160	0x3dac4588	0.084116995
161	0x3d08db3c	0.033412203
162	0x3da0944f	0.078407876
163	0x3ce59182	0.028023485
164	0x3d81a4d4	0.063302666
165	0xbd8baeec	-0.06820473
166	0x3d263571	0.04057831
167	0x3cd3a9b2	0.025837753
168	0xbcef4212	-0.02920631
169	0x3d5c5367	0.053790476
170	0x3d83ef96	0.06442182
171	0xbd2b96af	-0.04189175
172	0xbcce8b95	-0.025213042
173	0x3cab9529	0.020945149
174	0x3c581a18	0.013189815
175	0xbdc3af8d	-0.09554968
176	0x3db466f4	0.08808699
177	0x3d6eaf5b	0.0582727
178	0x3d5c1bb1	0.053737346
179	0x3dd44802	0.10365297
180	0xbd196ab9	-0.037455294
181	0xbc9a8a9d	-0.018864924
182	0x3dacb614	0.08433166
183	0xbda1c6df	-0.0789926
184	0x3d748653	0.059698414
185	0x3dc505f4	0.09620276
186	0xbc99f949	-0.018795626
187	0x3d9be283	0.07611563
188	0x3a9a7dd6	0.001178677
189	0x3db4c770	0.08827102
190	0x3d17bcbe	0.037045233
191	0x3dae93f6	0.08524315
192	0xbdbda537	-0.09260028
193	0x3d7f8b0b	0.06238846
194	0xbdca0c81	-0.09865666
195	0x3da740cd	0.08166657
196	0xbd00bd09	-0.031430278
197	0xbd0833d4	-0.033252552
198	0x3d1171a3	0.035508763
199	0x3c0d6e5f	0.008632272
200	0x3c244688	0.010026582
201	0xba8e9dca	-0.0010880765
202	0x3db690af	0.08914315
203	0xbd6d5cae	-0.057949714
204	0x3c5fd0d7	0.013660631
205	0xbc276ad0	-0.010218337
206	0xbd8d703d	-0.069061734
207	0x3dd2480a	0.102676466
208	0x3dc8ff26	0.09814291
209	0xbd36cab8	-0.04462692
210	0x3d290e81	0.041273598
211	0x3cf9b00b	0.030479452
212	0x3d922cda	0.07137461
213	0x3d838b19	0.06423015
214	0x3c8844e7	0.016634418
215	0xbd625929	-0.05526081
216	0xbda46df0	-0.080287814
217	0xba8d351a	-0.0010773272
218	0x3d147d0e	0.036252074
219	0x3cd19a3d	0.025586242
220	0x3d500a6b	0.050791185
221	0x3c357858	0.0110760555
222	0x3cd62556	0.02614085
223	0x3acfcc72	0.0015853776
224	0xbd706404	-0.058689132
225	0x3d38e687	0.045141723
226	0x3d4e51c1	0.050370935
227	0xbd801741	-0.06254435
228	0xbd4e253d	-0.050328482
229	0xbd6315be	-0.055440657
230	0x3d98b8ef	0.07457148
231	0x3d38192f	0.044945892
232	0xb9e3c4e1	-0.000434435
233	0x3db56fc5	0.08859209
234	0x3daf16b2	0.08549251
235	0xbd91376c	-0.07090649
236	0x3dc86aee	0.0978602
237	0x3d90ecd2	0.0707642
238	0x3d6bcd66	0.05756893
239	0x3d710e71	0.058851663
240	0x3d779338	0.060443133
241	0xbc2653ae	-0.010151787
242	0x3d9e1f0e	0.07720767
243	0xbdaca077	-0.08429044
244	0x3cdc720e	0.026909854
245	0xbbe6ecd2	-0.007047274
246	0x3daa3adf	0.0831201
247	0x3d5dafb9	0.05412266
248	0x3db9f8eb	0.090806805
249	0x3caadc27	0.02085693
250	0x3d352467	0.04422417
251	0x3dac08e0	0.0840013
252	0x3dbd9716	0.09257333
253	0x3dc178d1	0.09446872
254	0x3da235fa	0.079204515
255	0x3ba8c5b2	0.0051505202

head.2.weight f4 [128, 256]
0	0xbcd09927	-0.025463654
1	0xbd7f97b3	-0.06240053
2	0x3d375de3	0.04476727
3	0xbcdc7027	-0.026908947
4	0xbba6947b	-0.005083618
5	0xbd80a84b	-0.06282099
6	0x3a2fdc13	0.0006708514
7	0x3ce1326d	0.027489865
8	0xbd5e1558	-0.054219574
9	0x3d225c07	0.039638545
10	0xbcb5f405	-0.022211084
11	0xbd802924	-0.06257847
12	0x3d3fc092	0.04681451
13	0xbbf5abf7	-0.0074973064
14	0xbc85da26	-0.016339373
15	0x3d466c84	0.048443332
16	0x3cf19e5f	0.029494463
17	0x3d0391a2	0.03212131
18	0x3cb0d2c3	0.021584874
19	0x3b72e682	0.0037063663
20	0xbd31f62f	-0.04344767
21	0xbd5ac26c	-0.05340807
22	0x3c38c832	0.011278199
23	0xbc9e214b	-0.019302985
24	0x3cb6c615	0.02231125
25	0xbc181502	-0.009282352
26	0xbc511016	-0.012760183
27	0xbc87e0db	-0.016586712
28	0x3d15080d	0.03638463
29	0xbd4a0ddc	-0.049329624
30	0x3cc0bea5	0.023528406
31	0xbd87bc59	-0.06627721
32	0xb7d05e21	-2.4839364e-05
33	0x3cfe0341	0.031007411
34	0xbd741893	-0.05959375
35	0xbd4925b1	-0.04910821
36	0x3c7008fe	0.014650581
37	0x3d2c9ecd	0.04214363
38	0x3ce37ae7	0.027768565
39	0x3c91e806	0.017810833
40	0xbd224420	-0.03961575
41	0xbc0071a7	-0.007839597
42	0x3b97b53c	0.004629759
43	0x3d2afe6b	0.041746538
44	0xbd96dcd9	-0.07366342
45	0xbd10b794	-0.035331324
46	0xbc570231	-0.013123081
47	0xbd27ea6b	-0.040995043
48	0x3c13aff3	0.0090141175
49	0xbca740dd	-0.020416671
50	0xbc69e421	-0.014275582
51	0xbd0bf882	-0.034172542
52	0xbd06d77d	-0.03292035
53	0x3c2d0fa6	0.010562813
54	0xbd6e2e21	-0.05814946
55	0xbd8909d3	-0.06691327
56	0xbc7305bc	-0.01483291
57	0x3c5e3b58	0.013563953
58	0xbbdebee9	-0.0067976606
59	0x3cc14247	0.023591174
60	0xbd5111ce	-0.05104237
61	0xbd0562db	-0.03256498
62	0xbd85f949	-0.06541688
63	0xbc9b2c3c	-0.018941991
64	0x3cebd293	0.028786933
65	0x38818642	6.176207e-05
66	0x3cad9d30	0.021193117
67	0x3d3b5d02	0.045742996
68	0x3ca179a4	0.019711323
69	0xbb6331ba	-0.003466709
70	0xbd8fb76f	-0.07017409
71	0x3cac2d21	0.021017613
72	0xbd8210c4	-0.06350854
73	0xbd79fcdc	-0.06103216
74	0xba7fb479	-0.00097543705
75	0xbc70a72d	-0.014688295
76	0x3cd6475d	0.026157076
77	0x3d36e316	0.04465016
78	0xbcffb4a4	-0.031214066
79	0x3c2b9c2d	0.010474247
80	0x3d0a3959	0.033746097
81	0xbc3883ce	-0.011261893
82	0xbcc7040e	-0.024293926
83	0xbd9b3986	-0.07579331
84	0xbc0d210c	-0.008613836
85	0xbd5a65c7	-0.05331972
86	0xbd57e19a	-0.052705385
87	0x3cd4ebad	0.025991285
88	0x3c5efc31	0.013609932
89	0x3cc7faa5	0.024411509
90	0xbcaade3d	-0.020857925
91	0xbd898ca4	-0.06716278
92	0x3c6ed3ca	0.014576862
93	0x3cbc03ae	0.022950973
94	0x3cd49663	0.025950616
95	0xbc622f21	-0.013805182
96	0xbcd9a128	-0.026566103
97	0x3c29966a	0.010350803
98	0xbd6bb90f	-0.057549533
99	0xbd858fab	-0.06521543
100	0x3d100e64	0.035169974
101	0xbd4a97fa	-0.049461342
102	0x3cd93ccc	0.026518248
103	0x3cc08442	0.023500565
104	0x3c6b7824	0.0143719055
105	0xbc3fae03	-0.0116992025
106	0xbcabdc0f	-0.020978956
107	0xbd074e1d	-0.03303348
108	0xbd668378	-0.056277722
109	0x3cfe33a4	0.031030484
110	0xbc980a42	-0.018559579
111	0x3cb2342b	0.021753391
112	0xbd416728	-0.047217518
113	0xbd2d0f12	-0.0422507
114	0xbd4dc4b3	-0.050236415
115	0xb7e99310	-2.7844246e-05
116	0xbd8a72b1	-0.06760157
117	0x3d3f8824	0.046760693
118	0xbbf3a8e2	-0.007435904
119	0xbc9cd3d5	-0.019143978
120	0xbd7d976c	-0.061911985
121	0xbcb2e976	-0.021839838
122	0xbcb8c375	-0.022554139
123	0xbd2e2b1b	-0.042521577
124	0xbc71f49e	-0.014767794
125	0x3c0fb698	0.008771561
126	0x3c217ce6	0.009856438
127	0xbd62890a	-0.055306472
128	0x3ca45da2	0.020064179
129	0x3c38ab9f	0.011271386
130	0x3ce46a9d	0.027882868
131	0xbc2a4a6b	-0.010393719
132	0x3cf75a65	0.03019447
133	0x3c0c5f8c	0.008567702
134	0xbc578661	-0.013154597
135	0xbc2a9052	-0.010410385
136	0xbd6f9b71	-0.05849785
137	0xbd1f713c	-0.038926348
138	0x3bc32001	0.005954743
139	0x3c48df2d	0.0122602405
140	0x3d07ff13	0.033202242
141	0x3d0acc64	0.03388633
142	0x3cb5db5e	0.022199329
143	0x3cb98a82	0.022649053
144	0x37724c9e	1.4442163e-05
145	0xbd2347c6	-0.03986337
146	0x3c67000c	0.014099132
147	0xbc274c07	-0.010210997
148	0xbb3bd390	-0.0028660037
149	0x3c930fe2	0.01795191
150	0x3cde2e80	0.027121782
151	0x3ba4b242	0.005026133
152	0xbc717fe6	-0.014739966
153	0xbd7411cc	-0.059587285
154	0xbd10afd9	-0.03532395
155	0x3c6671d5	0.014065226
156	0xbd338f35	-0.043837745
157	0x3ca7c494	0.020479478
158	0xb990e353	-0.0002763519
159	0xbd89bef8	-0.067258775
160	0xbd781e7b	-0.060575943
161	0x3cdf4013	0.027252233
162	0xbca8bb32	-0.020597074
163	0xb97d9988	-0.00024185155
164	0xbaced80b	-0.0015780939
165	0x3d2fb1cb	0.042894166
166	0x3b21b69e	0.0024675499
167	0xbd8caadd	-0.06868527
168	0xbd257965	-0.040398974
169	0x348c9cb0	2.6191037e-07
170	0x3d1e79bc	0.038690314
171	0xbc7d5065	-0.015461062
172	0xbcd22c6f	-0.025655953
173	0xbd434e5c	-0.04768215
174	0x3d2df320	0.04246819
175	0xbcea2bd3	-0.02858535
176	0xbd920779	-0.071303315
177	0xbd76a661	-0.060217265
178	0x3ba26483	0.0049558296
179	0xbd133e22	-0.035947926
180	0xbc7c8e27	-0.015414751
181	0x3d06e3f5	0.03293224
182	0xbd0c7cd8	-0.034298748
183	0xbd019e52	-0.031645127
184	0x3d3d1d72	0.04617066
185	0x3c9eed32	0.019400213
186	0xbd8f2c7c	-0.069909066
187	0x3be04c12	0.006845006
188	0x3b70705a	0.003668806
189	0xbcacd8f6	-0.021099549
190	0x3d292077	0.041290727
191	0xbd64047d	-0.055668343
192	0x3c50aee0	0.012737006
193	0x3bcc88bc	0.006241886
194	0x3d3e4b95	0.0464588
195	0x3cae939f	0.021310626
196	0x38c42e8c	9.354678e-05
197	0x3c28f659	0.01031264
198	0x3d3a9887	0.045555618
199	0x3b7175e5	0.0036843952
200	0xbb88d906	-0.004176262
201	0xbd55bef4	-0.05218406
202	0x3ba8d37f	0.0051521654
203	0x3c776c2f	0.015101477
204	0xbd0e8819	-0.03479776
205	0xbc7884ac	-0.01516835
206	0xbb811d60	-0.0039402694
207	0xbcdd0763	-0.026981061
208	0xbd6baab3	-0.05753584
209	0xbd10f0e0	-0.035385966
210	0xbc0981b4	-0.00839274
211	0x3d2eaca4	0.04264511
212	0xbcb90d45	-0.022589335
213	0x3b9bac8e	0.0047507947
214	0xbca01464	-0.019540973
215	0x3ce5079c	0.02795773
216	0x3c46a006	0.0121231135
217	0x3c8260c3	0.01591528
218	0x3881d2d8	6.190472e-05
219	0xbd880805	-0.066421546
220	0xbc884075	-0.016632298
221	0xbd529798	-0.051414102
222	0xbb52f4cd	-0.003218937
223	0xbcf26e49	-0.029593604
224	0x3cd3ce44	0.025855191
225	0xbb5f33db	-0.0034058008
226	0xbd8b420f	-0.06799709
227	0xbd3027ae	-0.04300659
228	0x3c5a10c4	0.013309661
229	0xbd3a0c3b	-0.04542182
230	0xbc97ab10	-0.018514186
231	0xbd6f46f6	-0.058417283
232	0xbce6051a	-0.028078604
233	0x3ce09197	0.027413173
234	0xbd050fdf	-0.03248584
235	0x3c41e2f7	0.011833898
236	0xbd8509a6	-0.06495981
237	0xbc0de72f	-0.0086610755
238	0xbbbafd06	-0.0057064323
239	0x3c7841be	0.015152393
240	0x3c87ce31	0.016577812
241	0xb7df6995	-2.6632837e-05
242	0x3ccd7ec4	0.02508486
243	0x3c89ef07	0.01683761
244	0xbd3cc0aa	-0.046082176
245	0x3bc6aef5	0.006063337
246	0x3d40f506	0.047108673
247	0xbd549dfe	-0.051908486
248	0xbd2f6ac2	-0.04282642
249	0xbce19014	-0.027534522
250	0x3d07bbed	0.033138204
251	0xbd108039	-0.035278533
252	0xbc8f2add	-0.017476493
253	0x3d3c8fd3	0.0460356
254	0xbd23c340	-0.039981127
255	0xb88bf9bd	-6.674554e-05

head.2.bias f4 [128]
0	0x3d3667b4	0.044532493
1	0x3d3a005f	0.04541051
2	0x3c1e0305	0.009644275
3	0xbd1818c8	-0.03713301
4	0xbba3ec8a	-0.005002563
5	0xbaa42957	-0.0012524527
6	0xbd10ac49	-0.035320554
7	0x3c3f92f0	0.0116927475
8	0x3d4a1a86	0.0493417
9	0x3d4a4daa	0.049390472
10	0xbb54dc94	-0.0032480108
11	0x3d335001	0.04377747
12	0x3ceae9aa	0.028675873
13	0xbcafc64a	-0.021456856
14	0xbcfb37bd	-0.030666227
15	0xbb42c604	-0.0029720077
16	0x3d3e645c	0.04648243
17	0xbcff9102	-0.031197075
18	0x3caa6cc0	0.02080381
19	0xbc2e2dfd	-0.010631082
20	0xbcc1fd47	-0.023680342
21	0x3d35fb96	0.044429384
22	0xbb9aa3f4	-0.0047192518
23	0xbcfe8bf3	-0.031072592
24	0xbc1f5c39	-0.009726577
25	0x3d14eeda	0.0363606
26	0x3d162572	0.036656804
27	0x3ceca172	0.028885577
28	0xbd1731a4	-0.036912575
29	0x3c1dc419	0.009629273
30	0xbd8904a4	-0.06690338
31	0x3d4944d9	0.049137924
32	0xbcb2b93b	-0.02181684
33	0xbd149934	-0.03627892
34	0xbc7af433	-0.015317011
35	0x3d63852f	0.055546936
36	0xbc9990de	-0.018745836
37	0xbc69dc64	-0.014273737
38	0xbc90c937	-0.017674072
39	0x3d66d908	0.05635932
40	0x3cdde858	0.02708833
41	0x3cb91a5e	0.02259558
42	0xbc14a42b	-0.009072344
43	0xbd6106e9	-0.05493823
44	0x3d180481	0.03711367
45	0xbd2aed90	-0.041730464
46	0x3cdfbb35	0.027310947
47	0x3d2ab243	0.04167391
48	0x3bd63399	0.0065369126
49	0xbd8cda17	-0.06877535
50	0x3d56c378	0.052432507
51	0xbcb6f43c	-0.022333257
52	0x3cfef6d3	0.031123554
53	0xbc08d311	-0.008351103
54	0xbc17d5a9	-0.009267249
55	0xbcba3075	-0.022728184
56	0xbd13fd29	-0.036130104
57	0xbd0fdf2f	-0.035124954
58	0x3d993c71	0.074822314
59	0x3cab67fb	0.020923605
60	0x3d0674a1	0.03282607
61	0x3c6e5e8d	0.01454891
62	0xbbe4463e	-0.0069663813
63	0x3bc4629d	0.005993201
64	0xbce2707b	-0.027641525
65	0x3ccfd7e1	0.025371494
66	0xbd3e6e67	-0.046492007
67	0xbd0e634f	-0.034762677
68	0x3ce5280c	0.027973197
69	0x3d9a7f8b	0.07543858
70	0x3d4fcf19	0.050734613
71	0x3c20d702	0.009816887
72	0xbd2e3c72	-0.042538114
73	0xbaf1a6ad	-0.0018436514
74	0xbcff88b3	-0.031193113
75	0xbc85be8f	-0.016326217
76	0x3d942b49	0.072348185
77	0xbd6a041a	-0.057132818
78	0xbbd05422	-0.0063576857
79	0x3d3a8eb7	0.04554626
80	0xbcbd47cf	-0.02310553
81	0x3cac4598	0.021029279
82	0x3d43a674	0.047766164
83	0xbd38db3b	-0.04513095
84	0xbc2aa13c	-0.010414418
85	0x3c9c55fd	0.019083971
86	0x3c909281	0.017647984
87	0x3d3c9054	0.04603608
88	0x3d39b65f	0.04533994
89	0x3d527748	0.051383287
90	0xbc17eac4	-0.009272281
91	0x3d6a6515	0.057225306
92	0x3d36d6b0	0.044638336
93	0x3d705a89	0.05868009
94	0xbb06329f	-0.002047695
95	0x3d5fb1a1	0.05461276
96	0x3d31c1b9	0.04339764
97	0x3c838b4d	0.016057635
98	0xbd5800e3	-0.05273522
99	0xbd07e57b	-0.033177834
100	0xbd14bd9c	-0.036313638
101	0xbcf04c4b	-0.029333254
102	0xbb432dbd	-0.00297819
103	0x3d25be07	0.040464427
104	0x3cff6540	0.03117621
105	0xbd82af48	-0.063810885
106	0x3d7af1ff	0.06126594
107	0x3b0b7c7d	0.0021283918
108	0x3d365ba1	0.044520978
109	0x3d6dd94b	0.058068555
110	0xbcb0944f	-0.021555094
111	0x3d0c2d5e	0.034222953
112	0x3d45b752	0.04827053
113	0xbabc6280	-0.0014372617
114	0x3d06efe2	0.032943614
115	0xbd1bbb24	-0.038020268
116	0x3d94d36c	0.07266888
117	0xbc721e11	-0.014777676
118	0x3d4909c0	0.049081564
119	0x3c942b6e	0.018087115
120	0x3c8e509d	0.017372424
121	0x3b2b758e	0.0026162597
122	0x3d9cde24	0.076595575
123	0x3bb4fe31	0.005523466
124	0x3c9a0f9f	0.018806277
125	0xbcc0fa0f	-0.023556737
126	0x3c93ed9b	0.018057635
127	0xbce541d5	-0.027985493

head.4.weight f4 [12, 128]
0	0x3d8312c1	0.064000614
1	0xbbcf842d	-0.0063328953
2	0x3d27a70d	0.040930796
3	0xbd9f46a7	-0.07777148
4	0xbc8b5aa1	-0.017010989
5	0xbd0fa3a3	-0.035068166
6	0x3d9b41cb	0.075809084
7	0x3d711d08	0.058865577
8	0x3d0a9487	0.033833053
9	0xbc36c82c	-0.011156123
10	0x3c007913	0.007841366
11	0x3d729754	0.05922635
12	0x3ca89852	0.020580444
13	0x3c82ecd2	0.015982065
14	0x3ce4b361	0.027917566
15	0x3c5082a9	0.012726464
16	0xbdae251c	-0.08503172
17	0xbd843a36	-0.06456415
18	0xbc661fb2	-0.014045643
19	0xbd1920be	-0.03738474
20	0xbd1bbf0e	-0.038024
21	0xbda87607	-0.08225637
22	0xbd25e4bb	-0.040501337
23	0xbd9f2af2	-0.07771863
24	0x3c22d276	0.009937873
25	0x3a5ca874	0.00084174355
26	0xbd15e4e2	-0.036595233
27	0x3d6b584b	0.05745725
28	0x3d498c55	0.049206097
29	0xbda60639	-0.08106656
30	0x3d8a3ab2	0.067494765
31	0xbb78a87c	-0.0037942221
32	0xbda1c9e4	-0.07899836
33	0x3d9795d1	0.07401622
34	0xbba62c90	-0.00507123
35	0x3cd23d47	0.025663985
36	0x3d57e4ee	0.05270856
37	0xbd807f79	-0.062743135
38	0xbda7370e	-0.08164798
39	0xbdb6d083	-0.08926489
40	0x3d2fcb09	0.04291824
41	0xbba87e2e	-0.005141995
42	0xbd4434ca	-0.047901906
43	0x3b10245f	0.0021994335
44	0xbda18250	-0.07886183
45	0x3d98a394	0.07453075
46	0xbd96f215	-0.07370392
47	0xbc304f3d	-0.010761079
48	0x3cd93ec3	0.026519185
49	0xbcb2a6ed	-0.021808112
50	0xbd095b46	-0.03353431
51	0xbcbb7308	-0.022882
52	0x3ca978c7	0.020687474
53	0x3cd02402	0.025407795
54	0x3d609184	0.054826275
55	0xbda3f1b7	-0.08005088
56	0x3c548d83	0.012973192
57	0x3d83101c	0.06399557
58	0x3d41b97d	0.047296036
59	0x3d28b818	0.04119119
60	0xbd04f53d	-0.03246044
61	0x3c9f65db	0.019457748
62	0xbd3473f4	-0.044055894
63	0x3ceb8d2f	0.028753845
64	0x3d61c22f	0.05511683
65	0xbce9d1ee	-0.028542485
66	0xbdeabf4c	-0.11462268
67	0x3c438d6d	0.011935574
68	0xbc4fd4c1	-0.012685002
69	0xbdbb20a9	-0.09137089
70	0x3ce2f782	0.027705912
71	0xbc2e051a	-0.0106213335
72	0xbbbe0fd4	-0.0058002267
73	0x3d898cbf	0.06716298
74	0x3cd3716a	0.025810916
75	0xbd3b3676	-0.045706235
76	0xbcd81d13	-0.026381051
77	0x3d821330	0.06351316
78	0x3ad50e5a	0.0016254887
79	0xbd78bca3	-0.060726773
80	0xbde12b1e	-0.10994552
81	0xbd1259fe	-0.035730354
82	0xbd6eb0d2	-0.058274098
83	0x3cd042b0	0.025422424
84	0x3d819138	0.063265264
85	0xbd024097	-0.03179988
86	0x3c2af128	0.010433473
87	0x3d84e11e	0.0648825
88	0xbdcbe68f	-0.09956085
89	0x3d7d6e05	0.0618725
90	0xbdb88d5f	-0.090113394
91	0xbc869f62	-0.016433422
92	0xbd27091e	-0.04078018
93	0xbd60f424	-0.05492033
94	0x3d711fba	0.058868147
95	0x3b64d735	0.0034918312
96	0xbd3d355e	-0.046193473
97	0x3d0b0d39	0.033948157
98	0x3d24fb30	0.040278614
99	0xbc8eb7a5	-0.017421553
100	0xbd6e98ab	-0.058251064
101	0xbd9388f1	-0.07203854
102	0xbd660602	-0.056158073
103	0x3a1386f6	0.0005627716
104	0x3b113224	0.002215513
105	0x3d74ea2c	0.059793636
106	0xbdac64b1	-0.08417643
107	0x3b12093d	0.0022283338
108	0x3ce00269	0.0273449
109	0xbd97cdee	-0.07412325
110	0x3d1d5eb4	0.038420394
111	0xbdad4476	-0.084603235
112	0x3d113a83	0.03545619
113	0x3bfdb771	0.007742815
114	0x3c5f6fda	0.013637507
115	0x3812e3fa	3.5021432e-05
116	0x3d7b34d2	0.06132967
117	0xbc319bbc	-0.010840353
118	0xbd177edf	-0.036986228
119	0xbced9be7	-0.029005004
120	0xbd6f993d	-0.05849575
121	0x3c006ed5	0.007838924
122	0xbd30c9cc	-0.0431612
123	0x3d7f36b8	0.062308043
124	0xbdd310ab	-0.103059135
125	0xbd858637	-0.0651974
126	0xbc343272	-0.010998355
127	0x3d3a5951	0.045495335
128	0xbcc62d0a	-0.024191398
129	0xbb747bf4	-0.0037305327
130	0x3ca766d0	0.020434767
131	0x3d0be29b	0.034151655
132	0x3c022c43	0.007945123
133	0xbd8626a7	-0.06550341
134	0xbbba08a2	-0.0056772986
135	0x3d5a71c6	0.05333116
136	0xbdb2e4c4	-0.0873504
137	0x3d52c088	0.051453143
138	0x3db74439	0.08948559
139	0xbda0d8bb	-0.07853838
140	0x3cf2e204	0.029648788
141	0x3aa4236c	0.0012522764
142	0x3d01d663	0.031698596
143	0xbc927d1c	-0.017881922
144	0x3d966a44	0.07344487
145	0xbdb57128	-0.088594735
146	0x3d330b51	0.043711964
147	0x3d2020b8	0.039093703
148	0xbdb0242a	-0.08600648
149	0x3cd235e9	0.025660472
150	0xbdb14caf	-0.08657204
151	0xbba1bbc1	-0.004935712
152	0xbbc5453e	-0.006020217
153	0xbcb4dd3c	-0.022078149
154	0xbdb4d8f2	-0.088304415
155	0x3d4b23d3	0.04959471
156	0x3dac52bc	0.08414218
157	0xbdbdd9d2	-0.092700616
158	0xbd6d92e1	-0.058001403
159	0xbb7fb2cf	-0.003901649
160	0xbdb73609	-0.08945853
161	0x3d818193	0.063235424
162	0x3d3e4512	0.04645259
163	0xbd74a4f1	-0.059727613
164	0x3c946d22	0.018118445
165	0xbd0755b4	-0.033040717
166	0xbd6a7499	-0.057240102
167	0xbcc3a2c3	-0.023881322
168	0xbc916076	-0.017746191
169	0xbdb2460d	-0.087047674
170	0x3d62d5fd	0.055379856
171	0xbdaef121	-0.085420854
172	0xbd8ab859	-0.06773443
173	0xbca669af	-0.020314066
174	0x3d2a1477	0.041523423
175	0xbd3b6b1e	-0.04575645
176	0xbd84a7a2	-0.06477286
177	0x3d867e20	0.06567025
178	0xbdbd439c	-0.09241411
179	0xbdbc3c16	-0.09191148
180	0xbc538fda	-0.012912715
181	0x3d734ccc	0.05939941
182	0xbd2b969b	-0.041891675
183	0xbd16a465	-0.036777873
184	0x3c2b7965	0.010465954
185	0x3d468eab	0.048475903
186	0x3d13ee43	0.036115896
187	0x3d6500b9	0.055908892
188	0x3b8a65ca	0.00422356
189	0x3d3b2cd9	0.045697067
190	0x3d32f12e	0.043687038
191	0xbaca6f42	-0.0015444534
192	0xbc73305e	-0.014843075
193	0xbd18d324	-0.037310734
194	0x3d57decf	0.05270272
195	0x3cde3eb2	0.027129505
196	0xbdc1a8dd	-0.09456036
197	0x3d36f432	0.044666477
198	0x3d006cec	0.031353876
199	0xbd9b12a4	-0.07571915
200	0xb9819902	-0.00024718797
201	0xbdb6a6e0	-0.08918548
202	0xbca518d5	-0.020153442
203	0xbd2dd992	-0.04244382
204	0x3c7b1ab7	0.0153261935
205	0xbcee520f	-0.029091863
206	0x3c1b69bf	0.009485661
207	0x3d4acd14	0.049511984
208	0x3c8a9dc1	0.016920926
209	0xbc0a6511	-0.008446948
210	0x3d8f0dde	0.06985067
211	0xbd818ad7	-0.0632531
212	0xbc3e8204	-0.011627678
213	0x3d41e6df	0.047339316
214	0xbd44fa03	-0.048089992
215	0xbd8e452b	-0.069467865
216	0xbdb58287	-0.08862787
217	0xbd58d855	-0.052940685
218	0xbd9c4e90	-0.07632172
219	0xbc7c3c38	-0.015395217
220	0x3d1eddcf	0.038785752
221	0x3d8b129a	0.06790657
222	0xbd8f80ba	-0.070069745
223	0xbd6e52d3	-0.058184456
224	0xbdbacbf5	-0.09120933
225	0xbd30a579	-0.043126557
226	0xbd95c6c6	-0.07313304
227	0xbd96e72b	-0.073683105
228	0xbd275148	-0.040849
229	0x3d1ea34d	0.038729955
230	0xbdadb0c2	-0.084809795
231	0x3cfca6a3	0.030841177
232	0xbd89a61c	-0.06721136
233	0x3d9b9586	0.07596879
234	0x3d719206	0.05897715
235	0x3c47e126	0.012199676
236	0x3ce01950	0.02735582
237	0xbdcb9d4f	-0.099421136
238	0x3c210f42	0.009830298
239	0xbbca9514	-0.0061823223
240	0x3d5eec96	0.054424845
241	0x38b0a4c2	8.4230225e-05
242	0x3aefd6e4	0.0018298295
243	0x3a16870e	0.00057421706
244	0x3ccca1a1	0.024979414
245	0xbd190de7	-0.037366774
246	0x3d96ddef	0.07366549
247	0xbcf90970	-0.030400008
248	0xbdcae9ee	-0.099079
249	0xbb9aad6c	-0.0047203805
250	0xbdcfe922	-0.101518884
251	0xbd4728ca	-0.048622884
252	0xbd5ded92	-0.054181643
253	0xbd7f9300	-0.06239605
254	0x3d794356	0.060855232
255	0x3d6a3ad9	0.057185028

head.4.bias f4 [12]
0	0xbd694e9a	-0.056959726
1	0xbdceda2e	-0.10100208
2	0xbd421829	-0.047386322
3	0x3d160415	0.036624987
4	0x3d50f731	0.05101699
5	0x3d7499fc	0.059717163
6	0x3cc36c90	0.023855478
7	0x3ce7d3b1	0.028299185
8	0xbd280677	-0.04102179
9	0xbd24a80d	-0.04019933
10	0xbd057e0f	-0.032590922
11	0x3cbae3b0	0.022813648
