fault_model_nn_allprior_22_33kv_without_lstm/best_Y2025.pt (torch, 246328 bytes, 7 tensors)

emb.weight f4 [219, 16]
000000 f9 3f 39 bd 4b fd d3 bf e1 e1 86 bf 9c 33 ef bd
       -0.045227025 -1.6561674 -1.0537683 -0.116797656
000010 b4 b4 38 bf 75 ed 97 3d 01 e6 f1 3f 81 16 b7 bf
       -0.7215073 0.07418338 1.8898317 -1.4303743
000020 22 79 09 3e f9 b9 92 3e 56 1d dd 3e 44 3f 90 3e
       0.13425115 0.2865751 0.43186444 0.28173268
000030 90 e3 5a bf d0 4e a1 be 21 56 4a 3f 9e 3e db 3e
       -0.8550348 -0.31505442 0.7903767 0.4282121
000040 8d 0d 19 c0 0d 60 74 bd 07 e5 62 3e 3e 39 83 bf
       -2.391452 -0.059661914 0.2215768 -1.0251844
000050 4a 53 06 bf 2f f1 b1 3e 0d b6 6e 3f f3 bf 05 bf
       -0.5247084 0.3475432 0.9324654 -0.52246016
000060 f2 7b 60 3f d2 89 27 bf 3e 55 c4 3e ab 61 e4 3e
       0.87689126 -0.6544467 0.38346285 0.44605765
000070 34 d4 1b bc 17 83 45 3f aa 5b 25 bf c7 7e 97 bd
       -0.009511042 0.7715315 -0.64592993 -0.07397228
000080 bf 1d 4e 3f 59 0a 1b 3e c2 3e ec be fd c4 83 bf
       0.8051414 0.15140666 -0.4614163 -1.0294491
000090 e0 48 05 c0 9a c1 bd 3f ad 7e 8f be f0 a6 ce 3e
       -2.082573 1.4824708 -0.28026333 0.40361738
0000a0 1b 63 87 be a8 66 49 be d7 19 0c bf 65 9b cf 3d
       -0.264428 -0.19668067 -0.5472693 0.10137061
0000b0 33 de 45 bf 6e 8e 43 bf 5f ee ec 3d 1b e8 14 3f
       -0.77292174 -0.76389205 0.11568903 0.58166665
0000c0 29 63 76 bf 3b fa 65 bf 68 42 ae 3e 6d 86 d9 3e
       -0.96245056 -0.89834946 0.3403504 0.4248537
0000d0 1c e1 7a 3f 8c f4 01 bf 94 87 83 3f 0f 6f 1d 3f
       0.9799974 -0.50763774 1.027575 0.61497587
0000e0 04 96 96 bd e7 32 e2 be 29 b8 37 bf eb a9 3d be
       -0.07352832 -0.4417946 -0.7176538 -0.1852185
0000f0 cb b9 d4 3d d6 c7 d3 3f 79 02 a6 3d b0 96 df bf
       0.10387 1.654536 0.0810594 -1.7467861
000100 2f 4c a9 3e 74 1f 63 bf 96 00 e1 3f 3f 92 92 bf
       0.33065936 -0.8871987 1.7578304 -1.1450881
000110 99 2e e6 bf 77 49 18 bf 7f 1b 18 bf fb 05 8d be
       -1.798297 -0.594871 -0.59416956 -0.27543625
000120 79 6e 5e bf de fa 78 3f 50 38 11 3f 29 b2 67 3f
       -0.8688732 0.9725779 0.5672655 0.90506226
000130 b2 83 a6 3f f1 2f 81 bf 98 ae 76 3f e7 51 ff 3e
       1.300894 -1.0092756 0.9636016 0.49867174
000140 c4 a5 97 3f 48 50 52 3f 48 4f bf bf 21 9b 7f be
       1.1847463 0.8215375 -1.494607 -0.2496152
000150 3f 24 9b bf 51 12 b4 bf 3d 0d 83 3e b2 ca f0 be
       -1.2120436 -1.406809 0.25596038 -0.47029644
000160 13 5a 9b 3e c2 9c b0 bf 4f ee 89 bf 3a ae 9e bf
       0.3034216 -1.3797839 -1.0775851 -1.239692
000170 1c 24 16 bf 97 d8 8b bf 0e 8f 8f 3f 2a 47 b7 be
       -0.5864885 -1.0925473 1.1215532 -0.3579648
000180 44 a5 00 40 28 4c ff be d8 ac 75 bf de 49 47 3f
       2.010087 -0.4986279 -0.95966864 0.7784709
000190 98 66 8e bf 5c 32 46 c0 39 c0 12 bd bd 9a b7 bf
       -1.1125059 -3.0968237 -0.03582785 -1.4344097
0001a0 8f 9f e2 3d 5c 07 0f 3f 9e 9b 81 3f 98 95 3d bf
       0.1106559 0.55870605 1.0125616 -0.74056387
0001b0 67 52 93 bf 69 e7 82 be f4 7a ab 3f 79 3e c3 be
       -1.1509522 -0.25567177 1.3396897 -0.381336
0001c0 89 ec a0 bd 32 ae 2e be ba f6 9c bf 90 dd ee 3e
       -0.078576155 -0.17058638 -1.2262795 0.46653414
0001d0 e7 cb 13 3f 19 38 12 bf e6 c6 55 3f 63 a5 74 3e
       0.57733005 -0.5711685 0.8350662 0.23891215
0001e0 c2 77 aa be 51 bd 95 3f 07 06 c7 be 3a ca a2 3c
       -0.33294493 1.16984 -0.38871786 0.01987182
0001f0 30 0f cc be 88 47 00 c0 98 7a 5d 3d 6d 94 93 3f
       -0.39855337 -2.004366 0.054071993 1.1529671
000200 dd c0 be be 39 b1 b5 bc 39 7a a0 bd c5 48 69 3f
       -0.37256518 -0.022179233 -0.07835812 0.9112666
000210 dc 89 2c 3e 34 dd d3 bd 63 91 23 3f 05 02 62 be
       0.16849464 -0.103449255 0.6389372 -0.22071083
000220 81 bf e8 bf 4d 5c 12 3f 05 c5 a4 3f 72 61 41 bf
       -1.8183442 0.5717209 1.2872626 -0.75539315
000230 bf 03 aa 3e 20 65 16 bf e5 94 30 bf 1e 92 d2 bf
       0.33205983 -0.58748055 -0.68977195 -1.6450841
000240 a1 ce 1d 3e c4 4b 97 3f 8f c5 03 3e a5 0d dc be
       0.15410854 1.1819997 0.12868331 -0.4297916
000250 62 41 de be de ca bd be 23 af 30 3e a6 41 06 3e
       -0.43409258 -0.37068838 0.1725431 0.1311098
000260 1c c5 e3 3f 7b 2e a3 3d 6e 31 92 3f 5f 70 2a 3d
       1.7794528 0.0796785 1.1421335 0.04161107
000270 e3 1b 52 bf f1 c0 ed bd a5 4f ea bf 3c f4 a7 be
       -0.820738 -0.11609066 -1.8305556 -0.32803524
000280 9a 3c 68 3f 6a 56 58 bf c0 75 81 be 4c 2a 83 3f
       0.9071747 -0.8450686 -0.2528515 1.0247283
000290 82 e1 86 bf 09 1c ee 3f 86 8a 09 c0 bc 0e 70 3f
       -1.053757 1.8602306 -2.1490798 0.9377248
0002a0 3b 25 8f 3f 05 94 f4 bd 6f 89 60 3e 0f 66 a3 bd
       1.1183237 -0.11942295 0.21927427 -0.079784505
0002b0 79 35 a3 3e d0 ac 12 c0 84 ba fa bd fc ef 33 3e
       0.31876734 -2.2917976 -0.12242606 0.17572016
0002c0 26 32 b4 bf f8 13 80 3f 02 20 8a be 06 a3 35 3f
       -1.4077804 1.0006094 -0.26977545 0.7095188
0002d0 03 4a 35 3d a4 e8 f2 3f 07 a0 df 3f 76 75 c3 bf
       0.044260036 1.8977246 1.7470711 -1.5270221
0002e0 eb 96 ae 3f 93 00 14 c0 51 f3 c9 bf cb 84 d0 be
       1.3639807 -2.312535 -1.5777379 -0.40726313
0002f0 01 f6 72 3f 40 24 bf be e1 a3 52 3f 3c 62 16 3f
       0.9490662 -0.37332344 0.8228131 0.58743644
000300 68 76 91 be bb a3 50 3f 1d b9 07 bf d3 c8 d3 bc
       -0.2841065 0.8149983 -0.53016835 -0.025852596
000310 95 0a ea 3e 80 d3 b6 3f fa 5e bd be 5e b1 80 3f
       0.45711198 1.4283295 -0.36986524 1.0054128
000320 3d 03 80 3f ad fb 1e 3f b1 13 52 bf 13 f5 a7 bb
       1.0000988 0.62102777 -0.82061297 -0.0051256507
000330 4e 47 82 3f da 5e 8f bd 83 3d 61 3f 78 9e 06 3f
       1.017801 -0.070005134 0.87984484 0.52585554
000340 6b 92 80 bf b9 5d 2a be 12 4b 8f bf ac 19 4a bf
       -1.0044683 -0.16637315 -1.1194785 -0.7894542
000350 22 a5 da bd 5b 56 b2 be 03 d3 0f be 7e 4c fb bf
       -0.10676028 -0.3483151 -0.14045338 -1.9632719
000360 f3 41 81 be a4 73 c2 3f 2f 14 ae 3f 14 a7 93 3f
       -0.25245628 1.5191541 1.359991 1.1535363
000370 19 70 e9 3e 25 be 37 3e cb 03 a9 bd 62 af 9d 3f
       0.45593336 0.17943628 -0.082526766 1.2319148
000380 b1 f1 74 3f 31 c8 83 3f f4 cd 01 bf 2d d0 95 bf
       0.9568129 1.0295469 -0.50704885 -1.1704155
000390 f6 16 13 c0 7a f0 17 40 4f 6e ff be bb a5 6f 3f
       -2.2982764 2.3740525 -0.49888846 0.9361226
0003a0 c4 f1 51 3f 94 36 50 3f bd 87 65 3f 82 fd 4b 3e
       0.8200953 0.8133328 0.89660245 0.19920924
0003b0 5e 60 63 bf de 83 02 3e 18 9c 43 3f 6a cb b6 3f
       -0.8881892 0.12745616 0.76410055 1.4280827
0003c0 6b 13 02 3f 35 13 39 3f 1c a0 ba 3f 2b 08 b0 3e
       0.5081088 0.7229493 1.4580112 0.34381232
0003d0 46 4c 65 3e 45 27 37 bd a9 eb d1 3e f3 67 76 bf
       0.22392377 -0.044715185 0.41000107 -0.96252364
0003e0 d2 a9 46 bd c6 ea 91 bf 4e c3 dc be ac 3e d9 3e
       -0.048501797 -1.1399772 -0.43117756 0.42430627
0003f0 a3 9c 13 c0 ce 95 83 bf ac 32 96 bf 48 ba f5 be
       -2.3064353 -1.0280092 -1.1734214 -0.47993684

head.0.weight f4 [256, 88]
000000 ea 1d 51 bd 9e 28 66 3d e9 99 23 bd e9 00 36 3d
       -0.05105392 0.05619108 -0.039941702 0.04443446
000010 19 6e dd bc 17 ca 14 bd 90 3b d6 bb 2e b1 79 3c
       -0.027030038 -0.03632554 -0.006537862 0.015239997
000020 9f 18 8f bc 4c 59 ed 3c 0b 8d dc bd 9d 53 f6 3d
       -0.017467795 0.028973244 -0.10769089 0.12027667
000030 fa e0 e8 3a 04 76 cc bb c2 8e 36 bd fc 9e 4c 3d
       0.0017767244 -0.0062396545 -0.04456974 0.049956307
000040 25 05 b1 38 82 98 22 3d eb 02 dc bd fe 46 dd 3d
       8.440976e-05 0.039696224 -0.10742744 0.10804556
000050 57 48 2e 3c fa 3a d4 bd 1e e5 96 3d d3 bd 11 bd
       0.010637364 -0.103628114 0.073679194 -0.03558142
000060 ed af a7 bd 34 3b db bb 14 6e 83 b8 5e 5e 96 3d
       -0.08187852 -0.006690407 -6.2670704e-05 0.07342218
000070 e8 86 84 3d c1 f1 ae 3d 5a 8c b0 bc f8 fa dd 3d
       0.06471044 0.08542205 -0.0215513 0.10838884
000080 9f 39 6d 3b d3 bb 90 3d 7c af 30 3c 2b 3d 67 3d
       0.0036197675 0.070670746 0.010784026 0.05645482
000090 1d 02 7c 3d e5 45 09 3c 73 cf 01 3d 00 7e 3e 3d
       0.061525453 0.008378481 0.03169198 0.04650688
0000a0 32 bf c1 bd c8 4a 61 3d 53 51 bc bd da 08 93 3d
       -0.09460296 0.055002958 -0.09195199 0.07179423
0000b0 4d 1c 58 3c b4 f7 c7 3c fe 08 eb bd 66 df 78 3d
       0.013190341 0.024410106 -0.114763245 0.060759924
0000c0 d2 0c 57 bb cd 60 9c 3d ff 8e e9 bc 95 f0 9b 3c
       -0.0032814038 0.07635651 -0.028510569 0.019035617
0000d0 df 3d 43 b9 3e fa e6 bc 56 5c 38 bd 6d 89 9f 3d
       -0.00018619698 -0.028195497 -0.045009933 0.07789884
0000e0 a0 5b 8c 3c 67 6b 9b bd b0 0a d6 3d ca 25 39 3d
       0.017133534 -0.07588845 0.10451257 0.045202054
0000f0 d4 bf ca bd 9c 4c 83 3c 83 2c f6 bb 59 b9 0a 3d
       -0.098998696 0.016027741 -0.0075126304 0.033868168
000100 02 5b d3 b7 d1 68 cb bd 0c 3d a7 3d 47 8e a8 3d
       -2.5195539e-05 -0.099321015 0.08165941 0.08230262
000110 57 91 b1 3d 88 8f 47 bd 40 af 1f 39 7a 40 84 3d
       0.086702995 -0.048720866 0.00015228707 0.064576104
000120 a0 c3 72 3c 2f a0 84 3d 4e f6 89 3d f4 c0 99 bc
       0.014817148 0.06475865 0.06736432 -0.018768765
000130 13 d9 90 bc bb bc 0e bd 3c 75 b9 3c d1 ae 94 bd
       -0.017681634 -0.034847956 0.02263891 -0.07259906
000140 86 b1 ba bc 1b d9 58 bd 1c f6 47 3c 84 9a 35 bd
       -0.022789728 -0.052941423 0.012204673 -0.04433681
000150 ca 9b ae bc 38 50 1d 3c 2e cf fc 3b 36 7e ee 3c
       -0.02131452 0.009601645 0.0077151274 0.029112916
000160 2a 52 cc bd e2 21 b5 bd 52 ee 79 bb ef 5e 47 bc
       -0.09976609 -0.08844353 -0.0038136435 -0.01216863
000170 40 ee 80 3d 7b 04 ac 3b 63 90 6d 3d aa 15 f4 3c
       0.062954426 0.0052495576 0.057999026 0.029795486
000180 e4 75 98 b7 eb 12 f9 bb c2 ed 8b bd 87 0c c0 bd
       -1.817471e-05 -0.007601132 -0.06832458 -0.093773894
000190 46 68 2e bd 10 6f 9e bc 88 fe bc bd 99 2b 09 3d
       -0.04257991 -0.019340068 -0.092282355 0.033488844
0001a0 58 dc 52 3c 9c d9 a7 3d e6 21 8a bc b7 00 67 bd
       0.012869917 0.081958026 -0.016861867 -0.056397166
0001b0 78 70 23 3d 5f 77 16 3d 93 bf 88 3d f0 f4 bc bd
       0.03990218 0.036734935 0.06677165 -0.092264056
0001c0 78 a0 90 bd 58 fa bc bd 4d d6 b6 37 89 f9 2b bd
       -0.07061857 -0.09227437 2.1795882e-05 -0.041986022
0001d0 0f f8 50 3b 66 e3 d2 3a 07 5e 43 bd dc b2 54 3d
       0.0031886136 0.0016089499 -0.047697093 0.051928386
0001e0 f5 02 85 bc 66 0f cb 3d 8c 83 74 b7 79 e1 af bd
       -0.016236762 0.099150464 -1.45741615e-05 -0.08587927
0001f0 85 34 a7 bd 2c cb 1c bd e8 7a 25 bd 98 64 a6 3c
       -0.08164314 -0.038279697 -0.040400416 0.020311639
000200 50 9f 11 3d 1f 83 d7 3b ce 4c e6 bd c2 c1 24 bd
       0.035552323 0.00657691 -0.11245118 -0.040223844
000210 12 e5 9c 3c 4e 08 3d bd 7e c8 81 bd 65 23 19 3d
       0.019152198 -0.046150498 -0.06337069 0.03738727
000220 23 e6 5d bd e5 f5 67 3c 12 4c 9f bd ad d5 a0 bc
       -0.054174554 0.014157747 -0.07778181 -0.019633139
000230 b1 a0 b9 b8 a2 5d fd 3c fa 6c c6 bd 7e 80 f2 3c
       -8.8514185e-05 0.030928437 -0.096887544 0.029602285
000240 ae 15 c9 3c 0b 37 43 bd 1f 24 b1 3d 9a 6b 80 bd
       0.02454647 -0.047659915 0.08649468 -0.06270523
000250 84 1d 32 3d 75 b5 9f bd b2 6b 08 37 80 c1 09 bc
       0.04348518 -0.07798282 8.1313065e-06 -0.00840795
000260 d0 87 8a bd 9a 21 a1 3d b0 4f 38 bd 56 58 aa 3d
       -0.067641854 0.07867737 -0.04499787 0.0831763
000270 ec 3d 21 bd f4 89 bf 3c 4e c7 d4 bb 50 d9 99 bd
       -0.039365694 0.02338121 -0.0064934855 -0.07512152
000280 15 07 17 bc a2 b5 f5 bc da 43 20 bc 6f 70 44 bd
       -0.009217997 -0.029993836 -0.009781802 -0.047958788
000290 81 69 ef 3c 90 a5 bf 3d 23 ce e8 3d e5 77 b1 bd
       0.029225113 0.093577504 0.113674425 -0.08665446
0002a0 b9 ff d0 bd 1a a7 a3 3d 19 b3 71 3c d1 32 fd bc
       -0.10205025 0.079908565 0.014752173 -0.03090802
0002b0 0b 79 00 3b 28 76 ac bd f0 2f 45 bc fb 7c 84 bd
       0.0019603397 -0.08420974 -0.012035355 -0.06469151
0002c0 b7 19 92 3c 37 53 c8 bd 64 1d bd 3d ce 06 ef bd
       0.017834527 -0.09781497 0.092341214 -0.1167122
0002d0 32 ca 35 3c 6b 23 3f bd 2f f1 78 bd 47 98 88 bb
       0.01109557 -0.046664637 -0.060776886 -0.0041685435
0002e0 7c f3 08 bc ca fe cd b9 f0 14 3e bc 84 e6 cb 3d
       -0.008358832 -0.0003929048 -0.011601672 0.09956077
0002f0 fb fb c6 bd e1 90 31 3d 38 1f cb 3d 5a 72 a8 3d
       -0.0971603 0.043351058 0.09918064 0.08224936
000300 cb 10 52 37 d3 c1 1e bd 6f ac 51 3d 06 4d 6a bd
       1.2520885e-05 -0.038759064 0.051189836 -0.05720236
000310 44 fd 39 bc 3c 4f d8 3d cd 8e 9e bb 72 de 58 3d
       -0.011351887 0.10561988 -0.0048388005 0.052946515
000320 85 2d a5 3d e3 17 98 bd 80 36 7a bb 2e 1a 5c 3a
       0.08065323 -0.07426431 -0.0038179457 0.0008396235
000330 91 7b 15 3d 40 a3 bd 3d bd e6 e8 3c a4 0a b7 bc
       0.036494795 0.09259653 0.028430337 -0.022343941
000340 00 07 97 3d fc b6 01 bc 43 6a be 38 ae 71 b6 bd
       0.07374382 -0.007917162 9.079699e-05 -0.089084014
000350 06 d6 d7 bd b4 00 b7 bd 92 94 a7 3c a8 d8 70 bd
       -0.105388686 -0.08935681 0.020456586 -0.05880037
000360 ed 2c c9 3d 7f 03 e0 3c 02 ba 34 bd c7 89 98 3d
       0.09823022 0.027345417 -0.044122703 0.07448154
000370 8c 8a 07 3b 77 aa 64 3d 45 d1 d0 bd 10 7b b8 bc
       0.0020681946 0.05582663 -0.10196165 -0.022519618
000380 50 c4 64 3d 35 d1 9f 3d 40 97 da 3d c8 36 bc bb
       0.05585128 0.07803575 0.1067338 -0.005743835
000390 4a f2 75 39 18 99 dc 3d f9 07 1b bd 1c 04 e7 3c
       0.0002345528 0.10771388 -0.0378494 0.028200202
0003a0 62 aa 16 bd bb 23 fe bc 04 3f e3 bc 5a c6 c2 bd
       -0.036783583 -0.031022897 -0.02774001 -0.09510489
0003b0 1b 71 6f 3d 2b d3 9a bd d3 6a 17 38 9b b7 da 3c
       0.058457475 -0.07559808 3.6100693e-05 0.026698878
0003c0 c0 68 f7 bc 7d 73 88 bd a0 ce 3a 3c bd d8 cf 3c
       -0.030201316 -0.06662653 0.011401802 0.025371904
0003d0 bf 16 d0 bc 5a ed 28 3d 76 2b 0d 3b a6 f3 a4 3d
       -0.025401471 0.04124198 0.0021540797 0.08054285
0003e0 0b be b3 3d 07 d7 62 3d 6c 36 9a bd 2b 64 fe 3d
       0.08776482 0.055380847 -0.075299114 0.12421449
0003f0 12 3a e9 bc c9 47 5d 3c e5 2c cf bd 84 4c 5f 3d
       -0.028470073 0.013505884 -0.10115985 0.05451633

head.0.bias f4 [256]
000000 e4 ff 8c 3c d4 c3 a3 3d d7 53 ce 3b 3d ac ea 3c
       0.017211862 0.079963356 0.0062966156 0.028646583
000010 d4 54 ba bd 11 ac 14 bb d2 08 08 3d 0a 93 98 3d
       -0.09098211 -0.0022685567 0.033211537 0.074499205
000020 2b 72 10 bd ea a3 0b 3d d0 50 76 bd 85 a2 4c 3c
       -0.03526513 0.034091868 -0.060135663 0.01248992
000030 34 5c 5f ba 7b a3 08 3c 3d 88 8b bc 90 cb a5 bd
       -0.0008520514 0.008339758 -0.017032737 -0.08095467
000040 a1 c0 c9 3d 38 5d b8 bc 46 50 d6 3d aa 00 b6 3d
       0.09851194 -0.022505388 0.1046453 0.088868454
000050 40 28 8c bd 0f d2 8b 3d 61 d4 8b bd 58 22 28 39
       -0.068436146 0.06827175 -0.068276174 0.00016034523
000060 70 25 e0 bd 25 be 94 bd 24 4b b1 bd b4 b2 57 bd
       -0.10944641 -0.0726283 -0.0865691 -0.05266066
000070 0b c3 15 3d 02 6f 7e b9 a2 16 ee 3d 9f 99 92 3d
       0.03656296 -0.00024264681 0.116254106 0.07158207
000080 cb 90 1b bc 3c 1a 5f bd bd cd b0 3d cf 7c 31 bd
       -0.009494971 -0.05446838 0.086329915 -0.043331917
000090 94 d1 a6 3a f8 fa cb bd 3a 2e 92 3d 18 17 d4 3c
       0.0012727254 -0.09959978 0.07137723 0.025889918
0000a0 fd 54 9b bd bb 3e f2 3c 5a a5 c3 bd 30 93 ee 3b
       -0.075845696 0.029570928 -0.09553023 0.0072807297
0000b0 f6 ce e7 bc 26 57 93 bd 60 8f 77 3d 2e 5f 96 bd
       -0.028296929 -0.071943566 0.060439467 -0.07342373
0000c0 41 dd 22 bd f8 6d d8 3d 61 10 d1 bc c7 29 31 bc
       -0.039761785 0.1056785 -0.025520505 -0.010813183
0000d0 17 37 14 3d 53 ba 22 bd b9 85 83 3d fa 2d 9e 3b
       0.03618535 -0.039728474 0.0642199 0.004827258
0000e0 20 cf b1 3d 3b d1 9c bb 70 ad c8 3d 11 90 bc 3d
       0.08682084 -0.0047856844 0.097987056 0.09207166
0000f0 99 8e 79 3c 79 7c 5c 3d 8c ec 67 3c c1 24 1f 3d
       0.015231752 0.053829644 0.014155518 0.03885341
000100 34 20 6e 3b d4 6a 6c 3d b9 4f 09 bd 58 95 18 bc
       0.0036335113 0.057719067 -0.033523295 -0.00931295
000110 20 59 22 3c ee d9 fa 3d 7b 8b 93 3d 44 2f 78 bd
       0.009908944 0.12248598 0.07204338 -0.06059195
000120 21 a1 86 bb cd 8c 96 3d c0 ec a9 38 e3 85 93 bd
       -0.0041085635 0.07351074 8.102646e-05 -0.07203271
000130 56 10 4c bd d2 f9 ab bc a1 7c e0 bd 33 05 ee 3d
       -0.049820267 -0.020993147 -0.10961271 0.116220854
000140 8d da 64 bd 72 62 9c 3d ba 8f 5a 3d c3 9b ce 3d
       -0.05587249 0.076359645 0.053359725 0.10088303
000150 3f 27 a9 bc e1 a8 7b bd 85 a6 aa bd 2e e7 39 3d
       -0.020648597 -0.061440352 -0.08332542 0.045386486
000160 cb 0c bb 3d 3e 13 e3 3c 2f 64 9e bd a9 64 d6 3a
       0.091332994 0.027719136 -0.07733952 0.0016356903
000170 65 28 91 bd 0f 4a 4d bd f6 ae 4f 3d 3d 68 11 3d
       -0.07087783 -0.050119456 0.050703965 0.0354998
000180 b3 78 6f bc ae 37 8a 3d 73 9b 8d 3c aa 0f a7 3d
       -0.014616179 0.06748901 0.017286038 0.081572846
000190 56 0f 79 bd 57 21 dc 3d 5c 07 5d bd 1b 79 97 bd
       -0.06080564 0.107485466 -0.053962097 -0.07396146
0001a0 0b 3b 9e bd c1 d6 d6 bb 8f 0d 1b bd 21 9b 18 3d
       -0.07726105 -0.0065563624 -0.037854727 0.037257317
0001b0 b8 48 86 3d 12 b7 ac 3d 38 99 b9 bd 48 b9 93 bc
       0.06556839 0.084333554 -0.09062427 -0.018032685
0001c0 5f ff c6 3b 46 f0 2b bc 19 a3 ac bc 98 44 51 3d
       0.006072923 -0.010494297 -0.021073865 0.051090807
0001d0 a4 63 cd bd 44 ab 81 bd 6b 71 a2 bb fd 09 57 bc
       -0.100287706 -0.063314945 -0.004957368 -0.01312494
0001e0 1c e2 89 3b 5c 63 10 3d ae e1 92 3c 27 5f 3d bd
       0.0042078625 0.035251006 0.017929878 -0.046233322
0001f0 c6 a8 53 3d 4d 01 4a 3d 29 d5 6e bd ef cb fe 3d
       0.051674627 0.049317647 -0.058308754 0.12441241
000200 d1 94 16 3d d6 71 c3 3d 95 07 a5 3d e7 c8 8e 3c
       0.036763016 0.09543197 0.08058087 0.017429782
000210 df 92 65 bd 8e a7 85 bd ae f7 7a bd c5 1d e7 3d
       -0.05604827 -0.06526099 -0.061271362 0.11284975
000220 ae 1d bb 3c db 0e 86 3d 4a 36 d0 3d cc 6a b3 3d
       0.0228413 0.06545802 0.10166605 0.08760604
000230 ce 1a c8 bd b1 0b a0 bd ec a6 23 3d 24 fb c6 3d
       -0.097707376 -0.0781473 0.03995411 0.0971587
000240 b5 fa d1 3d d4 c9 ef bc ba a9 1a 3d 16 56 e3 3d
       0.10252897 -0.029271044 0.03775952 0.11100404
000250 b8 43 f4 bc 1e b1 ef 3a cc 82 2d 3d 15 e6 ee 3c
       -0.029817447 0.0018287038 0.042361066 0.029162446
000260 4f 84 a8 3d 8c 95 e9 bc 90 89 2f 3d 95 ce 8b 3d
       0.08228361 -0.028513692 0.0428558 0.06826512
000270 a9 c7 98 3d 3b f3 45 bd 26 53 7b bd d0 8e 24 3d
       0.07459957 -0.048327666 -0.061358593 0.04017526
000280 08 50 b7 3d 64 28 1d 3d 1b 36 db 3d af 61 ba bd
       0.089508116 0.038368598 0.10703679 -0.09100663
000290 6f 65 97 bd cc ca 76 3d fd 6e bf bd a0 e4 7a bc
       -0.07392394 0.060251996 -0.09347341 -0.0153132975
0002a0 e5 48 14 3d 3b bc 1b 3d fd d1 b0 3d ae da 97 3d
       0.03620233 0.038021307 0.08633802 0.07414757
0002b0 64 5b 8a bd 33 02 07 bd 32 4c bc bc db 06 90 3d
       -0.06755713 -0.03296108 -0.022985552 0.070325576
0002c0 d4 c7 e4 3d e1 22 9a bb ab 16 cf 3d 9c 0c 15 3d
       0.11170927 -0.004703865 0.101117454 0.03638898
0002d0 9c 33 65 bd 91 da 98 bd d8 85 45 3d 14 19 0b bb
       -0.05595742 -0.07463563 0.048223346 -0.0021224665
0002e0 08 46 2f bd d7 99 c9 bd 39 75 5c bd 0d 37 7e 3d
       -0.042791396 -0.09843796 -0.05382273 0.06206422
0002f0 48 4d e9 bd 9d 20 b4 bd 27 d3 b1 3b d5 35 aa 3d
       -0.11391693 -0.08795283 0.0054267826 0.08311049
000300 8f 6a ca bd a2 50 ab bc 82 37 8d 3d 9a 24 88 bd
       -0.09883606 -0.020912472 0.06895353 -0.06647606
000310 b1 57 d1 bb 93 11 a1 bb 68 0e 8b 3d 37 ec e2 3d
       -0.0063886275 -0.004915425 0.06789857 0.11080211
000320 f6 a3 51 bd 16 55 99 3d 57 e3 b9 3d fc 95 b6 3d
       -0.051181756 0.07486932 0.09076565 0.08915326
000330 39 e7 aa bd 79 10 17 bc 6d 21 97 3d 85 5b ae 3d
       -0.083448835 -0.009220236 0.07379422 0.0851355
000340 28 3d 69 3d bd 55 ba 3d 78 ce 4b 3d 45 1c 46 3c
       0.05694309 0.090983845 0.04975745 0.012091701
000350 64 e9 f8 3d 93 5b b0 3c 4c 21 8d b8 f5 63 86 bc
       0.12153891 0.021528041 -6.729606e-05 -0.016405085
000360 cf 9b ed 3c 1b e5 a6 3c 0b e2 a7 3d 15 5d bc 3d
       0.02900496 0.020372918 0.08197411 0.091974415
000370 c3 97 20 bd 39 2c d1 3d 4f a6 dd 3d 22 ae c4 bc
       -0.03920723 0.10213513 0.108227365 -0.024008814
000380 a3 96 4e bd 9f bd e6 3d b2 70 8f bd d3 79 d3 3d
       -0.050436627 0.11266636 -0.07003917 0.103259705
000390 9f 63 47 bd c9 53 b8 3d 86 f7 8f 3d 65 68 07 bd
       -0.04867899 0.09000356 0.07029633 -0.033058543
0003a0 09 0a ae bd 84 ef 27 3d ac 6c 9e 3d 5d 6c cb 3b
       -0.08498008 0.040999904 0.07735571 0.0062079863
0003b0 93 87 81 bc bc c4 32 bd 25 2f 4f bd 41 d0 90 bd
       -0.015811717 -0.04364465 -0.05058207 -0.07070971
0003c0 9b 6d 02 bd d2 b3 34 bd a6 8b c0 3d 91 30 af bd
       -0.03184281 -0.044116803 0.09401636 -0.08554185
0003d0 1f 60 a1 3d a3 1f 5c 3d 32 28 14 bd 77 0b 1a 3d
       0.07879662 0.05374111 -0.036171146 0.03760859
0003e0 08 02 81 3d 0b 5f 9b bd 72 8a 6d 3d 98 2f 3b 3d
       0.062992156 -0.075864874 0.05799336 0.045699686
0003f0 36 4d 9c 3c 9f b6 43 3d 60 06 51 3c 3a 78 45 bd
       0.019079786 0.047781583 0.012757868 -0.04821036

head.2.weight f4 [128, 256]
000000 bd 73 2a 3d f5 35 4d 3b cf 01 c3 3c bb 6d cd 3c
       0.041614283 0.0031312678 0.023804573 0.025076738
000010 53 c3 cf 3c be f8 d9 bb 72 b9 86 bd 12 2a 7a 3b
       0.025361693 -0.006651967 -0.0657834 0.0038172049
000020 a1 c3 13 bd cd 99 82 3c 06 5e dd bc 38 b2 31 3a
       -0.03607524 0.015942479 -0.027022373 0.0006778571
000030 91 ef 07 3d ad ea a7 3b 52 cb 55 bd 3c de 1a 3c
       0.033187453 0.005124411 -0.052195854 0.009452399
000040 da 4a da 3c b8 14 b0 bc 97 b1 63 bd d5 19 c5 bc
       0.02664702 -0.021494254 -0.055589285 -0.02406017
000050 ab 0b 54 3d 4a 20 af bc 75 06 b5 bb b7 6a 8f b8
       0.05176894 -0.021377701 -0.0055244514 -6.8386486e-05
000060 c0 d1 8a b8 ca 2c 26 bc d4 79 a6 bb 79 b4 db bc
       -6.619422e-05 -0.0101425145 -0.005080441 -0.026819455
000070 07 5c 04 3d 48 29 80 36 2b 32 e4 3c c6 b3 be bb
       0.032314327 3.819503e-06 0.027855953 -0.0058197705
000080 f7 19 35 bd de 2e ee bc 90 fb 70 bd 56 6e 29 3b
       -0.044214215 -0.029075082 -0.05883366 0.002585312
000090 26 95 b9 bc 78 d4 90 bd b8 b2 05 3c 0d 9f ed bc
       -0.022654127 -0.07071775 0.008160286 -0.029006505
0000a0 67 40 d6 bc 92 1f f9 bc af dc 0f bd 98 fe c0 bc
       -0.026153756 -0.030410562 -0.03512257 -0.0235589
0000b0 0e e2 ff bb 25 de 9a bc 1b 00 03 3b f6 eb df b7
       -0.0078089302 -0.018904755 0.0019989077 -2.669355e-05
0000c0 62 e3 13 3d a7 67 8e 3c 8f 07 a2 3a 10 fc 43 3d
       0.03610552 0.01738341 0.0012361872 0.047847807
0000d0 08 fe c6 3c 0d 04 2a bd d5 b5 1a bd 57 24 70 bd
       0.024291053 -0.04150777 -0.037771065 -0.058628406
0000e0 88 a3 b0 bc 0e 18 40 3d 18 cd 0e 3d 8c 42 e3 bc
       -0.021562353 0.04689794 0.03486356 -0.027741693
0000f0 bb d6 25 3c cb 90 bc 3b ef ac 84 bd 2e 17 a1 ba
       0.0101219965 0.0057545654 -0.06478297 -0.0012290233
000100 f2 94 92 b7 be 1d 83 3b 0d f8 42 bc 40 77 62 bb
       -1.7473914e-05 0.0040013483 -0.01189996 -0.0034555942
000110 81 2c cb bc b9 c5 d4 3b 1c 3e 1b 3d 17 74 00 3d
       -0.024801495 0.006493297 0.03790103 0.031360712
000120 d6 5c 87 bd b9 29 4b bd 0e a5 ed b6 9e 4d 1a 3d
       -0.06609504 -0.049600337 -7.0823653e-06 0.037671678
000130 16 a5 25 bd 72 6c e7 3c 47 05 83 3a a3 b3 e2 3c
       -0.04044064 0.028249953 0.000999608 0.027673548
000140 d6 4b 50 3c 40 8f 30 bc 18 2a 89 bd 15 30 42 bd
       0.012713393 -0.010776341 -0.06697482 -0.047409136
000150 50 d6 91 ba 81 de 56 3d 9d 53 58 bd c0 cf 01 bd
       -0.0011126492 0.05245829 -0.052814115 -0.031692266
000160 37 39 55 bd 0b 16 3e 3d 94 b9 37 bc ef 01 88 bb
       -0.052056517 0.04640774 -0.011213679 -0.004150621
000170 6d 44 53 bc 10 92 1d bd df e8 3c 3d 3c fb ce 3c
       -0.012894732 -0.038469374 0.04612052 0.025266282
000180 9b 02 2a bd 18 53 8f bc d2 7f 19 3d c1 02 97 3c
       -0.04150639 -0.017495677 0.037475415 0.01843393
000190 8a 87 5a bd d7 b9 68 3c 4f 1d 35 3d be 8c 1f 3d
       -0.053351916 0.014204464 0.044217404 0.03895258
0001a0 3d 05 30 bd c4 6a eb 3c be ea 8d bd 0f fb 2f bd
       -0.042973746 0.028737433 -0.06929539 -0.042964038
0001b0 59 13 25 bd 32 5a 9b bc dc 79 56 bd 23 e0 82 bd
       -0.040301654 -0.018963907 -0.052362308 -0.06390407
0001c0 22 db 4c bd df af 2a 3d 51 e4 31 3d 7c 89 0f bd
       -0.05001367 0.04167163 0.04343063 -0.035043225
0001d0 ca 18 c7 3b 4c 2a e4 bc 35 94 03 b7 ad ee ee bc
       0.006075953 -0.0278522 -7.842716e-06 -0.029166544
0001e0 8c 2d eb 3c 4e 54 be 3c 93 e5 39 3d 41 24 37 3d
       0.028708242 0.023233559 0.045384955 0.04471231
0001f0 cc 8f 18 3b d2 93 66 bd 36 62 ae bc 73 cf 9d b9
       0.002327907 -0.056293316 -0.021287065 -0.00030099935
000200 eb 5e 22 bd e8 1a 8a bc 68 06 97 3c 7c eb 3e 3d
       -0.039641302 -0.016858533 0.018435672 0.046611294
000210 cc 4d a7 bb 66 40 36 bd cc f6 1d 3d df 81 47 bc
       -0.0051057097 -0.04449501 0.038565442 -0.01217696
000220 0e b6 86 bc 98 f6 a2 3a 10 e2 f7 bb 94 30 6e 3b
       -0.016444232 0.001243311 -0.0075647905 0.0036344873
000230 b9 04 78 bc 45 1b e3 ba d0 c6 d5 bc 9b 80 79 bd
       -0.015137845 -0.0017326853 -0.026095778 -0.060913663
000240 5a 75 c6 3c 95 ce 43 3d d1 c9 79 bc 58 79 4c 3d
       0.02422588 0.047804434 -0.015245871 0.04992041
000250 60 04 28 bd ed e4 0c b9 01 e5 55 bd f2 74 54 bd
       -0.041019797 -0.00013436722 -0.05222035 -0.05186934
000260 89 1c 17 3d f0 bc 04 3d ff e7 d3 3a 5e d7 9d bc
       0.036892448 0.032406747 0.0016167163 -0.019267734
000270 ce d3 34 bc 63 91 88 3c 8d 11 4a bc 4b 77 1e bd
       -0.011036826 0.016670888 -0.012333286 -0.038687985
000280 a3 4d a9 bc 31 eb c8 bc e7 9e 58 bd 5d 06 49 3d
       -0.020666903 -0.02452621 -0.052885916 0.049078334
000290 86 da 77 bc 5d 7c 16 bd 14 bb 40 bd b8 fb c6 3c
       -0.015127784 -0.036739696 -0.04705341 0.02428995
0002a0 41 14 02 3d cc a5 2f bd 3f 10 1b bd f3 af 8d 3c
       0.031757597 -0.042882726 -0.03785729 0.017295813
0002b0 e7 db 2f 3d 6c da 2b bd cc 18 19 bc e7 a0 58 bd
       0.042934325 -0.04195635 -0.009344291 -0.052887823
0002c0 d5 a9 23 bd a9 68 56 bc 02 32 81 bd 1a 81 57 bd
       -0.039956886 -0.013086476 -0.06308366 -0.052613355
0002d0 e2 9f 02 bd 3d 68 2b 3c 2e 0e 30 3d dd 5a 24 3d
       -0.031890757 0.010461864 0.042982273 0.040125716
0002e0 00 61 0c bd 1e 17 d3 bc 3d 04 91 bc cb 6d 8c bc
       -0.034272194 -0.02576786 -0.017702216 -0.017142197
0002f0 57 df 21 bc 7e 2e b6 bc 2e 3c 34 3d 97 4a 86 bd
       -0.0098799085 -0.022238966 0.044002704 -0.06557196
000300 05 20 b8 3c 20 a2 de 3c 13 42 25 bd f0 87 1a bc
       0.022476206 0.027176917 -0.040346216 -0.009431824
000310 b5 ae 38 3d 1e 0c 23 bd a6 db 09 3c 97 d8 dc 3b
       0.04508849 -0.039806478 0.008414185 0.0067396867
000320 84 02 d7 bc 29 d5 81 bd fb 84 e4 bb 21 0e 0d 3d
       -0.026246317 -0.06339485 -0.0069738603 0.034437303
000330 a9 f1 de bc 95 dc a8 bc 07 3c b3 b9 6e fc 45 bd
       -0.027214842 -0.020612994 -0.00034186264 -0.04833644
000340 a2 d6 18 bd eb 00 94 bc bb 26 76 bd 51 e4 18 bd
       -0.037314065 -0.018066844 -0.06009553 -0.037327114
000350 07 6d b7 bc 2b d5 79 bd f4 92 db 3c a6 97 65 3c
       -0.022390855 -0.06099431 0.026803471 0.014013207
000360 87 cb 1c bd 96 72 6f bd 1a 0e c2 bc 60 1b ac 36
       -0.038280036 -0.058458887 -0.023688365 5.1291863e-06
000370 6f 95 9d 3c 90 fc 19 3d 62 b8 f5 3c 3f 8f 09 bc
       0.019236295 0.037594378 0.029995147 -0.008395969
000380 a2 5d 02 bd a3 7c 81 bd aa 60 ad 3c 99 76 d0 3c
       -0.031827576 -0.06322601 0.021164257 0.025447177
000390 3d ba e1 bc 39 05 5b 3c 94 08 c3 bb 52 37 69 3c
       -0.027554626 0.013367944 -0.0059519503 0.014234381
0003a0 29 32 58 bd 4e 65 42 bd 1a 8c a4 bc 4e cb 4b bd
       -0.05278221 -0.047459893 -0.020086337 -0.049754433
0003b0 bd 2e 61 bd 5c bc 02 bc 4c cb 59 bd 64 42 16 bc
       -0.054976214 -0.007979479 -0.053172395 -0.009171102
0003c0 d1 ec a1 ba 5b 8f 72 bb e5 ed 02 39 bf 76 10 bd
       -0.0012353902 -0.0037011716 0.00012486389 -0.035269495
0003d0 30 8a e4 3b ab bc e8 3c 58 74 99 bc 5b 0a 85 bd
       0.006974481 0.028410276 -0.018732235 -0.06496116
0003e0 0e 41 5a 3c b8 bf 15 bd 3c 56 3d 3d 86 c7 9c bc
       0.013321174 -0.03655979 0.046224818 -0.019138109
0003f0 25 d7 55 bc 5a 13 4a bb 9a 00 b5 bb 1c 07 1c bd
       -0.013051783 -0.0030834288 -0.0055237534 -0.038092718

head.2.bias f4 [128]
000000 93 58 19 bd 84 16 c0 3c 54 d7 18 3d 79 65 61 3c
       -0.037437987 0.023448236 0.037314728 0.013757103
000010 a1 74 e7 3c 15 77 13 bd bf e8 4a bd dd 4f f5 bc
       0.028253855 -0.036002237 -0.04953837 -0.029945308
000020 b7 b7 07 bd 89 ac 55 bc cd a4 68 bd 27 dd 76 3c
       -0.03313419 -0.013041624 -0.05679779 0.015067375
000030 30 79 43 bc dd fe 85 bb 61 21 11 bd d2 0f e4 3b
       -0.011930749 -0.00408922 -0.035432223 0.0069598937
000040 70 49 10 bd f3 43 37 bd c9 0e 85 3d 1c ec 21 bd
       -0.035226285 -0.044742536 0.06496961 -0.039531812
000050 3e 3e 90 3d e7 8f 17 3d ac a5 01 bc 28 8b f8 bc
       0.07043122 0.03700247 -0.007913034 -0.030339792
000060 b5 ba d7 ba 19 cb fa bc 90 43 1f 3c e9 60 1b bc
       -0.0016458841 -0.030614423 0.009720698 -0.009483554
000070 ba 2d 68 3c 95 a1 96 3d f7 a5 63 bd f9 75 ee 3c
       0.014171058 0.07355038 -0.0555782 0.029108988
000080 e8 fc 69 bc 72 be 38 3d 35 1b 0b bc 9d f2 65 3d
       -0.014281489 0.045103498 -0.008490373 0.056139577
000090 46 39 7c bc a1 86 e4 bc e5 3f 0e bd 7a 22 7c bd
       -0.015394514 -0.027896227 -0.034728903 -0.061556317
0000a0 6d 62 6b 3d 22 58 22 3d 08 59 ed 3c 66 0d 58 3d
       0.057466913 0.03963483 0.028973117 0.052747153
0000b0 d3 e4 90 bc fe d8 d0 bc 0f 0b 19 3d 35 0f f5 3c
       -0.017687237 -0.025494095 0.037364062 0.029914478
0000c0 ac d6 7e 3d 75 84 0d bd 34 52 42 bc c2 a4 16 3d
       0.062216446 -0.03455015 -0.011860419 0.03677822
0000d0 61 ec db 3c 6e bb a2 3d e1 2c 63 bd 57 0f 15 3b
       0.026846113 0.079459056 -0.05546272 0.002274474
0000e0 99 6f 21 bd cf 6a e1 bb bf 3d cf 3c b4 d7 0d bc
       -0.03941307 -0.0068791877 0.025297998 -0.008657385
0000f0 24 6a e7 3c 10 88 11 3d 6f 7f 02 3c 33 c1 87 bc
       0.028248854 0.03553015 0.007964953 -0.016571617
000100 88 ed fe 3b 03 bf dd 3b 9c 68 40 3c b3 d2 a1 3b
       0.007779781 0.006767155 0.011743691 0.0049384474
000110 9f 7e 4a 3c 4e 3f 5e 3c ce f2 24 3c 8f 7a 03 3d
       0.01235929 0.013564898 0.010067655 0.032099303
000120 a7 59 c3 3c 3c 41 5c bb 5d 8f 06 3d 1f eb 69 bd
       0.02384646 -0.0033608219 0.032851566 -0.057108995
000130 c0 81 0f bb 11 34 17 3d 00 b0 1c 3d 3d 63 89 bc
       -0.0021897405 0.03691489 0.038253784 -0.016770953
000140 4f a5 93 3d 6e 28 45 bc 10 17 73 3d 7f ca 97 bc
       0.072092645 -0.012033565 0.059348166 -0.018529175
000150 44 c9 db 3c 4a 8c 76 bc e3 01 26 3d 5f 85 cc 3c
       0.02682937 -0.015048096 0.040529143 0.02496594
000160 59 3f 31 bd 54 c4 92 bc 6f 9d 44 3c 76 5b a9 3c
       -0.043273304 -0.017915882 0.012000426 0.020673495
000170 61 6a d1 3c f3 51 96 bb df 43 bc bc be 92 90 ba
       0.02556342 -0.004587406 -0.022981582 -0.0011030061
000180 15 fe f0 3c 20 92 44 bd 58 30 22 3c 91 3e 23 3d
       0.02941803 -0.04799092 0.009899221 0.03985459
000190 10 f6 46 3d b5 c6 d9 bc 9c d1 08 3d 58 42 ae bb
       0.048574507 -0.026584009 0.033403024 -0.0053179674
0001a0 d4 92 5f bd 88 ed 22 bd e4 16 65 3d f9 33 64 3d
       -0.054583386 -0.03977731 0.055930033 0.055713627
0001b0 85 f5 85 3c 1a a9 85 bb 92 fb a1 3c 34 0b ab 3c
       0.016352424 -0.0040789964 0.019773278 0.020879366
0001c0 40 23 43 bd 6e 22 d0 bc 19 09 82 3d 4c 46 bb 3b
       -0.04764104 -0.025407042 0.063493915 0.005715167
0001d0 95 43 14 3d b7 9b 78 ba b9 43 58 bd 5b 49 36 bd
       0.036197264 -0.00094836525 -0.05279896 -0.04450355
0001e0 17 67 3b 3d 67 5d 30 bd 63 d9 40 38 f5 e1 11 3d
       0.04575261 -0.043057825 4.5978824e-05 0.03561588
0001f0 e7 28 a0 3d 53 99 88 3d 90 c2 7a bd 56 31 f9 3c
       0.078203015 0.06669869 -0.061220706 0.030419033

head.4.weight f4 [12, 128]
000000 94 55 eb 3c 79 54 9b bc bd 27 e8 bc ea 26 40 3d
       0.02872733 -0.018961178 -0.028339261 0.04691211
000010 b8 5f b1 3c 5e 7d 88 3d 10 e0 01 3d 9d 5d 8b 3c
       0.021652088 0.06664537 0.031707823 0.017012412
000020 a3 68 00 bd ea f0 2c 3c 7c f4 77 3c 80 12 0a b5
       -0.03134979 0.010555485 0.015133973 -5.143593e-07
000030 ea c1 c0 3c a1 73 cc 3c b0 0c 1f 3d c5 24 86 3d
       0.023529965 0.02495748 0.03883046 0.06549982
000040 cc 59 b3 3c 32 e4 ad 3b d5 82 bb bc af 9d 88 3c
       0.021893404 0.005306744 -0.022889534 0.016676752
000050 64 85 2f bd 39 49 67 bd 53 a5 44 bd 74 d8 db 3b
       -0.04285182 -0.056466315 -0.048009228 0.006709153
000060 c5 dc d3 bd 37 1f d6 bd 0b b2 7a 3d 41 23 56 3c
       -0.10344843 -0.104551725 0.06120495 0.013069929
000070 60 b8 fb 3c ee 07 2f 3d 44 ea 79 3d d4 e6 5f bd
       0.030727565 0.04273217 0.06101443 -0.054663494
000080 78 66 34 bd 0e 3c 7d 3c 98 76 52 bd 81 99 36 3c
       -0.044043034 0.015456213 -0.05138263 0.011144997
000090 34 cb ed 3c cc 96 f3 3c 62 06 86 3d af 17 4a 3d
       0.029027559 0.029734991 0.06544186 0.049338993
0000a0 45 5e 84 bd 9e d3 49 bd fb 28 5d 3d da 99 14 bd
       -0.06463293 -0.04927408 0.05399416 -0.036279537
0000b0 d9 31 9a bd dc c5 41 3d 83 24 3f 3d 05 e3 fc bc
       -0.07529039 0.047307834 0.04666568 -0.03086997
0000c0 41 7e da 3c 5f 5e ab bd 34 35 e3 3c 81 1d bd bd
       0.02667153 -0.08367609 0.02773533 -0.09234143
0000d0 8c 8b 84 3d ca d9 be bd 95 0b 95 3c 88 b4 ae bd
       0.06471929 -0.09318884 0.018194 -0.08530527
0000e0 6a e6 f8 bc 29 45 1e bd 7c 65 fc 3a 25 18 6a 3d
       -0.030383307 -0.038640175 0.0019256319 0.057151932
0000f0 43 f3 4d 3d 08 74 39 3d f3 9f f9 bc 00 bb db bc
       0.05028082 0.04527667 -0.030471778 -0.026822567
000100 40 3d 94 3d 03 e6 d2 bc b3 07 56 3d b3 08 c0 3b
       0.07238245 -0.025744444 0.052253436 0.005860412
000110 f1 29 69 3d fd 8f 57 bc ef 23 3c bd 0b 87 8e bd
       0.056924764 -0.013156888 -0.045932706 -0.06959351
000120 ef 18 a9 bd 01 30 75 3d ac a8 5d bd 32 1f b0 bc
       -0.08256709 0.059860233 -0.054115936 -0.02149925
000130 e9 f1 2c 3d 01 55 15 bc d9 52 63 bd e5 f7 05 bd
       0.04222289 -0.009114505 -0.05549893 -0.032707114
000140 b3 2f 28 bd db 0f 42 3d 05 38 fc 3c 71 11 d5 bc
       -0.041061115 0.047378402 0.030788431 -0.026009293
000150 03 f4 43 bd 31 ff 4a bd 1c 5e 27 bd 44 7d 61 3d
       -0.04784013 -0.049559776 -0.040861234 0.055051103
000160 fa 91 9a bb 24 68 3a 3d 96 e9 d6 bd f1 16 cd 39
       -0.004717109 0.045509472 -0.10493772 0.0003911774
000170 f3 40 32 3b 47 4e 59 3d 40 b5 3b bd 5d d6 02 bd
       0.0027199357 0.053053167 -0.04582715 -0.031942714
000180 0d b9 e9 bc dc 8f e0 3c 9e 93 94 bd e0 92 73 3c
       -0.028530622 0.027412347 -0.07254718 0.014866561
000190 5a b0 f4 3c fc f4 07 bd 92 b5 99 bd 33 81 eb bb
       0.029869247 -0.03319262 -0.07505335 -0.0071870326
0001a0 f2 ca 08 bd 44 ec a8 3b 64 2b cc bd 58 d4 88 bb
       -0.03339667 0.005155118 -0.099692136 -0.004175704
0001b0 54 04 b3 bd 96 65 a8 38 08 bf 7b bd 65 35 55 bd
       -0.0874106 8.029786e-05 -0.06146148 -0.052052874
0001c0 5f 20 cd 3c cd 9c 14 3c 61 6a 31 bc d4 31 95 3c
       0.02503985 0.009070587 -0.010828585 0.018212236
0001d0 0a cb 35 3d 8a a8 b8 bd 65 14 1e bd 2c 21 4e 3c
       0.044383086 -0.09016521 -0.03859367 0.012581151
0001e0 3c 95 3a 3c c0 60 91 3d 51 96 d0 ba 76 84 8f 3c
       0.011388119 0.07098532 -0.0015913938 0.017519217
0001f0 a9 e1 e2 bc 56 57 d1 bd cc ab 9c 3d a4 14 db bd
       -0.027695494 -0.10221736 0.07649955 -0.10697296
000200 5e cf b4 bd 6a 1b 78 3d b6 66 3f 3d e6 66 4f bc
       -0.08828615 0.06057302 0.046728812 -0.01265881
000210 f8 6c 07 bd b6 55 87 bd 08 54 a8 3c 6f e7 54 bb
       -0.033062905 -0.06608145 0.020547882 -0.0032486578
000220 59 04 e4 bc 15 6a 01 3d 96 9e c8 bb 54 6d 29 bd
       -0.027834104 0.03159531 -0.0061224205 -0.04136403
000230 bb 77 9b 3d c0 72 83 bd f0 df 7a 3d 58 f3 98 3c
       0.07591196 -0.06418371 0.06124872 0.018670723
000240 82 bd f4 3c 9e 42 54 bd 8e bb 8b bd a0 54 74 bd
       0.02987552 -0.051821344 -0.068228826 -0.059651017
000250 88 62 68 bd 15 fd bb ba dd 8c 9a 3d 18 a9 8e 3d
       -0.05673459 -0.0014342392 0.07546399 0.06965846
000260 56 d4 73 3b 00 6f c3 bd 4c af a3 bd c5 3e 09 3c
       0.003720542 -0.09542656 -0.079924196 0.008376782
000270 43 4a 83 3c 3d d8 a6 bc 74 d5 00 3d 2c a6 b8 bb
       0.016026622 -0.020366782 0.031453565 -0.0056350436
000280 b0 0c a2 3c 64 01 0b bc 28 b4 14 3d f9 e5 ea bc
       0.01978144 -0.008484218 0.036304623 -0.028674113
000290 b5 06 0d bc 86 48 6f 3c 08 4b da 3c 88 c7 4c bd
       -0.008607556 0.014604693 0.026647106 -0.049994975
0002a0 ed 60 86 bd 29 f4 94 bb 99 1d c0 bd 22 09 c0 bc
       -0.06561456 -0.0045457077 -0.09380645 -0.023441855
0002b0 1c ec 1f 3d 29 d6 9c 3d f0 1f 94 3c 50 a3 9b 3d
       0.03904353 0.07658035 0.018081635 0.07599509
0002c0 68 8e 3f bd 3b 4e 9c bd e5 f4 17 bd 61 58 4d bd
       -0.04676667 -0.07632109 -0.037098784 -0.050133113
0002d0 07 d5 36 bd c4 fd ea bc 6e 86 ed bb 23 0e f1 bc
       -0.044636752 -0.028685458 -0.0072486913 -0.029425686
0002e0 eb 38 bd 3c 8e bc ac bd 5b 98 3b 3d d0 c3 97 3c
       0.02309843 -0.084344015 0.045799594 0.018525988
0002f0 f0 bd f9 b9 be 11 23 3d 4c 12 ce bd 3e e8 9a bc
       -0.00047634495 0.039811842 -0.100620836 -0.01890957
000300 9d 45 7b 3d 7f f0 0f 3d fd 84 98 3d ae 20 f3 bb
       0.061345685 0.035141464 0.074472405 -0.007419667
000310 9f 80 5f bd 0a b5 8e 3d 9d 5c 18 bc 39 05 62 3d
       -0.054566022 0.06968124 -0.0092994245 0.055180762
000320 db 52 3d bd 37 2b 27 bd 3c 11 05 3d 06 e8 5a 3d
       -0.046221595 -0.040812697 0.03248714 0.05344393
000330 7c c2 b8 3c 1b ed 54 bd a0 8d 63 3d 36 78 98 bd
       0.022553675 -0.051983934 0.055554986 -0.074448034
000340 b0 55 d3 bd 48 a3 88 bd 9b 66 5d bd b7 fc 4f bd
       -0.10319078 -0.066717684 -0.05405293 -0.050778117
000350 95 14 fb 3c 58 33 87 bd 0b fe 20 bd 84 fe 75 3d
       0.030649463 -0.0660159 -0.039304774 0.06005718
000360 0f d3 18 bd a3 40 ca bd ff 66 a9 ba 12 87 81 3d
       -0.037310656 -0.0987561 -0.0012924372 0.06324591
000370 10 b5 cf bc 1b 27 9c 3d b3 90 c6 3c cc 1c 8e bd
       -0.025354892 0.07624646 0.02423892 -0.06939086
000380 57 72 5f bd d7 5a 1b bd 52 e6 49 3b d5 bc a0 bd
       -0.054552402 -0.03792843 0.0030807448 -0.07848517
000390 76 f3 59 bd 18 1e 7a bd df 4b 60 bc e8 94 dc 3b
       -0.053210698 -0.061063856 -0.013689964 0.006731618
0003a0 b8 ac 4b bc 10 17 75 bc dd 42 90 bc 66 5d ab bd
       -0.012431316 -0.014959112 -0.017610008 -0.08367424
0003b0 65 19 02 bd 08 45 0d 3a f4 1f ab bd 59 b0 f8 3c
       -0.0317625 0.00053890096 -0.08355704 0.030357527
0003c0 28 ec 49 bd 6a 73 08 bd 59 eb a2 bd 8c 53 94 bd
       -0.04929748 -0.033313192 -0.07955045 -0.07242498
0003d0 7e 70 fd 3b 18 b3 3c bd 87 ec 03 3d d0 61 26 bd
       0.0077343574 -0.046069235 0.032207992 -0.040620625
0003e0 35 f5 50 3c b2 49 92 3d 08 07 09 ba f0 7b 02 3d
       0.012753774 0.071429625 -0.0005227183 0.031856477
0003f0 44 f9 7d bd 12 68 ab 3a d0 a8 68 bd 42 dc 4f 3d
       -0.062005296 0.001307728 -0.056801617 0.050747164

head.4.bias f4 [12]
000000 9a d2 c9 3c bd 83 0c 3a f1 6d c1 bd 32 31 f3 bc
       0.024636555 0.00053602067 -0.09444798 -0.029686544
000010 f5 75 77 3d 3c 59 09 bc 59 2d c6 bd ff 7f c0 3c
       0.060415227 -0.008383092 -0.09676618 0.023498533
000020 09 bb 84 bd 69 3c 10 bc 53 92 12 3d e6 1e 4f 3d
       -0.064809866 -0.008803465 0.035784077 0.050566576
