fault_model_nn_allprior_22_33kv/best_Y2025.pt (torch, 929527 bytes, 15 tensors)

emb.weight f4 [219, 16]
000000 95 ea 18 37 d2 d0 ef bd 63 17 94 3f 45 be db 3d
       9.114524e-06 -0.11709751 1.1569637 0.107296504
000010 4e 24 a6 bf 07 36 2b 3f 6b c6 9e bf 10 55 c0 be
       -1.2979829 0.66879314 -1.2404302 -0.37564898
000020 c2 91 48 b7 0a 3e 8a bf be e6 3e 3e 45 35 a9 bf
       -1.1954866e-05 -1.0800183 0.18642709 -1.3219382
000030 a5 38 fc 3f 09 16 9d 3f df b5 7b 3f 3a 25 9b be
       1.9704787 1.227235 0.9832439 -0.3030184
000040 87 9a 48 be 93 df 91 3f f0 78 d9 be 64 0a d3 3f
       -0.19590198 1.1396354 -0.4247508 1.6487546
000050 78 c2 f0 3f b2 af 56 3d f0 4c 99 bf 37 89 2a bf
       1.8809347 0.05241365 -1.1976604 -0.66615623
000060 83 ff 60 3f 1c 45 92 be a0 7c b8 be 6f d7 0a 3f
       0.8788988 -0.2856835 -0.3603258 0.54234976
000070 ae 2f b2 bf 4c 7f f3 3d 0d 95 2c bf 39 01 ac be
       -1.3920801 0.11889514 -0.67414933 -0.33594683
000080 f7 30 9a 3f 17 c7 4c bf 99 7f 25 3e b4 5b 68 3f
       1.2046193 -0.79991287 0.16161956 0.9076493
000090 84 09 a8 be 52 49 a8 bf 67 d7 92 bf 89 e8 33 bf
       -0.3281976 -1.3147376 -1.1471986 -0.70276695
0000a0 12 89 04 3e a1 5f 4f bf 60 87 d0 3d f3 54 7a 3f
       0.12942913 -0.81005293 0.10182071 0.9778587
0000b0 31 44 36 c0 57 d7 26 bf ae 9b 70 3f d9 42 2a 3f
       -2.847912 -0.6517233 0.9398755 0.6650825
0000c0 37 f3 26 bf 61 11 ce 3d 3c 78 ab bf a3 4f 2a 3f
       -0.65214866 0.100619085 -1.3396068 0.66527766
0000d0 04 7f 7b 3f 3b 28 83 bf 73 a5 a4 bf 59 e6 54 3d
       0.98240685 -1.0246652 -1.2862991 0.05197749
0000e0 b1 91 d3 3f 85 ad 39 3f fb b8 66 3f a6 c6 0f 3f
       1.6528836 0.72530395 0.9012601 0.5616249
0000f0 7e 23 fa be 59 29 aa 3f f3 49 aa 3f 14 54 5a 3f
       -0.48855203 1.3293868 1.3303818 0.85284543
000100 64 61 4f 3f 2e a5 30 be 0d a8 4b 3f 4b 99 d0 be
       0.8100798 -0.17250511 0.795533 -0.40741953
000110 85 e5 a8 3f 25 ae f9 be 08 d6 9c bf 6a 10 2d be
       1.3195044 -0.48765674 -1.2252817 -0.16900793
000120 b4 82 0c bd 6d 33 d0 be 29 d8 a3 be 57 08 05 3f
       -0.034304336 -0.40664235 -0.32000855 0.5196585
000130 71 8f 91 3f a6 df 54 bf 1d 77 f4 bf be fa c5 3f
       1.13719 -0.8315376 -1.909885 1.5467145
000140 b7 27 f2 bd 25 d7 94 bd 6b c7 94 bf 3c 27 03 c0
       -0.11823981 -0.07267598 -1.1623358 -2.0492697
000150 cd e5 5e bf 67 24 1a 3e aa b8 88 bf da 21 5e 3f
       -0.870694 0.15052949 -1.0681355 0.86770403
000160 ea b8 ff bf 90 40 61 bf 1e 48 7b 3f 84 ef e6 3e
       -1.9978306 -0.8798914 0.9815692 0.4510461
000170 82 32 91 3f ef c7 8a bf ae f7 33 c0 4f 2d 19 3f
       1.1343539 -1.0842265 -2.8119922 0.5983476
000180 18 9b 15 bf b4 b4 9c be 17 62 17 3f a0 f8 36 bf
       -0.5843978 -0.30606616 0.5913405 -0.7147312
000190 a2 a0 67 3f fc e7 16 3f 97 da b9 bf 69 c7 7a bf
       0.9047948 0.5894773 -1.4519833 -0.97960526
0001a0 d5 a7 90 3d 2a d9 a3 bf 08 69 a8 bf f2 10 b5 bc
       0.070632614 -1.2800648 -1.3157053 -0.022102807
0001b0 fe 4a 02 c0 5e 35 7c be fc d9 89 3f fc 7e d1 3f
       -2.0358272 -0.24629733 1.0769649 1.6366878
0001c0 9e db 78 3f 00 1e b8 3e 8b fd 0c c0 47 8a 62 bf
       0.9721011 0.35960388 -2.202975 -0.88492244
0001d0 58 c6 84 bf 36 63 82 3f 3d 15 86 3f c7 a9 56 bf
       -1.037303 1.0186527 1.0475231 -0.8385281
0001e0 41 9e cd bf d1 81 82 3f 8c 62 7a be 7a 1f 51 3e
       -1.606392 1.0195867 -0.24451655 0.20422164
0001f0 f5 58 c7 3f ee 4c c9 bf af d4 3d 3f df 00 fd bf
       1.5574023 -1.5726602 0.74152654 -1.9765891
000200 32 4c 89 bf 76 56 38 be 27 a2 6f bf ff 9f 0d 40
       -1.0726378 -0.18001732 -0.936068 2.2128904
000210 96 2a d7 bd f8 1f 81 3e eb a4 30 be 57 0f c8 be
       -0.105061695 0.25219703 -0.17250411 -0.39074203
000220 83 cd 84 3f 32 fe 01 3e a0 f8 01 3f 94 6d 8c bd
       1.0375217 0.12694624 0.50769997 -0.06856838
000230 70 68 90 3f ee aa dc 3e 43 9f 08 3f fc 4a 61 3f
       1.1281872 0.4309916 0.53368014 0.8800504
000240 e3 f2 05 be 65 ba 4c be cf 08 83 3f f1 b7 0d bf
       -0.13080935 -0.19992979 1.0237063 -0.553588
000250 6e 2b 92 3e 9c d6 a8 3f e5 7b de 3e 9b 29 13 bb
       0.2854876 1.3190494 0.434539 -0.0022455219
000260 76 b8 c8 3f 62 d1 28 3f 37 3b 15 bf a5 0c 33 3e
       1.5681293 0.6594449 -0.5829348 0.17485292
000270 4c 76 80 be fc 14 71 3f d8 f6 72 3f 14 7f 33 bf
       -0.25090253 0.94172645 0.94907904 -0.7011578
000280 1b a8 81 bf 34 72 3b 3f 3c 3c a1 3f ba 15 be be
       -1.0129427 0.73221135 1.2596507 -0.3712595
000290 53 14 7b be 2e f2 27 bf 34 c7 a1 bf 8a 12 98 3f
       -0.24519472 -0.6560391 -1.2638917 1.1880658
0002a0 6e 0a 91 3f 0a 10 e1 be 4c 40 93 3e e3 06 d7 3f
       1.1331308 -0.4395755 0.28759992 1.6798977
0002b0 16 e9 be 3e ee e6 07 c0 3f 40 8f 3f 67 1f c0 bf
       0.37287205 -2.1234698 1.1191481 -1.5009583
0002c0 c1 98 8b be 0a bb 16 3f 7c 15 b2 3f de 09 80 3f
       -0.2726498 0.5887915 1.3912807 1.0003011
0002d0 61 8d b4 bf 58 3a 84 3e 0a b0 33 bf 80 8b 8e 3f
       -1.4105645 0.25825763 -0.7019049 1.1136322
0002e0 22 17 47 3b 2f 70 b4 3f 23 96 d6 be f7 8e a5 3f
       0.0030378778 1.4096736 -0.4191142 1.2934254
0002f0 a2 b5 25 bf 82 04 a8 bd 3e 57 15 bf db 2b 18 3b
       -0.64730275 -0.08203985 -0.58336246 0.00232195
000300 c1 10 ef be 58 79 eb 3f ae 19 c3 bf 67 c6 11 bf
       -0.4669247 1.8396406 -1.5242212 -0.5694336
000310 32 dd ed 3e 59 5a 2a bf 05 ac ca bd 8e 87 61 3f
       0.4645782 -0.6654411 -0.09896091 0.88097465
000320 69 05 99 bf 0c 38 55 bf 14 bf 1b bf ab 95 fb 3e
       -1.1954776 -0.83288646 -0.6083844 0.49137625
000330 de 70 e1 3e 9f 0d a4 bd ac b2 3a bf 17 bb ba 3e
       0.44031423 -0.080104105 -0.7292888 0.36470863
000340 34 41 08 c0 52 f9 80 bf 5b e4 03 c0 da fc c6 3d
       -2.1289797 -1.0076087 -2.0608127 0.09716196
000350 99 66 26 3e a6 1a 9d 3f d1 7a 10 40 81 78 f2 be
       0.16250075 1.2273757 2.257496 -0.47357562
000360 07 f3 c1 3e f5 10 c3 be 9d de e3 be 0f 76 ca 3e
       0.37880728 -0.38098875 -0.44505778 0.39543197
000370 1a cc 0e 3f 59 8a 9e 3d c0 33 96 bf a2 49 8d 3f
       0.55780184 0.077412315 -1.1734543 1.1038096
000380 bc 88 a3 3e ce 34 75 bf 4a e8 9b be db 0a a6 3e
       0.31940258 -0.957837 -0.3045066 0.32430157
000390 a2 d3 8f be 7e ea c7 3e 95 c0 44 bf 22 d2 49 bf
       -0.2809115 0.3904609 -0.76856357 -0.7883626
0003a0 7e 54 35 bf a7 43 30 3e 1d 91 ab 3e 59 08 61 bf
       -0.7083205 0.17213307 0.3350915 -0.8790336
0003b0 8d e0 cc bf 3c 7b 1f 3f 61 63 64 be e7 3d 7a be
       -1.6006027 0.62297416 -0.22303535 -0.24437676
0003c0 05 ac 1f 3f 94 d1 1b 3f 96 6e 76 3e b6 f2 3f bf
       0.62371856 0.60866666 0.24065623 -0.7497972
0003d0 1d 5b 92 be 35 44 95 bf 70 61 83 3e 16 7f 06 bd
       -0.2858514 -1.166144 0.25660276 -0.032836042
0003e0 17 9c 39 3f 9c 22 1c bf a5 40 96 3f f3 cd bc 3d
       0.725038 -0.6099031 1.1738478 0.09218969
0003f0 07 1b c0 bf 34 a5 85 be 82 82 e8 be c4 bd 29 3f
       -1.5008248 -0.26102602 -0.4541207 0.66305184

lstm.weight_ih_l0 f4 [512, 3]
000000 7c 94 b2 bc 85 23 47 bd ef 8d c8 3d ad 00 ea 3c
       -0.021799318 -0.04861786 0.09792697 0.028564775
000010 9c 3f 5c bd 4e 1e ac bd f1 b9 f1 3c 05 ac 45 3d
       -0.0537716 -0.08404218 0.02950761 0.048259754
000020 a5 f0 35 3c b2 b4 00 bd b7 e6 44 bd dc 0d 22 3c
       0.011104737 -0.031422324 -0.04807159 0.009891
000030 ec 4b 5f 3d 48 fe b4 3c 46 b8 3c 3c b4 93 87 bd
       0.054515764 0.022093907 0.011518544 -0.06619969
000040 7a b0 a5 bb 84 1b 63 bd 9f 96 83 3c 89 5d 33 3d
       -0.005056438 -0.055446163 0.016063033 0.043790374
000050 48 c6 f5 bb 1f c3 04 3c fb 35 56 3c 92 b9 36 bd
       -0.0075004436 0.008103161 0.013074393 -0.044610567
000060 6c 1b e9 3c 4d 3c 9b bd 6b be b0 3b c8 9f 13 bd
       0.028455459 -0.07579861 0.0053937933 -0.03604105
000070 89 2b 69 3d 8d ee ab 3d 8c 19 63 bd bc 0d 7f 3c
       0.056926284 0.08395109 -0.055444285 0.015567239
000080 23 10 b5 ba d5 91 93 bd 84 fa 53 bb 85 ca c7 bc
       -0.0013814013 -0.0720555 -0.0032345364 -0.024388561
000090 6d 99 76 bc 7b aa 7b 3d 10 10 5b bc bf eb c3 3c
       -0.015051228 0.06144188 -0.013370529 0.023916123
0000a0 1f 64 10 3d 2a c0 49 bd b3 ea 1a 3d 58 f6 50 bd
       0.035251733 -0.049255528 0.037821483 -0.05101618
0000b0 a0 2a d9 3d ea c3 19 bd 7c d3 c7 3d ab 97 83 3d
       0.10603833 -0.037540354 0.09757134 0.06425413
0000c0 63 05 f2 3c 7e e3 86 3d 09 1b 60 3d 90 d4 14 3d
       0.029543584 0.065863594 0.054713283 0.036335528
0000d0 34 ff 7e bd a8 fb 14 3c c2 86 9f 3c 3a 09 51 3d
       -0.0622551 0.009093203 0.019473437 0.05103419
0000e0 3f e6 95 3d db 8b 66 bc 3b ab 95 bc 62 27 a0 bc
       0.073193066 -0.01407143 -0.018270126 -0.01955003
0000f0 47 a1 0b 3c de b2 35 bd 91 e8 e5 3b 6c e6 57 bc
       0.008522338 -0.044360034 0.0070162495 -0.013177495
000100 b7 51 a4 bc ef b3 af bb cd 24 27 bd 15 f8 15 bd
       -0.020058496 -0.005362026 -0.04080658 -0.036613543
000110 48 7b c7 3c bd 98 3c 3d a5 50 8f bd 5a 3c d2 bc
       0.024350777 0.0460441 -0.069978036 -0.025663543
000120 31 41 58 3d dd 60 10 bd 64 82 72 bd 34 b3 6c 3d
       0.052796546 -0.035248626 -0.05920638 0.05778809
000130 1a d2 0f 3d 97 6b d1 bc 84 a3 8e bc ee b2 97 3b
       0.035112478 -0.025563998 -0.017411955 0.0046294844
000140 96 7c 4c bd 4e 14 09 bd 5a cc dc bd 2e ac 3e bd
       -0.049923502 -0.03346663 -0.107811645 -0.046550922
000150 bb a2 e7 3c 32 55 2f 3d cf 6d 29 3d a5 b8 2f bc
       0.028275838 0.042805858 0.041364487 -0.010725175
000160 98 50 85 bd 58 e7 0e bd ee 64 05 3d 24 83 6e bd
       -0.06509513 -0.034888595 0.032566957 -0.058230534
000170 f6 8d d0 bc 04 46 45 3d dd ae 19 3d d8 c1 8f 3c
       -0.025458317 0.048162475 0.03752028 0.017548487
000180 fa fb df bc 65 13 09 bd eb 84 ba 3c 90 63 01 bc
       -0.027341831 -0.03346576 0.022768458 -0.007897273
000190 85 12 42 bd 5c b4 14 3c c2 ee 03 3d 47 83 b1 3c
       -0.047380943 0.009076204 0.03221012 0.021669043
0001a0 18 b5 b0 bd cc 72 5d bd 51 ce 0d 3d bd 2e 35 bb
       -0.08628291 -0.054064557 0.034620587 -0.0027646266
0001b0 2d fd dc 3c c1 af 4f 3d 3b 0c 4d bd f1 4b 3d bd
       0.026976192 0.05070472 -0.050060492 -0.046215
0001c0 5d 49 fb 3c 05 1e 8f 3d 9a cb 87 3d 7a 1c 5c 3b
       0.03067463 0.06988148 0.06630631 0.003358631
0001d0 5e 91 36 bd 52 99 b5 bc 19 8f a6 bd 9b 9f 5d 3c
       -0.044572227 -0.022167835 -0.081327625 0.013526822
0001e0 0a f4 52 3d 82 0f 2c bd dc 78 e2 3c d6 f6 6c bd
       0.051502265 -0.042006977 0.02764552 -0.05785259
0001f0 1c 27 84 bd 65 e1 46 bd 06 b7 eb bc 7c ed a8 bd
       -0.06452772 -0.048554797 -0.028773796 -0.082484215
000200 7f ed 50 3d 7c 2c 8d 3c 8b e0 9e 3c 16 af 18 bd
       0.051007744 0.017233126 0.01939418 -0.03727635
000210 d3 fd ab 3c 5b 62 42 3d 7e b9 85 3d 0b 8b 14 bd
       0.020995056 0.04745708 0.065295205 -0.036265414
000220 9e 86 6c bd 07 72 0c 3d 55 0f fc bc 4b 31 04 3d
       -0.05774557 0.034288432 -0.03076903 0.032273572
000230 63 57 5b bd f1 e4 f1 39 45 d5 c4 3b e1 92 53 bd
       -0.053550135 0.00046137677 0.006006869 -0.051653747
000240 ac 54 18 bd 85 37 2c bc cf cd ed bc a9 43 84 bd
       -0.037190124 -0.010511284 -0.029028801 -0.06458218
000250 f6 e0 5c bb f9 3f 77 bd ed e2 2d 3c a4 8e f2 bb
       -0.0033703423 -0.060363743 0.010613185 -0.007402258
000260 83 63 0a bd 17 d4 8c 3d 5c 07 fb bc 37 98 cb 3d
       -0.033786308 0.068763904 -0.030643158 0.09941142
000270 3e d7 dd 3c 3a cc 1a 3c 4e 51 51 bd 96 ff 6a bb
       0.027080175 0.0094481055 -0.05110293 -0.0035857907
000280 41 75 16 bc ab 67 4d bd e6 2b d0 3c a5 99 02 3d
       -0.009183229 -0.050147694 0.025411557 0.031884808
000290 73 3e 6c 3b ee 6d 95 bd c8 5a 85 bd 54 33 3e bd
       0.0036047965 -0.07296358 -0.06511456 -0.04643567
0002a0 a2 24 50 3c 22 c0 c2 bc e8 ac 35 3c d0 18 1f 3d
       0.012704046 -0.023773257 0.011088587 0.038842022
0002b0 bf 5b 82 bd 0d d9 d8 3d 1f 61 01 3d c3 5f 42 bd
       -0.063651554 0.10588274 0.031586763 -0.047454607
0002c0 94 02 1f bd c4 20 57 bd f3 d7 08 3d 07 2e e0 bc
       -0.038820818 -0.052521482 0.03340907 -0.027365698
0002d0 e4 0e a4 3d 3e 01 95 3c 32 85 6b bc 7f 09 6c bd
       0.08010653 0.018189069 -0.014375018 -0.057626244
0002e0 57 6a e4 bb 7a a7 cb 3b 96 0c d9 3c 31 88 9c bd
       -0.0069706845 0.006215033 0.02649526 -0.07643164
0002f0 69 b7 7c bd 70 01 ea 3c 92 c1 72 3d 0e 94 c8 3d
       -0.06169835 0.028565139 0.059266634 0.09793864
000300 72 e6 df 3a 54 8c 56 3c bf e7 70 3d 72 fe a6 bb
       0.0017082228 0.01309498 0.05881476 -0.00509625
000310 a1 41 92 3d fe e6 84 bd 7f b5 97 3c 82 46 6a 3d
       0.07141424 -0.06489371 0.018519161 0.057196148
000320 39 fe 78 bc c2 ca 40 3b 0f 94 29 bd 40 f2 0a bc
       -0.01519733 0.0029417728 -0.041400965 -0.008480608
000330 c1 0d f6 3c 87 00 0c 3d 57 97 8e 3c c4 93 93 bb
       0.030035855 0.03418019 0.017406149 -0.004503699
000340 ac 61 95 3d bb 0f 57 bd 27 d5 a4 3b e0 42 a9 bd
       0.0729402 -0.052505236 0.0050302926 -0.082647085
000350 eb 20 86 3d 9a f9 55 3d 04 14 26 bd 72 84 94 3c
       0.06549247 0.05223999 -0.040546432 0.018129561
000360 44 a6 2c 3c f5 c0 17 bd 73 d0 d5 bb 13 fd 15 3b
       0.010537688 -0.037049253 -0.006525093 0.002288644
000370 c3 dc f8 bb 34 96 e1 bc bc 93 44 3d fb c8 83 bd
       -0.007594676 -0.027537443 0.047992453 -0.06434818
000380 6f c6 fa bc 74 5a 1d 3c 98 d4 51 bd 77 4b 96 bd
       -0.030612199 0.009604085 -0.051228136 -0.073386125
000390 80 54 c2 bc b2 bb a6 bd d8 fe 73 bc 54 d0 01 3c
       -0.023721933 -0.08141269 -0.014892302 0.007923204
0003a0 e6 b8 1d bd 68 48 94 3d 35 54 da 3c 03 2b aa bd
       -0.03850641 0.07240373 0.026651481 -0.08308985
0003b0 54 a6 53 3b 22 18 12 3d c2 8f f1 3b 4b 46 01 3d
       0.0032295184 0.035667546 0.0073718736 0.031561177
0003c0 c7 bb c7 bc a8 7c 85 3d f2 e2 97 3d 82 50 df 3b
       -0.024381531 0.06517917 0.07416333 0.006815017
0003d0 91 cf 7a bc 93 19 3d bc 35 6a 0f bc c6 5e c0 bd
       -0.015308277 -0.011541742 -0.008753349 -0.093930766
0003e0 ad 1c b6 3d b6 1c 79 3d 5b 5c 26 bb 2c de 93 3b
       0.08892188 0.060818397 -0.0025384638 0.004512569
0003f0 25 9f 0a 3c 8c 92 a7 bc a6 3e dd 3b 67 12 19 bd
       0.008460795 -0.020455621 0.006751853 -0.037371065

lstm.weight_hh_l0 f4 [512, 128]
000000 f2 08 16 bd dc 8f 5b bc 23 67 96 3b 04 6b e7 3c
       -0.036629625 -0.013400998 0.0045899316 0.028249271
000010 43 64 34 bd 9c 3d 9d b9 23 47 f7 bc c4 5d f8 3c
       -0.04404093 -0.00029991276 -0.030185288 0.030318148
000020 5b 75 5e 3d 15 2f 97 bc 81 a7 03 bd 5c fb 3e 3d
       0.054311138 -0.018455068 -0.032142166 0.046626434
000030 1b 97 3e bb 48 0a 44 bc 32 f9 45 bd 3a 21 e7 bb
       -0.0029081765 -0.011965342 -0.048333354 -0.0070535215
000040 a1 8b 76 3d a0 82 22 bd e7 3f 60 3d b5 dd 55 bd
       0.060191754 -0.039675355 0.054748442 -0.05221339
000050 02 a3 39 bd 1d c6 ca bc dd 05 50 3d 70 ca cf 3c
       -0.045321472 -0.02475267 0.05078684 0.025365084
000060 ff f7 29 bd 89 be 96 bd 70 44 88 bc 03 fe 60 3c
       -0.041496273 -0.073605604 -0.016634196 0.013732436
000070 6e 1f 92 3b 04 de 85 bc 70 64 25 3d 9a 3d 57 bc
       0.004459313 -0.016341217 0.040378988 -0.013137246
000080 ce 4d bf 3c d5 7a 1e 3c 27 c9 9e bc 81 e7 e1 bb
       0.02335253 0.00967284 -0.019383026 -0.0068940525
000090 80 e0 af bd 5d db a9 bc d1 60 de bb 29 69 da ba
       -0.08587742 -0.020734483 -0.0067864438 -0.001666342
0000a0 f9 38 11 bd 67 b3 91 bd 06 ff 27 bd 1e e8 05 3d
       -0.035454724 -0.071142964 -0.041014694 0.032692067
0000b0 59 de 4f bc f5 9f 66 3d 42 06 57 3d 1c ff ef bc
       -0.012687289 0.05630489 0.052496202 -0.02929645
0000c0 71 86 a2 3b 21 7a 6a 3d 4e 0a 9b 3d 4d 44 57 bd
       0.0049598743 0.057245377 0.07570325 -0.05255537
0000d0 7c 05 2a 3d de 42 ef 3c b0 41 a3 bc 1a 10 a0 3c
       0.041509137 0.02920669 -0.019928783 0.019538928
0000e0 c5 1e 47 bc 04 6c 38 bd d2 4d 1e 3d 5c 70 3b bd
       -0.012153332 -0.045024887 0.038648434 -0.04576145
0000f0 87 91 07 3d 19 e1 86 3d a4 9d 05 bd af 0e 6c 3d
       0.03309777 0.06585903 -0.03262104 0.05763119
000100 72 0a 78 3d 4a 75 e3 bc 32 83 9c 3d ee ac a2 bc
       0.060556836 -0.027765889 0.07642211 -0.01985785
000110 5a 27 01 bd 82 69 77 bb 42 5d 68 bc 6b 01 86 bd
       -0.03153167 -0.0037752097 -0.014182391 -0.06543239
000120 cc 87 7a 3d cb 2a 6f 3c eb de 2f 3d 1c e2 3e bd
       0.061164662 0.014597605 0.0429372 -0.046602353
000130 34 77 24 bd 1d 2a 1e 3b f3 0d 05 bd 2f 3f 77 bd
       -0.040152743 0.0024133988 -0.032484006 -0.06036299
000140 93 25 a9 3d ad ba 3e 3d 3c d2 77 bd d8 ce 6e bd
       0.0825912 0.046564747 -0.06050323 -0.05830273
000150 6c 02 48 bc 86 66 9f bc bd 23 1b bb d7 53 a8 3b
       -0.012207609 -0.019458067 -0.0023672425 0.0051369476
000160 0a 49 fe bc 92 8c 3f bd 0e 93 ce bc a0 d0 a0 3d
       -0.031040687 -0.046764918 -0.025216606 0.07852292
000170 7d bf ed bc 10 75 f6 3c a6 9c 5b bb 3c 1c 3f 3d
       -0.029021973 0.030085117 -0.0033510118 0.046657786
000180 30 30 0c bd 0d 4c 05 3d b0 ef a2 3d 41 0a 82 3c
       -0.034225643 0.03254323 0.07955873 0.01587403
000190 1c 00 67 3d 56 28 47 bc 17 b0 31 bd 96 25 3c 3c
       0.05639659 -0.012155613 -0.043380823 0.011483571
0001a0 a7 e2 f7 3c 66 7f 49 3c 4f f8 43 3c af 9f 8c 3d
       0.030259443 0.012298441 0.011961057 0.06866395
0001b0 9f e1 62 bb 30 71 82 bd 2d 58 81 bd 4a 01 3b bd
       -0.0034619344 -0.06369245 -0.06315646 -0.045655526
0001c0 f7 e4 29 bc bb 94 8b bd 50 55 56 bc 7d ac e0 bb
       -0.010369531 -0.068154775 -0.0130818635 -0.0068564997
0001d0 1b 4a 8e bd d1 6d fd 3c 2f af a9 3c 0e 60 1e bd
       -0.06947728 0.030936154 0.020713417 -0.038665824
0001e0 de e1 47 3d d9 03 4d 3d 40 65 d2 ba 02 5c 82 3d
       0.048799388 0.050052498 -0.0016051903 0.06365205
0001f0 37 b5 65 3d 3f 3b 9a 3c f1 2e 79 bd 7e 63 bd bc
       0.056081023 0.018827079 -0.060835782 -0.02311873
000200 bc 9e f3 3c 59 32 43 3c c3 50 bf 3c 00 fe 88 bd
       0.029738776 0.011913859 0.02335394 -0.06689072
000210 09 d4 a5 bc 05 31 a4 3c d4 85 93 3d 3f 15 5e 3d
       -0.020242708 0.020042906 0.0720326 0.05421948
000220 d7 39 48 bd e1 bb 4c 3d c1 f3 4c bb 70 8b 89 3c
       -0.048883285 0.049983863 -0.0031273218 0.016790122
000230 39 78 b9 bc 41 f3 ec 3c 55 e3 22 3d e4 96 3e 3d
       -0.022640334 0.028924586 0.039767582 0.04653062
000240 9b 3c 57 bd 40 9b 27 bd b2 4d 93 3d 22 d4 12 bd
       -0.052548032 -0.040919542 0.071925536 -0.035846837
000250 b6 a5 b7 bc 43 ea ce bc 5f cd 7f bd 68 2c 04 3c
       -0.022417884 -0.025258189 -0.062451717 0.008067228
000260 7f 8e b6 3c 0e f6 83 3d f4 f9 b6 bb d4 69 30 3c
       0.022284744 0.064434156 -0.005583996 0.010767419
000270 61 05 ca bb 59 56 c0 bb 52 15 26 3d 0e a3 38 bd
       -0.006165192 -0.0058696684 0.040547676 -0.045077376
000280 d5 72 53 bd 2a 18 3b bd 39 8f 99 3d c1 b3 23 3d
       -0.051623184 -0.04567734 0.07498021 0.03996635
000290 b1 ca 43 bd a8 f7 1e bd 8e 17 d5 bc 94 9e 14 3d
       -0.047800723 -0.038810402 -0.026012208 0.036284044
0002a0 17 1d 60 bd 15 64 2e bd 86 46 7a bc d8 a6 61 bb
       -0.054715242 -0.042575914 -0.015275603 -0.0034431722
0002b0 fe a5 8d 3d 3d 80 b8 bb 97 9d 07 bd 2f 6c 72 bd
       0.06916426 -0.0056305216 -0.033109274 -0.059185203
0002c0 0c f1 8b 3d a0 65 18 bd 7a 77 8a 3d 8d 8a 6c bd
       0.068330854 -0.037206292 0.067610696 -0.05774932
0002d0 07 76 0f bd da 2a 27 3d d2 cc 6f bd e1 2d 29 bd
       -0.03502467 0.04081235 -0.05854494 -0.04130352
0002e0 2d ba 1c 3c 47 88 28 bd 6d 92 9b ba a8 5b 1a bd
       0.009565872 -0.04114559 -0.00118692 -0.037685066
0002f0 34 b6 a1 3d 06 99 1c bd c0 7b 76 3d d9 a6 8d bd
       0.078960806 -0.038231872 0.06017661 -0.06916589
000300 f5 9b ef 3c 58 2b 3c 3c 0d 78 01 bc 15 d5 96 3d
       0.02924917 0.011484943 -0.0079021575 0.07364861
000310 20 aa b2 bc e2 64 1e 3c 01 3e 95 bd 3e 9d 11 bd
       -0.021809638 0.009667607 -0.07287217 -0.03555035
000320 cb 6a f9 bc 55 dc 4a ba a2 4f 0e bd 45 f2 e0 3c
       -0.03044643 -0.00077385205 -0.034743913 0.027459273
000330 4c 14 0f bd 22 f1 0a 3d 07 7a 13 bd e7 95 fa bc
       -0.034931466 0.03392137 -0.036005046 -0.030589057
000340 eb 11 73 3c 71 b4 89 bc 48 6e be bc f7 b8 16 bd
       0.014835815 -0.016809674 -0.023245946 -0.03679749
000350 26 79 05 bd 14 ae 81 bd 74 1e 3c 3c ae c3 90 bc
       -0.03258624 -0.06332031 0.01148187 -0.017671432
000360 3e 3a a6 bd d1 49 0c bc d6 3e fd bc 91 b0 81 bc
       -0.081165776 -0.008562521 -0.030913752 -0.015831264
000370 48 4e 61 bc fe 4e 8c bd 28 8b 50 bc 98 b0 58 bc
       -0.013751574 -0.06851004 -0.01272849 -0.013225697
000380 f3 89 12 bd 5e 33 ab 3c ff 54 d9 3c 6f 50 8c bd
       -0.03577609 0.020898517 0.026529787 -0.06851279
000390 34 76 73 3c 58 15 bc bb 45 de 01 3d 0d 6e 85 bd
       0.014859725 -0.005739849 0.031706113 -0.06515131
0003a0 db 20 0a ba 01 16 1b 39 e3 04 09 bd ae 35 40 bd
       -0.0005269178 0.00014790149 -0.033451926 -0.046926193
0003b0 3e d5 a7 ba bd ae fa bb d8 1c 92 3b 65 de 30 3c
       -0.001280464 -0.007650225 0.004459005 0.0107952105
0003c0 23 03 20 3b eb 9c 1e 3d 62 04 64 3d c4 bf 7e 3c
       0.0024415932 0.038723867 0.055668242 0.01554865
0003d0 8a 7b 14 bd 62 c2 fa bc 7d 8e ab bd da 8e 2a 3c
       -0.03625063 -0.030610267 -0.08376787 0.010410035
0003e0 13 ff 62 3c fd ed 31 3d f8 98 85 bd 06 49 0d 3c
       0.01385476 0.043439854 -0.06523317 0.008623367
0003f0 7b c2 36 bd 61 bd 0c 3d 7c a0 b6 3c cc aa f4 3c
       -0.044619065 0.034360293 0.022293322 0.029866599

lstm.bias_ih_l0 f4 [512]
000000 26 9d 14 bd 2a a9 ea 3c a5 87 37 bd aa 96 b8 3d
       -0.03628268 0.028645117 -0.044807095 0.09013112
000010 42 9b 27 bd d9 f0 8d 3d fe b7 68 3d 59 4c a7 bc
       -0.04091955 0.06930704 0.056816094 -0.020422148
000020 61 a7 a5 bb d0 2e f9 3c 72 af 0b bd 8f 57 a0 3d
       -0.0050553535 0.03041783 -0.034102865 0.078292005
000030 d1 41 be 3d b8 5d 9a 3d 0b ed 08 bd 5c 03 60 3c
       0.09289897 0.07537407 -0.033429187 0.013672676
000040 71 30 53 3d d7 05 3b bb 8c 44 a9 bc 8a 8c 0c bc
       0.05155987 -0.0028537416 -0.020662569 -0.008578429
000050 56 be 8a bc 49 0a b8 ba b8 56 8d bc 52 8f 81 3d
       -0.016936462 -0.0014041151 -0.017253265 0.06326164
000060 93 24 65 bd 31 34 91 3d 45 80 66 bb a6 ff 74 bd
       -0.055943083 0.07090033 -0.003517167 -0.059814118
000070 9f 3a bb b9 4d 19 ce 3c ff 08 22 bd c7 7b e4 bb
       -0.00035711096 0.025158549 -0.03955936 -0.006972763
000080 d7 67 9b 3d 0c 97 96 bd 2f a5 53 3c ad 14 d6 3c
       0.07588165 -0.07353029 0.012917801 0.026132906
000090 65 b5 9b 3d b4 ad 85 3b e8 7e 26 bd 48 9b 83 bd
       0.07602958 0.004079545 -0.04064837 -0.06426102
0000a0 3e 47 14 3c ea 2e 2b 3d a4 4d 45 ba 3f da 58 3d
       0.009050189 0.041792788 -0.0007526523 0.05294251
0000b0 a5 70 a8 3d e6 a4 29 bc 7e 96 5e 3c 61 4f 65 bd
       0.0822461 -0.010354256 0.013585685 -0.055983905
0000c0 2e e2 e8 3b 69 08 ad bc 76 8c a7 3b a6 ff db bc
       0.007107041 -0.021122174 0.00511318 -0.026855301
0000d0 49 3c 8b ba eb ad 8a bb 2b c4 dd 3b 34 18 73 3d
       -0.0010622825 -0.0042321584 0.00676777 0.059349254
0000e0 1c 8d 83 3d 0c e6 4c 3d 65 a4 2a bd 6e dc c2 bb
       0.06423399 0.050024077 -0.041660685 -0.0059466874
0000f0 52 48 7d bc 0d 5e 88 bd b2 af 31 3d 21 44 e5 bc
       -0.015459137 -0.06658564 0.043380447 -0.027986588
000100 8b fd 68 bd 20 a5 87 3c c3 d8 a3 3c 2b 3b d8 bc
       -0.056882422 0.01655823 0.020000821 -0.026395401
000110 98 aa d3 3d af 7a f3 bc 64 4f c9 3d 8b 18 7c 3d
       0.103352726 -0.029721586 0.09829596 0.061546843
000120 7d 54 af bc b2 3e 43 3d 5b 68 ab 3d 7f d2 b6 3d
       -0.021402592 0.047667213 0.083695136 0.08926868
000130 86 16 04 3d 23 7b 93 bd a1 a6 19 3d 44 96 20 bd
       0.032248043 -0.07201221 0.037512425 -0.039205804
000140 ca 84 af bb e9 86 47 bc 67 7d 54 bd b0 c1 1b bd
       -0.005356406 -0.012178161 -0.051877405 -0.03802651
000150 0b ac 12 3d 15 b3 e9 bc 4d 92 09 3d 4f 3c 8d 3d
       0.035808604 -0.028527776 0.03358679 0.068962686
000160 de 14 62 bd 93 56 28 bd 65 07 8c bd d1 84 a5 bc
       -0.05519568 -0.04109819 -0.06837348 -0.020204933
000170 7c 7d 44 bd b9 2f 64 bc 95 63 a0 bb f3 06 64 3c
       -0.047971234 -0.013927394 -0.0048946836 0.013917672
000180 c2 41 44 3b 04 9f ca 3d 8b a4 c5 3d 26 0e 65 bc
       0.0029946421 0.09893611 0.09650525 -0.013980424
000190 bc 5b b4 3d 90 77 07 bb e2 05 81 bd fa a3 a5 3d
       0.088065594 -0.002067063 -0.0629995 0.08087917
0001a0 c5 84 6d 3d cf 4d db bc 6d 1f 14 bd be 54 91 3c
       0.057987947 -0.0267705 -0.036162782 0.017740604
0001b0 21 e8 8b 3d a6 82 85 3c 3d e0 06 3d 3d 5f 8b 3d
       0.068313845 0.01629765 0.032928694 0.06805275
0001c0 4f 06 02 bd ef 58 85 bd fb 80 4f bd cb d0 b6 3c
       -0.031744298 -0.06511103 -0.050660115 0.022316357
0001d0 88 ba 85 bd e7 3b 63 3d 3d 23 16 bd 82 79 f4 bb
       -0.06529719 0.05547705 -0.0366547 -0.007460774
0001e0 d5 d9 14 bc 1b 04 15 bb f0 23 ce 3d d0 e3 6b bd
       -0.009085138 -0.0022738043 0.10065448 -0.057590306
0001f0 36 a7 89 3d 81 4a 2e bd 0f 6e 69 bd db 00 6a bb
       0.06721346 -0.04255152 -0.056989726 -0.0035706076
000200 b6 31 9d 3d b2 f4 82 bd 54 fa 84 3c dd 0e 5a 3c
       0.07675497 -0.06394328 0.016232647 0.013309208
000210 bb ee 87 bd f6 41 c3 bc ae 76 b2 3c b9 0f 55 bc
       -0.06637331 -0.023835164 0.021785107 -0.013004237
000220 e7 1e 3b 3d 00 45 ac 3c b9 03 42 3d ae 1f 22 bd
       0.045683768 0.021028996 0.04736683 -0.039580993
000230 bd 9d e8 3b 28 aa 63 bd d2 44 b4 3d f3 0d f0 3c
       0.007098882 -0.055582196 0.08802189 0.029303527
000240 0a 12 fe 39 1a aa 2f bd 01 66 ba 3c a1 06 ba 3d
       0.00048460095 -0.04288683 0.022753717 0.090832956
000250 40 c6 f4 3c 72 4a 2d bd 8f 42 98 3d 83 64 18 3d
       0.02987969 -0.042307325 0.0743457 0.03720523
000260 1e b2 db 3c 6c f1 32 3d f7 82 1e 3d 3c f5 34 bc
       0.026818331 0.04368727 0.038699117 -0.011044797
000270 a1 06 36 bd ac 8b 92 bd d2 77 4c bc dc 5f ac 3d
       -0.044439916 -0.071555465 -0.012479739 0.08416721
000280 0e 52 89 3d 32 d5 a5 bc 77 e4 b4 3d 05 c8 c2 3c
       0.06705104 -0.020243261 0.08832639 0.023777017
000290 d9 2c 5f bd 2f 86 81 bd 09 d7 b2 ba f4 b1 8c bd
       -0.05448613 -0.063244216 -0.0013644408 -0.06869879
0002a0 4d 85 40 3d 98 54 88 bc a9 88 83 bd 20 45 79 bd
       0.047002126 -0.0166419 -0.0642255 -0.06085694
0002b0 3b 9d bd 3d 98 33 cf 3c 53 7b ad 3d 50 72 b9 3c
       0.09258505 0.025293157 0.08470788 0.022637516
0002c0 44 b3 a5 3d 7b e2 4c bd b1 4e 97 3c c5 53 01 3d
       0.08090833 -0.050020676 0.01847014 0.03157403
0002d0 59 1a e2 bb 33 87 4e bb b4 22 7b 3d 93 55 c7 bc
       -0.0069001135 -0.003151369 0.061312392 -0.024332797
0002e0 98 92 90 bd ec b6 23 bb d9 1a 0a bc fb 50 9d bc
       -0.070592105 -0.0024980856 -0.008429253 -0.019203654
0002f0 c9 0c 11 3c 53 c8 a2 3b b7 df 65 3c 3b 01 bc 3d
       0.008853146 0.004967728 0.014030389 0.09179922
000300 df 41 c1 3d af 78 1b 3d 6e 80 b6 3c 31 3e a7 3c
       0.09436392 0.03795689 0.022278037 0.020415397
000310 f0 25 85 3d 05 e7 59 bc b0 0a 74 bd 50 69 af 3d
       0.06501377 -0.013299708 -0.059580505 0.08565009
000320 7d 8f 38 3d a6 c6 3e bd 59 fb 47 3d ec a9 8a 3d
       0.045058716 -0.046576165 0.04882369 0.06770691
000330 d2 87 af 3d a8 36 48 3d ee 27 d5 3c 8c 24 81 bd
       0.085708275 0.04888025 0.026020017 -0.06305799
000340 d1 cb 7b 3d ad af 1f bd 09 e7 1a 3d 98 92 82 bd
       0.06147367 -0.038985897 0.03781799 -0.06375617
000350 0b 7a 25 3d 9f 16 79 3c 54 d1 8d 3d 5b b9 06 3c
       0.040399592 0.015203147 0.06924692 0.008222903
000360 a4 05 36 bd 96 3d 32 3d 88 b6 62 3d 91 53 a0 3d
       -0.044438973 0.043515764 0.055349857 0.07828439
000370 57 d1 f6 bb ba 9b 11 3d 7d f9 71 bd 1f f4 30 bc
       -0.0075322795 0.035548903 -0.05907582 -0.0108003905
000380 99 0b 30 bd f9 03 53 3c 8d 4e d6 3d 18 8a 9c bd
       -0.04297981 0.012879365 0.10464201 -0.07643527
000390 91 69 6f 3d 41 2c f0 3c 6e e4 3a 3b 84 d2 fc bc
       0.058450285 0.029317977 0.0028517502 -0.0308621
0003a0 aa ab 2f bc f3 77 3a 3d 14 c1 4e 3d f5 f5 86 bd
       -0.01072208 0.04552455 0.050477102 -0.06589881
0003b0 08 e7 29 bd 8b 15 6b bc 27 7c 4d 3d 29 c2 3d bd
       -0.041480094 -0.014348398 0.05016723 -0.046327744
0003c0 fb 22 7b 3d 3c d4 59 bd 33 a1 63 3d 20 da 7a bd
       0.061312657 -0.053180918 0.055573653 -0.061243176
0003d0 b5 ca 46 3d 0d 22 10 bd c5 c4 59 3d 73 63 a6 3d
       0.04853316 -0.035188723 0.05316617 0.08124437
0003e0 9c f0 2a 3d 78 18 0d bd c5 4d 92 3d 0f e3 09 bb
       0.04173337 -0.034447163 0.071437396 -0.0021039878
0003f0 f2 18 5d 3d d5 4b 4a 3d 3c 60 52 bd a5 f7 0c 3d
       0.053978868 0.049388725 -0.051361308 0.03441586

lstm.bias_hh_l0 f4 [512]
000000 a8 5e a3 3c 8c ac 45 3b 1f 78 26 bd 76 aa 9d bc
       0.019942597 0.003016266 -0.0406419 -0.019246321
000010 8e e3 62 3b 13 14 b9 3c 36 43 84 3d 9e 6b a0 bd
       0.0034620496 0.02259258 0.06458132 -0.07833026
000020 de 1d 87 bd 57 9f d9 bb 90 7c d6 3d b6 ce 99 3d
       -0.065974936 -0.0066413092 0.10472977 0.0751013
000030 e6 dc 7f bb 51 1d 6b bc 1c 00 16 3d ac 62 51 ba
       -0.0039041578 -0.014350251 0.036621198 -0.00079874205
000040 4e ee ed 3c 4b c9 7e 3c b4 d3 8d 3d 46 75 28 bd
       0.029044297 0.015550922 0.06925145 -0.041127466
000050 28 61 72 bd c7 4a 7e bd 81 ef 67 3d 7e e5 87 bd
       -0.059174687 -0.062083032 0.056624893 -0.06635569
000060 32 62 82 bd 57 e1 f0 bc 8f 43 d3 3c 30 3b 8e bc
       -0.063663855 -0.029404325 0.02578905 -0.017362207
000070 ae 91 51 3d 74 a5 e4 bc dc aa 99 3c 13 cb 4b 3d
       0.05116432 -0.027910925 0.01875823 0.049754214
000080 b9 48 23 bd b4 f7 7a 3d be 75 90 3d 98 11 5a 3d
       -0.039864276 0.061271384 0.070537075 0.053239435
000090 91 eb 97 bc a2 cb 0c bd 11 3e 66 3c b1 5f 63 3c
       -0.018544944 -0.034373887 0.014052884 0.013877795
0000a0 97 52 47 3d 75 c7 b5 3c 3c fd 4d 3b 69 80 1c 3c
       0.04866275 0.022189835 0.0031431457 0.0095521
0000b0 52 9a 2e 3d b4 e2 d2 bc 84 35 90 3d 68 13 0c bd
       0.04262764 -0.025742866 0.07041457 -0.034198195
0000c0 dd 29 cd 3d 31 52 74 bc 9d 17 bf 3b 6e fa f6 bb
       0.100177504 -0.014912174 0.0058316723 -0.0075371778
0000d0 f7 5c 7c bd 75 08 1b bd 66 f8 bb 3d 4d f5 6f 3d
       -0.061612096 -0.037849862 0.091782376 0.058583546
0000e0 c2 72 54 3d e2 de 60 3c e4 ff 24 bd 36 a2 09 3d
       0.051867254 0.013725014 -0.0402831 0.033601962
0000f0 0e 31 96 3c 3d 6f b6 bc 7e e1 9c bc a1 e9 32 bc
       0.018333938 -0.02226984 -0.019150492 -0.010919959
000100 ca f1 cd 3d e7 68 31 3d cc ad 77 bd 0f 0d 40 3d
       0.10055883 0.043312933 -0.06046848 0.046887454
000110 a7 4b 61 3d 57 39 b3 bb 26 aa 2d 3d 1a 3c 9c 3d
       0.05500379 -0.005469482 0.042398594 0.07628651
000120 7c d9 31 3c 20 92 85 3d c7 b3 1c 3c 21 a2 81 bc
       0.010855075 0.06522012 0.009564347 -0.01582438
000130 41 b4 a8 bc a7 fa 68 3d f4 65 67 3d 35 02 8b bd
       -0.020593764 0.056879666 0.056493714 -0.0678753
000140 31 5b 0f 3c c1 d8 02 3d 71 b9 aa 3d 37 cd 39 3d
       0.008749769 0.031944994 0.083361514 0.045361724
000150 f9 44 ea bc 4c bd 75 3c 55 1e 74 bd af 8b dc 3d
       -0.028597342 0.014998745 -0.05959924 0.1076883
000160 cb 03 5b bd bb e3 b0 3d 3c 11 28 3d 6d e4 a8 3d
       -0.053470414 0.08637186 0.04103206 0.08246694
000170 19 12 d5 3d 75 a0 fc 3c f9 8e b2 bc 40 08 95 bc
       0.104038425 0.03083823 -0.02179669 -0.01819241
000180 ef 52 17 3d d9 7e 74 3d 96 a8 5d bd a4 11 cb 3c
       0.036944326 0.059691284 -0.054115854 0.024788685
000190 05 05 50 bd 83 a5 26 3c f8 a4 5a bb 4c 18 d9 3c
       -0.050786037 0.010171297 -0.003336249 0.026500843
0001a0 bb 8a 35 bd 6c c8 93 bc 67 94 c4 3d 81 84 2e bc
       -0.044321757 -0.018039905 0.09598618 -0.010651709
0001b0 49 9e a2 3d 7a d0 a2 3d 6e d4 6c 3d 7c 8a 1e bd
       0.07940347 0.0794992 0.057819776 -0.038706288
0001c0 17 8a 5a 3d fe 77 32 3d 81 f5 96 bc 46 34 50 bd
       0.05335435 0.043571465 -0.018427612 -0.0508311
0001d0 a7 9b d2 bc ad 39 33 bd b5 9f 35 bd 46 81 8c 3d
       -0.025708986 -0.043756176 -0.04434176 0.068605945
0001e0 a5 89 4f 3d 3c b2 a6 3d a2 d8 33 3d 0b 40 9f 3d
       0.050668377 0.08139464 0.04390777 0.07775887
0001f0 de a1 7c bd 39 4f b5 3d 32 6e c2 3d dd 66 0b bd
       -0.061677806 0.08853001 0.09493674 -0.034033645
000200 d4 af 15 bd a3 90 12 3d 8e ed 5a bc 79 7b 0b bd
       -0.036544636 0.035782468 -0.0133623015 -0.0340533
000210 59 78 8a 3a 37 32 f8 bb cd 6d 8a 3d fd 2a 5a 3b
       0.0010564431 -0.0075743455 0.06759224 0.0033289783
000220 9c 87 56 bd 15 6c 81 3c ea 5e 93 3d 7f ae d9 bc
       -0.05237542 0.015798608 0.07195838 -0.026572464
000230 c3 b6 26 3c b4 97 bc 3d 48 67 1f bd bd a7 aa 3c
       0.01017541 0.092086226 -0.038916856 0.020831937
000240 6f 73 c1 3d 9e 28 3e 3d a4 b3 de bb 87 0b ce 3d
       0.09445845 0.046425454 -0.006796317 0.100607924
000250 d3 dc 2e 3c d7 f5 84 3d 82 42 cf 3c 55 b2 be 3d
       0.010672766 0.06492203 0.025300268 0.09311358
000260 47 ce 48 3d c8 5a 98 3d af 27 5e 3d 33 a2 a3 3d
       0.049024846 0.0743919 0.054237064 0.079899214
000270 07 c6 6f bd bd d9 76 3d 1a a2 f7 3c 83 01 1d 3c
       -0.058538463 0.060266245 0.030228663 0.00958288
000280 75 9c cc 3d 92 4c 88 3d 22 7e 38 bd 61 30 07 bd
       0.09990779 0.0665523 -0.045042165 -0.033005122
000290 da 08 5d 3d 45 48 9f bc d7 76 82 3d 6e 46 9d 3c
       0.05396352 -0.01944364 0.06370323 0.019198623
0002a0 d8 2c cd bc 57 a8 a7 bd 62 e4 a0 3d ab 80 01 bd
       -0.025045797 -0.08186405 0.078560606 -0.031616848
0002b0 04 6a 6b bd 03 0c 61 3d ba 8e 2b 3d 08 d4 f5 3c
       -0.05747415 0.054943096 0.04188416 0.030008331
0002c0 2b 6e 1a 3c 8a 00 b8 3c f8 78 61 bd 2d 8e fb bc
       0.00942568 0.022461195 -0.055047005 -0.030707443
0002d0 ec 76 74 3c 07 c9 5d 3c d5 0d 29 bd 05 de f3 3c
       0.014920931 0.013536698 -0.041272957 0.029768953
0002e0 d6 43 87 3d b7 07 2c 3d 12 45 10 3d f7 b6 e8 bc
       0.066047356 0.041999545 0.03522212 -0.028407557
0002f0 4e a0 ca 3d 3d 23 98 3d 8e ee db bc 57 4c 59 3d
       0.09893857 0.07428596 -0.02684715 0.05305132
000300 29 8b c8 3d fc 02 94 bc 7b 1a 84 bb 92 56 a6 3b
       0.09792168 -0.01806783 -0.004031477 0.005076238
000310 cd f4 26 3d b5 06 aa 3d 63 42 f2 bc fe 14 3c 3d
       0.040760804 0.083020605 -0.029572671 0.045918457
000320 5e 11 89 3d 28 cd 99 bb fe 8e 21 3d d0 42 67 3d
       0.06692766 -0.004693646 0.03944301 0.0564602
000330 b4 b5 f2 3c 38 e2 10 3d 30 c5 59 bd 91 aa f9 3c
       0.029627658 0.03537199 -0.05316657 0.03047684
000340 c1 02 53 3d 13 b8 27 bd da 4a 5c bd ad 79 39 bc
       0.0515163 -0.04094703 -0.05378232 -0.011320514
000350 bb 86 c4 3d 4a df cb 3c 67 88 c9 3d 76 df f7 ba
       0.0959601 0.024886746 0.0984047 -0.0018911201
000360 56 7e 2b bd 1d 29 92 3d fc dd 42 3a fd b5 38 bd
       -0.04186853 0.07136748 0.0007433591 -0.045095433
000370 dc 8f d2 ba 02 b4 b0 3d f9 6e 0f 3d 2c db 85 3c
       -0.0016064602 0.08628084 0.03501794 0.01633986
000380 b1 77 33 bb a0 2b 39 bd 5f da 15 3d 2a 8e bb 3d
       -0.0027384574 -0.04520762 0.036585208 0.09157975
000390 9b 8c 7a bd 3d c2 87 bd 95 14 71 bd 6f 52 3c 3d
       -0.061169248 -0.06628845 -0.05885752 0.045977052
0003a0 24 9f 3f 3d 80 88 b1 3d da a8 fb 3b 5d 91 fd bc
       0.046782628 0.086686134 0.007680041 -0.030953104
0003b0 73 01 88 bd 45 78 b6 3d 7a 09 cf 3b cf a5 78 bd
       -0.066409014 0.08909658 0.0063182684 -0.060705002
0003c0 99 52 14 3c ef 67 39 3d 39 9f 0f bd 6b c2 9f 3c
       0.009052896 0.045265134 -0.035063956 0.019501885
0003d0 d2 a1 5d 3d 27 eb 95 bc 37 8c d2 3d a9 69 71 3c
       0.054109402 -0.018300606 0.1028065 0.014734664
0003e0 ae 40 86 3d ee a6 4d bd de 68 c2 3d 21 87 3e bd
       0.065553054 -0.050208025 0.09492658 -0.046515588
0003f0 be 5b 09 bd 5d 9d 0b bd c5 0b 16 bd f3 3d 41 bd
       -0.033534758 -0.03408562 -0.036632318 -0.04717822

lstm.weight_ih_l1 f4 [512, 128]
000000 54 f9 2c 3d 4b 4a a4 3c af 2d d6 3c 30 92 5d bd
       0.042229965 0.020054957 0.02614483 -0.054094493
000010 d3 65 61 3d 75 08 a1 bc 4a dd a0 3c 3e eb ce bc
       0.055028748 -0.019657353 0.019636769 -0.025258657
000020 67 3f 4e bd 08 b3 8e 3d 4c fb a6 bd 43 d1 fc bb
       -0.050353434 0.06967741 -0.081534 -0.0077153756
000030 ba 72 eb bc 5e b5 0d 3d 39 73 a3 bd bd b8 bf bb
       -0.02874123 0.034596793 -0.07980961 -0.00585088
000040 92 6c 2d 3d f1 f5 a4 3d d1 d2 ca bc a0 5b 80 bd
       0.04233987 0.08054722 -0.024758728 -0.06267476
000050 33 5b c0 3d 55 78 63 bd c6 43 95 3d e4 21 89 3d
       0.09392395 -0.05553468 0.072883174 0.06695917
000060 3f 4b 1d bd 0f 91 e4 3c 28 b8 82 bd 7a 91 20 3c
       -0.03840184 0.0279012 -0.06382781 0.009800309
000070 83 aa 15 bd 7e 5d cd 3c 88 53 bc bc ec cb b2 3d
       -0.036539566 0.025068995 -0.02298905 0.08730301
000080 ec a0 6b bd 69 a4 85 3b 06 18 bb 3d 94 98 46 3d
       -0.057526514 0.004078437 0.091354415 0.048485354
000090 01 82 0e 3d 7f 23 b9 bc d5 f4 6b bd 8e 08 89 3c
       0.03479195 -0.022599934 -0.057606537 0.016727712
0000a0 37 62 bb bd 08 c3 19 bd 6e 7f 0a bd 94 28 31 bd
       -0.09149592 -0.037539512 -0.033812933 -0.04325159
0000b0 fe 1d c9 3b a7 84 50 3c 93 c8 2c 3d 03 64 38 bd
       0.0061376086 0.012726939 0.04218347 -0.045017254
0000c0 18 33 5c bd f5 58 61 3d 65 59 a6 bc c0 44 9a bd
       -0.053759664 0.055016477 -0.020306299 -0.07532644
0000d0 9f d7 bb 3d 79 1f 7b 3d 90 c2 5e 3d 0f ca 4d 3b
       0.09171986 0.06130931 0.054384768 0.0031400954
0000e0 da e7 1b 3c 82 ea da bc 52 ad a3 bd eb 93 51 3d
       0.009515727 -0.02672315 -0.079920426 0.051166456
0000f0 cf 0d d0 bb 9c a2 d1 bc 91 59 13 bd 0c 4e c4 bc
       -0.0063493024 -0.025590234 -0.03597409 -0.023962997
000100 32 51 8a bd 16 eb 9c 3b 7c 1b c1 3d 7f 9e 7a 3d
       -0.06753768 0.0047887666 0.0942907 0.06118631
000110 21 73 79 bc f6 8b 86 bd 5f 9a 96 bd 5b 30 d7 bc
       -0.015225203 -0.06569664 -0.07353663 -0.026268175
000120 56 09 7a bd 0c 75 60 bc aa c1 97 bd b9 60 63 3d
       -0.06104406 -0.013699781 -0.07409985 0.055512164
000130 f6 e1 9e 3d 14 3e 13 37 0f d9 72 bc a5 22 ad 3c
       0.077579424 8.7763365e-06 -0.014822259 0.021134684
000140 0f ee 3e 3b f9 bc 7c 3d 78 20 50 bd 27 f4 38 3c
       0.0029133593 0.061703656 -0.050812215 0.011288679
000150 78 a5 a6 bc ba 93 68 bc b2 88 98 bd 51 75 fd 3c
       -0.020342574 -0.014195377 -0.074479476 0.03093973
000160 a1 a5 6a 3d 9a a9 ac bd d1 f4 13 3c 69 1a 3f bb
       0.057286862 -0.084307864 0.009030537 -0.0029160029
000170 9d 37 97 3d c6 ed 85 bd 1c c5 44 bd 1d cd 27 bd
       0.07383654 -0.06539492 -0.04803954 -0.040967096
000180 ea 85 49 bd 34 85 80 3d 4a d2 ab 3d 81 f3 4d 3c
       -0.049199976 0.062754065 0.08389719 0.012570263
000190 7d b3 c6 3c 5b ec ab 3b 1f f2 2b bd 5a ab 19 bd
       0.024255509 0.0052466816 -0.04197895 -0.03751693
0001a0 4d 79 b7 3d 1b 0a 1c bc 60 09 04 3d 68 56 4f bc
       0.08958683 -0.009523894 0.032235503 -0.012654878
0001b0 ec 21 36 3b 36 ab 9e bd 22 a0 d5 3c 3c 6e 90 bc
       0.0027791215 -0.077475 0.026077334 -0.017630689
0001c0 d3 60 52 bd da fa e3 bb 4c ec 56 3d a0 2b 0f bd
       -0.05136187 -0.006957394 0.052471444 -0.034953713
0001d0 5d 0b 84 bc ba c7 ee bb 44 af b5 bd f4 a9 38 bd
       -0.0161187 -0.007286993 -0.0887132 -0.045083955
0001e0 a5 e1 21 bd 79 46 a9 bd 30 d7 74 3c d7 30 c1 bb
       -0.039521832 -0.08265395 0.014943883 -0.0058957147
0001f0 84 b7 f5 bc 52 4d 6f 3c d0 78 9d bd 69 ab c3 3d
       -0.029994734 0.014605837 -0.07689059 0.09554178
000200 f8 0d 50 bd dd 68 45 bd 26 43 34 3d 90 04 1b 3d
       -0.05079457 -0.04819571 0.04400935 0.037846148
000210 03 6c 2c 3a d2 f3 3d 3d 70 d6 44 bd 03 12 9d bd
       0.00065773743 0.046375103 -0.048056066 -0.07669451
000220 d5 a1 be 3c ec d3 be 3d 83 fe 47 bd 43 ca a5 3b
       0.023270527 0.09317765 -0.048826706 0.005059512
000230 bd bd de bc 99 9b 0a 3d 1c d5 12 ba 28 51 41 3d
       -0.027190084 0.033839796 -0.0005601214 0.047196537
000240 cd de 6e 3d c5 01 8d bc 5c 8b 4a 3d d9 58 89 bd
       0.058317948 -0.017212758 0.04944931 -0.067063995
000250 65 19 80 bc 3c b9 24 bb f9 e1 30 bd 7b 8c 27 3d
       -0.015637109 -0.0025134822 -0.043184254 0.040905457
000260 80 44 bf 3c d9 af 9a 3c d6 41 b6 3c 7b 90 74 bd
       0.023348093 0.018882679 0.02224819 -0.0597081
000270 2d 8c 25 3d 89 9d 7f 3d 3d b6 18 bd 82 9e 13 3d
       0.040416885 0.062406097 -0.03728317 0.036039837
000280 f6 0c 94 bc 6a 74 a5 bd ed 63 11 3d d5 c0 f4 3c
       -0.018072587 -0.08078845 0.035495687 0.029877106
000290 52 e3 98 bd 98 e0 5f 3d 08 22 af bb 89 bd 76 3d
       -0.07465233 0.05465755 -0.005344633 0.06023935
0002a0 7b 6e 4c 3d f4 5d 54 bd e8 8f a2 bd cb d0 da bc
       0.04991005 -0.051847413 -0.07937604 -0.026710888
0002b0 e4 65 f6 bb ce 94 f3 3c 85 06 c7 bc c6 ef 20 bd
       -0.0075194705 0.029734042 -0.024295101 -0.039291166
0002c0 d5 db 25 3d 1a b2 a0 bd c4 53 e9 3c 8f 63 49 3d
       0.04049285 -0.0784647 0.028482325 0.049167212
0002d0 6a 69 4a bd 6d 77 88 bc 3f 89 b1 b8 7d 1c 1f bd
       -0.049416937 -0.01665851 -8.465582e-05 -0.038845528
0002e0 11 f4 08 bd e2 f6 57 3c 2b c7 87 bd 3f f1 4c bd
       -0.033435885 0.01318142 -0.06629785 -0.050034758
0002f0 a4 65 ae 3d cf b6 28 3d 13 ef d9 bc ca e9 b5 bc
       0.0851548 0.041189965 -0.026603257 -0.022206206
000300 c1 15 16 bc ba 9d 6e bd 20 0d 18 3d 7c e5 4a bd
       -0.00916046 -0.05825589 0.037121892 -0.04953526
000310 de cc bb 3d c2 d3 2b bc 59 1f 19 bd 90 c5 4d 3d
       0.09169935 -0.010487499 -0.03738341 0.05023724
000320 b2 c5 7f bc 74 9e df bc 33 c4 4f bd 00 4b 53 bd
       -0.015611099 -0.027297236 -0.05072422 -0.051585197
000330 6d 70 1c 3d 65 65 90 bb 70 4f a4 3d df f1 21 3d
       0.038193155 -0.0044066184 0.08022964 0.039537307
000340 5a a4 71 bc 07 d0 6c 3d 98 6c 74 bd 40 e0 98 bd
       -0.014748657 0.057815578 -0.059673876 -0.07464647
000350 4d 0a 8f 3b 89 41 95 bb 87 56 a4 3c 18 f3 61 3d
       0.0043652416 -0.0045549315 0.02006079 0.055163473
000360 e9 58 30 3c 3c e2 70 3d b1 fc ae 3c aa 2b 3f 3c
       0.010763385 0.058809504 0.021360727 0.011668125
000370 a5 37 b0 3c 7d b7 c4 bb 1e 6c 8f bd f6 72 28 bd
       0.021510908 -0.006003319 -0.070030436 -0.04112526
000380 eb b4 99 bd 89 cd a0 3d 0a 4d 6d 3d 45 2e 27 3d
       -0.075052105 0.07851703 0.0579348 0.04081561
000390 b0 0a 56 3c b7 05 e4 3c 7c cc c0 bc 98 b4 b9 bc
       0.013064072 0.027834756 -0.023535006 -0.022669122
0003a0 70 7d 71 3c 53 95 cf 3c 2e 99 53 bd 7a 05 a6 3d
       0.014739379 0.025339758 -0.051659755 0.08106513
0003b0 61 fb a1 bc 54 b3 13 3d 2e 88 b1 bd 6c cd 00 bd
       -0.019773187 0.036059693 -0.08668552 -0.031445906
0003c0 d5 1c 50 3d 68 6d 6f bd d8 55 39 bd e5 0a 90 3b
       0.050808746 -0.058453947 -0.045247883 0.00439583
0003d0 65 4a 43 bd 2b 32 5c bd ad 92 88 bd f7 ce 22 bb
       -0.04767837 -0.05375878 -0.06668601 -0.00248426
0003e0 0e 25 0b bd 7b 22 8a bd e1 00 74 bd 6c ed 30 3d
       -0.033970885 -0.06744858 -0.05957115 0.043195173
0003f0 f0 e0 20 ba 8b e4 9d ba e7 cc d0 3c 04 93 dc 3c
       -0.0006137034 -0.001204626 0.02548833 0.026925571

lstm.weight_hh_l1 f4 [512, 128]
000000 9d 49 ac bd 89 cb 35 bd 18 8d 71 bd 3d 80 5e 3c
       -0.08412478 -0.04438356 -0.058972448 0.013580379
000010 2f 37 65 bd 4e de c2 bd a5 dc 34 3d 6d 52 97 3d
       -0.05596083 -0.095150575 0.044155736 0.07388768
000020 e6 91 6c 3d 77 ec 85 3d 3d 0f 88 3d b4 d1 41 bd
       0.057756327 0.06539243 0.066435315 -0.04731913
000030 15 aa c9 bc 24 2a a6 bd c3 d2 5a 3d ac ee 54 3c
       -0.024617234 -0.081135064 0.053423654 0.012996357
000040 25 d4 81 3d 50 a4 9e bc da 5d 26 bd 1c a7 46 3d
       0.063392915 -0.01936546 -0.040616848 0.04849921
000050 97 ae 3c 3d 2d c8 1e bd d8 3c af bd ab 53 a2 3c
       0.04606494 -0.03876512 -0.08556527 0.019815287
000060 26 8a 83 3d 83 cd 46 bc 3d 1c 20 bd 18 19 6b bd
       0.06422834 -0.012133959 -0.03908943 -0.05739698
000070 22 d3 05 bd 8f b3 ed 3b 91 99 da ba fb 75 86 3c
       -0.032672055 0.007254071 -0.0016677846 0.01641368
000080 94 c5 af bb b0 5a 41 3d 57 2f 22 bc 52 22 02 bd
       -0.0053641293 0.047205627 -0.009898982 -0.03177101
000090 37 f4 72 bd 4c 70 c9 bc 8e 73 bf bd 62 e5 45 bc
       -0.059314933 -0.02458968 -0.09348212 -0.012078615
0000a0 69 49 87 3c 92 56 97 bc 28 f8 97 3c 9e 33 51 bc
       0.016514497 -0.018473897 0.018550947 -0.012768654
0000b0 85 27 f9 bc c3 aa d2 3c 97 9f d9 ba f5 56 13 bd
       -0.030414352 0.025716191 -0.0016603348 -0.0359716
0000c0 35 e1 3f bd 44 37 01 bc df 7b 51 bd 7e 5a df bc
       -0.046845634 -0.0078867115 -0.051143523 -0.02726483
0000d0 50 e4 8d bd 4e de 0d bd 6b f7 39 3d eb 7d 99 bc
       -0.06928313 -0.034635834 0.04540197 -0.0187368
0000e0 4b 93 be bd 01 8f ac 3d 32 98 7e 3c 12 f5 6a 3d
       -0.09305438 0.08425713 0.015539216 0.057362624
0000f0 e8 41 32 3d fd 50 03 bd 6c 44 40 bc 90 7f 0d 3c
       0.043519884 -0.03205966 -0.011735063 0.00863637
000100 84 63 65 3d 83 94 dd 3c e4 e1 3e bd 2d 7f 49 bd
       0.05600311 0.027048355 -0.046602145 -0.04919355
000110 a4 ac c1 3d 54 d2 c4 3c 9a 8b 9b 3d 54 f0 0a 3c
       0.09456757 0.024026074 0.07594986 0.00848015
000120 b0 49 c7 ba 19 72 11 3d 90 de 54 bd c2 2f d2 bc
       -0.0015204456 0.035509203 -0.051970065 -0.025657538
000130 8d 5d 91 3d e4 52 d4 bc 98 ca 62 bc 0e c5 85 3d
       0.070979215 -0.025918432 -0.013842247 0.06531726
000140 5d 1a ad 3d ff a1 de ba 0e 05 4a bd 19 0c a0 3c
       0.08452294 -0.0016985534 -0.049321227 0.019537019
000150 c3 d5 d6 bc 12 da a5 3d c1 da 46 bc 4b 2d 87 3d
       -0.026224976 0.08098234 -0.012137116 0.06600436
000160 35 6d be 3c e5 65 2c 3d ea 04 ba bc b3 cd d6 3c
       0.023245433 0.04208936 -0.022707421 0.026221132
000170 63 8c 0b 3d ba 6e bc 3c 59 aa 21 bd 1b f8 33 bd
       0.03406943 0.023002017 -0.039469097 -0.043937784
000180 23 a3 1f bd c0 c9 20 bd 6f 4e 16 bd 1b 2b 89 3d
       -0.03897394 -0.039254904 -0.036695894 0.06697675
000190 94 5f 8f 3d a2 6b 18 3d cb 7d 8a bd 29 f3 6d bc
       0.07000652 0.03721202 -0.06762274 -0.014523306
0001a0 e5 44 08 bb 20 15 9d 3d aa b4 95 bd 49 8e 1a bb
       -0.0020793017 0.07670045 -0.073098496 -0.0023583344
0001b0 12 40 aa 3d 0d ca 74 3c be 73 bf bd af 82 00 bd
       0.08313002 0.014940751 -0.09348248 -0.03137463
0001c0 ab 5c 4d bd 57 97 14 bc a9 a5 57 bc 6d 00 29 bd
       -0.050137203 -0.009069285 -0.013162055 -0.04126017
0001d0 78 a4 69 3d 5e 01 23 bd 14 1d a1 bd 84 93 a2 bc
       0.057041615 -0.039796226 -0.07866874 -0.019845732
0001e0 49 89 de bc 55 bc 0b 3c 8d 02 66 bd 70 5e b3 3d
       -0.027165072 0.008528789 -0.056154776 0.08758247
0001f0 93 53 80 bd a9 88 84 3c 27 c6 f0 3c 64 6c c8 3d
       -0.062659405 0.016178446 0.029391361 0.09786299
000200 27 3d 14 bd 92 a6 a8 bc 43 f7 0d 3d e5 68 29 3d
       -0.036191132 -0.02058724 0.034659635 0.0413598
000210 d1 6a 6f bc 2a 0a c8 bc 93 0d 66 bd af fd f6 3b
       -0.014612869 -0.02441891 -0.05616529 0.0075375657
000220 4d 26 d5 bc 2f 51 4f 3d ae 40 72 3d 01 a3 90 3b
       -0.02601924 0.050614532 0.059143715 0.004413963
000230 2a f8 22 3d b8 bb 9a bc 6c c6 81 3b a9 0c 32 bd
       0.03978745 -0.01888834 0.0039604213 -0.043469105
000240 70 f7 a4 3d bb 69 93 3d 28 ce 78 bd c7 38 37 bd
       0.080550075 0.07197901 -0.06074348 -0.04473188
000250 7d 47 94 3c 99 ea 02 bd a9 06 7e bd df cd a8 3d
       0.018100495 -0.03196201 -0.06201807 0.08242392
000260 d5 37 e3 bc 97 b7 29 3d 04 af a9 bd b5 3c 5d 3d
       -0.027736584 0.04143485 -0.08285335 0.054012973
000270 6d 6e 00 3d 09 39 76 bd a6 ea de bc cd 34 c3 3d
       0.03135531 -0.060112987 -0.027211498 0.09531555
000280 9a a8 10 bc f8 64 a0 3c e5 ac b1 3d ba e5 30 3d
       -0.00882926 0.019579396 0.08675555 0.043187834
000290 12 d6 5c 3d b6 96 4c bd 20 a2 23 bc 7a 8f 44 bd
       0.05391509 -0.049948417 -0.009987384 -0.047988392
0002a0 89 84 8f 3d 84 0f 81 3c 04 75 17 3d 50 93 65 bd
       0.07007701 0.015754469 0.03697683 -0.05604869
0002b0 33 46 31 3d dd 65 8c 3b ab 5c 4c bd b1 f4 40 3d
       0.043279838 0.004284604 -0.049893063 0.047108356
0002c0 66 90 4b 3d ed be f7 3c 82 3d 55 bb 94 dc b1 bd
       0.049698256 0.030242408 -0.0032537882 -0.0868465
0002d0 77 6b ca 3b a7 8e 84 bd db b0 36 3d 83 c6 13 bd
       0.0061773616 -0.06472521 0.044602256 -0.036077987
0002e0 43 a5 22 bd 5b 30 97 3d a0 78 06 3b 78 a4 b3 b9
       -0.039708387 0.0738227 0.0020518675 -0.0003426408
0002f0 95 4f 97 3d 36 10 94 bd d1 25 75 3d 11 b7 59 bd
       0.07388226 -0.072296545 0.059850518 -0.0531531
000300 4e 18 8b 3d 4a c1 45 bd 5f 2f e2 3c db 1e 35 bd
       0.06791745 -0.048280038 0.027610479 -0.04421888
000310 dd 41 58 bd da d6 5c 3d f2 5a 58 3d a3 82 36 bb
       -0.052797187 0.053915836 0.052821107 -0.0027848862
000320 1e 87 7f 3c 91 39 ae bd 3f 23 3c bd 99 d1 44 3c
       0.015596179 -0.08507074 -0.04593205 0.012012863
000330 2c 4a 8a 3d a6 21 00 3d 9e a4 8f 3d 3f 1f 1e 3c
       0.067524284 0.03128209 0.0701382 0.009651004
000340 bf 68 5a bb 7e 71 7f bc cf c4 db 3c 38 28 84 3d
       -0.0033326594 -0.0155910235 0.026827244 0.064529836
000350 f5 00 46 bc ff c6 a3 3d 7c 06 9d 3c 24 b0 37 bd
       -0.012085189 0.0799694 0.019168131 -0.044845715
000360 6c b1 a0 3d 59 b3 07 3d 99 ef 5c 3d 1a ec 10 3d
       0.078463405 0.033130024 0.053939436 0.035381414
000370 43 c6 80 bd 88 6c b6 bc 14 d2 15 3c b4 ff 94 bd
       -0.062878154 -0.022268549 0.009144325 -0.07275334
000380 73 74 69 3d 70 8c 58 bd aa 47 c3 bc e3 e0 28 bd
       0.05699582 -0.052868307 -0.023837883 -0.041230094
000390 e9 b7 c7 3b 7d 0f 26 3d e9 0f ec 3c a8 55 8b bc
       0.006094922 0.040542115 0.02881618 -0.017008618
0003a0 59 f3 03 bd f8 42 a7 3d 5f b0 af bc 91 bb c2 bb
       -0.032214496 0.0816707 -0.021446405 -0.00594277
0003b0 48 2f 2f 3d d1 3d 7d bc 66 16 63 bd d4 fb a0 bc
       0.0427697 -0.015456633 -0.055441283 -0.019651331
0003c0 80 99 98 ba 89 ae 12 3d 12 02 ed bc d2 01 bd 3d
       -0.0011642426 0.03581098 -0.028931651 0.09228863
0003d0 dc 4f 9c 3c 10 c2 66 3c 65 50 22 3d 3a 55 de 39
       0.019081049 0.014084354 0.03962745 0.00042406638
0003e0 f0 d4 d2 3c 43 42 13 bd 3c 13 9d 3d 7d 74 40 3d
       0.025736302 -0.035951864 0.07669684 0.046986092
0003f0 3b ef 79 3d 82 9c 26 bd 46 a1 e6 3a 86 a6 23 3d
       0.061019164 -0.0406766 0.0017595671 0.03995373
