fault_model_nn_allprior_22_33kv/best_Y2022.pt (torch, 929527 bytes, 15 tensors)

emb.weight f4 [219, 16]
0	0x40021829	2.0327246
1	0xb9be9aea	-0.00036355044
2	0x3f7c4bda	0.9855324
3	0xbee1a484	-0.44070828
4	0xbf28632a	-0.6577631
5	0xbfaba144	-1.3408589
6	0x3f9b9999	1.2156249
7	0xbfdad0d6	-1.7094982
8	0x3eb13d0d	0.3461689
9	0xbe924f51	-0.2857614
10	0xbf23c6ae	-0.63975036
11	0x3d8856fc	0.06657216
12	0x3f180b48	0.59392214
13	0xbee42207	-0.4455721
14	0xbe243d5b	-0.1603903
15	0xbfb5c32e	-1.4200189
16	0xbe5c11e5	-0.21491201
17	0xbfd37ea5	-1.6523024
18	0xbf2a9d04	-0.66645837
19	0x3fcd6b99	1.6048461
20	0x3f38b9a4	0.72158265
21	0x3f745ad4	0.9545109
22	0x3f6b218e	0.91848075
23	0xbf2c1f47	-0.67235225
24	0xbff067cc	-1.8781676
25	0x3f9db67c	1.2321315
26	0xbf16a1db	-0.5884072
27	0xbe4e4337	-0.20142828
28	0xbf933318	-1.1499968
29	0xbf5b7a2d	-0.857333
30	0x3d3ba499	0.04581127
31	0x3e9e1e5a	0.3088253
32	0x3ec74675	0.38920942
33	0xbefb20d1	-0.49048474
34	0x3fc8eb46	1.56968
35	0xbf009619	-0.5022903
36	0x3ec34bcc	0.38143766
37	0x3da16801	0.07881165
38	0xbf84f9b5	-1.0388705
39	0xbf373a2f	-0.71573156
40	0x3c4c9acf	0.012488081
41	0x3f2ac9b2	0.6671401
42	0xbf5e3a16	-0.8680738
43	0xbf897ccf	-1.0741214
44	0xbf87a46a	-1.059705
45	0x3f9a19a0	1.203907
46	0xbfd68022	-1.6757853
47	0x3f528284	0.822304
48	0xbfad7d81	-1.3553926
49	0xbfa701f1	-1.3047467
50	0xbebfd121	-0.3746424
51	0x3f60f409	0.8787237
52	0x3ebff612	0.37492424
53	0x3f08f5e4	0.535002
54	0x3f4a6687	0.79062694
55	0x3f902f47	1.1264428
56	0x3f708029	0.93945557
57	0xbf0adfaf	-0.54247564
58	0x3ff40630	1.9064388
59	0x3eb76225	0.35817066
60	0xbe21491f	-0.1575055
61	0xbf36fc48	-0.714787
62	0x3eef9a1d	0.46797267
63	0xbf8208e2	-1.0158961
64	0xbe20dd21	-0.15709354
65	0xbfebb071	-1.8413221
66	0x3f91dfd6	1.1396434
67	0x3fed8f53	1.8559364
68	0xbe05374d	-0.13009377
69	0x3d159f7b	0.036529046
70	0xbf38d6fb	-0.72203034
71	0xbfd411da	-1.6567948
72	0x3f360f4a	0.7111708
73	0xbe8becd0	-0.2732911
74	0x3e71ba48	0.23606217
75	0x3f1776f5	0.5916589
76	0x3f652df8	0.8952327
77	0x3f2d31d4	0.67654157
78	0xbf82b615	-1.0211817
79	0xbe424ea0	-0.18975306
80	0xbfb7b356	-1.4351604
81	0xc0490d18	-3.1414242
82	0x3d68808d	0.05676322
83	0x3f1759d3	0.59121436
84	0x3e6c3ceb	0.23070113
85	0x3f7b3ccc	0.98139644
86	0xbf82b64b	-1.0211881
87	0xbed196fd	-0.40935507
88	0xbe3052bc	-0.1721906
89	0xbfd4b9c7	-1.6619195
90	0xbeb5a380	-0.35476303
91	0xbf119e34	-0.56882024
92	0x3f5dcb51	0.8663836
93	0x3e7f8573	0.2495325
94	0xbf88084a	-1.062753
95	0xbedb3473	-0.42813453
96	0xbf6fa215	-0.9360669
97	0xbe9d7a39	-0.3075731
98	0x3edea8e8	0.4348824
99	0xbf4a3416	-0.78985727
100	0xbe84bd98	-0.259259
101	0x3f68a66f	0.9087896
102	0xbe4d6d71	-0.2006128
103	0xbd0546b2	-0.032538123
104	0x3fada9ba	1.3567421
105	0xbf7a71ff	-0.97830194
106	0xbca4a32b	-0.020097336
107	0x3ea416b9	0.32048586
108	0xbd884d31	-0.06655348
109	0xbfb608b1	-1.4221402
110	0xbf8ce9cf	-1.1008853
111	0xbf7f946d	-0.99835855
112	0xbf4f06b8	-0.80869627
113	0x3f852627	1.0402268
114	0xbfb01020	-1.3754921
115	0xbef0165f	-0.46892068
116	0x3f60dfb3	0.8784134
117	0xbfb21f62	-1.3915827
118	0x3f8725fc	1.0558467
119	0x3e192d5a	0.14958706
120	0x3e974c22	0.29550272
121	0x3f4c10a9	0.7971292
122	0x3c5f32ab	0.01362292
123	0x3f96e36d	1.1788155
124	0x3ed3119c	0.41224372
125	0xbf8686f6	-1.0509937
126	0x3fafbc14	1.3729272
127	0xc00956f1	-2.1459315
128	0xbd508c37	-0.05091497
129	0xbfbb3988	-1.4626932
130	0xbe099e86	-0.13439378
131	0x3ce41953	0.027844107
132	0xbf3a38e6	-0.7274307
133	0xbf7c6164	-0.98586106
134	0x3f65df80	0.8979416
135	0x3eea7b84	0.4579736
136	0x3fcc9e07	1.5985726
137	0xbf8e2be0	-1.110714
138	0xbf9a9767	-1.2077454
139	0xbf1904f6	-0.59773195
140	0xbf02d727	-0.51109546
141	0xbf54b9b7	-0.8309588
142	0x3f23c67f	0.63974756
143	0x3f96c275	1.1778094
144	0xbe42bb3c	-0.19016737
145	0x3facc134	1.3496461
146	0xbf897603	-1.0739139
147	0xbd1a8649	-0.03772572
148	0xbedb9fb3	-0.42895278
149	0x3fddb0df	1.7319602
150	0xbf373dea	-0.7157885
151	0x3ed23516	0.41056126
152	0xbf8ec600	-1.1154175
153	0x3ec277db	0.37982067
154	0xbd989870	-0.0745095
155	0xbfe81b8c	-1.8133407
156	0x3ec45cf9	0.38352183
157	0x3f27fa68	0.65616465
158	0xbf020ea5	-0.50803596
159	0x3e39aef4	0.18133146
160	0x40075c0b	2.1149929
161	0x3eb6a926	0.35675925
162	0x3f67a965	0.9049285
163	0xbf25f7d2	-0.6483127
164	0x3f259b8e	0.6469048
165	0x3f38dc87	0.722115
166	0x3f3bb0f2	0.7331687
167	0x3e51b443	0.2047892
168	0x3fa5e3ad	1.2960106
169	0x3f37c13f	0.71779245
170	0xbe93bc89	-0.28854778
171	0x3fd0bb95	1.6307245
172	0xbf682582	-0.9068223
173	0xbfc32b6a	-1.5247624
174	0x3fdf3f7c	1.7441249
175	0xc010571d	-2.255317
176	0xbf7aa89f	-0.97913545
177	0x3c00a2b6	0.007851293
178	0xbefa9230	-0.48939657
179	0x3f9977bd	1.1989666
180	0xbea95c0f	-0.33078048
181	0x3ee3288b	0.4436687
182	0xbf26b828	-0.6512475
183	0xbf48f0e8	-0.78492594
184	0x3e4946ee	0.19655964
185	0x3deb06a0	0.11475873
186	0x3f8bee32	1.0932066
187	0xc009ac5d	-2.1511452
188	0x3edce42d	0.43142834
189	0x3e6924dd	0.22767968
190	0x3fb7b251	1.4351293
191	0x3e34bcbc	0.17650121
192	0x3f583ff0	0.8447256
193	0x3f6ba871	0.92053896
194	0x3ea70fab	0.3262914
195	0xbee1176f	-0.4396319
196	0xbf88304f	-1.0639743
197	0x3e87771d	0.26458064
198	0x3f6feee5	0.937239
199	0x3fd39a38	1.6531439
200	0xbf1af194	-0.6052487
201	0xbfbad388	-1.4595804
202	0xbfcf04e1	-1.6173364
203	0x3fa8e7a3	1.319569
204	0x3f62b14b	0.8855178
205	0xbea1a1f4	-0.31568873
206	0xbfcc73ac	-1.59728
207	0x3e3b2023	0.18273978
208	0xbf8a4773	-1.0803055
209	0xbea707ed	-0.32623234
210	0xbffe4eb6	-1.9867771
211	0xbf17830c	-0.59184337
212	0x3d77381e	0.060356252
213	0xbda4232c	-0.08014521
214	0xbd0fc4cc	-0.03509979
215	0xc01bd8e3	-2.4351127
216	0x3f4d7f02	0.80271924
217	0x3f488797	0.78331894
218	0xbee5a6b6	-0.44853753
219	0xbeb89c25	-0.3605663
220	0x3fd8ba71	1.6931897
221	0xbf6de03a	-0.9292027
222	0xbe214360	-0.15748358
223	0x3ee7e210	0.4528966
224	0xbf1a62e2	-0.60307133
225	0x3f7e6a3c	0.9938085
226	0xbefff6e1	-0.4999304
227	0xbe2d7e63	-0.16942744
228	0x3f5a617f	0.8530502
229	0x40153133	2.331128
230	0xbfae5d3c	-1.3622203
231	0x3eded434	0.43521273
232	0x3f246350	0.6421404
233	0x3f83a15e	1.028362
234	0xbfb186f1	-1.3869306
235	0x3f94027e	1.156326
236	0xbe4757b5	-0.19467051
237	0xbf85465f	-1.04121
238	0xbc20b08b	-0.009807716
239	0xbf7ec9f9	-0.99526936
240	0xbf0f03dd	-0.5586527
241	0x3f7a4eb5	0.9777635
242	0x3fce9704	1.6139836
243	0x3ef707fd	0.48248282
244	0xbf12b950	-0.57314014
245	0x3fa61cf4	1.2977586
246	0xbf1ab4b0	-0.6043196
247	0x3fb89387	1.4420022
248	0xc0132950	-2.2993965
249	0x3ef9d6e7	0.4879677
250	0xbe790e81	-0.24321939
251	0xbfa57db5	-1.2928988
252	0xbf61e8b7	-0.8824572
253	0xbf1c1110	-0.60963535
254	0x3ff4d3e9	1.912717
255	0xbe5d8eb0	-0.21636462

lstm.weight_ih_l0 f4 [512, 3]
0	0x3bbc1091	0.0057392796
1	0xbd90a9bb	-0.070636235
2	0xbcfc5318	-0.030801341
3	0xbd789d2f	-0.060696777
4	0xbd3f0b85	-0.046641845
5	0xbdaa1702	-0.0830517
6	0xbcf405a0	-0.029787838
7	0xbd826fbe	-0.063689694
8	0xbd68c826	-0.0568315
9	0x3d0d7a41	0.03454042
10	0x3d1877a4	0.037223473
11	0xbbf68678	-0.007523354
12	0xbd346fbb	-0.044051867
13	0xbd947365	-0.07248572
14	0x3c474454	0.012162287
15	0x3be964cc	0.0071226116
16	0x3cd2ab7a	0.025716532
17	0xbb1d1c7d	-0.002397328
18	0x3ce2b46c	0.027673922
19	0xbd9362cb	-0.07196578
20	0x3c5e086f	0.013551815
21	0x3d06302f	0.032760795
22	0xbc31c7c3	-0.01085085
23	0xbcc74401	-0.024324419
24	0x3d2a0eeb	0.041518133
25	0x3c68a88d	0.014200342
26	0xbdb1dab1	-0.0868429
27	0xbca0f10d	-0.019646192
28	0x3c9b53ac	0.018960796
29	0xbc14591c	-0.009054448
30	0xbd1a03a1	-0.037601117
31	0xbd50fd49	-0.0510228
32	0x3dd4a4e6	0.103830144
33	0x3d8ccee1	0.068753965
34	0xbd8f0ec4	-0.06985238
35	0xbda50b65	-0.08058814
36	0x3cad8687	0.021182312
37	0x3cdd952d	0.027048672
38	0xbc6e07f1	-0.014528261
39	0xbce15469	-0.02750607
40	0xbda138b2	-0.07872142
41	0x3d84f83a	0.06492658
42	0xbd1e9042	-0.038711794
43	0x3d3907f3	0.045173597
44	0xbb811517	-0.0039392817
45	0xbce255d9	-0.027628826
46	0x3d95f83f	0.0732274
47	0xbd2c8a19	-0.042123888
48	0xbd175c7f	-0.036953446
49	0x3d08d8c4	0.03340985
50	0x3d354204	0.04425241
51	0x3d79a67a	0.06094978
52	0x3d70d94f	0.05880099
53	0xbd4b4b0d	-0.04963212
54	0x3d13ebc3	0.03611351
55	0x3dcbf8df	0.09959578
56	0x3d739527	0.059468415
57	0xbd7bf9a8	-0.061517388
58	0xbd48eeb1	-0.04905576
59	0x3d3641c4	0.044496313
60	0x3d33ac9a	0.043865778
61	0xbda783a0	-0.08179402
62	0x3d4c77df	0.049919005
63	0xbcab74be	-0.02092969
64	0xbd2cbc81	-0.04217196
65	0x3ca1aa82	0.019734625
66	0xbd8b087e	-0.06788729
67	0xbd72f0ce	-0.05931168
68	0xbb3f4507	-0.002918543
69	0x3c06eb2c	0.00823478
70	0xbc9429d8	-0.018086359
71	0xbbed8048	-0.0072479583
72	0x3d20d908	0.039269477
73	0xbcbee758	-0.023303673
74	0x3db9f23c	0.09079406
75	0xbd03ee0a	-0.032209434
76	0xbdbbf280	-0.091771126
77	0x3d3832a7	0.04497018
78	0x3c9e9a5a	0.01936071
79	0xbdbd94b3	-0.09256878
80	0x3beec862	0.007287071
81	0x3d81728f	0.063206784
82	0x3cbe9017	0.023262067
83	0x3dc276d1	0.09495319
84	0xbd11b28b	-0.035570662
85	0x3d69ef7e	0.057113163
86	0xbdcaf235	-0.099094786
87	0x3b8d00ef	0.00430309
88	0x3d8ac97f	0.067767136
89	0xbd401ea3	-0.046904217
90	0x3dbf270a	0.09333618
91	0xbcc307f5	-0.023807505
92	0x3d7772e6	0.06041231
93	0x3d792901	0.06083012
94	0xbdaab8a6	-0.08336
95	0x3c85da49	0.016339438
96	0x3d2fa5e0	0.0428828
97	0xbb40bb18	-0.0029408392
98	0xbd44090e	-0.047860198
99	0x3c7434d7	0.014905176
100	0xbd8a87f9	-0.06764216
101	0xbcd9c276	-0.026581984
102	0x3d8e9a7a	0.06963058
103	0xbd3489fb	-0.0440769
104	0x3d1620f5	0.036652524
105	0xbd23ec76	-0.04002043
106	0x3d603bb1	0.054744426
107	0x3caa50e8	0.020790532
108	0x3cf4d0e2	0.02988476
109	0xbd716bd1	-0.058940712
110	0x3d0e00a3	0.034668576
111	0x3d224eae	0.039625816
112	0xbcfabb29	-0.030606823
113	0xbd921c73	-0.071343325
114	0xbd1df2cf	-0.03856164
115	0xbd9c3056	-0.07626407
116	0x3d9f9916	0.07792871
117	0xbd180757	-0.037116375
118	0xbd1931fa	-0.037401177
119	0xbd463b7e	-0.04839658
120	0x3d9a04a7	0.075204186
121	0x3d345e18	0.044035047
122	0x3d74fc31	0.05981082
123	0x3d6219c2	0.055200346
124	0x3d94ee10	0.07271969
125	0xbd7c6129	-0.061616097
126	0x3d80869d	0.062756754
127	0xbd6574a0	-0.056019425
128	0xbd250658	-0.040289253
129	0x3d87d58c	0.06632528
130	0xbdbb4800	-0.09144592
131	0xbd03554d	-0.03206377
132	0x3c906a10	0.0176287
133	0x3d6e0e16	0.058118902
134	0xbd06ea0d	-0.032938052
135	0x3d53140a	0.051532783
136	0xbdde0f73	-0.108427905
137	0xbca1654a	-0.019701619
138	0xbb39ef6b	-0.0028371464
139	0xbc9a8d8f	-0.018866329
140	0xbd5c1ca0	-0.053738236
141	0x3c2de4cc	0.010613631
142	0xbd829d8a	-0.063777044
143	0x3a84712f	0.0010104532
144	0xbcc0e415	-0.023546258
145	0xbdb02357	-0.086004905
146	0x3c3d571c	0.011556413
147	0x3cafb756	0.021449726
148	0xbdba4655	-0.09095446
149	0x3d9b06e0	0.07569671
150	0x3cf8f5ed	0.030390704
151	0xbdc47546	-0.09592681
152	0xbccb011c	-0.024780802
153	0x3d80fe39	0.06298489
154	0xbd9f3483	-0.07773688
155	0xbc3736ca	-0.011182496
156	0x3d84b5e4	0.064800054
157	0xbd1064cd	-0.03525238
158	0xbbfdbf9c	-0.007743789
159	0xbd0f7575	-0.035024125
160	0xbd1b41a9	-0.037904415
161	0xbd9f021e	-0.07764076
162	0x3cff0749	0.031131404
163	0x3d2c3d2f	0.042050537
164	0xbba7d6e0	-0.0051220506
165	0x3d3e5608	0.046468765
166	0xbd07b311	-0.033129755
167	0xbd872bbf	-0.06600141
168	0x3d98270c	0.074293226
169	0x3db9055c	0.09034225
170	0xbd2a9937	-0.041650023
171	0xbd2224dd	-0.039585937
172	0xbd95327c	-0.0728502
173	0x3d3cc435	0.046085555
174	0x3d4542b3	0.048159312
175	0x3d683a1a	0.056696035
176	0xbd033385	-0.032031555
177	0x3c3d6fa5	0.011562263
178	0xbd7a2d4c	-0.061078355
179	0x3d8b9267	0.068150334
180	0xbd1de424	-0.03854765
181	0xbdaf46dd	-0.08558438
182	0xbd9a76ba	-0.075421765
183	0x3c8fab1c	0.017537646
184	0xbd969bd1	-0.07353938
185	0x3c80e47c	0.01573395
186	0x393346b7	0.00017097114
187	0xbdcb54a2	-0.09928252
188	0x3d776e0e	0.06040769
189	0xbd4bb11b	-0.049729448
190	0x3ce7645e	0.028246101
191	0xbd056bf8	-0.03257367
192	0x3d598d39	0.053113196
193	0x3d31ff69	0.04345647
194	0x3dba1acb	0.090871416
195	0xbd5f4c43	-0.05451609
196	0x3d8ce2b8	0.06879181
197	0x3caf26b2	0.021380756
198	0x3da805de	0.08204244
199	0xbda9f323	-0.08298328
200	0x3d140ea2	0.036146767
201	0x3d270f74	0.04078622
202	0x3d07f17b	0.033189278
203	0xbd551fd9	-0.052032325
204	0xbd4491c8	-0.04799059
205	0xbc1552ec	-0.009114008
206	0xbda4b2ad	-0.08041892
207	0xbc327a88	-0.010893472
208	0xbd7dc6ed	-0.06195729
209	0x3d0498c1	0.03237224
210	0x3d6ea021	0.05825818
211	0x3d830510	0.0639745
212	0x3dbe0206	0.0927773
213	0x3ce02c39	0.027364837
214	0xbc936203	-0.017991072
215	0xbcd2819e	-0.025696572
216	0xba022ef5	-0.00049661036
217	0xbdbcea1c	-0.0922434
218	0xbc8f6bb7	-0.017507417
219	0x3b67aa4e	0.0035349312
220	0xbd0f8378	-0.035037488
221	0xbdcc4bc4	-0.09975389
222	0xbd3cbec8	-0.04608038
223	0x3d9cd72b	0.076582275
224	0xbd85af36	-0.065275595
225	0x3d8b1480	0.067910194
226	0xbd8adea2	-0.06780745
227	0x3be5aab7	0.007008876
228	0x3d3b562e	0.045736484
229	0xbd474c44	-0.048656717
230	0x3ddb936e	0.10721479
231	0x3d8ab056	0.06771915
232	0xbc846b61	-0.016164484
233	0xbd624854	-0.05524476
234	0xbd67b2d7	-0.05656704
235	0xbdb39f8b	-0.08770665
236	0xbc55e714	-0.013055582
237	0x3d7231e9	0.05912963
238	0xbdbc9bab	-0.09209379
239	0x3be9c02f	0.007133506
240	0xbc7c7964	-0.015409801
241	0x3ce1c535	0.027559856
242	0xbd27ddee	-0.040983133
243	0xbc92815c	-0.017883949
244	0xbbd6aa16	-0.0065510375
245	0xbc0fb23b	-0.008770521
246	0x3d85e125	0.065370835
247	0x3c4d18b0	0.012518093
248	0x3d939480	0.072060585
249	0xbcb77cf2	-0.022398446
250	0xbcf00225	-0.029297898
251	0xbdb6796e	-0.089098796
252	0x3d91f557	0.07126873
253	0xbdc66306	-0.09686856
254	0x3d377871	0.044792596
255	0xbc7c3996	-0.015394589

lstm.weight_hh_l0 f4 [512, 128]
0	0x3d08b4b3	0.033375453
1	0xbbe73550	-0.007055916
2	0xbd6ec382	-0.05829192
3	0x3d5926a8	0.05301538
4	0x3d190b00	0.037364006
5	0xbd3ce1cd	-0.046113778
6	0xbd9e3495	-0.07724873
7	0x3d11e266	0.0356163
8	0x3c1ab14a	0.009441683
9	0x3d2083dc	0.03918825
10	0x3c657870	0.014005765
11	0xbc42b860	-0.011884779
12	0xbc299820	-0.010351211
13	0xbce40c94	-0.027838029
14	0xbc905324	-0.01761777
15	0xbb4bfb52	-0.003112514
16	0xbb178e8c	-0.0023125736
17	0x3d9381be	0.07202481
18	0x3d4da74a	0.050208367
19	0xbd83b331	-0.064306624
20	0xbd16ebff	-0.036846157
21	0xbc58f4d5	-0.013241966
22	0x3d2dcf3b	0.04243396
23	0x3d89fb5b	0.067373954
24	0x3cb4ebdc	0.022085123
25	0x3d50394f	0.050835904
26	0x3bae9f48	0.0053290464
27	0xbd09e80e	-0.03366857
28	0x3d943aa6	0.07237749
29	0x3d7cfe63	0.06176604
30	0x3d8d38f6	0.0689563
31	0x3c9284f6	0.017885666
32	0xbc415e5c	-0.011802282
33	0xbd264b9a	-0.040599443
34	0x3d031e2f	0.032011207
35	0xbda1c07e	-0.07898043
36	0xbc584a4a	-0.013201306
37	0x3c9af31b	0.01891475
38	0x3cfb2f77	0.030662281
39	0xbd981c8a	-0.074273184
40	0x3d0dcee8	0.03462115
41	0x3d12ad7f	0.03580999
42	0xbd61cdb7	-0.055127826
43	0x3d563d2d	0.052304436
44	0x3d3b389e	0.04570829
45	0x3d71e10f	0.059052523
46	0xbc85ba83	-0.016324287
47	0xbd54a46b	-0.051914614
48	0xbd8f7eba	-0.07006593
49	0x3bc70a41	0.0060742204
50	0xbd4deae9	-0.050272856
51	0x3c858739	0.01629983
52	0xbc4befe5	-0.012447332
53	0xbd8a984c	-0.067673296
54	0xbc5f370f	-0.013623967
55	0xbcfbb5c3	-0.03072632
56	0xbc597617	-0.013272784
57	0xbd1f7caa	-0.03893725
58	0x3c78d623	0.015187773
59	0x3b36c461	0.0027888047
60	0x3cc78b33	0.024358368
61	0x3d27c439	0.040958617
62	0x3c9955a0	0.018717587
63	0xbd5a82b9	-0.053347323
64	0x3d9ed973	0.07756319
65	0xbda48730	-0.080335975
66	0xbc2ff110	-0.010738626
67	0xbcd68397	-0.026185794
68	0xbd0212b1	-0.031756107
69	0xbd7038a8	-0.05864778
70	0xbd4b81eb	-0.049684446
71	0x3ce822ca	0.028336901
72	0x3cf011f0	0.029305428
73	0x3c02c900	0.007982492
74	0x3c254983	0.010088327
75	0x3db88af8	0.09010881
76	0x3ca9aca6	0.020712208
77	0x3d0e58be	0.0347526
78	0x3d8f528d	0.06998167
79	0x3d881e7b	0.06646439
80	0xbd4823f7	-0.048862424
81	0xbd102414	-0.035190657
82	0xbc7afd0e	-0.015319122
83	0xbd302357	-0.043002453
84	0xbadf1ccb	-0.0017022131
85	0x3da3400e	0.07971202
86	0x3cbc0ce8	0.022955373
87	0x3ccbc88a	0.024875898
88	0x3ba4cabb	0.00502905
89	0x3b3b2864	0.002855801
90	0x3d7a4b52	0.061106987
91	0x3d20bb1f	0.039240953
92	0x3c76fcfb	0.015074964
93	0xbd904da8	-0.07046062
94	0xbdaedaea	-0.08537848
95	0xbcc1e183	-0.023667103
96	0xbc920344	-0.017823823
97	0x3cab7faa	0.020934898
98	0xbd864e83	-0.06557944
99	0xbd9ee2a7	-0.07758074
100	0x3ccd418f	0.025055675
101	0x3d5082ad	0.050905872
102	0x3d92a5c1	0.07160521
103	0x3d70843e	0.058719866
104	0xbc58db77	-0.013235918
105	0x3c13e7af	0.009027406
106	0xbd65faa7	-0.056147244
107	0x3d1609ff	0.036630627
108	0xbdac2679	-0.084057756
109	0x3adc6aec	0.0016816533
110	0xbd86d229	-0.065830536
111	0xbd89ad7c	-0.06722543
112	0xbd121296	-0.035662256
113	0xbdae8f3c	-0.085234135
114	0xbc3fe9d6	-0.011713466
115	0x3d8c0220	0.06836343
116	0xbd7c1337	-0.061541762
117	0xbd91e2a7	-0.07123309
118	0xbd39731e	-0.0452758
119	0xbd458d65	-0.048230547
120	0xbd3df80f	-0.046379145
121	0xbcbe1e9f	-0.02320796
122	0x3d9b91a9	0.07596142
123	0xbd9aee21	-0.07564951
124	0xbcd87f6d	-0.026427949
125	0xbd26813f	-0.040650602
126	0x3c0a376e	0.008436067
127	0x3ce24ae5	0.027623603
128	0xbd3cd845	-0.04610469
129	0xbdb3c884	-0.0877848
130	0xbc2d87b2	-0.010591434
131	0xbc1b971a	-0.009496475
132	0x3da85da4	0.082209855
133	0xbc353f78	-0.011062495
134	0xbd1d1526	-0.038350247
135	0x3c19ad51	0.009379701
136	0x3d2d7765	0.04235019
137	0x3d7c008b	0.061523955
138	0x3a8c7a80	0.001071766
139	0x3c83ba4b	0.016080042
140	0x3d4755cc	0.048665807
141	0xbd97dcc3	-0.07415154
142	0x3cda2266	0.02662773
143	0x3d0905d7	0.033452835
144	0xbbca720d	-0.0061781467
145	0xbd22ccb2	-0.039745994
146	0x3cec956e	0.028879847
147	0x3d7af944	0.061272874
148	0xbc894812	-0.016757999
149	0xbd92c680	-0.07166767
150	0x3d1635b3	0.036672305
151	0x3d4aaebe	0.049483053
152	0xbae4cd7a	-0.0017456256
153	0x3cf7b45f	0.030237375
154	0xbd257385	-0.04039337
155	0x3ced04f9	0.028933035
156	0x3db3a4dc	0.08771679
157	0xbcc8eedb	-0.024527958
158	0x3cf87713	0.030330217
159	0xbdaca3e4	-0.08429697
160	0x3c4efa6b	0.0126329465
161	0x3d1255b2	0.035726257
162	0x3d07518d	0.033036757
163	0xbd25e8a0	-0.04050505
164	0xbc34227c	-0.01099455
165	0x3c505cda	0.01271745
166	0xbcb292aa	-0.02179845
167	0x3d6dc1b9	0.058046076
168	0xbd7ba67c	-0.06143807
169	0x3d356816	0.044288717
170	0x3d0577b4	0.03258486
171	0xbd4ff585	-0.050771255
172	0x3d617e0e	0.055051856
173	0x3c9f82e0	0.019471586
174	0xbc69e69b	-0.014276172
175	0xbc91929d	-0.017770106
176	0xbbe2b3e9	-0.0069184196
177	0x3d5ead1b	0.054364305
178	0xbd0afd2d	-0.033932853
179	0x3c8af0b9	0.016960489
180	0xbd8ffedc	-0.070310324
181	0xbd8356c5	-0.06413034
182	0x3d5659f9	0.0523319
183	0x3d806547	0.06269317
184	0xbd3012cd	-0.04298668
185	0xbc7b85c6	-0.015351718
186	0x3d827dd8	0.06371659
187	0xbd1d25ff	-0.038366314
188	0x3b9e9464	0.004839467
189	0x3c407bd6	0.011748275
190	0xbd08fecf	-0.03344613
191	0x3d3de3a2	0.046359666
192	0x3b7dfc07	0.0038754956
193	0x3d6966b1	0.0569827
194	0xbc9cc899	-0.019138621
195	0x3d409adb	0.04702268
196	0xbc35d616	-0.011098405
197	0x3d3f6e94	0.046736315
198	0x3d8532dc	0.06503841
199	0xbc2f0843	-0.010683122
200	0x3b9d1067	0.004793215
201	0x3c5faa4a	0.01365144
202	0x3c103ccb	0.008803557
203	0xbd1c5383	-0.03816558
204	0xbdab22dc	-0.08356258
205	0xbcd857c3	-0.026409036
206	0xbd7c2ab5	-0.061564166
207	0x3d4d9fe4	0.05020131
208	0x3da1af40	0.078947544
209	0x3dacb6e9	0.08433325
210	0xbd9016e2	-0.070356146
211	0x3c79bdd2	0.015243011
212	0xbb694c0d	-0.0035598308
213	0xbd247769	-0.04015294
214	0xbc045941	-0.00807792
215	0xbd05abf8	-0.032634705
216	0x3d7ae427	0.06125274
217	0x3b51c04c	0.0032005487
218	0x3d797257	0.06090006
219	0x3d43a9c0	0.047769308
220	0x3d10a7c6	0.03531625
221	0xbd122334	-0.035678104
222	0x3a2a38f4	0.0006493472
223	0x3c9a1212	0.018807445
224	0xbb69ed39	-0.0035694374
225	0x3c260ae7	0.010134435
226	0x3c03e93b	0.008051212
227	0x3cdbf86e	0.026851859
228	0x3d7ab5d2	0.061208554
229	0xbd588243	-0.052858602
230	0xbd284e87	-0.041090515
231	0xbd7046a5	-0.058661122
232	0xbd07d79c	-0.033164605
233	0x3d7b30c0	0.06132579
234	0x3dbbdc2d	0.091728546
235	0xbcc39729	-0.02387579
236	0xbd153e5e	-0.03643643
237	0xbd3ffc0d	-0.046871234
238	0xbcf1b53b	-0.029505363
239	0xbd8231c7	-0.063571505
240	0xbc90acb2	-0.017660473
241	0x3ca1063b	0.019656291
242	0x3d834276	0.06409161
243	0xbc9e8337	-0.019349677
244	0xbd17f6ff	-0.03710079
245	0xbd88f983	-0.066882156
246	0xbdb3c14a	-0.08777101
247	0xbbc14feb	-0.0058994195
248	0x3d9df2c5	0.0771232
249	0x3d71aac8	0.05900076
250	0xbd25ffa7	-0.040527012
251	0x3d00add2	0.031415768
252	0xbc418162	-0.011810632
253	0x3bc97549	0.0061480147
254	0x3d7de70e	0.06198793
255	0xbd595fd2	-0.053069897

lstm.bias_ih_l0 f4 [512]
0	0xbd76b70d	-0.060233165
1	0xbd7cdbfb	-0.061733227
2	0x3c403905	0.0117323445
3	0xbd7298e8	-0.059227854
4	0x3dc630cd	0.09677277
5	0xbd68900d	-0.056778003
6	0x3c8864e3	0.016649669
7	0xbd6ba5c1	-0.057531122
8	0x3d4d4e0a	0.050123252
9	0x3d94df21	0.07269121
10	0x3b0ef808	0.0021815319
11	0xbd7efa02	-0.062250145
12	0xbc8383ff	-0.016054152
13	0x3d75f9ca	0.06005267
14	0x3c5cc591	0.013474838
15	0x3d0f85eb	0.035039824
16	0xbd6cee19	-0.057844255
17	0xbbfd12de	-0.0077231964
18	0x3da65e61	0.0812347
19	0x3d773980	0.06035757
20	0xbcbc0c40	-0.02295506
21	0xbc524899	-0.012834691
22	0xbd211f67	-0.03933659
23	0x3da4bbbf	0.08043622
24	0xbca91295	-0.020638743
25	0xbbb1b4e7	-0.0054231766
26	0xbd469437	-0.048481192
27	0xbb8bd24d	-0.004267013
28	0x3c3e45fc	0.011613365
29	0x3b7b3b9e	0.0038335095
30	0x3d9c1547	0.07621246
31	0x3db65587	0.08903032
32	0x3da3c790	0.07997048
33	0x3d8ef806	0.069809005
34	0x3db313fa	0.087440446
35	0xbd592eee	-0.05302327
36	0x3dd2b16c	0.10287747
37	0xbcf5f316	-0.030023139
38	0x3da4a479	0.08039183
39	0x3c3336ee	0.010938389
40	0xbc906c6c	-0.017629825
41	0x3dadd3d2	0.08487667
42	0x3d89eb1e	0.06734298
43	0xbc423458	-0.0118533
44	0x3caf4f12	0.021400008
45	0xbd03e3ec	-0.032199785
46	0xbcc2b78b	-0.02376916
47	0x3d84d207	0.06485372
48	0x3d2f8b09	0.042857204
49	0x3d9618d4	0.07328954
50	0x3d36b760	0.044608474
51	0x3ce77631	0.0282546
52	0x3cb238f4	0.021755673
53	0x3d1eac8e	0.03873878
54	0xbc9f27ef	-0.019428222
55	0x3da9c20a	0.08288963
56	0xbcdfb466	-0.0273077
57	0xbaa5958e	-0.0012633072
58	0xbd6d0e25	-0.057874817
59	0x3cc18429	0.02362259
60	0x3b230d7c	0.0024879863
61	0x3d5a489d	0.053291906
62	0x3bc96a43	0.0061467006
63	0x3db0bc67	0.08629685
64	0xbc62bab3	-0.013838458
65	0xbd193618	-0.037405103
66	0x3de18971	0.11012543
67	0x3dc53506	0.09629254
68	0xbd68b8f3	-0.056817006
69	0xbbb8a105	-0.0056344294
70	0x3dc40bb9	0.095725484
71	0xbdb46003	-0.08807375
72	0x3c9254bb	0.017862668
73	0xbaca8a70	-0.0015452635
74	0xbd0199fc	-0.03164099
75	0x3d676c9e	0.05650007
76	0x3c10e502	0.008843662
77	0x3cb67b82	0.02227569
78	0x3d8e629b	0.06952401
79	0xbd763152	-0.06010563
80	0x3db8dc6c	0.09026417
81	0x3c887e75	0.016661862
82	0xbd9c4b00	-0.076314926
83	0x3cf569e8	0.029957727
84	0x3bca14cb	0.0061670295
85	0xbccaf272	-0.02477381
86	0xbd23f6fd	-0.04003047
87	0x3cf50132	0.029907797
88	0xbca4ef4c	-0.020133637
89	0xbd8e84d3	-0.06958928
90	0xbc1c7f33	-0.009551811
91	0x3aab8af6	0.0013087678
92	0x3d003eb9	0.031309817
93	0x3d09194e	0.033471398
94	0x3cbf4327	0.02334745
95	0xbc5858cd	-0.0132047655
96	0xbb3c4b72	-0.0028731492
97	0x3b81948b	0.0039544753
98	0x3d1e0894	0.0385824
99	0x3ca781a6	0.020447563
100	0x3d572774	0.05252786
101	0xbd667ae2	-0.056269534
102	0x3d88965f	0.06669306
103	0xbb3956bc	-0.0028280457
104	0xbcad675a	-0.021167446
105	0x3c89864f	0.016787676
106	0xbcff2f4d	-0.031150484
107	0xbb007dda	-0.0019606263
108	0x3de36a5e	0.11104272
109	0xbd439bc4	-0.04775597
110	0xbd7810f3	-0.06056304
111	0x3de47003	0.11154177
112	0x3bf47b2d	0.0074609728
113	0xbd0efcea	-0.034909166
114	0xbd67b3dd	-0.056568015
115	0x3da38c1e	0.079857096
116	0xbd8cec1e	-0.06880973
117	0x3d24657c	0.040135846
118	0xbad2b93f	-0.0016076936
119	0x3d4a2a19	0.049356554
120	0x3d6c120a	0.05763439
121	0x3caef199	0.021355437
122	0x3dc1de6a	0.0946625
123	0xbd66b464	-0.056324378
124	0xbd7db923	-0.06194414
125	0x3dd441c0	0.10364103
126	0xbd45b109	-0.048264537
127	0x3d187d0f	0.03722864
128	0x3d7587a3	0.059943806
129	0x3dba93cf	0.091102235
130	0x3da0765a	0.07835074
131	0x3d22140a	0.039569892
132	0x3dbe9a90	0.09306824
133	0xbd82afdc	-0.06381199
134	0x3d41d523	0.047322404
135	0x3da90614	0.082531124
136	0xbd6d24ce	-0.057896428
137	0x3daca14c	0.084292024
138	0x3d8fac86	0.07015328
139	0x3d2c3e0c	0.04205136
140	0x3da43875	0.08018581
141	0x3d957e0f	0.072994344
142	0x3d280ef8	0.0410299
143	0xbd80d7ab	-0.062911354
144	0xbb6d18ba	-0.0036178068
145	0x3c85badf	0.016324459
146	0x3d43d646	0.04781177
147	0x3d250e19	0.040296648
148	0xbd82cca7	-0.063866906
149	0xbc56c86e	-0.01310931
150	0x3d19ae1f	0.03751957
151	0x3d8b4d97	0.068019085
152	0x3d95e9bd	0.07319973
153	0x3cd25a5a	0.025677849
154	0xbd1669df	-0.03672206
155	0x3c0303cf	0.0079965135
156	0xbc29ef5b	-0.010372008
157	0x3db0d7a4	0.0863488
158	0x3d80efa6	0.06295709
159	0xbccdc7af	-0.02511963
160	0x3da005c2	0.07813598
161	0x3d2f3f3e	0.04278492
162	0x3db716fc	0.08939931
163	0xbd040b80	-0.03223753
164	0x3d2fd3e6	0.04292669
165	0x3d4ad2a3	0.049517285
166	0x3dbc9708	0.092084944
167	0xbd74623c	-0.059663996
168	0x3c837698	0.01604776
169	0x3cd714b5	0.026254991
170	0x3dd94298	0.10608405
171	0x3d74d5bf	0.059774157
172	0x3d367664	0.0445465
173	0x3d285a75	0.04110189
174	0x3cf5a8f5	0.029987792
175	0xbd33d7c5	-0.043906946
176	0xbd3e7350	-0.04649669
177	0xbd3df3c9	-0.04637507
178	0x3d9f7a90	0.07787049
179	0x3d89963b	0.06718107
180	0x3cab45fe	0.020907398
181	0xbd8a9d1e	-0.06768249
182	0x3dc8f5fe	0.09812544
183	0x3d722617	0.059118357
184	0xbc4900ad	-0.0122682275
185	0x3d4e9e64	0.05044402
186	0x3d8af065	0.06784133
187	0x3b673539	0.0035279526
188	0x3d44c17c	0.048036084
189	0x3ac5bf37	0.0015086894
190	0x3ca25504	0.01981593
191	0x3da46baa	0.08028348
192	0x3d60fa1d	0.054926027
193	0x3c1c2922	0.009531291
194	0x3d90377b	0.07041832
195	0xbd2ed78b	-0.042686027
196	0x3d94143d	0.07230423
197	0xbd185115	-0.0371867
198	0x3cf152f0	0.029458493
199	0x3d614951	0.05500156
200	0x3d344cf6	0.04401871
201	0x3d708369	0.058719072
202	0xbc8c5082	-0.017128233
203	0xbd0e15b5	-0.03468867
204	0xbd2a5d9a	-0.04159317
205	0xbb2e43f3	-0.0026590794
206	0x3d8dd1f3	0.0692481
207	0xbd0c90f8	-0.03431794
208	0x3d5c3af4	0.05376716
209	0x3da960c0	0.08270407
210	0x3db410ec	0.0879229
211	0x3dd88615	0.10572449
212	0xbd4fa623	-0.05069555
213	0x3b297880	0.0025859177
214	0xbd873bb0	-0.06603181
215	0x3d3e7451	0.046497647
216	0x3b8f7e76	0.004379089
217	0xbd90081b	-0.07032796
218	0x3d3e77b2	0.04650087
219	0xbc588e54	-0.013217527
220	0x3d2f0616	0.042730413
221	0x3dbdb773	0.09263506
222	0xbd8d879f	-0.06910633
223	0x3c84acd3	0.01619569
224	0x3a5bec02	0.0008389355
225	0xbd27cae2	-0.04096497
226	0x3de08943	0.109636806
227	0x3cbaadf0	0.022788018
228	0x3dab14e6	0.083535954
229	0x3daceb0c	0.08443269
230	0xbc585506	-0.013203865
231	0xbd7772bd	-0.060412157
232	0x3d53027e	0.05151605
233	0xbd53ee90	-0.051741183
234	0x3d9196f4	0.0710887
235	0x3db0d1cb	0.08633765
236	0x3d94e962	0.07271077
237	0xbd1304d8	-0.03589329
238	0xbcef52f0	-0.029214352
239	0x3c5a3096	0.013317248
240	0xbd78bb08	-0.060725242
241	0x3d8cd2f3	0.06876173
242	0x3cc04ba1	0.023473563
243	0x3c976df7	0.018485053
244	0x3d17d0be	0.037064306
245	0x3d8be17e	0.068301186
246	0xbd31a00e	-0.04336553
247	0xbce06d79	-0.02739595
248	0x3d3408d0	0.043953717
249	0xbcd53380	-0.026025534
250	0xbd834696	-0.064099476
251	0x3d095af9	0.033534024
252	0xbd7bffdb	-0.0615233
253	0x3d3c7bd6	0.046016537
254	0x3dc7dfd0	0.09759486
255	0x3d0f33d9	0.034961555

lstm.bias_hh_l0 f4 [512]
0	0xbd7e5419	-0.06209192
1	0xbb953c98	-0.0045543425
2	0xbd2489d9	-0.040170524
3	0xbd27ca4b	-0.040964406
4	0xbd49dae3	-0.049281012
5	0x3d461596	0.04836043
6	0x3d97f11b	0.07419034
7	0x3dcc20be	0.099671826
8	0x3c834db4	0.016028263
9	0xbd11809b	-0.03552304
10	0x3d9d95c6	0.07694583
11	0x3da02a26	0.07820539
12	0xbd54dcd9	-0.05196843
13	0x3d99dfbd	0.07513378
14	0x3cd5cc61	0.026098432
15	0x3d86ba34	0.06578484
16	0x3d85852a	0.0651954
17	0x3d692f63	0.056929957
18	0x3d8f48b6	0.069962904
19	0x3dc6b63a	0.09702726
20	0xbd59eea4	-0.0532061
21	0xbd014b3c	-0.03156589
22	0xbb1f4878	-0.002430467
23	0x3cc08c87	0.023504509
24	0x3d6820b3	0.05667181
25	0x3d04784b	0.032341283
26	0x3c77ef04	0.015132669
27	0xbcbf80b1	-0.023376795
28	0xbd5d2086	-0.053986095
29	0x3d80b317	0.06284159
30	0x3db651b5	0.08902303
31	0xbd6a485d	-0.057197917
32	0xbaeed112	-0.0018220267
33	0x3b271591	0.0025495032
34	0x3d44f6ad	0.04808681
35	0x3d665b0a	0.056239165
36	0x3dce042b	0.10059389
37	0xbd8c1d1d	-0.068414904
38	0xbd31d8c0	-0.0434196
39	0xbd8406ab	-0.06446584
40	0xbcef1ddb	-0.02918904
41	0x3d48a6c9	0.048987184
42	0x3dbdfa74	0.09276286
43	0x3d1568f6	0.03647705
44	0x3d8ca4ba	0.068673566
45	0x3d4a806d	0.049438883
46	0xbd4a7784	-0.049430385
47	0x3dac65fb	0.08417889
48	0x3da57239	0.08078427
49	0xbc55559d	-0.0130209
50	0xbc990343	-0.018678313
51	0x3d86d660	0.065838575
52	0x3b008337	0.001960946
53	0x3dab3404	0.083595306
54	0x3cfc16a3	0.030772513
55	0x3ce8ac41	0.02840245
56	0x3d8fa949	0.070147105
57	0xbd38d24c	-0.04512243
58	0xbc6000f2	-0.0136721
59	0x3d04b1b9	0.032396052
60	0xbd7f5544	-0.062337175
61	0xbd18ad55	-0.037274677
62	0x3c6558d3	0.013998228
63	0x3da05f42	0.07830669
64	0x3d96f834	0.0737156
65	0xbd9300ce	-0.07177888
66	0x3d59d465	0.05318107
67	0x3db7e547	0.08979278
68	0xbcc1dfa9	-0.02366622
69	0xbcd8988e	-0.026439931
70	0x3d02bd43	0.031918775
71	0xbc286b8d	-0.010279548
72	0x3db77f35	0.0895981
73	0x3ca4d130	0.02011928
74	0x3dbf1c2b	0.093315445
75	0xbd3da5b7	-0.046300616
76	0xbd3daad0	-0.046305478
77	0x3dc99a1c	0.09843847
78	0x3c49f2f6	0.012325993
79	0xbc96b906	-0.018398773
80	0xbc5eecb8	-0.013606243
81	0x3d948c1c	0.07253286
82	0xbbc7c204	-0.0060961265
83	0xbca8279c	-0.0205267
84	0xbd5a094e	-0.05323153
85	0x3dc5e847	0.09663444
86	0xbd4823f1	-0.0488624
87	0xbce8a37f	-0.028398274
88	0x3d91d22e	0.07120167
89	0xbd1af020	-0.037826657
90	0x3d906899	0.070512004
91	0xbd744e0c	-0.059644744
92	0xbbdef7ac	-0.006804427
93	0xbd381794	-0.04494436
94	0x3d25bf9e	0.040465944
95	0x3b81a82f	0.0039568166
96	0x3d246121	0.04013169
97	0x3cc4936c	0.023996077
98	0x3bb90450	0.005646266
99	0x3d1f8e1b	0.03895388
100	0x3b41cc06	0.002957107
101	0xbc9eb167	-0.019371701
102	0x3d46b7bb	0.048515063
103	0x3d86ad18	0.06575984
104	0x3da5cdb9	0.08095879
105	0x3ae13037	0.0017180507
106	0xbbb03e53	-0.0053785234
107	0xbd375c35	-0.04476567
108	0x3de0c019	0.1097414
109	0xbcc83800	-0.024440765
110	0xbd4589dc	-0.048227176
111	0xbd11a9b9	-0.03556225
112	0xbcd05315	-0.025430242
113	0x3ca5e491	0.02025059
114	0xbd849527	-0.06473761
115	0x3cfadf83	0.030624157
116	0x3da02bbd	0.078208424
117	0x3ddfc596	0.109263584
118	0xbc9b02b7	-0.018922193
119	0xbdc8bed4	-0.098020226
120	0xbc991a56	-0.018689316
121	0x3c9854c6	0.01859511
122	0x3c7028ea	0.014658192
123	0x3c25a4e7	0.010110117
124	0x3dbad757	0.09123104
125	0x3b028df4	0.0019921036
126	0x3cfd37c3	0.030910378
127	0xbcf9bda8	-0.030485943
128	0xbc9ad52d	-0.018900478
129	0x3d48a67e	0.048986904
130	0x3cad238a	0.02113511
131	0x3dc64e77	0.09682935
132	0xbd34eef7	-0.044173207
133	0x3ba22cdf	0.0049491967
134	0x3b311604	0.002702118
135	0x3d8153a6	0.06314783
136	0xbc2a583b	-0.010397012
137	0xbc6c70b6	-0.014431169
138	0x3cbc340f	0.022974042
139	0xbc513be0	-0.012770623
140	0x3d390dde	0.04517924
141	0xbd57e6c3	-0.052710306
142	0xbd63f89f	-0.055657025
143	0x3c474236	0.012161782
144	0x3cdf6ebc	0.027274482
145	0xbd1e5fda	-0.03866563
146	0xbcc3ba6b	-0.023892602
147	0x3d5513d0	0.052020848
148	0xbd601cec	-0.054715082
149	0x3da6e927	0.08149939
150	0xbd966c5c	-0.07344887
151	0x3d8ee218	0.06976718
152	0x3cf804fd	0.030275816
153	0xbd610928	-0.054940373
154	0x3ce584d0	0.028017431
155	0x3b2e1292	0.0026561362
156	0xbd7f7a82	-0.062372692
157	0xbd514328	-0.051089436
158	0xbd4121ba	-0.047151305
159	0xbd22caf3	-0.03974433
160	0x3d601141	0.054703955
161	0xbc104e37	-0.00880771
162	0x3d682e8f	0.056685027
163	0xbbac0ab6	-0.0052503003
164	0x3d8a350d	0.067484
165	0xbbba7f02	-0.00569141
166	0x3db3cf82	0.08779813
167	0x3d699b94	0.057033136
168	0xbb8bbd45	-0.004264506
169	0xbd235280	-0.0398736
170	0x3daa8a44	0.08327153
171	0xbc0c194e	-0.008550955
172	0xbd9301ae	-0.07178055
173	0x3dadb029	0.084808655
174	0x3bf9d3e4	0.0076241363
175	0x3d8f88a5	0.07008485
176	0x3dd5888c	0.10426435
177	0xbc4c87f2	-0.012483584
178	0x3db35e27	0.087581925
179	0x3d65c3a7	0.05609479
180	0xbd7a698e	-0.06113582
181	0x3d19c602	0.03754235
182	0xbcb04149	-0.021515505
183	0x3d6b9075	0.05751081
184	0x3da3abd9	0.07991762
185	0x3dc06524	0.09394291
186	0xbd3ae076	-0.04562422
187	0x3d544fca	0.051833905
188	0xbcff1ae8	-0.03114076
189	0xbc3b5ac7	-0.011435217
190	0x3c334f2f	0.010944172
191	0xbcc95aad	-0.02457937
192	0xbc049017	-0.008090994
193	0x3b96fd32	0.00460782
194	0x3dcd3cb6	0.10021345
195	0x3d50ef74	0.05100961
196	0x3c4300a4	0.011902008
197	0x3dd66abd	0.104695775
198	0x3cca9684	0.024729975
199	0xbc8511a7	-0.016243769
200	0xbd3ec8a9	-0.046578083
201	0x3d1c641d	0.038181413
202	0xbccbb2b0	-0.024865478
203	0x3dabd2c6	0.08389811
204	0xbd83188b	-0.064011656
205	0xbd55853a	-0.052129008
206	0xbcb48fa6	-0.022041153
207	0x3db7c03e	0.08972214
208	0xbceddc5d	-0.029035741
209	0x3d841428	0.06449157
210	0x3be20727	0.0068978253
211	0x3d32cf7d	0.043654907
212	0x3da70d0c	0.08156785
213	0x3db0ab70	0.08626449
214	0x3cfbff1d	0.030761296
215	0x3d22ad1d	0.039715875
216	0xbd4e579f	-0.05037653
217	0x3d7a2dbe	0.06107878
218	0xbbf9b4fb	-0.0076204515
219	0xbd5ae220	-0.053438306
220	0xbc853cff	-0.016264437
221	0x3bbd0349	0.005768214
222	0x3c3a69b9	0.011377745
223	0xbd4fe8f6	-0.05075928
224	0x3d016046	0.031585954
225	0xbd29d48d	-0.04146247
226	0x3aec5794	0.0018031471
227	0x3cf129fd	0.029438967
228	0x3dc37bf7	0.09545129
229	0x3d95f3ad	0.07321868
230	0x3d81e06d	0.06341634
231	0xbc58c5f3	-0.0132307885
232	0x3d15aa0e	0.03653913
233	0x3d8d9ed0	0.06915057
234	0x3db00c03	0.08596041
235	0x3d0c3e7c	0.034239277
236	0x3d4d9ed0	0.050200284
237	0x3d6c7c10	0.057735503
238	0xbc89f974	-0.016842581
239	0x3cab75f9	0.020930277
240	0x3d4c0872	0.04981274
241	0xbd747e88	-0.059690982
242	0xbce3ba6d	-0.027798856
243	0x3c2d0189	0.010559448
244	0xbd22dd01	-0.039761547
245	0xbd3790c7	-0.044815805
246	0x3cba3a28	0.02273281
247	0xbad74c4e	-0.0016425939
248	0xbd39e1c1	-0.04538131
249	0x3c51ccf7	0.012805215
250	0x3dca25a9	0.09870464
251	0xbd95e64a	-0.07319315
252	0x3d385947	0.045007017
253	0x3dacb849	0.08433587
254	0x3d08294f	0.03324252
255	0x3b95e164	0.004573988

lstm.weight_ih_l1 f4 [512, 128]
0	0x3d10e89a	0.035378076
1	0x3d56bd4d	0.052426625
2	0x3cd0323a	0.025414575
3	0xbd582c59	-0.05277667
4	0x3d3a6326	0.04550471
5	0x3cd69451	0.02619377
6	0xbc8744b0	-0.016512245
7	0x3d9a7e07	0.07543569
8	0x3ccfc3ba	0.025361884
9	0xbcea9823	-0.028636998
10	0xbd41db84	-0.047328487
11	0xbd601d37	-0.05471536
12	0x3da2e0d2	0.07953037
13	0x3d0276f3	0.03185172
14	0xbd34e3c8	-0.04416254
15	0x3db38c38	0.08766979
16	0x3c9982ad	0.018739069
17	0xbd519214	-0.0511647
18	0xbca17575	-0.019709328
19	0x3b9b7a89	0.004744832
20	0xbc89d8a1	-0.01682693
21	0xbd97d8a7	-0.0741437
22	0x3c13c54b	0.009019206
23	0x3d69f374	0.05711694
24	0x3a2dccf2	0.00066299655
25	0xbdb208af	-0.086930625
26	0x3cdce21e	0.02696329
27	0xbc1b8146	-0.00949127
28	0xbd665f3e	-0.056243174
29	0x3d421d37	0.047391143
30	0x3dcd8c37	0.100365095
31	0x3b18990f	0.002328459
32	0x3d275098	0.040848345
33	0xbc9dec63	-0.019277757
34	0xbca582ac	-0.02020391
35	0xbd0c95bb	-0.03432248
36	0x3b7d3a51	0.0038639496
37	0x3dc220f0	0.094789386
38	0x3d2277eb	0.039665144
39	0xbd30a0d7	-0.04312214
40	0xbd6e18fd	-0.0581293
41	0x3d83aaa5	0.06429032
42	0x3c907a72	0.017636511
43	0xbc2274df	-0.00991556
44	0x3d79fdda	0.061033107
45	0xbc8577dc	-0.016292505
46	0xbd815906	-0.06315808
47	0x3ce446e9	0.027865844
48	0x3c392581	0.0113004455
49	0x3bdae91c	0.006680621
50	0xbcba79a8	-0.022763088
51	0x3cdf91cf	0.027291207
52	0x3d0dba81	0.034601692
53	0xbd61f59e	-0.05516588
54	0x3c254568	0.0100873485
55	0xba803905	-0.0009782618
56	0xbd41de86	-0.047331356
57	0xbd7e8256	-0.062136017
58	0xbd671eff	-0.056426045
59	0x3cb678e3	0.02227444
60	0x3cdb90c0	0.02680242
61	0x3dba4dac	0.09096846
62	0x3d2f8f2c	0.04286115
63	0xbd734973	-0.05939622
64	0x3d38738f	0.04503208
65	0x3ca5c66f	0.020236222
66	0x3dc2efeb	0.09518417
67	0x3d1b4983	0.037911903
68	0xbd274145	-0.04083373
69	0xbcc245ed	-0.023714984
70	0xbd4b809c	-0.0496832
71	0xbc07dcaa	-0.0082923565
72	0xbca9341a	-0.020654727
73	0xbce2dae8	-0.027692273
74	0xbd9c2aa7	-0.07625323
75	0x3c83462e	0.016024675
76	0x3cbec8b8	0.02328907
77	0xbd6bb4dd	-0.05754553
78	0x3d481648	0.048849374
79	0x3c94c418	0.018159911
80	0xbd1d804b	-0.038452428
81	0x3d5e4e58	0.054273933
82	0x3d6116ab	0.05495326
83	0xbc2960d6	-0.010338029
84	0x3da3c92f	0.07997357
85	0xbd52e3aa	-0.05148665
86	0x3d715a57	0.058924045
87	0xbdcb02f3	-0.09912672
88	0xbd47b05d	-0.048752178
89	0x3d1a72a6	0.037706994
90	0x3cfd5374	0.030923583
91	0xbda83958	-0.082140625
92	0x3db95e94	0.090512425
93	0xba77c76d	-0.0009452019
94	0x3cc3ba58	0.023892567
95	0xbd0263fb	-0.03183363
96	0x3cd394f1	0.025827857
97	0xbccadfcf	-0.024764923
98	0xbb8c1819	-0.0042753336
99	0xbd64d252	-0.05586464
100	0xbde10193	-0.109866284
101	0x3d251b0e	0.040309004
102	0x3c98edbd	0.01866805
103	0x3cfb41e2	0.030671064
104	0x3cf50b8c	0.029912733
105	0xbd2e8b0b	-0.04261307
106	0x3da49705	0.08036617
107	0xbbb8c901	-0.005639196
108	0xbbabf73c	-0.0052479785
109	0x3bf19d1b	0.0073734648
110	0xbd6e4e34	-0.05818005
111	0xbd6c8776	-0.057746373
112	0x3d731de1	0.059354667
113	0xbd9268ad	-0.071488716
114	0xbce9ed7d	-0.028555626
115	0x3c8c715b	0.017143896
116	0x3d45a914	0.04825695
117	0x3c79cbfa	0.015246386
118	0xbdb7f912	-0.08983053
119	0x3d9826aa	0.074292496
120	0x3dcbd6a2	0.09953047
121	0x3c17fdaf	0.0092767915
122	0xbcca1ecc	-0.024672888
123	0x3d28568c	0.041098163
124	0xbd51c5e4	-0.051214114
125	0x3d18ea6c	0.037332937
126	0x3c234a64	0.009966467
127	0xbd6f2791	-0.058387343
128	0xbd7fdb09	-0.062464748
129	0xbd9b7225	-0.07590131
130	0xbd50428b	-0.05084471
131	0xbcdfe963	-0.027332967
132	0x3db64333	0.08899536
133	0x3cc42e02	0.02394772
134	0x3c96a740	0.018390298
135	0x3db8033b	0.08984991
136	0xbdb13656	-0.08652942
137	0x3d589fdb	0.052886825
138	0x3d2a85b8	0.04163143
139	0xbadb1811	-0.0016715546
140	0x3bb70b19	0.0055860397
141	0xbb8c1e08	-0.004276041
142	0xbbee415a	-0.007270974
143	0x3d9f4af0	0.07777965
144	0xbd174d9c	-0.03693925
145	0x3d508b52	0.050914116
146	0x3d5920ae	0.05300968
147	0x3dc41d82	0.09575941
148	0xbd53e93f	-0.051736113
149	0x3ca4244f	0.020036845
150	0xbd3f3010	-0.046676695
151	0x3d925bfa	0.071464494
152	0xbc3d3b38	-0.011549763
153	0xbd0545da	-0.03253732
154	0xbd3855ff	-0.045003887
155	0xbc070a17	-0.008242152
156	0x3d70f5f8	0.058828324
157	0x3dc1eed7	0.09469383
158	0x3d24e272	0.040255018
159	0x3d2a189d	0.04152738
160	0x3d00ee58	0.031477302
161	0x3cf2ec68	0.029653743
162	0xbd10c4ca	-0.035343923
163	0xbd575cb9	-0.05257866
164	0x3d413fc9	0.04717997
165	0x3d59bcf2	0.053158708
166	0xbd82519f	-0.06363224
167	0x3c4524c8	0.012032695
168	0xbb18060c	-0.0023196964
169	0xbc99a036	-0.018753152
170	0xbcfaa2c0	-0.030595183
171	0xba172776	-0.0005766073
172	0xbc25fcc3	-0.010131064
173	0x3d924a83	0.07143118
174	0xbcb35c56	-0.021894615
175	0xbcb73ce0	-0.022367895
176	0xbdba6c99	-0.091027446
177	0xbd889f4e	-0.0667101
178	0x3dcc3063	0.099701665
179	0xbc557dcf	-0.013030483
180	0xbd80d628	-0.06290847
181	0x3cd51a10	0.026013404
182	0x3d6cbdf0	0.057798326
183	0xbcea88fc	-0.028629772
184	0x3d3a2907	0.045449283
185	0x3d11be15	0.035581667
186	0x3cb3d95d	0.021954233
187	0x3dad5677	0.084637575
188	0x3d9c916a	0.07644923
189	0x3dde85c0	0.108653545
190	0xbd7c1c9e	-0.06155073
191	0x3d876225	0.066105165
192	0x3b8c7340	0.0042862
193	0xbbe672e6	-0.00703274
194	0x3d7209c2	0.059091337
195	0xbc82f58e	-0.01598623
196	0x3c932b6a	0.017965037
197	0xbd4771ac	-0.04869239
198	0xbd15ff1c	-0.036620244
199	0x39e798c4	0.00044173573
200	0xbd870389	-0.06592471
201	0x3dd456a1	0.10368086
202	0xbd9f8984	-0.07789901
203	0x3c95ead8	0.018300459
204	0xbdc0ef33	-0.09420624
205	0x3d7d4f38	0.061843127
206	0xbd57f741	-0.052726034
207	0x3c3cbf5b	0.011520232
208	0xbd5692f7	-0.05238625
209	0xbd2da557	-0.04239401
210	0xbd24b492	-0.040211268
211	0xbd76bf2c	-0.06024091
212	0x3d106f8e	0.035262637
213	0x3da29cb0	0.07940042
214	0x3db346da	0.08753748
215	0xbd937c7b	-0.07201477
216	0x3d2b4ec8	0.04182318
217	0xbaced85d	-0.0015781034
218	0xbc0f3782	-0.008741261
219	0xbd762ac6	-0.060099386
220	0x3d9f2f87	0.07772737
221	0xbcea894f	-0.028629927
222	0x3d6ec731	0.058295432
223	0xbd741013	-0.059585642
224	0x3cff4955	0.031162897
225	0xbc5b0ce2	-0.013369771
226	0xbcbc0228	-0.022950247
227	0xbdd66518	-0.10468501
228	0xbd85c6cc	-0.06532058
229	0xbc031f08	-0.008003004
230	0x3dd2f12c	0.10299906
231	0xbc011e21	-0.007880718
232	0x3c5fcd0c	0.013659727
233	0xbdc7cb8c	-0.0975562
234	0xbd34d1e2	-0.044145472
235	0x3d538915	0.051644403
236	0xbddf1a0f	-0.10893642
237	0xbd200f0d	-0.039076854
238	0x3d318cea	0.043347277
239	0xbd87fd57	-0.066401176
240	0xbc4fba63	-0.012678715
241	0xbc8525f4	-0.016253449
242	0xbb07eed6	-0.0020741723
243	0xbbdf7c2a	-0.0068202214
244	0xbd4bcef1	-0.0497579
245	0xbd8a2ab5	-0.06746427
246	0x3d731481	0.059345726
247	0xbbc20562	-0.005921052
248	0xbd390dc2	-0.045179136
249	0x3d405f5a	0.046965934
250	0xbd1705bb	-0.0368707
251	0xbda73a69	-0.08165438
252	0xbd4cb086	-0.049973033
253	0xbbfa10ab	-0.0076313815
254	0x3ca0e034	0.019638158
255	0x3cba5dbf	0.02274978

lstm.weight_hh_l1 f4 [512, 128]
0	0x3d160a59	0.036630962
1	0x3b71e6ba	0.0036911205
2	0xbd92b99c	-0.071643084
3	0x3d1197c1	0.035545114
4	0xbc68c541	-0.014207185
5	0xbb8e2721	-0.0043381606
6	0xbb653b7d	-0.0034978085
7	0xbd1b980a	-0.037986793
8	0x3c69e942	0.014276804
9	0x3dc1f458	0.09470433
10	0x3c582419	0.0131922
11	0xbd67d94c	-0.056603715
12	0xbd6dcf9e	-0.058059327
13	0xbdd5704e	-0.10421811
14	0xbd61c45e	-0.05511891
15	0xbb48c4f2	-0.0030634967
16	0xbccc2adb	-0.024922779
17	0x3db2ed6c	0.08736691
18	0xbcac7bc2	-0.021055106
19	0x3c891c2b	0.016737064
20	0xbd8ead36	-0.06966631
21	0x3d9c9746	0.076460406
22	0x3d047c37	0.032345023
23	0xbd67e655	-0.056616146
24	0x3da3e16b	0.080019794
25	0x3d386f14	0.045027807
26	0xbd330d9d	-0.043714155
27	0xbd38ddc8	-0.045133382
28	0x3c140629	0.009034672
29	0x3d3da32e	0.0462982
30	0x3c8a4fb6	0.016883712
31	0xbc967549	-0.018366473
32	0x3d63ba34	0.0555975
33	0x3da208c6	0.0791183
34	0xbd92dce2	-0.07171036
35	0xbd17a687	-0.037024047
36	0xbc8a9ad9	-0.01691954
37	0x3ca93f6c	0.020660125
38	0x3c6aa72a	0.014322082
39	0xbd7a4013	-0.061096262
40	0xbc9db8dd	-0.019253189
41	0xbc5b123e	-0.0133710485
42	0x3ce1329e	0.027489956
43	0xbd6b7362	-0.057483084
44	0x3d3fc4fa	0.04681871
45	0x3d8425ff	0.0645256
46	0xbd86220e	-0.06549464
47	0x3c65d36d	0.014027459
48	0xbd71e42c	-0.059055492
49	0x3c79e8a4	0.01525322
50	0xbc610cb3	-0.013735938
51	0xbd2add60	-0.041715026
52	0x3d11547c	0.03548096
53	0xba0d57af	-0.0005391789
54	0xbdd8be6e	-0.105831966
55	0xbd594623	-0.053045403
56	0x3cafbc45	0.021452079
57	0x3d77e815	0.060524065
58	0x3d26e1b4	0.04074259
59	0xbcaa5c09	-0.020795839
60	0x3d1815ec	0.03713028
61	0x3d069747	0.032859113
62	0x3d5533f7	0.05205151
63	0xbc4c8f4e	-0.012485338
64	0x3cba8949	0.02277054
65	0x3c0bbaa0	0.008528382
66	0xbc7f5a6c	-0.015585523
67	0x3d3edeac	0.046599075
68	0x3dc87ca5	0.09789399
69	0xbd04308a	-0.032272853
70	0x3d1a5ac4	0.037684217
71	0x3dca82dd	0.098882414
72	0x3d9d0ee7	0.07668858
73	0xbad67cac	-0.0016364059
74	0x3d1aa53a	0.03775523
75	0x3d9c3ba6	0.076285645
76	0xbd989f00	-0.07452202
77	0xb9115159	-0.00013858582
78	0x3da663b4	0.081244856
79	0xbd6dc00d	-0.058044482
80	0xbd1cf82a	-0.038322605
81	0x3dd56613	0.1041986
82	0xbcf5998c	-0.029980443
83	0xbd7f295b	-0.0622953
84	0xbd6d0203	-0.057863247
85	0x3d064ae7	0.032786276
86	0xbd960da4	-0.073268205
87	0x3d3529a7	0.044229176
88	0x3c8730b6	0.01650272
89	0xbd4eae21	-0.05045903
90	0xbd310208	-0.043214828
91	0xbc56c222	-0.013107808
92	0xbd74aa3b	-0.059732657
93	0xbd9a53d6	-0.07535522
94	0xbdb80c26	-0.08986692
95	0xbd5f7500	-0.05455494
96	0x3d463e9b	0.04839955
97	0x3b02c901	0.0019956233
98	0xbcf65be9	-0.030073123
99	0x3d5643fa	0.05231092
100	0x3d93e170	0.07220733
101	0x3b57db24	0.0032937014
102	0x3d49fee8	0.049315363
103	0xbcf4471d	-0.029819066
104	0x3d81568c	0.06315336
105	0x3d661b16	0.056178175
106	0xbdb3f752	-0.08787407
107	0x3d7eed0f	0.062237795
108	0x3d12216f	0.035676416
109	0xbbcaea9e	-0.0061925193
110	0xbd230bcd	-0.039806176
111	0xbdc6df5c	-0.09710571
112	0x3d93cb6a	0.072165325
113	0x3dc4aa23	0.096027635
114	0x3cdbb59a	0.026819993
115	0x3db881ce	0.09009133
116	0xbdb8f9d8	-0.09032029
117	0x3cd98123	0.026550835
118	0x3ba4be41	0.005027563
119	0x3d324f1c	0.043532476
120	0x3de2c4ac	0.110726684
121	0xbdd19ca0	-0.10234952
122	0x3dd95b6b	0.1061314
123	0x3d95586b	0.07292255
124	0x3c25de0b	0.01012374
125	0xbdbb3b18	-0.091421306
126	0x3b7e2e81	0.0038785043
127	0xbd8f55ca	-0.06998785
128	0xbc02d11a	-0.007984424
129	0xbd24e7b3	-0.040260028
130	0xbdc1122a	-0.09427293
131	0xbd613e8d	-0.054991294
132	0x3d52736b	0.051379602
133	0xbd4af81e	-0.04955303
134	0xbd1596c8	-0.03652075
135	0xbc436154	-0.01192506
136	0x3cf7e80b	0.030262014
137	0xbd65fcf3	-0.056149434
138	0x3d11fbd6	0.03564056
139	0x3d12ad1e	0.03580963
140	0x3ce5d125	0.02805383
141	0xbdb20941	-0.08693171
142	0x3d7ef8d6	0.062249027
143	0xbd674de3	-0.056470763
144	0xbbfb8627	-0.0076759043
145	0x3d928f1f	0.071562044
146	0x3db2a774	0.087233454
147	0x3c060f0c	0.008182298
148	0x3d22e9b8	0.039773673
149	0x3da3e952	0.08003487
150	0x3d5bee88	0.053694278
151	0xbd2346e3	-0.039862525
152	0x3dd715bf	0.105021946
153	0x3cf772ad	0.030206049
154	0x3d6eeeae	0.05833309
155	0xbcbb7b89	-0.022886055
156	0xbd97f424	-0.07419613
157	0x3d2c38e3	0.04204644
158	0xbd1916e1	-0.037375335
159	0xbcabca8e	-0.020970609
160	0x3d0050b7	0.031326976
161	0xbd16bed6	-0.03680309
162	0x3d126daa	0.035749115
163	0xbcd23edc	-0.02566474
164	0xbd39eb93	-0.045390677
165	0xbd09cb21	-0.033640984
166	0x3d844249	0.064579554
167	0x3dde8139	0.10864491
168	0x3d2ec636	0.042669497
169	0x3d8594f8	0.06522554
170	0xbd8cce94	-0.06875339
171	0xbd82ab03	-0.06380274
172	0xbda45359	-0.0802371
173	0x3ce30797	0.02771358
174	0xbd9acf04	-0.07559016
175	0xbd01912e	-0.031632595
176	0x3d59ea77	0.05320212
177	0xbd532f98	-0.05155906
178	0xbdcf0906	-0.10109143
179	0x3d5eaf39	0.054366324
180	0x3d49151c	0.049092397
181	0xbbb59e06	-0.0055425195
182	0x3d3f53e1	0.046710853
183	0xbd4896e0	-0.04897201
184	0x3d389725	0.045066018
185	0x3dcc499b	0.09974977
186	0x3dcdcca9	0.100488015
187	0xbdb3b429	-0.08774597
188	0x3c2b2ed0	0.010448173
189	0x3d82ea99	0.06392402
190	0x3d949b8f	0.07256233
191	0xbcfd7108	-0.030937687
192	0x3cf8f006	0.03038789
193	0xbda64eae	-0.08120476
194	0x3dce5c5f	0.10076212
195	0xbd377864	-0.044792548
196	0x3d47e085	0.048798103
197	0x3cbc1b14	0.02296213
198	0xbd2a99f0	-0.041650712
199	0x389ff1c9	7.626747e-05
200	0x3c1f5263	0.009724232
201	0x3c4d1185	0.012516384
202	0x3b245f20	0.0025081113
203	0xbcd67db8	-0.026182994
204	0xbd7f2a78	-0.06229636
205	0xbdac77d5	-0.08421294
206	0xbcf72b0a	-0.03017189
207	0xbcbd5ca4	-0.023115464
208	0xbc90052a	-0.017580587
209	0x3d6ff8aa	0.058586754
210	0x3d90c950	0.07069647
211	0xbcf1e1ec	-0.029526673
212	0xbd793fff	-0.060852047
213	0x3cc02274	0.023453929
214	0xbd4907ed	-0.049079824
215	0xbd1203ab	-0.03564803
216	0xbd6868e3	-0.056740653
217	0xbd93a69d	-0.07209513
218	0x3bd04b82	0.0063566575
219	0x3be8c614	0.007103691
220	0xbd3b82e6	-0.04577913
221	0xbd27f0b1	-0.041001026
222	0xb9d8105a	-0.00041210913
223	0xbd1df4b8	-0.03856346
224	0xbc04ff46	-0.008117503
225	0xbd86129a	-0.06546517
226	0x3d4738e4	0.04863824
227	0x3d6dd6ec	0.058066294
228	0xbd510d13	-0.05103786
229	0x3ccc26ac	0.024920784
230	0x3c307a76	0.010771384
231	0x3d010e67	0.031507876
232	0x3d8d33c0	0.06894636
233	0xbc01ca62	-0.007921787
234	0xbbcfa365	-0.006336617
235	0x3ca52399	0.020158576
236	0x3d42b264	0.047533408
237	0xbdb22437	-0.08698314
238	0xbb3de449	-0.002897518
239	0x3d40e3b7	0.047092166
240	0x3d4cd321	0.050006036
241	0xbba70d7e	-0.005098044
242	0x3d0ff86f	0.035149034
243	0x3cf6aefa	0.030112732
244	0x3c938a16	0.01801018
245	0x3cd51455	0.026010672
246	0x3d89f9b5	0.06737081
247	0xbba3f038	-0.0050030015
248	0xbd80530f	-0.06265842
249	0xbd87e102	-0.06634714
250	0x3cb07bcd	0.021543408
251	0xbb13f9dc	-0.0022579348
252	0x3d1e1385	0.038592834
253	0x3cdebd30	0.027189821
254	0x3db8276b	0.089918934
255	0x3d8059a8	0.062671006
