fault_model_nn_allprior_22_33kv/best_Y2023.pt (torch, 929527 bytes, 15 tensors)

emb.weight f4 [219, 16]
-0.12080413 0.36231592 0.36785376 4.5688137e-07 0.008786526 -0.5147549 1.0654098 -0.25341257
1.8177281e-05 -0.9230653 -0.7507489 1.3400301 -2.8728718e-06 -0.006748518 0.50535107 0.63650227
0.445009 -0.5203884 0.7991354 0.8156465 0.3375248 -1.6306778 0.42241323 -0.5816617
-0.647979 -1.0399547 -0.43716735 0.4108373 -1.2774382 -0.26341042 -0.2631419 -1.9240165
-0.60794127 -0.49593565 0.7310504 -0.6032167 -0.45390174 0.23998067 0.05616288 1.8430011
-1.2860948 0.2425125 -0.7975109 -1.155137 0.74554867 -1.1028383 0.0734807 -0.30474982
0.20208381 -0.83899087 -0.16126217 -0.46063265 -1.2271913 -0.4477335 0.6535826 0.018330714
1.1852599 -1.270532 0.903486 -0.41009107 -0.69391006 0.059767235 -0.31950054 0.07688331
-0.7464855 -2.1237438 0.11876817 -1.2518272 -1.3833442 1.7850469 0.58078945 -2.9681358
-0.26376754 0.5312845 -0.18070176 0.5428167 0.66050017 1.2010106 1.934644 0.84828156
-0.4611938 -0.46658415 -0.11811099 -1.3850173 0.4354966 -1.255613 -0.70839953 -1.1089673
0.47840565 -0.23488496 0.74079126 -0.8174382 -0.48003283 -0.019857531 -1.3837111 -1.1744138
-0.6568033 0.70081526 -0.8752678 1.2380358 -0.2327338 -0.07492114 -0.13736002 0.68466073
-1.7002852 1.2168621 -0.8905385 -0.3551874 1.3443041 -0.017210558 -0.71778023 0.37694123
-0.2167362 -0.43441868 -0.9129222 0.8873866 0.9982251 -0.7042467 -1.1846536 -0.19409075
-1.3429056 0.38982284 -0.1333609 0.81740767 0.0140059255 -0.08735001 -0.6213884 -0.20762493
-0.5946993 -0.5142114 1.0560682 -0.025186049 -0.46108383 -0.09611239 0.016236346 -0.07547561
0.6805381 0.4038223 0.38566104 0.37666208 0.1422639 -0.36877373 -0.5067495 0.16360863
1.1214097 -0.15283664 1.3841206 0.32685757 1.2644295 0.13925815 0.92991304 -1.396754
0.11777412 -1.5372204 -0.04244614 1.3388045 1.324975 -0.46108767 1.5131721 -0.35173604
0.12149689 1.2060311 0.23740047 1.8687347 -0.3292811 0.72326773 0.4328158 -0.0064888955
0.2548712 -1.5468208 1.8581506 1.7878622 0.4597598 -0.22319166 0.36310136 -0.69646716
0.20914839 1.1448184 1.6505698 0.40476298 -0.11994026 -1.3806052 0.08497909 0.78108454
0.8727657 -0.47486052 0.6327046 -0.017834421 0.5491263 -1.4105368 0.9287558 0.018798022
-0.5032153 0.8345883 -1.6384895 -0.28634328 1.2227939 -0.08308348 0.69850874 -0.68310785
0.6380032 -0.35110524 1.6523101 0.66610503 0.19093369 0.07135547 -0.40002906 -1.2888255
-0.2247893 -1.6084859 0.14386341 -0.9429898 -1.050486 1.4723021 0.9861063 0.2075823
-2.0052657 -0.90235263 -0.2682821 -0.32570168 1.3531507 -0.5237977 0.6467505 0.17130674
-0.46226937 -0.7741134 1.322713 -0.9607792 1.1595824 -1.2402483 0.04176132 -0.17197381
-0.024656652 -0.90934646 -1.5066426 -0.42988846 0.082786135 -0.061238963 -0.79888225 0.6036791
1.1163541 0.0707836 -1.1816174 0.4061925 -0.49672374 0.9829377 0.44154793 0.38236195
-1.1401609 0.4678682 0.3554684 -0.19662659 -0.9978399 -0.9861864 -0.87041783 -0.6151225
00000000: 2868 f7bd 7981 b93e 5457 bc3e 4c49 f534
00000010: 5cf5 0f3c fac6 03bf 595f 883f 4bbf 81be
00000020: 6a7b 9837 024e 6cbf 1431 40bf 1b86 ab3f
00000030: 90cb 40b6 ac22 ddbb b05e 013f d0f1 223f
00000040: 38d8 e33e 2d38 05bf 2394 4c3f 36ce 503f
00000050: 0dd0 ac3e 0dba d0bf 8c46 d83e c8e7 14bf
00000060: f4e1 25bf 3c1d 85bf 66d4 dfbe 4459 d23e
00000070: 1883 a3bf bbdd 86be 89ba 86be 2c46 f6bf
00000080: 0aa2 1bbf 47eb fdbe 1e26 3b3f 696c 1abf
00000090: cf65 e8be 7ebd 753e 0c0b 663d 76e7 eb3f
000000a0: c19e a4bf 3255 783e ad29 4cbf 87db 93bf
000000b0: 47dc 3e3f ce29 8dbf 0d7d 963d 2b08 9cbe
000000c0: 0fef 4e3e 1bc8 56bf e921 25be 0bd8 ebbe
000000d0: 9b14 9dbf 533d e5be 3051 273f 4b2a 963c
000000e0: 99b6 973f cba0 a2bf dc4a 673f 75f7 d1be
000000f0: 17a4 31bf 7dce 743d 9395 a3be ff74 9d3d
00000100: ac19 3fbf 6beb 07c0 ba3c f33d e03b a0bf
00000110: 6c11 b1bf 6b7c e43f 9eae 143f f0f5 3dc0
00000120: 8a0c 87be 4302 083f e209 39be 09f6 0a3f
00000130: 8a16 293f b7ba 993f 6aa2 f73f fb28 593f
00000140: 9821 ecbe 1ee4 eebe 2de4 f1bd 3f48 b1bf
00000150: 69f9 de3e edb7 a0bf ac59 35bf a4f2 8dbf
00000160: 96f1 f43e af85 70be 7fa4 3d3f a143 51bf
00000170: ddc6 f5be 43ac a2bc 721d b1bf 3153 96bf
00000180: 4324 28bf a168 333f 8d11 60bf f577 9e3f
00000190: c551 6ebe 4170 99bd 1ba8 0cbe ed45 2f3f
000001a0: f2a2 d9bf 23c2 9b3f 55fa 63bf 1fdb b5be
000001b0: 2812 ac3f 28fd 8cbc 72c0 37bf 71fe c03e
000001c0: 18f0 5dbe 206c debe 45b5 69bf c52b 633f
000001d0: ae8b 7f3f 8349 34bf bba2 97bf babf 46be
000001e0: 55e4 abbf dc96 c73e c38f 08be a141 513f
000001f0: 1c79 653c 90e4 b2bd 4f13 1fbf a19b 54be
00000200: 373e 18bf 5ca3 03bf 3e2d 873f f952 cebc
00000210: 2e13 ecbe 93d6 c4bd 1602 853c f592 9abd
00000220: bf37 2e3f ccc1 ce3e 5d75 c53e dad9 c03e
00000230: a1ad 113e e9cf bcbe 56ba 01bf 0589 273e
00000240: 5a8a 8f3f 3581 1cbe dd2a b13f e059 a73e
00000250: d3d8 a13f b099 0e3e c80e 6e3f d6c8 b2bf
00000260: 8f33 f13d a3c3 c4bf 01dc 2dbd f25d ab3f
00000270: c898 a93f af13 ecbe a0af c13f bf16 b4be
00000280: 5dd3 f83d 3a5f 9a3f 1c19 733e b332 ef3f
00000290: 8897 a8be 1328 393f 089a dd3e cda0 d4bb
000002a0: 7a7e 823e 39fe c5bf e1d7 ed3f abd8 e43f
000002b0: a365 eb3e 5b8c 64be 6ce8 b93e ac4b 32bf
000002c0: ff2a 563e 6989 923f df45 d33f 183d cf3e
000002d0: 3da3 f5bd acb7 b0bf 8409 ae3d 28f5 473f
000002e0: 936d 5f3f eb20 f3be eef8 213f 7e19 92bc
000002f0: 8b93 0c3f 788c b4bf f1c2 6d3f 4ffe 993c
00000300: b8d2 00bf 94a7 553f 06ba d1bf 969b 92be
00000310: 8384 9c3f ac27 aabd 78d1 323f 28e0 2ebf
00000320: 2d54 233f 11c4 b3be e67e d33f dc85 2a3f
00000330: 1f84 433e d122 923d 9cd0 ccbe 3cf8 a4bf
00000340: 2b2f 66be dee2 cdbf ee50 133e c867 71bf
00000350: 5376 86bf 6574 bc3f 7671 7c3f 7490 543e
00000360: 4656 00c0 9500 67bf 455c 89be 5fc2 a6be
00000370: 0b34 ad3f 9b17 06bf 7191 253f 096b 2f3e
00000380: 92ae ecbe 4c2c 46bf a94e a93f a0f5 75bf
00000390: 326d 943f 75c0 9ebf eb0d 2b3d e719 30be
000003a0: bffc c9bc eeca 68bf aad9 c0bf 571a dcbe
000003b0: c78b a93d b5d5 7abd 8c83 4cbf b78a 1a3f
000003c0: b1e4 8e3f fef6 903d 3d3f 97bf 77f8 cf3e
000003d0: 9352 febe cea1 7b3f 9212 e23e f2c4 c33e
000003e0: cbf0 91bf 6c8c ef3e f4ff b53e 7b58 49be
000003f0: 7072 7fbf b676 7cbf b4d3 5ebf ab78 1dbf

lstm.weight_ih_l0 f4 [512, 3]
-0.044977136 -0.06126824 -0.033152618 0.005847581 0.024601929 -0.038843967 0.059769496 -0.020728884
0.012307777 -0.020073267 -0.043672312 -0.032893784 -0.07688999 -0.08371238 0.02881981 -0.08561741
-0.06766758 0.053097013 0.031973094 0.057420086 0.003280349 -0.01985898 0.04705011 0.08149647
0.06404112 -0.044549134 -0.039448228 -0.046648588 -0.08212334 -0.04451098 -0.015123722 0.027588423
0.041121252 -0.09806909 0.034583934 -0.0034566207 0.07539017 -0.05406044 -0.09415525 -0.029669594
-0.02424452 -0.07522656 0.011033521 0.030304829 0.01592996 -0.0073341783 -0.0026031318 0.028150186
0.03734675 0.039986394 -0.018271694 0.029852213 -0.017497528 -0.015635269 -0.013114683 -0.03843343
0.0624141 -0.017886564 -0.020243162 0.020261342 -0.013233524 0.031585466 -0.0037450348 -0.046266638
-0.06467331 0.037752498 0.0129229175 -0.04773344 0.0722448 0.038520712 -0.009900479 0.04001258
0.0975394 0.010032268 0.063588314 -0.055805784 0.043829564 -0.049611457 0.046437528 -0.047447935
-0.0998784 -0.0044131796 0.08479633 -0.0362345 0.0051508755 -0.022398826 -0.0095276395 0.042425368
0.026238589 0.019151736 -0.008986928 0.0483882 -0.057644043 -0.107881114 -0.031133164 -0.062632404
-0.012786213 0.035636626 0.01737204 -0.020518959 -0.04441179 -0.05437452 -0.044182654 0.031575244
-0.06351772 0.05786085 -0.016643407 0.036562204 -0.0043513505 0.043133646 -0.026087046 0.05634765
0.0385795 0.021058789 0.016437279 0.02168344 0.034069438 -0.04419586 -0.024817597 -0.018297484
0.0411723 -0.004317226 0.06558014 -0.080205575 -0.026496625 -0.048330575 -0.080274075 0.006164141
0.030196648 -0.024252977 -0.03824917 -0.040046804 0.018796608 0.009499902 0.047544494 -0.064035706
-0.081852965 0.007100773 -0.05962342 -0.00093135715 0.015428344 -0.026223468 0.052686017 -0.010425019
0.04210156 -0.020639932 -0.08825468 0.04775861 -0.05956109 -0.021661405 -0.069483906 -0.026692001
-0.021114897 -0.056059975 0.03786347 -0.028632784 0.05597277 0.056718763 0.01427809 -0.058947247
-0.02356637 0.032849688 0.060103633 0.008357551 0.061219484 -0.00064888695 -0.06742747 0.05011246
0.020233002 0.05745607 0.01768352 -0.030086542 0.044678807 0.030702898 0.049241237 -0.03548836
0.048635036 0.013345736 0.047114346 0.037227318 -0.06308711 0.062651455 0.053057812 -0.020638756
-0.03483773 0.078928426 -0.018195879 -0.039018255 0.045192588 -0.042390283 0.059038654 -0.012848092
-0.050082013 -0.08126988 0.048858617 -0.032182667 -0.007569561 -0.04483816 0.0047582565 -0.041657098
-0.043964207 -0.029023414 -0.04292415 0.01653478 -0.05055111 -0.011813158 -0.070873484 0.0072873165
0.034995798 0.013133569 0.068716735 0.029077869 0.07248992 -0.044681553 -0.0964019 0.037095662
-0.023732042 -0.04579328 -0.06421051 -0.004595208 0.025206946 0.037193272 0.00020329362 0.04686328
-0.07410248 -0.01955227 -0.0577433 -0.067036256 0.036930732 0.006529004 0.031215433 0.039655197
0.01775665 -0.021841828 -0.026535824 0.058978837 0.035366952 0.13424273 0.001996049 -0.06977674
0.029309632 -0.0038043451 0.042262003 -0.0872639 -0.022013193 -0.0105940765 -0.005777071 0.0033756576
-0.016825564 -0.08414058 0.0306343 0.085612975 0.0059766676 -0.0839121 0.019649267 0.0480712
00000000: f239 38bd 68f4 7abd 0acb 07bd 119d bf3b
00000010: fc89 c93c da1a 1fbd dcd0 743d 9fcf a9bc
00000020: 8fa6 493c b170 a4bc bde1 32bd a2bb 06bd
00000030: 8078 9dbd 6571 abbd 8617 ec3c 2e58 afbd
00000040: 4d95 8abd 417c 593d 38f6 023d 5331 6b3d
00000050: 20fb 563b 4daf a2bc 9eb7 403d 9fe7 a63d
00000060: fe27 833d 2779 36bd 7794 21bd 9712 3fbd
00000070: 4830 a8bd 2551 36bd 7dc9 77bc 1e01 e23c
00000080: c26e 283d 72d8 c8bd e2a7 0d3d 7988 62bb
00000090: 2966 9a3d 7b6e 5dbd 78d4 c0bd a60d f3bc
000000a0: 729c c6bc 6210 9abd f1c5 343c d541 f83c
000000b0: 8c7f 823c 8c53 f0bb 4e99 2abb 389b e63c
000000c0: e8f8 183d c6c8 233d 85ae 95bc a18c f43c
000000d0: fa56 8fbc 8915 80bc f8de 56bc 5f6c 1dbd
000000e0: eda5 7f3d d886 92bc fdd4 a5bc 1dfb a53c
000000f0: 6cd1 58bc c35f 013d 426f 75bb 1682 3dbd
00000100: 7173 84bd 5da2 1a3d a5ba 533c 2484 43bd
00000110: 15f5 933d e5c7 1d3d 9e35 22bc 3be4 233d
00000120: bdc2 c73d 625e 243c 973a 823d 9b94 64bd
00000130: a186 333d 6235 4bbd 4735 3e3d c458 42bd
00000140: 0c8d ccbd 6f9c 90bb b3a9 ad3d a16a 14bd
00000150: adc8 a83b be7d b7bc d119 1cbc 39c6 2d3d
00000160: 4ff2 d63c 1ae4 9c3c e83d 13bc b532 463d
00000170: 291c 6cbd c6f0 dcbd fa0a ffbc 6b45 80bd
00000180: 447d 51bc b6f7 113d cf4f 8e3c 6017 a8bc
00000190: 23e9 35bd d1b7 5ebd dff8 34bd 0b55 013d
000001a0: 9415 82bd 80ff 6c3d c157 88bc 40c2 153d
000001b0: c695 8ebb e8ac 303d 80b4 d5bc cbcc 663d
000001c0: 8a05 1e3d 7b83 ac3c 79a7 863c 78a1 b13c
000001d0: 658c 0b3d b806 35bd 464e cbbc 9be4 95bc
000001e0: 49a4 283d 8477 8dbb e14e 863d d242 a4bd
000001f0: 730f d9bc 48f6 45bd bc66 a4bd 90fc c93b
00000200: f65e f73c 2eae c6bc 29ab 1cbd 1e08 24bd
00000210: 58fb 993c 7aa5 1b3c 04be 423d 2725 83bd
00000220: 87a2 a7bd 9aad e83b b037 74bd 5226 74ba
00000230: 2ac7 7c3c 99d2 d6bc 4bcd 573d b3cd 2abc
00000240: af72 2c3d 1315 a9bc dfbe b4bd 889e 433d
00000250: 54f6 73bd 4273 b1bc 944d 8ebd 2fa9 dabc
00000260: 26f9 acbc 259f 65bd ba16 1b3d 4d8f eabc
00000270: b443 653d ef51 683d a6ee 693c ab72 71bd
00000280: 430e c1bc 658d 063d 3a2f 763d 1cee 083c
00000290: 48c1 7a3d 111a 2aba 6a17 8abd b942 4d3d
000002a0: aebf a53c 0e57 6b3d 08dd 903c 0d78 f6bc
000002b0: 2001 373d a584 fb3c 2eb1 493d 3e5c 11bd
000002c0: 8835 473d 13a8 5a3c f9fa 403d ac7b 183d
000002d0: d133 81bd 684f 803d 2653 593d 9c12 a9bc
000002e0: 02b2 0ebd 3aa5 a13d 860f 95bc 9bd1 1fbd
000002f0: dd1b 393d 6fa1 2dbd 84d2 713d ce80 52bc
00000300: cc22 4dbd d370 a6bd f91f 483d f9d1 03bd
00000310: 140a f8bb 38a8 37bd 26eb 9b3b a2a0 2abd
00000320: d013 34bd 83c2 edbc 3cd1 2fbd f273 873c
00000330: ae0e 4fbd fa8b 41bc 1e26 91bd 71ca ee3b
00000340: c157 0f3d 2e2e 573c 5cbb 8c3d b634 ee3c
00000350: 9875 943d 0104 37bd 5c6e c5bd 9ff1 173d
00000360: b369 c2bc bc91 3bbd cd80 83bd 6693 96bb
00000370: cc7e ce3c f957 183d 372b 5539 b6f3 3f3d
00000380: 0bc3 97bd 152c a0bc 3d84 6cbd 4e4a 89bd
00000390: ae44 173d 41f1 d53b 82b7 ff3c 7d6d 223d
000003a0: 6576 913c a2ed b2bc a861 d9bc cb93 713d
000003b0: f0dc 103d ed76 093e 25d0 023b 1ce7 8ebd
000003c0: c11a f03c 5252 79bb ec1a 2d3d 6ab7 b2bd
000003d0: 0355 b4bc c792 2dbc 964d bdbb 233a 5d3b
000003e0: c4d5 89bc e551 acbd c9f4 fa3c db55 af3d
000003f0: ecd7 c33b 1bda abbd 80f7 a03c 4ee6 443d

lstm.weight_hh_l0 f4 [512, 128]
-0.026679661 0.05664093 -0.0535129 -0.038744587 -0.0077233766 -0.017818464 -0.06285019 0.0037071588
-0.056098334 0.0068913014 -0.061584413 -0.0107157575 0.023030154 -0.022107203 -0.008931682 0.014161772
-0.08116606 0.0065968568 -0.018393401 -0.009595011 -0.022228993 -0.0429518 -0.037260927 0.0030502332
0.042001612 0.031267304 -0.015662055 -0.05809833 0.043737058 0.076864496 -0.025973875 -0.021164285
-0.018010948 -0.03098825 -0.0457576 0.05960329 -0.006620019 -0.06342452 0.039229803 -0.04566173
-0.039180737 -0.052601203 0.0110625625 0.03714526 -0.010243233 0.04091208 0.029945888 0.013185098
0.058327083 0.05624294 0.06399464 -0.040573187 0.0071952282 0.058599286 0.034308996 -0.0030902333
-0.0020085743 0.023710348 -0.018670438 -0.057487812 -0.014292435 -0.0142546315 0.015221729 -0.004724331
-0.027216244 -0.029060282 0.025911354 -0.024575137 0.033606853 -0.05255882 0.045539763 0.06336498
0.024400251 0.0068379757 0.022383379 0.061743923 0.047447592 -0.05798536 0.033734202 0.055052243
-0.04424313 0.0060213665 0.017586356 -0.0020089813 -0.028026668 -0.0478686 0.06773438 0.028715547
-0.049137685 -0.06973836 0.03341731 -0.058883574 0.00622522 0.03446051 0.007901148 0.017728377
-0.05767539 -0.04513148 0.04285944 -0.024830356 -0.04848433 -0.0005365306 -0.027755512 0.008449859
0.072746366 0.053259652 -0.03914206 0.012194045 -0.008614515 -0.03374853 0.0026490376 -0.07004328
0.038693625 -0.04055377 0.04092808 -0.04940191 -0.033246707 0.012578992 -0.05864276 -0.028008448
0.03560001 0.055288583 0.055203807 0.011418252 0.0023151496 -0.011891056 0.012797494 -0.035833303
0.024786748 0.0071385996 0.0040419395 0.012208997 0.05016805 -0.033592183 0.05090435 -0.053591706
0.06029529 -0.059241384 -0.008971901 -0.04783778 0.05964977 -0.0023950017 0.008515745 0.012165187
-0.032128077 -0.01818866 -0.0194174 -0.04111938 -0.06227432 0.016886007 0.026122857 0.017194558
-0.00096909725 -0.034946285 0.042471975 0.004131473 -0.006821588 0.052146073 0.007961912 -0.021356752
0.029195428 0.036620088 -0.04111585 -0.06620826 -0.027603611 -0.018228712 0.023062943 -0.0058770427
-0.04552384 0.007329398 -0.017600631 0.02816512 -0.05416799 0.034447372 -0.03379797 -0.0379717
-0.006905405 -0.010964031 0.044707406 -0.030615853 0.060542107 0.0054929857 -0.025277343 0.038551252
0.029912094 -0.0059775165 -0.062090214 0.01814593 -0.036860276 0.0037044873 -0.002075808 -0.05075716
0.006572489 0.012965244 -0.021668615 0.059405807 0.05090311 0.06388376 0.011212075 0.038400717
-0.038077056 -0.012301118 0.034744877 0.02814309 0.0075728265 0.020232534 -0.04447051 0.0093288245
0.0028922828 -0.0036538492 -0.047179177 0.015006584 0.031506594 0.06095847 0.0011772446 0.006872307
-0.015620347 0.00596727 0.040729962 -0.04874688 0.03893255 0.050901014 -0.018233048 0.042016
0.061732765 0.024053007 0.015750583 -0.02993218 0.0133678205 -0.03906849 -0.012605759 0.055091016
-0.05944525 -0.052111324 0.05528725 0.004225365 0.004632546 0.03464919 -0.07280157 -0.021769797
-0.047548473 0.044108063 0.01867454 0.0034093738 0.007916947 -0.044536784 0.030320525 -0.03279057
-0.053138 -0.026404064 -0.018587139 0.017191477 -0.010992003 0.051491745 0.0016122139 0.0005011053
00000000: 4e8f dabc 5200 683d 5830 5bbd a5b2 1ebd
00000010: 6114 fdbb 07f8 91bc 9ab7 80bd cef3 723b
00000020: 5ec7 65bd 6dd0 e13b f03f 7cbd 2591 2fbc
00000030: bca9 bc3c 2a1a b5bc 3156 12bc c706 683c
00000040: 643a a6bd 722a d83b c2ad 96bc 6534 1dbc
00000050: 9419 b6bc 3aee 2fbd ea9e 18bd 6ce6 473b
00000060: e209 2c3d 2512 003d b64d 80bc 84f8 6dbd
00000070: a125 333d 226b 9d3d 2ac7 d4bc b960 adbc
00000080: b28b 93bc 12db fdbc 526c 3bbd 9422 743d
00000090: bfec d8bb b7e4 81bd 6eaf 203d cb07 3bbd
000000a0: fb7b 20bd 5c74 57bd c03f 353c a125 183d
000000b0: 3cd3 27bc 6d93 273d 1451 f53c 4f06 583c
000000c0: 61e8 6e3d ff5e 663d 9f0f 833d 1230 26bd
000000d0: f3c5 eb3b ce05 703d 9787 0c3d 8385 4abb
000000e0: 49a2 03bb 343c c23c bff2 98bc 5778 6bbd
000000f0: d12a 6abc 428c 69bc 8f64 793c 90ce 9abb
00000100: 9af4 debc d40f eebc 0c44 d43c cc51 c9bc
00000110: 57a7 093d eb47 57bd e787 3a3d 80c5 813d
00000120: 09e3 c73c 1911 e03b 595d b73c 32e7 7c3d
00000130: 6858 423d 0f82 6dbd e02c 0a3d 767e 613d
00000140: 4938 35bd e24e c53b 4311 903c 1da9 03bb
00000150: 2f98 e5bc dd11 44bd 53b8 8a3d de3c eb3c
00000160: 9944 49bd fcd2 8ebd 97e0 083d e72f 71bd
00000170: eefc cb3b 7726 0d3d d173 013c 1a3b 913c
00000180: 083d 6cbd c9db 38bd 618d 2f3d 0869 cbbc
00000190: 8197 46bd f6a5 0cba 875f e3bc 4771 0a3c
000001a0: 0cfc 943d cb26 5a3d 6d53 20bd 88c9 473c
000001b0: e523 0dbc e63b 0abd 7a9b 2d3b da72 8fbd
000001c0: 357d 1e3d b61b 26bd 34a4 273d a859 4abd
000001d0: b32d 08bd 1e18 4e3c 6433 70bd f971 e5bc
000001e0: 51d1 113d 4876 623d 631d 623d 9f13 3b3c
000001f0: c4b9 173b b4d2 42bc 95ac 513c f1c5 12bd
00000200: 940d cb3c eaea e93b 3f72 843b 3f08 483c
00000210: 037d 4d3d f597 09bd 1481 503d fa82 5bbd
00000220: 32f8 763d 18a7 72bd e1fe 12bc 8cf1 43bd
00000230: 5153 743d 76f5 1cbb a085 0b3c 7e50 473c
00000240: bb98 03bd 6200 95bc 3d11 9fbc cc6c 28bd
00000250: 5b13 7fbd 8654 8a3c 9aff d53c 9adb 8c3c
00000260: 040b 7eba d623 0fbd 18f7 2d3d 4f61 873b
00000270: a187 dfbb 1f97 553d ae72 023c 5bf4 aebc
00000280: 402b ef3c f2fe 153d 1869 28bd 3298 87bd
00000290: f820 e2bc 6154 95bc 7fee bc3c 3594 c0bb
000002a0: 3577 3abd 722b f03b 332f 90bc 8aba e63c
000002b0: 41df 5dbd b018 0d3d bd6f 0abd 3788 1bbd
000002c0: bc46 e2bb 7ba2 33bc 1d1f 373d 19ce fabc
000002d0: 00fb 773d 81fe b33b 6e12 cfbc ebe7 1d3d
000002e0: 350a f53c 0bdf c3bb 4f52 7ebd c6a6 943c
000002f0: cdfa 16bd fcc6 723b 470a 08bb bde6 4fbd
00000300: 095e d73b 2d6c 543c 6182 b1bc 8153 733d
00000310: c87f 503d 7dd5 823d dab2 373c 124a 1d3d
00000320: b0f6 1bbd a18a 49bc a550 0e3d 568c e63c
00000330: 7925 f83b b3be a53c b626 36bd edd7 183c
00000340: 748c 3d3b 6b75 6fbb f43e 41bd 2dde 753c
00000350: 0f0d 013d 97af 793d c64d 9a3a 1731 e13b
00000360: 7cec 7fbc 1789 c33b 76d4 263d cfaa 47bd
00000370: bd77 1f3d 957d 503d 795d 95bc f818 2c3d
00000380: 7fdb 7c3d d00a c53c 5e07 813c 5534 f5bc
00000390: b404 5b3c 4806 20bd 6388 4ebc 1ea7 613d
000003a0: dd7c 73bd af72 55bd e274 623d ee74 8a3b
000003b0: 9dcc 973b 4fec 0d3d fd18 95bd 9356 b2bc
000003c0: 30c2 42bd a8aa 343d 59fb 983c cd6f 5f3b
000003d0: 15b6 013c 346c 36bd c062 f83c 684f 06bd
000003e0: 3ba7 59bd 564d d8bc 0e44 98bc 24d5 8c3c
000003f0: cd17 34bc 02e9 523d ec50 d33a 9c5c 033a

lstm.bias_ih_l0 f4 [512]
0.078698084 0.021310605 0.06551664 -0.0043349285 -0.039105322 0.056684237 -0.025349857 -0.036698893
0.05910308 0.06399693 0.0139659885 0.06847772 0.037940543 0.057442237 0.016330594 -6.564963e-05
0.0124432165 -0.061009027 -0.027162565 0.07005301 -0.044181354 0.0077042202 -0.055751182 -0.073715195
0.073383644 -0.046727806 0.06413663 0.057416014 -0.03292662 0.009336333 0.067179576 -0.051149484
-0.016420737 -0.03570191 0.05778867 0.04296059 -0.0393971 0.004633367 0.02854894 -0.06391454
0.027454369 0.05790302 0.014527016 0.034188546 -0.0072651263 0.04147529 -0.031340744 0.0752043
0.10264812 -0.063727885 -0.03625129 -0.006883216 0.07519755 0.0629945 0.06670491 -0.01687522
0.06672592 -0.0074129007 -0.054442223 0.057042174 -0.007327658 -0.064916514 0.08702781 0.10548168
0.049451463 0.041573215 0.03431698 -0.016012795 -0.021673977 -0.057808414 -0.033813003 0.102896966
-0.020622779 0.021629931 -0.06897338 0.07100129 -0.044512123 0.03316504 -0.05543579 -0.0048032682
-0.06821079 0.031409558 0.087285936 0.020748079 -0.027574243 0.08074619 0.060820792 0.10241039
0.0060228724 0.071873836 0.01752845 -0.007836031 -0.050229196 0.05419371 0.09289455 0.07181604
0.080552004 0.04762198 0.07490423 0.008349246 -0.048217777 0.046952784 0.0593113 -0.045176435
0.029010622 0.104749836 0.05661154 -0.06308052 -0.06805266 0.0128372675 -0.020054113 0.052886058
0.00021023114 -0.023319352 0.047275145 -0.0570779 -0.026257101 -0.03914142 0.085427895 -0.0019856188
-0.017319359 -0.036902744 -0.05442918 0.03861018 -0.03587456 0.07280926 -0.006754635 -0.057347625
-0.009366065 -0.006468062 0.0297966 0.071687825 -0.00082373404 0.00076804985 0.036082625 0.04269546
0.06297399 -0.032932747 -0.006124719 -0.024124544 -0.012764433 0.07193667 -0.054462448 -0.086394735
0.005225692 0.020771092 0.018265946 0.08293332 0.015416955 -0.059172075 0.09061568 -0.060637876
0.06990262 -0.008005669 -0.07547665 0.043678645 0.07452021 0.041910447 0.011543886 -0.053217877
0.048645347 -0.064844176 0.07435739 -0.0044374936 0.005885372 0.06842264 -0.027240193 -0.027663767
-0.014084596 -0.041848145 -0.03175502 0.039224982 0.088943124 -0.041371204 0.030883998 -0.04250014
0.024383651 0.024298307 0.021514457 -0.015711842 -0.006464862 0.018116064 -0.0022489151 -0.044116605
0.027857475 -0.056902412 -0.012081842 -0.034778386 0.0947218 0.04735229 0.05515835 0.005368471
0.02708151 -0.05909734 0.057156395 -0.047495317 0.040041786 0.016319342 0.018774165 0.105860375
-0.007711327 0.0011922388 -0.028168768 -0.059133135 -0.04344383 -0.018501481 0.04410457 -0.07846832
-0.05789591 0.06961247 0.06347798 -0.016017525 -0.027006665 0.03521151 0.0648049 0.083117954
-0.0020265135 0.006508925 0.035557754 0.0476121 -0.05526952 -0.04217397 -0.01227495 0.00844594
-0.028603746 -0.07252979 0.004142096 -0.06890791 0.07900023 0.100059226 -0.038022764 -0.044198982
0.009956736 -0.059342407 -0.06332674 0.07283266 -0.041094903 0.08943855 0.004015803 0.034593854
-0.068612434 -0.06952861 0.014084083 0.05725998 -0.014356628 -0.043886982 -0.050619267 0.004850125
0.038446553 -0.0072702663 0.040508192 0.07400997 0.058754597 0.036913935 0.04123908 -0.035503764
00000000: 762c a13d 9493 ae3c 972d 863d 040c 8ebb
00000010: e72c 20bd bb2d 683d 81aa cfbc 9451 16bd
00000020: 1216 723d d310 833d 9ad1 643c 0c3e 8c3d
00000030: 8b67 1b3d 8d48 6b3d bdc7 853c 60ad 89b8
00000040: a2de 4b3c 9ae4 79bd 0784 debc f477 8f3d
00000050: 82f7 34bd af73 fc3b 5a5b 64bd fef7 96bd
00000060: 2a4a 963d a865 3fbd 115a 833d 0e2d 6b3d
00000070: 10de 06bd 6bf7 183c 7295 893d 1f82 51bd
00000080: c884 86bc 2a3c 12bd d0b3 6c3d 72f7 2f3d
00000090: db5e 21bd 80d3 973b 77df e93c a0e5 82bd
000000a0: fce7 e03c b82b 6d3d b902 6e3c 4a09 0c3d
000000b0: 4c10 eebb fee1 293d 275f 00bd b604 9a3d
000000c0: 2d39 d23d c483 82bd 3c7c 14bd 9a8c e1bb
000000d0: 2c01 9a3d 4303 813d 959c 883d e73d 8abc
000000e0: 99a7 883d ebe7 f2bb cffe 5ebd 0ea5 693d
000000f0: da1c f0bb f3f2 84bd a33b b23d c706 d83d
00000100: 9e8d 4a3d ad48 2a3d f68f 0c3d 442d 83bc
00000110: a08d b1bc 84c8 6cbd 817f 0abd a5bb d23d
00000120: 1af1 a8bc 4131 b13c ea41 8dbd 2069 913d
00000130: 5852 36bd 11d8 073d a410 63bd bc64 9dbb
00000140: 19b2 8bbd 4fa7 003d f8c2 b23d e0f7 a93c
00000150: 61e3 e1bc 425e a53d 391f 793d 8abc d13d
00000160: 845b c53b 9732 933d d397 8f3c b262 00bc
00000170: 21bd 4dbd 39fa 5d3d 7f3f be3d 4a14 933d
00000180: 73f8 a43d 440f 433d 6467 993d 47cb 083c
00000190: 0180 45bd 9051 403d 68f0 723d ed0a 39bd
000001a0: afa7 ed3c 1587 d63d 81e1 673d 5c30 81bd
000001b0: 315f 8bbd 6753 523c 8648 a4bc 0d9f 583d
000001c0: 7e71 5c39 3a08 bfbc 95a3 413d 84ca 69bd
000001d0: 2219 d7bc c152 20bd d2f4 ae3d 2821 02bb
000001e0: 54e1 8dbc 5527 17bd 22f1 5ebd b525 1e3d
000001f0: 34f1 12bd 051d 953d fc55 ddbb 58e5 6abd
00000200: 2074 19bc 09f2 d3bb 0018 f43c 11d1 923d
00000210: dbef 57ba f456 493a 60cb 133d 6fe1 2e3d
00000220: 82f8 803d 7de4 06bd deb1 c8bb d6a0 c5bc
00000230: ea21 51bc 8853 933d 0414 5fbd b9ef b0bd
00000240: 483c ab3b 2328 aa3c 77a2 953c f2d8 a93d
00000250: 6597 7c3c 6b5e 72bd b794 b93d 6c5f 78bd
00000260: 1b29 8f3d 362a 03bc 8093 9abd 61e8 323d
00000270: 0d9e 983d 4aaa 2b3d 9122 3d3c fdfa 59bd
00000280: 5840 473d 06cd 84bd b048 983d 6568 91bb
00000290: 14da c03b 2b21 8c3d d326 dfbc 209f e2bc
000002a0: 14c3 66bc f668 2bbd 8d11 02bd 60aa 203d
000002b0: d027 b63d da74 29bd 7000 fd3c a014 2ebd
000002c0: 39c0 c73c 3e0d c73c 163f b03c 1fb6 80bc
000002d0: 31d7 d3bb 2468 943c 8962 13bb 9db3 34bd
000002e0: 5c35 e43c 8112 69bd ebf2 45bc c873 0ebd
000002f0: 81fd c13d 7af4 413d b9ed 613d 00ea af3b
00000300: 0bda dd3c 0d10 72bd d31c 6a3d 738a 42bd
00000310: db02 243d 24b0 853c 47cc 993c 53cd d83d
00000320: 4daf fcbb e544 9c3a 30c2 e6bc 9635 72bd
00000330: 28f2 31bd 6b90 97bc fea6 343d 00b4 a0bd
00000340: 4324 6dbd fc90 8e3d be00 823d 2f37 83bc
00000350: 153d ddbc f239 103d 6eb8 843d bf39 aa3d
00000360: 41cf 04bb d248 d53b 02a5 113d e804 433d
00000370: 4b62 62bd 9dbe 2cbd df1c 49bc d760 0a3c
00000380: 6752 eabc 808a 94bd 6bba 873b 971f 8dbd
00000390: dfca a13d daeb cc3d c2bd 1bbd fe09 35bd
000003a0: 9421 233c 0611 73bd 73b1 81bd 4a29 953d
000003b0: 2153 28bd 8f2b b73d ff96 833b 49b2 0d3d
000003c0: ad84 8cbd 0465 8ebd edc0 663c 7189 6a3d
000003d0: 1038 6bbc d6c2 33bd 2656 4fbd cced 9e3b
000003e0: 227a 1d3d 6a3b eebb ebeb 253d 8a92 973d
000003f0: a9a8 703d 1133 173d 4fea 283d 656c 11bd

lstm.bias_hh_l0 f4 [512]
-0.025798138 0.036070663 0.10421545 0.07428836 0.06549428 0.083741546 0.10537606 0.07380408
0.02475063 0.05794914 -0.06280134 -0.053727135 0.032255553 -0.004075478 0.011063217 0.014135867
-0.06382628 -0.02382952 -0.011230774 -0.030522617 -0.044066157 -0.059535462 0.06535196 -0.03611709
0.056375295 0.053871814 0.026677113 -0.029087063 0.024759676 0.045723416 -0.010413332 0.02798643
0.008969549 0.08693436 -0.058944747 -0.02219006 0.10222985 0.0029966764 0.034619045 -0.024085317
0.060798217 -0.01791355 0.025136817 -0.06697825 -0.0755041 0.013319857 -0.063298196 0.04661884
0.07093322 0.07553119 0.07292699 0.02343851 0.06813389 -0.03365536 0.032812916 0.023154251
-0.046154235 -0.021903044 -0.00064768334 0.065064326 0.09503587 -0.063788265 -0.037855215 0.09587213
-0.040220976 0.020091573 0.0051412997 0.02859233 -0.0011760518 0.07488076 0.03407551 0.06952588
0.03140851 0.06023931 0.018498471 0.07691773 0.06426619 0.0439234 -0.003012273 -0.04776258
-0.061977487 0.053642247 0.029374996 0.017089592 0.046668205 0.080479585 0.025653621 0.027618548
0.04916714 0.09221727 0.070181124 -0.055672012 0.080333084 -0.05446103 0.026403954 0.083027005
-0.06815851 0.05543501 -0.07297176 0.08296644 0.075152084 0.0429273 -0.006152 0.056774482
0.011281256 -0.019840676 -0.0034112036 0.04881553 -0.016873453 -0.05108648 -0.033184223 -0.040408425
-0.04558093 -0.041186567 -0.05642898 -0.083561994 0.019956889 0.0051264805 -0.04078769 0.014718159
-0.06851081 0.060347103 -0.004882081 -0.07135966 0.04488801 0.063164935 0.071096614 0.022571683
-0.056430127 -0.06101835 0.018106537 0.00010335628 0.016160015 -0.03857601 0.10999904 -0.044862684
0.015972624 0.10006134 0.07949228 0.014336754 -0.046356604 0.07221068 -0.005935698 0.029020915
0.05885695 0.076102056 -0.027853856 0.101430796 0.0065360325 0.06286254 -0.02923402 0.07236906
-0.031339392 -0.01897322 -0.07893304 0.0821018 -0.074662924 0.09698176 -0.010035061 0.062734984
0.056769013 -0.027624918 -0.039797816 0.043295328 -0.041543577 0.028690817 0.00425479 0.033680104
-0.036272313 0.014912753 -0.07028302 0.068652816 -0.06961045 -0.06119969 -0.012282267 -0.032788336
-0.032352597 0.04087348 0.03791054 0.04956205 -0.06494163 0.10376197 0.08034254 -0.025440054
-0.07050659 0.07482465 -0.055463187 -0.028246814 0.012308534 -0.077463426 0.04053195 0.06867495
0.026446436 -0.006345333 0.040249795 -0.017111735 -0.039710887 0.048487645 -0.061790317 0.10723041
-0.026797106 -0.044724144 0.041234706 -0.052509286 -0.029827958 -0.031069417 0.05090759 -0.055625133
-0.030750163 -0.069004506 0.09998417 0.015692871 0.06855911 0.08288692 0.028445447 0.051401917
0.0014210215 0.049227674 -0.032691877 0.08033064 -0.06257226 -0.04145403 0.077050805 0.005328886
-0.00092555594 0.01990329 -0.0034845013 -0.03724891 -0.06617035 0.060403634 0.058529675 0.04837864
0.053275507 0.035705294 0.0050311936 0.0020441199 -0.02154556 0.09526363 0.10390504 0.074533485
-0.050140273 -0.07726781 -0.025692917 -0.08081967 0.010121214 0.04592269 -0.06674935 0.020772241
0.06044971 -0.010723628 0.067449845 0.029466635 0.006909814 -0.07326452 0.061812297 0.06555554
00000000: 9e56 d3bc d5be 133d e96e d53d 7f24 983d
00000010: dd21 863d b080 ab3d 67cf d73d 9826 973d
00000020: d5c1 ca3c 145c 6d3d fd9d 80bd fc10 5cbd
00000030: 661e 043d 968b 85bb 7f42 353c 209a 673c
00000040: 5ab7 82bd 2036 c3bc 4801 38bc 910a fabc
00000050: b77e 34bd 75db 73bd 40d7 853d 84ef 13bd
00000060: c8e9 663d b1a8 5c3d f689 da3c fe47 eebc
00000070: ced4 ca3c 7a48 3b3d ae9c 2abc cc43 e53c
00000080: 04f5 123c a40a b23d 0c70 71bd eec7 b5bc
00000090: e25d d13d e363 443b b3cc 0d3d 924e c5bc
000000a0: 8d07 793d 70bf 92bc baeb cd3c e52b 89bd
000000b0: e5a1 9abd 883b 5a3c 7ca2 81bd 66f3 3e3d
000000c0: 7045 913d 19b0 9a3d bf5a 953d 1e02 c03c
000000d0: c889 8b3d 34da 09bd d666 063d fcad bd3c
000000e0: 390c 3dbd 036e b3bc 4bc9 29ba 7240 853d
000000f0: 2ba2 c23d 6ca3 82bd 120e 1bbd 9b58 c43d
00000100: c0be 24bd 1597 a43c 5978 a83b 763a ea3c
00000110: c025 9aba 155b 993d c392 0b3d 9663 8e3d
00000120: 36a6 003d 7fbd 763d 1b8a 973c 0b87 9d3d
00000130: fe9d 833d 06e9 333d 8e69 45bb b2a2 43bd
00000140: 1bdc 7dbd f9b7 5b3d d5a3 f03c 79ff 8b3c
00000150: 2927 3f3d 7bd2 a43d 8b27 d23c 4b40 e23c
00000160: 7c63 493d 68dc bc3d 1fbb 8f3d 5608 64bd
00000170: ac85 a43d 8712 5fbd 1b4d d83c 100a aa3d
00000180: b096 8bbd d20f 633d 3872 95bd 4fea a93d
00000190: 56e9 993d 89d4 2f3d b796 c9bb 5c8c 683d
000001a0: 04d5 383c ea88 a2bc 808e 5fbb cbf2 473d
000001b0: 323a 8abc 0f40 51bd 2eec 07bd 4e83 25bd
000001c0: 12b3 3abd 3fb3 28bd 1322 67bd 8d22 abbd
000001d0: a17c a33c 09fc a73b fe10 27bd 6f24 713c
000001e0: 654f 8cbd 862e 773d ddf9 9fbb 0325 92bd
000001f0: 7ddc 373d 9e5c 813d 1a9b 913d 40e8 b83c
00000200: 4723 67bd 61ee 79bd 2954 943c fbc0 d838
00000210: 0262 843c e101 1ebd 2d47 e13d efc1 37bd
00000220: 05d9 823c f6ec cc3d d9cc a23d b4e4 6a3c
00000230: 6ce0 3dbd 31e3 933d 3e80 c2bb 45bd ed3c
00000240: fc13 713d 65db 9b3d c52d e4bc f3ba cf3d
00000250: 372c d63b 13be 803d 2f7c efbc 3b36 943d
00000260: bc5d 00bd ba6d 9bbc a5a7 a1bd fd24 a83d
00000270: e0e8 98bd 5f9e c63d 196a 24bc 337b 803d
00000280: a086 683d a74d e2bc 0903 23bd 7156 313d
00000290: 9929 2abd 0109 eb3c c46b 8b3b 26f4 093d
000002a0: 4792 14bd 9f54 743c 8bf0 8fbd d999 8c3d
000002b0: ec8f 8ebd 87ac 7abd 903b 49bc 104d 06bd
000002c0: 2884 04bd f36a 273d 1548 1b3d 9301 4b3d
000002d0: 1e00 85bd 2881 d43d a18a a43d a967 d0bc
000002e0: c265 90bd ab3d 993d 5e2d 63bd dd65 e7bc
000002f0: bca9 493c 25a5 9ebd d404 263d 74a5 8c3d
00000300: 32a6 d83c 83ec cfbb f8dc 243d e92d 8cbc
00000310: e2a7 22bd fb9a 463d d817 7dbd 9e9b db3d
00000320: 9b85 dbbc aa30 37bd b9e5 283d fa13 57bd
00000330: c359 f4bc 4a85 febc 7a84 503d 2ed7 63bd
00000340: c4e7 fbbc 3c52 8dbd 80c4 cc3d 568e 803c
00000350: b868 8c3d 9ec0 a93d 6d06 e93c d18a 523d
00000360: 9241 ba3a f5a2 493d ebe7 05bd 6484 a43d
00000370: e325 80bd b3cb 29bd d0cc 9d3d f09d ae3b
00000380: 02a1 72ba 390c a33c 3b5c 64bb 5092 18bd
00000390: 5284 87bd cd69 773d d0bc 6f3d ae28 463d
000003a0: 6b37 5a3d b73f 123d b6dc a43b a4f6 053b
000003b0: 5080 b0bc 9419 c33d 2acc d43d 03a5 983d
000003c0: e35f 4dbd 963e 9ebd f479 d2bc c884 a5bd
000003d0: 73d3 253c 6e19 3c3d e2b3 88bd 8c2a aa3c
000003e0: 1d9a 773d 28b2 2fbc 2523 8a3d 0364 f13c
000003f0: b96b e23b b50b 96bd e42e 7d3d fc41 863d

lstm.weight_ih_l1 f4 [512, 128]
-0.0025171502 0.02009386 -0.009528776 0.09526979 0.021036383 0.038050387 -0.040738788 -0.090412624
-0.012527975 -0.0075651268 0.034761127 0.053510524 0.0050802208 -0.045831725 -0.060710825 -0.0022407565
-0.038781047 0.021089438 0.038640082 -0.044812683 0.0022425328 -0.036887873 0.035034228 -0.021921648
0.026501125 -0.053538233 -0.033462718 -0.06562062 -0.031460036 -0.038687833 0.010387502 0.016929982
-0.03946931 0.07872201 -0.00690048 -0.025029529 0.011808309 -0.06939014 -0.028010976 -0.011020607
-0.0053898785 0.054177247 0.024859121 -0.0007911832 0.05817191 -0.047953784 0.054992814 0.079908974
-0.06990062 -0.022721665 0.043338902 -0.02585159 0.06973994 -0.059085425 -0.052580696 -0.005595884
-0.05279334 -0.039339665 0.071962476 -0.013539754 -0.022335622 0.001033537 -0.032453604 0.032960754
0.07322267 -0.06025168 0.065807156 0.0069653424 0.01674796 0.013852899 0.0009743356 -0.035057236
0.051664736 0.056931634 0.03821088 -0.025370797 0.008560911 -0.0044881557 0.025782613 -0.04044988
0.03765081 0.05050658 -0.039349053 0.02736933 0.06801254 -0.03640511 0.0340768 0.09623013
0.039327074 0.011057381 0.003409943 -0.024042552 -0.02523849 0.064376086 -0.0656933 0.077867374
0.04236872 -0.03354568 0.055886235 -0.0012664055 -0.036295332 -0.086964846 -0.057609145 0.018920382
-0.024583394 0.01011568 0.01866402 0.0044432534 -0.0014498108 -0.022257494 0.09427748 -0.037392512
-0.011815226 0.023887184 -0.042820062 0.011103577 0.018869191 0.06010238 -0.04874338 0.047641777
-0.026982047 -0.053155515 -0.05133756 -0.017838407 0.048045114 0.04077605 -0.017606216 -0.0586261
0.033730954 0.060625087 0.0052495277 0.068121165 -0.09125054 -0.026241621 -0.08900374 -0.01225324
-0.030230662 0.02219354 -0.07568694 -0.016101273 -0.034225408 -0.092392474 -0.08058904 0.027963076
0.02865819 -0.0030636548 0.042131145 -0.036528736 0.05005754 -0.0495114 0.008889979 -0.0036435432
-0.028792039 -0.0005618912 -0.07723965 -0.017251823 -0.04485597 0.09044549 0.043435592 -0.04723649
-0.03823285 0.028777806 -0.0036506618 0.065892436 0.029122734 -0.04905104 0.03719468 -0.024241997
0.08421056 -0.069815494 -0.0031072497 0.037457597 -0.085468285 0.011508329 -0.09513056 0.067538776
-0.0055110534 -0.020048501 0.0658151 0.012482757 0.08892965 -0.012558375 -0.0048510525 -0.0050634756
-8.226783e-05 0.028109672 0.06580648 0.036189735 -0.040326964 -0.02070023 0.06862842 0.03196437
0.025487935 -0.077072434 0.06376185 -0.057140246 0.018677859 -0.044227354 -0.048955232 -0.012615946
-0.008975447 0.010740343 -0.006326558 -0.052202847 0.02628803 -0.02622372 -0.08263761 -0.019382441
0.021076975 0.008418471 -0.030292898 -0.010544207 -0.03232079 0.07354371 -0.08249035 -0.039478723
0.029115586 -0.021380443 0.0017260778 -0.03585382 -0.023771562 -0.020888599 -0.0710805 0.05458522
-0.007106546 -0.040528215 -0.04939943 0.042884715 0.0005335113 -0.034773957 0.022563543 0.024107568
0.07185514 -0.0026392888 -0.0021447067 -0.001479796 -0.09144659 0.035817187 0.05255366 0.05552287
-0.0077303513 -0.07263615 0.022300346 -0.03833323 0.012899735 -0.0077917213 -0.051636674 0.01772013
0.06075057 -0.039933886 0.0060733105 0.0026594521 0.024860905 -0.081678696 0.079630084 -0.03478096
00000000: c6f6 24bb e19b a43c 951e 1cbc cf1c c33d
00000010: 7e54 ac3c b9da 1b3d b7dd 26bd 412a b9bd
00000020: 2342 4dbc e2e4 f7bb af61 0e3d da2d 5b3d
00000030: fb77 a63b 0cba 3bbd eaab 78bd a8d9 12bb
00000040: e0d8 1ebd c2c3 ac3c 1045 1e3d 818d 37bd
00000050: 75f7 123b bd17 17bd 0d80 0f3d 0795 b3bc
00000060: e318 d93c e84a 5bbd 3410 09bd 1b64 86bd
00000070: 3ddc 00bd 2277 1ebd 5730 2a3c bfb0 8a3c
00000080: 92aa 21bd 0139 a13d 6c1d e2bb ba0a cdbc
00000090: a377 413c 6b1c 8ebd 4677 e5bc c78f 34bc
000000a0: 949d b0bb f6e8 5d3d 5ba5 cb3c 6867 4fba
000000b0: ab45 6e3d 306b 44bd 2540 613d 51a7 a33d
000000c0: 0e28 8fbd c922 babc 2284 313d b7c6 d3bc
000000d0: d0d3 8e3d 8f03 72bd db5e 57bd ad5d b7bb
000000e0: d43d 58bd a122 21bd 1061 933d d8d5 5dbc
000000f0: 32f9 b6bc bf77 873a 12ee 04bd db01 073d
00000100: c4f5 953d 77ca 76bd e7c5 863d 873d e43b
00000110: 0533 893c 45f7 623c 8e6a 7f3a 2d98 0fbd
00000120: 679e 533d 2531 693d 0383 1c3d 6bd6 cfbc
00000130: 1043 0c3c 6111 93bb 0f36 d33c c6ae 25bd
00000140: bc37 1a3d fddf 4e3d 792c 21bd a535 e03c
00000150: 294a 8b3d 861d 15bd 1d94 0b3d 4d14 c53d
00000160: 6d15 213d 042a 353c 5a79 5f3b e3f4 c4bc
00000170: f3c0 cebc 9cd7 833d 358a 86bd ee78 9f3d
00000180: d38a 2d3d 3267 09bd f7e8 643d 84fd a5ba
00000190: 6aaa 14bd a01a b2bd 91f7 6bbd ebfe 9a3c
000001a0: 1d63 c9bc 3dbc 253c 49e5 983c b698 913b
000001b0: 9407 beba 5955 b6bc 8d14 c13d e428 19bd
000001c0: a694 41bc 0eaf c33c 1764 2fbd c7eb 353c
000001d0: 9093 9a3c ea2d 763d 23a7 47bd 0624 433d
000001e0: 7409 ddbc 99b9 59bd 5547 52bd da21 92bc
000001f0: f4ca 443d ca04 273d e93a 90bc ec21 70bd
00000200: 7829 0a3d 0352 783d 3b04 ac3b 1c83 8b3d
00000210: 90e1 babd abf8 d6bc 9847 b6bd d0c1 48bc
00000220: 4ba6 f7bc 3acf b53c c101 9bbd d1e6 83bc
00000230: f12f 0cbd 4438 bdbd de0b a5bd d212 e53c
00000240: 95c4 ea3c 99c7 48bb b591 2c3d 289f 15bd
00000250: 2309 4d3d 77cc 4abd 46a7 113c 83c8 6ebb
00000260: 48dd ebbc e14b 13ba d22f 9ebd b253 8dbc
00000270: e5ba 37bd 7c3b b93d 85e9 313d 0d7b 41bd
00000280: 0d9a 1cbd 6fbf eb3c f13f 6fbb 9df2 863d
00000290: cd92 ee3c bee9 48bd 7359 183d 2797 c6bc
000002a0: 9676 ac3d 6dfb 8ebd 00a3 4bbb 236d 193d
000002b0: ff09 afbd 6e8d 3c3c d0d3 c2bd c551 8a3d
000002c0: 1196 b4bb c13c a4bc 11ca 863d 7a84 4c3c
000002d0: c020 b63d a4c1 4dbc 94f5 9ebb 83eb a5bb
000002e0: 3487 acb8 4146 e63c 8cc5 863d b03b 143d
000002f0: e32d 25bd 8793 a9bc 0f8d 8c3d 12ed 023d
00000300: 13cc d03c 27d8 9dbd 9395 823d e40b 6abd
00000310: 4f02 993c be27 35bd 4885 48bd 1db3 4ebc
00000320: c10d 13bc 43f8 2f3c 044f cfbb a7d2 55bd
00000330: ff59 d73c 20d3 d6bc e83d a9bd edc7 9ebc
00000340: 9fa9 ac3c a0ed 093c d028 f8bc 9cc1 2cbc
00000350: ce62 04bd 169e 963d b3f0 a8bd 71b4 21bd
00000360: cf83 ee3c 0a26 afbc 8f3d e23a 75db 12bd
00000370: 94bc c2bc 911e abbc a792 91bd c094 5f3d
00000380: 07de e8bb ea00 26bd 0f57 4abd e2a7 2f3d
00000390: 56db 0b3a 236f 0ebd 2ed7 b83c 3c7d c53c
000003a0: ca28 933d ebf7 2cbb 358e 0cbb b7f5 c1ba
000003b0: 5a48 bbbd 0bb5 123d 8242 573d f36b 633d
000003c0: e34e fdbb 43c2 94bd 37af b63c 4e03 1dbd
000003d0: 6959 533c b251 ffbb fa80 53bd ce29 913c
000003e0: 97d5 783d b791 23bd 9f02 c73b 344a 2e3b
000003f0: 19a9 cb3c 2947 a7bd 1915 a33d 7b76 0ebd

lstm.weight_hh_l1 f4 [512, 128]
0.008286956 0.08293712 0.029095232 -0.0005156909 0.03168588 -0.07911454 -0.011621815 -0.040386755
0.05259357 0.08912533 0.042919796 -0.028532175 0.055249754 0.096263416 0.07737795 0.023774518
0.04263009 -0.056618217 0.05433621 -0.024783663 -0.042708978 -0.057568014 -0.06786461 -0.016341453
-0.037514493 0.008136045 -0.049500193 -0.07338997 0.06575662 -0.06012166 0.025159892 0.059108883
-0.055951282 0.0769045 0.013722741 0.06922576 -0.021991123 0.033044145 0.063160725 0.015776258
-0.008391712 0.059660718 -0.016627133 -0.003110671 0.065971226 0.05529432 -0.005669641 0.02372092
0.015187505 -0.03375496 0.0037550083 0.07257449 -0.05714202 -0.032650158 0.011003229 0.010528662
0.07054193 -0.088745 -0.02774861 -0.061934635 0.056585137 -0.03777856 -0.03898201 0.017143406
-0.04523916 -0.0530354 -0.061330985 0.069134735 0.023107896 -0.045059074 0.046676364 0.0014201422
0.030792912 0.04279068 -0.047748595 0.08401725 -0.06410316 0.033669196 0.01340981 0.08630247
-0.05723729 -0.025965068 0.08345365 0.049428593 -0.0051284586 0.033150755 0.07659398 0.08312638
-0.030287068 -0.045759864 -0.0015298603 -0.033179976 -0.02140212 0.013375033 -0.06446327 -0.015065083
-0.061534043 -0.074278295 -0.036501322 0.007239602 -0.009561426 -0.022603739 -0.006186633 -0.06329415
-0.053941984 -0.017738707 0.074044675 -0.031504765 0.013931549 0.014993647 -0.008414071 0.031689875
-0.0057904897 -0.013198056 -0.03776635 -0.0035924069 0.030029193 0.054282203 -0.061354365 -0.05206534
0.033343446 -0.03296625 -0.08989889 -0.042884313 0.06377258 0.042724434 0.051517863 0.0051943446
0.01236646 0.10037618 0.051663544 0.008467112 -0.004492591 0.04638014 0.030315181 0.05754825
-0.061852574 0.078197606 -0.0017343956 0.049421832 -0.10250866 -0.047082383 -0.03390366 -0.055771895
-0.030484935 -0.03782317 -0.011226483 0.07303276 0.050210737 -0.068333395 -0.011540909 0.012620114
-0.09712088 0.07174545 -0.010683706 -0.05219369 0.081129946 0.04582534 -0.05553267 0.014497963
-0.025253441 0.05940953 -0.04505861 -0.0070201056 -0.061350774 -0.049165115 0.052930597 -0.019029617
-0.023141218 -0.028678237 -0.0039993743 0.0139873605 0.03969012 -0.0151547855 -0.014957165 0.06729966
-0.05131277 0.075067736 -0.082233876 -0.02451033 -0.04829571 -0.061473683 0.021302816 0.01653222
-0.013362721 0.055128694 0.0679197 0.07177841 0.082086 0.039208878 -0.034196068 0.0030853206
0.03945046 -0.045162298 0.024607446 0.04253674 0.05068258 -0.08642884 0.015058883 0.011697068
-0.040293034 0.011931936 0.08919513 -0.017641228 0.052533317 -0.014559737 -0.035966966 -0.04066811
-0.011893749 0.009562903 -0.060478996 0.030244095 -0.08960685 0.05309243 0.057297282 -0.05931918
-0.10253911 0.03348829 0.03478468 -0.06323157 0.055385023 0.049068883 -0.015325879 0.027701182
0.05427451 0.049615506 0.06428897 -0.03890279 0.027338682 -0.07190011 -0.027712997 0.060610954
0.039302487 0.03905235 -0.0068199364 0.03471372 0.011667631 0.062949985 0.04214076 0.07087175
0.023060389 -0.02050049 0.05608703 0.005801766 -0.047385715 0.03864805 -0.004755423 -0.03978555
0.0063739945 -0.093116194 -0.09185137 0.015958479 0.011025271 -0.022240207 -0.05756504 -0.08246185
00000000: 03c6 073c f0da a93d 2059 ee3c 6e2f 07ba
00000010: 0ec9 013d ce06 a2bd 6d69 3ebc 956c 25bd
00000020: 5b6c 573d 5787 b63d abcc 2f3d 4fbc e9bc
00000030: 914d 623d c125 c53d 5578 9e3d c7c2 c23c
00000040: e49c 2e3d 81e8 67bd a58f 5e3d 1c07 cbbc
00000050: 9cef 2ebd 70cc 6bbd 9afc 8abd 83de 85bc
00000060: cca8 19bd 0c4d 053c b7c0 4abd 7b4d 96bd
00000070: 68ab 863d 2142 76bd 1e1c ce3c 281c 723d
00000080: 2c2d 65bd 1b80 9d3d 59d5 603c 3cc6 8d3d
00000090: ba26 b4bc 4c59 073d 695a 813d 363d 813c
000000a0: 647d 09bc cc5e 743d a035 88bc 66dc 4bbb
000000b0: ec1b 873d 4c7c 623d 65c8 b9bb 6052 c23c
000000c0: 03d5 783c a442 0abd 9616 763b efa1 943d
000000d0: c00d 6abd 2cbc 05bd e346 343c 6980 2c3c
000000e0: 4a78 903d f0bf b5bd 0e51 e3bc 2caf 7dbd
000000f0: d1c5 673d b1bd 1abd 9aab 1fbd 5470 8c3c
00000100: b34c 39bd a63b 59bd 3336 7bbd 8396 8d3d
00000110: c54c bd3c dd8f 38bd b72f 3f3d 1124 ba3a
00000120: 6b41 fc3c 4845 2f3d 0894 43bd 3c11 ac3d
00000130: 8448 83bd b6e8 093d d2b4 5b3c 59bf b03d
00000140: a671 6abd b2b4 d4bc bfe9 aa3d a375 4a3d
00000150: a10c a8bb 16c9 073d 4edd 9c3d 2a3e aa3d
00000160: 961c f8bc b26e 3bbd 9885 c8ba bae7 07bd
00000170: 8053 afbc f422 5b3c 5205 84bd 8ad3 76bc
00000180: 1f0b 7cbd 381f 98bd 6982 15bd 2f3a ed3b
00000190: 87a7 1cbc 7a2b b9bc 3db9 cabb 5da0 81bd
000001a0: 45f2 5cbd c450 91bc bca4 973d 240b 01bd
000001b0: 2741 643c eaa7 753c 2cdb 09bc 3ecd 013d
000001c0: 26be bdbb a93c 58bc e3b0 1abd 966e 6bbb
000001d0: c8ff f53c 0457 5e3d b74e 7bbd 7742 55bd
000001e0: 2393 083d 9e07 07bd e91c b8bd 76a7 2fbd
000001f0: 339b 823d d1ff 2e3d 6504 533d 5235 aa3b
00000200: b19c 4a3c 0792 cd3d 279d 533d a4b9 0a3c
00000210: 9636 93bb 1af9 3d3d 8b57 f83c b7b7 6b3d
00000220: 2059 7dbd 1126 a03d a954 e3ba 8c6e 4a3d
00000230: 0ff0 d1bd 75d9 40bd 90de 0abd 1271 64bd
00000240: 8bbb f9bc 78ec 1abd 48ef 37bc 3392 953d
00000250: c6a9 4d3d 61f2 8bbd 1516 3dbc 98c4 4e3c
00000260: 50e7 c6bd 47ef 923d b60a 2fbc 0dc9 55bd
00000270: 7527 a63d 5ab3 3b3d 3a76 63bd dd88 6d3c
00000280: 4ee0 cebc 6857 733d 618f 38bd ea08 e6bb
00000290: f34a 7bbd 5c61 49bd c1cd 583d 00e4 9bbc
000002a0: a792 bdbc 9fee eabc 2f0d 83bb 3e2b 653c
000002b0: 1b92 223d c74b 78bc e60e 75bc 67d4 893d
000002c0: 572d 52bd 1dbd 993d 3c6a a8bd e3c9 c8bc
000002d0: b9d1 45bd d4cb 7bbd 3e83 ae3c 946e 873c
000002e0: 50ef 5abc a0ce 613d 7c19 8b3d 8f00 933d
000002f0: b41c a83d 7d99 203d 2d11 0cbd 1733 4a3b
00000300: ce96 213d 1afc 38bd 8e95 c93c 013b 2e3d
00000310: 8998 4f3d 9b01 b1bd 88b9 763c 0fa5 3f3c
00000320: 4f0a 25bd 2b7e 433c f0ab b63d 5684 90bc
00000330: 2d2d 573d f78b 6ebc 1952 13bd 9b93 26bd
00000340: 00de 42bc b9ad 1c3c d3b8 77bd 77c2 f73c
00000350: cc83 b7bd 7377 593d 8eb0 6a3d abf8 72bd
00000360: 0600 d2bd 042b 093d 617a 0e3d 8e7f 81bd
00000370: 68db 623d 74fc 483d 6519 7bbc 97ed e23c
00000380: f34e 5e3d a139 4b3d efa9 833d 8858 1fbd
00000390: 5ff5 df3c 5d40 93bd 5e06 e3bc 3143 783d
000003a0: a5fb 203d 5bf5 1f3d c679 dfbb f92f 0e3d
000003b0: 9729 3f3c eceb 803d ca9b 2c3d 3525 913d
000003c0: 24e9 bc3c a5f0 a7bc 83bb 653d be1c be3b
000003d0: 8617 42bd 6b4d 1e3d 61d3 9bbb 2cf6 22bd
000003e0: f1dc d03b b4b3 bebd 921c bcbd 5bbb 823c
000003f0: 57a3 343c 1831 b6bc 52c9 6bbd c2e1 a8bd
