fault_model_nn_allprior_22_33kv/best_Y2020.pt (torch, 929527 bytes, 15 tensors)

emb.weight f4 [219, 16]
000000 77 8c 90 3f 2e 4d 92 3c b0 1d a7 bf 40 f8 d5 3e
       1.1292866 0.017859068 -1.3055935 0.41790962
000010 a3 ea 33 3f 66 05 12 40 aa 81 fc 3d e9 1e 99 3e
       0.702799 2.2815795 0.12329419 0.29906395
000020 00 60 12 bf 4b a7 8b 3f 03 02 f3 bf ef 63 9f bf
       -0.57177734 1.0910429 -1.8984989 -1.2452372
000030 d6 bd 99 3f 56 c9 11 3f 9c b9 1b bf 9d a8 41 bf
       1.2011058 0.5694784 -0.6083009 -0.7564791
000040 0d 13 2a bf 85 a5 2e bf c6 2b 0e bf f1 33 e4 3d
       -0.6643532 -0.6822131 -0.5553554 0.111427195
000050 ac f7 bd bf 39 55 a8 be 7e fa 2c bf c3 4d 88 bf
       -1.4841208 -0.3287752 -0.6756972 -1.0648731
000060 f1 f4 d0 3f c3 ab 49 be 94 ae 93 3d 6b d7 c8 3d
       1.632475 -0.19694428 0.072110325 0.09806713
000070 7f 90 96 3f 5a 8c ba 3e 63 0c 1f 3f 52 e0 93 3f
       1.1762847 0.36435205 0.62128276 1.1552832
000080 5e 02 83 bf 02 aa bc bf ae 80 0f 3e 8e f8 9c 3e
       -1.0235097 -1.4739382 0.14013931 0.30658382
000090 68 81 2a bf b5 61 18 3f 5b 16 90 bf a0 d0 14 bc
       -0.6660371 0.5952409 -1.1256822 -0.009082943
0000a0 ef a1 87 3e d2 70 12 3f 57 ae 5f bf eb dc ad be
       0.26490733 0.572034 -0.87375396 -0.3395761
0000b0 d8 cb 01 40 ee b1 9e 3f 94 03 84 be b5 59 83 bf
       2.0280666 1.239805 -0.2578398 -1.0261751
0000c0 de fe 07 be 1c 2d 2b 3f 1e 3d 60 3f 3d e4 06 3e
       -0.13280818 0.66865706 0.8759326 0.13173003
0000d0 0c 45 c0 bf 6c fa da 3f 47 52 55 bf 79 f1 5a 3f
       -1.5021071 1.7107673 -0.8332867 0.8552471
0000e0 fc e3 5c bc 9f 57 31 bf 07 d7 0e bf fd 34 a6 bf
       -0.01348209 -0.69274324 -0.55796856 -1.2984921
0000f0 d5 df e4 bf fe 6b 8f 3f 0c 5d a3 bd cf 56 eb be
       -1.7880808 1.1204832 -0.07976732 -0.45964667
000100 65 d3 a7 bd 27 1b c4 3f 70 cf 22 3e e4 78 c0 bf
       -0.08194617 1.5320786 0.15899444 -1.5036893
000110 53 10 c9 be 43 5a 6c 3d 38 37 41 bf 3e 29 11 40
       -0.39270267 0.057703268 -0.7547488 2.2681422
000120 0f cb bf 3f 40 ae 4c 40 fb 8a 8e 3f eb 5f ac bf
       1.4983844 3.1981354 1.1136163 -1.3466772
000130 ea a9 74 be fe ed 4e 3e cc f4 25 3e ec cd 8d be
       -0.23892942 0.20207974 0.16206664 -0.27696168
000140 57 19 95 3f a0 00 23 3f 6e 58 c1 3f 64 81 0c 3e
       1.1648358 0.6367283 1.5105112 0.13721234
000150 c8 f8 65 be 03 8f 8d 3f ff 43 bd be c5 d0 4e bf
       -0.22458184 1.1059269 -0.3696594 -0.8078731
000160 3e 7f 74 bf d2 e8 a0 3e cf 4d a4 bd 89 cd ec 3f
       -0.95506656 0.31427628 -0.08022653 1.8500224
000170 71 a6 8f 3f 7c ea 04 3e e1 9e 86 bf 78 8b ae bf
       1.1222669 0.12980074 -1.0517236 -1.3636312
000180 66 f0 66 be e6 27 59 bf 62 7c b3 be 78 cb 52 3c
       -0.22552642 -0.84826505 -0.35055834 0.012865894
000190 21 97 47 be ee 24 94 3d 89 76 78 bf 36 92 10 bf
       -0.19491245 0.07233606 -0.9705587 -0.564731
0001a0 dd 85 93 bf 42 f8 17 3f 74 dc 59 3e ca 92 61 bf
       -1.1525227 0.59363186 0.21275502 -0.8811461
0001b0 a5 80 e5 3e 35 53 37 bf e1 87 f0 3f 53 dc a1 bf
       0.4482471 -0.7161134 1.8791467 -1.2645363
0001c0 f3 96 3d 3f c6 6c 97 bf 22 c1 00 40 3d 65 f3 be
       0.74058455 -1.183007 2.011788 -0.47538176
0001d0 ca 31 9f bf 94 13 d0 be 6e eb 71 3f c6 e9 12 3f
       -1.243707 -0.40639937 0.9449986 0.5738796
0001e0 52 b6 97 3f ee 68 07 3f 5c 3c 51 3f da a1 8d be
       1.1852515 0.52894485 0.81732726 -0.27662545
0001f0 81 09 6a 3e fe 12 2d bf 6e 85 07 bf a5 0a f2 3e
       0.22855188 -0.67607105 -0.5293797 0.47273746
000200 95 29 ae bf 70 ce 23 c0 db 84 b3 3f 1b 55 d0 3c
       -1.360644 -2.559475 1.4024919 0.025431206
000210 a5 31 b3 bf d4 fd 1c bf 42 56 e6 3f b6 29 59 bf
       -1.3999525 -0.6132481 1.7995074 -0.8482927
000220 03 96 ff be 32 e3 ab be 2a ba d6 3e eb 2c 9a 3f
       -0.49919137 -0.33571774 0.41938907 1.2044958
000230 7d 82 be bf 43 91 cc 3e 6c 61 3a 3e 66 ef 5f bd
       -1.4883572 0.39954576 0.18201226 -0.054671668
000240 d1 57 5b bf c4 87 59 bf 40 21 a0 3d bb b0 5f bf
       -0.8568087 -0.84972787 0.07818842 -0.87379044
000250 a8 06 41 bf 39 8d 78 3f 87 3b cf be 5a 9a 30 bf
       -0.7540078 0.9709049 -0.40475103 -0.6898552
000260 20 3b 1b be 03 26 1b c0 4c 25 03 bf 3c 18 48 3f
       -0.15159273 -2.424195 -0.51228786 0.7816198
000270 04 1f ae 3e ef 3c 0a bf 36 fa 1e 3f 88 8c 16 bf
       0.34008038 -0.5399923 0.6210054 -0.58808184
000280 ad a4 05 bf a4 86 91 bf 6c d9 ee be 4e 84 9d 3f
       -0.522044 -1.1369214 -0.46650255 1.2306001
000290 5e 5d 09 3f 65 ec a4 be 28 08 36 bf 4a 75 3c bf
       0.5365809 -0.32211605 -0.71106195 -0.7361647
0002a0 d3 33 62 3e 93 10 92 bd bc 04 42 bf 34 23 b7 be
       0.22090082 -0.071320675 -0.75788474 -0.35769045
0002b0 fa c7 fe bf 33 29 80 3f 0f bd 59 3f 97 4f 24 3e
       -1.9904778 1.0012573 0.85054106 0.16045986
0002c0 f8 31 e4 bf 1d 7e 21 c0 fa e5 12 3f 5d 5b 51 be
       -1.7827749 -2.5233223 0.57382166 -0.20445009
0002d0 09 ad 1e 3f 2a 5b 08 40 98 32 3c 3e c0 10 11 bd
       0.6198278 2.1305642 0.18378675 -0.035416365
0002e0 99 15 e9 3d 71 5c 3b bf e9 d1 6d bf 1f 79 5c be
       0.113810726 -0.7318793 -0.9289842 -0.21530579
0002f0 13 55 d2 bf b4 16 4c 3e 95 d4 e6 bd 6e 39 99 3f
       -1.6432213 0.19930536 -0.112710156 1.1970651
000300 a1 8f 52 bf 9f e9 17 bf f8 c3 cc 3f 66 3b aa bf
       -0.8225041 -0.5934085 1.5997305 -1.3299377
000310 96 1e c9 be 3f 62 2a 3f 95 5c 9a be 83 13 11 3d
       -0.39281148 0.6655616 -0.3014876 0.035419
000320 89 d5 f9 be 36 fa 87 be 82 fc 2e bf c8 28 e3 bf
       -0.48795727 -0.26558083 -0.68354046 -1.774682
000330 76 7c 74 3f ff fd 99 bd 0b 8b 98 3e 46 0a e7 be
       0.9550241 -0.07519149 0.2979358 -0.45125026
000340 1e f4 1f 3e 5e 66 10 40 2f 9d 95 3f 26 83 6d be
       0.15620467 2.256248 1.1688594 -0.2319456
000350 a6 79 44 3e 00 85 75 3f ea d7 a6 bf e3 67 cd 3e
       0.1918703 0.95906067 -1.3034642 0.40118322
000360 43 32 28 bf 34 a9 af bf 15 f3 de 3f f4 d1 db bf
       -0.65701693 -1.3723512 1.7417933 -1.7173448
000370 81 33 c9 bf e3 fc 76 bf b1 12 88 3f 69 56 23 3f
       -1.5718843 -0.96479625 1.0630704 0.63803726
000380 bb 16 77 be 28 d0 54 3f a3 49 0d 3f 71 d7 7d 3f
       -0.24129765 0.8313012 0.55190486 0.9915686
000390 5a b3 9f bd 45 cc 32 bd 46 74 e6 be 66 9e fc bf
       -0.077978805 -0.043651838 -0.45010585 -1.9735839
0003a0 84 a7 e0 bf 47 0a 33 3f 8d ad 01 40 f2 bc 48 3f
       -1.7551122 0.69937557 2.0262177 0.7841331
0003b0 3e cd 44 bf b2 2c 8a 3f 57 be 81 3d 19 ff 62 bf
       -0.76875675 1.079489 0.063351326 -0.886705
0003c0 01 86 3c bf 32 d9 06 3f 87 91 41 3f 80 83 a3 bf
       -0.73641974 0.52675164 0.7561268 -1.2774506
0003d0 2f be 25 be e0 cc 66 bf 41 4d 62 3f e7 2d e2 be
       -0.1618583 -0.90156364 0.8839913 -0.44175646
0003e0 06 82 00 bf f6 2c b6 bd f9 38 8f 3f cb 4f b8 3f
       -0.501984 -0.08895294 1.1189262 1.4399351
0003f0 8c b4 c8 3d de ff 31 3e cd 30 13 3f 23 13 65 bf
       0.098000616 0.17382762 0.5749634 -0.89482325

lstm.weight_ih_l0 f4 [512, 3]
000000 27 25 bd 3c 31 e4 51 bd 99 11 33 3b 2c 03 5e 3d
       0.023089005 -0.05124301 0.0027323721 0.054202244
000010 3d f9 84 bd 92 d4 3f bd d2 dd 99 bc 40 6d df bc
       -0.06492851 -0.046833582 -0.01878253 -0.027273774
000020 94 98 49 bd b6 1e 09 3d f4 8b 2b bd c5 3c 6a bd
       -0.049217775 0.033476554 -0.041881517 -0.05718686
000030 30 1e 16 bc f8 00 8b bd 05 27 81 bd 19 58 80 bd
       -0.009162471 -0.06787294 -0.063062705 -0.06266803
000040 3b f8 a0 3c 2a 95 0b 3d 41 b6 0e 3d 0e 52 49 3d
       0.019649616 0.0340778 0.03484178 0.04915052
000050 51 06 14 3c 91 a2 d1 bc c1 3b 46 3d f5 1f 0d bd
       0.009034709 -0.025590213 0.04839683 -0.034454305
000060 75 8c 6b 3d ef 62 0c 3d f5 c4 5f bc 54 ff 78 3b
       0.057506997 0.034274038 -0.013657798 0.0037993984
000070 90 c4 fe 3c fd 9c 90 3d 41 4a 34 3d 61 5d e7 3c
       0.031099588 0.07061193 0.044016127 0.028242769
000080 cb 9b 27 bd d2 d1 13 3d 31 6c 3c 3d d3 51 e1 3d
       -0.04092006 0.036088772 0.046001617 0.11001935
000090 e8 1a 09 bc 53 2b 5c bc 12 81 7e 3c 3f 0a bb 3a
       -0.008368231 -0.013438064 0.015533702 0.0014270021
0000a0 06 2b 6f bd 1e de 93 3c 36 78 79 bb 32 35 36 bc
       -0.05839064 0.01805025 -0.0038066036 -0.011121081
0000b0 23 8e fe 3c 44 70 98 bd 07 a5 c7 39 82 ca ce bc
       0.031073635 -0.07443288 0.00038079193 -0.025243048
0000c0 f6 50 71 3d b0 bd 82 3d 51 00 2f bd 40 bb 75 3c
       0.0589151 0.06383836 -0.04272491 0.014998257
0000d0 26 4b 9b bd 2f 6a ad 3d 0e 6d 0d 3d 9a e8 c5 bc
       -0.07582693 0.084675185 0.03452783 -0.024158765
0000e0 a9 0a 5d bd a2 79 24 3d df 4b 31 3c 77 e9 a5 bc
       -0.053965244 0.04015506 0.010821312 -0.020252926
0000f0 ff b7 5a bd 58 c9 72 3c df 7d d4 bd 9a 5d 43 bd
       -0.05339813 0.014818512 -0.103755705 -0.047696687
000100 69 02 9f 3d c9 d3 87 bc 14 b0 12 3d b2 73 b7 bb
       0.077641316 -0.01658048 0.035812452 -0.0055985088
000110 62 5e 87 3c 86 7a 0a 3d 40 03 97 bc 63 a4 0a bb
       0.016524497 0.033808254 -0.018434167 -0.002115511
000120 11 ec 63 bd 16 22 8d bd 55 1f a9 bd 6e c6 b1 3d
       -0.055645052 -0.06891267 -0.08257929 0.086804256
000130 15 09 44 3d 41 bf b7 3d 65 43 ba 3d 01 4e 85 bd
       0.047860224 0.08972026 0.09094886 -0.06509019
000140 e0 4f 4b bc eb f8 3e 3d 7d 02 41 bc da 83 50 bd
       -0.01240918 0.046624105 -0.011780378 -0.050906993
000150 1f 59 8a bd 43 2a a5 3d b4 47 1e 3d 3b 47 a3 3b
       -0.0675528 0.080647014 0.0386426 0.0049828566
000160 1a 6d 89 bd 42 29 fb bb aa 53 16 3d 92 a7 c8 bd
       -0.067102626 -0.0076648304 0.036700882 -0.097975865
000170 a4 3b 63 3c b8 0b db bc 02 89 05 3d 02 39 77 3d
       0.0138692 -0.026738986 0.032601364 0.0603571
000180 07 86 2e bd fd 5a b0 bd e6 c4 32 bd 89 f0 06 bd
       -0.042608287 -0.08611105 -0.04364481 -0.032944236
000190 be bb 86 3d c4 83 e2 bd 72 52 1d bd eb 0f af bd
       0.06578778 -0.110602885 -0.038408704 -0.08547958
0001a0 ff 38 16 bc 24 fd 76 3c 0a 3e 1a bc ab bc 05 bd
       -0.009168862 0.015075002 -0.009414205 -0.03265063
0001b0 3f 14 b9 bc 29 69 48 bc 19 1d fe bc c3 66 9c bd
       -0.022592662 -0.012232103 -0.031019734 -0.07636788
0001c0 9d fe 92 3c 30 1e 9f 3c 6c 92 f4 bc 11 ac 1e 3b
       0.017943675 0.019423574 -0.029854976 0.0024211446
0001d0 33 fc 22 bd f3 71 91 bc cc e0 f3 3c e4 41 98 3c
       -0.039791297 -0.01775453 0.029770277 0.018586107
0001e0 23 4c 77 3d c8 a4 1b 3c bc 0b 85 bc a0 dd 54 3b
       0.060375344 0.009499736 -0.016240947 0.0032480732
0001f0 d0 9e 9a bc ae 48 50 3d 60 de e5 3a 00 90 38 3d
       -0.018874556 0.050850563 0.0017537586 0.045059204
000200 7b 55 a7 bd 35 77 20 3d 8b db a3 bc f8 8e 38 3c
       -0.08170601 0.039176185 -0.020002147 0.011264555
000210 23 06 fc 3c 6b 94 2c 3d b7 66 47 ba d3 44 67 3d
       0.030764645 0.04213373 -0.0007606553 0.05646212
000220 83 04 d3 3c 2e dc b1 3b 07 63 6a 3d e5 26 2b bd
       0.025758987 0.005427859 0.057223346 -0.04178514
000230 49 8b 9c bc 3f 68 38 bc 26 95 02 bd 13 31 c9 bc
       -0.019109385 -0.011255323 -0.03188052 -0.024559533
000240 57 d7 9d bc 7a d2 9d bd cc f8 14 bd 55 cb 6d bb
       -0.019267721 -0.07706161 -0.036370084 -0.0036284525
000250 e5 72 84 3d b5 17 10 bd d2 ae a7 bc 78 ff bf bd
       0.06467227 -0.03517886 -0.020469103 -0.09374899
000260 a6 ba 22 bd 4d c0 37 3d 66 34 5c 3d 8e 00 4e bd
       -0.039728783 0.044861127 0.05376091 -0.050293498
000270 fe da f0 bb 9e 7e 82 3d ec 56 ae 3d 21 0b e0 bc
       -0.0073503247 0.063718066 0.08512673 -0.027349057
000280 97 5e b0 3d f5 87 98 bd 85 51 81 bd c0 6d 07 bc
       0.086117916 -0.07447807 -0.06314377 -0.0082659125
000290 97 bd 59 bc b1 87 9d 3d a3 f5 0b 3d 7d 6e 41 bd
       -0.013289831 0.07691897 0.034169804 -0.04722451
0002a0 b1 6b bb 3c 28 da 3f bc b6 9b bf 3c ae a7 a3 3c
       0.0228785 -0.011709727 0.023389678 0.019977417
0002b0 27 ec c1 3d 39 ad 26 3d 6c 08 73 3c fc 2b ae bd
       0.094688706 0.04069254 0.014833551 -0.08504483
0002c0 79 0c 9b bd 7e a9 59 3a 2b 11 27 3b 12 47 1f b9
       -0.07570738 0.00083031494 0.002549241 -0.00015189897
0002d0 13 ab 00 3d 97 69 8a 3d 0b 47 9c 3c 4a da 8b 3d
       0.03141315 0.06758421 0.019076845 0.06828745
0002e0 79 35 b1 bc aa 2b b7 3d bd f7 43 3b 64 75 c8 3c
       -0.021631943 0.08943875 0.0029902302 0.024470039
0002f0 cc a5 8a bc 54 d3 1b 3d ea ea 99 bd fa 4b 82 bd
       -0.016924761 0.038043335 -0.075155094 -0.06362148
000300 76 0d ec ba 5c 13 36 3d a2 ae 01 3d 5f d0 82 3d
       -0.0018009383 0.044452056 0.031660683 0.063874
000310 b8 b1 00 3d 06 38 21 3d ea 13 5d 3c 4b 6d a1 bc
       0.031419486 0.03936007 0.013493517 -0.019705435
000320 48 c1 86 bd 3f 23 45 bc 0f da 15 bd 40 d4 41 bd
       -0.06579834 -0.012032329 -0.03658491 -0.047321558
000330 cc 4e db bc 88 55 b1 bd dc 27 9f bd ab 3f 83 bc
       -0.026770972 -0.08658892 -0.077712744 -0.01602157
000340 e9 34 bf bd 96 c4 12 3d ed df 70 bd 98 41 26 bd
       -0.09336264 0.03583201 -0.058807302 -0.0405899
000350 8e 99 c5 3c ac eb 90 3d 80 44 14 bd 8d 71 e1 bd
       0.024121072 0.07076201 -0.03619814 -0.11007986
000360 9e 69 92 bc c6 4a 68 bd fa 64 64 bd c6 99 e1 3b
       -0.017872628 -0.056711935 -0.05576036 0.0068847863
000370 7b 62 6b 3d a3 18 bc bc 1a c9 02 3d 30 86 40 bd
       0.057466965 -0.022960966 0.031930067 -0.04700297
000380 70 85 8c 3d 9e b7 32 bd d6 21 e8 ba d5 ae ad 3c
       0.06861389 -0.043632142 -0.0017710279 0.02120153
000390 2a 42 0e 3d cf b2 a7 3c 3d 93 65 bd 20 77 29 3b
       0.034731068 0.020471005 -0.05604862 0.0025858358
0003a0 b8 3a 87 bb cf 9b d0 bc a8 d2 53 3d ce 77 52 bd
       -0.004126873 -0.02546492 0.05171457 -0.051383786
0003b0 7d 90 6a bd 14 0a 68 bd ad d9 86 bd b7 3f 2a 3d
       -0.0572667 -0.056650236 -0.06584487 0.04156467
0003c0 de 38 2f 3d ca ec 34 bd b5 43 ca bb e4 f6 97 bc
       0.042778842 -0.044171132 -0.006172622 -0.018550344
0003d0 93 a5 0d 3d ae 4b 53 3d e1 f4 4b bd 99 ed 92 3d
       0.034581732 0.051585846 -0.04979408 0.071742244
0003e0 03 e0 a4 bb 57 51 0c 3d e9 64 88 bd f8 ca 4d bc
       -0.005031587 0.03425726 -0.06659872 -0.012560599
0003f0 02 a6 6d bd 22 a4 e6 bc e5 ba 38 3d 8d 8b 08 bc
       -0.058019646 -0.028154436 0.04510011 -0.008334053

lstm.weight_hh_l0 f4 [512, 128]
000000 e3 5c fc 3c 17 79 75 bc ad 88 10 3c 20 0b 00 3d
       0.03080601 -0.014982483 0.008821649 0.03126061
000010 6d 26 81 bb 03 0f 64 3c e8 8d 01 3c 8e 9c 8d bc
       -0.0039413483 0.013919595 0.007907368 -0.017286565
000020 04 52 8c bd 54 0f 29 bd f0 e1 b4 bc fa d7 aa 3d
       -0.06851581 -0.041274384 -0.022080392 0.083419755
000030 8d 5f 8d 3d 59 eb cf 3c fe 19 92 3d 16 44 40 3d
       0.069029905 0.025380777 0.07133864 0.04693993
000040 8b ed 89 bd 92 f8 d5 3c a2 9c 57 3c 06 45 f6 bc
       -0.06734761 0.026119504 0.013159903 -0.03006221
000050 ee eb a3 3c 66 60 26 bd 29 83 49 3d 28 48 47 bc
       0.020009961 -0.040619276 0.04919735 -0.0121631995
000060 51 9c 1b 3d 61 f1 dd 3c 20 9e 8a 3c 1b 95 18 bd
       0.03799087 0.027092637 0.016921103 -0.037251573
000070 c3 4f 09 3d fa fb 0e bd 8c 57 5c 3d c6 5c 29 bd
       0.033523332 -0.034908272 0.05379443 -0.04134824
000080 a5 82 6b bd c7 c3 1b bd 84 d4 77 bc 6c be 15 3d
       -0.05749764 -0.038028505 -0.015126351 0.036558554
000090 79 18 fe bc 29 61 49 bd 5f d4 89 3d 8c 89 72 3d
       -0.031017529 -0.049164925 0.0672996 0.059213206
0000a0 c8 11 cd 3c ee 28 92 3c c4 a5 ed 3c b4 67 4f 3c
       0.025032893 0.017841782 0.029009707 0.012659002
0000b0 a5 a7 13 bb da 19 72 3c 87 bd 1d 3d b7 85 05 3d
       -0.0022530344 0.014776671 0.038510825 0.032598224
0000c0 56 0c a8 3b 93 85 54 bd 44 04 61 3d f4 f4 d0 3c
       0.0051284237 -0.0518852 0.05493571 0.025507428
0000d0 ed f4 27 3c 94 78 52 3d 13 9e 8c 3d 88 29 28 bd
       0.010251266 0.051384524 0.06866088 -0.041055232
0000e0 bb 70 3c 3d 26 88 55 3d 50 46 af 3c 53 c5 cb 3c
       0.046005946 0.052131794 0.021395832 0.024874365
0000f0 d1 ba 15 3d cc 22 9a bc a2 89 de 3c f9 14 39 bd
       0.036555115 -0.01881542 0.027165238 -0.045186017
000100 2a 45 6d bc ce 08 7e bd b6 66 38 3d 31 93 9c bc
       -0.014481822 -0.062020116 0.045019828 -0.019113155
000110 90 66 34 bc 4b 3d 86 3d 69 53 2e 3d 55 57 65 3d
       -0.011010781 0.065546595 0.042560015 0.05599149
000120 6f f6 99 3c e8 f1 0b 3d fc f6 a2 3c 25 6f 64 bd
       0.018794267 0.034166247 0.019893162 -0.05577006
000130 db 4a ea 3c 7e 6e 7e bd 09 fc 43 3d 2e 42 57 bd
       0.028600147 -0.062117092 0.04784778 -0.05255335
000140 f0 54 88 ba ee ce a1 3d a9 11 57 bd 83 4f 8b 3a
       -0.001040129 0.07900797 -0.052507076 0.0010628555
000150 30 2c 85 3b 8f 63 6e 3b ac 2b 50 bd 41 42 53 3d
       0.0040641055 0.003637526 -0.0508229 0.051576857
000160 ba b3 71 3c b1 26 4c 3d a9 b6 f5 3c 98 9e 82 bd
       0.014752323 0.049841587 0.029994326 -0.063779056
000170 19 96 6c bd 7a a1 dd bc ae 2a 04 bc 5c 65 63 bd
       -0.05776033 -0.027054537 -0.008066816 -0.055516586
000180 d0 1b 42 3d 49 79 1a 3d e0 19 9f 3d 57 e1 59 bd
       0.047389805 0.037713323 0.07768607 -0.053193416
000190 ca 6f 7a 3d cd c8 31 bd 9b f8 0a 3c cb 13 6e 3d
       0.061141767 -0.04340439 0.008482124 0.058124345
0001a0 8b 49 49 bd 88 54 ee 3c 13 6e b6 bc 1c 9c 04 3b
       -0.0491424 0.029093042 -0.022269284 0.002023465
0001b0 e3 4e 15 3d 8a f0 81 bd 82 0d 40 3d 4f af 59 3c
       0.036452185 -0.06344707 0.046887882 0.013286426
0001c0 e5 9e 16 bd 16 7e 1b bd a7 9d 28 bd 3f 37 54 3d
       -0.036772627 -0.03796204 -0.041165974 0.0518105
0001d0 a8 bf 9e 39 83 6d 48 3c 72 23 a4 3d d2 f7 18 3d
       0.00030278903 0.012233141 0.08014573 0.037345715
0001e0 9a e2 93 3d f8 9b 84 3d ed 63 b2 3c d6 e2 49 3d
       0.07220955 0.06475061 0.021776164 0.049288593
0001f0 b8 40 9b 3d fe 7a 86 bd a9 8c 8a bd bc 48 ef 3c
       0.075807035 -0.06566428 -0.0676511 0.029209487
000200 6b 76 3c bd 76 a3 cf 3c 3a 90 03 bd 19 21 b4 3d
       -0.04601137 0.025346499 -0.032119967 0.087953754
000210 90 2c 91 bd 9a 7b 02 3d 17 80 86 bd 5f 1d 58 bc
       -0.07088578 0.031856157 -0.065674 -0.013190596
000220 cc 98 43 3c 53 49 39 bc ea c1 81 3d e3 e4 77 bd
       0.011938285 -0.011308986 0.06335814 -0.060521018
000230 28 2b ef bc 30 e9 21 3d c9 2d 01 3d 07 67 14 3d
       -0.029195383 0.039529026 0.031537805 0.036231067
000240 f8 a0 64 3b 28 8a 57 bd 54 73 43 3d 0e d9 8d bc
       0.0034885984 -0.05262199 0.047717407 -0.017315414
000250 fc 4f bd bd 50 a5 bc 3d 4b c0 52 3d 3b 3e ac 3c
       -0.092437714 0.09211218 0.051452916 0.021025768
000260 fa d8 88 3d 57 4f 53 bd 03 c3 2f 3d 54 b8 ab bd
       0.0668201 -0.051589336 0.042910587 -0.08384767
000270 ea a9 38 bd e2 66 36 bd cb b6 3b bd fb 43 d5 bb
       -0.045083918 -0.04453171 -0.04582862 -0.006508348
000280 da 4c 7b bd e9 cc 16 3c c0 2a 14 3d 29 78 60 3c
       -0.06135259 0.009204128 0.036173582 0.013700523
000290 8f e9 d4 bc ce ba b5 bb 47 6e 27 3d 62 7e 19 bd
       -0.025990276 -0.0055459505 0.040876653 -0.037474044
0002a0 5a c8 d6 bc 05 ec 33 3c 51 1f 78 3d 07 ca 82 bc
       -0.026218582 0.010981564 0.06057674 -0.015965475
0002b0 a2 f1 0c 3b a4 da 1f 3d 0d 23 a1 3c 52 8f aa bd
       0.002150633 0.03902687 0.019670034 -0.083281174
0002c0 4f c6 24 bd 4e b3 68 3d 55 cb 15 3c e5 b9 37 bd
       -0.040228184 0.056811623 0.009142716 -0.044855017
0002d0 c6 83 9e 3d c6 ee 62 3d 1c 0e 08 3d 3f 9c 1f bd
       0.077399775 0.055403493 0.03321658 -0.038967367
0002e0 28 6c ab 3d 91 a6 f2 3b 95 84 3d bd 14 26 bd bd
       0.083702385 0.00740511 -0.04626902 -0.092357785
0002f0 3b 12 4f 3c 6a d6 60 bd 23 62 bd bd b6 99 12 bd
       0.012638624 -0.05489198 -0.09247234 -0.03579112
000300 67 61 2d 3d 01 19 36 bd ad 7e 87 bb 29 f2 62 3b
       0.04232922 -0.04445744 -0.004134974 0.0034629202
000310 c9 51 ca 3c 8a 53 dd bc d9 5b 7a 3d 50 07 f7 3c
       0.024697201 -0.027017374 0.06112275 0.030154854
000320 db 2c 44 bc 2d 4d 5c bc c0 d0 64 3d b6 f7 bb 3c
       -0.011973585 -0.0134461345 0.055863142 0.022945266
000330 90 d9 33 bd b7 c8 81 b9 94 51 4c 3d 0d f8 f4 bc
       -0.043908656 -0.00024754342 0.049882486 -0.029903436
000340 33 67 64 3c 92 b0 09 bd 80 fa bc 3d 29 d8 ba 3c
       0.01394062 -0.033615656 0.092274666 0.022808151
000350 ca 17 e5 bc 37 94 97 3d 80 88 35 bc ed 3d be 3d
       -0.027965445 0.074013166 -0.011079907 0.09289155
000360 0d 41 ae 3c f1 2b 27 3d cb d2 21 bd d1 46 47 3d
       0.021271253 0.04081339 -0.03950767 0.04865152
000370 f7 94 59 3d 34 c8 2a bd 89 91 eb 3c 17 67 a7 bd
       0.05312058 -0.041694835 0.02875592 -0.0817396
000380 1c 92 7f bd c0 68 cd 3c 2a 8a 6a 3b 0f 13 03 3d
       -0.0623952 0.025074363 0.0035787919 0.032000598
000390 f1 bb b9 3c af 36 8b 3d 49 85 dc 3a a0 99 75 3d
       0.022672625 0.067975394 0.001682439 0.05996096
0003a0 8c bf 59 bd 36 33 8c 3d ad 17 af 3c 25 8c 97 bd
       -0.05316119 0.06845705 0.021373594 -0.07399777
0003b0 3b 8c d3 bb fc 92 b0 bc f6 34 a3 bc 02 ba be 3d
       -0.0064559258 -0.021554463 -0.019922715 0.09312822
0003c0 27 cf 80 bc 38 eb 72 bb 3b 51 bb 3d 24 44 77 3b
       -0.015723778 -0.003706647 0.09146353 0.0037729824
0003d0 9d 14 fd ba 5b 3e 21 3c 2a 1e 00 3d 41 86 6b bd
       -0.0019308511 0.009841527 0.031278767 -0.05750108
0003e0 fd 7f a9 3d c7 ac 17 3d b0 d3 f4 3c 74 39 1f bc
       0.08276365 0.037030008 0.029886097 -0.009718288
0003f0 71 89 97 3d e1 ac e9 3c 47 e2 c1 bd 34 4c 69 bd
       0.07399262 0.028524818 -0.09466987 -0.05695744

lstm.bias_ih_l0 f4 [512]
000000 bb 57 8e bb 96 29 7f 3d 66 58 b8 3c 06 4f 29 3d
       -0.0043439544 0.06229552 0.02250309 0.04133513
000010 4a 8b 2e bd 02 5b 0f 3d e9 c7 97 3c 4c c4 f1 3c
       -0.042613305 0.0349989 0.018527942 0.029512547
000020 82 39 b8 3d ac a6 a6 3d 0c 2f 85 3d 51 e9 70 3d
       0.08995344 0.08137259 0.06503114 0.058816258
000030 5c ad ab 3d ef 17 1e bd 9f 5f 7e bd 7e 82 7e 3d
       0.08382675 -0.038597044 -0.06210291 0.062136166
000040 5f d8 e5 bb 35 95 df 3d d3 6c 10 bd 51 78 dc bc
       -0.007014319 0.10917131 -0.035260033 -0.02691284
000050 0a a8 15 b9 35 aa 33 3d 34 ac 24 3d 07 95 c5 3d
       -0.00014272347 0.043863494 0.04020329 0.09647565
000060 04 4b 1d bd 5a fc a4 3d 40 8f 7c 3d 42 3e 75 bc
       -0.03840162 0.08055945 0.06166005 -0.014968457
000070 aa f1 c2 3c 13 83 ac 3c ed 91 68 3d af 4b 85 3d
       0.023796875 0.021058595 0.05677979 0.06508576
000080 df af 56 3d 12 28 5f bb e2 0f 0d 3d 27 09 8e bc
       0.052413817 -0.0034050983 0.034438975 -0.017338349
000090 bc b4 24 3d c5 73 9b bd c5 47 6b bd 15 6f 6b 3d
       0.040211424 -0.07590441 -0.05744149 0.057478983
0000a0 f0 4f b7 3d f3 71 cb 3b 8c 11 11 bc 6f f2 89 3d
       0.08950794 0.006208652 -0.008854281 0.06735694
0000b0 a8 0f 88 3d 40 93 59 bc 4d cd b0 3d 9f dd 67 3d
       0.06643611 -0.013279736 0.08632908 0.05660784
0000c0 b1 d0 36 bd ab cc a0 3c 74 2f 0b 3c d2 50 b1 3d
       -0.044632617 0.019628843 0.0084952 0.086579934
0000d0 9c 4a b7 3d 56 9e 41 bd ec d4 b9 bc da fe 65 3d
       0.089497775 -0.04727014 -0.022684537 0.05615125
0000e0 04 1a 70 bd e2 f7 6f 3d 05 81 46 3d 40 dd 8a 3c
       -0.05861856 0.05858601 0.048462886 0.016951203
0000f0 04 cb 59 bd 00 18 7a bd 76 ae db 3c be e0 be 3c
       -0.053172126 -0.061058044 0.026816588 0.023300525
000100 89 f5 2f 3d 04 9a dd 3d 73 f2 9e bc 10 a9 2f bc
       0.04295877 0.10820392 -0.019402718 -0.01072146
000110 d9 89 ef 3b ad 61 d7 3d 24 ba 85 3d 94 ac 47 3d
       0.007310134 0.10516677 0.06529644 0.048748568
000120 6e 27 86 3d 40 f5 8a bc 67 28 80 3d 9a a2 7a bd
       0.06550489 -0.016962647 0.06257706 -0.061190225
000130 48 7f 48 bc 4e 9a 91 bd fa e4 06 bd 9c bf 72 bd
       -0.012237377 -0.071095094 -0.032933213 -0.059264764
000140 98 ef 8f 3d 4e b7 85 3c 39 b9 3d 3c 0f 77 37 3d
       0.07028121 0.016322758 0.011579805 0.044791277
000150 2c 09 81 3c 00 e4 20 bd 9a 33 21 3c 84 87 2a 3d
       0.015751444 -0.039279938 0.009838963 0.041633144
000160 62 6f d6 3c 49 7b 90 3d 66 51 b3 3c f1 7b 8c 3d
       0.026176158 0.07054765 0.0218894 0.068595774
000170 c4 a7 bb 3d 00 51 a2 3c 23 aa 8e 3c 04 e2 b4 3d
       0.09162858 0.019814014 0.017415112 0.088321716
000180 d8 cf 1f bd b2 4d 3f 3d 5f 1f cb 3d bc dd 5d bd
       -0.039016575 0.046704955 0.09918093 -0.05416654
000190 53 0a 81 3d 7b c4 09 3b 97 4d 86 bb f1 98 5f 3d
       0.06300797 0.0021021653 -0.004098605 0.054589216
0001a0 8e bc 11 3d 63 e6 95 3b 24 01 22 bc e9 ed 53 bd
       0.03558021 0.0045745834 -0.009887967 -0.05174056
0001b0 64 94 c3 3b 01 f1 80 bd 94 79 88 3d 85 2c 8a 3d
       0.0059686173 -0.06295968 0.06663814 0.06746773
0001c0 94 20 86 3d 6d 90 63 3b 22 17 b0 3d 16 39 8b 3d
       0.065491825 0.0034723536 0.08598162 0.06797998
0001d0 22 80 37 3c 48 ef bb 3d ad fe 9d 3d 0a 60 83 3d
       0.011199983 0.09176499 0.07714591 0.06414802
0001e0 3b c2 2c bd 57 78 14 bd 92 4b 2a 3d 22 fc cb bc
       -0.04217742 -0.036247578 0.041575976 -0.0249005
0001f0 ea c1 b6 3d 4e d4 7b bd c4 42 85 bd 24 f4 38 3d
       0.08923705 -0.061481766 -0.06506875 0.045154706
000200 11 24 d4 3c c7 d2 06 3d 23 64 5a 3b 91 58 d0 3c
       0.025896104 0.032915857 0.0033323846 0.025432857
000210 43 1e 25 bd cb d5 46 3d 84 0d 76 3c ca 91 93 3d
       -0.040312063 0.048543733 0.015017871 0.072055414
000220 e3 28 be 3d d4 06 a7 3d f5 f2 4c 3d 55 55 61 bc
       0.09285142 0.08155599 0.05003639 -0.013753255
000230 76 63 57 bd 99 25 b1 bc 26 eb 1c bd 37 0a 7a bd
       -0.052585088 -0.021624373 -0.038310193 -0.061044898
000240 cc 3f 8a bc 61 66 83 bd 6c 21 9e 3c f1 09 2b bd
       -0.016876124 -0.064160116 0.019303046 -0.041757528
000250 28 d2 76 3d dd a3 3d 3d f7 14 23 3c 0b b5 62 3d
       0.060259014 0.04629885 0.009953729 0.055348437
000260 6b 06 21 3d ac b3 94 ba d8 0e 28 3d 45 84 a6 3b
       0.03931276 -0.001134505 0.04102978 0.0050816857
000270 6d 6b c6 bc 28 68 3c 3d db a0 40 3d f6 31 91 3d
       -0.024221146 0.04599777 0.047028404 0.070896074
000280 a7 67 3e bd 75 87 09 bc 50 3b 3a 3d 90 90 ae 3d
       -0.04648557 -0.008394112 0.04546672 0.08523667
000290 04 2b b5 3d 40 3c 80 3d 48 e7 65 bd bc eb 35 3d
       0.08846095 0.06261492 -0.05612877 0.044414267
0002a0 ad 00 c8 bc e9 20 dc 3c ee 1f 5f 3d c2 03 b3 ba
       -0.024414385 0.026871162 0.05447381 -0.0013657736
0002b0 d9 d8 73 3d 6e 45 31 bc 1b 1a a2 b8 5c d1 9e 3c
       0.059532974 -0.010819776 -7.7296245e-05 0.01938694
0002c0 8c b7 8b bd 3e 4b e6 3b 91 ac e0 bc 36 ac 08 bc
       -0.06822118 0.0070280125 -0.027426036 -0.00834184
0002d0 d7 2f 0d 3d f7 7c c4 3c 33 a0 29 3d c0 0c d8 3b
       0.03446945 0.02398537 0.041412544 0.006593317
0002e0 b5 e7 5b bc e0 5f 17 3d a7 f4 95 bd d5 d6 57 3d
       -0.0134219425 0.036956668 -0.07322054 0.052695114
0002f0 b2 8e 96 bd 1e d6 8d bc 97 9b 90 bd c9 95 c6 bc
       -0.07351436 -0.017314013 -0.070609264 -0.024241345
000300 b5 f7 56 bd 27 99 d1 3c 03 fd 21 bd 18 0f b7 3d
       -0.052482326 0.025585724 -0.03954793 0.08938426
000310 f9 20 59 3d fb 3e 80 3d f1 e7 a3 bc 60 56 7b 3c
       0.05300996 0.062620126 -0.02000806 0.015340418
000320 06 c9 76 bd 3d 9a 69 3d 8c 68 a2 3d 52 81 1f 3d
       -0.060250305 0.05703186 0.07930097 0.03894169
000330 4e 32 cc 3d a1 6b e0 bc 0d ac 73 bb 72 fb 3b 3d
       0.09970532 -0.027395071 -0.0037181408 0.045894094
000340 ce f0 57 bd 75 e7 b8 bc c7 c7 98 3d 1c 0d b9 bc
       -0.052719884 -0.022571305 0.074599795 -0.022589259
000350 f6 3b bd 3d 43 4b 90 bb e8 53 aa 3d 90 82 35 3d
       0.09239952 -0.004403503 0.08316785 0.044313967
000360 80 2c 99 3d 6d 33 ae 3d 63 a9 b8 bc 7f 27 a2 3d
       0.07479191 0.085059024 -0.022541707 0.079176895
000370 1d e1 86 bd 1d 77 29 3d 73 f2 df bc 13 25 a5 ba
       -0.06585906 0.04137336 -0.027337288 -0.001259955
000380 c6 f8 52 3d da 17 b5 bd 29 15 3d 3d 9a 5e 53 3c
       0.05150678 -0.0884244 0.046162758 0.012900973
000390 6a 83 0d bc d8 fe 01 bc 57 c1 51 ba 3d 85 84 bc
       -0.008637289 -0.007934295 -0.0008001527 -0.016176814
0003a0 00 54 c1 3d 0b 52 91 3d e4 44 da bc 67 65 59 bd
       0.0943985 0.070957266 -0.026644178 -0.05307522
0003b0 54 a0 79 bd e9 d8 95 bb 8e a8 ac 3d b7 a6 1d 3d
       -0.060943916 -0.004572977 0.08430587 0.03848907
0003c0 89 63 63 3d 38 f8 3c bd 9c 40 bc bc 11 60 78 bc
       0.055514846 -0.046135157 -0.022980027 -0.015159623
0003d0 1d bb 1d 3d b8 a9 e7 3c 9f c1 a5 3d b1 44 99 bb
       0.038508523 0.02827917 0.08093571 -0.004677378
0003e0 ea 91 6a 3c 96 6f c8 3d ae 96 af bd 6d 1c df bc
       0.014317015 0.09786908 -0.08573662 -0.027235234
0003f0 da d4 0a bd 80 92 bb 3c 43 9b 36 3d 38 06 00 bd
       -0.033894397 0.022897005 0.044581663 -0.03125593

lstm.bias_hh_l0 f4 [512]
000000 f2 26 36 bc c6 c8 00 3d a4 cf 02 38 fa d3 52 bc
       -0.011117684 0.031441472 3.1187796e-05 -0.012867922
000010 4c d0 c8 bc f4 43 42 bd 27 0c 8a bd fa 2f 5f 3d
       -0.024513386 -0.047428086 -0.06740599 0.054489113
000020 69 2e 81 bd ab 55 56 3d 21 6a ab 3d e7 18 69 bc
       -0.0630768 0.052327793 0.08369852 -0.014227129
000030 8d 1c 84 bc 42 d4 53 bd 6f 97 55 bd 6c ac ce bb
       -0.016126895 -0.051716097 -0.05214637 -0.0063071754
000040 fd 82 ca 3d 78 40 76 3d 94 f3 72 3d 7e 41 85 bd
       0.09888265 0.060120076 0.059314325 -0.06506632
000050 b9 ed 0d bd d0 80 a8 3d 9d dc 6a 3d dd b8 c7 bb
       -0.034650538 0.08227694 0.0573393 -0.0060950355
000060 8e c4 83 3d a5 c4 2c bd 08 96 94 3d 14 eb f0 3b
       0.06433974 -0.042179722 0.07255179 0.0073522422
000070 43 a5 78 bc e2 a5 d5 bc de 31 ba bb 92 61 e2 bc
       -0.01517612 -0.026080076 -0.005682214 -0.027634416
000080 7f ef 5c 3d e8 5c 0c 3d 43 3e 28 bd 5b a2 66 3d
       0.05393934 0.03426829 -0.041075002 0.056307178
000090 50 e1 d0 bc 85 7e 7d bd 91 b7 ac 3c 22 b3 f8 bc
       -0.025498062 -0.061888237 0.021083625 -0.030358855
0000a0 e6 a1 c1 3d 4f e2 0a bd 66 96 5f 3d b5 bf cc ba
       0.09454708 -0.03390723 0.05458679 -0.0015621098
0000b0 58 f0 8f 3d 03 d0 6f bd 3f 7b 9a 3c 0d 45 bc bc
       0.07028264 -0.058547985 0.018857596 -0.022982145
0000c0 1a d6 8a bd fd b2 3b bc fc be d0 3d 01 eb 9e 3c
       -0.06779118 -0.011456248 0.101926774 0.019399168
0000d0 ea 12 58 bd 88 18 91 3d eb f0 4d 3d cf 1d 25 3c
       -0.052752413 0.07084757 0.050278585 0.010077908
0000e0 b0 80 5f bd 4b 3f c0 bc 59 43 0a bd 21 7f c6 3d
       -0.054566085 -0.02346768 -0.033755634 0.09692217
0000f0 83 3f 86 3d 29 29 25 3d 20 4e bc 3d 1a 05 87 bd
       0.06555083 0.040322457 0.09194589 -0.0659277
000100 39 8d b1 3d 1d d2 5d bd ec 1b 88 bd 13 fa 83 3c
       0.08669514 -0.054155458 -0.06645951 0.016110456
000110 3a 8a f1 bc 74 44 9f 3d ba df 76 bd a5 30 5d 3c
       -0.029484857 0.07776728 -0.060271956 0.013500367
000120 9a 32 6d bd af 5a d5 ba 88 de 7a bd 83 71 3c 3d
       -0.057909586 -0.0016277636 -0.06124738 0.04600669
000130 04 da d5 3d b1 54 2a 3d 53 1c 71 3d ef 73 fc 3c
       0.10441974 0.041584674 0.058864903 0.030817
000140 00 cb 96 3c 89 a3 c0 3c 32 f8 bb bc bf 5c 48 bb
       0.018407345 0.02351548 -0.022945497 -0.003057286
000150 f7 7e c5 3d c6 0a 38 bd d2 e5 83 3b 95 b8 bf 3d
       0.09643357 -0.04493215 0.0040251995 0.09361378
000160 7e c5 4a bd 36 7a 5d bb ab 4c 4d bd 73 77 26 bd
       -0.04950475 -0.0033794767 -0.050121944 -0.04064126
000170 57 b8 de bc de a4 51 3d 84 44 85 bd 79 31 bc 3d
       -0.02718751 0.05118262 -0.06507209 0.09189124
000180 86 5f 02 3d 20 f4 77 3d 2f 05 bc 3d 03 9b 8b bd
       0.03182938 0.06053555 0.09180676 -0.068166755
000190 41 97 c7 bc 76 8b e3 3c f8 ae 37 ba 41 18 25 bd
       -0.024364116 0.027776461 -0.00070069684 -0.040306333
0001a0 0e c6 c7 3c 86 7d a3 3d 03 4b 99 3d 7d 30 a1 3d
       0.024386432 0.07982926 0.074850105 0.078705765
0001b0 7e e6 29 3d d9 92 56 3c 5d 5c 63 bc 70 5d a9 bb
       0.04147958 0.013096535 -0.013877002 -0.0051686093
0001c0 d4 6e b3 bc 57 1c b1 3d d9 e1 07 bd 6a 47 ee 3c
       -0.021903433 0.086479835 -0.03317437 0.029086787
0001d0 5c 97 98 3d 11 99 9d 3d 08 de 5b bd d2 87 2f 3d
       0.074507445 0.07695211 -0.053678542 0.042854138
0001e0 0e 6e 5f bd ac 1d bc 3d 06 f7 b1 38 20 c2 a2 3d
       -0.054548316 0.09185347 8.4860294e-05 0.07947183
0001f0 e5 4a 56 3d 62 3f f8 3c be 5b 6d 3d 3e 88 60 bd
       0.05231752 0.03030366 0.05794882 -0.05481743
000200 d3 d0 53 bd 7a 32 76 bd dd 1f 60 3c 9d 31 e2 ba
       -0.051712822 -0.060106732 0.013679472 -0.0017257218
000210 14 23 89 3d f3 e7 ed bc 42 e1 01 bd 23 d2 5d 3d
       0.06696144 -0.029041266 -0.031708963 0.05415548
000220 52 2a 34 bd 73 71 9c ba 4e 32 3a 3d a0 f6 c2 3c
       -0.043985672 -0.0011935666 0.04545813 0.02379924
000230 7b 78 dd bc af 8a 89 3d b0 c0 4c bc 14 4e 92 bd
       -0.027034989 0.06715905 -0.012497112 -0.071437985
000240 a5 e5 08 bd 55 65 c0 3d 74 94 8f 3d ac 35 bb 3d
       -0.03342213 0.093943276 0.07010737 0.091410965
000250 cc 15 99 bd cc 8f 5c bc 31 4d 7d bd 09 03 b7 bc
       -0.074748605 -0.013462018 -0.061841194 -0.022340314
000260 71 56 2a bd ff f4 10 3d 88 73 d4 bb 7b d7 ea bc
       -0.041586343 0.035389896 -0.006483499 -0.028667202
000270 82 0c b9 bc 12 50 72 bc 8f 8c 89 3c fc a9 88 3d
       -0.022588972 -0.014789598 0.016790656 0.06673047
000280 bc e1 d0 bc c2 4b a4 bd a3 45 ab 3d 57 5a 17 3c
       -0.025498264 -0.08022262 0.083628915 0.009237847
000290 0d af 18 bd 4f ae 16 bd a4 6a 72 bd 8a 70 4b bd
       -0.037276316 -0.036787327 -0.05918373 -0.049667872
0002a0 d7 11 4a 3d f3 99 8f bc 87 e3 85 3b 71 75 0d bd
       0.04933342 -0.017529463 0.0040859613 -0.03453583
0002b0 77 36 b9 bc f5 28 41 bc 6a 9d 0f bd 4b a2 1b bd
       -0.022608979 -0.01178955 -0.03506223 -0.03799657
0002c0 e6 1c 8b bd 7d f6 a0 bc 8d fa 12 b9 4e cf f6 3c
       -0.06792621 -0.019648785 -0.00014016982 0.030128147
0002d0 b9 81 5c 3d 50 56 7a bc 9c 14 20 3d 8f eb aa ba
       0.05383465 -0.015279368 0.039082155 -0.0013040173
0002e0 ae 2d 6d 3d 0c 2e 04 3d 43 17 7f bd c9 39 e5 3c
       0.05790489 0.032270476 -0.062278043 0.027981656
0002f0 22 0f ad bd 00 08 ba 3d 6a c2 e0 bc c1 42 39 3d
       -0.08450152 0.09083557 -0.027436454 0.045229677
000300 9f 88 59 3c 81 d7 92 3d bf 14 1f 3d db 5d c1 3d
       0.013277202 0.0717001 0.038838144 0.0944173
000310 8a a7 b4 3d 78 05 cf 3d cd fe a3 3d 35 92 3c bd
       0.08821018 0.10108465 0.08007584 -0.04603787
000320 c9 57 5d bd e0 1e 0c bd 94 67 59 3c f3 ce 65 3d
       -0.054038797 -0.034209132 0.013269324 0.056105565
000330 a1 c7 61 3d 3c 7e 84 3c a3 b0 6e 3d 9c 44 72 3c
       0.05512202 0.016173474 0.058273923 0.014786866
000340 b2 0d 37 bc e6 f6 36 3d ac 78 21 bd 98 d9 22 bd
       -0.011172699 0.044669054 -0.039421722 -0.039758295
000350 35 df 78 3d 65 9c 3d bd e4 24 7f 3c ac b0 b4 3d
       0.06075974 -0.046291728 0.01557276 0.0882276
000360 80 20 e5 3b 12 4b df b9 fb 3b 87 3d 1e e8 62 bd
       0.0069923997 -0.00042589806 0.06603237 -0.055397145
000370 d5 dc 87 3d 95 3e 91 3d a5 4d 5e 3d 2b 77 00 3c
       0.06633917 0.07092015 0.054273266 0.007840912
000380 cc 8a 88 bc aa 9f 5b 3b 2b 58 1f 3d 76 6a 96 bd
       -0.016667746 0.0033511915 0.038902443 -0.073445246
000390 4d a3 c8 bc 44 4f 9e 3d 03 96 da 3d 09 57 9d 3d
       -0.02449193 0.077299625 0.10673144 0.07682616
0003a0 82 2a d9 3d ce 41 a3 3c 52 38 1d 3d 64 0f f3 3c
       0.10603811 0.019928839 0.03838379 0.029670425
0003b0 51 60 5e 3d 4c 87 c3 3d 76 0f 3f bd 5c 37 be 3d
       0.054291073 0.0954729 -0.046645604 0.09287903
0003c0 da 70 71 bd 16 2b 33 3c 2c 85 e9 3c 82 2b 1b bd
       -0.058945514 0.010935565 0.028505884 -0.03788329
0003d0 8a d6 a3 3d 9f 76 f7 3c ae 1c 49 3d 36 82 b5 3d
       0.079999045 0.03020793 0.049099617 0.088627264
0003e0 2c 98 8d 3d e6 98 c8 bc 17 a9 0b bd 95 52 bc 3d
       0.0691379 -0.02448697 -0.034096804 0.09195439
0003f0 87 d6 c0 3d 77 6e 70 3d 1b 1d 81 3c 80 c8 90 bd
       0.09415918 0.058699097 0.015760949 -0.07069492

lstm.weight_ih_l1 f4 [512, 128]
000000 34 a1 90 3b c6 57 3b bd b5 06 87 3b bc 3d 47 3c
       0.004413748 -0.045738004 0.0041206726 0.012160715
000010 ea e8 b1 3c 89 62 ce 3d 72 52 97 bc 32 1c a8 bd
       0.021717507 0.10077388 -0.01847193 -0.08208503
000020 e7 98 bb bd 6f 1e 40 3c f3 32 90 3d a6 b7 2e bc
       -0.09160023 0.011726006 0.07040968 -0.010663902
000030 f3 ae 99 bc c0 2c 2a bd 04 0e 28 bc c3 24 17 3d
       -0.01876018 -0.041546583 -0.010257248 0.036900293
000040 d0 ba dd 3c a3 d0 8f bd c8 24 b5 3b 70 c6 26 bd
       0.027066618 -0.07022216 0.0055280663 -0.04071659
000050 dd d0 91 3d e7 48 a3 3d 8d d0 1d 3c f4 ec ad 3d
       0.07119916 0.079728894 0.009632242 0.08492461
000060 72 3b c9 3d d4 c3 c7 3c 9b 70 15 3d 3c e7 3e 3d
       0.098257914 0.02438537 0.036484342 0.04660724
000070 42 0c 52 bd 00 9c 60 bd 1e 63 e2 bc a9 6d 2e bd
       -0.05128122 -0.054836273 -0.027635153 -0.04258505
000080 7d b4 71 bc 9e ed 71 3c cd 48 ea bc 3a dc 9e bc
       -0.014752504 0.014766125 -0.028599167 -0.019392122
000090 1b 26 8f bc 53 36 2d 3d 61 a2 39 3d 60 a0 0e bc
       -0.017474225 0.042288136 0.045320872 -0.008705229
0000a0 d0 88 b0 bd 67 f7 7c 3d aa c0 9b 3d 8b 71 13 bd
       -0.08619845 0.06175938 0.07605107 -0.035996955
0000b0 74 13 ad 3c 98 a1 1f 3c db e7 c1 3d f9 d0 54 3d
       0.02112744 0.009743117 0.09468051 0.051957104
0000c0 4c fb 5e bd a9 70 34 3d d0 f6 c6 3d 54 a6 4e bd
       -0.054438874 0.044052754 0.097150445 -0.05045159
0000d0 c3 14 8f 3d 03 f0 c3 bd fa fe 91 3d 2d 96 5f bc
       0.06986382 -0.09567263 0.07128711 -0.013646645
0000e0 0f ca b1 3c e2 e9 24 3c 4c 54 ba bc be 05 08 bd
       0.021702794 0.010065528 -0.022745274 -0.0332086
0000f0 0c 08 6c 3c 3f c4 d0 3a f1 54 43 bd 80 c1 69 bc
       0.014406215 0.0015927627 -0.04768843 -0.014267325
000100 7b 46 05 bc 39 3b 9e bc f1 7d 1e bd 92 1f 80 3d
       -0.00813448 -0.019315349 -0.038694326 0.062560216
000110 dc 2e 0a 3d 52 c0 03 bd 5b 94 16 3d a9 b4 16 3c
       0.033736095 -0.032165833 0.036762577 0.009198346
000120 3c be 0b 3d 7f 1a 58 bd b0 76 76 bd 59 27 43 bc
       0.03411697 -0.052759644 -0.060171783 -0.011911237
000130 09 d7 7d bc bb b1 ff bc 8e 2d a2 3d 95 6b 0f 3d
       -0.015493163 -0.031212678 0.07918845 0.035014708
000140 d4 e1 9b bd d0 a2 cc 3d 86 ca c6 3d 43 b8 15 bc
       -0.07611433 0.099919915 0.09706597 -0.00913817
000150 cc f0 12 3d 57 a6 4e 3d a3 3f a9 bd 24 1e 98 3c
       0.035874173 0.050451603 -0.08264091 0.01856906
000160 f7 53 a3 3d 34 19 f4 bc dc 96 07 3d e4 95 01 bd
       0.079749994 -0.029797174 0.033102855 -0.031637087
000170 60 26 c2 bd 18 09 26 bc 24 29 17 3d 8d 6f cd bd
       -0.09479976 -0.010134004 0.03690447 -0.10031042
000180 cf 67 61 bd 6f d1 45 bd 37 e5 35 bc 20 87 c3 bc
       -0.05503064 -0.048295435 -0.011102012 -0.023868144
000190 3e dd 61 3c 91 23 d4 b7 22 56 5b 3c 43 72 f3 bc
       0.013785658 -2.5288931e-05 0.013387235 -0.02971757
0001a0 b4 dd b2 3b fe 87 8d 3b e5 e4 28 bd 76 b0 25 3d
       0.005458558 0.00431919 -0.041233916 0.04045149
0001b0 f7 9d b7 bc 08 bf 16 bd d6 99 78 bd a5 07 22 bd
       -0.02241419 -0.036803275 -0.060693584 -0.03955807
0001c0 7b 63 9a 3d be 93 85 bb 48 04 7c 3c 25 b8 94 bc
       0.07538506 -0.00407645 0.01538188 -0.018154213
0001d0 98 4e 52 bd 85 01 4e bd cf 4c 26 3d 62 da 0a 3c
       -0.051344484 -0.050294418 0.040600594 0.008474918
0001e0 2b c5 53 3d 54 1b 5d bd 3d d9 2c 3d d0 c1 50 bd
       0.051701706 -0.05398114 0.042199362 -0.050966084
0001f0 46 1b 5c bc ae 9d 64 bd 28 57 8e bd 47 ca 51 bd
       -0.013434237 -0.055814438 -0.069502175 -0.051218297
000200 25 23 f3 3c ad c4 2c 3d 78 a4 98 3d 71 7a 7e 3d
       0.029679844 0.042179752 0.07453245 0.062128488
000210 0b 0f 5d bd dc 95 26 3d d3 37 9b bd 2e 80 5f 3d
       -0.053969424 0.04067026 -0.07579007 0.0545656
000220 cf a4 f9 bc f3 c0 91 bd e4 db 3d 3d 58 e1 7f 3d
       -0.030474095 -0.0711688 0.046352282 0.062470764
000230 2f 09 25 bd 20 bc c2 3c 7c d1 1c 3d 5d a6 f3 3c
       -0.04029196 0.023771346 0.038285717 0.029742414
000240 bc dd e6 bc 0c 45 1f bb 29 66 2b bc 13 56 a3 3d
       -0.028181903 -0.002430263 -0.010461369 0.07975402
000250 3c e4 be bc 9f 84 0b 3d e0 e0 c1 bd 31 f2 c5 3d
       -0.02330219 0.034062024 -0.094667196 0.09665335
000260 1c c5 6f bd 21 d3 fc bc ad bc 52 3c be 5a 81 3d
       -0.058537588 -0.030862393 0.012862367 0.06316136
000270 6b c7 7c bc a1 42 2c bd 6a b9 e9 bc 1a 43 1d bd
       -0.015428404 -0.04205573 -0.028530795 -0.03839407
000280 e9 9e 62 3d 85 7a f0 3a 3e dd 4c 3d fa 37 b8 3d
       0.05532733 0.001834706 0.05001568 0.08995052
000290 a9 cd 02 3d 3c 62 f2 bc 14 3e 9b 3d 8d b7 ac bd
       0.031934414 -0.029587857 0.075802 -0.08433447
0002a0 0a 95 37 bd 8a 98 e9 bc c1 90 78 3d 4b cc bc 3c
       -0.04481987 -0.02851512 0.060684923 0.023046633
0002b0 ce 20 1f ba 87 d6 86 3d 90 a8 59 3d 9b 09 22 3d
       -0.0006070257 0.065838866 0.05313927 0.03955994
0002c0 91 51 ff bc 4d 76 eb 3c 52 bd bd bc 91 f8 9d 3a
       -0.031166824 0.028742934 -0.023161564 0.0012052228
0002d0 90 5a ba 3d 88 a1 62 bd 62 14 83 3d b0 59 8e 3d
       0.09099305 -0.05532983 0.06400372 0.069507
0002e0 47 e3 4d 3d b5 e6 62 3d 36 18 b2 bb 24 8c 95 bd
       0.050265577 0.0553958 -0.005435015 -0.0730212
0002f0 c6 1a 7a 3d e0 cc 85 3c 31 0b 1d bd 2c d3 48 3d
       0.06106069 0.016333044 -0.03834075 0.049029514
000300 66 ca a1 bd 8d 71 46 bc a8 89 96 bd 6a 8e 65 3a
       -0.078999326 -0.012112034 -0.073504746 0.0008756878
000310 1b af 7c 3d 85 72 f6 3c 21 ec 3f 3d 02 5a 79 3d
       0.06169043 0.030083904 0.04685605 0.060876854
000320 f8 0c 9e 3c 8d c7 3b bd 3a 57 32 bd 2d 57 95 bd
       0.019293293 -0.045844603 -0.043540217 -0.07292018
000330 98 17 4d 3d 57 2a af 3c ec 6f cd bb 79 07 0a 3b
       0.05007133 0.021382494 -0.0062694456 0.0021061583
000340 2a 27 7b 3a 01 e7 e3 3c 85 7a 3b bd bc d0 2d bd
       0.0009580726 0.027820112 -0.04577114 -0.042435393
000350 7b b3 94 3d 53 28 9c bc 67 68 2e 3d 3b 0c 6a 3d
       0.07260796 -0.019062197 0.042580035 0.05714057
000360 41 e2 9a 3d 03 3d 1c 3d 59 37 6e 3d 7b 52 e7 3c
       0.07562686 0.038144123 0.058158252 0.028237572
000370 9e 5f ad bd f5 9f 74 3d 71 82 01 bd da ca ac bb
       -0.08465503 0.05972286 -0.03161854 -0.005273205
000380 f6 2a d7 3c fb 13 49 3d 6f cc 40 bc 3c 61 98 3b
       0.026265603 0.04909132 -0.011767491 0.004650263
000390 72 10 ef bc 73 78 82 bd 6f 10 f6 3c db 08 0b bc
       -0.029182646 -0.0637063 0.030037133 -0.008485998
0003a0 34 a9 2e 3d 83 47 18 3d 7d 79 b3 bc 38 7f 2c 3c
       0.042641833 0.037177574 -0.021908516 0.010528378
0003b0 b2 56 bd 3c 84 ff 25 bd ca 6b 12 bd 48 fb 5e bd
       0.023112629 -0.04052688 -0.035747327 -0.05443886
0003c0 01 cf 0f 3d 28 eb 38 3d 48 83 da 3c 3d 84 67 bb
       0.035109524 0.045146137 0.026673928 -0.0035326623
0003d0 aa ae 1c bc d1 0d 63 3d f4 b3 d7 3c 4c 9d 61 bd
       -0.0095631275 0.0554331 0.026330926 -0.05508165
0003e0 a9 f5 c4 3c d5 62 2f 3d e4 c9 71 3d ba 1e 0e bd
       0.024042921 0.042818863 0.05903043 -0.034697272
0003f0 e4 d0 2d 3d 05 e1 83 bd 3d 2f cb bc 5b c8 04 bd
       0.04243554 -0.064394034 -0.024802798 -0.032417636

lstm.weight_hh_l1 f4 [512, 128]
000000 fe aa 86 3b 44 67 a3 bc ee bf 88 3d 03 de 86 3d
       0.0041097393 -0.019946702 0.06677233 0.06585314
000010 84 75 8b 3d 26 36 0a bd 5a b9 83 bc f2 4e 1f 3c
       0.06809524 -0.033743046 -0.016079593 0.009723412
000020 ae 5d 20 3c be 4c 51 bd f5 d0 be 3d c5 08 2e 3d
       0.00978796 -0.051098578 0.09317199 0.042488832
000030 a6 83 f4 bb 06 c2 55 3d 94 40 78 3d 62 ae 7f 3c
       -0.007461983 0.05218699 0.06060846 0.015605541
000040 81 cf 1e bd 38 d5 7a 3d 9b d7 2e 3d 75 53 8b bd
       -0.03877211 0.061238497 0.042686086 -0.068030275
000050 ae db ee bc ad a1 43 bc 5c 1c 1c 3d 14 63 3c bd
       -0.029157486 -0.011940402 0.038112983 -0.045992926
000060 bd 03 af 3b c4 c6 95 3d f9 3f 80 bd a3 14 91 3d
       0.005341022 0.07313302 -0.06262202 0.07084014
000070 41 a1 77 bc 3b e0 67 bd 32 88 1e bd 35 f4 8d 3d
       -0.0151141295 -0.056610327 -0.038704105 0.069313444
000080 4e f7 2a bd 37 ca a0 3d 93 9f 91 3c b1 ee 4b 3d
       -0.041739754 0.078510694 0.017776286 0.04978818
000090 eb d2 9e bc b9 f0 e9 3c 0d 50 1e bc d2 63 ab bd
       -0.019387683 0.028557168 -0.00966264 -0.083686486
0000a0 84 45 e4 3c b9 eb 65 bd 47 3c ad bd 8e 4f 7b 3d
       0.027865179 -0.056133006 -0.084587626 0.061355166
0000b0 07 00 96 bc 56 fd 08 bd 78 75 af bc 22 74 3a bd
       -0.01831056 -0.033444725 -0.021418318 -0.04552091
0000c0 92 3b 87 bd 46 48 62 3d bc 5d 8a 3d 3c ed b7 bd
       -0.06603159 0.055244707 0.0675616 -0.08980796
0000d0 ce 9e 5c 3d 8c d7 17 bd 0a aa c9 3d 07 a4 50 3c
       0.053862385 -0.037070796 0.098468855 0.01273442
0000e0 f1 b5 3a b9 83 db 18 3d 36 30 12 bd c3 7f 11 3d
       -0.00017806121 0.037318718 -0.03569051 0.035522234
0000f0 7c 66 30 3d 46 af 2e bd cf 10 4c bc fd 78 29 bd
       0.043066487 -0.042647623 -0.012455179 -0.04137515
000100 67 78 d7 bc 30 49 78 3d f3 a3 cf 3d ab 57 2c 3d
       -0.02630253 0.060616672 0.10138693 0.042075794
000110 8b 28 75 ba 7b 84 3d 3d 90 53 f0 3c 9e 0d 84 3d
       -0.00093520497 0.04626892 0.02933672 0.0644791
000120 9a eb a9 bd a1 67 7c bc dd 7f 3d ba e8 d5 8c bc
       -0.082968906 -0.015405566 -0.0007228831 -0.017191842
000130 ab 8c 8b bd 35 56 89 bb d3 be 13 bd 8c 27 d8 bc
       -0.0681394 -0.004191185 -0.036070656 -0.026386045
000140 2e 7f 0d 3c 47 32 6f bd 66 c7 81 bd 3f 4b 0f 3d
       0.008636279 -0.058397558 -0.0633686 0.03498387
000150 21 a9 22 3d 3d 13 a6 bc 23 08 74 bd 95 58 9b 3b
       0.039712075 -0.020272845 -0.059578072 0.0047407844
000160 d1 67 2d 3d 2d 39 33 bd b0 87 17 bb ff 31 9e 3b
       0.042335335 -0.0437557 -0.0023121648 0.0048277373
000170 f6 b1 24 3d c1 c3 be bc 45 12 a2 bd 89 b3 ce bd
       0.04020878 -0.023286702 -0.07913641 -0.10092837
000180 80 ef 2b bd 23 99 7a 3d f3 4c d4 3d 65 2e 4a bd
       -0.041976452 0.0611812 0.103662394 -0.04936065
000190 1f 6d 78 3d 4a b7 9f bc 6e f1 9a bd 14 d3 91 bd
       0.06065094 -0.019496579 -0.0756558 -0.07120338
0001a0 8f f7 0b 3c 4f a7 2a bd 1d 28 93 bd 7f 59 7d 3d
       0.008542909 -0.041663464 -0.071853854 0.06185293
0001b0 64 b5 84 bd 7b f9 b4 3c f9 df 95 bd 97 9d b6 bd
       -0.0647991 0.022091618 -0.0731811 -0.089167766
0001c0 af 4a 4e 3c 7a 45 38 3d e5 83 2d bd 93 2f 81 bd
       0.012591048 0.044988133 -0.042362113 -0.06307902
0001d0 9e b6 8b bd f8 09 b4 3d dd 28 85 bb 47 88 0c 3c
       -0.06821941 0.08790964 -0.004063709 0.008577413
0001e0 97 04 7e bd b7 d4 6f 3d c7 8a b6 bd 8f b2 44 3c
       -0.062016096 0.05855247 -0.089131884 0.012005462
0001f0 72 4b 5f bc 2e c8 c3 bd 69 d1 f9 3c 66 f5 a8 bd
       -0.013628827 -0.095596656 0.030495362 -0.08249931
000200 71 75 b5 3d cc 33 50 3c e9 c7 c7 bc ab 86 64 3b
       0.08860291 0.012707662 -0.024387317 0.0034870307
000210 6b 29 48 bc 31 a4 ea 3c 4e 94 18 3d 76 13 30 3d
       -0.012216906 0.028642746 0.03725081 0.04298731
000220 0d a5 3b bc db 44 bb ba 75 bf 9b 3b ad 60 15 bd
       -0.011452925 -0.0014287488 0.004753048 -0.03646915
000230 5d ee 94 3d 1c cb 00 3d ef dc 32 3d 75 2f 60 3d
       0.07272027 0.0314437 0.04366773 0.05473276
000240 f2 f5 7a 3d bf 9e a1 bc 0b cf 10 3d de 46 8e bc
       0.061269708 -0.019729016 0.0353537 -0.017367776
000250 37 d3 45 bd 8f 07 e2 bb 68 43 92 bb ab f2 41 3b
       -0.048297133 -0.0068978737 -0.004463602 0.0029594104
000260 21 f5 08 3d 76 39 3a 3d 15 12 5a 3d 13 4a b8 3d
       0.0334369 0.045464955 0.0532399 0.089985035
000270 37 3c 39 bc 3d c0 07 bd d1 27 88 3c 57 2f 7e bd
       -0.01130586 -0.033142317 0.016620548 -0.062056866
000280 9f 2d 0e 3b b4 c7 30 bd 89 87 a5 3d 6d 63 68 3d
       0.0021694673 -0.0431592 0.08082492 0.056735445
000290 af 74 05 bd 13 68 02 3d c0 7d 1d bd 7c e6 af bd
       -0.03258198 0.031837534 -0.038450003 -0.08588883
0002a0 84 e3 6c 3c fe 21 01 3d 1f 7d 6a bd e2 1a 40 bd
       0.014458541 0.031526558 -0.05724823 -0.046900637
0002b0 ac ad a8 3b dd c2 29 bd 96 74 80 3d fc cf 51 bd
       0.0051476564 -0.0414456 0.06272237 -0.05122374
0002c0 3e 88 2f bd d1 d1 92 bc 21 e5 c2 3c 5c 6c e6 3c
       -0.04285454 -0.017922314 0.023790898 0.028127842
0002d0 e3 43 7f 3d 87 63 53 bd 05 53 1b bc bc ea c3 3d
       0.0623206 -0.05160859 -0.009480243 0.095662564
0002e0 a8 d6 40 bd 59 cb 15 bd 1a c8 f5 bc ea f2 ad 3c
       -0.047079712 -0.03657088 -0.030002642 0.021233995
0002f0 80 e2 7e 3d 18 3e c1 bc a3 12 48 bd 79 65 0e bd
       0.062227726 -0.023589179 -0.0488459 -0.03476474
000300 be 5c f3 3c 3c fd 92 bd fe e5 5e bd 0f da 87 bb
       0.029707309 -0.07177207 -0.054418556 -0.0041458677
000310 17 a3 ab bd 03 6c 62 bc e9 1e a8 ba d0 d6 b4 3c
       -0.08380716 -0.013819697 -0.0012826595 0.022075087
000320 42 ba 7f bd b9 df 95 3b 00 64 db 3c d3 45 20 3c
       -0.06243349 0.004573789 0.026781082 0.009782272
000330 b0 99 3f bd be 0e 7b bd 2b 87 f4 3c 06 7a 0e bd
       -0.046777427 -0.061293356 0.02984961 -0.03478434
000340 05 9e 09 3d 74 99 61 bd 09 f7 11 bd bb d1 95 bb
       0.033597965 -0.055077985 -0.03563598 -0.004572121
000350 9e 6f 87 3b 40 75 b8 3a ea 47 b5 3c f2 67 ad bd
       0.004133179 0.0014073029 0.022129018 -0.084670916
000360 f0 8c b3 bc ae 90 b7 3d ec 00 86 bd 5d 09 45 bc
       -0.02191779 0.08963142 -0.065431446 -0.012026158
000370 e2 e9 d9 3b ef 2a 0d 3d 76 c2 33 bd ac 4e 15 bd
       0.0066501955 0.034464773 -0.043886624 -0.03645198
000380 1b 8f 52 3c 06 97 a3 3d c6 1f d1 3d c4 03 6e bb
       0.012851502 0.0798779 0.102111384 -0.0036318162
000390 d9 e2 c1 3d 33 e7 3d bd 61 d3 86 bc d0 24 5a bd
       0.09467096 -0.046363067 -0.016458215 -0.053257763
0003a0 ed a3 b8 3d e7 ab 0c 3d d1 7e 9c bc d8 75 98 3c
       0.09015641 0.034343626 -0.01910344 0.01861088
0003b0 ba 89 b7 bd f7 f4 ec bb 39 b9 1d bd 01 07 44 bd
       -0.08961816 -0.0072313505 -0.03850672 -0.047858242
0003c0 fa 1a 5a 3c e5 19 c6 bd 6b c9 91 bc ee 2c 84 3d
       0.013312096 -0.09672908 -0.017796239 0.06453882
0003d0 0f ee 69 bd 7a e1 06 bd 39 39 dc 3b 77 a7 c2 bd
       -0.057111796 -0.032929875 0.0067206887 -0.09504598
0003e0 5d 4a dc 3c 70 12 b9 bd bf ed ba bd 37 b0 67 3c
       0.026890928 -0.0903672 -0.09127378 0.014141134
0003f0 50 50 16 3d 42 98 05 3c 03 f5 1d bd eb 94 35 bc
       0.036697686 0.008153977 -0.03856374 -0.011082868
