fault_model_nn_allprior_22_33kv/best_Y2019.pt (torch, 929527 bytes, 15 tensors)

emb.weight f4 [219, 16]
000000 ee 81 c2 bc 6c 8e 6d bf b7 a5 30 3f a6 1e 3a bf
       -0.023743596 -0.92795444 0.6900286 -0.72703016
000010 81 27 85 3f 35 74 7a bf a8 55 9f be dd 4a 07 3e
       1.0402681 -0.9783357 -0.31120038 0.13212152
000020 91 38 b7 3f 14 fc 8e bd 09 1b 8b 3e 2d d3 6e 3f
       1.4314138 -0.06981674 0.27169064 0.9329098
000030 f6 cd 98 3d 9e 3e 70 3f 20 6a 80 bf 95 cc e7 3f
       0.07461159 0.93845546 -1.0032387 1.8109308
000040 17 30 07 bd b6 8b 19 3e 86 9b bf 3e 1e 0b 3e bf
       -0.033004846 0.14994702 0.37423342 -0.74235713
000050 be 71 8f 3f 68 fd 7f bf 26 48 df be ce 1b 99 bf
       1.1206586 -0.9999604 -0.43609732 -1.196161
000060 f6 f2 97 3f 5f 45 76 3f 7e 4f 51 3f 99 a8 79 3e
       1.1871021 0.961996 0.8176192 0.24380721
000070 45 93 e3 3e b0 9d 9e 3f 7c 10 41 3b 93 79 fd 3b
       0.44448295 1.2391872 0.0029459288 0.00773544
000080 c7 c0 89 3f 3e 36 0e 3f a0 bc 28 3f e5 d1 33 3e
       1.0761956 0.55551517 0.6591282 0.17560537
000090 57 f4 e8 3e 7d e0 9f 3f 2f 9c 2f be 96 32 07 be
       0.45498917 1.2490383 -0.17149423 -0.13202891
0000a0 b2 df f5 3e 92 b5 3d 3e 80 2f 8d bd 7f 5f dd 3c
       0.48022228 0.18526295 -0.068938255 0.027023075
0000b0 c0 67 da 3e c6 2c 8c bf a2 73 2c bf 74 85 21 40
       0.4265728 -1.0951164 -0.6736394 2.5237703
0000c0 a0 fe 8a bf db 57 5d bf 64 98 1b 3f 0c 80 de 3f
       -1.0858955 -0.8646218 0.60779405 1.7382827
0000d0 e4 31 1e 3f c0 a3 61 bf de 03 6f 3f cd dc a0 3f
       0.6179488 -0.8814049 0.93365276 1.2567383
0000e0 52 e0 27 c0 18 b0 b3 3f 93 0b b1 3f b9 bb 6c 3f
       -2.6230664 1.4038115 1.3831657 0.9247394
0000f0 6c cf 4f 3f 96 2f 9f bf e1 93 07 bf 99 cc 02 be
       0.81175876 -1.2436397 -0.5296002 -0.1277336
000100 16 f2 a5 3f 1d f7 27 3f 2f a5 7c 3e e2 e4 61 be
       1.2964504 0.6561144 0.24672388 -0.22059968
000110 16 d5 bc be e1 6f 7f bf 67 85 a4 be 20 fe 6d 3f
       -0.36881322 -0.9978009 -0.32133028 0.9296589
000120 00 5d fc bd 41 d9 17 be 8d 9b d0 3e 0b ee 03 bb
       -0.12322426 -0.1482897 0.40743676 -0.0020130898
000130 c2 47 91 bf ae 3f 03 c0 38 2a 33 bd ce 34 b1 3f
       -1.1350024 -2.0507617 -0.043741435 1.384424
000140 dc 0e 61 c0 cc 0f 55 bf 0b 30 3a bf a4 bf 21 be
       -3.516532 -0.8322723 -0.7272956 -0.15795761
000150 2b 51 c1 bf 31 5c 39 bf 17 3f 7e be 2b 22 9e 3f
       -1.5102895 -0.724063 -0.24828754 1.2354177
000160 dc 63 3a 3f 89 7a 27 bf 86 89 05 bf 6f 0a 06 3f
       0.72808623 -0.6542135 -0.5216297 0.5235967
000170 37 3a 49 bf e8 13 9c 3f 13 33 12 3f ca 5f 0e 3f
       -0.78604454 1.2193575 0.57109183 0.5561491
000180 ac 04 29 3f f1 42 6d bf a5 e3 de 3f aa af 73 bf
       0.66022754 -0.9268027 1.7413222 -0.9518992
000190 ca bd 45 bf 60 0b 02 3e 97 d9 a7 3e 6c c8 90 bf
       -0.7724272 0.12699652 0.32783195 -1.1311164
0001a0 fa 5c cc 3d 6e d3 81 3f a4 23 88 be 03 a0 15 40
       0.09978671 1.0142648 -0.26589692 2.3378913
0001b0 dd 5f 02 3e d7 37 1d 3f 07 2f ab be ad 15 09 bd
       0.12731881 0.6141333 -0.33434317 -0.033467937
0001c0 dc 9f f1 be 8f ea 60 3e 6a d0 9f 3e e5 7c 62 3f
       -0.47192276 0.21964477 0.31213695 0.88471824
0001d0 cc c7 29 3f e1 12 47 3f 22 b9 41 3e 55 f1 88 3e
       0.6632049 0.7776318 0.18918279 0.26746622
0001e0 0d ed 43 bd 4a d5 de bb dc fa 44 bf 37 6a 66 bf
       -0.04783349 -0.0068003284 -0.7694528 -0.9000582
0001f0 72 79 5c 3f 89 b5 64 bf 29 7f b1 bd ab 01 3b 3f
       0.8612281 -0.893395 -0.08666832 0.7304942
000200 17 10 d6 bd 3e ab 40 3f 6e 34 21 3c 15 8b c1 bf
       -0.10452288 0.75261295 0.00983916 -1.512057
000210 e7 49 ac bf 33 cd 21 c0 e5 b9 68 bf d5 37 05 c0
       -1.3460053 -2.5281494 -0.9090865 -2.0815327
000220 e9 79 61 3f 6b e2 2a 3e 5d 10 64 3e 87 5d c5 3e
       0.88076645 0.16687934 0.22271867 0.38547918
000230 a4 a0 19 bf ae 8e 31 bf 3c f8 06 40 db 70 99 bf
       -0.60010743 -0.69358337 2.108901 -1.1987566
000240 59 3d 04 3f c5 fe dc be 5e 16 00 3e d1 7c d9 3e
       0.5165611 -0.43163124 0.12508532 0.4247804
000250 79 89 3b be 94 45 2e 3f 08 a0 9c bf 82 f0 6c bf
       -0.1831416 0.6807492 -1.2236338 -0.92554486
000260 4e e0 17 3f 5e 80 35 bf 43 77 1d c0 1a 54 08 c0
       0.59326637 -0.70899 -2.4604042 -2.1301332
000270 1c ba 17 3f 4a eb 03 3f f0 a4 ee 3f 3f b3 49 bf
       0.59268355 0.515309 1.8644085 -0.7878913
000280 9d c4 91 3f 74 9f c8 bf 2f 68 85 bf cb 16 fd 3f
       1.1388127 -1.5673661 -1.0422419 1.9772581
000290 b9 95 94 be ab 35 01 3f d3 07 ec 3e 17 0d a3 3f
       -0.2902048 0.50472516 0.4609972 1.273837
0002a0 68 5b 8c bd 50 59 10 3f 41 10 86 be 8f 23 d3 3d
       -0.06853372 0.5638628 -0.26184276 0.10309517
0002b0 98 0c 94 3e bb e6 d6 bf 62 3c 6b bf ed f8 dc bd
       0.28915858 -1.6789163 -0.9188901 -0.10789666
0002c0 9f 5f ca bf ff 6b 7b 3f 4a 43 d2 3d ab b2 7d bd
       -1.5810431 0.98211664 0.102667406 -0.06193797
0002d0 55 c2 24 3f 45 a8 84 bf 5e d5 c1 3f 22 5c c6 3f
       0.6435903 -1.0363852 1.514324 1.5496867
0002e0 c2 9d 4b 3f da a5 16 be 1c 4d 7f 3f 10 22 15 3e
       0.79537594 -0.14711705 0.99727035 0.14563775
0002f0 95 0e 38 bf b1 7d cd bf 49 32 d7 bf 6a b4 c2 3e
       -0.7189725 -1.6053983 -1.6812221 0.3802827
000300 ab 4f e7 bf a4 e9 1c 3d 02 1a 81 3f 5a ac 97 be
       -1.8071188 0.038308755 1.0086062 -0.2962368
000310 63 e3 2e c0 1c 2e 58 bf 88 43 8d bf 8d a9 bb be
       -2.7326286 -0.8444536 -1.1036234 -0.36652794
000320 8d e6 0e c0 ac 1e 0e bb 2e a1 6a bf 48 c3 a4 bf
       -2.2328217 -0.0021685762 -0.9165219 -1.2872095
000330 5c f7 a9 be 3d 97 68 bf 45 21 95 3f 0e 67 a5 be
       -0.33196533 -0.9085577 1.1650778 -0.32305187
000340 78 1e 5e 3f 09 d8 33 3f fd 33 2f bf 45 a8 28 bf
       0.8676524 0.7025152 -0.684387 -0.6588176
000350 41 1f 27 bf e4 ee 0c 3f 0a 26 6b bf 49 62 8a 3d
       -0.65282065 0.5505202 -0.9185492 0.06757028
000360 a5 9a 12 be 88 70 2d 3e 63 1a fb bd 15 af fc 3d
       -0.14316805 0.16937459 -0.12260892 0.12338082
000370 18 69 b1 3f 68 6b 83 bf 3d b7 e2 be 68 f7 a9 3f
       1.3860197 -1.0267153 -0.44280425 1.3278627
000380 a0 44 87 3f 91 fd 9d 3f 1f fb 96 bd d7 0b a4 3f
       1.0567818 1.2343007 -0.07372116 1.2816113
000390 59 7c 54 3f 5d 02 1d 3e e6 8e cf 3e 16 55 3d bf
       0.8300224 0.15332933 0.4053871 -0.73957956
0003a0 d7 36 3c be b0 73 71 bf 0d 92 3a be 6f da c4 bd
       -0.18380295 -0.9431715 -0.18219776 -0.096119754
0003b0 fe 17 12 bf 47 b5 9a 3f 57 e3 a0 3e a7 ad 09 bf
       -0.5706786 1.2086571 0.31423447 -0.537806
0003c0 e7 6a c8 3f 42 67 cd 3f ab 1f a2 bf 8a 19 d6 be
       1.5657624 1.6047137 -1.2665914 -0.4181636
0003d0 5f b6 89 3d f3 c7 2a c0 39 e4 5e bf b7 ba 5d bf
       0.06724238 -2.668454 -0.8706699 -0.8661303
0003e0 8c c2 d9 3e 45 24 06 bf 10 aa 8c bf 84 c4 be 3e
       0.4253124 -0.5239909 -1.0989399 0.37259305
0003f0 41 19 c4 be 29 08 4d 3f 19 81 93 3e 90 b7 9a 3f
       -0.38300517 0.80090576 0.2880943 1.2087269

lstm.weight_ih_l0 f4 [512, 3]
000000 05 39 14 3d d9 fa 52 3d ed bb bb 3c 61 44 2e bd
       0.03618719 0.05150876 0.022916758 -0.04254568
000010 df 29 af bc 49 a9 5d bd 71 00 04 3b 15 69 b8 bd
       -0.02138227 -0.05411652 0.0020141865 -0.09004418
000020 35 98 b1 bc a2 41 71 bd ea 80 3c bd 06 6c 49 bd
       -0.021679023 -0.058900483 -0.04602138 -0.049175285
000030 fb b7 01 3d 47 1f 3d bd 5e 10 03 3c c9 1f bb 3d
       0.031669598 -0.046172407 0.007999508 0.09136922
000040 a2 5e 4b 3c 79 9c d4 3d cc 64 6f 3d 23 b4 81 bd
       0.012412699 0.10381407 0.058445737 -0.063331865
000050 c9 15 b5 bd 5d 78 30 bd 31 8d d9 3c 00 60 84 3c
       -0.08842046 -0.043083537 0.026556583 0.016159058
000060 f2 ac c5 3c 49 10 ab 3d 37 6e 8d bd 2c 6a 0b bd
       0.024130318 0.083527155 -0.069057874 -0.0340368
000070 ff 61 5e bd 85 c9 03 bd 51 c1 a6 bc bf 58 90 3c
       -0.054292675 -0.032174606 -0.020355852 0.017620442
000080 be 50 bc 3c cc bb b8 3d e8 17 98 bd 96 9a e4 bc
       0.02298772 0.090201944 -0.07426435 -0.027905744
000090 f0 91 a1 3d 50 66 c9 3d 55 bc 4a bc 46 85 14 bd
       0.078891635 0.09833968 -0.012374003 -0.036259912
0000a0 19 2d ca bb 76 e4 c4 3d a1 48 33 bd 9e 8f 0b bc
       -0.006169927 0.09613888 -0.043770436 -0.008518128
0000b0 f3 4f c4 3d 7a 58 8b 3d f4 b4 92 bc 7b b3 80 bc
       0.095855616 0.06803985 -0.01790855 -0.015710583
0000c0 20 4f e9 3c 74 a3 9a 3d 07 1b 12 bd ed 4a 72 3d
       0.028480113 0.075507075 -0.035670307 0.059153486
0000d0 7b e4 83 3c 0c ae 7f bd 88 a3 73 3c 74 e8 60 bc
       0.016100159 -0.062421843 0.014870532 -0.013727296
0000e0 08 a0 4c bc ac 58 b4 3d 62 95 a4 bd af d0 98 3d
       -0.012489326 0.08805975 -0.08036305 0.07461678
0000f0 c6 ab e0 3d 3e b4 98 bd 44 35 5d bd a3 9f f6 bc
       0.10970263 -0.074562535 -0.054005876 -0.030105418
000100 ed 91 b6 bb 59 63 b5 bd 8d db b2 ba 75 1e 8e 3c
       -0.005571595 -0.0885684 -0.0013645753 0.017348507
000110 5a 53 6f bd 00 67 54 bd 0e 6e d7 3c b6 93 0a 3d
       -0.0584291 -0.05185604 0.026297595 0.033832274
000120 d5 21 1c 3d 3c c3 7a 3c 73 8e 9c bd 11 ec 0b 3d
       0.038118202 0.015305337 -0.076443575 0.034160677
000130 d3 df 95 bc c6 63 eb bb cc fe 8a 3d 0d 26 33 bc
       -0.018295204 -0.007183525 0.0678688 -0.010934365
000140 83 fe d0 bc dc 05 f6 3c 20 81 ad bd b6 95 08 3d
       -0.025511986 0.03003209 -0.08471894 0.0333459
000150 37 7d 9c 3d 1b d9 50 3d bc dd a5 bc 1a e9 0b bd
       0.0764107 0.050988298 -0.020247333 -0.03415785
000160 dd 21 83 3d 4f c3 93 bc c7 45 b3 3d ec 63 a4 3d
       0.06402943 -0.018037466 0.08753543 0.08026871
000170 eb 15 b0 3c 78 ca 22 bc 29 a5 dd bd d7 44 58 3d
       0.021494826 -0.009935968 -0.108225174 0.052800026
000180 c5 d7 b6 3d 63 f8 c2 3c 60 c9 b2 3d e9 a4 6e bd
       0.089278735 0.02380008 0.087298155 -0.05826274
000190 4e 43 30 bd ca 74 cf 3c 03 bc d3 3c 57 54 09 bd
       -0.043032937 0.025324244 0.025846487 -0.0335277
0001a0 f2 f5 b0 bc 34 8f 88 3c 02 82 aa bd 74 8b 4f 3c
       -0.02160165 0.016669847 -0.08325578 0.012667526
0001b0 22 78 fb bc 27 dc a7 3c 17 33 12 bc 90 22 26 bd
       -0.030696932 0.020490719 -0.008923314 -0.040560305
0001c0 83 ad fe bc 53 24 8e bc e8 8e 8c bc ec de 10 3d
       -0.031088596 -0.017351305 -0.017157987 0.035368845
0001d0 26 59 7a 3d ae d0 29 bd 94 f8 cf bd 2c b4 59 bd
       0.061120175 -0.041458778 -0.101548344 -0.05315034
0001e0 9e 1d 8f 3d b2 f6 51 3d 9b 63 e1 3c 44 fa 99 3c
       0.06988071 0.051260658 0.027513316 0.018796094
0001f0 d8 52 8a 3d a7 09 c5 3b ae 68 b0 3c a6 ea 94 bc
       0.067540824 0.0060131135 0.02153429 -0.018178295
000200 4b 3c d1 3b 9a 9e ce 3c 99 82 82 3d 92 05 c6 3d
       0.0063853613 0.025222111 0.06372566 0.09669031
000210 16 8d 4a bd d7 6e 4b bc 6a fe 7d 3a 1d f1 86 bd
       -0.049450956 -0.012416563 0.0009689095 -0.065889575
000220 41 c1 41 bd 14 62 90 3c 9d 25 74 bd 93 5d ae 39
       -0.047303442 0.017624892 -0.059606183 0.00033257584
000230 1a 19 67 bc c4 f3 fe bb b0 41 60 3d aa 78 d3 bb
       -0.014105106 -0.007780524 0.054750144 -0.0064535933
000240 7d 2e c0 3d f5 d2 7c bd 81 0c 9c 3d 5a 90 90 3d
       0.09383867 -0.06172462 0.076195724 0.07058783
000250 65 09 4d bd 05 45 a0 bd 00 cc 6b bc 7d 96 ad 3c
       -0.050057787 -0.078256644 -0.014391899 0.021189922
000260 a4 f8 61 bd 3d f9 48 3d 1c cf 01 3d 82 df ed bc
       -0.055168763 0.049065817 0.031691656 -0.02903724
000270 1c 83 1b bc 34 1a 52 bd 35 64 7b 3d b6 86 52 3d
       -0.009491708 -0.05129452 0.06137486 0.051398
000280 53 0b 06 bc 3b 8a 45 bd 3d a8 3d 3d 6c b3 c1 bd
       -0.008181411 -0.04822753 0.046303023 -0.0945805
000290 1a 69 70 3b 03 e0 6c bc b9 2f a6 3a 76 82 31 3c
       0.003668374 -0.014457705 0.0012679017 0.010834327
0002a0 77 c5 3c 3d a5 d7 e9 3b 0c e0 71 3d f4 e5 76 3d
       0.046086755 0.0071363025 0.05905156 0.060277894
0002b0 b3 8f 23 3d b0 73 e0 bc 5c 26 c6 3c 71 3d 63 3c
       0.039931964 -0.027398914 0.024188213 0.013869629
0002c0 b1 17 85 3c c8 24 d4 b9 e6 87 95 bc 12 97 b1 bd
       0.016246649 -0.00040463195 -0.018253278 -0.086713925
0002d0 8a e2 42 3c ce 1e fd 3c eb 18 5a 3d ee 6e b4 3d
       0.011894831 0.030898478 0.05324642 0.08810221
0002e0 20 f6 fc 3c 05 e9 ad bc 5b 50 91 3d 5c 66 68 bd
       0.03087908 -0.021229276 0.07095405 -0.056738243
0002f0 56 98 8d 3b 28 8b 0e bd 42 71 82 bd 53 05 27 3c
       0.0043211384 -0.03480068 -0.063692585 0.0101941405
000300 37 22 df bc 80 dc 17 3d 0e e6 5a bd ac 30 12 bd
       -0.027237995 0.03707552 -0.053442053 -0.03569095
000310 1f 75 88 3d 22 a1 7d bd 83 9d 3c bd a4 e8 db bd
       0.06662964 -0.061921246 -0.046048652 -0.10737732
000320 0c 8a 66 3d 4a 3b a4 3c 3d 92 94 bd 00 a6 88 bd
       0.056283996 0.020047802 -0.07254455 -0.06672287
000330 1f 94 7b 3c ad 75 2e 3d c3 9d e4 3c f8 ac d6 bc
       0.015355139 0.042592693 0.027907258 -0.026205525
000340 70 e0 3d bd 0a bb 4e 3d 20 58 b1 bc cb 70 ff bc
       -0.04635662 0.050471343 -0.021648467 -0.031181714
000350 e5 32 7b 3d d3 3d 11 3c 33 32 22 3c c6 06 a5 3d
       0.061327834 0.008864838 0.009899664 0.080579326
000360 53 cd b7 bc 04 70 05 bd 21 10 cb bb 32 f0 75 3d
       -0.022436773 -0.03257753 -0.006196991 0.06004352
000370 79 9e d9 bb bd f6 d0 3c e1 82 74 bc 2d 8f 14 3d
       -0.006641206 0.025508279 -0.014923782 0.036269356
000380 14 99 84 bd 05 39 22 bd b2 d3 c5 bd 54 2e 56 bc
       -0.0647451 -0.03960516 -0.09659518 -0.013072569
000390 73 a8 74 3c 49 ab 78 3d 5f 72 0d bc c6 22 44 3d
       0.01493274 0.060710225 -0.008633225 0.047884725
0003a0 1d 3c 4e bc 48 b5 8a 3c 70 12 27 bd 62 0e 05 bb
       -0.012587574 0.016932145 -0.040789068 -0.0020302762
0003b0 f2 30 3e 3d e8 d6 5b 3d db 0a af bd 50 45 50 bd
       0.046433397 0.053671747 -0.085469924 -0.05084735
0003c0 45 f6 20 bd 47 70 d6 bc b5 3d 82 bd e8 45 3f 3d
       -0.03929736 -0.026176585 -0.06359426 0.046697527
0003d0 35 af 93 3d 7b 88 04 bd 0b ec c9 3c 75 da 2f bd
       0.072111525 -0.03235672 0.024648687 -0.042932946
0003e0 09 ac 5e 3c 45 ca 1e bd 46 b3 66 bc 3a de 20 bd
       0.013590821 -0.038767118 -0.014080828 -0.03927443
0003f0 57 be 71 3d 73 1b 89 3c f5 49 42 3d b9 44 85 bd
       0.059019413 0.016736722 0.047433812 -0.065072484

lstm.weight_hh_l0 f4 [512, 128]
000000 3d dc 14 3b 3b ae 4b 3b e2 4c a6 ba cd 05 3f 3c
       0.002271428 0.0031079191 -0.0012687708 0.011659098
000010 58 b4 44 bd c7 9f 94 3d b5 10 8f 3d 2b 74 8f bc
       -0.04802355 0.072570376 0.069856085 -0.017511448
000020 02 7f a5 b8 f2 55 39 bc e3 24 91 bd ef a0 ba bc
       -7.89147e-05 -0.011311995 -0.07087114 -0.022781817
000030 ae b2 43 bd fe b3 82 bd b8 a4 40 bd 70 96 a1 3c
       -0.047777824 -0.06381987 -0.047032088 0.019725055
000040 df d6 a6 3c 18 93 d5 3c 90 cf 63 bd 6e 17 51 3d
       0.02036613 0.026071116 -0.05561787 0.051047735
000050 2a d6 50 bd 20 12 49 bd 19 17 7b bd 68 3b 5c 3d
       -0.050985493 -0.04908955 -0.061301325 0.05376759
000060 4f 95 e6 bc 50 1b c5 bc bc 51 9a 3d 6b 39 a8 3d
       -0.028147368 -0.024060875 0.07535121 0.082140766
000070 3c f5 06 3d 58 c8 48 bd 50 43 a1 3d b4 b5 a7 3d
       0.032948717 -0.049019188 0.07874167 0.08188954
000080 a7 3f 46 bd 8c 35 ac 3d e9 7f 0d 3d 0b 04 b2 3d
       -0.048400547 0.08408651 0.034545813 0.086921774
000090 ff 32 51 bc 18 67 00 3d 25 ec 2e 3c f6 46 ab bc
       -0.012768506 0.031348318 0.010676418 -0.02090786
0000a0 34 84 8c 3c b1 93 64 bd 9d 5c c4 bd 39 77 9e bd
       0.017152883 -0.055804912 -0.09587977 -0.07737584
0000b0 3c db 54 3d 78 8d 22 3c 6d eb b6 bc f0 ed 10 bd
       0.05196689 0.009921424 -0.022329057 -0.035383165
0000c0 90 0e 3c 3d 94 f3 82 bd e1 e5 79 bd 8d c9 6d 3d
       0.045912325 -0.06394115 -0.061010245 0.058053542
0000d0 bf 23 c3 3c 9d cb 61 3d ca 83 1c bd 6a 71 80 3d
       0.023820756 0.05512582 -0.03821162 0.06271632
0000e0 4d cc a6 3d 4a e5 f0 bc 3b 7c af bd 39 db 5c 3d
       0.08144436 -0.029406209 -0.08568617 0.053920005
0000f0 ad 11 7e 3d fd 46 2d bc 91 1c 81 3d 7c 94 00 bb
       0.062028576 -0.010576007 0.06304277 -0.0019619754
000100 f6 4e ad 3d 21 a6 0d 3c 24 67 38 3d aa 13 7e bd
       0.08462326 0.008645565 0.045020238 -0.06203047
000110 7e 2d 2d 3c 89 bc 15 3c ea 02 b9 3d 8a 56 08 3d
       0.010569928 0.009139189 0.09033759 0.033285655
000120 9e 49 2e 3d c9 32 44 bd 14 97 31 3d 64 b7 34 bc
       0.042550676 -0.047899995 0.04335697 -0.011030052
000130 39 a5 b1 3d a5 81 c4 bd 85 12 f3 bc 26 17 69 bd
       0.08674092 -0.0959504 -0.029671917 -0.05690684
000140 e0 c5 32 3d 15 04 5d 3c a1 db ab 3c 9d 24 5a 3c
       0.04364574 0.013489743 0.02097875 0.013314393
000150 a0 d3 70 3d 38 c8 b1 3d fa 3f 20 3d b5 9e b2 3b
       0.05879557 0.08680767 0.039123513 0.0054510483
000160 77 69 82 3d 42 78 2a bd 12 f2 f8 bc c9 bc 3a bc
       0.06367772 -0.041618593 -0.030388866 -0.011397549
000170 96 56 c6 3d f7 29 36 bd 38 1f 18 bd 7c dd 6e 3d
       0.09684484 -0.044473615 -0.037139148 0.058316693
000180 c2 6f 3b 3d 95 5f be 3c 17 2b 16 bd 1b 76 64 3d
       0.045760877 0.023238936 -0.036662187 0.055776697
000190 7a 92 87 bd 45 9f 32 bd ae fe 66 bd 0e ab 47 bc
       -0.06619735 -0.043608923 -0.056395225 -0.012186779
0001a0 ee b5 a7 39 19 30 2f 3c bf 3e 7b 3d 19 5b 3a 3d
       0.0003198827 0.01069262 0.061339136 0.045497034
0001b0 84 23 1d bb 0e 46 6e 3a bf 13 8d bd cd a2 85 bd
       -0.0023977468 0.00090894185 -0.06888532 -0.065251924
0001c0 64 99 36 bd c4 9d 0f bd f1 ce 2d bd 68 fb 96 3d
       -0.04457988 -0.035062566 -0.042433683 0.07372171
0001d0 ef 6b b0 bd b1 cd dc bc b9 40 86 3d f9 64 f7 bc
       -0.08614337 -0.02695355 0.065553136 -0.030199515
0001e0 49 4c 9b bc d4 2d 59 bd fc ca 6d 3c 58 91 9f bb
       -0.018957274 -0.05302222 0.014513727 -0.0048696212
0001f0 2e e2 04 bd 7e fb c1 bd cb 35 1b bd 7e 58 92 bc
       -0.032442264 -0.094717965 -0.037893098 -0.017864462
000200 e4 4d 16 3d b1 93 75 3d 4e 39 2d bd 04 53 84 bd
       0.036695376 0.059955303 -0.042290978 -0.064611465
000210 83 0d ae bd 18 39 bf bc a4 33 aa 3d 1c c9 07 3d
       -0.08498671 -0.023342654 0.08310631 0.033150777
000220 96 1a 5c 3b 61 16 a5 bb 74 0d 82 3c c1 6b 87 3b
       0.0033585182 -0.005038068 0.015875556 0.0041327183
000230 cf 88 eb 3b ff 9b 9d bd fe 1c b0 3c 8d eb 7c bd
       0.0071879397 -0.076957695 0.0214982 -0.061748076
000240 ae c9 f6 bc ca b8 8b bd e4 e1 17 bd ab 40 2f 3c
       -0.030125465 -0.06822355 -0.03708066 0.01069657
000250 73 e2 cb 3c 93 4d 02 bc f0 6c 6d bd f7 a0 96 bd
       0.024888253 -0.007953065 -0.05796522 -0.0735492
000260 9b 24 89 bb db 7e 1d bd 64 a2 68 bd 18 a2 0a bc
       -0.004185272 -0.038451057 -0.056795493 -0.008461498
000270 99 f6 9c bd 5f be 4d 3d 70 5f 15 bd db 00 7f 3b
       -0.07664222 0.05023038 -0.03646797 0.0038910422
000280 74 3c 8b bd 71 fe eb bc e9 84 a2 3d b2 03 58 bd
       -0.0679864 -0.02880785 0.07935507 -0.0527379
000290 54 8a a8 bc 46 8d 86 bd 28 53 36 3c 37 f8 1d 3d
       -0.020573772 -0.065699145 0.011128224 0.038566794
0002a0 7f 1d b7 bc fa 84 94 bd 9f d7 34 bd e2 e6 5b bd
       -0.022352932 -0.07251926 -0.044150945 -0.053686984
0002b0 39 e5 e5 bc 67 ab 5a ba fd a3 3a 3c 02 d9 45 3b
       -0.028063403 -0.0008341581 0.011391637 0.0030189161
0002c0 c5 fe 91 bd 2b 20 6e bd a0 de 48 bd 0f e3 64 3d
       -0.071286716 -0.058136147 -0.049040437 0.055880602
0002d0 6c e1 50 3c 32 7a 9f bd 4b 4c 72 3d f0 93 98 39
       0.012749057 -0.07786979 0.05915479 0.0002910192
0002e0 50 2e c4 3c ab 70 32 3c 83 23 51 3d 4e 68 5c 3c
       0.023947865 0.01089112 0.051059257 0.013452603
0002f0 4c b8 97 bd 3f d1 3a bc a3 63 cd bc 59 10 13 3c
       -0.07408199 -0.011402427 -0.025071925 0.008976066
000300 13 cf 1c 3d d1 09 20 bd 10 48 58 bb 17 b3 6c bd
       0.03828342 -0.03907186 -0.0033001937 -0.05778798
000310 9f 64 d6 bc 04 56 8d 3d 8c 9d c9 bb 7d 61 89 3d
       -0.026171027 0.06901172 -0.0061528143 0.067080475
000320 7e 79 a1 3c 3d 74 9d 3d 07 7f fa 3a aa 12 c3 bc
       0.019711252 0.07688186 0.0019111343 -0.02381261
000330 69 7c 8b bc 9c fc 87 bd 74 6a 95 bd ea 0c ac 3c
       -0.017027097 -0.06639978 -0.07295695 0.021002252
000340 69 a0 85 bd e3 fe 85 3d da 9d 2d bd 12 a4 8e bc
       -0.065247364 0.065427564 -0.042386867 -0.01741222
000350 bb 1f 2c bd d0 d8 bc bc d5 cb 6d bc 5f 8d 1e bd
       -0.042022448 -0.023052603 -0.014513929 -0.03870904
000360 70 3b 60 bd 3e d9 5e bd 78 aa 9f bc 03 d4 98 bd
       -0.054744184 -0.054406397 -0.019490466 -0.07462313
000370 26 cd 95 bd bf e9 bc ba c7 cd 12 bd 77 c7 84 3d
       -0.073145196 -0.0014412923 -0.035840776 0.064833574
000380 0e e0 98 3c 18 9e 91 3d d1 4b 07 3d b5 4b e4 3c
       0.018661525 0.07110232 0.03303129 0.027868131
000390 66 d5 45 3c ca 65 2a 3d 41 55 07 3d a0 9d a5 bd
       0.012074804 0.04160098 0.03304029 -0.08086705
0003a0 14 d2 a7 bc 0a a0 2c bd 5f 51 3d bc 25 f1 1d bd
       -0.020485915 -0.042144813 -0.011555045 -0.03856005
0003b0 d2 57 eb bc 0b b4 78 bc 95 88 56 bd 7f dc 94 3d
       -0.0287284 -0.015179644 -0.05237635 0.07268619
0003c0 2c 5d 0c bd 6e cb bb 3c f5 99 68 bd 90 8f 4c 3c
       -0.034268543 0.022924151 -0.05678745 0.0124854
0003d0 8d 59 b1 bc 13 ce 06 bd 31 16 e9 bb 2b d9 32 bd
       -0.021649146 -0.03291137 -0.007113241 -0.04366414
0003e0 5c f2 84 3c 01 7e 7b 3d ce 54 2d 3d 01 97 9a b8
       0.016228847 0.061399464 0.042317204 -7.371419e-05
0003f0 36 b1 3e bc e6 33 63 3c b6 3a 2f bd 9e d4 45 bd
       -0.01163893 0.013867354 -0.0427806 -0.04829847

lstm.bias_ih_l0 f4 [512]
000000 16 ba 1c 3d ae ae e6 bc c2 ad 56 bd f1 c4 25 bd
       0.038263403 -0.028159466 -0.052411802 -0.04047102
000010 bf b6 a5 3d d3 fc 53 3d 1d 08 23 3d 1d c4 a1 3b
       0.08091497 0.051754784 0.03980266 0.0049367086
000020 61 a9 a7 3c 6f 48 8d bb 01 3d 18 3d 4d 1a 1e 3d
       0.020466508 -0.0043116133 0.037167553 0.0385993
000030 e0 d8 a7 3a 5c 91 e2 bc fb 25 11 3d db 2a aa 3c
       0.0012805723 -0.027657203 0.03543661 0.020772388
000040 44 31 9a bd cf f4 ca 3d d2 e3 65 3d 9a 95 f5 3c
       -0.07528928 0.09909975 0.05612547 0.029978562
000050 a4 a8 08 bb ab 3a c7 3d 5f 06 76 bd 7b 4c 65 3d
       -0.002085247 0.09727987 -0.06006467 0.05598114
000060 74 46 0b bd e1 16 bf 3d eb 0c c1 bb c5 cc 93 3d
       -0.034002736 0.09330536 -0.0058914325 0.07216791
000070 bb 36 6d 3b e8 13 bc 3d 5e 84 3f bd 8a 79 57 3b
       0.0036195952 0.09183484 -0.046757095 0.003287884
000080 e3 85 cb 3d fe b9 dd 3c 61 0a c0 3d af 1e 39 bd
       0.09937646 0.027066227 0.093769796 -0.045195278
000090 64 24 3f 3c 49 56 2e bd 7c d7 d2 3d 2a 4b b3 bc
       0.011666391 -0.042562757 0.10295007 -0.021886427
0000a0 8c fe 90 3d ad 68 ab 3d 9a 60 21 bd a6 a6 0a 3b
       0.07079801 0.08369575 -0.039398767 0.002115646
0000b0 8d 01 72 bd c0 27 f5 bc 90 80 ad 3d e7 af 7a 3d
       -0.05908351 -0.02992618 0.08471787 0.06120291
0000c0 78 44 b4 3d c3 06 62 3d 09 68 d5 3d fa f4 b8 bc
       0.08802122 0.05518223 0.10420234 -0.022577751
0000d0 98 30 4a 3c b3 96 10 bd 9a e0 99 3d c2 e9 7b bc
       0.012340687 -0.035299968 0.075135425 -0.015375556
0000e0 14 ac f8 bc f4 46 92 3c 49 7b b7 bc 8e 1f 9d 3c
       -0.03035549 0.017856099 -0.022397654 0.019180086
0000f0 f8 5a 06 3d f9 89 69 3c 5b 78 58 3d 62 f9 8c 3d
       0.0328016 0.014254087 0.052849155 0.068835035
000100 26 8a a3 bb e2 38 c7 3d ab ff 8c 3d 8f f2 f5 bc
       -0.004990834 0.097276464 0.06884702 -0.030022888
000110 40 79 61 bd 0a cd 17 3b 04 7f 05 3d f0 41 ae 3d
       -0.055047274 0.0023162984 0.032591835 0.0850867
000120 e1 30 8a bc cf cf 3a 3d ac c5 b9 3c b7 7b 36 bd
       -0.01686901 0.045608338 0.022677265 -0.044551577
000130 06 86 38 bd f6 b2 7f 3d 1c 49 60 bd 09 b1 c0 3c
       -0.04504969 0.06242653 -0.054757223 0.023521917
000140 84 e1 d2 3c 07 65 95 3d fc 38 6e 3a 74 9f c4 3d
       0.0257423 0.0729466 0.0009087471 0.09600726
000150 07 cd 55 3c 22 4d 58 3d c9 14 0a 3c 34 2e 30 3d
       0.013049371 0.052807935 0.008427807 0.043012813
000160 e0 fb 98 3d e6 8e da 3c 4f 13 ec bb 25 89 ad 3d
       0.07469916 0.026679467 -0.00720445 0.08473424
000170 9b 4f 96 3d 05 76 fe bc e7 db 84 3d 0e 2f 99 3c
       0.07339402 -0.031062135 0.064872555 0.018699195
000180 af 87 77 bd 88 64 88 bd c5 19 3d 3d 4f fd c4 3d
       -0.060432132 -0.066598 0.046167154 0.09618627
000190 8b 5b 70 b9 0f 93 b1 3d d0 82 87 bd 6f 27 5b 3d
       -0.00022922286 0.08670627 -0.066167474 0.053504404
0001a0 22 73 53 bc b7 03 50 3c 9a a0 b3 3c 6d a6 d9 3b
       -0.012905868 0.012696198 0.021927167 0.006642154
0001b0 f1 db 54 3d c2 c9 9f 3d 5d db 58 bd 69 a8 4e bc
       0.051967565 0.07802154 -0.052943576 -0.012613394
0001c0 e1 9d d2 bc 05 31 36 3d 03 40 fe 3c 26 1e fa 3c
       -0.025710048 0.044480342 0.031036383 0.030531954
0001d0 b7 fe b6 3d 31 0a 48 3d 99 e6 00 bc f0 7d 3d 3d
       0.08935302 0.048837844 -0.007867479 0.04626268
0001e0 72 0b 7c bc ca 8c 82 3d 0d b6 05 3d b2 27 8c 3c
       -0.015383588 0.0637451 0.03264432 0.017108772
0001f0 36 55 6d 3d 48 fd c9 ba 98 85 bf bc d2 7d 51 3c
       0.05794259 -0.0015410567 -0.023379132 0.012786346
000200 b5 38 52 bd 6e 35 78 3d 03 2f 25 bc 8a 66 16 bd
       -0.05132361 0.06059783 -0.010082009 -0.036718883
000210 7e 96 0d 3d 05 d4 8d 3c d0 5b a1 3c ea 85 bf 3d
       0.03456735 0.017313013 0.0196971 0.09351714
000220 9f 8c 33 3d ec 93 91 bd 52 bc b7 3c 2a 86 99 bc
       0.04383528 -0.07108292 0.022428665 -0.018740732
000230 a4 45 dc 3d 3a 9c 73 bd b9 e9 db 3c 87 7a af 3d
       0.107554704 -0.05947516 0.026844846 0.08568292
000240 13 97 52 3d 08 57 9c 3d 3a 10 33 3d 40 8a 72 bd
       0.051413607 0.076337874 0.043716647 -0.059213877
000250 bf f7 38 bd a6 97 8a bd a6 eb 27 bd 40 7a 24 3c
       -0.045158144 -0.06767206 -0.040996216 0.010038912
000260 93 b7 92 3d 11 b7 db 3d 3f 5b b1 3d 1c 45 2e bd
       0.0716392 0.107282765 0.08659982 -0.042546377
000270 ae 61 8a 3c af 66 24 bc 01 56 1f 3d 1a da ae 3d
       0.01689228 -0.010034247 0.03890038 0.08537693
000280 d8 cb 9e 3d 4a fd 3b bd 49 cc 8e 3d 6f d1 44 3d
       0.07753724 -0.045895852 0.06972558 0.048051294
000290 db 2a 78 bb e0 10 a0 bb 59 48 98 3d 52 8a a7 3d
       -0.003786734 -0.004884824 0.07435674 0.081806794
0002a0 ae fb 93 3d fc 64 75 bd 1c 82 88 bd 1b ad 91 bd
       0.072257385 -0.05991076 -0.066654414 -0.071130954
0002b0 82 a7 78 bc a9 b3 d6 3c b9 62 11 bd dc 10 84 3d
       -0.015176656 0.026208716 -0.03549454 0.06448528
0002c0 b6 c1 a7 3d dd 6c b5 3d ee a3 23 bd ca 07 58 3d
       0.08191244 0.08858655 -0.039951257 0.052741803
0002d0 00 6f 3b 3d 7e a5 44 3d 9c 31 b6 3c f0 2a 27 bd
       0.045760155 0.04800939 0.022240452 -0.040812433
0002e0 1c d8 47 3d ad 10 2c 3d 11 6c a8 bc 3d ac f6 3a
       0.048790082 0.04200809 -0.020559343 0.0018819642
0002f0 17 32 37 bd e6 dc a4 3d 0c 67 17 3d 57 37 b2 3d
       -0.044725504 0.080499455 0.036963508 0.087019615
000300 d6 88 9c bc b8 1f 85 bd a4 90 28 3d 8a 97 83 bd
       -0.019108217 -0.065001905 0.041153565 -0.06425388
000310 b7 2a d4 3d d0 20 06 bd 46 f1 70 bd 28 c5 db 3c
       0.1035971 -0.032746136 -0.058823846 0.02682741
000320 7f a0 33 bd ea 24 02 bd ba 70 d1 3c ec 08 b1 3d
       -0.043854233 -0.031773485 0.025566448 0.0864428
000330 58 33 ef bb 17 28 17 3d ed 6f 86 3d 76 e1 5e bd
       -0.007299822 0.036903467 0.06564317 -0.054414235
000340 51 fd 00 bd 63 1f d7 bc c0 e2 2b 3d 84 64 27 bd
       -0.03149158 -0.026260084 0.041964293 -0.040867344
000350 58 dc 83 bd 25 27 5e bd f4 53 48 3c 92 3b 03 3d
       -0.064385116 -0.05423655 0.012227047 0.032039233
000360 7d 2a 61 3d 7d c3 19 3b 99 1f aa bb 8b 04 e5 bb
       0.05497216 0.0023462467 -0.005191755 -0.006989067
000370 2d de 75 bd de d9 b0 3c 01 11 83 3d d7 e8 2b 3d
       -0.060026336 0.021588262 0.063997276 0.0419701
000380 15 35 70 3b af 38 7c bd 3a 0e 35 bc 91 98 63 bd
       0.0036652733 -0.061577495 -0.011050755 -0.05556542
000390 50 4c 2f 3d 52 9f 24 ba 2f 31 00 3c 2c 5e 92 3c
       0.042797387 -0.0006279844 0.007824226 0.01786717
0003a0 cb 0f 88 3d 28 df 2c 3d d4 23 1d bc a4 8c 9c 3c
       0.06643637 0.042205006 -0.009591062 0.019110031
0003b0 8c b5 af 3c b5 55 b9 3d ec cb 6c 3d 34 74 71 bd
       0.021448873 0.090495504 0.057811663 -0.05894871
0003c0 56 62 a5 3d 9b cf ab bc d3 ef a7 3d e9 6d f5 bc
       0.08075397 -0.020973017 0.0820004 -0.029959636
0003d0 a2 9c 2f 3d 86 e6 b8 3d ec cb 19 3d 34 b1 ae 3d
       0.042873986 0.09028344 0.03754799 0.085298926
0003e0 28 76 d8 3c 35 76 42 bd d1 9f b1 3d 33 66 8c bc
       0.026423529 -0.047476012 0.08673061 -0.017138576
0003f0 7a ed 0f 3d b0 f1 a3 ba 6c ef 84 3d d3 a6 a4 3d
       0.035138585 -0.0012507942 0.064909786 0.08039632

lstm.bias_hh_l0 f4 [512]
000000 87 ab 4d bd e6 cb a4 3c 38 fd 66 3d f3 b4 19 bd
       -0.05021241 0.020116758 0.056393832 -0.037526082
000010 41 95 a9 3d 08 81 70 bd bf a6 29 bd 27 7f 98 3d
       0.08280421 -0.058716804 -0.041418787 0.074461274
000020 31 cf a9 3d 98 e5 ee 3c 84 03 d9 bc 8f 83 13 3c
       0.08291472 0.029162213 -0.026490934 0.009003534
000030 ea 27 4f 3d ab dc 25 bd 36 56 c3 3d a1 94 ee 3a
       0.050575174 -0.04049365 0.09537928 0.0018202254
000040 f8 0c 54 bd 6f d4 77 bd c0 92 84 3d 37 cd 22 bc
       -0.05177018 -0.060505327 0.06473303 -0.009936622
000050 c7 64 a0 3d f3 f5 f4 bc c8 86 70 bd 24 72 66 3c
       0.07831722 -0.029902434 -0.058722287 0.014065299
000060 c6 29 48 bc f8 b8 be 3d 15 ce a1 3d 31 fd 5b bc
       -0.012216991 0.09312624 0.07900635 -0.013427065
000070 63 04 cd 3d b3 70 56 3d 3b c1 1e 3b c8 91 a9 3d
       0.10010602 0.052353572 0.002422406 0.08279759
000080 d4 cb 73 3d 15 10 5e bd 1a 2b 6b 3c ec 81 23 3d
       0.059520558 -0.054214556 0.014353538 0.039918825
000090 a2 bc 93 bd d3 4a 82 ba 6d 49 33 bd d4 02 cb 3c
       -0.07213713 -0.0009940512 -0.043771196 0.024781622
0000a0 09 6e 31 bd c3 7e c3 bc e1 72 8e 3d df 6d 45 3d
       -0.04331783 -0.023864156 0.06955505 0.048200484
0000b0 3f c3 7c bd 82 58 f9 3c 5d 12 e9 bc 48 ce b7 bd
       -0.06170964 0.030437712 -0.02845114 -0.08974892
0000c0 03 ac 3e 3d a2 2a c8 3d 14 95 17 bd ff 50 2a 3d
       0.046550762 0.097737566 -0.037007406 0.04158115
0000d0 22 89 d5 3c bf 94 50 3d 3f 62 81 3d 86 2b 7e 3c
       0.026066367 0.050923105 0.06317567 0.0155133065
0000e0 06 87 3f 3d 3d fb 9c 3d 9b 1d 47 bd 8c ef 01 3d
       0.046759628 0.076651074 -0.04861222 0.03172259
0000f0 ab 9c b0 3c 3a 8e 93 3b dd e5 fb bc 6d 99 7c bc
       0.02155908 0.0045030387 -0.030749256 -0.015417439
000100 c7 e5 94 3c 01 20 45 3d 21 ab bf 3d bc 64 d5 3d
       0.018175973 0.048126224 0.09358812 0.10419604
000110 c4 75 3b bd a0 ed 10 bd 28 cf 6e 3d 7c 35 28 bd
       -0.045766607 -0.035382867 0.05830303 -0.04106663
000120 06 f0 0b 3d a6 1e 65 bd c0 6b 5c 3d d9 f6 cc 3c
       0.03416445 -0.05593743 0.053813696 0.02502005
000130 e4 af 09 3d e0 ea 96 3b 0f ab 48 bd 28 8b 01 bd
       0.033615008 0.004605636 -0.04899126 -0.03162685
000140 8c 07 70 bd 26 74 54 bd 7c f3 25 bd 73 30 c2 3c
       -0.058600947 -0.05186858 -0.040515408 0.023704743
000150 43 46 27 3b 7d 4e ce bc 1d f1 95 3c b6 bb 22 bc
       0.0025524057 -0.02518391 0.018303448 -0.009932449
000160 96 59 cc bb 4e 55 97 3d d2 27 80 bd 6a c2 73 3d
       -0.0062362654 0.073893175 -0.06257595 0.05951158
000170 f2 1e f9 3c 90 21 dd 3d f1 68 4f 3d 25 e6 9c 3d
       0.030410264 0.10797417 0.05063719 0.07661084
000180 7c 2e 81 3d 3b 5a 56 bd 74 82 59 3d d3 02 1e 3d
       0.06307694 -0.052332144 0.053102925 0.038576912
000190 ef 40 8e bd c3 d1 a4 3d 2b 90 ca 3d a3 33 bd 3d
       -0.06945979 0.080478214 0.09890779 0.092383645
0001a0 a0 cd ab 3d 55 aa c6 3d 23 9a 8d 3d 9b 08 72 bd
       0.08388829 0.09700457 0.06914165 -0.059090238
0001b0 fb 8d 14 3d 3b 40 16 bd 0b 15 3f bd 43 b9 0c bc
       0.036268216 -0.03668235 -0.046650928 -0.008589092
0001c0 63 57 a4 3d a2 c4 c5 bc d8 e7 98 3d 8d 1e b0 3d
       0.0802448 -0.024141613 0.07466096 0.08599577
0001d0 b4 8d 01 bd 95 04 cf bc 7d af 23 3d ad 20 58 3d
       -0.03162928 -0.02527074 0.03996228 0.052765537
0001e0 23 b4 3a bd 21 54 33 bd df af 92 bd 09 df 91 3d
       -0.045581948 -0.043781403 -0.07162451 0.07122619
0001f0 e7 2a b1 3d a5 92 0b bd b1 c9 cc 3d 39 a5 82 3d
       0.08650761 -0.034075398 0.09999407 0.0637917
000200 a7 3f 9c 3d 60 ca 8e bd 85 19 7d bc 55 ba 19 bd
       0.07629328 -0.06972194 -0.015447979 -0.037531216
000210 06 0b 27 3d 22 03 6a 3d 5a d2 4c 3d 99 0d 3b bd
       0.040781997 0.057131894 0.050005294 -0.045667265
000220 7e fc 08 bd 6f aa 9d 3d f7 38 14 bd 8f 02 38 3d
       -0.03344392 0.07698523 -0.03618714 0.044924315
000230 32 e3 a3 3d b7 bb ea ba 3f eb 63 3d 9f 6d bc 3c
       0.080023184 -0.0017908727 0.05564427 0.02300149
000240 cf ed 85 bd cd 8e a4 3d 32 ce 7f bd e3 4d 8e 3d
       -0.06539499 0.080350496 -0.062452503 0.069484495
000250 e0 55 79 3d 88 38 ba 3c 7e 20 94 3c 45 69 60 bd
       0.060872912 0.022732034 0.0180819 -0.054787893
000260 b2 08 ca bc 1d 96 85 3d a1 12 34 bd 4f 0e 17 bb
       -0.02466235 0.065227725 -0.04396308 -0.00230493
000270 07 ef 05 3d a1 d2 40 3d ae a1 5b 3d 46 ab 5f 3d
       0.032698657 0.04707587 0.053620987 0.0546067
000280 7a 30 1e 3d ad 26 24 bd 5d 71 a6 3d 94 08 3b 3d
       0.03862045 -0.040075947 0.08127091 0.045662478
000290 bd 54 14 3b 5e 53 d6 bc e2 0e 30 3d 36 fa 19 bb
       0.0022633516 -0.0261628 0.042982943 -0.0023495085
0002a0 02 93 0d bc 56 19 d3 3b 56 ad 8e 3d 3a 87 31 3d
       -0.008641006 0.0064422293 0.06966655 0.043341853
0002b0 d6 1e f7 bc 1a a7 48 3d 09 30 0e 3d 2b eb 48 3d
       -0.03016607 0.048987485 0.03471378 0.0490524
0002c0 8c 23 88 3c f0 36 a7 3d be ac 2b bd 03 aa 21 bd
       0.016618513 0.08164775 -0.041912787 -0.039468776
0002d0 b2 f8 1e 3d f2 f4 48 bd df 51 6e bd 02 59 91 3d
       0.038811393 -0.049061723 -0.058183547 0.07097055
0002e0 35 2b cd 3d 69 5a ac bc 88 b3 ae 3c 09 de 84 3d
       0.10018007 -0.021039205 0.021325842 0.06487662
0002f0 cf 6b 7e 3d 91 17 b7 3d 97 cb 81 bb 9a 6e a8 3d
       0.062114533 0.08940042 -0.0039610374 0.082242206
000300 9c 6f 75 bd 68 99 29 3c 27 d0 d2 3d 21 de 90 3d
       -0.059920892 0.010351516 0.10293608 0.07073618
000310 1d 08 67 bd d3 ac ff 3c 54 ae 8c 3d fe 02 85 3d
       -0.05640422 0.031210339 0.06869188 0.06494711
000320 f2 cb 85 bd 6b 8b 23 bd bb 07 4c bd 50 fd 7d bd
       -0.0653304 -0.03992788 -0.04981206 -0.062009156
000330 ce 8d 39 bd a4 8b 87 3d 42 f6 25 bd 60 7e 19 bd
       -0.04530125 0.06618431 -0.040518053 -0.037474036
000340 16 f0 76 bc 00 2a 10 3d 7a d7 63 bd 23 5b b4 bc
       -0.015071889 0.035196304 -0.055625416 -0.022016114
000350 69 05 9f bc 67 32 a1 3d 3b c7 b1 bc 6a b4 80 bd
       -0.01941176 0.078709416 -0.021701446 -0.06284411
000360 ac 1d ce 3c e1 53 79 3b cd 07 5d bd 6d 13 66 bd
       0.025160633 0.003804438 -0.053962518 -0.05617087
000370 e0 29 8b 3d 4c c0 e4 3c 09 1d 47 bd d1 6a 60 3d
       0.067950964 0.027923726 -0.048611674 0.054789368
000380 f4 4d 36 bd 79 3f 5d bd ba 74 f2 3c 1a ff 2e 3d
       -0.044507936 -0.05401561 0.029596675 0.042723753
000390 89 a7 c1 3c 4c cb 09 bd 6a bc 39 bd 26 b8 5d 3d
       0.023639457 -0.033641145 -0.0453457 0.054130696
0003a0 1e da 69 3d 1d 98 03 bc ff db 83 bd 41 f6 6e 3d
       0.05709278 -0.008031872 -0.06438445 0.058340315
0003b0 a6 ed db 3c d5 46 13 bd ad f7 51 bc 4b 2e 45 3d
       0.026846718 -0.035956223 -0.012815398 0.04813985
0003c0 79 d9 a3 3d 19 d2 f9 bc 1c 15 bc 3d 02 0f 8c 3c
       0.08000464 -0.03049569 0.09183714 0.017097
0003d0 6d fa c7 3c c7 e8 bb 3d e1 42 63 bc 5d 1e 2f bd
       0.024411405 0.09175258 -0.013870926 -0.042753566
0003e0 5c 00 00 3d 2f 04 4a 3d e0 9c 9b 3d 66 77 79 bd
       0.031250343 0.049320396 0.07598281 -0.060904883
0003f0 45 2a 61 bc 46 73 b0 3d 47 52 10 bd 0c c2 9a 3d
       -0.013742988 0.08615737 -0.035234716 0.07556543

lstm.weight_ih_l1 f4 [512, 128]
000000 14 0f c0 bc 9c 17 98 3d 0c 49 9b bd 04 7c b5 3d
       -0.02344469 0.07426378 -0.07582292 0.08861545
000010 ca f6 7c bd fa 49 6c 3d 60 f7 b6 3d 07 40 52 bd
       -0.061758794 0.057687737 0.08933902 -0.051330592
000020 89 34 46 3d 6c 62 11 3d 1d 85 86 3b bd 4e 30 3c
       0.048389945 0.035494253 0.004105224 0.01076096
000030 f7 04 12 bd c1 58 ef 3b 19 11 dc bb bc da 26 3d
       -0.035649266 0.0073042815 -0.0067159054 0.040735945
000040 85 7e 95 bd ac 31 0a 3d b4 88 86 bd db 82 c2 3c
       -0.07299522 0.033738777 -0.06569043 0.023744037
000050 b4 63 05 bd 75 f8 9f bc 91 25 c5 3d 64 26 41 bc
       -0.032565787 -0.019527653 0.09626306 -0.011788938
000060 5b cd d5 3b 24 4a 39 bd 3b 89 91 3d 90 2a 97 bc
       0.0065247244 -0.04523672 0.07106253 -0.018452913
000070 7d 3f b2 3d 19 76 0a bd 78 ce 91 3d c7 b4 02 3d
       0.08703516 -0.033804033 0.07119459 0.031910684
000080 eb 01 1e bd 2a 3c b2 3d 07 d2 98 3c b0 82 33 bd
       -0.038576048 0.08702882 0.018654836 -0.043825805
000090 56 95 af 3c 65 81 7e bb 8c 78 6d 3c a4 b1 4e 3d
       0.021433514 -0.003883445 0.014494073 0.05046238
0000a0 f0 73 8f bc 27 40 4a bd bd 34 a5 bd 55 bd 9a bd
       -0.017511338 -0.049377587 -0.080667 -0.075556435
0000b0 6c f1 5a 3c 0c ba af 3d 0f 3d 5a bd a9 f9 1b bd
       0.0133632235 0.085804075 -0.053280886 -0.03807989
0000c0 62 55 86 3c 85 ce a9 3b b4 43 13 3d 3e 16 b8 3d
       0.016398136 0.0051820897 0.03595324 0.08988617
0000d0 45 07 68 bd 42 dd 0c 3d 9b 8f c4 bc fb eb 28 3c
       -0.056647558 0.034390695 -0.023994258 0.010310168
0000e0 b8 33 10 3d 0c 68 02 bd 3f e0 68 3d 0f e9 0f 3d
       0.035205573 -0.031837508 0.056854483 0.03513437
0000f0 93 e4 2b 3d e9 cf 5c bc 2c 57 1a bd 72 fc 74 3d
       0.041966032 -0.013477304 -0.03768079 0.059811063
000100 21 f6 88 bd 57 09 55 bd f7 ff 33 3d 69 4c 82 bd
       -0.0668757 -0.05201086 0.04394528 -0.0636223
000110 55 31 44 3d 01 5a 30 bc 14 45 93 3d 4c 84 45 3d
       0.04789861 -0.010763646 0.0719091 0.04822187
000120 72 b5 02 bd 47 cb a5 bd f1 c3 39 3d 4c fc b0 3b
       -0.03191132 -0.08095413 0.04535288 0.00540117
000130 22 4c 76 3d 08 d2 58 3d 48 22 2e bc ae e7 2b bd
       0.0601312 0.052934676 -0.0106282905 -0.041968994
000140 32 da 46 bd 3a a5 82 bd dc 6c 82 bd 7f 00 da bb
       -0.04854793 -0.06379171 -0.063684195 -0.006652891
000150 de af 84 bd 62 a0 7d 3d 1e 1d 97 3c d3 7e 89 bd
       -0.064788565 0.06192053 0.018446501 -0.06713643
000160 30 87 36 bd 9a 19 8b bd 1d b7 b6 bd c4 4f 80 bb
       -0.04456252 -0.067919925 -0.08921645 -0.003915759
000170 f4 0e 4b bd e1 ac dd 3c df 61 75 bd 7e 97 3c 3b
       -0.049574807 0.027059974 -0.05990779 0.002877682
000180 88 bb f4 3c 94 b2 c4 3c bf c0 7b bd 5e e5 8f 3d
       0.029874578 0.024010934 -0.061463114 0.0702617
000190 69 c0 8c bd aa 23 e7 3b 1d 81 2c 3d 52 49 a3 3d
       -0.06872637 0.007053812 0.04211532 0.07972969
0001a0 98 d0 b7 3c 47 67 51 3d 49 41 24 3d 43 0b d1 3c
       0.022438332 0.051123884 0.040101323 0.025518065
0001b0 4b 82 80 bd 48 ea 00 3d 60 f2 1d bd ec 1d 88 3d
       -0.062748514 0.031473428 -0.038561225 0.06646332
0001c0 45 b7 a0 3d bb 0d 1f 3b 87 08 a0 bc e3 3f c6 3b
       0.07847456 0.0024269659 -0.019535316 0.0060500964
0001d0 87 02 61 bd 86 2a 94 bd 3e 96 03 3d 99 6b 4d 3d
       -0.05493405 -0.07234673 0.032125704 0.05015144
0001e0 05 13 9b bd ee 04 57 3d 6b 74 80 3c 49 5d b2 bd
       -0.07571987 0.052494936 0.015680512 -0.08709199
0001f0 21 e9 3b bd cc e9 cc bd c8 82 23 3d f1 0f e3 bc
       -0.045876626 -0.10005531 0.039919645 -0.027717562
000200 15 26 1c 3d c2 3d 91 3c c4 48 25 3c 45 b3 70 bc
       0.038122255 0.017729644 0.010088149 -0.014691179
000210 36 39 84 bd f6 e2 4e 3d db fc 43 bd 54 72 f9 bb
       -0.064562246 0.050509416 -0.047848564 -0.007612506
000220 f9 3b 42 bd d3 15 d3 3c a3 b6 9a bd 2a 0e 54 bd
       -0.047420476 0.025767243 -0.075543664 -0.05177132
000230 3e 57 14 3d 31 54 4e 3d c4 47 74 3c e0 eb 80 3d
       0.036216013 0.05037326 0.014909688 0.062949896
000240 63 fd 48 3d 40 39 a9 bc bf b0 00 3d c6 e3 a9 3c
       0.049069773 -0.020657182 0.03141856 0.020738494
000250 29 cd 00 bd e3 8f 2b bc c5 37 46 3c 82 73 3d bd
       -0.031445656 -0.010471317 0.012098257 -0.046252735
000260 3d 1e 98 3b 8a 6b c1 bb 2c 25 96 3d f9 98 4d bd
       0.0046422766 -0.0059027122 0.07331309 -0.050194714
000270 0d f8 e2 bb 56 a2 c7 bc 86 4b 58 3d 44 02 9b 3d
       -0.0069265426 -0.0243694 0.0528064 0.075687915
000280 f4 50 87 bd 9e 94 11 bc f8 6e b7 bc 46 47 b9 3b
       -0.066072375 -0.008885531 -0.022391781 0.0056542484
000290 ae 0c 81 3c 7d 15 6f bc 8f a7 b9 bd 96 7a 5f bd
       0.015753116 -0.014592526 -0.090651624 -0.054560266
0002a0 38 35 50 bc 6c 0f 11 3d 83 6e c5 bc b0 28 3b bc
       -0.012708001 0.035415098 -0.024100548 -0.011423275
0002b0 31 46 85 3c 4b 50 78 3c 88 56 aa 3d 48 d2 6b bd
       0.016268821 0.015155862 0.08317286 -0.057573587
0002c0 0f 63 55 bd ad 78 76 bd 7e 23 9a 3d 4e 52 a3 3c
       -0.052096423 -0.06017368 0.07526301 0.019936707
0002d0 76 d5 2f bd bc 83 18 bd ce 3f 66 bc c4 94 f3 bc
       -0.04292818 -0.037235007 -0.014053298 -0.029734023
0002e0 c9 8c 0a 3d ba ae 56 3d b6 d9 18 bd fe b4 d3 3c
       0.03382567 0.052412726 -0.037317 0.02584314
0002f0 da bb e6 3c 5e 9a 1a 3d 55 0b 27 bd 8d 4e 62 bc
       0.028165746 0.037744872 -0.04078229 -0.013812673
000300 23 a8 92 3d 22 52 92 3b ce b5 79 bc a2 13 6f 3d
       0.07160976 0.0044653574 -0.0152410995 0.058368333
000310 40 6b b8 3c a3 c8 83 3d 62 c7 08 3d fe a4 ab 3c
       0.022512078 0.06434753 0.03339327 0.020952698
000320 53 dd 3d bc 62 56 73 bd 24 c5 71 3d d9 75 77 3d
       -0.011588412 -0.059408553 0.0590259 0.060415123
000330 1d b7 4c 3d 7b b3 4a 3c 3a a5 14 bd 5b 71 9a bd
       0.049979318 0.012371893 -0.036290385 -0.07541152
000340 d1 4b c3 3c 62 89 a3 3d 96 37 d7 3b 3e 81 a2 3d
       0.023839863 0.07985188 0.0065679057 0.07934807
000350 29 90 84 bd d7 19 f5 3c 5d c4 94 bd 95 13 87 bd
       -0.06472809 0.029919548 -0.07264016 -0.06595532
000360 fa d2 8b 3d 61 79 fb bb d8 c9 b4 bb c4 f8 65 3c
       0.0682735 -0.0076743816 -0.0055172257 0.014036361
000370 ff 1b d6 bc 2d 70 d9 3b 86 62 8c bd c3 f0 08 bd
       -0.026136396 0.006635687 -0.06854729 -0.033432733
000380 8f d4 16 3d b3 8f 88 3c 64 6e a5 bd 37 95 79 bc
       0.036823805 0.016670084 -0.08077696 -0.0152333295
000390 8c ac 27 3d df 97 71 bb 73 45 3e bd 5a 96 a9 3d
       0.040936038 -0.0036864204 -0.04645295 0.082806304
0003a0 36 3e 77 3d 18 07 b5 bc 87 a4 6a 3c b5 04 ea bc
       0.060362063 -0.02209811 0.014321453 -0.028566698
0003b0 4c 7c 9e bd cb 99 0b bd 35 b7 74 bd c4 da 79 bd
       -0.077385515 -0.034082215 -0.059745032 -0.060999647
0003c0 4e 1e b2 3c 37 bd f0 bc 2d ca dd 3c 26 7c 05 3d
       0.021742966 -0.0293871 0.027073944 0.0325891
0003d0 3e fd 81 bd 00 04 6d bd e9 38 3d 3c 74 7d 07 3d
       -0.0634713 -0.057865143 0.011549213 0.033078626
0003e0 c8 7f ed b8 b6 ef 8b 3d f1 c4 7f 3c 5c 0e 40 bd
       -0.00011324842 0.068328306 0.015610919 -0.046888694
0003f0 59 53 ad 3d c4 4e b0 bd 3b f8 1a 3d 50 ee 51 3d
       0.08463163 -0.08608773 0.037834387 0.051252663

lstm.weight_hh_l1 f4 [512, 128]
000000 c5 a0 52 bd 90 e8 58 bd 1d 9a 90 bd 9f 61 88 3c
       -0.051422853 -0.052956164 -0.07060645 0.016648112
000010 1b ad c6 bd 6c e2 ea 3b a9 a7 ce 3d d1 fe cc bd
       -0.09700986 0.007168105 0.100905724 -0.1000954
000020 22 e0 00 3d f5 1f b8 bc bf ec 8c 3d 48 e1 78 3c
       0.03146375 -0.022476176 0.06881093 0.01519043
000030 86 72 fd 3c f5 97 8e bc 2a 2f 88 3d 7e 6d 32 bc
       0.030938398 -0.017406443 0.06649621 -0.010890363
000040 74 48 88 bc 92 35 26 bd be 0c f4 3c e0 99 67 3d
       -0.01663611 -0.040578432 0.029791232 0.05654323
000050 9a c6 40 bd fa 9a aa 3d 3d ca d1 bc 8a 8c 98 3b
       -0.0470644 0.08330341 -0.02560913 0.0046554254
000060 df 7b 48 3d de 41 8b b8 b6 f1 62 bd b2 bf d3 3b
       0.048946258 -6.640305e-05 -0.055406295 0.006462061
000070 c3 97 82 3d d8 5e dc 3c dc 4d 82 bd 8f ac 9f bc
       0.063766025 0.026900694 -0.06362507 -0.019491462
000080 7f 00 70 bd d0 30 81 3d d2 60 93 bd ac c9 e4 bc
       -0.058594223 0.06308138 -0.071962014 -0.027928196
000090 91 e8 7c bd a3 34 87 bd 5f 49 d1 bc ae 5a ca 3b
       -0.06174523 -0.066018365 -0.025547681 0.0061753606
0000a0 48 cb 6d bd 54 6d b9 bc 7a e2 c0 3d 20 70 17 3d
       -0.058055192 -0.02263514 0.09418197 0.036972165
0000b0 ca 35 3b bc 9c 07 be 3c 4d b3 46 bd 7a 1e 73 bd
       -0.0114263985 0.023196988 -0.04851084 -0.059355237
0000c0 6c b1 13 bd 09 cd 5c bd 0b 66 ca 3b a2 0e 2a 3d
       -0.036057875 -0.053906474 0.0061767153 0.04151786
0000d0 0d 1f 96 3d d0 29 60 bd d5 d2 e5 3c ab 45 04 bc
       0.07330141 -0.054727376 0.028054634 -0.008073251
0000e0 fc 2c 08 3d 8b 9b ea bb e8 e9 da bc 26 3f d2 bd
       0.033246025 -0.0071596554 -0.026722863 -0.10265951
0000f0 b7 1d 53 bd fd c4 f4 3b 1a 19 2e 3d f8 58 85 bc
       -0.05154201 0.007469772 0.042504407 -0.016277775
000100 2e 07 84 3b fe 71 8c 3c 4c b2 8c bc ce 66 c3 bd
       0.004029176 0.0171442 -0.017174862 -0.09541093
000110 2b c7 e1 bc 9a 14 51 bc 93 89 9f bd 1b 2b 2b 3d
       -0.027560791 -0.012761259 -0.07789912 0.041789155
000120 29 30 9f bd aa d9 82 3d fd 69 33 3d bf 1e 1d 3d
       -0.07772858 0.063891724 0.04380225 0.0383594
000130 f3 84 7d 3c 22 fd 9d bd 1e e5 87 3c 2d b7 81 bd
       0.015473592 -0.07714297 0.016588744 -0.06333766
000140 cb 9b 8c 3d 80 07 a8 bd 18 3c a3 bd e1 7c 8e bd
       0.06865653 -0.082045555 -0.07970446 -0.069574125
000150 9f c9 69 3d f1 46 87 3c cf 77 a8 3d a0 9a 9f 3c
       0.057077046 0.01651332 0.08225977 0.01948291
000160 3a 03 5c 3d d5 2b 9c bd 3a 43 70 3d f5 fe 12 bc
       0.053714015 -0.07625548 0.058657862 -0.008971919
000170 22 39 37 3d 2a 2e f5 3c b9 61 d1 3c 1d ec 91 bc
       0.04473222 0.02992924 0.025559293 -0.017812783
000180 d9 d3 6d 3d 3f 07 15 3d 2e 5e a0 bd 01 5c aa 3d
       0.05806336 0.036383864 -0.07830463 0.083183296
000190 93 4e 3c 3d 74 98 79 3d 2a 02 01 bd 59 cb 48 3d
       0.04597337 0.060936406 -0.031496204 0.049022052
0001a0 b0 00 8a 3d 6b 6a 99 3d 66 ca 98 bd 9b 39 85 bd
       0.067384124 0.07491001 -0.074604794 -0.06505128
0001b0 70 20 f1 3c 17 c0 cc bd ae 29 39 3d 70 7c cf 3c
       0.029434413 -0.09997576 0.045205764 0.025327891
0001c0 b9 0c a2 3c 92 59 9b 3c f4 61 79 bd d3 e3 03 3d
       0.019781457 0.018963609 -0.06088443 0.032199692
0001d0 40 56 4d bc 69 ef a4 bd 8d 08 02 3d 01 e6 33 bd
       -0.012532771 -0.08053476 0.031746436 -0.04392052
0001e0 3b 56 59 bc 35 73 8b 3d ee 54 7d 3d 16 1d b0 bb
       -0.013265188 0.06809083 0.061848573 -0.005374561
0001f0 c2 f0 48 bd 07 95 94 3b e0 e8 00 3d 73 ba 17 3c
       -0.04905773 0.004534367 0.031472087 0.009260762
000200 21 45 cc bc 34 2c 4a 3d 65 eb d6 3c 6d b6 ed 3c
       -0.024935307 0.04935856 0.026235292 0.029017651
000210 cc a8 37 bc 91 c9 97 bc f1 17 67 3d 49 ab 0c 3c
       -0.011209678 -0.018528732 0.056419317 0.008585759
000220 4f bb ee bc b7 7d 70 bd 7a 70 15 bd 7e 3e 94 3d
       -0.02914205 -0.05871364 -0.03648422 0.07238482
000230 89 39 6f 3d 86 94 85 bd f4 d8 2a 3d c1 d7 b4 bd
       0.05840448 -0.06522469 0.04171081 -0.08830214
000240 6d 88 46 bd 90 56 7b bc 5f 35 10 bd bf 40 3c bd
       -0.04846995 -0.015340462 -0.03520715 -0.045960184
000250 32 f9 1e bd 5d 65 20 bb 30 ee 2b 3d 8e fa 93 bd
       -0.03881187 -0.002447448 0.0419752 -0.07225524
000260 45 2e 6e 3d 1c 5e 3c bc 46 ba 97 bb bc 2a b9 bd
       0.058149595 -0.011497047 -0.00463036 -0.09041354
000270 58 a5 1e 3d 92 58 b3 bd 29 0f bd 3c a0 66 1e 3d
       0.038731903 -0.08757128 0.023078518 0.03867209
000280 14 81 bc 3c 3f 01 82 bd 26 cd 61 bd b9 43 9a bd
       0.023010768 -0.06347894 -0.055127285 -0.07532448
000290 36 60 b8 3c 8c 10 ba 3c f8 e7 44 3d cc 89 82 bd
       0.022506814 0.022712968 0.048072785 -0.06373939
0002a0 35 a0 39 bc 38 6f 47 3b 9b 94 8b 3d 47 a3 7d 3d
       -0.0113297 0.0030431282 0.068154536 0.06192329
0002b0 36 37 4a 3c 08 18 c5 bc 27 3c b0 3d 8d d9 b4 3d
       0.012342265 -0.02405931 0.08605223 0.08830557
0002c0 d8 8c be bc f8 df 7e bd 50 41 1a bd 4b 51 fe 3c
       -0.023260519 -0.062225312 -0.037659943 0.031044623
0002d0 13 cc 9d bc 7d bc 61 bb 80 fb ab 3c cd 35 0a 3d
       -0.01926235 -0.0034444623 0.020993948 0.033742715
0002e0 7f b3 8c 3c 7e 37 90 bd 4e 91 ad 3c d1 4a 6a bb
       0.017175434 -0.07041834 0.02118745 -0.003575016
0002f0 0e c3 a9 bd 19 ba a6 bd cf 2f 1d 3c 7c 52 71 bc
       -0.08289157 -0.08140964 0.009593918 -0.014729138
000300 bb 55 a4 bd 9c ac 51 bd d9 4b 29 bd 1a 1c d0 3b
       -0.08024164 -0.051190004 -0.0413321 0.006351006
000310 57 59 36 3d 9f d2 77 bd cd 8a ea bc 1d 24 a5 bd
       0.044518795 -0.0605036 -0.028630638 -0.08063529
000320 30 9a b6 bd 12 38 84 3b 4b 06 93 bd 34 57 a4 bd
       -0.08916128 0.0040350044 -0.07178935 -0.08024445
000330 8e b8 dc 3c 7e a4 b0 bc eb fa 9e 3c ef d4 f0 bb
       0.026943471 -0.021562811 0.019406756 -0.0073496024
000340 73 43 ef bb f1 44 65 3d 3b 50 40 bd d3 73 3a bd
       -0.0073017417 0.05597395 -0.046951514 -0.045520615
000350 f1 a6 b9 bc e3 69 69 bc e5 c5 15 bd a9 24 0d 3d
       -0.022662612 -0.014246437 -0.03656568 0.03445879
000360 cd b5 78 3d c8 59 d0 bc 8c e3 34 3d 37 ce 87 bd
       0.060720254 -0.025433436 0.044162318 -0.06631129
000370 c1 8c 30 3d e4 10 54 3c 35 8a 1f bd 66 50 5a bc
       0.043102983 0.01294348 -0.038950164 -0.013324833
000380 68 ec 04 bd 52 40 95 3a 62 f3 0e bb 6f 38 f0 3c
       -0.032452017 0.0011386967 -0.0021812548 0.029323785
000390 b6 e6 00 3c 83 5d 8e 3c a8 5a 24 bc c4 ed 92 bd
       0.007867506 0.017378574 -0.01003138 -0.071742564
0003a0 da b2 d7 bc c5 39 18 bd 73 81 a9 bc c3 20 b6 bd
       -0.0263304 -0.03716447 -0.020691609 -0.088929676
0003b0 8d 44 b9 3d 35 84 63 bc 6a d9 24 3d e1 04 c0 3c
       0.09046278 -0.013886501 0.040246405 0.023439826
0003c0 d9 e8 bc 3d d0 81 b8 bd 71 d5 a7 bc 4c 88 6c bd
       0.092241 -0.09009135 -0.020487519 -0.05774717
0003d0 0b da 46 3d a6 c0 b4 bd 0e 73 d5 3c ed a6 85 bd
       0.048547786 -0.08825807 0.026055839 -0.06525979
0003e0 f6 71 e1 3c 3f 9c 56 bd e6 7e 81 3c 4e 90 99 bd
       0.027520161 -0.0523951 0.01580758 -0.07498227
0003f0 63 b4 95 3c 73 aa 8c 3d fa d1 85 bd ae 50 ba bd
       0.018274492 0.06868448 -0.065341905 -0.0909742
