fault_model_nn_allprior_22_33kv/best_Y2021.pt (torch, 929527 bytes, 15 tensors)

emb.weight f4 [219, 16]
-0.44567615 -0.4543872 -0.34211412 1.3151916 -0.55770004 -0.3340939 -0.81394655 -0.6708989
-0.0010456258 -0.6078918 -0.013191264 2.3109155 1.0695394 1.051452 1.060567 0.18412074
-0.45738336 -2.0601714 -1.7027832 -0.77136904 -1.5654359 0.76417094 1.8906645 -0.64064765
1.1122867 -0.4733083 -0.5522513 0.6506092 -1.6381114 -0.5785149 -0.025075486 -1.481229
0.48548436 -0.006411471 0.83062595 0.048648544 1.9885424 1.9521955 0.23586383 0.5215591
-1.4515125 -0.87033993 1.4070426 -0.8878724 0.66422564 -0.06924527 -0.8015517 1.5909147
0.65848255 1.5194106 0.56112576 0.5967925 -0.99289626 -1.447524 1.2176896 -0.15213668
-0.24260876 -0.45876497 0.8500282 1.4058499 0.9524255 0.14734365 -1.3471156 3.4642076
0.006535017 -0.18878198 1.7683792 0.73503035 1.5721276 -1.0815666 0.045540165 0.14703618
1.7345296 -0.73036665 0.589889 -1.7017944 2.4342172 0.690575 0.16120756 2.1792157
1.8837956 1.9361935 0.2564514 -0.6018361 -1.7749997 0.6628414 1.2984093 0.6991711
-1.245895 2.0718477 1.1469529 -1.2010676 -0.2671646 0.7303429 -0.19918399 1.891881
-1.2515955 1.8176708 -0.0153099615 -0.53366613 0.35718304 0.59718984 0.8696987 -1.2628837
-0.64670855 -0.09519548 -0.645558 -1.2783061 0.60839653 -1.4290432 0.61556107 -0.073860325
0.89462006 -0.41960642 -1.8828337 0.33869994 -0.7775931 0.5707221 -0.97601956 -0.6641242
0.072165504 1.6745813 -1.614458 -0.016612733 0.76484954 -0.2249112 -1.2637446 -0.11315134
0.30353686 0.060042236 1.7391907 0.6144908 -1.8253164 0.44114769 1.0612159 -0.25687835
1.289048 0.49490958 0.34486857 -0.23103373 -0.5979495 0.04331084 -0.18806516 0.35101062
1.0360742 -1.2013868 0.08567128 0.7694106 -0.6971514 -0.35926422 -0.1554612 -1.7923118
-0.72583926 -0.0045315167 -2.4514365 -0.39807567 -0.1936919 0.38121873 -0.0793945 1.9294013
1.2634193 -1.3980293 0.01453256 -1.2067881 1.2975388 -0.5072511 0.5640582 -0.26343894
1.1418705 0.7013458 0.9848874 -0.09229887 -0.45774248 -1.0285176 0.23100719 0.8675058
-0.87386984 2.1497068 -0.2260579 1.409864 -0.33138663 -2.3637226 0.4030402 -0.1041631
0.41730627 1.6854237 1.0282047 -0.21857831 0.10901653 0.61302054 1.8436825 0.1508154
1.154241 -0.53053075 -0.37251702 -0.082638815 0.13540323 -0.44010797 -1.6878554 2.0185895
-0.22851487 -0.4941946 1.2201152 1.0648876 0.30445626 0.7451004 0.4232123 -1.0107955
0.16134806 0.55477643 -0.094619855 -1.1823422 -0.64363813 -0.09213001 -0.3334252 1.589175
-0.9440735 -0.8446596 1.8717129 0.20509176 0.9237717 0.31050974 0.5371931 0.37502754
-0.46742696 0.27842554 -0.46413323 -0.8137677 0.2273275 -1.7655867 -0.7555461 1.062359
-0.7318837 -0.5796978 -0.49543387 0.9199494 0.5450454 0.81328994 1.3331257 -0.6150801
1.0113864 -0.6835538 0.3989841 -0.5194468 0.20769301 0.34112975 -2.0482154 0.4681908
-1.4985863 0.0660096 -0.08191409 0.51838773 -1.8320128 0.43196905 -0.7649037 -0.23476526
00000000: aa2f e4be 70a5 e8be 9529 afbe 3358 a83f
00000010: 6ec5 0ebf 5b0e abbe cd5e 50bf 08c0 2bbf
00000020: 610d 89ba cc9e 1bbf 2c20 58bc 0ae6 1340
00000030: abe6 883f fb95 863f a9c0 873f 268a 3c3e
00000040: 272e eabe d9d9 03c0 cdf4 d9bf 7178 45bf
00000050: 3460 c8bf b5a0 433f 4b01 f23f 7c01 24bf
00000060: 695f 8e3f 7755 f2be 5760 0dbf 538e 263f
00000070: a2ad d1bf 8d19 14bf 1b6b cdbc e998 bdbf
00000080: 6891 f83e 5117 d2bb e7a3 543f b243 473d
00000090: 8f88 fe3f 8be1 f93f 4a86 713e e684 053f
000000a0: 29cb b9bf 99ce 5ebf f919 b43f 9b4b 63bf
000000b0: b10a 2a3f 77d0 8dbd 7e32 4dbf 18a3 cb3f
000000c0: 5092 283f 0c7c c23f f0a5 0f3f 65c7 183f
000000d0: 732e 7ebf 7748 b9bf 41dd 9b3f b8c9 1bbe
000000e0: 6e6e 78be 3ee3 eabe 739b 593f e4f2 b33f
000000f0: 28d2 733f 41e1 163e 496e acbf 94b5 5d40
00000100: b223 d63b 1050 41be 405a e23f f32a 3c3f
00000110: 7a3b c93f c670 8abf 5388 3a3d a790 163e
00000120: 1105 de3f 4ff9 3abf f702 173f 66d4 d9bf
00000130: 37ca 1b40 86c9 303f 9813 253e 4578 0b40
00000140: 3720 f13f 30d5 f73f 994d 833e ee11 1abf
00000150: 3133 e3bf f9af 293f 4732 a63f e1fc 323f
00000160: 7d79 9fbf 2799 0440 5acf 923f 95bc 99bf
00000170: ccc9 88be c1f7 3a3f e3f6 4bbe 2829 f23f
00000180: 4834 a0bf 70a9 e83f a2d6 7abc 589e 08bf
00000190: b2e0 b63e 6fe1 183f 93a4 5e3f 2ca6 a1bf
000001a0: b18e 25bf d9f5 c2bd 4a43 25bf 899f a3bf
000001b0: e0bf 1b3f e3ea b6bf 6995 1d3f 1544 97bd
000001c0: d205 653f a7d6 d6be b200 f1bf 146a ad3e
000001d0: 5710 47bf d81a 123f 6bdc 79bf 0b04 2abf
000001e0: 82cb 933d ae58 d63f 8fa6 cebf 6d17 88bc
000001f0: 2ecd 433f 1f4f 66be 62c2 a1bf e4bb e7bd
00000200: 2f69 9b3e d9ee 753d cd9d de3f 454f 1d3f
00000210: f8a3 e9bf 1cde e13e ecd5 873f 8f85 83be
00000220: 86ff a43f ca64 fd3e 9d92 b03e 1b94 6cbe
00000230: 3813 19bf b566 313d 2794 40be aab7 b33e
00000240: 149e 843f 0bc7 99bf 6d74 af3d 18f8 443f
00000250: 8478 32bf 7bf1 b7be 3931 1fbe 796a e5bf
00000260: 9ad0 39bf 1e7d 94bb 56e4 1cc0 93d0 cbbe
00000270: 2b57 46be 1a2f c33e 9599 a2bd 9ff6 f63f
00000280: b9b7 a13f a0f2 b2bf f919 6e3c 0878 9abf
00000290: c015 a63f 35db 01bf 1e66 103f 78e1 86be
000002a0: d028 923f 668b 333f 9521 7c3f 3107 bdbd
000002b0: 395d eabe 77a6 83bf 268d 6c3e dc14 5e3f
000002c0: efb5 5fbf cc94 0940 b97b 67be 6c76 b43f
000002d0: 82ab a9be 3b47 17c0 495b ce3e 7753 d5bd
000002e0: 2ba9 d53e f7bb d73f 369c 833f fed2 5fbe
000002f0: 0f44 df3d eaee 1c3f cafd eb3f 5a6f 1a3e
00000300: 2bbe 933f ddd0 07bf 8dba bebe 8a3e a9bd
00000310: 25a7 0a3e d555 e1be a50b d8bf 9230 0140
00000320: cdff 69be 1307 fdbe bc2c 9c3f 3d4e 883f
00000330: b1e1 9b3e e6be 3e3f 48af d83e bf61 81bf
00000340: 6d38 253e d405 0e3f 0ec8 c1bd fd56 97bf
00000350: 78c5 24bf a9ae bcbd b5b6 aabe 166a cb3f
00000360: cdae 71bf 9d3b 58bf 4a94 ef3f 9303 523e
00000370: 4d7c 6c3f 22fb 9e3e 7d85 093f 9c03 c03e
00000380: 9652 efbe cb8d 8e3e dfa2 edbe 1453 50bf
00000390: 8ac8 683e bffe e1bf 786b 41bf 61fb 873f
000003a0: bb5c 3bbf 1367 14bf 82a9 fdbe ce81 6b3f
000003b0: 1888 0b3f c533 503f dda3 aa3f e475 1dbf
000003c0: 1c75 813f 62fd 2ebf a547 cc3e 77fa 04bf
000003d0: 7aad 543e 8fa8 ae3e f615 03c0 b4b6 ef3e
000003e0: add1 bfbf 0b30 873d 93c2 a7bd 0fb5 043f
000003f0: 657f eabf 0c2b dd3e bbd0 43bf 4e66 70be

lstm.weight_ih_l0 f4 [512, 3]
0.002716316 -0.025855059 -0.014763461 -0.029112905 -0.035984762 0.043337323 -0.029969865 0.015124612
0.061622296 0.020367831 -0.054462913 0.09219844 -0.0019756216 -0.08786259 0.036179893 0.015396377
0.048765358 0.04520584 0.059501097 -0.041228816 -0.01725737 0.06637713 -0.005263244 0.03563359
-0.011206361 0.03816482 0.0015114193 0.019271672 -0.0025098596 0.05142904 0.041448772 0.052178744
-0.05687164 0.036429666 -0.042925794 -0.01773566 0.061119843 0.058250304 -0.031827025 -0.0020303577
0.047462028 0.055215456 0.03576393 -0.03949394 -0.0948088 0.008795364 0.011268502 0.0315829
-0.010687324 0.03553179 0.04602762 0.079986446 -0.029214885 -0.04391545 0.010065692 0.005832066
-0.035541594 0.021867657 -0.017689556 0.0026946522 0.06274789 0.050875198 0.064706005 0.05462495
0.05448061 0.0017614162 0.03316255 -0.020523982 -0.074692786 0.04697243 -0.034924965 0.08240149
0.067138374 -0.1031019 0.008387488 0.069751956 -0.08584717 -0.04078406 -0.0008100237 0.031103931
0.03172499 0.060573593 -0.10588653 -0.09375482 -0.04802328 -0.10765364 -0.0062969383 0.0025384554
0.007958039 0.007813311 -0.069025576 0.07522784 -0.0011057509 0.04708089 0.048623346 0.04591157
-0.031391375 0.053985566 0.037024435 0.041779 -0.028457105 -0.008791975 0.028145352 -0.0049942834
-0.0112001635 0.029383007 -0.06757019 -0.041451544 -0.04008194 -0.08017889 -0.06682505 -0.029069154
-0.030234572 -0.047761545 0.051881827 0.037299596 -0.078118004 0.027041413 0.08575918 -0.04232524
-0.055262096 0.001055021 -0.08364777 0.03069527 -0.03611344 -0.062125202 -0.07147272 -0.00027789688
0.074142426 0.044349372 0.029495494 0.06586136 0.0023292718 -0.03997136 0.031880096 -0.039300792
0.042162802 -0.08422509 0.060467754 0.07964118 -0.09826769 0.009608551 -0.06665685 0.02772478
0.033530418 0.031519026 0.08003462 -0.04030678 -0.057991594 0.06301693 -0.056223176 -0.03202956
-0.07736827 0.025490833 -0.027101314 0.07681118 -0.00999035 -0.0055455593 0.037291195 0.02018749
-0.06550113 -0.008782625 -0.02298975 0.068059385 -0.07882089 0.048874352 0.0054574357 0.10096084
-0.041652814 -0.09057899 0.053221293 0.038066763 -0.016546285 -0.038781412 -0.063886575 -0.044522826
0.00081230473 -0.006790033 0.058048587 0.009625375 0.05082512 0.04486617 0.06648892 0.051268943
0.020036519 0.0033001353 0.012589177 -0.04107477 0.04501716 0.049973212 -0.014110516 0.010218527
0.05095859 -0.06238762 0.11120926 0.007072588 -0.0388591 -0.08877485 -0.06826738 -0.006003295
0.035311095 0.100422524 0.048172105 0.007846373 0.034979127 0.008518292 -0.014720099 -0.024926644
0.06329365 0.06540293 -0.06129671 0.05521567 0.0016637072 -0.039843485 -0.03348307 -0.015816335
0.0827844 0.0027358963 0.0800923 -0.046357587 0.08635262 -0.08711074 0.032207165 0.030956509
-0.053891223 0.029221032 -0.046341944 -0.025614798 -0.010556215 -0.04604222 -0.051940292 0.01086938
-0.009721216 -0.053734202 0.08379766 -0.035516035 0.079193614 -0.03360636 0.014251627 -0.08031601
-0.041224368 0.014428411 -0.017036833 -0.036374006 0.0070273653 -0.06478246 -0.062337294 -0.094960414
0.010303647 -0.053330984 -0.047279082 0.086252235 -0.07618668 -0.020779632 0.05730406 -0.054815575
00000000: 3804 323b fdcd d3bc 72e2 71bc 307e eebc
00000010: c264 13bd 7a82 313d 5d83 f5bc 38cd 773c
00000020: a967 7c3d 70da a63c 8114 5fbd 89d2 bc3d
00000030: 6e79 01bb 4df1 b3bd 5e31 143d 1641 7c3c
00000040: 2fbe 473d c229 393d 6cb7 733d 8cdf 28bd
00000050: 545f 8dbc bcf0 873d 4a77 acbb 87f4 113d
00000060: e39a 37bc b752 1c3d d11a c63a a0df 9d3c
00000070: 757c 24bb 42a7 523d 30c6 293d 61b9 553d
00000080: 3df2 68bd 4637 153d f5d2 2fbd 604a 91bc
00000090: cd58 7a3d df97 6e3d 0e5d 02bd c00f 05bb
000000a0: 8b67 423d 9a29 623d 337d 123d 66c4 21bd
000000b0: 1e2b c2bd 6e1a 103c 869f 383c 125d 013d
000000c0: e319 2fbc c889 113d 7587 3c3d efcf a33d
000000d0: 0e54 efbc b0e0 33bd 92ea 243c ea1a bf3b
000000e0: 1094 11bd cd23 b33c b0e9 90bc c398 303b
000000f0: f781 803d 8362 503d 9584 843d 69be 5f3d
00000100: 0f27 5f3d 52df e63a 74d5 073d e921 a8bc
00000110: 88f8 98bd 2a66 403d 7b0d 0fbd 1dc2 a83d
00000120: d87f 893d 1727 d3bd ad6b 093c 1dda 8e3d
00000130: a4d0 afbd 300d 27bd c557 54ba accd fe3c
00000140: 10f2 013d 041c 783d 09db d8bd 8702 c0bd
00000150: 0fb4 44bd 8379 dcbd 8c56 cebb 375c 263b
00000160: 6f62 023c 6703 003c 485d 8dbd 0e11 9a3d
00000170: d8ee 90ba e4d7 403d 4629 473d c50d 3c3d
00000180: 3e94 00bd f81f 5d3d efa6 173d 7520 2b3d
00000190: e01e e9bc 370c 10bc 1591 e63c 16a7 a3bb
000001a0: e480 37bc a2b4 f03c 3d62 8abd 18c9 29bd
000001b0: f62c 24bd d434 a4bd 92db 88bd 6f22 eebc
000001c0: 7eae f7bc 9ca1 43bd 0a82 543d 76c7 183d
000001d0: 55fc 9fbd f485 dd3c 82a2 af3d 3b5d 2dbd
000001e0: 825a 62bd a148 8a3a 864f abbd a674 fb3c
000001f0: b0eb 13bd ff76 7ebd 4a60 92bd b0b2 91b9
00000200: fcd7 973d b0a7 353d 89a0 f13c 52e2 863d
00000210: b2a6 183b 02b9 23bd b494 023d def9 20bd
00000220: e7b2 2c3d 347e acbd 09ad 773d ea1a a33d
00000230: 9240 c9bd 2f6d 1d3c 6383 88bd 141f e33c
00000240: 3157 093d 181a 013d 31e9 a33d b918 25bd
00000250: 9888 6dbd 050f 813d 464a 66bd 6e31 03bd
00000260: 4173 9ebd 27d2 d03c 9303 debc 2e4f 9d3d
00000270: 91ae 23bc 86b7 b5bb a7be 183d 3c60 a53c
00000280: 7525 86bd 00e5 0fbc 0055 bcbc b862 8b3d
00000290: d96c a1bd 7930 483d 4ad4 b23b 8fc4 ce3d
000002a0: 249c 2abd 7a81 b9bd 92fe 593d e5eb 1b3d
000002b0: 138c 87bc 42d9 1ebd f7d6 82bd 915d 36bd
000002c0: d9f0 543a ed7e debb 5bc4 6d3d c0b3 1d3c
000002d0: 002e 503d 97c5 373d 582b 883d 62ff 513d
000002e0: a023 a43c 1547 583b d642 4e3c 053e 28bd
000002f0: ea63 383d b6b0 4c3d cb2f 67bc 9c6b 273c
00000300: f4b9 503d 298a 7fbd aec1 e33d 2bc1 e73b
00000310: b82a 1fbd 97cf b5bd c5cf 8bbd 4ab7 c4bb
00000320: 5ea2 103d 53aa cd3d 1d50 453d 138e 003c
00000330: 4646 0f3d 4e90 0b3c 922c 71bc f632 ccbc
00000340: 1aa0 813d f9f1 853d 4212 7bbd d429 623d
00000350: c010 da3a ec32 23bd 8b25 09bd 4291 81bc
00000360: de8a a93d b94c 333b 6f07 a43d 74e1 3dbd
00000370: a4d9 b03d 1e67 b2bd a9eb 033d 8198 fd3c
00000380: 0bbd 5cbd f260 ef3c 0dd1 3dbd 20d6 d1bc
00000390: faf3 2cbc c496 3cbd 58bf 54bd 7c15 323c
000003a0: bc45 1fbc 6518 5cbd 1c9e ab3d 4379 11bd
000003b0: 4330 a23d d3a6 09bd a87f 693c b87c a4bd
000003c0: e2da 28bd 2465 6c3c d490 8bbc e9fc 14bd
000003d0: d045 e63b abac 84bd 6455 7fbd 9b7a c2bd
000003e0: a1d0 283c 9771 5abd b6a7 41bd 03a5 b03d
000003f0: c307 9cbd 0c3a aabc a9b7 6a3d 4c86 60bd

lstm.weight_hh_l0 f4 [512, 128]
-0.026974667 0.037332337 0.042811755 -0.014568075 0.029316097 0.043734096 0.007314352 0.07448699
0.0052776625 0.06629075 -0.027389968 -0.02592994 0.018386422 0.053700056 -0.008061407 -0.032953512
0.0097567905 0.010864436 0.039583318 -0.07220295 -0.022879684 -0.061348446 0.017287454 -0.0048707933
-0.026510853 0.014649167 -0.04461083 0.07712244 0.02338049 0.009946036 -0.010489161 -0.05636424
0.03891546 0.019209774 0.07131758 0.0023862368 0.040198706 -0.011996168 0.02274702 -0.049790535
-0.08019415 0.049614344 -0.020200042 0.06562553 -0.06501481 -0.010572119 -0.019098287 -0.014579079
-0.052461833 -0.056360684 0.04983729 0.031456202 0.017545255 0.015732326 0.03200114 -0.047926284
-0.05003793 -0.0058415444 -0.035893228 0.07577992 0.036938433 -0.03039555 -0.009334805 -0.050512657
0.009324728 -0.045287315 -0.059619006 0.003947386 -0.019848825 0.005424396 -0.018688325 0.06250251
-0.021848915 0.009197697 -0.004570655 -0.04015403 0.0361891 -0.05558852 0.0041043586 0.045209754
0.05150081 -0.0043711513 -0.006021907 -0.06175335 0.038745116 0.052760217 -0.035171974 0.058220495
-0.033722203 -0.029363124 0.0051477654 0.0052094464 0.0037504085 -0.0548864 0.04053246 -0.026432281
0.006392452 -0.06029589 -0.040737994 0.026673822 0.003943952 -0.07079392 0.03056817 -0.060890198
0.03840203 0.020301329 -0.031592596 0.006107938 0.023483854 0.043826528 -0.0469581 0.036302883
-0.0043235007 -0.017404651 -0.07967781 0.02370095 0.014911489 -0.047179542 0.024625346 -0.027281811
-0.0467014 -0.011059622 0.062074833 0.021117138 0.013284046 -0.008410583 0.016270358 -0.057964712
-0.039446056 -0.026817966 -0.033299983 0.030533291 0.04879088 0.05043935 -0.07036711 0.039959278
-0.051892094 -0.028245991 -0.013390467 0.037453476 0.034986295 -0.04177832 -0.042231753 -0.016416078
-0.08756437 -0.064103946 0.0686367 -0.024058994 -0.015153941 -0.05529716 -0.018132227 0.042872433
-0.060175415 0.00028021034 0.04998007 0.014815908 0.04780476 -0.018884132 -0.01827735 0.063108236
-0.04585539 -0.01755963 0.002924869 -0.0072854385 -0.06310011 0.060183372 -0.06868878 -0.006017962
-0.06335147 -0.047707956 -0.041690115 -0.04283919 -0.008682326 0.06232324 0.05310842 -0.01341782
-0.066911675 0.0013049617 0.004504138 0.04235431 0.071708865 0.05483662 -0.07830539 -0.023778286
0.05759332 -0.03444173 -0.03602274 0.0237306 0.017099673 -0.013220276 -0.062643155 0.049435657
0.0023199813 -0.04529695 0.068634 0.029595248 0.055792812 0.006872785 0.07377311 0.04620544
-0.034001853 0.05822109 -0.03586262 0.06117252 0.020887766 -0.060540557 0.0005362259 -0.0005811729
0.036002535 0.033995222 0.07210222 0.06302932 -0.03385702 0.030922422 0.0413187 0.04904233
0.042816542 0.089663535 0.027246011 -0.024192806 0.025271602 0.05638593 0.0558489 -0.02736176
-0.029352684 -0.021408105 0.0030287004 -0.025809247 -0.037512995 -0.033838462 0.0056623723 0.025723167
0.0013290544 -0.051628515 -0.051927805 -0.0018730203 0.0109574925 0.0025953834 -0.0138846915 -0.08970333
0.05234878 -0.061569367 -0.047339197 0.039791934 -0.054347888 0.05949102 0.0117399795 0.046823863
0.025106266 0.0698561 0.030634498 0.077934474 0.045589726 0.037771497 -0.01876047 0.036583178
00000000: faf9 dcbc cbe9 183d 615b 2f3d efae 6ebc
00000010: 5028 f03c 8622 333d 3bad ef3b a38c 983d
00000020: 3ef0 ac3b 72c3 873d ed60 e0bc 076b d4bc
00000030: 1f9f 963c 97f4 5b3d fe13 04bc 43fa 06bd
00000040: f2da 1f3c bf00 323c 1e22 223d 24df 93bd
00000050: 2d6e bbbc 8248 7bbd 6b9e 8d3c 2d9b 9fbb
00000060: 4a2d d9bc 0f03 703c d8b9 36bd 5ff2 9d3d
00000070: 7188 bf3c b3f4 223c bbda 2bbc 30de 66bd
00000080: d165 1f3d d15d 9d3c f40e 923d 6962 1c3b
00000090: 66a7 243d 938b 44bc f557 ba3c 29f1 4bbd
000000a0: d53c a4bd 6938 4b3d 8f7a a5bc ae66 863d
000000b0: 7c26 85bd ae36 2dbc 0374 9cbc 17dd 6ebc
000000c0: 38e2 56bd 76da 66bd 3022 4c3d 38d8 003d
000000d0: 11bb 8f3c 14e1 803c a113 033d 5a4e 44bd
000000e0: 93f4 4cbd 6d6a bfbb c704 13bd 8132 9b3d
000000f0: c14c 173d 1700 f9bc 03f1 18bc 5ce6 4ebd
00000100: bec6 183c 317f 39bd 0f33 74bd 1359 813b
00000110: 019a a2bc 22bf b13b 4218 99bc 5101 803d
00000120: 7ffc b2bc f0b1 163c 6fc5 95bb 8d78 24bd
00000130: 063b 143d cab0 63bd db7d 863b dd2d 393d
00000140: 83f2 523d e03b 8fbb 6b53 c5bb 15f1 7cbd
00000150: 33b3 1e3d 191b 583d 7d10 10bd 9d78 6e3d
00000160: 4b20 0abd ef8a f0bc 96ae a83b 01b4 aa3b
00000170: 6ac9 753b 90d0 60bd 5d05 263d 8388 d8bc
00000180: c677 d13b d3f8 76bd e2dc 26bd 0f83 da3c
00000190: 443c 813b 67fc 90bd 196a fa3c 0068 79bd
000001a0: 724b 1d3d f94e a63c 3d67 01bd 1925 c83b
000001b0: 3661 c03c 7283 333d 2357 40bd 55b2 143d
000001c0: 27ac 8dbb 3394 8ebc 1f2e a3bd 7f28 c23c
000001d0: 514f 743c 563f 41bd 18bb c93c 1b7e dfbc
000001e0: f849 3fbd 6b33 35bc 2e42 7e3d d9fd ac3c
000001f0: 54a5 593c 8bcc 09bc 6a49 853c 686c 6dbd
00000200: 3092 21bd 5ab1 dbbc 9065 08bd f420 fa3c
00000210: f2d8 473d 7e99 4e3d a21c 90bd 57ac 233d
00000220: ce8c 54bd 2364 e7bc b063 5bbc d168 193d
00000230: ca4d 0f3d be1f 2bbd 34fb 2cbd 037b 86bc
00000240: f354 b3bd ee48 83bd 6691 8c3d 5e17 c5bc
00000250: 3c48 78bc 467f 62bd 098a 94bc 019b 2f3d
00000260: 7f7a 76bd 32e9 9239 e7b7 4c3d 6cbe 723c
00000270: edce 433d e5b2 9abc 62ba 95bc e43e 813d
00000280: ddd2 3bbd 37d9 8fbc 29af 3f3b b0ba eebb
00000290: a13a 81bd d782 763d b4ac 8cbd 5332 c5bb
000002a0: 6abe 81bd 6b69 43bd 41c3 2abd 2678 2fbd
000002b0: 5140 0ebc a746 7f3d 3788 593d 6bd6 5bbc
000002c0: fd08 89bd 400b ab3a 7397 933b b77b 2d3d
000002d0: 19dc 923d 5d9c 603d 945e a0bd aeca c2bc
000002e0: f9e6 6b3d c512 0dbd 958c 13bd ad66 c23c
000002f0: 9d14 8c3c db99 58bc 0e4b 80bd 0b7d 4a3d
00000300: d40a 183b 4b89 39bd fc8f 8c3d bc71 f23c
00000310: 0187 643d 1935 e13b 5b16 973d ea41 3d3d
00000320: 8745 0bbd 3d79 6e3d afe4 12bd 0990 7a3d
00000330: d21c ab3c 60f9 77bd 8391 0c3a da59 18ba
00000340: 6577 133d 933e 0b3d 54aa 933d 8415 813d
00000350: a9ad 0abd 0551 fd3c cc3d 293d 9ce0 483d
00000360: 6660 2f3d 84a1 b73d 0733 df3c fe2f c6bc
00000370: 6406 cf3c eff4 663d d1c1 643d c525 e0bc
00000380: 0a75 f0bc 0d60 afbc 297d 463b ea6d d3bc
00000390: 3aa7 19bd 339a 0abd 6c8b b93b 64b9 d23c
000003a0: aa33 ae3a 6c78 53bd 40b2 54bd 2280 f5ba
000003b0: 0e87 333c 4f17 2a3b 9e7c 63bc 61b6 b7bd
000003c0: ad6b 563d 2930 7cbd bfe6 41bd defc 223d
000003d0: e49b 5ebd dbac 733d 0b59 403c 61ca 3f3d
000003e0: a8ab cd3c b710 8f3d 33f5 fa3c 1c9c 9f3d
000003f0: 4bbc 3a3d 49b6 1a3d 8faf 99bc 3ed8 153d

lstm.bias_ih_l0 f4 [512]
-0.047276076 0.07253946 -0.026100812 0.018798243 0.090598285 -0.0070485086 0.015829394 -0.03336197
0.056223866 -0.022644944 0.021817863 0.07565017 0.08483528 0.0679844 -0.0061865663 -0.005937711
0.06478411 0.000511696 0.101425245 0.094251215 -0.003537874 -0.025861943 -0.057255685 0.032824136
-0.045541253 0.028870646 -0.03493616 0.08807918 0.007619377 0.02992916 0.052328974 0.082705595
0.044654068 0.02671888 0.041902345 0.05122618 0.049838014 0.050317578 -0.056628846 0.075242795
0.017863724 -0.011283961 0.08678702 -0.018497778 -0.0466631 0.017438607 0.09004474 0.016854357
0.039882377 -0.01027758 -0.02854034 -0.056203194 0.001128158 -0.032552224 0.0491391 0.09010377
0.08585589 -0.011493988 0.007492397 -0.014097297 0.030238789 -0.04024142 -0.002299481 -0.022448651
0.038824376 0.00048860535 -0.028233958 0.00942312 0.040123142 -0.06429683 -0.033043616 0.016080532
0.061789796 0.0050924313 -0.0026562132 0.013381601 -0.069425315 -0.041774947 -0.017427841 0.038970225
-0.047588736 -0.021639217 0.08412269 -0.06339656 -0.049597472 0.058012426 0.041805957 -0.024583071
0.01641254 -0.023231559 0.022568988 0.051769685 -0.0032601135 -0.06247515 0.110582665 -0.0031495024
0.07292005 0.076367654 -0.043933667 -0.0053669047 -0.03583437 -0.048588242 -0.09412231 0.09746301
-0.004491642 0.03580384 0.0549667 -0.06482665 -0.042153303 0.058772437 -0.0026389647 0.01875243
0.052430462 0.032078892 0.09631178 -0.04227418 0.017815752 0.045963593 0.08452589 0.03926116
0.059238076 -0.00615149 0.06366502 0.08011161 -0.034974936 -0.01933832 0.07416989 -0.028497616
-0.036407765 -0.04689247 0.053919654 0.047568414 0.082807496 -0.01724951 -0.038386125 0.01600769
0.05815923 0.081345916 0.012024712 -0.019745814 0.003348254 -0.019436225 -0.02773153 -0.046987038
0.100649565 -0.02935265 0.07933202 0.005531374 0.053771988 -0.0047703143 -0.038299657 0.071513206
0.072073415 -0.045739744 0.015557615 0.063757084 0.056021474 -0.016757978 -0.052058417 -0.010413412
0.032476418 -0.0633508 0.019798191 -0.05026038 -0.064084135 0.065652855 -0.06917688 -0.08764851
0.050566234 0.03605304 0.056933243 0.07772482 0.06658822 -0.07236307 0.08790143 0.061099604
0.023877451 0.0036221477 0.044414703 -0.04083105 -0.034926552 -0.0055574123 0.06663171 0.1078015
0.06545698 0.087082826 -0.011865664 -0.07564214 0.019716242 0.045197733 -0.04721448 0.01616171
-0.032101747 -0.07642823 0.08280002 0.012904619 0.048871927 0.04137934 0.04790016 -0.06736323
0.09191202 0.003115339 -0.058857005 -0.03409453 -0.009369535 0.015192273 0.09920697 -0.04156355
0.011344014 0.058447488 0.078762665 0.058587212 0.025994616 0.0052964413 0.07621589 0.08148144
0.0068764756 -0.0065700454 0.013101218 -0.008269549 -0.083123 -0.0582495 0.007657657 0.07508269
-0.031643454 0.07441175 0.08450415 -0.08734785 0.074182756 0.035917908 -0.08769036 0.07808392
-0.013950327 0.06597763 0.014400903 0.025389198 -0.019435432 0.023644414 -0.0029792602 -0.045975346
-0.011824795 0.05186725 -0.042110074 0.068939514 -0.05207743 0.08249002 0.004728248 -0.062268246
0.07935766 -0.013744778 -0.04062651 -0.014153696 0.023843016 0.09366313 0.052169763 -0.04303138
00000000: 8fa4 41bd 928f 943d 5fd1 d5bc c6fe 993c
00000010: 988b b93d 2df7 e6bb a5ac 813c 90a6 08bd
00000020: ff4a 663d e481 b9bc 60bb b23c 7aee 9a3d
00000030: 1fbe ad3d 683b 8b3d aeb8 cabb 2191 c2bb
00000040: 88ad 843d 5623 063a 0ab8 cf3d c806 c13d
00000050: addb 67bb 6ddc d3bc f084 6abd 9a72 063d
00000060: 7789 3abd 2282 ec3c 3819 0fbd db62 b43d
00000070: f8ab f93b ff2d f53c e856 563d 8d61 a93d
00000080: 2fe7 363d 8de1 da3c cba1 2b3d 8bd2 513d
00000090: f222 4c3d ce19 4e3d a6f3 67bd e518 9a3d
000000a0: f256 923c 5de0 38bc 65bd b13d a788 97bc
000000b0: cf21 3fbd 69db 8e3c 6069 b83d 2612 8a3c
000000c0: b45b 233d 4b63 28bc 6ecd e9bc 5235 66bd
000000d0: b3de 933a 7b55 05bd 1546 493d 5388 b83d
000000e0: 36d5 af3d 4851 3cbc c882 f53b 59f8 66bc
000000f0: 56b7 f73c 30d4 24bd e4b2 16bb 3ce6 b7bc
00000100: 4f06 1f3d c015 003a e74a e7bc 6e63 1a3c
00000110: 2a58 243d 0eae 83bd be58 07bd 52bb 833c
00000120: 4c17 7d3d 69de a63b dd13 2ebb 813e 5b3c
00000130: dc2e 8ebd 351c 2bbd d5c4 8ebc 3e9f 1f3d
00000140: 68ec 42bd ba44 b1bc 8448 ac3d 0ed6 81bd
00000150: b826 4bbd 709e 6d3d b93c 2b3d 7062 c9bc
00000160: 9773 863c 1c50 bebc 99e2 b83c 730c 543d
00000170: a1a7 55bb f1e5 7fbd 2a79 e23d e267 4ebb
00000180: 1b57 953d a566 9c3d caf3 33bd dcdc afbb
00000190: 0fc7 12bd 7704 47bd 33c3 c0bd b09a c73d
000001a0: a02e 93bb 0ca7 123d c324 613d d6c3 84bd
000001b0: f1a8 2cbd 5ebb 703d 7bf2 2cbb b29e 993c
000001c0: 53c1 563d 2865 033d 1c3f c53d b127 2dbd
000001d0: 57f2 913c 5244 3c3d e91b ad3d 4fd0 203d
000001e0: a0a3 723d 7092 c9bb ce62 823d 8e11 a43d
000001f0: e141 0fbd 656b 9ebc 62e6 973d d573 e9bc
00000200: 4f20 15bd 5212 40bd dbda 5c3d 19d7 423d
00000210: fa96 a93d d84e 8dbc c53a 1dbd 8f22 833c
00000220: 5f38 6e3d b098 a63d 4c03 453c f9c1 a1bc
00000230: 616e 5b3b b838 9fbc 3c2d e3bc 7b75 40bd
00000240: 5c21 ce3d f874 f0bc d378 a23d 8740 b53b
00000250: 0440 5c3d 4c50 9cbb 1ae0 1cbd 8475 923d
00000260: 3a9b 933d 9959 3bbd 5ee5 7e3c 1393 823d
00000270: c676 653d 0748 89bc 353b 55bd 049d 2abc
00000280: fe05 053d 10be 81bd d12f a23c d4dd 4dbd
00000290: 8b3e 83bd 0175 863d 9cac 8dbd 1081 b3bd
000002a0: 8a1e 4f3d 5aac 133d d532 693d 312e 9f3d
000002b0: 685f 883d 1733 94bd aa05 b43d 9443 7a3d
000002c0: a59a c33c 8e61 6d3b 31ec 353d 763e 27bd
000002d0: 250f 0fbd f41a b6bb 3576 883d 08c7 dc3d
000002e0: 4f0e 863d 7b58 b23d 3468 42bc 44ea 9abd
000002f0: f583 a13c 4221 393d f863 41bd 9065 843c
00000300: 1f7d 03bd 6786 9cbd 0f93 a93d e56d 533c
00000310: ee2d 483d 627d 293d f532 443d bcf5 89bd
00000320: 5f3c bc3d b72a 4c3b 0b14 71bd b5a6 0bbd
00000330: ae82 19bc 03e9 783c 062d cb3d 8a3e 2abd
00000340: 3edc 393c a266 6f3d 524e a13d 25f9 6f3d
00000350: a9f2 d43c c58d ad3b 1417 9c3d bedf a63d
00000360: 0f54 e13b 8949 d7bb 7ea6 563c 017d 07bc
00000370: 643c aabd 0797 6ebd 15ed fa3b f4c4 993d
00000380: 919c 01bd 3065 983d 8310 ad3d 6ee3 b2bd
00000390: 21ed 973d a81e 133d 0197 b3bd 76ea 9f3d
000003a0: ea8f 64bc 481f 873d c4f1 6b3c 02fd cf3c
000003b0: 0e37 9fbc eeb1 c13c b13f 43bb a550 3cbd
000003c0: c9bc 41bc c172 543d 9d7b 2cbd 2930 8d3d
000003d0: 254f 55bd 87f0 a83d 6bef 9a3b fd0c 7fbd
000003e0: 4586 a23d c731 61bc fc67 26bd e7e4 67bc
000003f0: 6e52 c33c 75d2 bf3d f6af 553d ac41 30bd

lstm.bias_hh_l0 f4 [512]
0.07875648 -0.012877238 0.059003007 -0.033990122 -0.012561457 0.037801817 0.058382694 0.04694345
0.014187021 0.074360676 -0.035480056 -0.029442314 0.02502284 0.027886404 -0.025378393 0.03434582
-0.04068708 0.061808605 -0.00019887357 -0.011746898 0.028747203 -0.04587867 0.071476415 -0.006635514
-0.04211975 -0.06244102 -0.039867986 -0.016471118 0.028867867 -0.0061128917 -0.033930656 -0.02910189
0.026455423 0.047497693 0.009100669 0.07402494 0.04593346 0.0124906795 0.07037538 -0.0803057
0.02148302 -0.0013804188 -0.015778441 0.047775913 -0.021499343 -0.04138565 0.09367684 0.082474425
-0.013585153 0.021327177 -0.04090417 -0.047044415 0.08009643 0.07813324 0.016300168 0.07822449
-0.07347474 0.028869387 0.006615592 -0.0054006316 0.06274402 0.021884235 0.041432198 0.007127522
0.102698274 0.03751079 0.06220412 0.033176627 -0.042931296 -0.062184177 0.054694198 -0.074847944
-0.03695023 0.081002906 0.09130252 -0.068554096 0.026831556 0.069489434 0.02530707 0.005974444
-0.0046499474 -0.022893269 -0.024336841 0.0021875151 0.014460077 0.0120086875 -0.023611149 0.011260992
0.0055413777 0.016706724 0.083527856 -0.018077506 -0.02756114 0.02983181 -0.0017876229 0.034620695
-0.006206222 0.04585465 0.007863958 0.017402496 0.06710227 0.0805464 -0.06973663 0.064534955
-0.026879005 0.044133544 -0.0062332917 0.010922096 0.022599516 0.05347669 -0.059363965 0.056536548
0.01302957 -0.05775031 -0.00042329347 -0.0085682385 -0.049761523 0.09448718 0.0411562 -0.024122812
0.02322132 -0.058515605 0.06223851 0.09586891 0.095413595 0.095461614 0.026485847 0.0747788
0.06873834 -0.04139244 0.011419865 0.078783415 -0.050293427 -0.0012608194 0.010697078 -0.0493338
0.009974458 -0.0048293443 0.0790795 -0.06816522 0.07536337 0.070905395 0.09582932 -0.061402828
0.058383416 -0.013582073 0.04963495 0.021053344 0.10907347 -0.04285179 0.08636107 -0.02683124
0.09289866 0.02129408 0.086054444 0.043023802 -0.036483586 0.068805255 0.066444136 0.03960627
-0.058776602 0.016274342 0.033380773 0.086624615 0.052984703 -0.055608664 -0.025633829 -0.009773409
-0.026799234 -0.028481979 -0.015497915 -0.07268014 -0.02381936 -0.03971529 -0.046122324 0.013803793
-0.06549077 0.018544516 0.045815777 0.042838756 0.07045812 -0.0106361285 0.061629012 0.10810389
-0.020595537 -0.018504791 0.012239673 0.074434824 0.013725584 -0.021976007 -0.006905429 0.08083513
0.09355187 0.06470283 0.044064913 0.108356394 -0.071700834 0.09258004 0.06405383 0.0075761545
-0.039933756 0.088968635 0.031012114 0.06207666 -0.063918516 -0.013313297 0.10235012 -0.0038481194
0.014302268 -0.0045657414 0.036220305 -0.07163352 -0.021971708 -0.047218233 0.049426083 -0.06934701
0.0024432107 0.10538351 -0.06289857 -0.07502442 -0.09223326 0.014369961 -0.04681034 -0.08813801
0.025281282 -0.0015150643 -0.012041851 0.013329028 0.077385776 -0.06050147 -0.059843548 0.10859838
0.03215861 -0.033992745 -0.03063752 0.018521093 -0.0055674696 0.06318775 -0.032543734 0.08747036
-0.036361597 0.07416388 0.069501325 0.07250742 -0.00048291957 0.08988027 -0.0103064235 -0.05261245
-0.047655173 -0.028322162 0.023358006 -0.040135305 -0.047985904 0.0043181134 -0.027729949 0.05295462
00000000: 144b a13d 0dfb 52bc 23ad 713d 3a39 0bbd
00000010: 92ce 4dbc 14d6 1a3d b122 6f3d c647 403d
00000020: ae70 683c 694a 983d 8953 11bd 0231 f1bc
00000030: b3fc cc3c 0772 e43c 59e6 cfbc 34ae 0c3d
00000040: 7fa7 26bd 052b 7d3d b888 50b9 1076 40bc
00000050: 417f eb3c 46eb 3bbd 3a62 923d ba6e d9bb
00000060: c285 2cbd 28c2 7fbd 9d4c 23bd 70ee 86bc
00000070: 4e7c ec3c a74e c8bb dffa 0abd 1667 eebc
00000080: 0bb9 d83c f18c 423d f91a 153c 639a 973d
00000090: b924 3c3d b5a5 4c3c f820 903d 5177 a4bd
000000a0: 29fd af3c 2bef b4ba ca41 81bc adb0 433d
000000b0: 641f b0bc 0084 29bd a5d9 bf3d 5ae8 a83d
000000c0: 4394 5ebc 55b6 ae3c 228b 27bd a5b1 40bd
000000d0: 9909 a43d 5204 a03d ee87 853c 2934 a03d
000000e0: ed79 96bd 7e7f ec3c 9cc7 d83b c8f7 b0bb
000000f0: f07f 803d 9146 b33c cfb4 293d fd8d e93b
00000100: 7953 d23d eaa4 193d bfc9 7e3d 37e4 073d
00000110: bad8 2fbd d6b4 7ebd 0607 603d e149 99bd
00000120: 2059 17bd dae4 a53d d1fc ba3d 1766 8cbd
00000130: dacd db3c 7a50 8e3d c650 cf3c 45c5 c33b
00000140: 965e 98bb aa8a bbbc 0e5e c7bc 6a5c 0f3b
00000150: f5e9 6c3c 16c0 443c 2b6c c1bc 0680 383c
00000160: 7294 b53b 8adc 883c a710 ab3d 4717 94bc
00000170: e6c7 e1bc d761 f43c ac4e eaba 6ece 0d3d
00000180: 905d cbbb 16d2 3b3d d5d7 003c ae8f 8e3c
00000190: ea6c 893d 83f5 a43d 14d2 8ebd e72a 843d
000001a0: 5c31 dcbc 60c5 343d a440 ccbb 97f2 323c
000001b0: 9f22 b93c 600a 5b3d a127 73bd de92 673d
000001c0: fa79 553c 978b 6cbd 7ded ddb9 cc61 0cbc
000001d0: bdd2 4bbd 7f82 c13d 6793 283d 349d c5bc
000001e0: a33a be3c 0fae 6fbd cfed 7e3d eb56 c43d
000001f0: 3468 c33d 6181 c33d d9f8 d83c a125 993d
00000200: b0c6 8c3d 1f8b 29bd 631a 3b3c 3359 a13d
00000210: 7b00 4ebd 1442 a5ba cc42 2f3c 3d12 4abd
00000220: e96b 233c 7a3f 9ebb 6ff4 a13d 359a 8bbd
00000230: 1c58 9a3d d936 913d 2a42 c43d 8881 7bbd
00000240: 7323 6f3d 5887 5ebc 044e 4b3d 1078 ac3c
00000250: e961 df3d 5c85 2fbd 13de b03d 30cd dbbc
00000260: a741 be3d ec70 ae3c 503d b03d ba39 303d
00000270: d06f 15bd c5e9 8c3d dd13 883d 2f3a 223d
00000280: bcbf 70bd c551 853c 47ba 083d 3f68 b13d
00000290: 7d06 593d e9c5 63bd 09fe d1bc a620 20bc
000002a0: 118a dbbc 0a53 e9bc f8ea 7dbc 53d9 94bd
000002b0: d220 c3bc 80ac 22bd c3ea 3cbd 4e29 623c
000002c0: 0620 86bd abea 973c 53a9 3b3d b177 2f3d
000002d0: 594c 903d 2843 2ebc b46e 7c3d 9365 dd3d
000002e0: f9b7 a8bc 5c97 97bc e988 483c 4971 983d
000002f0: 46e1 603c 0707 b4bc f046 e2bb e38c a53d
00000300: 1f98 bf3d eb82 843d 697d 343d f5e9 dd3d
00000310: e3d7 92bd 9b9a bd3d a82e 833d 6441 f83b
00000320: 9491 23bd 3035 b63d 1e0d fe3c 1944 7e3d
00000330: b6e7 82bd 0420 5abc f19c d13d bb30 7cbb
00000340: 0f54 6a3c 379c 95bb be5b 143d 98b4 92bd
00000350: 03fe b3bc e867 41bd 0173 4a3d ce05 8ebd
00000360: 461e 203b 4fd3 d73d f7d0 80bd 67a6 99bd
00000370: cbe4 bcbd fc6f 6b3c 33bc 3fbd b381 b4bd
00000380: b11a cf3c 1f95 c6ba 2f4b 45bc ff61 5a3c
00000390: 6f7c 9e3d 64d0 77bd 821e 75bd d468 de3d
000003a0: bfb8 033d fa3b 0bbd 89fb fabc 8cb9 973c
000003b0: 526f b6bb 9468 813d 944c 05bd a923 b33d
000003c0: e6ef 14bd 3be3 973d b656 8e3d c57e 943d
000003d0: 5e30 fdb9 2613 b83d 46dc 28bc 2780 57bd
000003e0: 1232 43bd e103 e8bc 4a59 bf3c eb64 24bd
000003f0: de8c 44bd f67e 8d3b eb29 e3bc f2e6 583d

lstm.weight_ih_l1 f4 [512, 128]
-0.0036099313 0.08222516 -0.0021683977 0.06581519 0.040781178 0.020389415 0.009172116 -0.069685996
0.044188153 0.04288639 0.013281882 -0.042671803 0.054999314 -0.04497385 0.018346546 -0.0017911094
-0.09281172 -0.08302507 -0.0060208617 0.038819358 0.0113091115 0.0165817 0.08924686 -0.09381615
0.07233726 -0.012549282 -0.009890751 -0.07637649 -0.0075310846 -0.037261445 -0.010313865 -0.049421664
0.048032995 0.041062504 0.048605 0.053122178 0.031224485 0.027338477 -0.083302855 0.08271361
0.068471946 0.027066993 0.048445024 -0.00078491133 -0.061507195 -0.049478825 0.044748835 0.050757382
-0.023245836 -0.008223941 -0.06514552 0.039306033 0.038757287 -0.053864844 -0.006972959 -0.072236106
-0.07951349 -0.06584957 0.087781824 -0.0014273423 -0.010080754 -0.0869911 -0.02196747 -0.073799
-0.09171847 0.024801267 -0.048613537 -0.025675865 0.022278527 -0.017790789 0.08330764 -0.0060756993
0.037536602 -0.015905287 0.03279815 -0.022812258 -0.038863152 -0.027897429 -0.0468002 0.07021004
-0.09274445 0.06127701 -0.050617967 0.08146481 -0.04579635 -0.059998233 0.041863345 -0.08606738
-0.046763174 0.03561886 -0.061241467 -0.08676748 0.031339295 0.02921163 -0.069963045 -0.07331269
0.05734573 0.026450936 0.041617155 0.071583405 0.051142454 0.022686506 0.011268348 0.035248153
-0.002299813 0.03868033 -0.048821393 -0.061579484 -0.009826107 -0.08687459 -0.01948294 -0.07221555
-0.025738472 -0.01796404 0.0713747 -0.03204024 0.044856198 0.013810426 0.08557637 -0.017113946
-0.030060606 0.022671383 0.06250914 -0.04617755 -0.047522303 -0.038730808 0.03461045 -0.00043667905
0.0524325 0.006393706 -0.020052994 -0.05042259 0.0709262 -0.05446827 0.028401658 -0.08532241
-0.060637474 0.029689971 0.058551427 0.011761172 -0.0143667655 0.018340401 0.05390685 0.0038337477
-0.036446523 -0.04397985 0.06567354 -0.02491862 0.029645476 -0.009656501 -0.0373693 -0.007159006
0.013351889 -0.03838334 0.05064031 0.015999332 0.013784385 -0.008145178 -0.040524438 -0.021884741
0.051680848 -0.024574995 -0.0044412473 0.07541838 0.013523238 0.003958615 -0.013703805 -0.03856581
0.0022226947 -0.033930928 -0.036946435 0.00658223 -0.07251534 -0.053587228 0.043524537 0.021356817
-0.039734602 0.0116976 -0.027767684 -0.012016371 0.0056195077 -0.020344155 -0.0046114204 0.009975475
0.06139913 -0.014248487 -0.016166905 -0.03670576 0.060539264 0.009881361 -0.06196431 -0.0074344557
0.024653316 0.005594573 -0.047113966 -0.04157086 0.084356815 -0.02750356 0.027253048 0.03160764
0.06641007 0.026449516 -0.02579914 -0.0028798177 0.02731092 0.021002376 -0.054402396 0.03072721
0.017569147 -0.026702275 -0.02447579 0.05617002 -0.024768244 -0.03454933 -0.061413918 -0.012406737
0.059170485 -0.01099621 0.031691503 -0.068874136 0.020275783 0.019309465 -0.018834326 0.037195377
0.05521069 -0.010502581 -0.010891912 -0.008752679 0.038720347 -0.012194213 0.07421718 0.05871992
-0.024188716 -0.0063454513 0.012702774 0.048941452 -0.03990325 0.028955504 0.087127745 -0.011180428
0.00036765102 0.018164247 0.009337208 -0.03721299 0.037791193 -0.0070180725 0.017360408 0.04272642
0.02669294 0.06814108 -0.070115596 -0.01362754 0.0073461523 0.06519613 0.0096814325 -0.0662268
00000000: 9994 6cbb aa65 a83d ad1b 0ebb 1dca 863d
00000010: 2a0a 273d b407 a73c a546 163c 88b7 8ebd
00000020: a3fe 343d a4a9 2f3d 409c 593c a1c8 2ebd
00000030: f646 613d 8036 38bd 7f4b 963c a9c3 eaba
00000040: 1214 bebd 0c09 aabd a64a c5bb 0c01 1f3d
00000050: da49 393c 58d6 873c 0fc7 b63d af22 c0bd
00000060: 8f25 943d 819b 4dbc d10c 22bc 476b 9cbd
00000070: 51c7 f6bb 759f 18bd 7cfb 28bc 5f6e 4abd
00000080: 3fbe 443d 2831 283d 0916 473d a496 593d
00000090: 7eca ff3c f1f4 df3c b09a aabd c165 a93d
000000a0: 053b 8c3d 99bb dd3c 4a6e 463d 82c2 4dba
000000b0: f8ee 7bbd 4faa 4abd 8e4a 373d f9e6 4f3d
000000c0: 0d6e bebc b5bd 06bc 046b 85bd 5dff 203d
000000d0: f6bf 1e3d 62a1 5cbd 6b7d e4bb 86f0 93bd
000000e0: f8d7 a2bd 24dc 86bd f5c6 b33d a915 bbba
000000f0: bf29 25bc 6428 b2bd 20f5 b3bc ee23 97bd
00000100: e5d6 bbbd 072c cb3c fd1e 47bd 3156 d2bc
00000110: 7581 b63c fdbd 91bc 329d aa3d a916 c7bb
00000120: fbbf 193d ce4b 82bc 5a57 063d c6e0 babc
00000130: f82e 1fbd 2689 e4bc 91b1 3fbd 48ca 8f3d
00000140: cdf0 bdbd 9afd 7a3d c954 4fbd 06d7 a63d
00000150: f494 3bbd b5c0 75bd e678 2b3d 1844 b0bd
00000160: be8a 3fbd 15e5 113d 55d8 7abd 26b3 b1bd
00000170: a25d 003d 3a4d ef3c c948 8fbd f724 96bd
00000180: 5be3 6a3d a2af d83c c076 2a3d 529a 923d
00000190: c07a 513d 0dd9 b93c e19e 383c 5e60 103d
000001a0: 76b8 16bb 446f 1e3d f1f8 47bd c53a 7cbd
000001b0: aefd 20bc 4eeb b1bd b09a 9fbc bfe5 93bd
000001c0: 7dd9 d2bc 5329 93bc e62c 923d a03c 03bd
000001d0: 22bb 373d 2045 623c aa42 af3d 8c32 8cbc
000001e0: a941 f6bc 56b9 b93c cb04 803d ac24 3dbd
000001f0: bfa6 42bd 32a4 1ebd b0c3 0d3d 12f2 e4b9
00000200: 76c3 563d 4b82 d13b 2d46 a4bc eb87 4ebd
00000210: c141 913d 1f1a 5fbd 98aa e83c 84bd aebd
00000220: 005f 78bd 6238 f33c 9fd3 6f3d eeb1 403c
00000230: 9562 6bbc 9c3e 963c 6ecd 5c3d 9d3f 7b3b
00000240: f348 15bd 3724 34bd d97f 863d 2222 ccbc
00000250: 12db f23c 4d36 1ebc 8d10 19bd 1896 eabb
00000260: e2c1 5a3c d937 1dbd 376c 4f3d 0811 833c
00000270: e7d7 613c 5a73 05bc f4fc 25bd a147 b3bc
00000280: 4caf 533d 8051 c9bc e287 91bb f474 9a3d
00000290: 9290 5d3c 45b7 813b ed85 60bc 2ff7 1dbd
000002a0: a1aa 113b 28fb 0abd 2555 17bd bfaf d73b
000002b0: ec82 94bd 487e 5bbd c946 323d 7ef4 ae3c
000002c0: c0c0 22bd 4aa7 3f3c 0e79 e3bc 50e0 44bc
000002d0: d923 b83b c9a8 a6bc 661b 97bb 2d70 233c
000002e0: a77d 7b3d 7c72 69bc 7570 84bc c758 16bd
000002f0: 05f8 773d 6fe5 213c 4ace 7dbd bc9c f3bb
00000300: c0f5 c93c ae52 b73b 93fa 40bd 3546 2abd
00000310: 44c3 ac3d 254f e1bc c941 df3c 0377 013d
00000320: 0102 883d a8ac d83c b858 d3bc 53bb 3cbb
00000330: 27bb df3c 2d0d ac3c 0cd5 5ebd a1b7 fb3c
00000340: 2ced 8f3c bbbe dabc 7481 c8bc 8912 663d
00000350: c6e6 cabc 9983 0dbd 298d 7bbd a045 4bbc
00000360: c05c 723d 7329 34bc f3ce 013d e20d 8dbd
00000370: 6619 a63c e22e 9e3c 724a 9abc 2e5a 183d
00000380: 9b24 623d 0413 2cbc fd73 32bc 6667 0fbc
00000390: 3a99 1e3d 3dca 47bc 2dff 973d 4d84 703d
000003a0: 6a27 c6bc 81ed cfbb 4c1f 503c d576 483d
000003b0: 9771 23bd 1834 ed3c 0870 b23d 1d2e 37bc
000003c0: 49c1 c039 30cd 943c 17fb 183c a66c 18bd
000003d0: f0ca 1a3d dcf7 e5bb 6a37 8e3c e601 2f3d
000003e0: 27ab da3c 8d8d 8b3d c498 8fbd 0c46 5fbc
000003f0: feb7 f03b 8c85 853d df9e 1e3c eba1 87bd

lstm.weight_hh_l1 f4 [512, 128]
0.031462204 -0.04284381 0.01578616 0.08285876 0.04114816 0.02508866 0.052827176 -0.017456695
0.019324034 0.04669326 -0.05450241 0.06322261 0.090227105 -0.0033583522 0.056157246 0.0059939707
0.06319717 -0.06650245 -0.025334429 -0.07772508 0.016860403 0.067036375 0.07425694 -0.062152375
-0.023893135 -0.079920545 -0.026624653 0.044698715 -0.023761513 -0.076287 -0.06033049 -0.017937968
-0.027710253 0.09343998 0.046244893 -0.04358816 -0.021228306 -0.038361035 0.053916477 -0.0739928
-0.08025121 0.030022448 -0.068886444 0.01505995 0.030163363 0.060817435 -0.08506563 -0.001289987
-0.0015196031 -0.025007907 -0.06641802 -0.05919847 -0.04316621 0.07627471 0.04738895 -0.08151959
0.0034912801 -0.010431827 -0.02444579 0.0026288063 -0.056354806 0.014190007 -0.078157544 -0.045509983
-0.052732438 -0.020411566 0.038943503 -0.060633946 -0.027176963 -0.032393318 0.06904739 -0.023730116
-0.090114065 0.0002580906 0.031125735 0.07780189 0.063445486 -0.028898953 0.0029324477 -0.085227974
-0.0126975225 0.0068954895 -0.013580214 0.03752951 -0.0072065257 0.09396 -0.040162537 0.010501074
-0.010516481 0.013656111 0.055994336 -0.00370781 0.0502263 0.01134919 0.061465077 -0.08874861
0.019405836 0.0070417486 -0.045575257 -0.027369093 0.021049267 -0.043935098 0.014204741 0.028676178
-0.01719699 0.037061248 -0.0936889 -0.070598565 -0.052238192 -0.075200364 0.019093461 -0.013465403
-0.08663633 0.019718815 0.026299391 0.010031298 -0.012675355 -0.00042251838 -0.0029755663 0.062259432
-0.04612046 -0.0648603 -0.08000857 0.02440546 -0.04390205 -0.02642297 0.061143223 0.022736244
-0.056644455 0.04979725 -0.037074905 0.084595546 -0.039040986 -0.032008857 -0.015749374 0.023020595
-0.033937715 -0.051219966 -0.003978964 0.07745891 -0.013734555 0.005151683 -0.042663764 -0.0054228
0.034412295 -0.005386171 -0.09088522 -0.07133548 0.07923535 0.037681054 -0.006723362 0.042704962
0.009289974 -0.03671838 -0.01391061 0.022538241 0.06217839 -0.08129265 -0.0073870555 0.062379014
-0.022200339 0.084598035 -0.03732497 0.06965782 -0.022212794 0.019126253 -0.030536762 -0.078759834
0.007192319 0.023041813 -0.0064140656 0.03430998 0.04194455 0.030924583 -0.014550516 -0.055848237
0.00698156 -0.013630534 -0.046594214 -0.075052775 0.02653775 0.048227213 0.052495502 0.008891361
-0.07501048 -0.04547031 0.033517066 -0.05058283 0.089856476 0.0417661 0.04460824 -0.029179845
0.043988295 -0.060941454 -0.026874408 -0.04228572 -0.014842628 -0.05556657 0.09022868 -0.018480774
-0.029323304 -0.001954043 0.0679235 0.021288797 0.0131187625 0.04202615 -0.05900057 0.036624953
-0.018203892 0.017755251 -0.07686761 0.007941389 0.0046389117 0.015594775 -0.08432858 -0.037840836
-0.007403657 -0.004787089 0.027918776 0.016805835 -0.07359366 -0.05501817 -0.0453554 0.0004392828
0.031370267 -0.057965156 0.016807277 0.0824585 0.045439694 0.084911324 -0.06398612 0.0093835825
-0.008652868 -0.06860067 0.029933468 -0.07751912 0.054201435 0.031441372 -0.016381845 0.06717302
-0.0038454353 0.082599476 0.03275542 -0.046686243 0.091741785 0.013214836 0.025723115 -0.032582305
-0.0104465755 -0.079296075 -0.015779035 0.055145185 0.07956444 -0.056294687 -0.053447146 0.013702727
00000000: 83de 003d fe7c 2fbd fa51 813c dbb1 a93d
00000010: f98a 283d bc86 cd3c 4f61 583d 5801 8fbc
00000020: 704d 9e3c 6f41 3f3d eb3d 5fbd db7a 813d
00000030: fdc8 b83d cd17 5cbb 2405 663d 1269 c43b
00000040: 856d 813d 7032 88bd 268a cfbc 542e 9fbd
00000050: d41e 8a3c 5e4a 893d 0614 983d 7d93 7ebd
00000060: 89bb c3bc 62ad a3bd f21b dabc 0016 373d
00000070: 81a7 c2bc 5c3c 9cbd 1b1d 77bd a5f2 92bc
00000080: 9d00 e3bc 765d bf3d 496b 3d3d 8089 32bd
00000090: fce6 adbc 7620 1dbd 86d7 5c3d 8a89 97bd
000000a0: bf5a a4bd a3f1 f53c 5614 8dbd 02be 763c
000000b0: 2819 f73c b41b 793d e436 aebd c814 a9ba
000000c0: 6b2d c7ba 62dd ccbc 2c06 88bd 187a 72bd
000000d0: 0dcf 30bd ea35 9c3d ea1a 423d bef3 a6bd
000000e0: f6cd 643b 41ea 2abc 8a42 c8bc 0d48 2c3b
000000f0: 4cd4 66bd 347d 683c 1011 a0bd ad68 3abd
00000100: f8fd 57bd 2836 a7bc 3983 1f3d 4d5b 78bd
00000110: 39a2 debc dbae 04bd b868 8d3d a965 c2bc
00000120: b98d b8bd 5550 8739 66fb fe3c 9956 9f3d
00000130: b5ef 813d 7fbd ecbc 4f2e 403b 018c aebd
00000140: 4509 50bc 8ff3 e13b 8c7f 5ebc 8bb8 193d
00000150: b824 ecbb 1a6e c03d 7981 24bd b20c 2c3c
00000160: 514d 2cbc e2bd 5f3c 515a 653d bbfe 72bb
00000170: 18ba 4d3d f4f1 393c cec2 7b3d d5c1 b5bd
00000180: fdf8 9e3c 78be e63b 1fad 3abd 2635 e0bc
00000190: 836f ac3c 4af5 33bd 01bb 683c 4eea ea3c
000001a0: b4e0 8cbc 89cd 173d f7df bfbd fb95 90bd
000001b0: b7f7 55bd a602 9abd e469 9c3c fe9d 5cbc
000001c0: 636e b1bd 5a89 a13c d271 d73c 505a 243c
000001d0: 4bac 4fbc 7585 ddb9 b801 43bb bf03 7f3d
000001e0: cfe8 3cbd 7ad5 84bd 88db a3bd f6ed c73c
000001f0: a3d2 33bd fc74 d8bc 5171 7a3d 5c41 ba3c
00000200: 0404 68bd 34f8 4b3d dbdb 17bd 6e40 ad3d
00000210: 71e9 1fbd b81b 03bd d504 81bc b095 bc3c
00000220: 4602 0bbd 07cc 51bd f861 82bb c7a2 9e3d
00000230: e606 61bc 73cf a83b 33c0 2ebd beb1 b1bb
00000240: e8f3 0c3d 7a7e b0bb 0822 babd 5618 92bd
00000250: 2546 a23d 7357 1a3d a64f dcbb 66eb 2e3d
00000260: fa34 183c 0366 16bd 54e9 63bc 1ea2 b83c
00000270: c4ae 7e3d c37c a6bd 1d0f f2bb 2381 7f3d
00000280: 7cdd b5bc bc41 ad3d 11e2 18bd c2a8 8e3d
00000290: 9bf7 b5bc a9ae 9c3c 3b28 fabc d64c a1bd
000002a0: 8bad eb3b 2fc2 bc3c 152d d2bb 9f88 0c3d
000002b0: 0cce 2b3d 8d55 fd3c 4a65 6ebc 1fc1 64bd
000002c0: 92c5 e43b 9a52 5fbc 93d9 3ebd 45b5 99bd
000002d0: b265 d93c e689 453d 8605 573d 12ad 113c
000002e0: 189f 99bd 133f 3abd 3149 093d f12f 4fbd
000002f0: ac06 b83d ee12 2b3d 21b7 363d 920a efbc
00000300: 122d 343d bf9d 79bd b827 dcbc cb33 2dbd
00000310: 7e2e 73bc c699 63bd d0c9 b83d fe64 97bc
00000320: 6d37 f0bc 670f 00bb 7a1b 8b3d d865 ae3c
00000330: 14f0 563c 9d23 2c3d 95aa 71bd 0c04 163d
00000340: 5420 95bc 7673 913c c46c 9dbd 9a1c 023c
00000350: 0302 983b 3a81 7f3c 76b4 acbd fefe 1abd
00000360: 609a f2bb 03dd 9cbb ebb5 e43c 64ac 893c
00000370: 46b8 96bd bc5a 61bd 95c6 39bd 8a4f e639
00000380: 1c7e 003d df6c 6dbd 6aaf 893c 01e0 a83d
00000390: f91e 3a3d fde5 ad3d 280b 83bd 99bd 193c
000003a0: c2c4 0dbc 827e 8cbd 0837 f53c 58c2 9ebd
000003b0: 5302 5e3d abc8 003d 3833 86bc 0292 893d
000003c0: b303 7cbb ea29 a93d 8c2a 063d 133a 3fbd
000003d0: 1ee3 bb3d 0a83 583c 48b9 d23c 0675 05bd
000003e0: 1d28 2bbc fb65 a2bd 0943 81bc ebdf 613d
000003f0: aef2 a23d 4295 66bd 65eb 5abd 6781 603c
