fault_model_nn_allprior_22_33kv/best_Y2024.pt (torch, 929527 bytes, 15 tensors)

emb.weight f4 [219, 16]
-1.1414379 1.3147516e-05 -0.392034 0.5824475 1.2471358 -1.1263028 1.2332268 0.25042605
-1.7936841 0.6167765 0.8908599 0.3722407 0.17407155 1.4643134 -1.5517244 0.46341965
-0.6959711 1.462796 -0.8319616 0.06513892 -0.86500156 -0.080324 -0.7328025 1.6775379
-1.2588322 -1.4370003 1.2431939 2.389574 1.0464087 0.24098963 -0.07824744 1.6882967
-0.026775228 0.59449005 -2.0390537 2.1673636 1.7887155 -0.31570846 0.08892061 0.66266304
0.04671123 -0.928961 -0.5173022 -0.7927995 -0.61163455 0.31436238 0.19717814 0.6282087
-1.0497775 0.5793001 -0.044606596 -0.4990634 1.6021377 -1.420633 -1.0246288 -0.35202417
-0.032807674 0.23373196 0.19443631 -0.31596088 -0.8989943 1.4954529 -0.7067393 -2.2414567
-1.1646991 -0.20448855 -0.14004554 1.1396359 0.29478332 1.1803743 -0.5298184 -0.2303826
1.1916026 0.29634827 -0.13320304 -0.07694572 -2.191094 0.5382964 -0.38505685 -1.1983699
-0.54258454 -1.428672 -0.6298636 -1.241353 -1.0154607 2.6729534 0.7301521 0.58562785
-0.9457769 1.4590356 0.031739093 -0.12273263 0.058552958 -0.33812574 -0.038510647 1.6042769
0.6084284 0.0064858217 -0.15903333 -1.5522256 -0.64417475 -0.15340461 0.13439998 0.6724161
1.6908423 0.17563608 -1.8653016 -0.17447455 -0.20485552 0.20103759 -1.7820487 -0.44631302
0.7961334 -0.3138977 0.8038447 0.3353638 -0.4342736 -0.34378815 0.28574717 0.013872315
0.0820804 0.026028251 -1.4720731 -0.5157966 -0.8390353 1.0183768 0.09172752 0.33597976
0.6264097 -1.494725 -0.3635067 -0.09188719 -1.5095599 -0.81603295 0.2757453 -1.1145995
0.8587266 1.2383395 1.2781885 0.16653237 2.029445 -0.9274536 0.09863422 1.8254876
0.6442665 0.29750565 0.4473737 0.17327984 -0.9030429 0.8222575 -0.8968042 0.06985883
-0.7113748 1.6119055 0.29791725 -0.032116078 0.21701354 0.11049913 -0.018874308 -0.98506427
1.5618488 -0.5640897 0.41712663 -1.0391493 1.6450557 0.030846566 0.25367537 0.33916742
1.0636814 -1.1157076 1.7082394 -0.54964036 -0.56415385 0.43850616 -0.9191705 -0.11861137
0.18985975 -1.9296339 -0.13835974 0.052969836 -2.6643403 -2.0217783 0.45986107 0.0968822
0.13964716 -1.2679315 0.90738225 -0.47336045 -1.1134149 -1.3769405 1.7793862 -0.3064534
0.5382915 0.4788114 -0.31123692 -0.03551469 -0.8613984 1.2726072 0.2329467 0.060760796
-0.42201784 -0.7169058 0.58589274 -0.89365184 1.065566 -0.7253394 -0.16430368 0.18909743
0.458366 -0.4601299 0.49102932 1.0133976 0.13452291 1.8799678 -0.7885112 -1.2499144
-0.89402324 0.7432252 1.0339426 1.8212608 0.17456676 0.032576073 -0.48890308 -1.9980105
0.28748497 -0.6725549 -0.3853184 -0.66166055 0.9080984 0.012978612 0.39365697 -0.35089782
0.16733754 -1.0128182 1.1903375 -0.020521227 -0.7607213 -0.57618195 0.50158316 0.26200974
0.7385628 0.6228378 1.0739592 -0.30536523 0.24941261 0.54755944 2.236532 0.12176412
0.47272205 -0.7720288 0.5505649 -2.1957393 1.7486213 -0.99514425 -0.5480874 -0.9127278
00000000: a31a 92bf 2794 5c37 aeb8 c8be 481b 153f
00000010: 25a2 9f3f b12a 90bf 60da 9d3f d837 803e
00000020: 7197 e5bf 11e5 1d3f 650f 643f 5596 be3e
00000030: d03f 323e 9f6e bb3f e89e c6bf 5745 ed3e
00000040: 292b 32bf e63c bb3f 6ffb 54bf 8e67 853d
00000050: be70 5dbf e980 a4bd f298 3bbf 90b9 d63f
00000060: 6a21 a1bf a0ef b7bf fa20 9f3f c8ee 1840
00000070: b8f0 853f fcc5 763e 3240 a0bd 1b1a d83f
00000080: b957 dbbc 8030 183f db7f 02c0 16b6 0a40
00000090: a1f4 e43f 8aa4 a1be 021c b63d 49a4 293f
000000a0: 4654 3f3d 63d0 6dbf eb6d 04bf e8f4 4abf
000000b0: 1594 1cbf 1bf4 a03e 11e9 493e 49d2 203f
000000c0: 1c5f 86bf 034d 143f 68b5 36bd 3d85 ffbe
000000d0: d912 cd3f 4dd7 b5bf 0927 83bf 833c b4be
000000e0: 5761 06bd 6e57 6f3e 501a 473e a0c5 a1be
000000f0: 7e24 66bf 006b bf3f deec 34bf 0774 0fc0
00000100: dc14 95bf 7265 51be 1968 0fbe 97df 913f
00000110: d7ed 963e 8116 973f 2ea2 07bf 6be9 6bbe
00000120: 6f86 983f f6ba 973e 6166 08be b895 9dbd
00000130: e23a 0cc0 cbcd 093f 2c26 c5be 2f64 99bf
00000140: d2e6 0abf b9de b6bf be3e 21bf a8e4 9ebf
00000150: 9efa 81bf ab11 2b40 3feb 3a3f b5eb 153f
00000160: 6f1e 72bf aec1 ba3f da00 023d 3f5b fbbd
00000170: 3ad5 6f3d d11e adbe 57bd 1dbd f258 cd3f
00000180: f7c1 1b3f 0487 d43b a2d9 22be 54af c6bf
00000190: a3e8 24bf 1916 1dbe 26a0 093e 7623 2c3f
000001a0: 856d d83f f2d9 333e 34c2 eebf 75a9 32be
000001b0: a5c5 51be ccdc 4d3e 2c1a e4bf 2483 e4be
000001c0: 66cf 4b3f 33b7 a0be c4c8 4d3f ceb4 ab3e
000001d0: 1c59 debe 0005 b0be 744d 923e b548 633c
000001e0: c519 a83d 3339 d53c e46c bcbf 3f0b 04bf
000001f0: 04cb 56bf 2c5a 823f a3db bb3d 8a05 ac3e
00000200: 635c 203f 2653 bfbf 8d1d babe 5a2f bcbd
00000210: 4239 c1bf 89e7 50bf 7d2e 8d3e 32ab 8ebf
00000220: 82d5 5b3f e981 9e3f ae9b a33f 7687 2a3e
00000230: 6de2 0140 996d 6dbf bd00 ca3d 94a9 e93f
00000240: a6ee 243f a952 983e 2a0e e53e 4570 313e
00000250: d22d 67bf 787f 523f f694 65bf 2512 8f3d
00000260: a91c 36bf eb52 ce3f 9c88 983e 268c 03bd
00000270: cc38 5e3e 5e4d e23d 4b9e 9abc 2c2d 7cbf
00000280: a9ea c73f 2f68 10bf 9f91 d53e d802 85bf
00000290: 2f91 d23f f0b1 fc3c bde1 813e 5aa7 ad3e
000002a0: b626 883f 82cf 8ebf 97a7 da3f 3bb5 0cbf
000002b0: 636c 10bf e183 e03e c24e 6bbf 85ea f2bd
000002c0: 986a 423e 3efe f6bf 2dae 0dbe e6f6 583d
000002d0: 8d84 2ac0 d164 01c0 e972 eb3e 2d6a c63d
000002e0: aaff 0e3e 944b a2bf 344a 683f 4d5c f2be
000002f0: 6184 8ebf 963f b0bf edc2 e33f 76e7 9cbe
00000300: 79cd 093f c526 f53e 725a 9fbe da77 11bd
00000310: 9b84 5cbf cbe4 a23f 9489 6e3e 50e0 783d
00000320: b912 d8be 2387 37bf 11fd 153f 5ec6 64bf
00000330: 7764 883f d8af 39bf 393f 28be c2a2 413e
00000340: f3ae ea3e 2596 ebbe 3268 fb3e 03b7 813f
00000350: 60c0 093e c9a2 f03f dfdb 49bf 32fd 9fbf
00000360: b5de 64bf 0244 3e3f 3b58 843f 131f e93f
00000370: a1c1 323e 7d6e 053d 8151 fabe cfbe ffbf
00000380: 3b31 933e 8f2c 2cbf 7448 c5be 9662 29bf
00000390: 2379 683f 3fa4 543c 688d c93e e1a8 b3be
000003a0: 885a 2b3e 07a4 81bf fb5c 983f 221c a8bc
000003b0: a2be 42bf a980 13bf c167 003f 2426 863e
000003c0: 7412 3d3f 4c72 1f3f 7f77 893f d558 9cbe
000003d0: 0566 7f3e db2c 0c3f 5723 0f40 785f f93d
000003e0: a008 f23e aea3 45bf d2f1 0c3f fe86 0cc0
000003f0: d3d2 df3f c6c1 7ebf 754f 0cbf 87a8 69bf

lstm.weight_ih_l0 f4 [512, 3]
0.023850957 0.044520535 0.018212084 0.078105144 -0.021770006 -0.04734266 -0.0012121618 -0.055056237
0.100930825 0.020721804 -0.04883626 0.031913232 -0.026833653 0.025049621 0.060035665 -0.03353321
-0.014435123 -0.03836283 -0.026057802 0.046160907 -0.07943421 -0.033396762 -0.026096232 0.056656457
0.10806702 0.048883356 0.012448398 0.024328914 -0.052883405 0.04213438 0.044330228 -0.04077699
0.04439363 -0.07051357 0.0033780097 -0.02161528 0.022811277 -0.07899805 0.07206328 0.011614388
-0.011516845 -0.074009694 0.05005978 0.049093813 -0.10780136 0.059314106 -0.051515855 -0.07663604
-0.008172712 0.05303868 0.034496 -0.018357128 -0.08652727 0.03037832 -0.062135108 0.061955683
0.0029088468 -0.03959651 -0.020465592 0.026888 -0.014792283 0.004726452 -0.04121901 0.026318787
-0.033267677 -0.01675191 0.071687154 0.051726162 0.005223329 0.04805967 0.0699945 -0.023332851
0.06177754 0.054707162 -0.010884703 0.031089675 -0.010633828 -0.010136101 0.023173576 0.030055922
0.082067095 0.033532113 0.020050563 0.07169065 0.001241904 -0.0012594381 0.008834549 0.008614546
-0.021744898 -0.050221037 -0.035627067 0.09281248 -0.045883965 -0.051155426 -0.07435114 0.027544945
-0.035353832 0.048016563 -0.104005456 -0.0020735394 0.017952992 -0.05026584 0.030483207 0.011696349
-0.044327967 -0.011915925 0.03051356 0.03644637 -0.037341274 -0.0068339435 0.02894713 -0.03377077
0.035583083 0.012594739 -0.02400058 0.02241868 0.04142903 -0.061719846 -0.068991564 -0.010622131
0.077177964 0.025522348 0.047341123 0.04723898 -0.018885802 -0.016815446 0.033178914 -0.03268847
0.0066215023 -0.047172837 -0.035480842 0.064042315 -0.02717577 0.032934826 0.08749321 -0.026992366
0.043229755 -0.063017786 0.016316053 -0.03746524 -0.015892347 0.03223242 0.0039707744 0.034266636
0.048106387 -0.09883535 -0.047538906 -0.011240644 -0.02399326 -0.020602467 -0.061215762 -0.023688186
0.072994076 0.025333427 0.01235291 0.08070266 -0.057613857 -0.02286892 -0.06476755 -0.084157236
-0.06573515 0.08755073 0.05190366 -0.011737364 0.06380916 0.031679187 0.010628003 0.012361559
-0.055863395 -0.02018941 0.05371484 -0.0501064 0.03722103 0.056589913 0.018084962 0.055807438
0.077888355 0.057895616 0.043660868 0.0265476 0.020722475 -0.034505405 -0.03916348 0.05777046
-0.059919 0.0781901 -0.044534836 -0.021805847 -0.07190965 -0.01282725 0.0350873 -0.008104192
0.05159121 -0.072646536 0.014775102 0.067158625 -0.093107395 -0.061520033 -0.030907948 0.030805483
0.026645212 0.056243926 -0.075794086 -0.05943313 -0.027227303 -0.057658732 0.035213273 -0.039641056
-0.09206935 0.07443965 -0.0049279956 -0.08344095 -0.034347072 0.069598764 -0.0142454 0.04839128
0.047133747 -0.04141348 0.07744466 0.0030140167 0.06518638 0.0033224735 0.06325732 0.048024975
-0.029822519 -0.050233506 -0.014607937 -0.06808752 0.071256585 0.028155908 0.05471254 0.008029005
0.027430773 -0.053189803 0.008436046 0.06331608 0.031315327 0.025815232 -0.013990376 -0.059183314
0.01094254 -0.022263886 0.03446837 -0.016344242 -0.084096156 0.010447435 0.025357148 -0.06934157
0.022976607 -0.04623876 0.06214017 -0.0065014143 -0.028486725 -0.052478302 -0.024031391 -0.0801895
00000000: 1563 c33c 2a5b 363d 8231 953c 97f5 9f3d
00000010: 0357 b2bc 61ea 41bd 67e1 9eba a682 61bd
00000020: d2b4 ce3d c6c0 a93c 8808 48bd 73b7 023d
00000030: 40d2 dbbc dd34 cd3c f5e7 753d 1f5a 09bd
00000040: 4b81 6cbc 5822 1dbd 2c77 d5bc 3813 3d3d
00000050: 67ae a2bd 0bcb 08bd c4c7 d5bc 9a10 683d
00000060: 3e52 dd3d ea39 483d 5ef4 4b3c 6e4d c73c
00000070: 459c 58bd 1a95 2c3d 9d93 353d c605 27bd
00000080: 18d6 353d 6b69 90bd 9961 5d3b 8712 b1bc
00000090: b7de ba3c bbc9 a1bd ea95 933d 464a 3e3c
000000a0: 26b1 3cbc 6592 97bd 7c0b 4d3d 9816 493d
000000b0: f6c6 dcbd 59f3 723d 4a02 53bd 5bf3 9cbd
000000c0: d7e6 05bc 163f 593d ad4b 0d3d b061 96bc
000000d0: 3635 b1bd f4db f83c 6281 7ebd 3ec5 7d3d
000000e0: 5aa2 3e3b f32f 22bd 75a7 a7bc 3944 dc3c
000000f0: 555b 72bc 5ae0 9a3b 44d5 28bd 7f9a d73c
00000100: b043 08bd 4d3b 89bc b7d0 923d d0de 533d
00000110: 7628 ab3b 37da 443d 4759 8f3d 8924 bfbc
00000120: 720a 7d3d 9e14 603d c155 32bc c6af fe3c
00000130: 8239 2ebc e411 26bc 83d6 bd3c d637 f63c
00000140: cb12 a83d f858 093d 1441 a43c 8cd2 923d
00000150: 62c7 a23a bb13 a5ba c9be 103c 0624 0d3c
00000160: 5b22 b2bc 93b4 4dbd b0ed 11bd 7814 be3d
00000170: d3f0 3bbd 5a88 51bd 6945 98bd f0a5 e13c
00000180: 2ecf 10bd 04ad 443d d000 d5bd 38e4 07bb
00000190: 2712 933c 8ee3 4dbd ebb7 f93c 0ba2 3f3c
000001a0: 3e91 35bd 033b 43bc 93f7 f93c ca48 153d
000001b0: 2af3 18bd 46ef dfbb 8822 ed3c 3853 0abd
000001c0: 91bf 113d 2a5a 4e3c dd9c c4bc 61a7 b73c
000001d0: 7db1 293d f3cd 7cbd 734b 8dbd 7208 2ebc
000001e0: 7b0f 9e3d 3e14 d13c c4e8 413d a97d 413d
000001f0: 66b6 9abc 8cc0 89bc 9de6 073d 58e4 05bd
00000200: 30f9 d83b 4e38 41bd 5c54 11bd 9e28 833d
00000210: b89f debc abe6 063d a42f b33d 181f ddbc
00000220: af11 313d 780f 81bd 3ea9 853c 2775 19bd
00000230: ab30 82bc 2406 043d 451d 823b 2c5b 0c3d
00000240: 340b 453d 306a cabd 28b8 42bd ae2a 38bc
00000250: 838d c4bc 81c6 a8bc 61bd 7abd ba0d c2bc
00000260: eb7d 953d 0c88 cf3c dc63 4a3c 7047 a53d
00000270: 82fc 6bbd 9a57 bbbc d9a4 84bd a15a acbd
00000280: 26a0 86bd cc4d b33d ef98 543d 134e 40bc
00000290: 60ae 823d 09c2 013d 1321 2e3c 2388 4a3c
000002a0: 04d1 64bd 4364 a5bc 1804 5c3d 5e3c 4dbd
000002b0: 1475 183d d3ca 673d ea26 943c 5796 643d
000002c0: ee83 9f3d f423 6d3d bdd5 323d 5a7a d93c
000002d0: 2ec2 a93c 8a55 0dbd e369 20bd b8a0 6c3d
000002e0: a06d 75bd 2222 a03d 296a 36bd 2da2 b2bc
000002f0: 5e45 93bd 6329 52bc b3b7 0f3d 72c7 04bc
00000300: 4e51 533d b5c7 94bd 4513 723c 768a 893d
00000310: 17af bebd 6efc 7bbd aa32 fdbc c85b fc3c
00000320: 0f47 da3c 0860 663d ee39 9bbd 2770 73bd
00000330: cb0b dfbc 902b 6cbd cb3b 103d a95e 22bd
00000340: db8e bcbd d173 983d 067b a1bb 17e3 aabd
00000350: 84af 0cbd cc89 8e3d 8a65 69bc ef35 463d
00000360: 510f 413d 2ea1 29bd 4e9b 9e3d cf86 453b
00000370: 7080 853d dbbd 593b 0e8d 813d d6b5 443d
00000380: 5b4e f4bc a6c1 4dbd 2156 6fbc 7871 8bbd
00000390: f9ee 913d 38a7 e63c 421a 603d 168c 033c
000003a0: 80b6 e03c 8ddd 59bd 5737 0a3c dcab 813d
000003b0: 8044 003d 777a d33c e437 65bc 346a 72bd
000003c0: 5748 333c c162 b6bc b52e 0d3d 5ce4 85bc
000003d0: 9b3a acbd b82b 2b3c cbb9 cf3c f402 8ebd
000003e0: 7039 bc3c db64 3dbd b186 7e3d d109 d5bb
000003f0: fe5c e9bc 7df3 56bd 7bdd c4bc 643a a4bd

lstm.weight_hh_l0 f4 [512, 128]
0.023269827 0.05559365 -0.04590146 -0.022825578 -0.01427183 -0.02734525 0.0053563644 0.012873404
-0.02223615 0.01692482 0.026887275 0.01693987 0.028998248 -0.046228603 0.039981075 -0.071083024
-0.04024335 -0.017692331 -0.014633757 -0.010624082 0.029003078 -0.057160195 0.07758924 -0.010843521
0.004290865 -0.005240057 -0.020872831 -0.05268824 0.07876302 0.045212895 0.00551496 -0.041952748
0.07680066 0.0033843745 0.059073612 -0.009437256 0.03958593 -0.014628748 0.04693222 -0.064021915
0.06058367 0.012043082 -0.0039438587 -0.03997344 0.049006723 0.051222533 -0.05638729 -0.06346875
0.0488191 0.038521826 -0.0137334755 -0.009458744 -0.031502422 0.044745535 -0.022912305 -0.012760056
0.021815935 -0.037487898 -0.016317695 0.07434568 -0.0149107 0.04159736 0.021072311 -0.0302686
0.016763948 0.017369734 0.05997801 0.047214746 0.08041927 0.054472987 -0.064365886 0.018258039
0.014150176 -0.018974865 0.028420705 -0.06291302 0.0399458 0.067794636 0.0139644975 -0.023735717
0.034105342 -0.04943082 0.025787342 -0.039235707 0.029296884 -0.0056357547 -0.04022857 0.023987422
-0.021228053 -0.0012721063 -0.042943973 -0.032006178 0.039857574 -0.008201208 -0.08421475 0.011026173
-0.01004582 0.06378815 -0.016651653 0.079596095 0.0023092155 -0.065172955 0.019479642 -0.035167977
0.00704872 0.019711249 0.05058462 -0.03505881 -0.042993486 0.051550377 -0.008655419 0.049150962
0.00025425275 0.07019317 -0.0019883926 0.04100609 0.018649653 0.03397976 0.05922257 -0.023449196
0.036016963 0.029332567 -0.015721167 -0.03960269 -0.0028063646 -0.039927118 0.0500184 -0.0811319
-0.035578042 -0.0029058747 0.0620111 -0.021332359 0.029185668 -0.06257793 -0.037146665 -0.08395385
0.010279994 -0.031730425 -0.05231346 0.004306826 -0.05265044 0.014259666 0.02435349 0.0005285011
-0.008551328 -0.027121076 -0.06672336 -0.06350787 -0.021151423 0.033743765 0.015868662 -0.026091153
-0.013869882 -0.026027916 -0.048228227 0.025099957 -0.01691592 -0.034329586 -0.04610433 -0.0062054135
0.041284673 -0.024545135 -0.04755133 -0.014666298 -0.0025154443 0.014031967 0.009754838 -0.003511539
0.012298891 0.041714095 -0.033706237 -0.0734684 -0.040287785 -0.032095455 0.0008540667 -0.017005477
-0.0050896374 -0.019835457 -0.0407395 -0.007815309 -0.0049640187 0.052195687 0.011882542 -0.014882691
0.015079275 -0.054957964 0.054934315 0.0764763 0.009228313 0.0047709174 0.019006928 0.015262136
0.034425974 -0.0068151746 0.06615035 -0.059620664 -0.042300623 -0.055773232 -0.021839032 -0.04053038
0.045308195 -0.0010380672 -0.02832437 0.015840929 0.031632036 0.04806799 -0.05971418 -0.04521173
-0.031961363 0.031922083 -0.01554694 -0.039284855 -0.005080467 0.04837599 -0.05522267 0.040367875
0.0028232236 -0.0052922117 -0.044137545 -0.02010882 0.050020464 0.050278686 -0.026139157 0.0033919525
-0.004358546 0.011947545 0.02375975 0.04782278 -0.040500607 -0.06389176 0.056215554 0.03300508
-0.08267058 0.018412717 0.05180385 -5.9616646e-05 -0.033106778 -0.044908922 0.01626567 0.026282318
0.04739533 0.02726567 0.032781504 0.037922062 -0.059885997 0.06246926 -0.025542045 0.027977452
0.06619656 0.008821029 -0.029319594 0.060192797 -0.003931326 0.01622591 0.07481473 -0.020034086
00000000: 5da0 be3c 2bb6 633d 2b03 3cbd b5fc babc
00000010: 65d4 69bc 2503 e0bc 7184 af3b f8ea 523c
00000020: 9628 b6bc eca5 8a3c b442 dc3c 7bc5 8a3c
00000030: bc8d ed3c 345a 3dbd 32c3 233d fa93 91bd
00000040: 36d6 24bd 82ef 90bc 6dc2 6fbc a110 2ebc
00000050: dd97 ed3c cf20 6abd 1ce7 9e3d 06a9 31bc
00000060: 629a 8c3b c9b4 abbb 80fd aabc a0cf 57bd
00000070: 824e a13d 2831 393d d6b6 b43b a5d6 2bbd
00000080: aa49 9d3d 62cc 5d3b 2cf7 713d b89e 1abc
00000090: db24 223d 6bad 6fbc 003c 403d ec1d 83bd
000000a0: 9526 783d 5950 453c 7c3b 81bb 31bb 23bd
000000b0: 46bb 483d b8ce 513d 5cf6 66bd e7fb 81bd
000000c0: 89f6 473d 10c9 1d3d 5f02 61bc d9f8 1abc
000000d0: af08 01bd 1847 373d 96b2 bbbc 8e0f 51bc
000000e0: 55b7 b23c e98c 19bd b0ac 85bc 8c42 983d
000000f0: 024c 74bc fe61 2a3d d79f ac3c dbf5 f7bc
00000100: 8c54 893c f94a 8e3c 80ab 753d 4064 413d
00000110: dcb2 a43d 111f 5f3d 43d2 83bd e291 953c
00000120: 24d6 673c 2d71 9bbc 8ad2 e83c 8bd8 80bd
00000130: 359e 233d ead7 8a3d 59cb 643c 6871 c2bc
00000140: 0bb2 0b3d f977 4abd fa3f d33c 9fb5 20bd
00000150: 0500 f03c 23ac b8bb b7c6 24bd 4581 c43c
00000160: 74e6 adbc cebc a6ba 05e6 2fbd e918 03bd
00000170: b241 233d 5c5e 06bc c878 acbd 1fa7 343c
00000180: 3997 24bc 5da3 823d 0c69 88bc 4703 a33d
00000190: 3556 173b 6679 85bd c593 9f3c 4c0c 10bd
000001a0: f3f8 e63b 7c79 a13c d231 4f3d d499 0fbd
000001b0: f019 30bd 7d26 533d 75cf 0dbc 8552 493d
000001c0: 3a4d 8539 70c1 8f3d b14f 02bb 00f6 273d
000001d0: 28c7 983c 5c2e 0b3d 5e93 723d 8718 c0bc
000001e0: 8686 133d da4a f03c adc9 80bc 6e36 22bd
000001f0: fcea 37bb 9e8a 23bd 18e0 4c3d 7b28 a6bd
00000200: 48ba 11bd 7d70 3ebb 5aff 7d3d 33c1 aebc
00000210: c816 ef3c dc28 80bd 1a27 18bd ffef abbd
00000220: 6c6d 283c c3f7 01bd a346 56bd 4620 8d3b
00000230: fda7 57bd 60a1 693c f880 c73c 1c8b 0a3a
00000240: df1a 0cbc 052d debc 42a6 88bd 6a10 82bd
00000250: c045 adbc e736 0a3d fffe 813c 1dbd d5bc
00000260: 803e 63bc 7f38 d5bc f68a 45bd 6d9e cd3c
00000270: 4193 8abc 2e9d 0cbd e5d7 3cbd c856 cbbb
00000280: 1e1a 293d e112 c9bc 2fc5 42bd ea4a 70bc
00000290: 27da 24bb 56e6 653c c2d2 1f3c d921 66bb
000002a0: 4a81 493c 66dc 2a3d 8d0f 0abd 9a76 96bd
000002b0: ce04 25bd 8676 03bd 72e3 5f3a 124f 8bbc
000002c0: f9c6 a6bb f87d a2bc 76de 26bd c80b 00bc
000002d0: 35a9 a2bb 25cb 553d feae 423c 88d6 73bc
000002e0: 100f 773c 9a1b 61bd ce02 613d 9b9f 9c3d
000002f0: 5a32 173c 5b55 9c3b 6bb4 9b3c 0a0e 7a3c
00000300: 4002 0d3d d451 dfbb d679 873d cc34 74bd
00000310: 6b43 2dbd 7972 64bd c5e7 b2bc 2f03 26bd
00000320: 1695 393d c10f 88ba 8208 e8bc d6c4 813c
00000330: 9890 013d f1e2 443d db96 74bd ef2f 39bd
00000340: ebe9 02bd bbc0 023d 98b8 7ebc 28e9 20bd
00000350: 0c7a a6bb e725 463d 2b31 62bd c958 253d
00000360: d505 393b 4a6a adbb 92c9 34bd 41bb a4bc
00000370: 42e2 4c3d 06f1 4d3d c921 d6bc 854b 5e3b
00000380: 22d2 8ebb a3bf 433c cfa3 c23c d2e1 433d
00000390: f7e3 25bd afd9 82bd 4842 663d 5630 073d
000003a0: 314f a9bd 44d6 963c 4630 543d e30c 7ab8
000003b0: f99a 07bd 6bf2 37bd 953f 853c 044e d73c
000003c0: 9b21 423d 415c df3c e645 063d 2a54 1b3d
000003d0: 054b 75bd c4df 7f3d 8d3d d1bc f830 e53c
000003e0: 1092 873d 1486 103c a52f f0bc b98c 763d
000003f0: 5ad2 80bb 33ec 843c 7738 993d 861e a4bc

lstm.bias_ih_l0 f4 [512]
0.09009074 0.08431385 0.047059447 0.05890838 0.11076419 -0.065689005 -0.02904632 0.012961004
0.08049681 -0.0067225113 -0.044297885 -0.01610558 0.04859757 -0.016465595 0.02169964 0.09452654
-0.055960387 0.089165516 0.006729691 0.07907088 0.06134249 0.07715774 0.016206602 -0.01569567
0.07255637 -0.0378647 0.0033528598 -0.060008403 -0.037431665 -0.032496437 0.0087354975 -0.0022901453
0.005641445 0.06905569 -0.054877363 0.083112136 0.056394607 -0.029122716 0.029007778 0.048561584
0.068400055 0.04704475 -0.024509635 -0.052244123 -0.019704677 0.004495513 0.07002454 -0.05984839
-0.0051393174 0.08941633 -0.044897318 -0.034518834 -0.044949688 -0.049307555 0.09793369 0.05936664
0.09024533 0.040638357 0.09492378 0.0121002095 0.019056572 -0.059224363 -0.027125932 0.077996336
0.052656107 0.06872463 -0.04915 0.050063718 -0.04345859 0.0041622003 -0.03637008 -0.0156225795
-0.0065026446 0.037875313 0.04179227 0.029565975 0.01214687 0.04123423 0.02944028 0.0038280166
0.026700588 0.021373846 0.090757415 -0.016129123 -0.041625217 -0.077502795 0.110837854 -0.026749011
0.06130899 -0.07141536 0.07121054 -0.00022333479 -0.058304414 -0.062054746 -0.048474006 0.08914691
0.026425075 -0.018289605 -0.009358729 0.00012287906 0.05071032 -0.030702168 -0.0039602825 0.057297442
0.05010034 -0.065644726 0.029555865 0.006614353 0.077655695 -0.02410525 -0.046583474 -0.04133478
0.039119866 0.06833612 0.07901833 0.0027014837 0.07418804 -0.051132593 0.014722028 0.07646621
-0.012804406 -0.008346212 0.06055304 0.06658849 0.07860587 0.06502741 0.026091436 -0.032034125
0.09898742 -0.01722262 0.058625 -0.022361802 0.034558672 -0.014925593 0.019411271 -0.040268935
0.030230766 -0.05414388 0.025013272 -0.004641401 0.004822452 0.11043669 0.086698905 0.102396145
-0.049040608 0.06376952 0.08866541 0.033732515 0.003495125 0.08343942 -0.06487341 0.027126106
0.024022391 0.08800968 -0.02922682 0.0810109 -0.041370675 0.0399504 0.0153636215 0.024784826
0.011394214 -0.053708777 0.055411786 0.08387704 0.054364223 0.07715069 0.03306731 0.022791328
-0.048765708 0.030996902 -0.048548575 -0.049497955 -0.022875972 0.0884305 0.097582534 0.0221347
0.03625206 -0.042132653 -0.056933872 -0.02347748 -0.058594607 0.042876717 -0.04256583 0.051437464
0.09103375 -0.013150645 0.08418893 0.020135157 -0.04911672 0.05542212 -0.032868523 0.06741138
0.104619384 -0.055866066 0.10392609 -0.007405649 0.013790678 -0.022797748 0.08907888 0.09888412
0.053287346 0.030372586 -0.05982814 0.010367059 0.043335166 0.06465349 0.02324473 0.069731615
-0.014129841 -0.05018227 -0.03656029 -0.050074678 -0.03788757 -0.011456418 0.0594175 0.10112521
0.05978963 -0.0794823 0.076827906 0.007200381 0.043055583 -0.04324131 0.02147706 -0.006989931
0.030570783 -0.037616085 -0.033159558 0.09780167 0.051186126 0.027082184 0.05085311 0.045864433
0.02052553 0.06841187 0.10257809 -0.004015206 0.06844432 0.08204191 0.072809994 0.047766753
0.06615601 0.02028424 -0.0011095613 0.040096242 0.088612564 0.029630318 -0.055723853 0.05776549
-0.058038898 -0.018887771 0.013115178 0.030555533 -0.015204081 -0.02096713 -0.024439823 -0.04406694
00000000: 7e81 b83d bdac ac3d 68c1 403d ea49 713d
00000010: 56d8 e23d f587 86bd 8cf2 edbc 645a 543c
00000020: 83db a43d 8348 dcbb b371 35bd d9ef 83bc
00000030: 3f0e 473d dbe2 86bc 72c3 b13c 2197 c13d
00000040: b836 65bd 699c b63d bd84 dc3b eaef a13d
00000050: 4342 7b3d e104 9e3d b5c3 843c 3594 80bc
00000060: 6f98 943d 0418 1bbd a7bb 5b3b 5fcb 75bd
00000070: f251 19bd fc1a 05bd 551f 0f3c 4316 16bb
00000080: dfdb b83b 126d 8d3d 16c7 60bd b236 aa3d
00000090: 08fe 663d c392 eebc b8a1 ed3c 83e8 463d
000000a0: 5415 8c3d ffb1 403d 6ec8 c8bc effd 55bd
000000b0: b46b a1bc 194f 933b 0769 8f3d 9623 75bd
000000c0: b867 a8bb e91f b73d 40e6 37bd 9f63 0dbd
000000d0: 2a1d 38bd b8f6 49bd 7591 c83d 6f2a 733d
000000e0: 8bd2 b83d 6874 263d 6667 c23d f53f 463c
000000f0: 871c 9c3c 3f95 72bd 3437 debc 8bbc 9f3d
00000100: eead 573d 80bf 8c3d 8351 49bd 9d0f 4d3d
00000110: a201 32bd 1163 883b cbf8 14bd d9f5 7fbc
00000120: 2314 d5bb 2523 1b3d 5f2e 2b3d 5834 f23c
00000130: aa03 473c 39e5 283d be2c f13c 76df 7a3b
00000140: 31bb da3c 3418 af3c 06df b93d 3921 84bc
00000150: 347f 2abd c9b9 9ebd f5fe e23d be20 dbbc
00000160: 231f 7b3d 3742 92bd d5d6 913d fa2e 6ab9
00000170: 9cd0 6ebd 1e2d 7ebd ae8c 46bd a892 b63d
00000180: 6679 d83c 15d4 95bc 5b55 19bc 19d9 0039
00000190: a0b5 4f3d 1d83 fbbc 42c5 81bb b9b0 6a3d
000001a0: 0436 4d3d be70 86bd 241f f23c 37bd d83b
000001b0: f309 9f3d 6078 c5bc 50ce 3ebd a94e 29bd
000001c0: 273c 203d cff3 8b3d 5dd4 a13d 600b 313b
000001d0: e6ef 973d 6970 51bd a934 713c 519a 9c3d
000001e0: 92c9 51bc 8dbe 08bc 7706 783d 8c5f 883d
000001f0: 1dfc a03d 172d 853d b5bd d53c 3736 03bd
00000200: ebb9 ca3d 7416 8dbc c520 703d 1930 b7bc
00000210: 658d 0d3d 798a 74bc 6304 9f3c 0af1 24bd
00000220: 83a6 f73c f9c5 5dbd a2e8 cc3c e516 98bb
00000230: a905 9e3b a22c e23d 328f b13d 12b5 d13d
00000240: cede 48bd 9899 823d 3696 b53d 1b2b 0a3d
00000250: 780e 653b 49e2 aa3d 5adc 84bd 9137 de3c
00000260: 9bca c43c 6b3e b43d 166d efbc 0be9 a53d
00000270: 4c74 29bd 08a3 233d b3b7 7b3c 8c09 cb3c
00000280: ccae 3a3c bcfd 5bbd 78f7 623d bac7 ab3d
00000290: 05ad 5e3d 2e01 9e3d 9671 073d e1b4 ba3c
000002a0: 8dbe 47bd 37ed fd3c dfda 46bd 5ebe 4abd
000002b0: 6466 bbbc 0d1b b53d 5ad9 c73d d553 b53c
000002c0: 0a7d 143d 4a93 2cbd 7e33 69bd d853 c0bc
000002d0: e600 70bd 7f9f 2f3d 8259 2ebd 17b0 523d
000002e0: e76f ba3d ce75 57bc 3f6b ac3d 7cf2 a43c
000002f0: 9d2e 49bd 4e02 633d 25a1 06bd fa0e 8a3d
00000300: b042 d63d d1d3 64bd 34d7 d43d 16ab f2bb
00000310: 4cf2 613c 58c2 babc fd6e b63d c283 ca3d
00000320: d543 5a3d eecf f83c 5a0e 75bd 99da 293c
00000330: 3780 313d 0d69 843d bb6b be3c 73cf 8e3d
00000340: d980 67bc ed8b 4dbd 3ec0 15bd 1b1b 4dbd
00000350: ff2f 1bbd b3b3 3bbc c45f 733d bc1a cf3d
00000360: f9e5 743d 9ec7 a2bd f357 9d3d 2cf1 eb3b
00000370: 0d5b 303d cd1d 31bd a9f0 af3c cb0b e5bb
00000380: 946f fa3c 5313 1abd 51d2 07bd 3e4c c83d
00000390: 8ba8 513d 75db dd3c 5a4b 503d 58dc 3b3d
000003a0: 2825 a83c 861b 8c3d 7614 d23d fd91 83bb
000003b0: 892c 8c3d 9705 a83d 681d 953d 12a7 433d
000003c0: cd7c 873d 222b a63c b36e 91ba f53b 243d
000003d0: 817a b53d 48bb f23c b23e 64bd 829b 6c3d
000003e0: 32ba 6dbd 87ba 9abc 0be1 563c 994f fa3c
000003f0: 8a1a 79bc 42c3 abbc 0636 c8bc 897f 34bd

lstm.bias_hh_l0 f4 [512]
0.07353336 -0.06264419 -0.062832735 -0.02354077 0.094774835 0.009060849 0.025461935 0.08503091
-0.056518365 -0.051305138 0.032276135 -0.04605024 0.0479273 0.05416809 0.079723746 0.09930937
-0.026742624 -0.013352609 0.017304415 0.019077158 -0.029064434 0.03923524 0.06784191 -0.058701735
0.055337753 -0.042595934 0.06125566 -0.033767827 -0.028365104 0.040858537 0.013647362 -0.035317615
0.055256013 -0.06365405 -0.030648991 0.044210054 -0.025394931 -0.059258044 0.0010616134 0.0035837742
-0.026394961 -0.057181966 0.021975141 -0.046578187 0.024363438 -0.000325373 -0.04532538 0.08689698
0.0016575599 0.0768061 -0.047091506 -0.063167326 0.012001488 0.08054834 -0.022038838 0.065109916
0.100329116 -0.007408514 0.06740023 0.044269606 -0.011574296 0.030203681 0.047904268 -0.04431974
0.100733824 0.020761508 0.020838924 -0.06170127 -0.0034555169 -0.061645318 0.048521467 0.04767725
-0.0708852 0.04363799 -0.0032313303 -0.019220145 0.063779734 0.06412475 0.05920735 0.015743338
-0.027458373 0.038990904 -0.04860901 0.006936076 0.054799255 8.1980164e-05 -0.016696496 0.1036079
-0.014865743 -0.0072588907 -0.026283525 0.00682733 -0.058583498 -0.014819365 -0.004454567 0.01654438
-0.03523405 0.0637754 0.055877052 0.021332497 -0.034385554 0.07561615 0.050842404 -0.05433289
-0.03910789 0.0004666238 0.013331662 0.051343504 -0.061659005 0.08230243 0.021269249 -0.05518047
0.061861157 -0.050240453 0.009819931 -0.015917933 0.056351595 0.010284212 -0.04272242 0.0917832
0.10168349 0.05351168 -0.049088597 -0.04736914 0.09436237 0.071460806 0.053252008 0.012202502
0.085773245 0.039078824 -0.017821793 -0.05424771 -0.004423447 -0.008032455 0.047260694 0.057732243
-0.044534214 -0.04507205 -0.04129912 0.041401535 0.07508416 0.073882066 0.09235038 0.09237736
-0.019658046 0.043547347 0.049342617 -0.032799277 0.018036153 -0.03204932 -0.06378061 0.03358384
0.06602079 -0.062551565 0.077853434 0.0068790624 0.091776036 0.030926075 0.0074944794 -0.014297587
0.054804377 -0.00019487612 -0.014586531 0.06262372 0.089601204 -0.035557963 0.029912699 0.021493297
-0.030806994 -0.056187697 0.020269463 0.010252906 0.026799096 -0.022543352 0.012937859 0.03629861
-0.01626549 0.03602408 0.042305283 0.0014950555 0.07134239 0.057167906 0.005440089 -0.038162604
0.060541883 -0.009689787 0.030149119 0.060079146 0.09020229 0.083181456 -0.07430879 0.03213665
0.05681461 -0.038102932 -0.03997137 0.048455153 -0.011522129 0.108676486 -0.057715755 0.103545785
-0.013414833 -0.03462447 0.032196134 -0.024588324 0.04103335 -0.069197945 -0.03869714 0.05161125
0.068347365 -0.0031943673 0.09738343 -0.038346466 -0.032731332 -0.066095635 0.08697348 0.06964875
-0.005808086 0.018349664 0.03204996 0.087538436 0.014176954 0.01226356 0.024003768 -0.030218476
0.057789676 -0.005279783 0.07159018 -0.0061657294 -0.022610473 0.1011135 0.084473066 0.04425
0.108235225 -0.054983053 0.09931302 0.05633053 0.029857805 -0.06636501 0.050333817 0.04941765
-0.063341506 -0.009973631 0.08671271 0.08841762 0.0076127215 -0.0548511 -0.014925932 0.016141878
-0.027914654 -0.01908589 -0.025973244 0.019304642 0.008188582 0.09397297 0.0049873726 -0.0386006
00000000: a998 963d 994b 80bd 73ae 80bd 93d8 c0bc
00000010: 4f19 c23d f573 143c 8c95 d03c b024 ae3d
00000020: cd7f 67bd 5625 52bd fb33 043d 2d9f 3cbd
00000030: 6b4f 443d 5cdf 5d3d 3446 a33d b662 cb3d
00000040: 5913 dbbc e7c4 5abc fdc1 8d3c b347 9c3c
00000050: 8918 eebc 22b5 203d b3f0 8a3d 3b71 70bd
00000060: d7a9 623d 1379 2ebd 37e7 7a3d 2250 0abd
00000070: ef5d e8bc 485b 273d 2f99 5f3c 34a9 10bd
00000080: 2154 623d 0e5d 82bd 9813 fbbc 9a15 353d
00000090: 0809 d0bc 90b8 72bd d625 8b3a c1dd 6a3b
000000a0: 3f3a d8bc a337 6abd 3605 b43c c5c8 3ebd
000000b0: d595 c73c d396 aab9 1ba7 39bd 0bf7 b13d
000000c0: 7b42 d93a 844c 9d3d 06e3 40bd df5d 81bd
000000d0: e4a1 443c 87f6 a43d cb8a b4bc 5958 853d
000000e0: 5a79 cd3d 1fc3 f2bb 2209 8a3d 0c54 353d
000000f0: 1ea2 3dbc b66d f73c 4437 443d 9e88 35bd
00000100: 894d ce3d 0a14 aa3c 64b6 aa3c 79ba 7cbd
00000110: f475 62bb cd7f 7cbd 72be 463d 3849 433d
00000120: 422c 91bd c0bd 323d bac4 53bb 9173 9dbc
00000130: f39e 823d d653 833d 6883 723d 2cf8 803c
00000140: 62f0 e0bc edb4 1f3d 3e1a 47bd 0648 e33b
00000150: 2f75 603d c4ec ab38 17c7 88bc 6130 d43d
00000160: 728f 73bc fddb edbb 8c50 d7bc ccb7 df3b
00000170: 40f5 6fbd eccc 72bc 9ef7 91bb 1488 873c
00000180: 9451 10bd ad9c 823d 56df 643d 7dc1 ae3c
00000190: ded7 0cbd a4dc 9a3d 2040 503d 2a8c 5ebd
000001a0: 982f 20bd 30a5 f439 0b6d 5a3c 914d 523d
000001b0: 278e 7cbd 2d8e a83d d93c ae3c eb04 62bd
000001c0: 2062 7d3d efc8 4dbd c7e3 203c 5366 82bc
000001d0: eed0 663d 1d7f 283c b4fd 2ebd d5f8 bb3d
000001e0: 6f3f d03d 102f 5b3d 2011 49bd 2506 42bd
000001f0: 0f41 c13d 0b5a 923d c71e 5a3d 01ed 473c
00000200: e2a9 af3d 1e11 203d 02ff 91bc d932 5ebd
00000210: 90f2 90bb 8f9a 03bc 6e94 413d a578 6c3d
00000220: 8269 36bd 789d 38bd 4429 29bd a894 293d
00000230: b9c5 993d 7b4f 973d 3222 bd3d 5730 bd3d
00000240: e909 a1bc b45e 323d 7c1b 4a3d 8958 06bd
00000250: 8ec0 933c 2646 03bd 699f 82bd 358f 093d
00000260: e835 873d 091b 80bd 9f71 9f3d c269 e13b
00000270: 13f5 bb3d ae58 fd3c 4094 f53b 6d40 6abc
00000280: 8e7a 603d a957 4cb9 58fc 6ebc dd40 803d
00000290: d680 b73d 3aa5 11bd 7a0b f53c b612 b03c
000002a0: f35e fcbc 1225 66bd 250c a63c cefb 273c
000002b0: c789 db3c d6ac b8bc 50f9 533c daad 143d
000002c0: 343f 85bc fc8d 133d 4e48 2d3d bdf5 c33a
000002d0: f51b 923d e528 6a3d c642 b23b 6450 1cbd
000002e0: c4fa 773d eac1 1ebc 49fb f63c 8d15 763d
000002f0: fabb b83d 0a5b aa3d 352f 98bd b8a1 033d
00000300: 70b6 683d d211 1cbd 05b9 23bd e978 463d
00000310: 50c7 3cbc c791 de3d 5b67 6cbd d00f d43d
00000320: e3c9 5bbc 63d2 0dbd 18e0 033d 746d c9bc
00000330: 9612 283d a7b7 8dbd e480 1ebd 5166 533d
00000340: b4f9 8b3d 9758 51bb f770 c73d 2f11 1dbd
00000350: 4a11 06bd 265d 87bd 271f b23d 01a4 8e3d
00000360: c251 bebb 0952 963c d246 033d 5a47 b33d
00000370: 7446 683c 19ed 483c 8da3 c43c bd8c f7bc
00000380: deb4 6c3d 0802 adbb df9d 923d e309 cabb
00000390: 9939 b9bc 9814 cf3d 3700 ad3d 7d3f 353d
000003a0: 6eaa dd3d e935 61bd a064 cb3d d8ba 663d
000003b0: 5b98 f43c 61ea 87bd d52a 4e3d 296a 4a3d
000003c0: 31b9 81bd 7168 23bc 6f96 b13d 4c14 b53d
000003d0: 2374 f93b 8cab 60bd e58b 74bc f93b 843c
000003e0: 46ad e4bc 035a 9cbc d7c5 d4bc c524 9e3c
000003f0: 6729 063c e774 c03d 1d6d a33b aa1b 1ebd

lstm.weight_ih_l1 f4 [512, 128]
0.075928316 0.020978315 0.051896017 0.0041073184 -0.00069596287 -0.012590637 -0.007015513 -0.041549377
-0.0062275226 0.085946985 0.04655449 -0.008840237 -0.031870965 0.074041285 -0.06296041 -0.05875878
-0.014590658 -0.08151428 -0.01674526 0.024511538 -0.04206635 0.014555939 0.01652539 0.010926704
0.07556593 -0.0015360449 -0.04559026 0.05120199 -0.030047556 0.026326811 0.05006446 -0.028469918
-0.053447682 -0.06475236 0.06695154 0.0051847617 0.07974283 -0.009145514 -0.018653765 0.04829251
0.08452243 0.04061883 -0.007510309 -0.037930634 -0.0235296 -0.013454164 0.07918275 0.09238102
0.042470265 -0.07912875 0.016287372 -0.0385361 0.059525143 0.08102958 0.041088592 0.03462815
-0.031270385 -0.07201579 0.028566306 -0.057382554 -0.04848939 0.056416985 0.01098085 0.04176465
0.057157844 -0.022670208 0.063637555 0.013303839 -0.056029335 -0.044241805 0.010739862 -0.07925754
-0.0065421867 0.019411739 -0.004891814 -0.032158107 0.07475442 0.008438307 -0.038501453 -0.03567553
-0.045821894 -0.044406578 -0.033470105 -0.00867029 0.04196962 0.0068822596 -0.09153764 0.057624552
0.013825111 0.044001017 0.040726684 0.07975439 -0.03467871 0.08257265 -0.06084053 -0.0310499
-0.05349582 -0.05999448 0.03741406 0.015814863 0.04755817 -0.006245084 0.021171108 0.02500066
0.033830196 -0.056640334 -0.013107758 -0.056679897 0.07368062 -0.06324731 -0.032283466 0.073387235
0.010163558 -0.047255773 -0.014498225 0.014682169 -0.05201476 0.0062614665 -0.011883409 -0.02921254
-0.08346742 0.018204791 -0.019913705 0.08850468 0.074181475 -0.039985705 -0.028486932 -0.036860876
0.016832385 -0.041806687 0.054959677 -0.046875242 0.013195099 -0.06585177 -0.022521675 -0.014477569
-0.00074256066 -0.003964738 0.067853354 -0.004092221 0.021595836 0.03485331 -0.05952373 -0.06441286
-0.012068443 0.0022016037 0.014047316 0.07427228 -0.060426354 -0.004854231 0.038878743 0.03650973
0.051142387 -0.04849993 0.004375804 0.0033015164 0.07139134 -0.047415737 -0.049773484 0.046249688
0.012297337 -0.034386545 0.0059696697 0.049264967 -0.0072966293 0.037482597 -0.045660477 -0.032087665
0.010390548 0.00057045 -0.0083266385 0.050202545 -0.047114078 0.017931212 0.06474635 -0.027393188
0.05165644 -0.07121411 0.053960193 -0.039925843 0.011328011 0.005635419 0.02370291 0.04192357
-0.046064407 -0.022258097 0.0001008254 0.07591086 -0.015437178 0.015376145 0.042457163 -0.037642922
0.06796549 -0.07245038 -0.008499603 0.024205731 0.05033239 0.02577506 0.006765822 -0.054140806
0.06416924 0.02893445 0.014563854 -0.016534995 0.04637819 -5.700578e-05 -0.018325381 -0.008536875
-0.023688652 0.015400978 -0.015307647 0.008519801 0.026225897 0.01206422 -0.022643492 0.017432274
0.020388085 -0.014838844 -0.05201355 0.02731439 0.0062339758 0.0019857252 0.04894495 -0.05549142
0.068706326 0.0664905 0.034080796 0.030043038 -0.038659893 -0.00737611 0.02561524 0.007717403
-0.05651195 0.027356358 0.07316573 -0.008956425 -0.009554325 0.058405124 0.024044044 0.008324714
0.00835645 0.0055913255 0.0010912768 -0.026643116 0.045413014 -0.038449377 0.04258875 0.015569245
-0.016011905 0.018743064 -0.04200547 0.0075544417 0.0116637945 0.0038420965 0.039666142 -0.0272848
00000000: 4e80 9b3d b7da ab3c eb90 543d af96 863b
00000010: 4771 36ba f648 4ebc 63e2 e5bb ae2f 2abd
00000020: 3f10 ccbb f904 b03d ecaf 3e3d a4d6 10bc
00000030: 218b 02bd f5a2 973d 63f1 80bd 0cad 70bd
00000040: a80d 6fbc f5f0 a6bd 5b2d 89bc 6ccc c83c
00000050: c44d 2cbd 087c 6e3c 4160 873c eb05 333c
00000060: 4fc2 9a3d 1d55 c9ba dabc 3abd 2eb9 513d
00000070: 4b26 f6bc 53ab d73c 6410 4d3d bf39 e9bc
00000080: f5eb 5abd e39c 84bd e41d 893d efe4 a93b
00000090: 3550 a33d 11d7 15bc c8cf 98bc 5ece 453d
000000a0: 191a ad3d ee5f 263d 0a19 f6bb 275d 1bbd
000000b0: 26c1 c0bc db6e 5cbc 912a a23d 4332 bd3d
000000c0: 4df5 2d3d 410e a2bd 186d 853c 08d8 1dbd
000000d0: a3d0 733d d6f2 a53d 834c 283d 3fd6 0d3d
000000e0: 6015 00bd 047d 93bd e303 ea3c f809 6bbd
000000f0: d09c 46bd 7f15 673d 06e9 333c 6911 2b3d
00000100: 581e 6a3d dfb6 b9bc 6854 823d 58f8 593c
00000110: 047f 65bd e536 35bd 3ff6 2f3c c751 a2bd
00000120: d75f d6bb 5e05 9f3c 834b a0bb 38b8 03bd
00000130: d818 993d d340 0a3c b3b3 1dbd 8120 12bd
00000140: bdaf 3bbd ace3 35bd f317 09bd d50d 0ebc
00000150: 56e8 2b3d 9484 e13b 1678 bbbd b907 6c3d
00000160: b882 623c 693a 343d 06d1 263d 4556 a33d
00000170: 430b 0ebd d91b a93d eb33 79bd 5c5c febc
00000180: 6f1e 5bbd c6bc 75bd 7c3f 193d 2c8e 813c
00000190: 5bcc 423d 90a3 ccbb 086f ad3c 2fce cc3c
000001a0: 8891 0a3d b2ff 67bd ecc1 56bc 2e29 68bd
000001b0: dde5 963d ce87 81bd ab3b 04bd 0c4c 963d
000001c0: 0d85 263c 458f 41bd f789 6dbc 7b8d 703c
000001d0: 6e0d 55bd fd2c cd3b a1b2 42bc 234f efbc
000001e0: f7f0 aabd 3722 953c 1122 a3bc f141 b53d
000001f0: 75ec 973d 0dc8 23bd 6d5d e9bc 6efb 16bd
00000200: 12e4 893c 7d3d 2bbd 661d 613d 4100 40bd
00000210: 4230 583c 4bdd 86bd 607f b8bc 5333 6dbc
00000220: 67a8 42ba a2ea 81bb b3f6 8a3d 0a18 86bb
00000230: c0e9 b03c 58c2 0e3d 28cf 73bd e4ea 83bd
00000240: b8ba 45bc c848 103b b726 663c 111c 983d
00000250: a081 77bd 3e10 9fbb 513f 1f3d 3a8b 153d
00000260: ae7a 513d dda7 46bd e862 8f3b 415e 583b
00000270: 9f35 923d 0137 42bd 48df 4bbd 5070 3d3d
00000280: c57a 493c e8d8 0cbd 389d c33b 10ca 493d
00000290: 9018 efbb 5a87 193d 7b06 3bbd 5b6e 03bd
000002a0: 1e3d 2a3c 408a 153a 746c 08bc 2fa1 4d3d
000002b0: b1fa 40bd 7ae4 923c bc99 843d ae67 e0bc
000002c0: b495 533d b4d8 91bd 5d05 5d3d 4889 23bd
000002d0: 1f99 393c 52a9 b83b 9b2c c23c 0db8 2b3d
000002e0: 08ae 3cbd 9d56 b6bc 3972 d338 2777 9b3d
000002f0: 38ec 7cbc 3aec 7b3c 90e7 2d3d 772f 1abd
00000300: 7e31 8b3d dd60 94bd eb41 0bbc 194b c63c
00000310: 5629 4e3d 3826 d33c d4b3 dd3b c0c2 5dbd
00000320: 2a6b 833d f107 ed3c 3b9d 6e3c 6674 87bc
00000330: 0ff7 3d3d 7d19 6fb8 1c1f 96bc 40de 0bbc
00000340: b40e c2bc 6254 7c3c edcc 7abc a396 0b3c
00000350: b1d7 d63c 02a9 453c d87e b9bc 21ce 8e3c
00000360: ea04 a73c 9f1e 73bc 290c 55bd 6dc2 df3c
00000370: 6146 cc3b f122 023b 807a 483d f94a 63bd
00000380: e7b5 8c3d 2c2c 883d 4e98 0b3d d11c f63c
00000390: d659 1ebd 4cb3 f1bb 0dd7 d13c 45e2 fc3b
000003a0: 1379 67bd 711a e03c ead7 953d f8bd 12bc
000003b0: be89 1cbc 363a 6f3d 04f8 c43c 6264 083c
000003c0: 7ee9 083c 7037 b73b 2c09 8f3a aa42 dabc
000003d0: ff02 3a3d 187d 1dbd 8b71 2e3d 2616 7f3c
000003e0: 662b 83bc 0e8b 993c ed0d 2cbd 408b f73b
000003f0: 8019 3f3c afcb 7b3b f778 223d 5f84 dfbc

lstm.weight_hh_l1 f4 [512, 128]
-0.028178789 -0.07445254 -0.07119459 0.09619672 -0.031173566 0.032465298 -0.082740575 -0.031011403
0.017466435 0.006959615 0.08954126 0.034724932 -0.0064307735 0.058406066 -0.009731922 0.05472614
-0.043652054 -0.02897069 -0.038046166 0.029759075 0.07150968 0.014861848 -0.035096053 -0.018112605
-0.04403895 0.03588676 0.011657432 0.032310374 -0.07790695 0.017526906 0.039201494 -0.033181425
-0.006205929 0.047440022 0.005868863 0.04488364 -0.02958688 -0.08009101 -0.05922396 0.023398807
0.07192009 0.065390855 -0.014181456 -0.02210655 -0.035564587 -0.02081562 -0.04915979 0.008082529
-0.01487496 0.007402308 -0.07050374 0.010916123 0.04391833 -0.006000312 0.047149446 0.0020221618
0.022264317 -0.016503492 -0.056151684 -0.068293855 0.06661834 -0.053370897 0.035975244 -0.025055207
-0.040900424 0.069596425 0.053706236 0.051816907 0.038900983 -0.012261411 -0.01893517 -0.023951776
0.07097495 0.058274094 0.060070936 -0.04964885 0.059170693 0.05106815 0.03574362 0.055457413
-0.0050082253 0.08507136 -0.021205237 0.061817367 -0.052796703 0.03554415 -0.015326364 -0.07428224
0.040987067 0.03060205 -0.022210581 -0.06521619 -0.0627512 -0.004698547 0.027267281 0.00012817368
0.0922177 -0.013827626 0.016199345 -0.009463088 -0.0569414 0.025823638 -0.015756544 0.04939159
-0.0061245915 -0.0057435483 -0.07592326 0.024689024 0.053070568 0.04653667 -0.061174117 -0.083893664
0.0022553597 0.029647943 0.065360844 0.050663013 -0.047100592 0.022572553 0.0938366 0.017165164
0.0020891055 -0.022269564 -0.07081936 0.0026927793 -0.020563921 -0.01532689 -0.02897731 0.03176949
-0.070263594 0.0062315855 -0.003842673 -0.040487852 0.036835846 -0.023320364 -0.048284896 0.037338927
-0.03699714 0.005143292 0.03552041 0.010567678 -0.06908432 0.0069357324 0.011246791 -0.025649175
0.045777418 -0.055359814 -0.04891562 -0.0024820683 -0.0024096637 -0.017711904 0.015803723 -0.02506439
-0.033078887 -0.0072319293 0.00847567 0.0105628595 -0.057470713 0.003933714 0.009386964 -0.019119108
3.944576e-05 0.009184955 0.02482223 -0.018080711 0.06813625 0.05651568 -0.074540876 -0.011930537
-0.03324043 0.07661087 -0.07759406 -0.039587084 0.0030566168 0.027259056 -0.07991268 -0.07972549
0.008685696 -0.08129476 -0.05371361 0.06169471 -0.011085324 -0.007216537 -0.08319895 0.034720447
-0.055585664 0.03550809 -0.048394255 0.027859649 0.045881066 0.019739911 -0.0046413266 -0.02866113
0.05803388 0.05130189 -0.0026190751 0.0015391982 -0.061113868 -0.021691704 0.07146215 -0.0689574
-0.012235181 -0.052676767 0.012751659 0.011336722 -0.040508784 0.082392275 -0.053186037 -0.0601383
0.028024035 0.0662277 0.045992617 -0.028736778 -0.0051579503 -0.045942124 0.025408057 -0.022933682
-0.030433487 -0.004419074 0.013060226 0.056274064 -0.07357272 -0.03977389 0.06374762 -0.0061181933
-0.020816663 0.0459209 0.009379121 -0.05045338 -0.048884112 -0.020811755 -0.00960247 0.06740262
-0.014193721 0.069385886 0.022042561 0.019107252 0.0646347 0.05111278 -0.059881892 0.036772322
0.04492853 0.06985321 -0.011740773 -0.07264744 0.059947945 0.017608168 -0.04672564 -0.030225292
0.0039197905 0.030431848 -0.08378351 0.020478768 0.042087667 0.010834484 -0.010339221 0.005174793
00000000: 34d7 e6bc 937a 98bd 78ce 91bd c902 c53d
00000010: b55f ffbc 55fa 043d e473 a9bd a00b febc
00000020: c515 8f3c 7b0d e43b 6861 b73d bb3b 0e3d
00000030: 3db9 d2bb 333b 6f3d a472 1fbc 8428 603d
00000040: 7fcc 32bd f153 edbc 4cd6 1bbd 4ec9 f33c
00000050: ab73 923d 1c7f 733c e1c0 0fbd e360 94bc
00000060: 3062 34bd fffd 123d d0fe 3e3c e257 043d
00000070: ae8d 9fbd 9694 8f3c bf91 203d 3fe9 07bd
00000080: 1b5b cbbb 7850 423d 974f c03b e8d7 373d
00000090: 2f60 f2bc c106 a4bd d394 72bd dbae bf3c
000000a0: d74a 933d a4eb 853d 5659 68bc cc18 b5bc
000000b0: 2cac 11bd 8585 aabc c75b 49bd 956c 043c
000000c0: 1bb6 73bc 0f8f f23b 4464 90bd 8ad9 323c
000000d0: b5e3 333d 449e c4bb c71f 413d 3f86 043b
000000e0: a863 b63c 5532 87bc 4fff 65bd a6dd 8bbd
000000f0: 326f 883d 719b 5abd c75a 133d 9440 cdbc
00000100: 3487 27bd 9288 8e3d 12fb 5b3d f73d 543d
00000110: a356 1f3d 16e4 48bc ee1d 9bbc 8436 c4bc
00000120: 515b 913d d1b0 6e3d f10c 763d 985c 4bbd
00000130: f85c 723d d62c 513d e767 123d 5027 633d
00000140: 0a1c a4bb e539 ae3d 9bb6 adbc 3534 7d3d
00000150: 5b41 58bd be96 113d 6e1b 7bbc 4921 98bd
00000160: 0ee2 273d 26b1 fa3c f7f2 b5bc 1190 85bd
00000170: b383 80bd 45f6 99bb a25f df3c 5c66 0639
00000180: a2dc bc3d 448d 62bc 7db4 843c 110b 1bbc
00000190: 633b 69bd 188c d33c de13 81bc d64e 4a3d
000001a0: ccb0 c8bb 6034 bcbb a77d 9bbd a340 ca3c
000001b0: 8660 593d 3c9d 3e3d b691 7abd 71d0 abbd
000001c0: a8ce 133b 3ee0 f23c e8db 853d 0584 4f3d
000001d0: 8dec 40bd 13ea b83c 672d c03d f59d 8c3c
000001e0: 60e9 083b a96e b6bc be09 91bd 5779 303b
000001f0: ab75 a8bc a31d 7bbc d361 edbc ba20 023d
00000200: 5ce6 8fbd 5432 cc3b 5bd5 7bbb 97d6 25bd
00000210: 2fe1 163d 590a bfbc 62c6 45bd b4f0 183d
00000220: 508a 17bd 0f89 a83b d97d 113d 0e24 2d3c
00000230: 147c 8dbd 2445 e33b 7644 383c 381e d2bc
00000240: 1a81 3b3d f9c0 62bd bf5b 48bd 32aa 22bb
00000250: 73eb 1dbb 8e18 91bc cf76 813c d653 cdbc
00000260: ba7d 07bd d2f9 ecbb 89dd 0a3c d80f 2d3c
00000270: 6966 6bbd 62e6 803b c8cb 193c ad9f 9cbc
00000280: 9072 2538 7e7c 163c fd57 cb3c 001e 94bc
00000290: 058b 8b3d fc7c 673d e3a8 98bd 4d78 43bc
000002a0: 1e27 08bd 29e6 9c3d a2e9 9ebd 1126 22bd
000002b0: 8551 483b 624e df3c 42a9 a3bd 1e47 a3bd
000002c0: 734e 0e3c de7d a6bd cd02 5cbd 98b3 7c3d
000002d0: 389f 35bc b378 ecbb 3664 aabd 0737 0e3d
000002e0: cbad 63bd ee70 113d 0e39 46bd eb39 e43c
000002f0: c9ed 3b3d 98b5 a13c 4516 98bb bfca eabc
00000300: efb4 6d3d ee21 523d caa4 2bbb ecbe c93a
00000310: 8952 7abd cdb2 b1bc bf5a 923d 8a39 8dbd
00000320: 1276 48bc 98c3 57bd 56ec 503c a9bd 393c
00000330: 8aec 25bd 48bd a83d 9ad9 59bd 9453 76bd
00000340: a992 e53c 63a2 873d c162 3c3d 6469 ebbc
00000350: 0604 a9bb cf2d 3cbd 8f24 d03c 6bdf bbbc
00000360: a64f f9bc e1cd 90bb 8ffa 553c a27f 663d
00000370: 4bad 96bd f2e9 22bd 1d8e 823d 207b c8bb
00000380: b587 aabc 8e17 3c3d e2aa 193c 34a8 4ebd
00000390: b53a 48bd 6a7d aabc ae53 1dbc 630a 8a3d
000003a0: c88c 68bc 301a 8e3d 9a92 b43c d086 9c3c
000003b0: 335f 843d a25b 513d b746 75bd 939e 163d
000003c0: fa06 383d 330f 8f3d 5f5c 40bc 2ec8 94bd
000003d0: fa8b 753d 013f 903c 6263 3fbd 089b f7bc
000003e0: 9671 803b 364c f93c b096 abbd 17c3 a73c
000003f0: 1e64 2c3d 1f83 313c d665 29bc 4f91 a93b
